StudentP/checkpoints/stp-epoch=09-val_f1=0.96.ckpt (torch, 224736 bytes, 76 tensors)

model.fc.0.weight f4 [128, 33]
0	0x3d76285b	0.06009708
1	0x3e159a9a	0.14609757
2	0x3e523d4a	0.20531192
3	0x3b9f5ca7	0.00486334
4	0xbe36c279	-0.17847623
5	0xbc559428	-0.0130358115
6	0x3e1bf0c3	0.15228562
7	0xbd86bdb2	-0.0657915
8	0xbe14819e	-0.1450257
9	0xbdf01822	-0.11723353
10	0x3c5374b5	0.012906243
11	0x3d8234ae	0.06357704
12	0xbc1862b7	-0.009300879
13	0x3df0f2a3	0.11765029
14	0xbd1ef6cf	-0.038809594
15	0xbdd26ada	-0.102742866
16	0xbdaf6817	-0.085647754
17	0xbb8a9cce	-0.0042301184
18	0xbd3ec07c	-0.046570286
19	0xbd81b8a2	-0.06334044
20	0xbe08c3e4	-0.13355976
21	0xbdec4635	-0.115368284
22	0xbdf611db	-0.120151244
23	0xbd00d94f	-0.03145724
24	0xbd86acf7	-0.06575959
25	0xbce2f5e2	-0.027705137
26	0x3ded65a5	0.11591653
27	0x3c8216f0	0.015880078
28	0x3daef379	0.085425325
29	0xbe2732d7	-0.16327988
30	0x3d89ca80	0.06728077
31	0x3b6cd13e	0.003613546
32	0x3dffad6a	0.12484248
33	0xbd492896	-0.04911097
34	0x3c5b41ef	0.013382419
35	0xbe9d4a23	-0.30720624
36	0xbd626e09	-0.05528072
37	0x3da9c704	0.08289912
38	0xbddb9188	-0.10721117
39	0x3d6114cd	0.054951478
40	0x3cc3d679	0.02390598
41	0xbdbb8daa	-0.0915788
42	0xbd87533b	-0.06607672
43	0xbd08e41d	-0.03342067
44	0xbd9f35a0	-0.077739
45	0x3d876466	0.06610946
46	0xbd632d29	-0.05546299
47	0xbe0cca6e	-0.13749096
48	0xbd81a8e4	-0.063310415
49	0x3c91d774	0.017802931
50	0xbddb3561	-0.107035406
51	0x3beeecc6	0.007291409
52	0xbdad6fca	-0.08468588
53	0xbc8d6228	-0.017258719
54	0x3c59f9a3	0.013304147
55	0x3da9e4c2	0.08295585
56	0x3db55f79	0.088561006
57	0x3b144d22	0.0022628983
58	0xbce8ca44	-0.02841676
59	0xbb5d7abb	-0.0033795077
60	0xbd372164	-0.04470958
61	0x3cb222b1	0.021745058
62	0xbddf3798	-0.108992755
63	0xbdf1ad0f	-0.118005864
64	0xbd8d5d9f	-0.069026224
65	0xbdfbc2f3	-0.12293043
66	0x3def431a	0.116827205
67	0xbe1d77f8	-0.15377796
68	0xbe16504d	-0.1467907
69	0x3d62e86e	0.055397443
70	0x3d4844bf	0.048893686
71	0x3d824545	0.06360868
72	0xbc5d8a31	-0.013521717
73	0x3d3edb0c	0.046595618
74	0xbe1ce069	-0.1531998
75	0x3e0b3c03	0.13597111
76	0xbdc81e0c	-0.09771356
77	0x3e17cc03	0.14823918
78	0xbcd64e4e	-0.026160385
79	0x3cdffbdb	0.027341774
80	0x3da15e3b	0.07879301
81	0x3e0484cc	0.12941283
82	0x3db2a2c5	0.08722452
83	0xbe376654	-0.17910129
84	0x3dd1a422	0.10236384
85	0xbd04fa5f	-0.032465335
86	0xbe2acb35	-0.1667908
87	0xbe1f902b	-0.1558234
88	0x3e113512	0.14180401
89	0xbdb7878f	-0.089614026
90	0xbd88c7e0	-0.06678748
91	0x3d6d62c8	0.057955533
92	0xbdb8d084	-0.09024146
93	0xbd996b0e	-0.07491122
94	0xbc56b652	-0.013104992
95	0xbdd0ec78	-0.10201353
96	0x3de9e572	0.11420716
97	0x3e236bac	0.15959042
98	0xbd54eef4	-0.051985696
99	0x3ce0e2c1	0.027451875
100	0x3d611e9f	0.054960843
101	0xbe89640b	-0.2683414
102	0x3d976c39	0.07393689
103	0xbcc04e40	-0.023474813
104	0x3d23c468	0.03998223
105	0x3e0a10a5	0.13482912
106	0xbd40b066	-0.047043227
107	0xbc8474d2	-0.016168986
108	0x3d8dc55e	0.069224104
109	0x3e1bd0df	0.15216397
110	0xbd3c68b7	-0.0459983
111	0xbbd0c166	-0.006370711
112	0xbda2f1b0	-0.079562545
113	0xbe1174fd	-0.14204784
114	0xbe0d017f	-0.13770102
115	0xbd385b88	-0.045009166
116	0xbcbd661c	-0.023119979
117	0x3d3cda8e	0.046106867
118	0x3d7a9778	0.061179608
119	0x3dbd78f4	0.092515856
120	0x3d3e0402	0.04639054
121	0x3bf6e245	0.0075342976
122	0x3d8b555d	0.06803391
123	0x3db41511	0.087930806
124	0x3ce145b1	0.027499052
125	0xbc5d77da	-0.013517344
126	0x3d403f56	0.0469354
127	0x3dfa435b	0.12219878
128	0xbd5fd4cc	-0.0546463
129	0xbd4ad708	-0.049521476
130	0x3d9bb05f	0.076019995
131	0x3d131922	0.03591264
132	0xbe2eaf26	-0.17059001
133	0xbdcbfe75	-0.09960643
134	0x3d40fd22	0.047116406
135	0xbe20be4d	-0.15697594
136	0x3d8b727f	0.06808948
137	0xbe32b82e	-0.17453071
138	0xbe02f6fd	-0.12789531
139	0x3d81073f	0.0630021
140	0x3d7f1e8b	0.062284987
141	0x3dd5ff9c	0.10449144
142	0x3d9d6b3f	0.07686471
143	0xbde38d26	-0.11110906
144	0x3e228b8f	0.1587355
145	0x3e18a3f5	0.14906295
146	0x3d8ba3b5	0.06818334
147	0x3e1ddebd	0.15416999
148	0xbddc988e	-0.10771285
149	0xbbf7021b	-0.007538093
150	0xbe232a24	-0.15934044
151	0xbdd755df	-0.105144255
152	0xbdd5fbc4	-0.10448411
153	0xbdc63d88	-0.09679705
154	0xbd04a582	-0.032384403
155	0xbd567b5a	-0.05236373
156	0xbe0ad3c7	-0.13557349
157	0xbd2fb335	-0.042895515
158	0x3e290f9a	0.16509858
159	0x3d76af8e	0.060226016
160	0xbdfb74bd	-0.122781254
161	0xbe1f18cf	-0.15536807
162	0xbdbdc064	-0.09265211
163	0x3d900a47	0.0703321
164	0x3db90429	0.090339966
165	0x3dda677c	0.10664269
166	0x3e14a494	0.14515907
167	0xbd3c261f	-0.045934793
168	0x3d181742	0.037131555
169	0xbd4763c9	-0.048679147
170	0xbd171a82	-0.036890514
171	0x3e1eb5b3	0.15499
172	0xbd4df50a	-0.050282516
173	0xbe2b6683	-0.16738324
174	0xbdabcbd3	-0.08388486
175	0x38ef8d1f	0.00011422694
176	0x3dbcb55f	0.09214281
177	0xbdc8cb51	-0.098044045
178	0x3da47a1b	0.08031102
179	0x3da3e411	0.080024846
180	0x3e378035	0.17920001
181	0xbe55a6c6	-0.208644
182	0x3cce851d	0.025209958
183	0xbd44184f	-0.047874745
184	0x3b78b6ce	0.0037950757
185	0xbdfaf8a8	-0.12254459
186	0x3e03bc39	0.1286477
187	0x3e16fc38	0.14744651
188	0x3da61afe	0.08110617
189	0xbd482815	-0.04886635
190	0xbd9bb398	-0.07602614
191	0xbca26a1b	-0.019825986
192	0x3df27a80	0.11839771
193	0x3c958476	0.018251639
194	0xbdeef578	-0.11667913
195	0x3e0263f9	0.12733449
196	0xbdf4ca88	-0.11952692
197	0x3d22dbe0	0.03976047
198	0x3d846e60	0.06466365
199	0xbe1a9379	-0.15095319
200	0x3dafc700	0.08582878
201	0xbe264d88	-0.16240513
202	0x3e0ebc40	0.13938999
203	0xbc38a755	-0.011270364
204	0x3d6bd643	0.057577383
205	0xbd4335a8	-0.047658592
206	0xbe3a60a7	-0.18200932
207	0xbdf164b3	-0.11786785
208	0x3e15f86f	0.14645551
209	0xbe25e60c	-0.16201037
210	0x3e22cf59	0.1589941
211	0x3d37a5d3	0.044835877
212	0xbd860625	-0.06544141
213	0x3dd3c378	0.10340017
214	0xbcf0ef54	-0.029410996
215	0x3e06fbb9	0.13181962
216	0xbdbdacb6	-0.092614576
217	0x3c5e056e	0.013551099
218	0xbdbf39bc	-0.09337184
219	0x3e068c27	0.13139401
220	0x3d170b8b	0.036876243
221	0xbc906eb0	-0.017630905
222	0x3d893810	0.06700146
223	0x3bdb6531	0.0066954126
224	0x3dea1eb4	0.114316374
225	0xbe0a0dfb	-0.13481896
226	0xbda28e4a	-0.07937296
227	0xbd3f5de5	-0.046720404
228	0x3dbd98f2	0.09257688
229	0x3de57f8e	0.1120597
230	0xbdf17f1e	-0.11791824
231	0x3dc4231b	0.09577008
232	0xbe02452a	-0.12721696
233	0x3e55908d	0.20855923
234	0xbd4536bc	-0.048147902
235	0x3d2477c7	0.04015329
236	0xbb39fccd	-0.002837944
237	0xb97d159b	-0.00024136009
238	0x3de0674c	0.10957202
239	0x3df4852e	0.119394645
240	0x3e0f87a8	0.14016593
241	0x3e0c0633	0.1367424
242	0xbdc2ecfa	-0.09517856
243	0x3ccbde58	0.024886295
244	0x3ded55b6	0.11588614
245	0x3d55ed3f	0.05222821
246	0x3c73911e	0.014866142
247	0x3d485e6d	0.048918176
248	0x3c6ba8e8	0.014383532
249	0x3ddbbbd9	0.107291885
250	0x3dc979ab	0.098376594
251	0x3cda4b07	0.026647104
252	0xbdd3954b	-0.1033121
253	0x3da181fe	0.07886122
254	0x3d4bc7fe	0.049751274
255	0x3d476adb	0.04868589

model.fc.0.bias f4 [128]
0	0xbe3765bb	-0.17909901
1	0x3e074801	0.13211061
2	0x3e09f5bd	0.13472648
3	0xbe224d47	-0.15849791
4	0x3d6e7078	0.058212727
5	0xbda853d7	-0.08219116
6	0x3b80c264	0.003929423
7	0xbd4eb81d	-0.050468553
8	0x3d6de81f	0.058082696
9	0xbe320f88	-0.17388737
10	0x3baf42c6	0.005348536
11	0xbdd66d02	-0.1047001
12	0x3da95cf1	0.0826968
13	0x3e1f1d9c	0.15538639
14	0xbe1bad9e	-0.15202948
15	0xbd535a58	-0.05159983
16	0x3d054033	0.03253193
17	0xbdce4d21	-0.10073305
18	0xbe196148	-0.14978516
19	0xbde29681	-0.110638626
20	0x3e1d3e41	0.15355779
21	0xba928e0e	-0.0011181252
22	0xbcf14490	-0.029451638
23	0xbe105778	-0.14095867
24	0xbd1ce7ce	-0.038307004
25	0xbe17c203	-0.14820103
26	0xbe2e5b99	-0.17027129
27	0x3d8ee450	0.06977141
28	0xbdf96acc	-0.12178573
29	0xbc9c31d7	-0.019066734
30	0x3ddd9488	0.10819346
31	0xba5665da	-0.0008178629
32	0x3d833bf0	0.064079165
33	0xbdac088d	-0.084000684
34	0xbe1f9227	-0.15583096
35	0x3dac180c	0.08403024
36	0x3dadfb0f	0.08495151
37	0x3e2d65e3	0.16933398
38	0x3d5cbccb	0.053890985
39	0x3e1e3169	0.15448536
40	0xbdd97e2b	-0.10619768
41	0x3dc0731f	0.093969576
42	0xbe06ca0c	-0.13163012
43	0xbd163d1d	-0.036679376
44	0xbe2d98d1	-0.16952826
45	0x3bd65a4f	0.0065415273
46	0xbda111d2	-0.07864727
47	0xbe1b8ac0	-0.15189648
48	0xbc8e9931	-0.017407032
49	0x3e034017	0.12817417
50	0xbe20dbe6	-0.15708885
51	0x3b887a6a	0.0041649835
52	0x3de24ab1	0.110494025
53	0xbde87564	-0.113505155
54	0x3c8b71ed	0.017022097
55	0xbd301afc	-0.042994484
56	0x3cc3b0b2	0.023887966
57	0x3b583c7e	0.003299504
58	0xbd86ccfe	-0.06582068
59	0xbdfdd253	-0.12393632
60	0xbdaeedbc	-0.08541438
61	0x3c5ad8d8	0.013357364
62	0xbddff8bc	-0.10936114
63	0xbd3e7469	-0.046497736
64	0xbb0d1b23	-0.0021531067
65	0x3d661c28	0.056179196
66	0x3c77b69b	0.01511922
67	0xbdc205e6	-0.09473781
68	0xbe193dea	-0.14965025
69	0xbd16e3a6	-0.036838196
70	0xbddaf196	-0.1069061
71	0xbd80f005	-0.0629578
72	0x3c87882a	0.01654442
73	0xbda621ed	-0.081119396
74	0x3e119cae	0.14219925
75	0x3df7b673	0.12095346
76	0x3e11c824	0.14236504
77	0xbe1ab505	-0.15108116
78	0xbcd37614	-0.02581314
79	0x3e08bc3d	0.13353057
80	0xbd730ec9	-0.059340272
81	0x3e1e5bc1	0.15464689
82	0x3e29718f	0.16547225
83	0x3e11f15e	0.1425223
84	0xbe18a477	-0.14906488
85	0x3bd1079b	0.0063790805
86	0x3cd0bfba	0.025482047
87	0x3d99862d	0.07496295
88	0x3d00485c	0.031319007
89	0xbe25d3f0	-0.16194129
90	0xbc254e83	-0.010089519
91	0xbe1f8180	-0.15576744
92	0x3c773b29	0.0150897885
93	0xbd657573	-0.05602021
94	0xbce5e43b	-0.02806293
95	0x3e185567	0.14876328
96	0x3c757b72	0.014983045
97	0x3cf31247	0.029671801
98	0xbce99335	-0.028512577
99	0x3d9a51c1	0.075351246
100	0xbd833695	-0.06406895
101	0xbe25a2f9	-0.1617545
102	0xbd2198f1	-0.039452497
103	0xbd0b2154	-0.03396733
104	0xbe049d33	-0.12950592
105	0xbd322b72	-0.043498464
106	0xbe05fc60	-0.13084555
107	0xbd8d6a40	-0.06905031
108	0xbd502f8f	-0.050826605
109	0x3d3a69a3	0.0455109
110	0x3deb8a14	0.11500946
111	0xbbacbec5	-0.005271765
112	0x3c31a267	0.010841942
113	0x3d35e834	0.0444109
114	0x3e08cd9e	0.13359687
115	0xbdf7635e	-0.120795
116	0x3e20a97f	0.15689658
117	0xbde76245	-0.1129804
118	0x3d8611d1	0.06546367
119	0x3e169ebb	0.14708988
120	0x3ce2e7f5	0.027698496
121	0xbdff4e23	-0.12466075
122	0xbd8e55c7	-0.069499545
123	0xbdecce7f	-0.115628235
124	0xbe077d50	-0.13231397
125	0x3d205b59	0.039149616
126	0x3c000e9a	0.007815981
127	0x3d542992	0.051797457

model.fc.1.weight f4 [128]
0	0x3f7738e1	0.96571165
1	0x3f85b8d7	1.0447034
2	0x3f7769ae	0.9664563
3	0x3f889d4f	1.0673007
4	0x3f75880d	0.9591072
5	0x3f6e31f0	0.9304495
6	0x3f7ecc6d	0.9953068
7	0x3f7db01e	0.9909686
8	0x3f73cc5e	0.95233715
9	0x3f79439c	0.9736879
10	0x3f7fad80	0.99874115
11	0x3f7d5ed1	0.98972803
12	0x3f747f2f	0.95506567
13	0x3f836441	1.026497
14	0x3f7bf8b0	0.9842634
15	0x3f7f9f4a	0.9985243
16	0x3f85c580	1.0450897
17	0x3f7b9752	0.9827777
18	0x3f7c2725	0.9849723
19	0x3f7a3fdf	0.9775371
20	0x3f82f4bf	1.023094
21	0x3f6cfe43	0.9257547
22	0x3f81b598	1.0133543
23	0x3f81146a	1.0084355
24	0x3f7af69a	0.98032534
25	0x3f6b4a44	0.91910195
26	0x3f835b9c	1.0262332
27	0x3f894de6	1.0726898
28	0x3f831664	1.0241208
29	0x3f8287e2	1.0197718
30	0x3f720852	0.94543946
31	0x3f755372	0.9583045
32	0x3f729939	0.9476505
33	0x3f805ea3	1.0028881
34	0x3f85bd67	1.0448426
35	0x3f7ab54a	0.97932875
36	0x3f7e0fb1	0.99242693
37	0x3f856329	1.0420886
38	0x3f7579eb	0.9588916
39	0x3f824691	1.0177785
40	0x3f82fe76	1.0233905
41	0x3f7f5f9d	0.9975527
42	0x3f6d35b7	0.9266009
43	0x3f772696	0.9654325
44	0x3f7df457	0.9920096
45	0x3f8476e6	1.0348785
46	0x3f7b1a66	0.98087156
47	0x3f720fbc	0.9455526
48	0x3f70f137	0.94118065
49	0x3f849917	1.0359219
50	0x3f72eb25	0.9489005
51	0x3f82c994	1.0217767
52	0x3f82db85	1.0223242
53	0x3f7aab4e	0.9791764
54	0x3f80d74b	1.0065702
55	0x3f7b61de	0.9819621
56	0x3f788864	0.97083116
57	0x3f80d0d6	1.0063732
58	0x3f729357	0.9475607
59	0x3f725bd8	0.9467139
60	0x3f79921f	0.9748859
61	0x3f7f65d5	0.9976476
62	0x3f870c7d	1.0550686
63	0x3f835060	1.0258904
64	0x3f748fca	0.95531905
65	0x3f775aff	0.96623224
66	0x3f7e5b09	0.9935766
67	0x3f798313	0.9746563
68	0x3f81287b	1.0090479
69	0x3f8270a3	1.0190624
70	0x3f80c8d7	1.0061291
71	0x3f817f08	1.0116892
72	0x3f7df028	0.99194574
73	0x3f7a1678	0.97690535
74	0x3f7d662f	0.98984045
75	0x3f71acd2	0.9440433
76	0x3f8691e2	1.051327
77	0x3f6efa72	0.933509
78	0x3f821f05	1.0165716
79	0x3f76cfcc	0.9641082
80	0x3f744c8a	0.9542929
81	0x3f845c27	1.0340623
82	0x3f7b0ce2	0.9806653
83	0x3f784bd5	0.9699071
84	0x3f82663f	1.0187453
85	0x3f7d4a6f	0.989417
86	0x3f87c916	1.0608242
87	0x3f75c09c	0.95997024
88	0x3f7c1bb4	0.9847977
89	0x3f8243b6	1.0176914
90	0x3f7cb266	0.98709714
91	0x3f804e4d	1.0023896
92	0x3f83cff6	1.029784
93	0x3f835131	1.0259153
94	0x3f785d1e	0.97017086
95	0x3f7b06c2	0.98057187
96	0x3f879a6d	1.0594002
97	0x3f77118d	0.96511155
98	0x3f7ee294	0.9956448
99	0x3f80a9fc	1.0051875
100	0x3f756caa	0.95868933
101	0x3f74cc3f	0.95624155
102	0x3f75afc5	0.9597133
103	0x3f7bd54c	0.9837234
104	0x3f7c7b88	0.98625994
105	0x3f7e6d5f	0.9938564
106	0x3f74dc6b	0.9564883
107	0x3f7cf612	0.98812973
108	0x3f7bb35f	0.98320574
109	0x3f6ea6ad	0.9322308
110	0x3f74bfc0	0.9560509
111	0x3f8670b8	1.0503149
112	0x3f7d329c	0.9890535
113	0x3f7eb8a6	0.995005
114	0x3f82e4f5	1.0226122
115	0x3f76cc91	0.96405894
116	0x3f83e368	1.0303774
117	0x3f818563	1.0118831
118	0x3f6f27ff	0.93420404
119	0x3f7d407a	0.9892651
120	0x3f7687cb	0.96300954
121	0x3f6f94ca	0.9358641
122	0x3f81f3fa	1.0152581
123	0x3f753354	0.95781446
124	0x3f82117d	1.0161587
125	0x3f82ce86	1.0219276
126	0x3f7b90a8	0.982676
127	0x3f76c823	0.96399134

model.fc.1.bias f4 [128]
0	0xbca05e18	-0.019576117
1	0xbd8528c9	-0.0650192
2	0xbd091c31	-0.03347415
3	0xbb4e044c	-0.0031435667
4	0xbd0908cc	-0.033455655
5	0xbd2a21e5	-0.04153623
6	0x3c83a2ed	0.0160689
7	0x3cd9445c	0.026521854
8	0xbcc13b3d	-0.023587817
9	0xbcf0e8ce	-0.029407885
10	0x3caaa0eb	0.020828685
11	0xbc020615	-0.00793602
12	0xbd42565f	-0.04744565
13	0x3c663beb	0.0140523715
14	0xbc4b7fe7	-0.012420631
15	0xbd39731c	-0.045275792
16	0x3d239062	0.039932616
17	0x3c35854a	0.011079142
18	0xbaac6175	-0.0013151603
19	0xbc13f216	-0.009029886
20	0x3c8e0fba	0.017341483
21	0xbcb6e1e5	-0.022324512
22	0x3c01e6f1	0.007928596
23	0x3d51946d	0.05116694
24	0xbba2f930	-0.004973553
25	0xbd98a429	-0.07453186
26	0x3ca9da2e	0.020733919
27	0xbd9769ff	-0.07393264
28	0x3d13f582	0.036122806
29	0x3dd20e38	0.10256618
30	0xbc5ef32b	-0.01360778
31	0xbd12be8c	-0.03582625
32	0xbd22bb81	-0.0397296
33	0x3d0db9b3	0.034600925
34	0x3cbd2409	0.023088472
35	0xbadbf1e2	-0.0016780461
36	0x3aa79579	0.0012785635
37	0xbc736739	-0.014856153
38	0xbc05a92d	-0.00815801
39	0x3be66d6a	0.007032086
40	0x3ca675cb	0.02031984
41	0x3d6e116a	0.058122076
42	0xbd2d8b23	-0.04236902
43	0xbd14b4a7	-0.036305096
44	0x3bb98738	0.0056618713
45	0xbb4d07f9	-0.003128527
46	0xbc8cc47c	-0.017183535
47	0xbd2d24e6	-0.042271517
48	0xbd08f40d	-0.03343587
49	0x3c92ea6d	0.017934049
50	0xbd214b4b	-0.039378446
51	0x3d317e0d	0.043333102
52	0xbd26f454	-0.040760353
53	0xbd044c02	-0.03229905
54	0x3ce23e59	0.02761762
55	0xbc0f3c16	-0.008742353
56	0xbcf55019	-0.02994542
57	0xbb890def	-0.004182569
58	0xbd338bd3	-0.04383452
59	0xbcc4f550	-0.024042755
60	0x3c0cf652	0.008603649
61	0xbd802427	-0.062568955
62	0xbcb37a06	-0.021908771
63	0x3c9d5e5d	0.019210035
64	0xbcf67dd3	-0.030089295
65	0xbd003bfb	-0.0313072
66	0x3d053322	0.032519467
67	0xbbdb0c26	-0.006684798
68	0x3cd42f35	0.025901416
69	0xbd01948b	-0.031635802
70	0x3c64dca7	0.013968623
71	0xbd0a3929	-0.03374592
72	0xbcc1240f	-0.023576764
73	0x3c92596a	0.017864902
74	0xbd0acf0b	-0.033888858
75	0xbd584d1d	-0.052807916
76	0x3c82ab35	0.015950778
77	0xbd0f6a50	-0.035013497
78	0xbd15b539	-0.03654978
79	0xbd336888	-0.04380086
80	0xbd1e8e7c	-0.038710102
81	0x3c48ea3a	0.012262875
82	0xbb9bb351	-0.004751601
83	0x3c71599f	0.01473084
84	0xbc7d8dc7	-0.015475697
85	0x3b501503	0.0031750805
86	0x3d315260	0.04329145
87	0xbd18843a	-0.037235476
88	0xbc7b16ec	-0.015325289
89	0xbcf7a7b0	-0.030231327
90	0xbc533103	-0.012890103
91	0xbd548cc9	-0.051892076
92	0x3c7dc65f	0.01548919
93	0x3ba7f99e	0.0051261922
94	0xbc44f527	-0.0120213395
95	0xbd87415d	-0.06604264
96	0x3d3c1410	0.04591757
97	0xbb18f603	-0.0023339994
98	0x3d62ce65	0.055372614
99	0x3cfceff1	0.030876132
100	0xbcb81d26	-0.022474837
101	0xbccff9cf	-0.025387673
102	0xba0a0006	-0.0005264286
103	0xbc575ad1	-0.013144211
104	0xbbacf523	-0.005278246
105	0xbbffeed5	-0.0078104534
106	0xbd248150	-0.040162385
107	0xbc830102	-0.015991691
108	0x3b741104	0.0037241587
109	0xbdc5ed3f	-0.09664392
110	0xbd24f346	-0.040271066
111	0x3ac65ad6	0.0015133272
112	0xbc403e88	-0.011733659
113	0xbd25bc2c	-0.040462658
114	0xbbe8bfea	-0.007102956
115	0xbd47fb67	-0.04882374
116	0x3d295478	0.04134032
117	0x3d6fd00e	0.058548026
118	0xbd5aa91d	-0.053383935
119	0xbc964730	-0.018344492
120	0xbd082e5a	-0.03324733
121	0xbd8afa1f	-0.06785988
122	0xbb8c47c6	-0.004281017
123	0xbd24d4f9	-0.04024217
124	0x3cfc813d	0.030823344
125	0x3d3590b3	0.04432745
126	0xbd26cfc7	-0.040725496
127	0xbc7f803a	-0.015594536

model.fc.1.running_mean f4 [128]
0	0xbef5a17f	-0.47974774
1	0xbe646808	-0.2230531
2	0x3e7c1ece	0.24621126
3	0x3ced427a	0.028962363
4	0xbda4e410	-0.08051312
5	0xbe6dca78	-0.23221767
6	0xbe1a46d4	-0.15066081
7	0x3ec4927c	0.3839301
8	0xbd0c3756	-0.03423246
9	0xbdd6144c	-0.1045309
10	0xbe59993c	-0.2124986
11	0xbe99b3e4	-0.30020058
12	0xbd9e668e	-0.077344045
13	0xbe421958	-0.1895498
14	0xbebdeca9	-0.3709462
15	0xbde51a18	-0.111866176
16	0x3e4fc6cc	0.20290679
17	0xbdff6d32	-0.12471999
18	0x3e0927ad	0.13394041
19	0xbe83dd47	-0.2575476
20	0x3f02e26a	0.5112673
21	0xbc466a52	-0.01211031
22	0xbebfaad6	-0.37435025
23	0xbe9d6fe2	-0.30749422
24	0x3e912e3c	0.28355587
25	0xbd5a3d5e	-0.05328118
26	0xbea68182	-0.32520682
27	0xbcf157cc	-0.02946081
28	0xbea5aa66	-0.32356566
29	0x3df963cf	0.1217724
30	0xbe9576fa	-0.29192334
31	0x3d94ab81	0.07259274
32	0x3e8e9bee	0.2785334
33	0x3b128e69	0.0022362715
34	0x3d39d4d4	0.045368984
35	0x3daedd12	0.085382596
36	0xbc583dac	-0.0131982975
37	0x3da640b3	0.08117809
38	0x3e5e86ec	0.21731156
39	0xbc955e88	-0.018233553
40	0xbeb31113	-0.34973964
41	0x3d8ae665	0.067822255
42	0xbe2efb20	-0.17087984
43	0xbed31b5f	-0.4123182
44	0xbdd64368	-0.104620755
45	0x3d2dd425	0.042438645
46	0xbd746af9	-0.05967233
47	0xbc2df4a7	-0.010617412
48	0xbe40d064	-0.18829495
49	0x3db2e98a	0.0873595
50	0xbe9d3521	-0.30704597
51	0x3e1da9ca	0.153968
52	0x3ecf0b33	0.40438232
53	0xbe560be0	-0.20902967
54	0xbdbe5074	-0.09292689
55	0xbe095e0d	-0.13414784
56	0x3e8fa34c	0.28054273
57	0x3e7c57b0	0.24642825
58	0xbe394295	-0.18091805
59	0xbe67f55e	-0.22652194
60	0xbec1f3c5	-0.37881294
61	0xbe425187	-0.18976413
62	0x3bc67772	0.0060567195
63	0xbdf6b138	-0.120455205
64	0xbdb2f4a2	-0.08738066
65	0x3d046a2b	0.032327812
66	0x3e0b1779	0.13583173
67	0xbe886a7c	-0.2664374
68	0xbcbbf090	-0.022941858
69	0xbe34fc8e	-0.17674467
70	0xbe3c4c79	-0.18388547
71	0xbe4df289	-0.20112051
72	0x3eb49818	0.35272288
73	0xbe80a5a8	-0.25126386
74	0x3dc1c47e	0.09461306
75	0x3eb452e0	0.3521948
76	0x3e7d2a40	0.24723148
77	0xbec05a0a	-0.37568694
78	0xbdb1d199	-0.08682556
79	0x3eb8804d	0.36035386
80	0xbd92a440	-0.071602345
81	0x3d9ebaa8	0.077504456
82	0x3e31737f	0.17329215
83	0x3ddec757	0.10877865
84	0x3dd11b69	0.10210306
85	0x3e12d3f5	0.14338668
86	0x3e1f45f4	0.15554029
87	0x3e007ef1	0.12548424
88	0x3e0cc382	0.13746455
89	0xbdd1c7a7	-0.10243159
90	0xbcfbd289	-0.03074004
91	0xbc9ce862	-0.019153778
92	0xbdefd294	-0.117100865
93	0xbcf8a26d	-0.030350888
94	0xbe34d233	-0.1765831
95	0xbcd7968b	-0.026316902
96	0xbd8bc191	-0.06824029
97	0x3f0e1f0c	0.55516124
98	0xbeb17812	-0.3466192
99	0x3dd2d0cc	0.10293731
100	0xbe555c6d	-0.20836039
101	0xbe4a5630	-0.1975944
102	0x3d2ebf20	0.04266274
103	0x3dd26c84	0.10274604
104	0xbe8cc805	-0.27496353
105	0x3ed9ed06	0.42563647
106	0xbe75c45f	-0.24000691
107	0xbe9dd2d3	-0.3082491
108	0xbdcf3706	-0.10117917
109	0x3e39ef1a	0.18157616
110	0x3ea4143f	0.32046697
111	0xbe1eee34	-0.15520555
112	0xbe83aab8	-0.25716186
113	0x3eabff5e	0.33593267
114	0x3e5669e3	0.2093883
115	0xbe046124	-0.12927681
116	0x3e7d6e62	0.24749139
117	0x3d0c424b	0.03424291
118	0xbe127bcf	-0.14305042
119	0x3da50566	0.0805767
120	0x3eedad0a	0.4642108
121	0x3cc351cd	0.023842717
122	0xbd10831e	-0.035281293
123	0xbe16beec	-0.14721268
124	0xbeb40c21	-0.35165504
125	0x3e77d1b1	0.24201085
126	0x3e9c0af1	0.30477098
127	0x3de17180	0.110079765

model.fc.1.running_var f4 [128]
0	0x3dd66214	0.10467926
1	0x3e0d3fe2	0.137939
2	0x3dd5f49b	0.104470454
3	0x3dc3ba93	0.095570706
4	0x3db8100d	0.089874364
5	0x3dca0ddd	0.098659255
6	0x3dfd64b9	0.12372727
7	0x3e0edcd5	0.13951428
8	0x3e0bfc98	0.13670576
9	0x3d9c62a1	0.076359995
10	0x3db810e2	0.08987595
11	0x3e106e11	0.14104487
12	0x3dd02760	0.1016376
13	0x3e1f3ec0	0.15551281
14	0x3d8559a4	0.06511238
15	0x3e2618f9	0.16220464
16	0x3dc354d2	0.095376626
17	0x3e1afbc4	0.15135103
18	0x3d6ade03	0.057340633
19	0x3d7c84c5	0.061650056
20	0x3da37b8e	0.079825506
21	0x3d8ac2e2	0.06775452
22	0x3e24460b	0.16042344
23	0x3dba9ef8	0.09112352
24	0x3ddc9a20	0.107715845
25	0x3db39be4	0.08769968
26	0x3e1b6428	0.15174925
27	0x3e0f20c5	0.13977344
28	0x3da01c1d	0.07817862
29	0x3da84797	0.0821678
30	0x3e0ade81	0.13561441
31	0x3de89ba0	0.11357808
32	0x3de1953c	0.11014792
33	0x3dd2fc8e	0.10302077
34	0x3e0c9232	0.13727644
35	0x3e107298	0.14106214
36	0x3dbbe324	0.09174183
37	0x3dfc6701	0.12324334
38	0x3dd21260	0.10257411
39	0x3e0f0385	0.13966186
40	0x3e30dbaa	0.17271295
41	0x3e1c48d8	0.15262163
42	0x3d9224a9	0.071358986
43	0x3d910d13	0.07082572
44	0x3dc8e756	0.09809749
45	0x3dab4e23	0.08364513
46	0x3d9600f6	0.07324402
47	0x3d9f55ac	0.077800125
48	0x3ddcc2f2	0.1077937
49	0x3de4f984	0.11180404
50	0x3d99cac1	0.07509375
51	0x3e3a62cf	0.18201755
52	0x3da0fa40	0.078602314
53	0x3daad3e0	0.08341193
54	0x3dd48726	0.1037734
55	0x3e0b790f	0.13620399
56	0x3dae23ef	0.085029475
57	0x3dc6f2da	0.09714289
58	0x3deb13c3	0.114783786
59	0x3dbefc6e	0.09325491
60	0x3df355a5	0.1188157
61	0x3e25346e	0.16133282
62	0x3e561383	0.2090588
63	0x3dc69b45	0.09697584
64	0x3d9d4eb7	0.07681029
65	0x3d642d2d	0.055707145
66	0x3d4d81e9	0.05017272
67	0x3d94cb05	0.072652854
68	0x3e0196dd	0.12655206
69	0x3e04fba8	0.12986624
70	0x3de43b08	0.11144072
71	0x3db56a5e	0.088581786
72	0x3d7a953a	0.06117747
73	0x3db1d6d9	0.08683557
74	0x3dd71e9c	0.10503885
75	0x3db020fa	0.0860004
76	0x3da99265	0.08279876
77	0x3dac157f	0.084025376
78	0x3e27ee3b	0.16399471
79	0x3dc1e53d	0.09467552
80	0x3dd76453	0.10517182
81	0x3e43c34b	0.19117467
82	0x3d98d511	0.07462514
83	0x3e1c2de9	0.15251888
84	0x3dddfa6c	0.1083878
85	0x3dcb25c3	0.09919312
86	0x3e1c4638	0.15261161
87	0x3dbdea55	0.09273211
88	0x3db27bcd	0.087150194
89	0x3e301d93	0.17198782
90	0x3dbdc9e2	0.09267022
91	0x3db62164	0.088930875
92	0x3ddf72c7	0.10910564
93	0x3e265437	0.16243063
94	0x3db2a8c0	0.08723593
95	0x3ded0c0f	0.115745656
96	0x3e388dec	0.18022889
97	0x3d964d34	0.07338944
98	0x3d97c943	0.074114345
99	0x3d80617b	0.06268593
100	0x3d7a01c0	0.061036825
101	0x3d930c5d	0.071800925
102	0x3e17d351	0.14826705
103	0x3daa75ba	0.08323236
104	0x3e10c08d	0.14135952
105	0x3db8b9f5	0.090198435
106	0x3da1abba	0.07894082
107	0x3d9c60a0	0.07635617
108	0x3dad0452	0.0844809
109	0x3df6f4b8	0.12058395
110	0x3e0bff64	0.13671643
111	0x3e0b123e	0.13581178
112	0x3d9db268	0.07700044
113	0x3ded5a1c	0.115894526
114	0x3dc174fd	0.09446142
115	0x3e53df47	0.20690642
116	0x3dd3fabc	0.10350558
117	0x3d9bac97	0.07601278
118	0x3d9aa98e	0.07551871
119	0x3d953a53	0.07286515
120	0x3e13bbec	0.14427155
121	0x3d707378	0.05870387
122	0x3da933e7	0.08261853
123	0x3d503faa	0.050841965
124	0x3e5b71ec	0.21430176
125	0x3db3f319	0.087866016
126	0x3dca24a7	0.09870272
127	0x3d5887f8	0.052864045

model.fc.4.weight f4 [64, 128]
0	0xbc53283b	-0.01288801
1	0x3d676bee	0.056499414
2	0xbd895d25	-0.06707219
3	0xbc8a682c	-0.016895376
4	0x3c4b5ee6	0.012412762
5	0xbcbe325a	-0.023217369
6	0x3db83ea0	0.0899632
7	0x3da5fdbb	0.08105036
8	0xbd4c0b67	-0.04981556
9	0x3c06ef12	0.00823571
10	0x3df39eef	0.118955486
11	0xbd5f0b21	-0.054453973
12	0xbd7624fc	-0.060093865
13	0x3da6849f	0.08130764
14	0x3dcc9d8b	0.099909864
15	0x3c7ea88f	0.015543117
16	0xbd9266cb	-0.071485125
17	0xbc1fc8a1	-0.0097524235
18	0xbdd80794	-0.105483204
19	0xbbdae676	-0.006680305
20	0x3d3ce21f	0.046114083
21	0xbd6afd1a	-0.057370283
22	0x3da404c3	0.08008721
23	0x3d067237	0.032823768
24	0x3d988ab2	0.07448329
25	0x3da42953	0.080156945
26	0xbdae9033	-0.085235976
27	0x3d64e36b	0.055880945
28	0x3cb4cc1a	0.02206998
29	0x3ddb900d	0.10720835
30	0x3d950810	0.072769284
31	0xbd694d9e	-0.056958787
32	0x3c205f51	0.00978835
33	0x3e032ff5	0.12811263
34	0xbd4d5d3a	-0.050137736
35	0xbc56c61a	-0.0131087545
36	0xbd90a492	-0.07062639
37	0xbb72a7eb	-0.0037026356
38	0xbd490989	-0.04908136
39	0xbcd77cda	-0.026304651
40	0x3dee41e1	0.11633659
41	0xbc0c3eb5	-0.008559872
42	0xbdaa8009	-0.08325202
43	0x3d38ff65	0.04516544
44	0xbd9f3cd6	-0.077752754
45	0xbdb5ffce	-0.088866815
46	0x3ca43aab	0.020047506
47	0xbd2a1917	-0.041527834
48	0xbc8a7753	-0.016902601
49	0xbd511057	-0.051040974
50	0x3d05a9ad	0.03263252
51	0x3dd51d16	0.10405938
52	0x3d72d444	0.059284464
53	0xbd773e0a	-0.0603619
54	0xbbe9a7ba	-0.0071305903
55	0x3c77a42e	0.015114827
56	0xbcb2c3d6	-0.021821897
57	0x3db474c5	0.088113345
58	0xbd89a987	-0.06721788
59	0xbd1c6ea8	-0.038191468
60	0x3d79f21f	0.06102192
61	0xbd520e50	-0.05128318
62	0x3c0f921e	0.008762864
63	0x3bbfd77c	0.005854545
64	0xbd6a44f5	-0.05719467
65	0x3d680efd	0.05665492
66	0xbd04710f	-0.032334384
67	0x3d79d5ce	0.060994916
68	0x3d9a70a1	0.075410135
69	0xbd8fa7c7	-0.07014423
70	0xbcd5efea	-0.026115377
71	0x3c6b264d	0.014352393
72	0xbac5a6af	-0.0015079583
73	0x3d692cc2	0.05692745
74	0xbdd80f04	-0.10549739
75	0x3bec8064	0.007217454
76	0xbda0b71a	-0.07847424
77	0x3c96313b	0.018334022
78	0xbcd52290	-0.026017457
79	0x3cb843b6	0.022493225
80	0xbd8d54a2	-0.06900908
81	0xbd5e5362	-0.05427874
82	0xbcf559b6	-0.029950004
83	0xbbb52893	-0.0055285185
84	0x3dc9d8fb	0.09855839
85	0x3c54418e	0.012955083
86	0x3ccc007e	0.024902578
87	0xbcda99b5	-0.026684621
88	0x3aaedfc4	0.0013341834
89	0xbd5615d6	-0.052266918
90	0x3d873939	0.06602711
91	0x3ca1bd0b	0.019743463
92	0xbdcea3c8	-0.100898325
93	0xbc283170	-0.010265693
94	0x3ca29106	0.019844543
95	0xbd056d92	-0.032575198
96	0xbd9d323f	-0.07675599
97	0x3d6afb9b	0.057368856
98	0x3d8a0c0a	0.067405775
99	0x3df18249	0.11792428
100	0xbcc6cee2	-0.024268571
101	0xbc4fc068	-0.012680151
102	0xbd539bc8	-0.051662236
103	0x3c2b7be8	0.010466553
104	0x3bfe489a	0.0077601196
105	0xba8e6e3c	-0.0010866593
106	0xbdb56f60	-0.08859134
107	0xbd315add	-0.043299545
108	0x3dc637e3	0.09678628
109	0x3d2ac30c	0.041689917
110	0x3dcc9596	0.09989469
111	0x3d3fd684	0.046835437
112	0x3d30e902	0.043190964
113	0xbd8af6ad	-0.06785331
114	0xbcb2cc99	-0.021826075
115	0x3d41d937	0.047326293
116	0xbc38cb1e	-0.011278896
117	0xbd76f56b	-0.060292643
118	0xbcbf157c	-0.023325674
119	0x3dc05a37	0.09392207
120	0x3d691f6f	0.056914743
121	0x3cf2f8e8	0.029659703
122	0xbd7702df	-0.060305472
123	0xbd206b2c	-0.039164707
124	0x3d259238	0.04042265
125	0xbd43a5d4	-0.047765568
126	0xbcadb167	-0.021202756
127	0x3da1b8a7	0.07896548
128	0x38c300ec	9.298496e-05
129	0x3d5e39e6	0.054254435
130	0x3a4050d4	0.0007336263
131	0x3d12dc12	0.035854407
132	0x3d958f91	0.07302774
133	0x3d79d278	0.060991734
134	0x3b8d5c21	0.004313961
135	0xbc03f7d2	-0.00805469
136	0x3c7a581c	0.015279796
137	0xbc83edd3	-0.016104614
138	0xbd37e8d9	-0.044899795
139	0xbd08c764	-0.03339328
140	0xbd17323b	-0.036913138
141	0xbde75a30	-0.11296499
142	0xbd835163	-0.06412008
143	0x3d921c37	0.07134288
144	0xbcb6794b	-0.022274634
145	0xbd3aed79	-0.045636628
146	0x3d1eb23b	0.038744193
147	0xbd92fee6	-0.07177524
148	0x3de18d9a	0.110133365
149	0xbd504e4d	-0.050855923
150	0xbdaa2043	-0.08306935
151	0xbcf9179d	-0.030406768
152	0xbcd9592e	-0.026531782
153	0xbd3c0cd4	-0.04591067
154	0xbd1c88e3	-0.038216483
155	0x3d018fbc	0.031631216
156	0xbd82f213	-0.06393828
157	0xbc7272ce	-0.014797879
158	0x3d1ae633	0.03781719
159	0xbd43843f	-0.04773354
160	0xbd98b5c2	-0.074565426
161	0xbdc88c56	-0.09792392
162	0x3d404aae	0.04694622
163	0xbd3e44e2	-0.04645241
164	0x3c399fd2	0.011329608
165	0x3d8fd63f	0.07023286
166	0xbdb2f15e	-0.087374434
167	0xbd9902a9	-0.074712105
168	0xbdce5881	-0.100754745
169	0xbce16666	-0.027514648
170	0x3bd8f92f	0.006621502
171	0xbc56a5c2	-0.013101043
172	0x3c4814fe	0.012212036
173	0x3dcae4b9	0.09906907
174	0x3d2b5450	0.041828454
175	0x3d667256	0.056261383
176	0xbd62b048	-0.055343896
177	0x3bce9799	0.006304693
178	0xbd98da9f	-0.07463574
179	0xbd8404c0	-0.064462185
180	0xbcd8bff7	-0.026458723
181	0xbd8d5de0	-0.06902671
182	0xbd6c0e59	-0.05763087
183	0xbcfcec6a	-0.03087445
184	0x3d39129d	0.045183767
185	0x3bbadd2b	0.005702635
186	0xbc8f1296	-0.017464917
187	0xbc70f139	-0.014705949
188	0x3dd0c60e	0.10194026
189	0x3d3eae62	0.046553023
190	0x3ae043a7	0.0017110006
191	0xbd85da49	-0.06535775
192	0x3d69396e	0.056939535
193	0xbda84d1b	-0.08217832
194	0xbd0200f4	-0.03173919
195	0x3d407348	0.04698494
196	0xb9068bbf	-0.00012831295
197	0xbc0303ac	-0.007996481
198	0x3c98489b	0.018589308
199	0x3d3b8675	0.045782525
200	0xbcf5662d	-0.029955948
201	0xbd35c732	-0.04437942
202	0x3d99a0ad	0.075013496
203	0x3cb900bb	0.022583356
204	0x3d493c5a	0.04912982
205	0xbd20d462	-0.039265044
206	0x3d99a027	0.0750125
207	0x3d122524	0.03567995
208	0x3b863680	0.0040958524
209	0x3da2fc0f	0.079582326
210	0x3d778d40	0.06043744
211	0xbc5d8995	-0.013521572
212	0xbddacb20	-0.10683274
213	0x3da1da32	0.079029456
214	0xbd30d4c9	-0.043171678
215	0xbdac737d	-0.08420465
216	0x3cacf7de	0.021114286
217	0xbd0ece66	-0.034864806
218	0xbd5384bb	-0.051640254
219	0x3da22ab4	0.07918301
220	0x3b8df869	0.0043325913
221	0xbda1e025	-0.0790408
222	0xbcd8367f	-0.026393173
223	0xbb11f5ed	-0.0022271827
224	0xbcb521c8	-0.022110835
225	0x3d1859a6	0.03719487
226	0x3ca19298	0.019723222
227	0x3d3af854	0.04564698
228	0x3d276baa	0.04087416
229	0x3d99e130	0.07513654
230	0xbd871df3	-0.06597509
231	0xbcbdc416	-0.02316479
232	0xbd24a0bc	-0.04019235
233	0xbdf7f1d0	-0.12106669
234	0x3ca18b92	0.019719873
235	0x3d149921	0.036278848
236	0xbb899f94	-0.0041999314
237	0xbc955575	-0.018229226
238	0x3baa15c1	0.0051905815
239	0x3d6cf25b	0.057848316
240	0xbcb577d5	-0.022151867
241	0x3cd07fc2	0.025451545
242	0xbd24f686	-0.040274166
243	0xbd669c54	-0.05630143
244	0xb9c4c339	-0.00037529485
245	0xbdce0fe9	-0.10061628
246	0x3d94ed11	0.07271779
247	0x3d4d6296	0.050142847
248	0xbd097817	-0.033561792
249	0xbd81eb6d	-0.06343732
250	0x3d06b40f	0.03288656
251	0xbdaa2532	-0.08307876
252	0x3dca2439	0.0987019
253	0x3c81ba1b	0.015835812
254	0x3ccfa9ed	0.025349582
255	0xbd550f6f	-0.05201667

model.fc.4.bias f4 [64]
0	0x3d188c39	0.0372431
1	0x3d4c68af	0.04990452
2	0x3d4c0b00	0.049815178
3	0x3d475d10	0.048672736
4	0xbc7c8dae	-0.015414638
5	0x3d8acd5c	0.067774504
6	0xbd004e10	-0.031324446
7	0xbd6abc5f	-0.05730855
8	0x3d5aa8b2	0.053383537
9	0x3cade481	0.021227123
10	0xbcd42c65	-0.025900075
11	0x3d92bcc2	0.07164909
12	0x3d23f254	0.040026024
13	0x3d8c35fd	0.06846235
14	0xbd107462	-0.03526724
15	0x3d67115e	0.056413047
16	0xbdaa0cdc	-0.08303234
17	0x3b77e9f8	0.0037828665
18	0x3d2e42f9	0.04254434
19	0xbdb25fb7	-0.087096624
20	0xbd1c9da7	-0.038236286
21	0x3d9908f8	0.07472414
22	0xbd2da007	-0.042388942
23	0xbd8ecc1a	-0.06972523
24	0x3c616108	0.013756044
25	0xbd8552f1	-0.065099604
26	0x3d6754a3	0.0564772
27	0xbcbf1951	-0.023327501
28	0x3d94d7f5	0.07267753
29	0x3d3ac6ad	0.04559963
30	0x3d953973	0.07286348
31	0x3d86529f	0.065587275
32	0xbd9aca9e	-0.075581774
33	0xbcc3a081	-0.023880245
34	0xbd60b5e6	-0.054860972
35	0xbc0b642d	-0.0085077705
36	0xbb5b31d4	-0.0033446448
37	0x3cd2d988	0.025738493
38	0xbd594609	-0.053045306
39	0x3d2abd2d	0.04168432
40	0x3d040433	0.032230567
41	0x3d3983a2	0.04529155
42	0xbcd904b5	-0.026491502
43	0xbbd082a2	-0.006363229
44	0x3d8accee	0.067773685
45	0x3c8a79c3	0.016903764
46	0xbcbe57ac	-0.023235165
47	0xbcc45a4e	-0.023968842
48	0x3cd0971a	0.025462676
49	0xbd9b4081	-0.075806625
50	0xbd02c1fe	-0.031923287
51	0xbd2d893d	-0.04236721
52	0x3bd2aa93	0.0064290254
53	0x3d946a6c	0.07246861
54	0x3daec274	0.08533183
55	0xbd30b2c7	-0.043139245
56	0xbdb82f8b	-0.08993443
57	0xbdb17bc5	-0.08666185
58	0xbd9ca800	-0.07649231
59	0x3d33912d	0.043839622
60	0xbb6b398c	-0.0035892455
61	0xbda5c87a	-0.080948785
62	0xbd6be437	-0.05759069
63	0x3bba3c45	0.005683454

model.fc.5.weight f4 [64]
0	0x3f8154f0	1.0104046
1	0x3f82698e	1.0188463
2	0x3f8547a9	1.0412494
3	0x3f841073	1.031752
4	0x3f830b5a	1.0237839
5	0x3f81a8a9	1.0129596
6	0x3f842486	1.0323646
7	0x3f84cd73	1.0375198
8	0x3f6e0a61	0.92984587
9	0x3f82928a	1.020097
10	0x3f7bec92	0.9840785
11	0x3f7f8a71	0.9982062
12	0x3f7bca02	0.98355114
13	0x3f835f98	1.0263548
14	0x3f6fd3a6	0.93682325
15	0x3f8ab7c9	1.0837337
16	0x3f7856d9	0.9700752
17	0x3f7cda8f	0.98770994
18	0x3f7bf7b9	0.9842487
19	0x3f7d014b	0.988301
20	0x3f77e962	0.9684049
21	0x3f7aecbe	0.9801749
22	0x3f869ba1	1.0516244
23	0x3f806941	1.0032121
24	0x3f849619	1.0358306
25	0x3f79f445	0.9763835
26	0x3f767281	0.9626847
27	0x3f6d321d	0.9265459
28	0x3f83fcc8	1.0311518
29	0x3f7b4f9b	0.98168343
30	0x3f782eb9	0.96946293
31	0x3f6d3028	0.92651606
32	0x3f78c835	0.9718049
33	0x3f767406	0.9627079
34	0x3f7d3894	0.98914456
35	0x3f70a828	0.94006586
36	0x3f88b71f	1.0680884
37	0x3f769164	0.963156
38	0x3f7e919e	0.99440944
39	0x3f6c75db	0.92367333
40	0x3f817f45	1.0116965
41	0x3f7560e2	0.95850956
42	0x3f7405e4	0.9532149
43	0x3f87b0c8	1.0600824
44	0x3f6e445f	0.93073076
45	0x3f7dabda	0.9909035
46	0x3f703a64	0.938391
47	0x3f8050a4	1.002461
48	0x3f6b3da6	0.91890943
49	0x3f839f1f	1.0282935
50	0x3f852f1b	1.0405
51	0x3f71716d	0.943137
52	0x3f86846f	1.0509166
53	0x3f7175cb	0.9432036
54	0x3f722b20	0.94597054
55	0x3f8672b6	1.0503757
56	0x3f8b1498	1.086566
57	0x3f76e0a5	0.9643653
58	0x3f7e207a	0.99268305
59	0x3f7a688c	0.97815776
60	0x3f7d4320	0.9893055
61	0x3f76d8b0	0.9642439
62	0x3f833a95	1.0252253
63	0x3f66839a	0.9004456

model.fc.5.bias f4 [64]
0	0xbc2dbbd1	-0.010603861
1	0xbb4c0e83	-0.003113658
2	0x3d1db513	0.038502764
3	0xbc98f357	-0.018670721
4	0xbd05b512	-0.032643385
5	0xbc42bc0b	-0.011885653
6	0xbd0a2327	-0.03372493
7	0xbd265b70	-0.040614545
8	0xbc8a87ff	-0.016910551
9	0xbc2c948f	-0.010533466
10	0x3c2a10e5	0.0103800045
11	0xbd022a0b	-0.031778377
12	0xbdc27cf2	-0.09496488
13	0x3ccdd1f2	0.025124524
14	0xbca86a04	-0.020558365
15	0xbcf8b454	-0.030359425
16	0xbb506f2e	-0.003180455
17	0x3d0f7c6f	0.03503078
18	0xbc3cb2ed	-0.011517269
19	0xbdae4993	-0.08510127
20	0xbcbd29f9	-0.023091303
21	0xbc276d3e	-0.010218916
22	0x3d0311f8	0.03199956
23	0x3bdc73a6	0.0067276536
24	0xbd700b39	-0.058604453
25	0xba4aa067	-0.000772959
26	0xbd3f31e0	-0.046678424
27	0xbd5cff90	-0.05395466
28	0xbd9e60c6	-0.07733302
29	0x3c9eebeb	0.019399604
30	0x3d3bfc53	0.045894932
31	0xbd5e37d5	-0.054252464
32	0x3d444501	0.04791737
33	0xbd0fa1d4	-0.03506644
34	0x3c46dc18	0.012137435
35	0xbd7dafd3	-0.061935257
36	0xbd451921	-0.048119668
37	0xbd4f6282	-0.050631054
38	0x3cea1247	0.028573168
39	0xbcb16a0f	-0.021657018
40	0xbb8da16d	-0.004322222
41	0xbca4308f	-0.020042686
42	0xbcc20226	-0.023682665
43	0x3d9186e7	0.07105809
44	0xbd39bbd5	-0.045345146
45	0xbd6c027c	-0.057619557
46	0xbd83cf40	-0.06436014
47	0xbada8102	-0.0016670527
48	0xbd434c04	-0.047679916
49	0xbda0b627	-0.07847243
50	0x3c4182c1	0.011810959
51	0xbc405b66	-0.011740541
52	0xbd5f7e41	-0.054563764
53	0x3c9df498	0.01928167
54	0xbc412d7e	-0.011790631
55	0x3d4f3d99	0.050595853
56	0x3ba15da3	0.0049244924
57	0xbd68fc8a	-0.056881465
58	0xbb35bb32	-0.0027729985
59	0x3d1e1684	0.03859569
60	0xbd5d4271	-0.05401844
61	0xbbf6f52e	-0.007536552
62	0x3d1e8aca	0.03870658
63	0xbd3e22e5	-0.046419997

model.fc.5.running_mean f4 [64]
0	0x3e556f6a	0.20843282
1	0xbe8bd3de	-0.2731008
2	0xbe4c644b	-0.19960134
3	0x3e291a5e	0.16513965
4	0x3f602153	0.8755085
5	0x3edbfc39	0.42965868
6	0xbe2860f2	-0.16443232
7	0x3d529c1a	0.0514184
8	0xbf0b638b	-0.54448766
9	0x3eb0b34e	0.345118
10	0x3d469516	0.048482023
11	0x3f084439	0.532291
12	0x3f2e90d2	0.6818973
13	0xbdf21426	-0.11820249
14	0xbf0f6481	-0.5601273
15	0x3f57cb42	0.8429452
16	0xbe2300bd	-0.1591825
17	0xbeb3e32d	-0.3513426
18	0x3eafb625	0.34318653
19	0x3ed9cf62	0.42541033
20	0x3e03b980	0.12863731
21	0x3e6bdc30	0.23033214
22	0xbd517e24	-0.051145688
23	0x3db28965	0.08717612
24	0x3f4ced97	0.80050033
25	0xbf2b984b	-0.67029256
26	0x3df4650f	0.11933338
27	0x3e1fa7ee	0.15591404
28	0x3f46f140	0.7771187
29	0x3de263d6	0.110541984
30	0x3d57eb18	0.052714437
31	0xbd508b41	-0.050914053
32	0xbedb01d9	-0.42774847
33	0xbe158d18	-0.14604604
34	0xbe5af75b	-0.21383421
35	0xbed80356	-0.42190045
36	0x3e699c85	0.22813614
37	0xbd71a5d3	-0.058996033
38	0xbee82570	-0.45341063
39	0xbf097297	-0.53690475
40	0xbea7dde2	-0.3278647
41	0xbdc69c42	-0.096977726
42	0x3bb0350f	0.005377419
43	0x3e187072	0.14886644
44	0x3e903c7b	0.28171143
45	0x3e7b3731	0.24532773
46	0x3d5e2bdf	0.054241057
47	0xbe4689bd	-0.1938848
48	0x3e9f687e	0.3113441
49	0x3f1ac19d	0.6045168
50	0xbe90075e	-0.2813062
51	0xbf521200	-0.82058716
52	0x3eddf68e	0.4335217
53	0xbeabd394	-0.3355986
54	0xbe67d8ef	-0.22641347
55	0xbc079a24	-0.008276496
56	0x3e5c8fa8	0.21539176
57	0x3ebcb634	0.3685776
58	0xbe98674f	-0.29766318
59	0x3ea47038	0.32116866
60	0x3f080e87	0.53147167
61	0xbda841f7	-0.08215707
62	0xbebbc673	-0.36674842
63	0x3d614f98	0.055007547

model.fc.5.running_var f4 [64]
0	0x3f855af9	1.0418388
1	0x3f83364e	1.0250947
2	0x3ef731ec	0.48280275
3	0x3f3b2d1d	0.7311571
4	0x3f576006	0.84130895
5	0x3f6c0b3d	0.9220465
6	0x3f51c2c3	0.8193781
7	0x3f49f72e	0.7889279
8	0x3ebd18ef	0.36933085
9	0x3fa9e967	1.3274354
10	0x3f677861	0.9041806
11	0x3f2a8609	0.6661077
12	0x3f300696	0.6876005
13	0x3f872ec8	1.0561152
14	0x3ee1d737	0.44109508
15	0x3f758421	0.9590474
16	0x3eb9feae	0.36327118
17	0x3f19257f	0.5982284
18	0x3f25d77c	0.6478193
19	0x3f0be140	0.5464058
20	0x3ec0d279	0.37660578
21	0x3f61f67d	0.88266736
22	0x3f96ddd9	1.1786453
23	0x3f7e7632	0.993991
24	0x3f2557e5	0.6458724
25	0x3f247fd4	0.6425755
26	0x3f2430be	0.64136875
27	0x3e5f72b5	0.21821101
28	0x3f0e06a9	0.5547891
29	0x3f016a3b	0.5055272
30	0x3e6b7a4d	0.22995873
31	0x3e659183	0.2241879
32	0x3f0d2839	0.551395
33	0x3f0f1293	0.55887717
34	0x3f99139c	1.1959109
35	0x3ea63e14	0.32469237
36	0x3f3e07f2	0.74230874
37	0x3ec65bc3	0.38741884
38	0x3f8486f8	1.0353689
39	0x3e790616	0.24318728
40	0x3fc43029	1.5327197
41	0x3ea25af0	0.31710005
42	0x3ef8900d	0.48547402
43	0x3f87c7da	1.0607865
44	0x3ee4a44e	0.44656605
45	0x3f629381	0.88506323
46	0x3e55850a	0.20851532
47	0x3efbc8d8	0.4917667
48	0x3e957dd8	0.29197574
49	0x3f3bb092	0.733163
50	0x3f81695c	1.0110278
51	0x3eadccb8	0.3394525
52	0x3eff6000	0.4987793
53	0x3ec70101	0.38867953
54	0x3e9fdbc2	0.3122235
55	0x3f9ade86	1.2099159
56	0x3f6108c6	0.8790401
57	0x3f0c3652	0.54770386
58	0x3f3addd0	0.7299471
59	0x3f609330	0.8772459
60	0x3f092084	0.5356524
61	0x3e58ca8a	0.21171013
62	0x3f427a01	0.75967413
63	0x3e153e7a	0.14574614

model.fc.8.weight f4 [32, 64]
0	0xbd6fc85e	-0.058540694
1	0xbc9d1e6b	-0.019179543
2	0x3d25cf56	0.040480934
3	0x3b80cbaf	0.003930531
4	0xbe103f12	-0.1408656
5	0xbda8311b	-0.08212491
6	0xbd5eedb7	-0.05442592
7	0xbdd266c7	-0.102735095
8	0x3cf4c856	0.029880684
9	0xbaf78e3a	-0.0018886991
10	0xbdbea8be	-0.09309529
11	0xbda82053	-0.0820929
12	0xbdf27a49	-0.1183973
13	0x3dd65ce6	0.10466938
14	0xbc9012ee	-0.017587151
15	0xbe00a19d	-0.1256165
16	0xbb0b9bc1	-0.0021302553
17	0x3d9fecaf	0.07808816
18	0x3d9cb3dc	0.07651493
19	0xbdbc4414	-0.09192672
20	0x3d1b9223	0.037981164
21	0xbdc27a33	-0.09495964
22	0xbdb8a66b	-0.09016117
23	0x3c032d37	0.0080063855
24	0xbe24257d	-0.16029926
25	0x3d97e2a9	0.07416279
26	0x3d811433	0.06302681
27	0x3d715069	0.058914576
28	0xbe336a66	-0.17521057
29	0xbcd35168	-0.025795653
30	0xbca7d506	-0.02048732
31	0x3d032a5e	0.032022826
32	0x3d147972	0.03624863
33	0xbd838c37	-0.06423228
34	0xbdb51142	-0.08841182
35	0x3b36b179	0.0027876778
36	0xbc8167bb	-0.015796533
37	0xbd43f146	-0.04783752
38	0x3d9411cc	0.07229957
39	0xbd4c1af4	-0.049830392
40	0x3be1c175	0.006889517
41	0x3c567c59	0.01309117
42	0xbceb50d9	-0.028725075
43	0xbcf08b0b	-0.029363176
44	0xbdc08ff2	-0.094024554
45	0xbdf25364	-0.11832312
46	0x3df00381	0.11719418
47	0xbcf6eeb6	-0.030143123
48	0xbd17e840	-0.037086725
49	0xbd836190	-0.06415093
50	0xbca5e567	-0.02025099
51	0xbca2a19f	-0.019852458
52	0xbdafba3d	-0.08580444
53	0x3d989219	0.07449741
54	0xbd13730e	-0.035998397
55	0x3cd5d8b6	0.026104312
56	0xbe387fe6	-0.1801754
57	0x3d8db6f1	0.06919659
58	0xbd809ead	-0.06280265
59	0x3d2315d4	0.03981574
60	0xbdc51b0d	-0.096243
61	0xbc62b0a1	-0.013836057
62	0x3c04c986	0.008104688
63	0xbd3041e3	-0.043031584
64	0x3df8047c	0.1211023
65	0xbd706f76	-0.058700047
66	0x3d5448dd	0.0518273
67	0x3d2872c5	0.041125078
68	0xbdeb5669	-0.11491091
69	0x3d11dc4d	0.035610486
70	0x3bc829a8	0.0061084814
71	0x3dba411e	0.09094451
72	0xbd01b84d	-0.031669904
73	0xbbade4e8	-0.0053068288
74	0x3d020729	0.03174511
75	0x3dc1f2b1	0.09470118
76	0xbe1bdbcb	-0.15220563
77	0x3e01f2a8	0.12690222
78	0x3d56d48f	0.052448805
79	0xbd390b3f	-0.04517674
80	0x3d7a21d0	0.061067402
81	0xbcbed85e	-0.023296531
82	0xbd36b289	-0.04460386
83	0x3d6a747b	0.05723999
84	0xbe1c7e6f	-0.15282606
85	0x3d6df63e	0.058096163
86	0x3db2ad1d	0.08724425
87	0xbaba2651	-0.0014202093
88	0x3b392e01	0.002825618
89	0x3cd81794	0.02637843
90	0x3ca89f1c	0.020583682
91	0xbdf1662d	-0.117870666
92	0x3d3b0819	0.04566202
93	0x3daf6d0d	0.08565722
94	0xbd89ddcb	-0.06731757
95	0x3dc485c8	0.09595829
96	0xbda2da69	-0.07951815
97	0xbcea93e2	-0.02863497
98	0xbd8649a1	-0.06557012
99	0xbd667f84	-0.056273952
100	0xbbf1a9c0	-0.007374972
101	0x3dab09f8	0.08351511
102	0xbdf4ad84	-0.11947158
103	0xbd14d0b5	-0.03633185
104	0x3d6cb8e9	0.05779353
105	0xbe0055a1	-0.12532665
106	0x3d753d9d	0.059873212
107	0xbdd37aec	-0.1032618
108	0xbdbd467a	-0.09241958
109	0x3b71cdf6	0.0036896444
110	0x3d6d04c6	0.05786588
111	0xbdd1e5e1	-0.10248924
112	0xbd1e7488	-0.03868535
113	0x3d03cd75	0.03217836
114	0x3d34ee67	0.04417267
115	0x3d950311	0.072759755
116	0xb9fc33a9	-0.00048103675
117	0xbda64f57	-0.081206016
118	0x3d9a3eb7	0.07531493
119	0x3cffa594	0.031206883
120	0xbe0787b8	-0.13235366
121	0xbdda03dd	-0.10645268
122	0x3dd66610	0.104686856
123	0x3c1c6d13	0.00954749
124	0x3d972c3e	0.073814854
125	0xbd69b738	-0.057059497
126	0xbe19ad73	-0.15007572
127	0xbda6fc1b	-0.08153554
128	0xbe14e296	-0.1453956
129	0x3e07ebec	0.13273591
130	0xbe0679cc	-0.131324
131	0xbde03641	-0.10947848
132	0x3d91d5d7	0.07120865
133	0xbdcd4399	-0.10022659
134	0xbe171781	-0.1475506
135	0xbda1eed1	-0.07906879
136	0xbd675800	-0.056480408
137	0xbe2f28ae	-0.17105362
138	0xbe0053fb	-0.12532036
139	0xbd28c17b	-0.041200142
140	0xbd000528	-0.031254917
141	0xbdfbb034	-0.122894675
142	0x3d569992	0.05239255
143	0xbdc39862	-0.09550549
144	0xbd0ffae4	-0.035151377
145	0xbdf3415a	-0.11877699
146	0xbd982365	-0.07428626
147	0x3c3111dc	0.010807481
148	0x3cf082b2	0.029359195
149	0xbbdf4033	-0.006813073
150	0xbde5377d	-0.11192224
151	0x3d86e037	0.06585734
152	0x3db0a1c3	0.086246036
153	0xbd24a99f	-0.040200826
154	0x3dbdd961	0.09269977
155	0x3dd25443	0.10269978
156	0x3e13381d	0.14376874
157	0x3cb04b64	0.021520324
158	0xbca93ec9	-0.020659821
159	0x3d9f5b66	0.07781105
160	0xbde5a88b	-0.11213788
161	0x3e0072ae	0.12543747
162	0xbd32ae85	-0.043623466
163	0xbd435990	-0.047692835
164	0x3d64c734	0.055854037
165	0x3c1bd91f	0.009512215
166	0xbcb421a6	-0.021988701
167	0xbdc2ee50	-0.09518111
168	0xbd73fd13	-0.059567522
169	0xbd9e91a1	-0.0774262
170	0x3bbc6aaf	0.0057500224
171	0x3d8e5954	0.06950632
172	0x3d94d107	0.07266431
173	0xbcc2713d	-0.023735637
174	0xbc5efc05	-0.013609891
175	0x3c0db8fd	0.008650062
176	0xbb53caad	-0.003231685
177	0xbdb29911	-0.08720601
178	0xbd9de0bc	-0.0770888
179	0xbc80d84d	-0.01572814
180	0xbcccd504	-0.025003918
181	0x3da9bebb	0.08288332
182	0xbd63966d	-0.05556338
183	0xbe37d15f	-0.17950962
184	0x3da7e9a0	0.08198857
185	0xbdc52e87	-0.09628015
186	0xbda745de	-0.08167623
187	0x3bb045a4	0.0053793956
188	0x3dcb75b4	0.099345595
189	0x3bf9cb7f	0.0076231356
190	0x3cb4423a	0.022004236
191	0x3c580ab8	0.013186149
192	0xbdc00506	-0.09375958
193	0xbcae601e	-0.021286067
194	0x3d1daadf	0.038493033
195	0x3e1e39fb	0.15451805
196	0x3dda36f0	0.1065501
197	0x3d77c055	0.060486156
198	0x3d963fe8	0.07336408
199	0x3d51909f	0.051163312
200	0x3d98ada4	0.07454994
201	0x3ce0e28f	0.027451782
202	0x3d4a92ed	0.049456526
203	0xbcdeb771	-0.027187081
204	0x3de830ab	0.11337408
205	0x3dc24a48	0.09486824
206	0x3cae6b49	0.021291392
207	0x3dfe8625	0.1242793
208	0x3c30767c	0.010770436
209	0xbccf617c	-0.025315039
210	0x3d11202b	0.03543107
211	0x3d5660b8	0.052338332
212	0x3ce3f04c	0.027824543
213	0x3cd49fd2	0.025955115
214	0x3e18f500	0.1493721
215	0xbce519f1	-0.027966471
216	0x3d6aee75	0.057356317
217	0x3e11dd22	0.14244512
218	0x3d9dd961	0.07707477
219	0xbda24baf	-0.07924592
220	0x3d3359bb	0.043786746
221	0x3d32f5e8	0.043691546
222	0x3cae8c21	0.021307053
223	0x3d754cc2	0.059887655
224	0x3e000aed	0.12504168
225	0x3cab6ba6	0.020925354
226	0x3d778b3f	0.06043553
227	0xbb0d781b	-0.002158648
228	0x3d7f5061	0.062332515
229	0x3dca9f05	0.09893612
230	0x3d23bc82	0.039974697
231	0xbdbcec93	-0.092248105
232	0xbc66fb65	-0.014098023
233	0xbd979a83	-0.07402518
234	0x3de6ceb7	0.112698965
235	0x3cb3602c	0.021896444
236	0xbc060d9b	-0.008181955
237	0x3db1de0e	0.08684932
238	0xbc9891ba	-0.018624175
239	0x3df7ca28	0.12099105
240	0xbd22987f	-0.039696213
241	0x3d9e3e6e	0.07726751
242	0xbb9e78ed	-0.004836193
243	0xbca48458	-0.020082638
244	0x3dda35a8	0.10654765
245	0xbd09974a	-0.033591546
246	0x3c07bce1	0.008284778
247	0x3dcdd934	0.10051194
248	0x3dff8bd2	0.124778405
249	0x3d6d6cb5	0.057965
250	0x3bd873f7	0.006605621
251	0x3cc4736d	0.02398082
252	0x3d6c9008	0.057754546
253	0xbd87470b	-0.06605347
254	0xbd09560e	-0.033529334
255	0xbda51ba0	-0.0806191

model.fc.8.bias f4 [32]
0	0x3d0bcd79	0.0341315
1	0x3d91a2ab	0.071111046
2	0x3da270f7	0.079317026
3	0x3d22b8f3	0.039727163
4	0x3dbc9b0f	0.092092626
5	0xbdaa74a6	-0.0832303
6	0xbc00f39e	-0.007870583
7	0x3d64ab3d	0.055827368
8	0xba8520c5	-0.0010156861
9	0xbb029910	-0.0019927658
10	0xbbdf3d4f	-0.0068127285
11	0x3de8f299	0.11374397
12	0xbd8fc5ce	-0.0702015
13	0xbdbc7cdc	-0.092035025
14	0xbbfd0e18	-0.0077226274
15	0xbd895ad5	-0.06706778
16	0x3df7945a	0.12088843
17	0x3da81520	0.08207154
18	0xbc960b6a	-0.01831599
19	0x3de100d5	0.10986487
20	0x3c4051db	0.011738266
21	0xbda87259	-0.08224935
22	0xba96a823	-0.00114942
23	0xbdf1b8f0	-0.11802852
24	0xbdb86d74	-0.090052515
25	0xbdeb8c9a	-0.11501427
26	0xbdd417cf	-0.10356104
27	0xbd295419	-0.041339967
28	0x3dc95c9f	0.09832119
29	0x3dda2aef	0.1065272
30	0xbd8ff6c6	-0.0702949
31	0xbd5231da	-0.051317073

model.fc.9.weight f4 [32]
0	0x3f800050	1.0000095
1	0x3f6afc7e	0.9179152
2	0x3f7e311c	0.99293685
3	0x3f89e27b	1.0772241
4	0x3f851109	1.0395824
5	0x3f77e5a9	0.9683481
6	0x3f74cf88	0.9562917
7	0x3f8072b1	1.0035001
8	0x3f84e029	1.0380908
9	0x3f79d8b6	0.975963
10	0x3f7c6a70	0.9859991
11	0x3f6da2b2	0.9282638
12	0x3f6e4938	0.9308047
13	0x3f8d32b7	1.1031102
14	0x3f7d18db	0.9886605
15	0x3f7390e4	0.9514296
16	0x3f85ac2a	1.0443165
17	0x3f85d4a4	1.0455518
18	0x3f832ca7	1.0248002
19	0x3f871180	1.0552216
20	0x3f79de11	0.9760447
21	0x3f7049d3	0.93862647
22	0x3f837496	1.0269954
23	0x3f79cc38	0.9757724
24	0x3f705b88	0.93889666
25	0x3f704ff8	0.9387202
26	0x3f7a55da	0.9778725
27	0x3f7055e0	0.93881035
28	0x3f7ea6ff	0.99473566
29	0x3f75bb45	0.95988876
30	0x3f824ecc	1.0180297
31	0x3f77ae2b	0.96750134

model.fc.9.bias f4 [32]
0	0x3de0163f	0.10941743
1	0xbd5b05cd	-0.05347233
2	0x3d97ead6	0.07417838
3	0xbe3c9c14	-0.18418914
4	0xbdf7da6c	-0.121022075
5	0xbc902a21	-0.017598214
6	0x3d213323	0.03935541
7	0xbd63584a	-0.05550412
8	0x3e06fdce	0.13182756
9	0x3d380079	0.044922326
10	0x3cee8b4e	0.02911916
11	0xbd540712	-0.051764555
12	0xbceab81a	-0.02865224
13	0x3e25fe2c	0.1621024
14	0x3dba5165	0.09097556
15	0xbd5c016a	-0.053712286
16	0x3c97d8d6	0.018536013
17	0x3c14e56f	0.009087904
18	0xbe09208a	-0.13391319
19	0x3d43f95f	0.04784524
20	0x3cf0119f	0.029305277
21	0xbd37a148	-0.044831544
22	0x3de516dc	0.11186001
23	0xbd962472	-0.0733117
24	0xbcd5e725	-0.026111195
25	0xbd9b6a64	-0.07588652
26	0x3e0787cb	0.13235395
27	0x3d98decd	0.07464371
28	0x3e06110f	0.13092445
29	0xbcd4fd02	-0.02599955
30	0xbcc76dc8	-0.02434434
31	0xbb03d4d3	-0.0020115867

model.fc.9.running_mean f4 [32]
0	0xbf29dbca	-0.66350996
1	0xbdb5b206	-0.08871846
2	0xbf02f23a	-0.5115086
3	0x3f818357	1.0118207
4	0x3f6cd6c4	0.92515206
5	0xbee4436d	-0.44582692
6	0xbe837078	-0.25671744
7	0x3ddbf34a	0.10739763
8	0xbf42aba1	-0.76043135
9	0xbd908926	-0.07057409
10	0x3cc0943f	0.02350819
11	0x3e2c316c	0.16815728
12	0xbe956ae9	-0.29183128
13	0xbf24f34d	-0.6443375
14	0xbee558cd	-0.44794312
15	0xbea8079f	-0.32818314
16	0x3f1af64a	0.6053206
17	0x3f0f6cd5	0.5602544
18	0x3f270d14	0.6525433
19	0xbf5e0848	-0.86731386
20	0x3e31023b	0.17286007
21	0xbe8192c8	-0.25307298
22	0xbf2b6dda	-0.66964495
23	0xbdcd71ca	-0.10031469
24	0xbdcb4495	-0.0992519
25	0xbe2c0dee	-0.16802189
26	0xbf5509b0	-0.83217907
27	0xbf0bb322	-0.5457021
28	0xbf23cc1d	-0.6398333
29	0x3e6e4822	0.23269704
30	0x3d3afc78	0.04565093
31	0xbe25aa12	-0.16178158

model.fc.9.running_var f4 [32]
0	0x3f7a6bcd	0.9782074
1	0x3f06fbcb	0.52727956
2	0x3f82c5ef	1.0216655
3	0x3efd13dd	0.49429217
4	0x3ee90511	0.45511678
5	0x3f533c74	0.8251412
6	0x3ee1cf34	0.44103396
7	0x3f5b0c58	0.8556571
8	0x3f92fe2c	1.1483817
9	0x3f3eef4a	0.74583876
10	0x3f89eb61	1.0774957
11	0x3ed8cbee	0.42343086
12	0x3ea1f17a	0.31629544
13	0x3fad0167	1.3516053
14	0x3f83f11c	1.0307956
15	0x3f37cf22	0.71800435
16	0x3f9d98e1	1.231228
17	0x3f65b042	0.89722073
18	0x3ec646d1	0.38725904
19	0x3f644551	0.8916827
20	0x3fb12129	1.3838245
21	0x3e94f28f	0.29091308
22	0x3f881edd	1.0634419
23	0x3f538eaa	0.82639563
24	0x3f9e764c	1.2379851
25	0x3f58e6a3	0.84726924
26	0x3f59656f	0.849204
27	0x3f6e8338	0.93168974
28	0x3f51584c	0.81775355
29	0x3f9f2195	1.2432123
30	0x3fa554f4	1.2916551
31	0x3f903566	1.1266296
