StudentP/checkpoints/stp-epoch=10-val_f1=0.96.ckpt (torch, 224736 bytes, 76 tensors)

model.fc.0.weight f4 [128, 33]
0	0x3d615f18	0.05502233
1	0x3caf9ca2	0.021436993
2	0xbeb3a962	-0.35090166
3	0xbdc0d579	-0.09415717
4	0xbbeebec5	-0.007285925
5	0x3dd1eaa5	0.10249833
6	0xbb87898a	-0.004136269
7	0x3d9eab04	0.077474624
8	0x3e333668	0.17501223
9	0xbdea1a02	-0.11430742
10	0x3da96f94	0.08273235
11	0xbd6cf7f2	-0.057853647
12	0x3d6a8b7c	0.05726193
13	0x3e2616e0	0.16219664
14	0x3ca2f971	0.019894334
15	0x3e208ff0	0.15679908
16	0x3e186109	0.14880766
17	0xbd0c6cdb	-0.0342835
18	0xbdf974b8	-0.121804655
19	0xbac52452	-0.0015040732
20	0x3dda3c48	0.10656029
21	0x3e0864eb	0.13319747
22	0x3ce755fb	0.02823924
23	0x3dd6ebca	0.10494192
24	0x3d474c3a	0.04865668
25	0x3de86661	0.11347652
26	0xbbca8b14	-0.00618113
27	0x3bd15ef8	0.006389495
28	0xbdf46328	-0.11932975
29	0x3d9463dc	0.07245609
30	0xbd9d0fd2	-0.07669033
31	0x3cba17d0	0.022716433
32	0xbd91c661	-0.07117916
33	0xbba4944a	-0.0050225602
34	0x3d1c4df1	0.03816027
35	0xbe1a251d	-0.1505322
36	0xbda0abb6	-0.07845251
37	0xbe011790	-0.12606645
38	0xbda43989	-0.080187865
39	0xbdfa9b73	-0.12236681
40	0xbcc32b61	-0.023824396
41	0xbe0026b3	-0.12514763
42	0xbdcd0143	-0.10010006
43	0xbcc2587d	-0.023723835
44	0xbe075b1c	-0.13218349
45	0x3e0d8fe9	0.13824429
46	0x3e1d11ca	0.15338817
47	0xbbc364d3	-0.005962947
48	0xbdd54106	-0.10412793
49	0x3cf54793	0.029941356
50	0x3c2b38ef	0.010450586
51	0xbe3c5bd4	-0.18394405
52	0xbe0a2859	-0.13491954
53	0xbe1f6c82	-0.15568736
54	0x3cdf5ad5	0.027264992
55	0xbddad85d	-0.10685799
56	0xbd01948b	-0.031635802
57	0xbc216358	-0.009850346
58	0xbdce6ed2	-0.10079731
59	0x3cd0305d	0.025413686
60	0xbd8abc77	-0.06774228
61	0x3e0bc7ab	0.13650386
62	0x3d88c38b	0.06677922
63	0x3daa7ef8	0.083249986
64	0xbd31bd2a	-0.04339329
65	0xbd587a86	-0.052851222
66	0xbde53875	-0.11192409
67	0x3c3b2cb8	0.011424236
68	0x3e2ed0a9	0.17071785
69	0xbd47227c	-0.04861687
70	0x3c33e92e	0.010980887
71	0x3e09fb85	0.13474853
72	0xbdb22242	-0.086979404
73	0x3d5c7d8f	0.05383068
74	0xbd4e74f1	-0.050404493
75	0x3e346d54	0.1761983
76	0x3e0edb1f	0.13950776
77	0x3debae1c	0.11507818
78	0xbd8cf3a3	-0.068824075
79	0x3e0d41ee	0.13794681
80	0xbca1ffcb	-0.019775292
81	0x3d1fd2be	0.03901934
82	0x3e1290ee	0.14313099
83	0x3e0ed025	0.13946588
84	0x3d430473	0.047611665
85	0xbde6797b	-0.11253639
86	0x3e3d9b25	0.18516214
87	0xbe02ed87	-0.12785922
88	0xbda0f9a9	-0.07860119
89	0xbd870c02	-0.06594087
90	0x3d5eb837	0.0543749
91	0xbcc1e2f8	-0.023667797
92	0x3e073432	0.13203505
93	0xbe1e7380	-0.15473747
94	0x3daa7fc6	0.08325152
95	0x3dbc0a06	0.09181599
96	0x3df18b03	0.117940925
97	0x3cf10bcc	0.02942457
98	0x3d9b0179	0.0756864
99	0xbdfcdb5f	-0.12346529
100	0xbd4d9bfb	-0.050197583
101	0x3b9a17ad	0.0047025294
102	0x3cca2b03	0.024678713
103	0xbc5967b3	-0.013269353
104	0xbe14a2a0	-0.14515162
105	0x3df8a4bf	0.12140798
106	0x3e0f7f6b	0.1401345
107	0xbc7c1e85	-0.015388136
108	0xbd8b8f6f	-0.06814467
109	0xbd47f6cd	-0.048819352
110	0x3dd76fb5	0.10519353
111	0x3e305b2c	0.1722228
112	0x3e4da995	0.20084222
113	0xbe3c6336	-0.18397221
114	0xbe3f4786	-0.18679628
115	0xbdb36615	-0.08759705
116	0xbcf6914e	-0.030098584
117	0x3e30ccdd	0.17265649
118	0x3dbbbbc2	0.09166671
119	0xbdcb05dc	-0.09913227
120	0xbd957b94	-0.07298961
121	0xbe1f195e	-0.1553702
122	0x3e0314ee	0.12800953
123	0x3e1e4aa9	0.15458168
124	0xbcb48854	-0.022037663
125	0x3e1c2ad3	0.15250711
126	0xbe1d3ab0	-0.15354419
127	0x3d7b4609	0.061346088
128	0x3d633b66	0.05547657
129	0x3d6c5044	0.057693735
130	0xbd69db29	-0.057093773
131	0x3d8bfd27	0.06835394
132	0xbd3b0cf0	-0.045666635
133	0xbd11eb15	-0.035624582
134	0x3e42c39b	0.1901993
135	0x3df9ac9b	0.12191125
136	0xbd144ee5	-0.036208052
137	0x3db3770a	0.08762939
138	0xbdcdf479	-0.10056395
139	0x3d94fcaa	0.07274754
140	0x3caa607a	0.020797957
141	0xbe0d2bb9	-0.1378621
142	0xbddac59b	-0.106822215
143	0x3d6e36db	0.058157783
144	0xbd63d658	-0.055624336
145	0xbda33cc3	-0.07970574
146	0x3e36d483	0.17854504
147	0x3d62a182	0.055329807
148	0x3dbcba5b	0.09215232
149	0x3d03bb6f	0.032161172
150	0xbd5dd8d6	-0.05416187
151	0x3d41b979	0.04729602
152	0x3dff1b10	0.12456334
153	0x3d32c6f8	0.043646783
154	0xbde978d6	-0.11400001
155	0xbd6f144b	-0.058368962
156	0xbd6cb7e7	-0.05779257
157	0xbe15257a	-0.14565077
158	0x3d3882a4	0.045046464
159	0x3de2332a	0.11044915
160	0x3dd5d2a1	0.10440565
161	0xbe0831ad	-0.133002
162	0xbe0484fc	-0.12941355
163	0xbe151a4b	-0.14560811
164	0xbdeb6974	-0.11494723
165	0xbc98e547	-0.018664015
166	0x3d67eff2	0.056625314
167	0xbe905a5e	-0.28193945
168	0x3dc4ff72	0.09619035
169	0xbdfa234e	-0.12213765
170	0xbd8ba19b	-0.06817933
171	0x3de0f6e5	0.109845914
172	0xbd20851d	-0.039189447
173	0xbc890825	-0.016727516
174	0xbd8a4dc2	-0.067531124
175	0xbdb2c1b7	-0.087283544
176	0x3c541690	0.012944832
177	0xbd0f92cb	-0.035052102
178	0xbe188d58	-0.14897668
179	0xbd92a051	-0.07159484
180	0xbd34cfae	-0.04414337
181	0x3d325bae	0.043544464
182	0x3dd2358b	0.10264119
183	0x3e0ae9cd	0.1356575
184	0x3dc1f846	0.094711825
185	0x3e169412	0.14704922
186	0x3c5e9683	0.0135856895
187	0x3df9fe17	0.12206667
188	0xbe0ea27a	-0.13929167
189	0xbe114aff	-0.14188765
190	0x3dccd70d	0.10001955
191	0x3e1fab2f	0.15592645
192	0x3d8b59f9	0.0680427
193	0x3dfe6386	0.12421326
194	0xbdd84cc0	-0.10561514
195	0x3c811289	0.015755909
196	0x3ddda2e9	0.10822088
197	0x3e06dbb8	0.13169754
198	0xbd53c110	-0.05169779
199	0x3e04a292	0.1295264
200	0x3e11f415	0.14253266
201	0xbd83f384	-0.06442931
202	0xbdc0db4f	-0.0941683
203	0xbbe8e006	-0.007106784
204	0x3c8bdea8	0.017073944
205	0xbd9c1bfa	-0.076225236
206	0xbdaa662f	-0.08320271
207	0x3d3b0e61	0.04566801
208	0x3dc06316	0.09393899
209	0xbc5ce684	-0.013482694
210	0xbd9bac8d	-0.07601271
211	0xbd3e55f9	-0.04646871
212	0x3d9fac99	0.07796592
213	0x3e18c00e	0.14917013
214	0xbe09a817	-0.13443027
215	0x3e365b16	0.17808184
216	0x3e1d90a6	0.1538721
217	0x3d6e24ae	0.05814045
218	0x3d8bc38c	0.06824407
219	0xbd98e9e1	-0.07466484
220	0x3d7d6015	0.06185921
221	0xbe23238a	-0.15931526
222	0xbdfa485b	-0.12220832
223	0x3d402aa3	0.04691566
224	0xbe0a53ed	-0.13508578
225	0xbd180236	-0.037111484
226	0x3d941b7a	0.07231803
227	0xbd82de3e	-0.063900456
228	0x3df87faa	0.12133725
229	0xbde119c5	-0.10991243
230	0x3d4242f0	0.047427118
231	0xbe042696	-0.12905344
232	0xbd7dfcf0	-0.062008798
233	0xbe6ca854	-0.23111087
234	0x3b594d30	0.003315758
235	0x3e0ac476	0.13551506
236	0x3e2e8a86	0.1704503
237	0x3df32de5	0.11873988
238	0x3d0f01f0	0.034913957
239	0x3ce49343	0.027902251
240	0x3e40a9e4	0.18814808
241	0xbc66a7f3	-0.014078128
242	0xbe156da5	-0.14592607
243	0x3d8fc346	0.07019667
244	0xbe0d39d5	-0.13791592
245	0x3e01cfca	0.12676921
246	0x3d9067e4	0.070510656
247	0xbd664305	-0.05621626
248	0x3dd128c2	0.10212852
249	0x3ca7827d	0.020447964
250	0x3db43e68	0.088009655
251	0x3b783aac	0.0037876768
252	0xbdf6233e	-0.12018441
253	0xbcbd7f48	-0.023131981
254	0x3dbbe1bf	0.09173917
255	0xbda39dd6	-0.07989089

model.fc.0.bias f4 [128]
0	0xbccc83f0	-0.024965256
1	0x3e16e164	0.14734417
2	0x3dfcac09	0.123375006
3	0xbe1a4ce9	-0.15068401
4	0x3d94ad77	0.07259648
5	0xbd205fa6	-0.039153717
6	0xbe045adf	-0.1292529
7	0x3d1f6fe9	0.038925085
8	0xbdab6dbf	-0.08370542
9	0xbde6ca02	-0.11268999
10	0xbdd360db	-0.10321208
11	0xbd9dbdc2	-0.07702209
12	0xbdbbb94f	-0.09166204
13	0x3d97f234	0.074192435
14	0xbd645c84	-0.055752292
15	0xbe02c93a	-0.12772074
16	0xbdf8efe6	-0.12155132
17	0x3d1513b6	0.03639575
18	0x3d0becf2	0.034161516
19	0x3dc952d8	0.09830254
20	0xbbe7d744	-0.007075222
21	0x3db1b4ad	0.08677039
22	0x3ae4c00a	0.0017452252
23	0x3e12da0d	0.14340992
24	0x3e122fc0	0.14276028
25	0x3dea7a02	0.114490524
26	0x3d813ae6	0.06310062
27	0xbe310234	-0.17285997
28	0xbdefb85a	-0.11705084
29	0xbdff32b9	-0.124608465
30	0x3d8e92f9	0.069616266
31	0xbe19a0e6	-0.15002784
32	0x3dfa3b27	0.12218314
33	0xbda677c9	-0.08128316
34	0x3d1aa8b8	0.03775856
35	0x3d903652	0.07041611
36	0xbcf650fe	-0.030067917
37	0x3e04d206	0.12970743
38	0x3e1d4c5b	0.15361159
39	0x3e29baa7	0.16575108
40	0xbe082c1e	-0.1329808
41	0x3d343749	0.043998037
42	0xbdc5eba9	-0.09664089
43	0x3e19baaa	0.15012613
44	0x3d4d73c9	0.05015925
45	0xbc851b2e	-0.016248312
46	0xbe32f333	-0.17475586
47	0x3de3e4f5	0.111276545
48	0x3dde23e3	0.108466886
49	0xbd3107e0	-0.0432204
50	0xbcce6e10	-0.025198966
51	0x3e2236ca	0.15841213
52	0x3d852b2d	0.06502376
53	0x3e26a3e3	0.16273455
54	0xbc44a3cc	-0.012001943
55	0x3e1f4b36	0.15556034
56	0xbde9bcee	-0.114129886
57	0x3dadf30e	0.08493625
58	0xbe2a211c	-0.16614193
59	0xbe08d4c3	-0.13362412
60	0xbdbab71f	-0.09116959
61	0xbda5e33f	-0.080999844
62	0x3df71abb	0.12065645
63	0x3e29a487	0.16566668
64	0xbe24c020	-0.16088915
65	0xbcf709dd	-0.03015607
66	0xbd6ac204	-0.057313934
67	0x3df9cadb	0.12196895
68	0x3df70227	0.120609574
69	0x3dd7bb17	0.105337314
70	0xbd749c28	-0.059719235
71	0x3dbc428d	0.09192381
72	0x3dceb79a	0.10093613
73	0x3bca089e	0.006165578
74	0xbd23fc00	-0.040035248
75	0xbcdff4c4	-0.027338393
76	0x3dcca042	0.09991504
77	0xba8cf0a3	-0.0010752868
78	0x3dfe8959	0.12428541
79	0x3e2ca5be	0.168601
80	0xbd9137e8	-0.070907414
81	0xbd2aa886	-0.041664623
82	0xbde81245	-0.1133161
83	0xbe01190a	-0.12607208
84	0xbd12192d	-0.03566854
85	0x3da92b55	0.08260218
86	0x3d3316a7	0.043722775
87	0x3df926ff	0.12165641
88	0xbe19f035	-0.15033038
89	0xbc9f47a4	-0.01944334
90	0x3dad3c0b	0.08458718
91	0x3d8935ff	0.06699752
92	0x3ddc2ade	0.10750364
93	0x3e19ec1f	0.1503148
94	0xbd5a6800	-0.05332184
95	0xbd00dd8e	-0.03146129
96	0x3de4a87b	0.111649476
97	0xbd52b546	-0.051442407
98	0x3d916fba	0.07101388
99	0xbdab39a9	-0.08360607
100	0xbd24ca08	-0.040231735
101	0xbd20b7ed	-0.039237905
102	0xbe18e02d	-0.14929266
103	0xbd677df6	-0.05651661
104	0xbe2cc106	-0.16870508
105	0xbe27c60f	-0.16384147
106	0xbcab4783	-0.020908123
107	0x3d4c2db7	0.049848285
108	0x3d631f0d	0.055449534
109	0xba54e124	-0.0008120707
110	0x3d2de51f	0.042454835
111	0xbdc15e45	-0.094418086
112	0xbdd94add	-0.10609982
113	0x3cbf43bf	0.023347734
114	0xbc10602f	-0.008811994
115	0xbc52b371	-0.012860165
116	0x3d7b9dc8	0.06142977
117	0x3dce43b0	0.10071504
118	0x3def1e0a	0.11675651
119	0x3ce5f5b3	0.02807126
120	0x3de3d4ab	0.111245476
121	0xbdad11ee	-0.084506854
122	0x3c8658cc	0.016399764
123	0x3d7596e5	0.059958357
124	0x3ddd18c7	0.107957415
125	0xbdfa69a0	-0.122271776
126	0xbd10e3a8	-0.03537336
127	0x3d87d4a7	0.06632357

model.fc.1.weight f4 [128]
0	0x3f8b94f7	1.0904835
1	0x3f7baf34	0.98314214
2	0x3f7897d4	0.9710667
3	0x3f726090	0.9467859
4	0x3f829a9a	1.0203431
5	0x3f7c0fc0	0.9846153
6	0x3f78e29b	0.9722077
7	0x3f80d3c1	1.0064622
8	0x3f8189a7	1.0120133
9	0x3f738870	0.9513006
10	0x3f8a66a8	1.0812578
11	0x3f7c4a5a	0.9855095
12	0x3f7c359b	0.98519295
13	0x3f6b5190	0.9192133
14	0x3f755756	0.9583639
15	0x3f77e02f	0.9682645
16	0x3f73eb28	0.95280695
17	0x3f745bcf	0.9545259
18	0x3f806ef5	1.0033861
19	0x3f7d0657	0.988378
20	0x3f7991e2	0.97488225
21	0x3f81a661	1.01289
22	0x3f7bdbfb	0.9838254
23	0x3f8215d2	1.0162909
24	0x3f73f740	0.9529915
25	0x3f8150f4	1.010283
26	0x3f7aa550	0.97908497
27	0x3f70ae53	0.94016
28	0x3f79ffb0	0.97655773
29	0x3f6953d4	0.91143537
30	0x3f781329	0.96904236
31	0x3f822ee3	1.0170559
32	0x3f788473	0.970771
33	0x3f80ca1b	1.0061678
34	0x3f6fc6af	0.9366254
35	0x3f7dfde3	0.99215525
36	0x3f7ff1c2	0.9997827
37	0x3f8c2fdf	1.0952109
38	0x3f73d100	0.95240784
39	0x3f6d5573	0.9270851
40	0x3f823bd8	1.0174513
41	0x3f83e685	1.0304724
42	0x3f768c9f	0.9630832
43	0x3f79683a	0.9742466
44	0x3f74226b	0.9536502
45	0x3f7a1428	0.97687006
46	0x3f8a31bc	1.0796428
47	0x3f81efda	1.0151322
48	0x3f7d6b72	0.98992074
49	0x3f7ad24a	0.97977126
50	0x3f7fbc29	0.99896485
51	0x3f74a7bc	0.9556844
52	0x3f8781c2	1.0586474
53	0x3f81534f	1.0103549
54	0x3f743e03	0.9540712
55	0x3f7c0820	0.984499
56	0x3f7183d0	0.94341755
57	0x3f83c2d9	1.0293838
58	0x3f7479e1	0.9549847
59	0x3f6ea1df	0.93215746
60	0x3f7940a4	0.9736426
61	0x3f72584f	0.94666
62	0x3f802e70	1.0014172
63	0x3f6f7e26	0.9355186
64	0x3f869db6	1.051688
65	0x3f69e605	0.91366607
66	0x3f8375f1	1.0270368
67	0x3f7155f9	0.9427181
68	0x3f80d104	1.0063787
69	0x3f76e57d	0.9644392
70	0x3f82a205	1.0205694
71	0x3f74ff8f	0.9570245
72	0x3f778ff6	0.9670404
73	0x3f7396e0	0.9515209
74	0x3f820102	1.0156558
75	0x3f7bf927	0.9842705
76	0x3f79d1db	0.9758584
77	0x3f71a6e2	0.9439527
78	0x3f82a893	1.0207695
79	0x3f78819a	0.97072756
80	0x3f765903	0.9622957
81	0x3f85c6df	1.0451316
82	0x3f6feac0	0.93717575
83	0x3f7ff39f	0.9998111
84	0x3f7c78d2	0.9862186
85	0x3f82cc93	1.0218681
86	0x3f6a7071	0.9157782
87	0x3f8227ca	1.0168393
88	0x3f88aabc	1.0677104
89	0x3f82863d	1.0197216
90	0x3f770275	0.96488124
91	0x3f8a20d4	1.0791268
92	0x3f7a5d63	0.97798747
93	0x3f841e33	1.0321716
94	0x3f702a71	0.9381476
95	0x3f7e10da	0.99244463
96	0x3f80aff0	1.0053692
97	0x3f7874b2	0.9705306
98	0x3f82112b	1.0161489
99	0x3f784634	0.9698212
100	0x3f7d6405	0.9898074
101	0x3f829744	1.0202413
102	0x3f8670ca	1.050317
103	0x3f871e33	1.0556091
104	0x3f69a876	0.91272676
105	0x3f8bdd82	1.0926974
106	0x3f77d00c	0.9680183
107	0x3f73057d	0.9493025
108	0x3f82afc2	1.0209887
109	0x3f7b6837	0.98205894
110	0x3f728cb7	0.94745964
111	0x3f76f6df	0.96470445
112	0x3f84abb5	1.0364901
113	0x3f80aa4c	1.005197
114	0x3f717bfe	0.9432982
115	0x3f744877	0.9542307
116	0x3f73528c	0.9504783
117	0x3f8704cf	1.0548342
118	0x3f847414	1.0347924
119	0x3f86398b	1.0486311
120	0x3f7ab9ed	0.9793995
121	0x3f71d2dd	0.94462377
122	0x3f7ab912	0.97938645
123	0x3f7fd8a9	0.9993997
124	0x3f838ba7	1.0276994
125	0x3f82f37b	1.0230554
126	0x3f84e896	1.038348
127	0x3f8047ee	1.0021951

model.fc.1.bias f4 [128]
0	0xbd4eefd2	-0.05052168
1	0xbcc44f27	-0.023963524
2	0xbd2a7cb2	-0.041622825
3	0xbdab43ef	-0.08362567
4	0x3cea5fac	0.028610073
5	0xbd10cae8	-0.035349756
6	0xbc354fc1	-0.011066378
7	0xbcc23f7f	-0.023711918
8	0x3d68bcb2	0.05682058
9	0x3c813547	0.015772475
10	0xbbd0673b	-0.0063599623
11	0xbc37b117	-0.011211655
12	0xbcf929f1	-0.030415507
13	0xbcd8df50	-0.026473671
14	0xbd49efbc	-0.049300894
15	0xbd44611d	-0.047944177
16	0xbc40be46	-0.011764115
17	0xbd2f063c	-0.042730555
18	0xbe06f428	-0.13179076
19	0xbb857bba	-0.0040735872
20	0x3c68b6dc	0.014203753
21	0x3d18b822	0.037284978
22	0xbcb0acc6	-0.02156676
23	0x3cd3890d	0.025822187
24	0xbc77632e	-0.01509933
25	0xbcc1d538	-0.023661241
26	0x3c650c82	0.013980033
27	0xbc3f43cc	-0.011673879
28	0xbcdffa37	-0.027340991
29	0xbd8547a5	-0.06507806
30	0xbd146f58	-0.036239
31	0xbd1fe0b8	-0.039032668
32	0x3d041b8e	0.03225284
33	0x3cc229de	0.023701604
34	0xbd3629f3	-0.0444736
35	0xbd05c6ba	-0.032660224
36	0x3d368cfa	0.04456804
37	0xbd1e08c5	-0.038582582
38	0xbc9ca6cb	-0.019122502
39	0xbd523245	-0.051317472
40	0xbc784433	-0.015152979
41	0x3d062779	0.032752488
42	0xbd1766a5	-0.036963124
43	0xbd0a875a	-0.033820488
44	0xbd1a2457	-0.037632313
45	0xbd2b6ce6	-0.0418519
46	0x3d082e99	0.033247564
47	0xbce516e0	-0.02796501
48	0xbd3b81a1	-0.04577792
49	0xbbcfaeb6	-0.006337966
50	0xbc8e98f7	-0.017406924
51	0xbd07ca42	-0.033151872
52	0x3d4347bc	0.047675833
53	0x3d84ef04	0.06490901
54	0xbc8c80eb	-0.017151317
55	0xbcf41d91	-0.029799255
56	0xbcafc7a3	-0.021457499
57	0x3cbf7cf5	0.023375014
58	0xbd545617	-0.051839914
59	0xbd95460d	-0.07288752
60	0x3a94cd07	0.0011352607
61	0xbce39042	-0.027778748
62	0xbbf1d5fb	-0.007380245
63	0xbd9cba04	-0.07652667
64	0x3db2a133	0.087221526
65	0xbd83b236	-0.064304754
66	0x3d9588f7	0.073015146
67	0xbc90e2b8	-0.017686233
68	0x3d32f52d	0.04369085
69	0xbc3c44f5	-0.01149105
70	0xbc5389d5	-0.01291128
71	0xbd895745	-0.067060985
72	0xbbe64706	-0.0070275096
73	0xbd34bc9a	-0.044125177
74	0xbc89de37	-0.016829593
75	0xbd4cf550	-0.050038636
76	0xbcb76bac	-0.02239021
77	0xbad0fdb9	-0.0015944756
78	0xbcce1e99	-0.025161074
79	0xbd6e6e48	-0.05821064
80	0xbd1cb8b7	-0.038262095
81	0x3d0ab11b	0.033860307
82	0xbda0b487	-0.07846933
83	0xbb8b97c8	-0.004260037
84	0xbc139a5e	-0.009008972
85	0xbcd3d287	-0.025857223
86	0xbd54b71e	-0.051932447
87	0xbcb367bc	-0.02190005
88	0x3d3350fd	0.04377841
89	0x3bd734ef	0.0065675895
90	0xbccdd7af	-0.02512726
91	0x3cf3be6f	0.029753892
92	0x3c974cd4	0.018469252
93	0xbc986647	-0.018603457
94	0xbcc1c144	-0.023651727
95	0xbc0d8611	-0.008637921
96	0xbbe36164	-0.0069391
97	0x3cce93d1	0.025216969
98	0xbbb327e2	-0.005467401
99	0x3d140ce9	0.036145125
100	0xbc723cbe	-0.01478499
101	0xbc849ceb	-0.016188106
102	0x3d06d45d	0.03291737
103	0x3c7482ae	0.014923735
104	0xbd3e5ccf	-0.046475228
105	0xbcb953bb	-0.022622934
106	0xbd2b3860	-0.04180181
107	0xbd1e5650	-0.038656533
108	0x3d18df1a	0.03732214
109	0x3d311877	0.043236222
110	0xbd46ed23	-0.048565995
111	0xbcacf3a7	-0.021112276
112	0xbce93a0e	-0.028470065
113	0x3d5c81f4	0.05383487
114	0xbcd5c4ed	-0.026094878
115	0xbdbbc550	-0.09168494
116	0xbcaa0f81	-0.020759346
117	0xbb7cf717	-0.0038599425
118	0x3c8be4d0	0.01707688
119	0xbc8cea9f	-0.01720172
120	0xbd4d702e	-0.05015581
121	0xbca0d83b	-0.019634357
122	0x3c72c8b8	0.014818363
123	0xbce95e78	-0.028487429
124	0xbcb9f56a	-0.02270003
125	0x3c01d556	0.007924398
126	0x3cf49ab9	0.029858934
127	0x3c46cb52	0.012133436

model.fc.1.running_mean f4 [128]
0	0x3e2bbb0c	0.16770571
1	0xbe99b0e9	-0.30017784
2	0x3eea2142	0.457285
3	0x3b8ee937	0.0043612975
4	0xbe055ec2	-0.13024428
5	0x3e856f15	0.2606131
6	0xbe5f7b5c	-0.21824402
7	0x3f2e0e1b	0.67990273
8	0xbe0f4b60	-0.13993597
9	0xbd8320e5	-0.064027585
10	0xb9abcf80	-0.0003277026
11	0x3eb07aed	0.34468785
12	0xbe1e62d8	-0.15467393
13	0x3e6ec00b	0.23315446
14	0x3c88c171	0.016693803
15	0xbea615d7	-0.32438537
16	0xbdaa04f5	-0.08301727
17	0x3dc28b28	0.09499198
18	0x3e0e7e6e	0.13915417
19	0x3eaff63a	0.34367543
20	0xbe2b73b2	-0.16743353
21	0x3e475d66	0.19469222
22	0xbe253a3a	-0.16135493
23	0x3dc2d673	0.09513559
24	0x3e307bc6	0.17234716
25	0x3e3304a3	0.17482238
26	0x3c7d3750	0.015455082
27	0xbe9a837b	-0.30178437
28	0x3eb05499	0.34439543
29	0x3d7297c4	0.059226766
30	0xbe5447bb	-0.20730488
31	0xbf0d606c	-0.55225253
32	0xbd31060d	-0.04321866
33	0x3e30a76b	0.17251365
34	0x3ea97e5a	0.3310421
35	0x3e4163a1	0.18885662
36	0x3dd0819b	0.1018097
37	0x3ed7b204	0.42128003
38	0x3edcd43e	0.43130678
39	0x3e146002	0.14489749
40	0xbee860e6	-0.45386428
41	0x3dcdb4c6	0.100442454
42	0xbddeb43c	-0.10874221
43	0x3f2732dd	0.65311986
44	0xbda59f04	-0.080869704
45	0x3dd27035	0.10275308
46	0xbedbbd7c	-0.42918003
47	0x3d395ca3	0.04525436
48	0x3e70c993	0.23514394
49	0xbe7d14b0	-0.24714923
50	0xbe7d6f75	-0.24749549
51	0x3eec9332	0.4620605
52	0x3dc2b162	0.09506489
53	0xbe26046b	-0.16212623
54	0xbe80b331	-0.25136712
55	0x3d9c8751	0.07642997
56	0x3daf4c78	0.08559507
57	0x3dfe61d0	0.12421
58	0xbb965d65	-0.00458877
59	0xbda55c44	-0.08074239
60	0xbe2631a3	-0.16229872
61	0xbe15e1f9	-0.14636983
62	0x3d82a2fd	0.06378744
63	0xbab7c9c1	-0.0014021919
64	0xbeedc29a	-0.46437532
65	0x3ea917e6	0.33026046
66	0x3d9464b0	0.07245767
67	0x3d269c55	0.040676434
68	0x3e1cd89c	0.15317005
69	0xbe660ad7	-0.22465073
70	0xbdaa17eb	-0.08305343
71	0xbd875226	-0.066074654
72	0xbe17c1c6	-0.14820012
73	0xbe04b534	-0.12959749
74	0xbd431f86	-0.047637485
75	0x3cd03048	0.025413647
76	0x3e72822c	0.23682469
77	0xbd045d61	-0.032315616
78	0x3e74cea6	0.23906955
79	0x3e0335b7	0.1281346
80	0xbe42733b	-0.1898927
81	0xbd825af1	-0.06365002
82	0xbecb5b94	-0.39718306
83	0xbe4a2e50	-0.1974423
84	0x3ded1f9d	0.115782954
85	0x3e8752ae	0.26430267
86	0xbd87de97	-0.066342525
87	0xbe66bf54	-0.22533923
88	0xbd8f2470	-0.06989372
89	0xbe726d20	-0.2367444
90	0xbeb3de20	-0.35130405
91	0xbe0bae1e	-0.13640639
92	0x3e9cf506	0.30655688
93	0x3ebb9e4b	0.36644205
94	0x3e448c34	0.19194108
95	0x3e7d01dd	0.24707742
96	0xbb6a82d3	-0.0035783544
97	0xbe05eee0	-0.13079405
98	0x3e852af8	0.26009345
99	0xbf2717cf	-0.65270704
100	0xbe5b21b8	-0.21399581
101	0xbe67cd15	-0.22636826
102	0xbe93ead6	-0.28890103
103	0x3cfca590	0.030840665
104	0x3d823aaa	0.063588455
105	0xbe6fdd2f	-0.23424219
106	0xbdaa82b5	-0.08325712
107	0x3f0d62a4	0.5522864
108	0xbe11f522	-0.14253667
109	0xbe18184c	-0.14853019
110	0xbeb37edc	-0.35057724
111	0xbed06610	-0.40702868
112	0x3e1dbde9	0.15404476
113	0xbe94438a	-0.28957778
114	0x3dabdde7	0.08391934
115	0xbe511939	-0.20419778
116	0xbd67fb03	-0.056635868
117	0x3f1f182f	0.62146276
118	0x3e6ddecc	0.23229522
119	0xbe93d0f7	-0.28870365
120	0x3de15e17	0.11004274
121	0x3e96b339	0.2943361
122	0x3f031ed7	0.5121893
123	0xbddbc177	-0.1073026
124	0x3e41c779	0.18923749
125	0xbe574df0	-0.21025825
126	0x3e2bcbe0	0.16776991
127	0x3d7b4aa2	0.061350472

model.fc.1.running_var f4 [128]
0	0x3e269d52	0.1627095
1	0x3d73ce44	0.059522882
2	0x3da58055	0.08081118
3	0x3dc3245f	0.095284216
4	0x3d97e336	0.07416384
5	0x3e0e418d	0.13892193
6	0x3d9b5a35	0.07585565
7	0x3e02cee5	0.12774237
8	0x3e19c7de	0.1501765
9	0x3e04425c	0.12915939
10	0x3e6710b4	0.22564965
11	0x3de41f35	0.11138765
12	0x3d823c1f	0.063591234
13	0x3d6c45f6	0.057683907
14	0x3dba30a4	0.09091309
15	0x3e12d238	0.14338005
16	0x3db278ef	0.087144725
17	0x3dd76390	0.10517037
18	0x3e3b08d6	0.1826509
19	0x3dd013a8	0.10159999
20	0x3dfdc74f	0.12391531
21	0x3db2b3ac	0.08725676
22	0x3de589d4	0.11207929
23	0x3e02aeb0	0.1276195
24	0x3d29b600	0.041433334
25	0x3dcbee16	0.09957521
26	0x3dc21f0c	0.09478578
27	0x3df5c923	0.120012544
28	0x3de3c3bd	0.111213185
29	0x3d8c2db6	0.06844656
30	0x3d7208bb	0.059090357
31	0x3dbc41c6	0.09192233
32	0x3e085331	0.13312985
33	0x3dce4a69	0.10072786
34	0x3d8b653c	0.06806418
35	0x3de34730	0.11097562
36	0x3dcef78d	0.1010581
37	0x3de794fe	0.11307715
38	0x3ddab5ad	0.10679183
39	0x3e169689	0.14705862
40	0x3ddd0d2f	0.1079353
41	0x3e29649f	0.1654229
42	0x3dbb7f1e	0.09155105
43	0x3db389d1	0.08766521
44	0x3e02a2aa	0.12757364
45	0x3e1b35d0	0.15157247
46	0x3e17707b	0.14789002
47	0x3dc24aef	0.09486949
48	0x3de81b72	0.1133336
49	0x3d88469b	0.06654092
50	0x3db88fee	0.090118274
51	0x3d9791a3	0.07400825
52	0x3d8fa1f8	0.07013315
53	0x3ddadd08	0.106866896
54	0x3e0e1ab8	0.1387738
55	0x3de23ac0	0.11046362
56	0x3e08aafa	0.13346472
57	0x3e031e72	0.12804583
58	0x3d65cab1	0.056101505
59	0x3dbb6836	0.09150736
60	0x3dd80766	0.10548286
61	0x3e25d160	0.16193151
62	0x3dd07125	0.101778306
63	0x3d7ebc5e	0.06219136
64	0x3e81ae51	0.25328305
65	0x3dc0c1e2	0.0941198
66	0x3ded6da7	0.1159318
67	0x3e0248a4	0.12723023
68	0x3ddfad09	0.10921676
69	0x3e0e1da8	0.138785
70	0x3de96f00	0.11398125
71	0x3dfc6c80	0.12325382
72	0x3dfca4a9	0.12336094
73	0x3dadec07	0.08492284
74	0x3e458d3d	0.1929216
75	0x3da9a905	0.08284191
76	0x3ddbd8dd	0.10734723
77	0x3dc2ba5a	0.095082
78	0x3e0c4ae3	0.13700442
79	0x3de9b41e	0.11411308
80	0x3dd3bed7	0.10339134
81	0x3e05b7dc	0.13058418
82	0x3d975e8e	0.07391082
83	0x3dbd2e2a	0.09237321
84	0x3dd8d165	0.10586814
85	0x3dff5075	0.12466518
86	0x3d7fde64	0.062467948
87	0x3e0c5cf6	0.13707337
88	0x3de42555	0.11139933
89	0x3e1360fb	0.14392464
90	0x3d358069	0.044311915
91	0x3dd09621	0.10184885
92	0x3e012bd4	0.12614375
93	0x3e2aade1	0.16667892
94	0x3e01d0ee	0.12677357
95	0x3d915d50	0.07097876
96	0x3dcbde2b	0.099544846
97	0x3e09253b	0.13393109
98	0x3e034ccf	0.12822269
99	0x3dfbb26e	0.12289892
100	0x3d876a23	0.06612041
101	0x3e104e13	0.14092283
102	0x3e1715a7	0.14754353
103	0x3d874e2b	0.06606706
104	0x3dd7969e	0.10526775
105	0x3ded835b	0.1159732
106	0x3dcbecfa	0.09957309
107	0x3d880386	0.06641297
108	0x3df8803f	0.12133836
109	0x3da31143	0.07962277
110	0x3d91d3ce	0.07120477
111	0x3dc7aec4	0.09750131
112	0x3e2d59dc	0.1692881
113	0x3e015d37	0.12633215
114	0x3dfca07d	0.12335298
115	0x3debb3d8	0.11508912
116	0x3dbcdfbb	0.09222361
117	0x3e0599a7	0.13046895
118	0x3dca1ae7	0.098684125
119	0x3da14c2a	0.07875855
120	0x3d86d39a	0.065833285
121	0x3db7e604	0.08979419
122	0x3dcb7409	0.09934241
123	0x3e015eb0	0.12633777
124	0x3e081151	0.13287856
125	0x3d7fc9d3	0.062448334
126	0x3e221d3d	0.15831466
127	0x3d89d515	0.06730095

model.fc.4.weight f4 [64, 128]
0	0xbccd2cf0	-0.025045842
1	0x3ca941dc	0.020661287
2	0x3d15457e	0.036443226
3	0xbbe18cee	-0.006883255
4	0x3d6a91d8	0.057267994
5	0xbd8dfdbd	-0.06933162
6	0x3d461934	0.04836388
7	0xbd227174	-0.03965898
8	0x3cabe09c	0.020981126
9	0x3d357cef	0.0443086
10	0xbd170235	-0.03686734
11	0xbda594d8	-0.0808503
12	0xbd825b83	-0.06365111
13	0x3d12691a	0.035744764
14	0xbd3ea7da	-0.046546794
15	0xbc86fa72	-0.016476844
16	0x3cafc683	0.021456962
17	0xbc882426	-0.0166188
18	0xbd0a23d9	-0.033725593
19	0x3dafefda	0.0859067
20	0xbd68324d	-0.056688596
21	0xbd41fd24	-0.047360554
22	0x3dc9c63f	0.098522656
23	0xbd8347b3	-0.0641016
24	0x3ca49c2e	0.020094004
25	0xbd5d7bbb	-0.054073077
26	0xbe0082b7	-0.12549864
27	0x3d836188	0.06415087
28	0x3cebd324	0.028787203
29	0x3c15a59b	0.009133722
30	0xbd121df9	-0.035673115
31	0x3d189ede	0.037260883
32	0xbd8022aa	-0.06256612
33	0xbc94871b	-0.01813083
34	0x3d61841e	0.055057637
35	0xbc6d76b9	-0.014493638
36	0x3ce379f8	0.02776812
37	0x3d1dd114	0.03852947
38	0x3cccea47	0.025014056
39	0x3dbd4dd1	0.09243358
40	0xbd937a4b	-0.0720106
41	0x3dd697c4	0.10478166
42	0x3d88540e	0.06656657
43	0x3dca6c3e	0.09883927
44	0xbcd118a7	-0.02552445
45	0x3cf05cdb	0.029341152
46	0x3d0a7a03	0.033807766
47	0xbd1fe382	-0.039035328
48	0x3d56b668	0.05242005
49	0x3dc91d98	0.09820098
50	0x3c139b52	0.009009199
51	0xbbdde332	-0.0067714686
52	0x3d681e41	0.056669477
53	0x3d0f497d	0.034982193
54	0x3d021da5	0.031766552
55	0xbcc0ca26	-0.023533892
56	0x3d25b19c	0.040452585
57	0x3d53f5ed	0.051748205
58	0xbd263c42	-0.04058481
59	0xbd88288a	-0.06648357
60	0xbc00f23d	-0.007870254
61	0x3cf4ebef	0.029897658
62	0xbc006f5e	-0.007839052
63	0xbd3df1b3	-0.04637308
64	0xbd1c302b	-0.038131874
65	0x3d865369	0.06558878
66	0x3e03873e	0.1284456
67	0xbdaf86ed	-0.08570657
68	0x3de7d494	0.11319843
69	0x3d9976e7	0.07493382
70	0xbd844531	-0.0645851
71	0xbd676bf9	-0.056499455
72	0xba813720	-0.0009858347
73	0xbd53319c	-0.051560983
74	0x3d673d84	0.05645515
75	0xbd3e2951	-0.04642612
76	0xbd2d4fa1	-0.04231227
77	0x3d1c80a6	0.038208626
78	0xbd6b23e0	-0.05740726
79	0x3da06468	0.07831651
80	0xbd786c2f	-0.060650047
81	0xbc915a51	-0.017743262
82	0x3c66e2ae	0.014092131
83	0x3cb540b4	0.02212558
84	0x3d713f2a	0.05889813
85	0x3df49af3	0.11943617
86	0x3b8e77e9	0.0043477905
87	0x3b803e5f	0.003913685
88	0xbd2a907f	-0.04164171
89	0xbc74b208	-0.014935024
90	0xbd1da5c8	-0.03848818
91	0x3cb20c7a	0.021734465
92	0xbc6b4c5c	-0.014361467
93	0x3d228d5e	0.0396856
94	0xbd5fd6fd	-0.05464839
95	0xbc9e795d	-0.01934498
96	0xbcaca9ca	-0.021077055
97	0x3d2b31a3	0.041795384
98	0x3b339432	0.0027401564
99	0xbd8a2fb3	-0.06747379
100	0xbd33ac96	-0.043865763
101	0xbd8c9fc4	-0.068664104
102	0x3d3f303a	0.04667685
103	0x3cbba3be	0.022905227
104	0x3d80faa5	0.06297807
105	0x3d53f068	0.05174294
106	0xbd039054	-0.032120064
107	0xbb65bd64	-0.0035055513
108	0x3d149854	0.036278084
109	0x3d8200ae	0.06347786
110	0x3d2c625b	0.042085987
111	0x3d640fcf	0.05567914
112	0x3c42ddae	0.011893673
113	0xbcaab908	-0.020840183
114	0x3be0434f	0.0068439613
115	0x3dc70b38	0.09718937
116	0x3dcff9ab	0.10155042
117	0x3d37047c	0.04468201
118	0xbc4acd70	-0.012378082
119	0x3cf582d9	0.02996962
120	0x3de70101	0.11279488
121	0x3bb403bb	0.005493609
122	0xbdb216c3	-0.08695748
123	0xbd089175	-0.033341844
124	0xbdd0dbea	-0.10198195
125	0xbc2450a6	-0.010028994
126	0xbcc5cc70	-0.024145335
127	0x3d05e02c	0.03268449
128	0xbcf8ff64	-0.030395217
129	0x3a4ec553	0.000788768
130	0xbd38fc49	-0.045162473
131	0xbc3205c5	-0.010865633
132	0xbdc8e853	-0.09809937
133	0xbb4da532	-0.0031378982
134	0x3d2e0a6b	0.042490404
135	0xbd8332af	-0.064061515
136	0x3da29e3e	0.079403386
137	0xbc2c8545	-0.010529821
138	0x3d7383f2	0.059452005
139	0x3cf81b2f	0.0302864
140	0xbc8d148e	-0.017221715
141	0x3d617950	0.055047333
142	0xbdaaceab	-0.083402
143	0x3c38f97b	0.0112899495
144	0x3dc95b4b	0.09831866
145	0xbd622aae	-0.055216484
146	0x3db3553a	0.0875649
147	0xbc0877bc	-0.008329328
148	0x3cac7874	0.02105353
149	0x3ced6936	0.028980833
150	0x3d49390f	0.04912668
151	0xbd93340e	-0.07187663
152	0xb9caa7d5	-0.00038653487
153	0xbd653ece	-0.0559681
154	0xbceb3d35	-0.02871571
155	0xbcb82507	-0.022478594
156	0x3d89f42e	0.06736027
157	0xbcdca06d	-0.026931966
158	0xbd7a47b2	-0.06110353
159	0x3c17e995	0.009271999
160	0x3cc5c40a	0.02414133
161	0xbddd3c35	-0.10802499
162	0xbd70866f	-0.058721956
163	0x3ce983fb	0.028505316
164	0x3cea26bc	0.028582923
165	0x3da79f0e	0.08184634
166	0x3d49dbbd	0.049281824
167	0xbc85ea07	-0.016346944
168	0x3b56b9e8	0.0032764617
169	0x3c23ae15	0.009990235
170	0xbd8492a1	-0.0647328
171	0xbcbf895b	-0.023380926
172	0xbd50497d	-0.050851334
173	0x3ca2196c	0.019787513
174	0x3bd5c5c3	0.006523819
175	0xbd17ffc0	-0.037109137
176	0x3d53d15f	0.051713344
177	0xbccb0ba0	-0.024785817
178	0x3c82e3ee	0.015977826
179	0xbdbae286	-0.09125237
180	0xbd384d2d	-0.044995476
181	0xbcf0937f	-0.029367207
182	0x3d3bff0e	0.045897536
183	0xbd19b272	-0.037523694
184	0x3b76f8a7	0.003768483
185	0x3d9de2af	0.07709252
186	0xbcee89d8	-0.029118463
187	0xbcd6ea90	-0.026234895
188	0xbc537b44	-0.012907807
189	0x3cd97760	0.02654618
190	0x3d207a54	0.03917916
191	0xbd99a38c	-0.07501897
192	0x3dc5e908	0.09663588
193	0xbd1fc4ae	-0.039005928
194	0x3d3183f6	0.04333874
195	0x3d9b97e0	0.07597327
196	0x3da2ff2a	0.07958825
197	0xbd2709d7	-0.04078087
198	0xbd0f5334	-0.034991458
199	0xbd727df8	-0.059202164
200	0xbd5b2a22	-0.053506978
201	0xbd6d3339	-0.057910178
202	0xbce60ba2	-0.028081719
203	0xbd984f5d	-0.07437012
204	0xbdb40ca6	-0.08791475
205	0x3d3576f0	0.04430288
206	0x3ddcb897	0.10777395
207	0x3dad385d	0.08458016
208	0x3b971332	0.0046104426
209	0xba1ab384	-0.00059013837
210	0xbd6b3a18	-0.05742845
211	0xbd9105f9	-0.07081217
212	0x3d7075b7	0.05870601
213	0x3de4b9f4	0.1116828
214	0x3daa4ffe	0.083160385
215	0x3dc5e201	0.096622474
216	0xbc147cfa	-0.009063
217	0x3db92360	0.0903995
218	0x39e1262b	0.00042943782
219	0xbd27c03b	-0.04095481
220	0x3d0b2964	0.03397502
221	0x3db2dd8b	0.08733662
222	0x3d8fd4ec	0.070230335
223	0x3db85bf2	0.09001912
224	0xbc944855	-0.018100897
225	0xbce7b8ad	-0.028286302
226	0xbc082cb7	-0.008311442
227	0x3d51b271	0.051195566
228	0x3ddff7ae	0.10935913
229	0x3db624b6	0.08893721
230	0xbce9f55b	-0.028559377
231	0x3c7d638a	0.0154656265
232	0x3d4a0a30	0.04932612
233	0x3d176982	0.036965854
234	0xbd6a6146	-0.057221673
235	0xbda4e153	-0.0805079
236	0x3d0a7001	0.03379822
237	0xbdc0aa19	-0.094074436
238	0xbd752aaa	-0.05985514
239	0xbc923dbb	-0.017851701
240	0x3d6ca13a	0.057770945
241	0xbb9a5336	-0.0047096265
242	0xbdaf329b	-0.08554574
243	0x3d427324	0.047473088
244	0x3ca0ee64	0.019644924
245	0x3d9e44bf	0.07727956
246	0xbd893e43	-0.067013286
247	0xbd33c10a	-0.04388527
248	0xbd23dfb1	-0.04000825
249	0xbdecbd66	-0.115595624
250	0xbd841893	-0.0645
251	0x3cf2f9a5	0.029660055
252	0x3c8a5ab3	0.016888952
253	0xbc797794	-0.015226264
254	0xbcb1f407	-0.021722807
255	0x3c9c1a0a	0.019055385

model.fc.4.bias f4 [64]
0	0xbce93ead	-0.028472269
1	0x3c0ddb76	0.008658281
2	0xbc8b31fd	-0.01699161
3	0xbd262a2f	-0.040567573
4	0xbd72c1ca	-0.059266843
5	0xbda5d3ea	-0.0809706
6	0x3d84a4c2	0.064767376
7	0xbba5d4b7	-0.005060758
8	0xbc8e313a	-0.017357457
9	0x3c928ee5	0.017890403
10	0x3d5b687c	0.05356644
11	0xbd92bc69	-0.07164843
12	0x3d20fd06	0.039303802
13	0x3d4a8300	0.049441338
14	0xbd81f587	-0.06345659
15	0x3d026f44	0.031844392
16	0xbc82e127	-0.015976502
17	0xbb40456f	-0.002933826
18	0xbc829b69	-0.015943246
19	0x3cf49a65	0.029858777
20	0x3cb93275	0.022607068
21	0xbc8a161b	-0.016856244
22	0xbc7573f9	-0.014981263
23	0xbd5215bd	-0.051290262
24	0x3cb38487	0.02191378
25	0xbd1d8319	-0.038455103
26	0xbd977e9c	-0.07397196
27	0xbccd42dd	-0.025056297
28	0xbc855bd3	-0.016279137
29	0x3cefe8b6	0.02928577
30	0x3d25d6da	0.0404881
31	0xbd39fcea	-0.045407213
32	0x3d080509	0.033207927
33	0x3cf2412e	0.029572096
34	0xbd6270f2	-0.055283494
35	0xbdad4cb9	-0.08461899
36	0xbd331612	-0.04372222
37	0x3d841f75	0.064513125
38	0x3d31deab	0.043425243
39	0xbbb8237f	-0.005619466
40	0xba508ac2	-0.0007955247
41	0x3cacfc7e	0.021116491
42	0x39fc737d	0.0004815123
43	0xbd88af22	-0.06674029
44	0x3cd77ee3	0.026305621
45	0xbd27185b	-0.04079471
46	0x3d993546	0.07480864
47	0xbdb30c03	-0.087425254
48	0x3db7d850	0.08976805
49	0xbbfc3337	-0.007696535
50	0xbd513db2	-0.051084228
51	0xbc429907	-0.011877305
52	0xbd846183	-0.064639114
53	0xbd472cd5	-0.04862674
54	0x3bb6893c	0.005570559
55	0xbcec6fd0	-0.02886191
56	0x3d70bca1	0.05877364
57	0x3d501bda	0.05080781
58	0xbcb666fa	-0.0222659
59	0xbc9b33fc	-0.018945687
60	0xbc13711b	-0.008999134
61	0xbda86341	-0.08222056
62	0xbd19ea63	-0.037577044
63	0xbcd9af7b	-0.026572933

model.fc.5.weight f4 [64]
0	0x3f6b33c3	0.9187586
1	0x3f722df2	0.94601357
2	0x3f79365e	0.9734858
3	0x3f84fca4	1.03896
4	0x3f81b93a	1.0134652
5	0x3f7f4f03	0.9972994
6	0x3f6d4278	0.9267955
7	0x3f7deb4c	0.9918716
8	0x3f727132	0.9470397
9	0x3f802b5c	1.0013232
10	0x3f6fb919	0.9364181
11	0x3f8106b2	1.0080168
12	0x3f77bc1d	0.96771413
13	0x3f7bd93d	0.98378354
14	0x3f70b962	0.9403287
15	0x3f730322	0.94926655
16	0x3f6ec0bb	0.93262833
17	0x3f874f84	1.0571141
18	0x3f83bfaa	1.0292866
19	0x3f832abb	1.0247415
20	0x3f73cb44	0.95232034
21	0x3f72c78e	0.94835746
22	0x3f809107	1.0044259
23	0x3f87058a	1.0548565
24	0x3f7ea259	0.9946647
25	0x3f6deb63	0.92937297
26	0x3f8036e8	1.0016756
27	0x3f85aa9b	1.044269
28	0x3f8fb5d0	1.122736
29	0x3f8c212b	1.0947622
30	0x3f7b8353	0.9824726
31	0x3f867959	1.0505782
32	0x3f789c82	0.9711381
33	0x3f785486	0.9700397
34	0x3f5f8a9c	0.87320876
35	0x3f83f9cc	1.0310607
36	0x3f86ca9e	1.0530584
37	0x3f789e3a	0.97116435
38	0x3f7475b5	0.95492107
39	0x3f81a4ee	1.0128458
40	0x3f7dad14	0.9909222
41	0x3f8b756a	1.0895207
42	0x3f755da0	0.95845985
43	0x3f785ae1	0.9701367
44	0x3f601935	0.8753846
45	0x3f6d3399	0.92656857
46	0x3f8b61ed	1.088926
47	0x3f86518e	1.0493639
48	0x3f816db6	1.0111606
49	0x3f892afb	1.0716242
50	0x3f750751	0.9571429
51	0x3f8a38db	1.0798601
52	0x3f6932ce	0.91093147
53	0x3f855d56	1.0419109
54	0x3f700741	0.9376107
55	0x3f78bed0	0.97166157
56	0x3f81d8b3	1.0144256
57	0x3f6819b5	0.90664226
58	0x3f6eae75	0.9323495
59	0x3f711d9a	0.94185793
60	0x3f6abe08	0.91696215
61	0x3f81a58c	1.0128646
62	0x3f7d16e9	0.98863083
63	0x3f84d0be	1.0376203

model.fc.5.bias f4 [64]
0	0xbde7786b	-0.11302265
1	0xbd850de6	-0.064967915
2	0xbd02d6f1	-0.031943265
3	0x3ccf0bc0	0.025274158
4	0xbdaa32a6	-0.08310442
5	0xbd8361e8	-0.064151585
6	0xbd1dfe41	-0.038572554
7	0xbd8d319a	-0.06894226
8	0xbd79bfa6	-0.060973786
9	0xbd32b1d7	-0.043626633
10	0xbd3a4869	-0.045479212
11	0xbdb7e188	-0.089785635
12	0xbd5b661a	-0.05356417
13	0xbd8ceb6a	-0.06880839
14	0xbd0dcf09	-0.034621272
15	0xbd080b1b	-0.033213716
16	0xbd748363	-0.059695613
17	0x3dcd2818	0.10017413
18	0x3dd3dc75	0.10344783
19	0x3c5eaf0d	0.01359154
20	0xbd6aca3f	-0.057321783
21	0xbc83ed04	-0.016104229
22	0xbd716dbc	-0.05894254
23	0xbd949c08	-0.07256323
24	0xbc467387	-0.012112505
25	0xbd5baf1e	-0.0536338
26	0x3d8f8aca	0.07008894
27	0xbd15eea5	-0.036604542
28	0x3d616201	0.055025104
29	0x3d2ec771	0.04267067
30	0x3d14451a	0.036198713
31	0x3cc46c81	0.02397752
32	0xbbc112b5	-0.0058921226
33	0xbaba9f06	-0.0014238067
34	0xbdc946b8	-0.09827942
35	0xbd72e269	-0.059297953
36	0x3d2451ed	0.040117193
37	0xbd576f4f	-0.052596387
38	0xbd843945	-0.06456236
39	0xbd9d041f	-0.07666802
40	0xbc8cdb69	-0.017194467
41	0x3cea4eaa	0.028601963
42	0xbd8f18ac	-0.06987128
43	0xbdeebaae	-0.116567
44	0xbd9dbe5a	-0.07702322
45	0xbd5fe7ec	-0.054664537
46	0xb82ef4c8	-4.1712803e-05
47	0x3d348d5b	0.04408012
48	0xbd0f3ed2	-0.03497202
49	0x3d64a9df	0.055826064
50	0xbd06378b	-0.032767814
51	0x3d54d21a	0.05195818
52	0xbd9ed041	-0.07754565
53	0x3d178629	0.03699318
54	0xbd5ed732	-0.054404445
55	0xbd6f1ebb	-0.058378916
56	0x3cf81be1	0.030286731
57	0xbd90e56e	-0.0707501
58	0xbd95432e	-0.07288204
59	0x3c447915	0.011991759
60	0xbd2f54e5	-0.04280557
61	0x3d7f3ce3	0.062313925
62	0xbba15172	-0.004923039
63	0xbe372b82	-0.1788769

model.fc.5.running_mean f4 [64]
0	0x3e973a66	0.29536742
1	0x3daad1a6	0.083407685
2	0xbec2fd0c	-0.38083684
3	0x3c0b36fc	0.008496996
4	0x3e925d87	0.2858698
5	0x3dd6d5e7	0.104900174
6	0xbe35a985	-0.17740448
7	0xbd44d2df	-0.048052665
8	0x3deaf665	0.11472777
9	0x3f2da87d	0.6783522
10	0xbc0d0758	-0.008607708
11	0x3e93daa8	0.2887776
12	0x3e967474	0.29385722
13	0x3e43320c	0.1906206
14	0xbe368299	-0.17823257
15	0xbf151eac	-0.58249927
16	0x3eda72c0	0.42665672
17	0xbe5ecb5a	-0.2175726
18	0xbe0c8068	-0.13720858
19	0x3da8f7a2	0.08250357
20	0x3eb4aba8	0.35287213
21	0x3e19cc0e	0.15019247
22	0x3e44de63	0.19225459
23	0x3e7a9d90	0.24474168
24	0xbf0d9b2c	-0.553149
25	0x3eab4c02	0.33456427
26	0xbf69792c	-0.9120052
27	0x3eb1a68c	0.34697378
28	0x3e765ef1	0.24059655
29	0x3e0eccab	0.13945262
30	0x3e10d2a6	0.14142856
31	0x3ec6f341	0.38857463
32	0x3d94683c	0.07246444
33	0x3f0873f0	0.53301907
34	0xbdcc443f	-0.099739544
35	0xbdad0eee	-0.08450113
36	0x3c232d0c	0.0099594705
37	0x3eac546a	0.33658153
38	0x3f2dd5c8	0.6790433
39	0x3f0ff655	0.5623525
40	0x3ea44092	0.32080513
41	0x3e80a98c	0.25129354
42	0x3e922309	0.28542355
43	0x3f824bce	1.0179384
44	0x3d417f2e	0.04724043
45	0x3e56c2c8	0.2097274
46	0x3e5c136b	0.21491782
47	0xbf08c4e9	-0.5342546
48	0x3e0b54ca	0.13606563
49	0xbd753e0d	-0.05987363
50	0xbc3e7c05	-0.011626248
51	0xbdb3bc98	-0.08776206
52	0xbe3f4f2c	-0.18682545
53	0xbec2fe1e	-0.380845
54	0x3e26478c	0.1623823
55	0xbf2b25bb	-0.6685445
56	0x3e019058	0.12652719
57	0x3ca6b674	0.020350672
58	0x3e8684ad	0.262731
59	0xbe8f15ff	-0.2794647
60	0x3e6960a2	0.22790769
61	0xbf05ccc8	-0.52265596
62	0xbdf4907e	-0.11941622
63	0x3fa1f13b	1.2651743

model.fc.5.running_var f4 [64]
0	0x3e932743	0.28740892
1	0x3e9c0ba3	0.30477628
2	0x3f4fcb36	0.8116945
3	0x3fc651ed	1.5493752
4	0x3ea4f5ac	0.32218683
5	0x3f8b1987	1.0867165
6	0x3e8cabed	0.2747492
7	0x3f8db706	1.1071479
8	0x3f329cef	0.6977071
9	0x3f55edc1	0.8356591
10	0x3ee8f398	0.45498347
11	0x3f9abf7e	1.2089689
12	0x3f855442	1.0416338
13	0x3faa66a2	1.3312571
14	0x3f1e9a34	0.61954045
15	0x3eb0daa2	0.34541804
16	0x3ebed200	0.37269592
17	0x3fdd005f	1.7265738
18	0x3f9076ee	1.1286294
19	0x3fbb763b	1.4645456
20	0x3f46d03a	0.7766148
21	0x3e8dddad	0.27708188
22	0x3f47816f	0.77931875
23	0x3fa67dbc	1.3007121
24	0x3f7ddaa1	0.99161726
25	0x3e95c3a6	0.2925083
26	0x3f8c41fc	1.0957637
27	0x3f9b6a16	1.214175
28	0x3fc2796e	1.5193307
29	0x3ff04eeb	1.8774084
30	0x3f7e5131	0.9934264
31	0x3f91521f	1.1353186
32	0x3f1c8a50	0.6114855
33	0x3f5704cd	0.839917
34	0x3e3bbf5a	0.18334714
35	0x3f91f07d	1.1401516
36	0x3fddc7a9	1.7326556
37	0x3f6e0c5a	0.92987597
38	0x3e58d1e0	0.21173811
39	0x3f232065	0.63721305
40	0x3f3bf38a	0.73418486
41	0x3fde0559	1.7345382
42	0x3ea297d4	0.3175646
43	0x3edf086e	0.4356112
44	0x3ebee9dd	0.372878
45	0x3e3e6463	0.18592982
46	0x3fb53d33	1.4159302
47	0x3f991a59	1.1961166
48	0x3f5d39fb	0.86416596
49	0x3fc0aaae	1.5052087
50	0x3f2817e7	0.6566147
51	0x400900b8	2.1406689
52	0x3e0080d2	0.12549141
53	0x3fc0b411	1.5054952
54	0x3edfe367	0.43728182
55	0x3f73bbad	0.95208246
56	0x3f75e75c	0.9605615
57	0x3e5773d2	0.21040276
58	0x3f8beefa	1.0932305
59	0x3f017b19	0.5057846
60	0x3f1c3b1f	0.6102771
61	0x3f8eec61	1.1165887
62	0x3f7997d0	0.9749727
63	0x3ecd002e	0.400392

model.fc.8.weight f4 [32, 64]
0	0x3d4a98bc	0.049462065
1	0xbc6948e9	-0.014238575
2	0xbde52ebf	-0.11190557
3	0xbde43dbf	-0.1114459
4	0xbcc90178	-0.024536833
5	0xbdecd610	-0.11564267
6	0xbc4d449b	-0.012528564
7	0xbe0eb80a	-0.13937393
8	0x3c5b23fb	0.013375278
9	0xbe1e41aa	-0.15454736
10	0xbce5925e	-0.028023895
11	0xbded823e	-0.11597107
12	0x3d1c91c2	0.038224943
13	0xbd0dd3db	-0.03462587
14	0xbcfd3905	-0.030910978
15	0xbcaab6cb	-0.020839116
16	0x3dc672c2	0.09689857
17	0x3cc4a3a4	0.024003811
18	0x3cac4b22	0.02103192
19	0xbcbf69a7	-0.023365809
20	0xbd2e8993	-0.04261167
21	0xbccac222	-0.024750773
22	0xbd5ba584	-0.053624645
23	0xbe270ae6	-0.16312751
24	0xbdb5b323	-0.08872058
25	0xbd4e9370	-0.050433576
26	0x3c93f4f6	0.018061142
27	0xbe0a3791	-0.1349776
28	0xbe0a0828	-0.13479674
29	0xbdd013da	-0.101600364
30	0x3c4600bd	0.012085137
31	0xbd2ec3aa	-0.04266707
32	0xbd9250ac	-0.07144293
33	0xbd6a4e4c	-0.057203576
34	0x3d2eefc4	0.042709127
35	0xbdbd654b	-0.09247836
36	0xbb7f807e	-0.00389865
37	0x3cf2ee09	0.02965452
38	0xbcf6e53a	-0.0301386
39	0xbdfad5a4	-0.1224778
40	0x3be8d5c1	0.0071055596
41	0xbd4f8ebc	-0.05067323
42	0x3db2fc3e	0.08739518
43	0x3c103c23	0.0088034
44	0x3dcbfbab	0.09960111
45	0x3db67e19	0.0891077
46	0xbdcc67b2	-0.09980716
47	0xbe23f16f	-0.16010068
48	0xbc6c5ca6	-0.014426386
49	0xbd962bdb	-0.073325835
50	0x3e013a47	0.12619887
51	0x3da2c966	0.0794857
52	0xbd0883e4	-0.033328906
53	0xbd5f7b67	-0.054561045
54	0xbd088bed	-0.03333657
55	0xbd4423d3	-0.047885727
56	0x3d22139a	0.039569475
57	0x3d7c7c89	0.061642203
58	0xbde4f606	-0.11179738
59	0xbd965172	-0.07339753
60	0x3d0d2ee4	0.034468547
61	0x3d0aff5a	0.03393493
62	0x3c9d3b98	0.019193456
63	0xbd894b28	-0.06703788
64	0x3dcdbf95	0.10046307
65	0x3d9e595d	0.077318884
66	0x3d5a1ff9	0.053253148
67	0xbd8861cf	-0.066592805
68	0x3c5605ce	0.013062907
69	0x3cb5727c	0.022149317
70	0xbb0f9a8b	-0.0021912183
71	0x3dba3fd4	0.090942055
72	0x3daaa1f1	0.08331669
73	0x3dd9c0af	0.106324546
74	0xbd257705	-0.04039671
75	0xbddaec04	-0.10689548
76	0xbdac5bfa	-0.08415981
77	0x3cb2c040	0.021820188
78	0x3dce7cde	0.1008241
79	0x3d20e173	0.039277505
80	0xbd639025	-0.05555739
81	0xbd843769	-0.06455881
82	0x3d51456c	0.051091596
83	0xbdefe201	-0.11713029
84	0x3d933106	0.07187085
85	0x3d8fd5f6	0.07023232
86	0x3d505fe6	0.050872706
87	0x3c8e2e8f	0.017356185
88	0xbd0a3125	-0.033738274
89	0xbcefd745	-0.029277453
90	0xbdcbfc38	-0.09960216
91	0x3d744875	0.059639413
92	0xbe373326	-0.17890605
93	0xbcce22e4	-0.025163122
94	0xbe2d46c1	-0.16921522
95	0xbdd6881a	-0.10475178
96	0xbb5c3af4	-0.0033604475
97	0xbd7144d1	-0.05890352
98	0x3d485245	0.048906583
99	0x3daf535f	0.08560824
100	0xbdeabf54	-0.11462274
101	0x3c61828b	0.013764034
102	0x3cf4a3e3	0.029863304
103	0xbda8f911	-0.08250631
104	0xbe1153bd	-0.141921
105	0xbd4944f6	-0.049138032
106	0xbd93a62b	-0.072094284
107	0xbc10aca5	-0.008830224
108	0xbd051dc2	-0.032499082
109	0x3dca0ae1	0.09865356
110	0xbd0b40b1	-0.03399724
111	0xbcfee1d4	-0.031113543
112	0x3c269a8f	0.010168686
113	0xbde76d3f	-0.11300134
114	0x3a115fde	0.00055455964
115	0xbe0ada1a	-0.13559762
116	0x3d9a34d3	0.07529607
117	0xbd837325	-0.064184465
118	0x3da080c6	0.078370616
119	0x3ddd31a7	0.10800486
120	0xbddfe9fd	-0.109333016
121	0xbce18d12	-0.027533088
122	0x3b9acc94	0.0047240946
123	0x3b28dc71	0.002576616
124	0xbcd46c3f	-0.025930522
125	0x3db56066	0.08856277
126	0xbdd1cf5f	-0.10244631
127	0xbd9488fa	-0.07252689
128	0x3d1fb6fa	0.03899286
129	0x3d8942b7	0.06702178
130	0x3d7dc485	0.061954994
131	0xbc4e3102	-0.012584927
132	0xbe078c55	-0.13237126
133	0x3ce6f8aa	0.028194744
134	0x3c7068ff	0.0146734705
135	0x3dc61d95	0.09673611
136	0xbdceb821	-0.100937136
137	0xbdb173ea	-0.08664687
138	0x3d40c545	0.04706313
139	0x3d0766c5	0.033056993
140	0xbd602bfb	-0.054729443
141	0xbd225ff0	-0.039642274
142	0xbd35a98b	-0.044351142
143	0xbd8c80aa	-0.06860478
144	0x3d6ee228	0.05832115
145	0x3e139ae4	0.14414555
146	0xbd544a27	-0.05182853
147	0x3d781292	0.060564585
148	0xbe0de9e5	-0.13858755
149	0xbd8d7102	-0.0690632
150	0xbdf25bf5	-0.11833946
151	0xbd9ab64f	-0.07554304
152	0xbe2bcbf0	-0.16777015
153	0x3d64daa2	0.055872567
154	0x3c93f85d	0.018062765
155	0xbdd07de7	-0.10180264
156	0x3d1a9f89	0.0377498
157	0x3de135ee	0.109966144
158	0x3b8de36b	0.004330089
159	0x3d819f7f	0.063292496
160	0x3a20903f	0.000612501
161	0x3db8a5d9	0.09016008
162	0x3b064fe1	0.002049439
163	0xbdc01df2	-0.093807116
164	0x3da84a58	0.08217305
165	0x3dc50ed7	0.09621971
166	0x3d927a51	0.07152236
167	0xbc725e93	-0.014793056
168	0xbda1854e	-0.07886754
169	0x3d8b4d22	0.06801821
170	0x3d5591d4	0.052141026
171	0x3d8cb0fd	0.06869695
172	0xbd8a0f3e	-0.067411885
173	0xbde7b989	-0.11314685
174	0x3de0d593	0.10978236
175	0xbdca8bcc	-0.098899454
176	0xbd95e98e	-0.07319938
177	0x3c4e6448	0.012597151
178	0xbd8bba17	-0.06822603
179	0xbcd524c8	-0.026018515
180	0xbd9641f8	-0.07336801
181	0xbccbea80	-0.024892092
182	0xbdeec93c	-0.11659476
183	0xbd345441	-0.044025663
184	0xbb0761b5	-0.0020657603
185	0x3d99badc	0.07506344
186	0x3dc2d033	0.09512367
187	0x3d84190d	0.064500906
188	0xb9a16243	-0.00030781524
189	0xbdfdfdf3	-0.124019526
190	0xbc22830b	-0.009918938
191	0xbd4f7305	-0.0506468
192	0x3ddc604b	0.10760554
193	0xbd861761	-0.06547428
194	0x3d02f6dd	0.03197371
195	0xbd2c2c32	-0.042034335
196	0x3dbdca34	0.09267083
197	0x3dd9fc15	0.10643784
198	0x3da12d68	0.07869989
199	0xbb885515	-0.004160533
200	0xbcbcef06	-0.023063194
201	0x3cfde443	0.030992633
202	0x3d70fd38	0.05883524
203	0x3d4904ee	0.049076967
204	0xbaafa61a	-0.0013400943
205	0x3bea850a	0.007156973
206	0x3cfc2b61	0.030782403
207	0x3dae6068	0.08514482
208	0xbdac1ae5	-0.08403567
209	0xbdca295d	-0.09871171
210	0xbe2d96f6	-0.16952118
211	0xbd5e0514	-0.05420406
212	0x3c7c3e88	0.015395768
213	0xbdc06a34	-0.09395257
214	0xbc7e9926	-0.015539443
215	0x3dec84c5	0.11548761
216	0xbdb1c1f5	-0.086795725
217	0x3d829617	0.063762836
218	0xbc1b69b0	-0.009485647
219	0x3dbc9b8b	0.09209355
220	0xbda485f5	-0.08033363
221	0xbd2e2f02	-0.0425253
222	0x3d81b4e8	0.06333333
223	0xbe098352	-0.13429001
224	0xbdb584a1	-0.088631876
225	0x3d8ffad3	0.07030263
226	0xbc04c1c7	-0.008102841
227	0x3d560b58	0.052256912
228	0x3d2768ca	0.04087142
229	0x3d85cd58	0.06533307
230	0xbdb45776	-0.08805744
231	0x3d9a4fa4	0.075347215
232	0xbdc97415	-0.09836594
233	0xbdfa22e4	-0.12213686
234	0xbd46b89a	-0.048515894
235	0xbbf5a8de	-0.007496937
236	0xbdb8f656	-0.0903136
237	0xbd9ee7dd	-0.07759068
238	0xbda59a86	-0.08086114
239	0x3dfe501f	0.12417626
240	0xbd4db38d	-0.05022006
241	0xbceb9bc4	-0.028760798
242	0x3cbaae0f	0.022788076
243	0x3d2cd1dc	0.042192325
244	0xbdafa075	-0.085755266
245	0xbdc54ae0	-0.09633422
246	0x3c88dade	0.016705927
247	0xbdd8e0ac	-0.10589728
248	0xbe112711	-0.14175059
249	0x3d390053	0.045166325
250	0x3d4942b3	0.049135875
251	0x3d31f277	0.043444123
252	0x3d01528d	0.031572867
253	0x3d64d5ad	0.05586784
254	0x3de66c80	0.112511635
255	0x3c6e9ac6	0.014563268

model.fc.8.bias f4 [32]
0	0x3c9d40c8	0.01919593
1	0x3d2ce678	0.04221198
2	0xbd0193f8	-0.031635255
3	0xbd349c2a	-0.044094242
4	0xbc94d783	-0.01816917
5	0xbdd6324e	-0.104588136
6	0x3db265d9	0.08710832
7	0xbd44c18a	-0.048036136
8	0xbd8773fc	-0.06613919
9	0xbd84842b	-0.064705215
10	0x3d1b29ef	0.037881788
11	0x3bc987d9	0.0061502275
12	0x3c41b1ff	0.011822223
13	0xbde3f0eb	-0.11129936
14	0x3d1c7d96	0.038205706
15	0x3d91b66c	0.07114872
16	0xbd8403b6	-0.0644602
17	0xbde373f9	-0.111061044
18	0x3bf4f6ee	0.0074757254
19	0x3d2c8288	0.04211667
20	0xbd4b0193	-0.04956205
21	0x3d9a5a61	0.0753677
22	0xbdea391a	-0.114366725
23	0xbd85a514	-0.06525627
24	0x3c03dd1d	0.008048323
25	0x3dc409fe	0.09572218
26	0x3df4e3be	0.11957501
27	0x3d1c4157	0.03814825
28	0x3d815649	0.06315286
29	0x3da67cde	0.08129285
30	0xbdc6b161	-0.09701801
31	0x3cb71ef3	0.022353625

model.fc.9.weight f4 [32]
0	0x3f83ca03	1.0296024
1	0x3f81a6f8	1.012908
2	0x3f7a8f28	0.9787469
3	0x3f6f4b70	0.93474483
4	0x3f8c2535	1.0948855
5	0x3f8132a1	1.0093576
6	0x3f71af8f	0.94408506
7	0x3f8c9940	1.0984268
8	0x3f7b9728	0.9827752
9	0x3f82b178	1.0210409
10	0x3f6f68d5	0.93519336
11	0x3f7508be	0.95716465
12	0x3f5e169e	0.8675326
13	0x3f763233	0.9617035
14	0x3f83a20d	1.0283829
15	0x3f8092a7	1.0044755
16	0x3f85b8be	1.0447004
17	0x3f865558	1.0494795
18	0x3f715600	0.9427185
19	0x3f858fae	1.0434473
20	0x3f6db646	0.9285625
21	0x3f74502b	0.95434827
22	0x3f7f2148	0.9966016
23	0x3f6d3290	0.9265528
24	0x3f71ac70	0.94403744
25	0x3f801848	1.000741
26	0x3f7d2a0a	0.9889227
27	0x3f81ee1e	1.0150793
28	0x3f6c0100	0.92189026
29	0x3f87174c	1.0553985
30	0x3f653079	0.8952709
31	0x3f86aad4	1.0520883

model.fc.9.bias f4 [32]
0	0xbd88d58d	-0.066813566
1	0x3df5e90b	0.1200734
2	0xbcb834c5	-0.0224861
3	0xbc378f95	-0.011203666
4	0x3d7a8c62	0.061169036
5	0x3dacd81b	0.08439656
6	0xbd9b6e78	-0.075894296
7	0x3dc0960a	0.09403618
8	0xbbf63137	-0.007513191
9	0x3c8c54eb	0.017130336
10	0xbd35b47c	-0.044361576
11	0xbd480f58	-0.048842758
12	0xbda67a67	-0.08128815
13	0xbaecbec6	-0.0018062226
14	0xbccdf638	-0.02514182
15	0x3cc0dcdb	0.023542812
16	0x3ba087f0	0.0048990175
17	0x3d55bac0	0.05218005
18	0xbd807c9d	-0.06273768
19	0x3d842c0a	0.06453712
20	0x3c5d663a	0.013513142
21	0xba37f4d4	-0.0007017378
22	0xbd3cd6a0	-0.04610312
23	0xbdadc518	-0.08484858
24	0xbd7005ea	-0.05859939
25	0xbc9be50c	-0.019030116
26	0xbba3b01f	-0.0049953605
27	0xbe3dbdd2	-0.18529442
28	0xbdc9afe8	-0.098480046
29	0xbde5ecaa	-0.11226781
30	0xbd937103	-0.0719929
31	0x3d588d81	0.052869324

model.fc.9.running_mean f4 [32]
0	0xbf53797f	-0.82607263
1	0xbecb91e5	-0.39759746
2	0xbe538cff	-0.20659254
3	0xbe76490c	-0.24051303
4	0x3d68e120	0.05685532
5	0xbebea9c4	-0.37238896
6	0xbf4095ef	-0.7522878
7	0x3d93450f	0.07190906
8	0x3ebe5538	0.37174392
9	0x3e869c75	0.26291242
10	0xbf24bacc	-0.6434753
11	0xbf70c9e5	-0.94058067
12	0x3e10ad84	0.14128691
13	0xbe8eaff8	-0.27868629
14	0x3f05cb47	0.522633
15	0xbd35e8af	-0.044411357
16	0x3ea39ac4	0.31954014
17	0xbda456b5	-0.080243506
18	0xbf51ce6d	-0.81955606
19	0x3d46ca03	0.048532497
20	0xbe75421b	-0.23950998
21	0xbce1f5c9	-0.02758302
22	0x3ed89eea	0.42308742
23	0xbf4467d0	-0.76720905
24	0xbf23b3d4	-0.6394627
25	0x3ea26bc5	0.31722847
26	0x3ead6ca1	0.3387194
27	0x3f493e4b	0.78610677
28	0x3f1a94ee	0.603835
29	0x3f729409	0.94757134
30	0x3d3f2b39	0.04667208
31	0x3e29aa96	0.1656898

model.fc.9.running_var f4 [32]
0	0x3f2f9c23	0.6859762
1	0x3fa6e5a4	1.3038831
2	0x3f5d7ac0	0.86515427
3	0x3f5ac3ba	0.85454905
4	0x3fd7a1ba	1.684623
5	0x3f9c4c5d	1.2210804
6	0x3f37d883	0.71814746
7	0x3fc2cb78	1.5218344
8	0x3f94b3c7	1.1617364
9	0x3f1db779	0.6160808
10	0x3f01492e	0.5050229
11	0x3f685b7c	0.90764594
12	0x3e9fe5f1	0.3123012
13	0x3f52d2cb	0.82352895
14	0x3fd1bff7	1.6386708
15	0x3f9d6385	1.2295996
16	0x3fc0553e	1.5026014
17	0x3f9f91b9	1.2466346
18	0x3f0c37b0	0.5477247
19	0x3ff8a8c6	1.9426506
20	0x3fee29da	1.8606522
21	0x3f849659	1.0358382
22	0x3f840d77	1.0316609
23	0x3f1ca603	0.61190814
24	0x3f3cf63f	0.7381324
25	0x3f8b0ec0	1.0863876
26	0x3fb70928	1.4299669
27	0x3ed62a66	0.41829222
28	0x3eb30e06	0.34971637
29	0x3f07e67a	0.53086054
30	0x3f0019f6	0.50039613
31	0x3fbf8b50	1.496439
