bodyP/checkpoints/bodyP-epoch=17-val_kappa=0.84.ckpt (torch, 727484 bytes, 68 tensors)

model.fc.0.weight f4 [128, 365]
00000000: 2c63 6d3c 532c d83b d3ff 743d beee 83bc
00000010: 420c 963c d65e e8bc 7864 613d 1280 80bb
00000020: 8dca 933d 804a d93c 2a65 ab3b ddd5 a23b
00000030: 4a13 d13c 3d1d 14bd df25 f8bb 0617 3aba
00000040: 9b2e 763c 98ba cb3b 4183 423d 8754 843d
00000050: 6ad0 343d 50bc 0fbd f3b9 b83d 8c1b 6b3d
00000060: 41c4 92bd de09 003c ec1b debc b4e9 313d
00000070: 5f83 08bd a6d4 bd3d 2ad4 863c ed71 36bd
00000080: fb0f 9b3c 94a4 24bd 44b0 4e3d de08 903c
00000090: a0f3 9c3d 7f52 4ebd ca9e 6c3d b319 713c
000000a0: ca5b 443c 998b 4fbd db36 993b bd1b 16bd
000000b0: e42d 14bd 8f0f 193d 9824 86bd 5c20 85bd
000000c0: 23c6 49bd 5d2b 933c 5d03 12bd 74fb 863c
000000d0: dfcd b8bd 9921 623d 444e b23d 4b38 8cbc
000000e0: 3af6 53bd 16df 6e3b 11ae bbbd a908 093c
000000f0: fd04 173c f590 89bd 5a15 733d 624c b43c
00000100: 8bd9 6f3d 9909 923c b807 2d3d 9d6b 35be
00000110: 000e 843b 091d acbd b623 7bbd ec2a 363d
00000120: 4e27 f83d 3ddc 073d c5cf 153d 3e59 373d
00000130: dc30 a73c bb25 66bc 2a83 d3bc 61a0 ddbc
00000140: 271a 35bd 08ee a33a 67d0 7dbb 8b14 f73c
00000150: 2a61 9a3d 2f4e 463d 70bc 553d a4fe 16bc
00000160: f4bf d2bc 68f3 9fbc 0293 23bd edaa dc3c
00000170: 7718 e0bc 0432 423d 7d8d a03c 9bfd 4a3d
00000180: 9ee5 a53d bf1d 143c 4dc7 503c d2e3 1ebd
00000190: df28 4c3b 6c2d de3b 84e9 1c3d afdc 173d
000001a0: 1453 9c3c 2f67 963d 01f7 99bc 1dee 18bd
000001b0: 1d07 433d 61aa 1a3d 2f66 c8bb 3084 a33d
000001c0: a225 073d b261 8e3d b9d0 ecbc f4f2 2f3c
000001d0: 031c 1dbd 3fcf 003b e300 be3c 0579 22bb
000001e0: 0e7c b33c 400d 213d 0dca 99bc 1825 903d
000001f0: b754 e4bc 5850 353d 22ef a3ba c712 dcba
00000200: bced b73c 2f27 fc3c 7e4e e63d 1cd2 aa3d
00000210: 63ad 8a3d f6e2 3cbe bc12 dd3c 1e06 fb3c
00000220: f7e3 f33c f2ed 4b3d 941b 653d aa4b 1d3d
00000230: f5a8 d73d 506d 763d 9426 14bb 891d 9d3b
00000240: e5fd 713d a1f9 b83c d437 453c 8bbc 4dbd
00000250: 4874 673d d663 12bd 277d 233d 3950 813d
00000260: bd90 b83c d590 7b3d bc57 153d ebbe f73a
00000270: 6ebd f63c 5bcc f23c a821 1abd 0fbc 883d
00000280: da46 a93d e6a6 debc fa02 5dbd 5cc6 ff3c
00000290: c204 a4bd db02 1f3d ce1c 173d 4318 b03b
000002a0: 66a3 5abd 6533 7cbd c5e1 3bbd e314 2fbd
000002b0: fea6 d13b 893f a7bd 38b3 aa3c 5f53 9a3c
000002c0: 2f65 92bc 7fe9 0bbc fa82 50bc e0f0 27bd
000002d0: 18a7 613d d6e2 8e3d e3bd 64bc 8b5b 3e3b
000002e0: 168b 00bd 94ed a03d 80ae 603d f414 c1bb
000002f0: 9802 47be a93a 023d fd9f 6abd 45ae 3c3c
00000300: ad90 a13d 4b15 af3d bf85 713d 22a8 e53b
00000310: a075 983d 916e 063b d0a8 09ba f4a0 abbc
00000320: 7d4d 483d bc9c 053b 06c8 93bb 3ff0 80bc
00000330: 05ca 4a3d ea1e 903d 89d0 133d 6994 c83c
00000340: d770 34bc e1b8 22bd a7cf 333d 57a2 94bc
00000350: e5cb 923c 12ef 86bc b9d5 8f3c cd66 6a3b
00000360: e0af 30ba ded7 8bba 2bf3 0abc 918a 033d
00000370: fc3f c73d 7afd dd3a d652 c13b 8751 8fbb
00000380: f739 dabc 69dd 923c bfd1 653c 4fcf 5dbd
00000390: c4e2 9c3d 3be3 143d 88b1 313d 3156 a43b
000003a0: efc2 e73c 2ac1 b7bd aebb a5bb c5e3 5dbd
000003b0: 4c66 093d 607a 6a3d 15aa 943d e6b8 1e3d
000003c0: 65cb 813d 9fea 203d 2235 cf3c 8305 6bbd
000003d0: 1ab0 28bc 14f4 413b 9365 bb3c c604 66bc
000003e0: 1109 0abd 5ce2 18bd f8bd c8ba bf48 b5bb
000003f0: 0faa 0dbb 4998 523d 6343 ff3c 26b3 6a3b
0.014488976 0.0065970807 0.059814285 -0.016105052 0.018316392 -0.028365534 0.055027455 -0.003921517
0.07216368 0.026524782 0.0052305656 0.004969342 0.025521893 -0.036160696 -0.007572874 -0.00070987677
0.01502576 0.006217312 0.047488455 0.06461435 0.04414407 -0.0350917 0.09019842 0.057399318
-0.07166339 0.0078148525 -0.027112924 0.043435767 -0.03332841 0.09269075 0.01645859 -0.04454224
0.018928519 -0.040196016 0.05046107 0.017582353 0.07663655 -0.050371643 0.05776862 0.0147156
0.011984775 -0.05067024 0.0046757287 -0.036647547 -0.036176577 0.037368353 -0.065499485 -0.06500313
-0.049261224 0.017965013 -0.03564774 0.016477324 -0.09023642 0.055207822 0.08706334 -0.017116686
-0.05174849 0.0036448888 -0.0916406 0.008363881 0.009217498 -0.067171015 0.059346534 0.022009078
0.058557075 0.017826842 0.04224369 -0.17716832 0.0040299892 -0.084039755 -0.061313353 0.044474527
0.12116872 0.03316902 0.036575098 0.044762842 0.02040904 -0.014047082 -0.02581938 -0.027054014
-0.044214394 0.0012506852 -0.0038728954 0.030161163 0.07538064 0.048414405 0.05218166 -0.0092159845
-0.025726296 -0.019525245 -0.03993512 0.026936973 -0.027355416 0.04741098 0.019598717 0.049558263
0.08100437 0.009040295 0.0127428295 -0.038791485 0.003115229 0.006780317 0.038308635 0.037075695
0.019082583 0.073438995 -0.018794538 -0.037336458 0.047614206 0.037760142 -0.006115697 0.07984197
0.032994874 0.06952228 -0.02890812 0.010739077 -0.038356792 0.0019654778 0.023193782 -0.0024791372
0.02190974 0.039319277 -0.018773103 0.07038325 -0.027872426 0.044266075 -0.001250718 -0.0016790264
0.022452228 0.030780403 0.1124544 0.083408564 0.06771352 -0.18445954 0.026986472 0.030642565
0.029771788 0.04978747 0.055934504 0.038402237 0.10530273 0.060162842 -0.0022606002 0.0047947806
0.059080023 0.02257997 0.012037236 -0.050228637 0.05650738 -0.035739742 0.039914276 0.063141294
0.022529954 0.06141742 0.036460623 0.0018901502 0.030119624 0.02963846 -0.037629753 0.06676494
0.08265467 -0.027179193 -0.053957917 0.031222515 -0.0800872 0.038821083 0.036892705 0.005373986
-0.053378485 -0.06157245 -0.045869607 -0.04274453 0.006398081 -0.08166415 0.020837411 0.018838583
-0.017870514 -0.0085395565 -0.01272654 -0.0410012 0.055090994 0.06976859 -0.013961288 0.0029046263
-0.031382643 0.078578144 0.054853916 -0.0058923904 -0.19434583 0.031794224 -0.057281483 0.0115161585
0.07888923 0.08548983 0.05896544 0.0070085684 0.0744431 0.002051268 -0.000525129 -0.020950772
0.048902024 0.002038761 -0.0045099286 -0.015739558 0.049509067 0.070371464 0.036087546 0.02448483
-0.011013231 -0.039727096 0.043899205 -0.018143816 0.01791949 -0.01647142 0.017557966 0.003576684
-0.00067400746 -0.0010669192 -0.008480827 0.03211457 0.09729001 0.0016936504 0.0058997674 -0.0043737325
-0.026638968 0.017927842 0.014027058 -0.054152783 0.076604396 0.036349516 0.043382198 0.0050151576
0.028291194 -0.0897239 -0.0050577736 -0.054172296 0.033544824 0.057245612 0.07259003 0.03875055
0.063376226 0.039286252 0.02529389 -0.057378303 -0.010295892 0.0029594945 0.022875583 -0.014039224
-0.033700053 -0.037325248 -0.0015315404 -0.0055323537 -0.0021616255 0.05141476 0.031160062 0.0035812347

model.fc.0.bias f4 [128]
00000000: 7592 87be de2b 39be ea0a 8abd 2bff 8ebe
00000010: 5701 bfbe 4f74 88be ed39 b1be 6879 74be
00000020: 23df 33be 8201 333e 4b2f 303d a156 1ebe
00000030: 0e5d 6fbe c385 9ebc 5140 c6be fe8a 87be
00000040: 6523 85be d5de a1be 035f a7be 7557 0a3e
00000050: ff4c bfbe 5e81 c9be c8a8 8cbe 9527 9ebe
00000060: 8f16 453e 4d7f d0be 119a 563d 3868 0f3e
00000070: 6d35 acbe 3059 cebe 27f0 ca3d a96d f43d
00000080: 6db0 05bf bc45 bcbe a558 8cbe a414 0bbf
00000090: 3752 9abe b3fb c7be 9409 ffbc 3f59 63be
000000a0: 274c 9dbe 5c02 2cbe f694 febd 7cc1 813e
000000b0: 271e 16bf ddd8 21be 8580 8dbe 1ac1 14be
000000c0: 301d b13e ea13 d83e 02c9 9fbe 3178 823e
000000d0: 1a40 81be 858d 85be 8c8d ac3e 0a55 28be
000000e0: ce22 07bf 1b2c b0bd fa4a ddbe 8bfc aebd
000000f0: 59cb 1ebf 1159 63be 21a1 723e 695f c4be
00000100: 4bba 57be 070f 85be 90f3 c6bd eca4 c1be
00000110: 96ca e3be c5ef 19bf 1768 92be 0c3f d8bc
00000120: 0a05 673e 2334 cebe 1470 dabe be56 cebe
00000130: ed6b 13bd 641f 143d e340 6d3d 8bbb 5bbe
00000140: c998 80be 8a40 4e3a 7411 9f3e 504a 8abe
00000150: f51d d3be 55d5 11be 882a 7ebe d84f f9be
00000160: 8974 33be 86e0 5cbe b937 80be 92ed afbe
00000170: 2690 7abe a0d0 cebe abe4 5fbe f121 c6be
00000180: 39bd b7bc 52f2 acbe 4168 90be 63bf 6bbe
00000190: ce8b 44be 417f 01be dab3 fbbe ff3c cfbe
000001a0: 0a6e 8fbd 195c a9be 07e1 203e c4a8 a03d
000001b0: 5ced fb3e d44c a63d a980 82be f74b 77be
000001c0: 8f42 c53d 68dd 8dbe 2187 66be 40ef a1be
000001d0: e6f3 b6be c894 c6be 3f36 6ebe ee53 f2be
000001e0: 1c74 bcbd a748 1bbe 15dc 56be d914 1e3e
000001f0: 1d68 afbe 49ef 3d3e d014 b3be 1554 89be
-0.26478925 -0.1808314 -0.06740363 -0.27929053 -0.3730571 -0.26651236 -0.34614506 -0.23874438
-0.17565589 0.17481044 0.043013852 -0.15462734 -0.23375341 -0.019350892 -0.38720945 -0.2647323
-0.26003566 -0.3161532 -0.32689676 0.13509925 -0.3736343 -0.39356512 -0.2747252 -0.30889574
0.19246887 -0.40722123 0.052393023 0.140046 -0.3363451 -0.4030242 0.09909087 0.119349785
-0.5222233 -0.36771953 -0.2741138 -0.5432837 -0.3014085 -0.3905922 -0.031132497 -0.22202013
-0.30722162 -0.16797775 -0.12430756 0.2534293 -0.5863976 -0.15805383 -0.27637115 -0.14526787
0.3459258 0.42202693 -0.31208044 0.25482324 -0.25244218 -0.26084533 0.33701742 -0.1643869
-0.5278748 -0.086021625 -0.43221265 -0.085442625 -0.62029034 -0.22201945 0.23694278 -0.38354042
-0.21067159 -0.25988027 -0.097144246 -0.37821138 -0.44490498 -0.60131484 -0.2859504 -0.02639725
0.22560516 -0.40274152 -0.42663634 -0.40300554 -0.035991598 0.03616275 0.05792321 -0.2145826
-0.25116566 0.00078678934 0.31068003 -0.2700982 -0.41233793 -0.14241536 -0.24820912 -0.48693728
-0.17524923 -0.21570024 -0.25042513 -0.3436094 -0.24469051 -0.40393543 -0.21864574 -0.3869777
-0.022429096 -0.33778626 -0.2820454 -0.23022227 -0.19193956 -0.126462 -0.49160653 -0.40476224
-0.0700341 -0.33078077 0.15710841 0.078446895 0.49204528 0.081201226 -0.25488785 -0.24150072
0.09631836 -0.27707982 -0.22512485 -0.31627846 -0.35732955 -0.38785386 -0.2326288 -0.47329658
-0.092018336 -0.15164433 -0.20982392 0.1543764 -0.3425912 0.18548311 -0.34976816 -0.26821962

model.fc.2.weight f4 [64, 128]
00000000: 0fc5 15be 9bc8 e1bd 89ab ec3d 615f 883d
00000010: 6976 44bd 1004 1d3d 64f2 74bc f14a 943d
00000020: ddae 603d 590f a63a 6484 d43d 420e 683d
00000030: a9c3 90bd dfce 9dbc edb2 19bd 403b 3c3c
00000040: d604 db3d 9adb 63bd 2385 bebd 79f1 87bd
00000050: 6c97 733d 891b babd dcc4 ff3b 672a cebd
00000060: 1b15 0a3e 77a6 1bbc 66a8 893d 5e15 77bd
00000070: 9b3e 55bd 8dab 0abd debb 8ebd b829 63be
00000080: fb3f 003e 8c84 91bd 59ab 343d b1a2 f03d
00000090: 1898 31bd 35cc babc 3c1d d9bd 3d2d 6a3c
000000a0: 2abe eabd f0b1 0f3d 0843 6fbd 9ed7 5bbe
000000b0: 1415 82bc 0ba6 7a3c 3d86 c43d 5bbc a8bd
000000c0: 511c 3c3d 4e2a efbb fad7 79bc 3a49 13be
000000d0: 9253 a03d 5e0b edbd d607 4d3d 65fe c03c
000000e0: a124 bb3c ae56 72bd f287 1ebc b9c5 d5bd
000000f0: 185c 2e3e 26e6 0fbc 85fb d73d b507 28be
00000100: 78b2 aabc 7f16 2c3c f7aa ccbc 7941 6ebc
00000110: 525c 783d 2edf d63d b944 ffbd e51a dd3c
00000120: ddd6 d13c 21cd 8a3c 405f adbd 193a 7d3d
00000130: 983b e0bc ecbd 4c3d a7e6 5cbe d379 9fbd
00000140: b0f0 f5bd 2fd8 5cbc ea17 cb3c 8f5c d63c
00000150: 8934 c3bd 837f 99bc ffb3 5b3b 1407 b5bd
00000160: a517 d5bc 531a 77bd 3c6b 8ebd 873b a4bd
00000170: 7931 523c bca8 98bd 99a9 efbc 456e 933c
00000180: f94e 8a3c 5b58 6bbc 07f3 93ba a31d 81bd
00000190: 6a4b 11bd a6e4 983d 8dd9 503e 0f8c 1fbe
000001a0: 37c4 3bbc e6d4 0fbc 00e2 123d 126f b23c
000001b0: 172f 10be a0b6 d8bb 3bc1 2fbd 9135 fd3d
000001c0: e613 f3bd 901a 983c 8d96 b2bd 0cce 9b3d
000001d0: 8a72 003d c499 9c3d eef9 4e3d 2d5b f8bc
000001e0: 858b d9bc 66ef adbd aa84 933d 901a 3cbd
000001f0: 406a 093d 47b6 f8bc 3922 9d3a 0330 1d3d
00000200: 8ec0 62bd 58f5 04be b305 093e 47b9 1bbe
00000210: 4108 f5bc b1af 9a3d ff31 333e 7252 893d
00000220: 9ffb aebc 52a7 183d 4308 c43d 8fde 2a3d
00000230: 6dc1 263e fbd1 04be d1f3 16bd c550 9abd
00000240: 3d51 f7bd a262 7c3d baf9 96bd 096b 323d
00000250: 9650 81bd 3850 593c bb6c 863d 7ced 7f3c
00000260: b305 5ebd a9f3 8cbd d108 eb3d ff85 b9bc
00000270: 96ca 893d fe1b a3bd cc62 823c 3b42 023d
00000280: 151e 973c bd24 87bc 7bb2 d2bc ee19 973c
00000290: 19c6 80bc f7ae bf3d ecf0 483d 937a e43c
000002a0: 10b3 b4bd 0468 62bb 22a1 503d adac b6bd
000002b0: 359a 81bd ffef 073d 4edc febc 2660 41bd
000002c0: c989 88bc 0595 1f3d b9f9 9fbd eba6 abbd
000002d0: de53 37bd 639a c43d 6409 7cbd ba05 1b3e
000002e0: 6b90 3e3d 938e 053e db18 67bd 0479 f2bc
000002f0: 9b9f 643d 859d b13d acbf 983d f4dd 67bd
00000300: 7564 c63d bb2b b03d 5c40 7fbc c8c2 ecbc
00000310: ba95 9abc a873 623d 478c 273e cb7b a13e
00000320: 941d 9bbc 7563 2d3d a911 58bd 163f 363e
00000330: f120 18bd d09e 623d a376 03bd 6c1c 37be
00000340: 7cf0 053e d7fd ffbd dcf3 b4bd a503 a839
00000350: 49c7 c4bd c49f b73d f678 c53c 796f 9d3b
00000360: adc8 c53d f195 b13d 4546 5a3e 0f1e b23d
00000370: bf23 083d 126e 2abc 85bd 553e df76 933c
00000380: 32e8 df3a d9f9 903c 8ed5 0c3d fc6c ad3c
00000390: 528d 6f3d 964a babd 28c4 4a3e f9ea 243b
000003a0: e3e0 4ebd 2d4e babd 5cdc 33bc c39e 7dbd
000003b0: 1343 13be 0f7e 14bd dfc4 b23b 3f82 b43a
000003c0: 0242 5fbd 8305 4ebd 7338 443c 73e4 55bd
000003d0: 660c bbbc 17e4 f3bd 1e86 ba3d 3e74 243e
000003e0: 4256 0f3d 1bb0 563d beff 79bd a252 51bd
000003f0: 1a7d 02bd dbd2 48be fdb6 c23c 068b 133d
-0.14625953 -0.110245906 0.11556155 0.06658817 -0.047964487 0.038333952 -0.014950369 0.072408564
0.054854263 0.0012669369 0.10376814 0.056654222 -0.07068569 -0.019263683 -0.037524153 0.011488736
0.10694282 -0.05562935 -0.093027376 -0.06637854 0.05947058 -0.09087283 0.00780545 -0.10066681
0.13484614 -0.0095001375 0.067215726 -0.06032311 -0.05206166 -0.03385501 -0.069694266 -0.22183883
0.12524407 -0.071053594 0.044108722 0.11749781 -0.04335794 -0.022802452 -0.10601279 0.014293012
-0.11462052 0.035081804 -0.058413535 -0.2146897 -0.015879191 0.015298377 0.095959164 -0.08239051
0.045925442 -0.0072987443 -0.015249247 -0.14383402 0.0782844 -0.11574434 0.0500563 0.023558805
0.022844614 -0.059164695 -0.009675967 -0.10438103 0.17027318 -0.008782899 0.105460204 -0.1640919
-0.020837054 0.01050341 -0.024983866 -0.014541977 0.06063492 0.10491787 -0.1246428 0.026990363
0.02561515 0.016943516 -0.08465433 0.061822984 -0.027372167 0.04998581 -0.21572362 -0.07786908
-0.12008798 -0.013479277 0.024791677 0.026167182 -0.09531505 -0.01873756 0.0033524034 -0.08839241
-0.026012251 -0.06032784 -0.06954047 -0.080191664 0.012829178 -0.074540585 -0.029255675 0.017996917
0.01688336 -0.014364327 -0.0011287638 -0.06304481 -0.03547231 0.07465486 0.20395489 -0.15580772
-0.0114603555 -0.008778786 0.03586006 0.021781478 -0.14080463 -0.0066135675 -0.04290889 0.123637326
-0.1186903 0.018567353 -0.087201215 0.0760766 0.031359233 0.07646516 0.05053132 -0.030316914
-0.026555786 -0.08492927 0.07203038 -0.04592377 0.033548594 -0.030360354 0.0011988349 0.038375866
-0.055359416 -0.12984216 0.1338108 -0.15207396 -0.029911162 0.07553042 0.17499541 0.06705178
-0.021360217 0.037268944 0.09571888 0.041716155 0.16284724 -0.12970726 -0.036853615 -0.07534937
-0.12076042 0.0616175 -0.0737185 0.043559108 -0.06314199 0.013263755 0.065637074 0.0156205855
-0.054204654 -0.06882412 0.11476291 -0.022646902 0.06728093 -0.079643235 0.01591625 0.031801444
0.018446961 -0.01649701 -0.025719872 0.018444981 -0.01571946 0.09359544 0.049057886 0.02789048
-0.08823216 -0.0034546861 0.05093492 -0.08919654 -0.06328241 0.033187862 -0.031110909 -0.047210835
-0.016667264 0.038960475 -0.07811303 -0.083814465 -0.044757716 0.095997594 -0.061532393 0.15138903
0.046524446 0.13042669 -0.05642019 -0.02959872 0.055816274 0.086726226 0.074584335 -0.056608155
0.096871294 0.08602091 -0.015579309 -0.028901473 -0.018870223 0.05528608 0.16362105 0.3153976
-0.018935002 0.042331178 -0.052751217 0.17797503 -0.03714079 0.055327237 -0.032095563 -0.17881936
0.13080019 -0.12499588 -0.08835575 0.00032046172 -0.09608323 0.0896602 0.02410553 0.0048045483
0.096574165 0.08671177 0.21315868 0.086971395 0.033237215 -0.010402219 0.20873077 0.018001018
0.0017082749 0.017697262 0.03438335 0.021170132 0.058484383 -0.090962574 0.1980139 0.0025164469
-0.050507437 -0.09096942 -0.010977831 -0.061918985 -0.14381056 -0.03625303 0.005455598 0.0013771727
-0.05450631 -0.050298225 0.011976349 -0.05221982 -0.02283306 -0.11908739 0.09107612 0.16059968
0.03499437 0.05241404 -0.06103491 -0.051104195 -0.031857587 -0.19611685 0.023768896 0.036021255

model.fc.2.bias f4 [64]
00000000: f669 903c 98c1 51bd 3219 cfbc 9e9d 733d
00000010: 8bf8 6cbd 0ce7 e9bb 8400 0a3d 60f3 05bc
00000020: da91 333d a081 95bd 88b0 e83c 6b7e 30bd
00000030: 27d0 95bd b1b5 7f3d 853d fd3c 89ae 28bd
00000040: b12f 7fbd 3612 a83c 9103 b43b 91cc 48bd
00000050: c49a 7ebc 9893 8fbd 311b 72bd ef3d a4bd
00000060: cbd1 f6bc 6d5e 3b3d 221d 6d3d 56b1 933d
00000070: 7767 6abd 14f2 633d 48a4 843d bb8c 3a3d
00000080: 5ee7 933d 172a 853a dcec 1fbc fbf2 a8bd
00000090: 185b 653d e9f6 a73d 865f 9d3d 48f6 9f3d
000000a0: d310 59bd 0610 87bd 3163 4ebd 4ff2 e8bc
000000b0: d812 b73b 1831 dd3c 3f2b 24ba 657c 253d
000000c0: 99f7 8fbd c8f6 d23c 0f9b e63c d602 6cbd
000000d0: 2eee e6bb 7b02 1cbd aaa4 53bd 1d11 9ebd
000000e0: 3636 a13d 36a1 ab3d 659c a03d f0d1 543d
000000f0: 39a8 cfbc a67a 193d 4d07 d23a 8710 8abd
0.017628651 -0.051210016 -0.025280569 0.059476487 -0.057854217 -0.0071381386 0.033691898 -0.008175701
0.043840267 -0.07300115 0.02840449 -0.04308931 -0.073150925 0.062429134 0.030913124 -0.041182075
-0.06230134 0.020516496 0.005493589 -0.049023215 -0.015539829 -0.07010573 -0.059107963 -0.080196254
-0.030129334 0.04574435 0.05788911 0.072115585 -0.057227578 0.055650786 0.06476647 0.045544367
0.07221864 0.0010159638 -0.0097610615 -0.0824947 0.055995077 0.08201391 0.07684235 0.07810646
-0.05299456 -0.06594853 -0.050387565 -0.028435854 0.005586963 0.027000949 -0.00062625477 0.040401835
-0.070296474 0.02575244 0.02815011 -0.057619892 -0.007047436 -0.038088303 -0.051670708 -0.07718108
0.07871668 0.08380358 0.0784233 0.051958025 -0.02534877 0.037470482 0.0016023904 -0.067414336

model.fc.3.weight f4 [64]
00000000: 2ed5 633f 5f84 4e3f 2af4 693f 3b7f 843f
00000010: a13e 8b3f 2902 7c3f b4fc 653f c4b8 863f
00000020: b030 603f 7031 893f 3aa9 533f 0414 923f
00000030: 692c 7d3f 519c 853f c7ed 803f b5d0 713f
00000040: 0526 8f3f 623f 833f 7afe 713f e9c9 813f
00000050: 9af6 823f 7742 843f 91ce 803f 33dc 7d3f
00000060: 5005 803f 497c 893f 4abe 833f c2e0 5a3f
00000070: b44f 8d3f 80d2 5e3f 8b9c 793f 9de7 8b3f
00000080: 6581 8d3f 914b 8e3f 61d3 893f 0227 853f
00000090: 9073 5e3f 610f 713f 2d4b 7a3f a4f6 793f
000000a0: 9871 813f c0c9 863f 4b7e 7c3f 0907 873f
000000b0: d295 8f3f 3187 763f d6c6 7b3f e15b 603f
000000c0: 4552 4f3f 068f 6f3f 1030 763f 0723 733f
000000d0: c0d1 963f 1e84 853f 33bd 8c3f 36a2 6f3f
000000e0: 579a 7a3f 49f4 813f d982 863f 2d91 5c3f
000000f0: 431f 843f ea43 893f 625b 643f 28c7 6c3f
0.8899716 0.8067073 0.9138819 1.0351328 1.0878488 0.98440796 0.8983872 1.0525136
0.8757429 1.0718212 0.82680094 1.1412358 0.9889589 1.0438329 1.0072564 0.94459087
1.1183478 1.0253718 0.94528925 1.0139743 1.0231507 1.0332783 1.0063039 0.9916412
1.0001621 1.0741054 1.0292447 0.85499203 1.1039948 0.8703995 0.9750449 1.0930058
1.1055113 1.1116811 1.0767633 1.0402529 0.86895084 0.9416409 0.9777096 0.9764197
1.0112791 1.0530319 0.9863021 1.0549022 1.1217597 0.96300036 0.98350275 0.87640196
0.8098491 0.9357761 0.9616709 0.9497532 1.1782761 1.0430944 1.0995239 0.9360689
0.97891754 1.0152675 1.0508682 0.8615902 1.032204 1.0723851 0.8920194 0.9249139

model.fc.3.bias f4 [64]
00000000: 696b 95be c564 91bc 2a11 47be 2329 6ebe
00000010: 71e5 89be 9720 85be 8886 18be ff83 a3be
00000020: 7779 11be b1c2 64be 9082 74be 0685 62be
00000030: b09f 96be 96d5 87be cb11 1abe d7dd 4bbe
00000040: 7879 99be c720 5abe 4b3c e7bd 8914 82be
00000050: 02e7 87be 028e 73be 166b 0ebe d255 33be
00000060: 1e98 1ebe 9802 bebe dfea 68be c18d 89be
00000070: 3b6b 71be de66 34be de36 3ebe 08bd 8fbe
00000080: f6d8 f9be fbc2 a1be fe05 abbe 013d 24be
00000090: 6537 31be 772c 40be 0418 95be d750 8ebe
000000a0: 6447 b1be 81bf 27be 2599 a0be 65bf 40be
000000b0: 30e9 12be 6371 4cbe 93b5 40be 8c79 39be
000000c0: 81ba 1cbe 4e14 51be a0d1 a1be 20a3 86be
000000d0: 5a1a a9be cfe1 35be 6179 57be 83a9 6cbe
000000e0: 1ae6 59be dcb6 4ebe 8c8a 82be 922c 66be
000000f0: 0c93 87be b866 55be bf8d c0bd 244f 7cbe
-0.2918351 -0.017748246 -0.19440141 -0.2325788 -0.26932862 -0.26001427 -0.1489507 -0.31936643
-0.14206491 -0.22339894 -0.2387793 -0.22121057 -0.29418707 -0.2653014 -0.1504585 -0.19908844
-0.29975486 -0.21301566 -0.11290797 -0.25406292 -0.26543432 -0.2378464 -0.13908038 -0.17513207
-0.15487716 -0.37111354 -0.22745846 -0.26865962 -0.23576061 -0.17617366 -0.18575618 -0.28073907
-0.4879834 -0.3159407 -0.3340301 -0.16038896 -0.17306288 -0.18766962 -0.29119885 -0.2779605
-0.3462478 -0.16381647 -0.3136684 -0.18823011 -0.14346766 -0.19965129 -0.18819265 -0.18112773
-0.1530552 -0.20417902 -0.31605244 -0.2629633 -0.33027917 -0.1776192 -0.21042396 -0.23111539
-0.21279183 -0.20186943 -0.25496328 -0.2247794 -0.26479375 -0.20839965 -0.09402036 -0.24639565

model.fc.3.running_mean f4 [64]
00000000: 1253 bcc0 f0dc 3d3f 61ef bcc0 633e e3c0
00000010: dcb9 abc0 1d6f 18c1 0970 2e40 3197 10c1
00000020: a422 c3be b8f2 2ec0 8b7e 243e 66ee debf
00000030: 7cd1 d93f eff0 0bc1 d409 9ec0 98cf 7cc0
00000040: 2202 1041 682d 89c0 6f60 f340 1c63 d440
00000050: 31b3 4840 f14f 5abf c8eb d2c0 e75a 643d
00000060: 3317 6d40 7c17 05c1 829e 0dc1 8619 3740
00000070: aefb 4d40 c1aa 0f41 5472 84c0 b8d0 c6c0
00000080: 94df 06c1 f2c2 14c1 bac3 bdc0 75ef 07c1
00000090: c9a7 1040 61e7 723f 17da bcc0 54f7 7ebf
000000a0: e139 01c1 889d abc0 db18 09c0 6210 c9c0
000000b0: 6e04 8540 7454 65c0 1b6b c840 8bde fb40
000000c0: f798 87c0 cb32 2040 2a51 dec0 b239 4b40
000000d0: 7b59 0141 35cc 34c0 ae2b 1fc1 ea6f 97bf
000000e0: 1e81 0fc0 6050 cec0 f2b4 02c1 3bc7 e63f
000000f0: 1a64 26c1 2ebe a3c0 58c7 ee40 72e6 aec0
-5.8851404 0.7416525 -5.904221 -7.1013656 -5.366438 -9.527127 2.725588 -9.036912
-0.38112366 -2.7335644 0.16063897 -1.7416503 1.7017055 -8.746322 -4.9386997 -3.9501705
9.000521 -4.2867928 7.6055217 6.6370983 3.135937 -0.8527823 -6.591282 0.055750754
3.704541 -8.3182335 -8.851198 2.8609328 3.2184863 8.979188 -4.138956 -6.2129784
-8.4295845 -9.297594 -5.9301424 -8.495961 2.2602408 0.94884306 -5.9016223 -0.9959614
-8.076631 -5.36298 -2.142142 -6.28325 4.1567907 -3.5832796 6.2630744 7.870916
-4.2374225 2.5031002 -6.9474077 3.1753964 8.084346 -2.8249638 -9.948164 -1.1831028
-2.2422557 -6.4473114 -8.169176 1.802955 -10.399439 -5.1169653 7.461834 -5.4656305

model.fc.3.running_var f4 [64]
00000000: b29e a241 a2ed 1a42 56a9 1342 2e6e 8342
00000010: 90f4 0342 2317 a342 697b 9441 a502 f341
00000020: f227 3c42 c10a 7041 5f94 b741 c7ce ac41
00000030: a8df 2242 ac92 1842 3ba9 3442 fc98 3642
00000040: e9f3 8541 3442 f541 01fd be41 97b2 9841
00000050: 44fb c041 bdd7 6b42 a8db 7442 9b13 a541
00000060: fcfc 7342 d5ba 5242 ad54 8b42 db51 c541
00000070: 676b e841 1801 a742 ff59 c941 fe05 0a42
00000080: a2eb 7b41 1d2c 8642 7d92 9541 6612 9542
00000090: ccb5 8142 4d75 2442 f470 6e41 7df1 8941
000000a0: dcab f141 d5d7 a842 8638 e741 2b9e 8442
000000b0: 68c2 df41 2cbc 1442 5978 fa41 128f 9342
000000c0: 125a ad41 f3b6 7d41 fbd0 0142 a40d e341
000000d0: bcee be41 bf55 0b42 77eb 0942 1f6f d841
000000e0: add1 3e42 95bc 9241 7e6d b541 bf7f c341
000000f0: 61f6 1342 a9ea 9c41 36a9 9b42 b562 f641
20.327488 38.732063 36.915367 65.715195 32.98883 81.54519 18.560259 30.376291
47.03901 15.002625 22.947447 21.600965 40.718414 38.143234 45.165264 45.6494
16.744097 30.657326 23.873537 19.087202 24.122688 58.960682 61.214508 20.634573
60.997055 52.682453 69.66538 24.664968 29.052443 83.50214 25.168943 34.50585
15.745028 67.08616 18.696527 74.535934 64.85507 41.11455 14.902576 17.242914
30.208916 84.42155 28.9026 66.30892 27.969925 37.18376 31.308764 73.779434
21.66898 15.857165 32.454082 28.38166 23.86657 34.833736 34.479946 27.054258
47.70476 18.342081 22.678463 24.437376 36.990604 19.61458 77.83049 30.798197

model.fc.6.weight f4 [32, 64]
00000000: 7c12 d13d 1abc 7b3c 2012 a33c 563a 52be
00000010: 685b c03d 9a3e 073e de2f 913d 0b08 14be
00000020: 7535 dc3d 461b 99bd d7e7 6d3d a030 4d3c
00000030: f21d 64bc 44cc 1ebe 293b 20be 9009 893d
00000040: 8421 72bd 0608 93bb 7870 da3d 26a2 c63d
00000050: d886 d4bd bcf4 2fbd 0e7d 33be 058c a53d
00000060: 1ddd 1b3d 5bee 51be 0164 003e c977 d13d
00000070: 8bf4 b43d 80fd 4d3b 4818 ef3d 11a8 5fbe
00000080: 9a8e f73d 1018 ae3d 809b bb3d 9607 d73d
00000090: c9cd 2d3e 756e bd3d ce3c a0bd 68e1 66bd
000000a0: 175e 48be 383d 763d 90bb 36be c5ea 033e
000000b0: 4b79 3f3e 5007 373c baa2 28bd 1059 c83d
000000c0: 2656 813d 6066 923d b6ef a5bb 1c9a d13d
000000d0: ed05 cbbc 9f25 c03c 02e9 10bd c37c f2bd
000000e0: 289b ecbc 1dee 4cbd 95aa de3c 310c 473d
000000f0: cb63 5cbe 5126 dc3d f3b5 053e f548 693c
00000100: 44c8 38be 3d3b 30bd 5bb0 093c 7bd9 333e
00000110: 897a 90bd bde9 e33d 8698 28bd d674 393d
00000120: 0fab 533d eebc b03d 1761 8abb 46d4 e03c
00000130: 30d6 153e 21a0 133e 797e 0f3e d261 c73c
00000140: 08da 30be e012 28bd 8293 e03d ce60 80bd
00000150: efc8 d7bc b3e7 4b3e 17aa e43d ca93 c93d
00000160: 8351 bd3d f8b3 503d c81f 1a3e c953 7cbc
00000170: 37d1 3abe 9907 91bd 2e39 c2bd b353 4a3e
00000180: cf50 11be 6b55 953b 9e54 05be 28d0 a93d
00000190: 3f2c 35bd b404 123e 26cf 39bd bd21 0d3e
000001a0: 578b 6c3d 18a1 613e 2cbf 2a3e 019d 71bd
000001b0: e93f 61be 0540 67ba 719e debd e4ee adbd
000001c0: 7ba1 0cbe e1f8 a23d 0119 0cbb e3d6 d13c
000001d0: 7379 bdbd a5e5 153e 1a2a 953d 8e92 b83d
000001e0: 63f4 053c 8571 d23c b77e 1dbd 30b9 35bd
000001f0: c933 80bd e4af 81bd 882a abbc 00c7 57bd
00000200: 49bd 3e3c 2b84 403d c88b 3f3d 2ea5 a13d
00000210: 0067 ea3d 1fa6 0abc f13d 023e 819a 153d
00000220: f86c 903d 37f5 3cbe 623e 253d 5097 4f3e
00000230: 44fa 173e 7d8d 3fbe adaf 06bd ddf3 99bd
00000240: 0e91 53be cc02 8ebd f23b f43d 8099 96bc
00000250: b54f d83c 1f66 413d 4abf 05be 5f03 423c
00000260: 1e5b 03bd 86ca 0dbe f05f cfbc ad86 c2bd
00000270: e0f4 e23d 94ac fcbd 907b c33c c59e 9a3d
00000280: 4b21 0dbd a1b3 58bd 869c e83c 8363 263e
00000290: 3ab0 ce3d 45c4 4cbd 59ba 3f3d 679b aabc
000002a0: 66c9 343c b117 14be 2172 0f3e f5ed 3e3d
000002b0: dd16 f23d dfdf fd3c 7aff 55bd 6217 70bd
000002c0: 7f38 d8bd e348 403e 98b4 d93c 4552 e6bc
000002d0: eff1 9abe 6adc f53d b00f e7bd f285 bb3d
000002e0: 9c6f 503d 8154 0b3d 8e82 c53d b30c d13d
000002f0: 8a98 b4bb c703 e4bd 4cc2 613c 952e bb3d
00000300: 2693 913d 072e e1bd a37f e4bd de52 f1bc
00000310: f547 6bbd a367 063e 2535 30bd 3269 c5bc
00000320: 9a94 0f3b 9ed8 263e b373 a1bc 326b 39be
00000330: 2bcb c13c 39af d13d 2f16 b33d 42b6 af3d
00000340: 9347 c03d 79a7 a23c ddd7 a0be d67a 523d
00000350: 4e05 333d 858e 1b3c 3256 d8bd ec54 763d
00000360: a75e cebd 3bee 4d3e 75f2 883b b511 013d
00000370: 0883 03be e955 b33d 7694 d4bc 38cd d1bd
00000380: 6aec c43d e7be b03d 0cbe 543d 0621 753d
00000390: c3e9 ce3d 14a7 00be 888c bc3b 79bd 2fbc
000003a0: 3ef2 6dbd 5db7 bcbd 47ad 78bd af6b 18be
000003b0: 54cb 0abe eb7d 00bd 1257 27be 2f00 b93d
000003c0: ad55 89bd dcb3 ecbd bc24 6f3d 82d9 89bd
000003d0: 7a2f d13c a26f 41be d43a 023e 9dae 06bd
000003e0: 96c9 19bd 2966 9f3d 073e bc3d 7f94 b4bc
000003f0: a8af 5d3d 3090 7e3d d688 243c f752 00bd
0.10208604 0.015364671 0.019906104 -0.20530066 0.09392434 0.13207474 0.07089208 -0.14456193
0.107523836 -0.07475905 0.058082428 0.0125238 -0.013923155 -0.15507609 -0.15647568 0.06691277
-0.059113994 -0.0044870405 0.10665983 0.09698896 -0.10377282 -0.042958006 -0.17528173 0.08083347
0.038052667 -0.20501082 0.12538148 0.10227925 0.08835705 0.0031431615 0.11674553 -0.21841456
0.12087746 0.08500683 0.09160519 0.10499494 0.16973032 0.09249584 -0.078240976 -0.056367308
-0.19567142 0.060116976 -0.17844987 0.12882526 0.18698613 0.011171177 -0.041170813 0.09782612
0.0631526 0.07148433 -0.005063976 0.10234472 -0.0247831 0.02345544 -0.035378464 -0.11840203
-0.028882578 -0.05003177 0.02718095 0.04859561 -0.21522443 0.10749496 0.1305769 0.014238586
-0.18045145 -0.043025244 0.008403863 0.17563431 -0.07054622 0.111285664 -0.041161083 0.04527744
0.051676806 0.086297855 -0.004223 0.02744497 0.14632487 0.14416553 0.14013089 0.024338637
-0.17270672 -0.041033626 0.10965635 -0.06268464 -0.02634093 0.19912605 0.111652546 0.09842642
0.09244063 0.05095288 0.15051186 -0.015400835 -0.18243872 -0.07081527 -0.094835624 0.19758491
-0.14190982 0.0045573018 -0.1302056 0.08291656 -0.04423165 0.14259607 -0.045363568 0.13782401
0.057750072 0.22034109 0.16674489 -0.05898762 -0.21997036 -0.00088214903 -0.10870064 -0.084928304
-0.13733475 0.07957626 -0.0021377208 0.025615161 -0.0925168 0.14638384 0.07283421 0.09012328
0.008175942 0.025688896 -0.038450923 -0.04436606 -0.06259877 -0.063323766 -0.020894304 -0.052680016
0.011641809 0.047001045 0.046764165 0.07892834 0.11445427 -0.008462458 0.12718941 0.0365243
0.07052034 -0.18452917 0.040342696 0.20272565 0.14841563 -0.18706317 -0.03288238 -0.07517216
-0.20660803 -0.06934127 0.11925496 -0.018383741 0.026405195 0.04721653 -0.13061252 0.011841624
-0.032069318 -0.13846788 -0.025314301 -0.094983436 0.110818624 -0.12337604 0.02386263 0.07549814
-0.03445558 -0.052905682 0.028394949 0.16248898 0.10092206 -0.049991865 0.046808574 -0.020826055
0.011034345 -0.14462163 0.1400838 0.046613652 0.11820767 0.03099054 -0.052245595 -0.05861605
-0.10557651 0.18777804 0.026575372 -0.028115401 -0.30262706 0.12004931 -0.11282289 0.091564074
0.05088769 0.034016136 0.09644042 0.102075 -0.005511348 -0.11133533 0.013779234 0.09139744
0.071081445 -0.10995107 -0.11157157 -0.02945846 -0.05744167 0.13125472 -0.043019433 -0.024098013
0.0021908642 0.1629357 -0.01970849 -0.18107298 0.023656448 0.10238499 0.087444656 0.08579685
0.09388652 0.019855248 -0.3141469 0.051386677 0.04370623 0.0094944285 -0.105633155 0.06013958
-0.10076647 0.20110409 0.0041792938 0.031511027 -0.12842953 0.087566204 -0.025949698 -0.102442205
0.09615405 0.08630162 0.051939055 0.059845947 0.1010318 -0.12563735 0.0057540573 -0.010726326
-0.05809235 -0.09214661 -0.060712125 -0.14884828 -0.13554126 -0.031370085 -0.16341808 0.09033238
-0.067057945 -0.11557743 0.058384642 -0.067309394 0.025535334 -0.18890241 0.12717754 -0.032881368
-0.037545763 0.077831574 0.09191518 -0.022043465 0.054122597 0.062149227 0.01004239 -0.03132912

model.fc.6.bias f4 [32]
00000000: 2aa0 e63d 0154 e3bc 86a7 46bd fc52 93bd
00000010: 73ce babd a545 c53d 6995 9d3d 1d40 dcbd
00000020: 1ab5 35bc e3f3 7abd 4d11 1cbd ce3c c93d
00000030: ea46 e33d 778f b33d 86ea 863d cb94 7f3d
00000040: 4200 323c 78e6 2c3d 88f7 283d f83f f83d
00000050: 281e 013d 154b c9bd caab f7bc 43a3 cfbc
00000060: 3931 213d 48d3 4abd 9267 5fbd 9abe 3fbd
00000070: 8675 973d 268c 3a3d 166c c4bd cdab 08ba
0.112610176 -0.027750017 -0.048499607 -0.071935624 -0.09121408 0.09632424 0.07694513 -0.10754416
-0.011090541 -0.061267745 -0.038102437 0.09826051 0.1109751 0.08767598 0.065877005 0.06239776
0.010864319 0.04221198 0.04125169 0.12121576 0.0315229 -0.09828774 -0.030233283 -0.025346404
0.039353583 -0.0495179 -0.05454213 -0.04681263 0.07395463 0.045543812 -0.09590928 -0.00052135886

model.fc.7.weight f4 [32]
00000000: d5f1 6e3f f252 7d3f 0115 613f a753 5d3f
00000010: 5a15 613f 1caa 723f eef8 693f 0d60 763f
00000020: fb5e 853f 39b0 7c3f c3aa 723f 5805 5d3f
00000030: eb8f 6c3f 8959 5a3f 5828 583f 3a19 783f
00000040: c380 803f e7dd 783f 0a84 683f e273 733f
00000050: 5e43 6c3f c3e6 573f 2509 843f 9343 863f
00000060: 0bdd 7a3f 7d77 773f 30bd 673f 3c97 893f
00000070: 3e9b 6f3f 5d56 5c3f 4cf9 6b3f 2dbc 8b3f
0.93337756 0.9895469 0.87922674 0.8645577 0.87923205 0.94790816 0.9139546 0.9624031
1.0419611 0.98706394 0.9479181 0.8633628 0.924071 0.8529287 0.8443656 0.9691349
1.0039295 0.97213596 0.90826476 0.950987 0.92290294 0.8433649 1.0315291 1.0489372
0.97993535 0.966667 0.9052305 1.0749278 0.93596256 0.8606928 0.9217727 1.0916802

model.fc.7.bias f4 [32]
00000000: afcd 4abe b6d4 18be a58c 48be bb21 3dbe
00000010: ac80 70be 5e94 58be 3dca e9bd f256 9abe
00000020: e445 3fbe 72c6 12be c4a8 2dbe cd7e e7bd
00000030: af62 2bbe 48df 44be 14f4 68bc 494c c2bd
00000040: 970e d7be e672 a83c e213 75be b01a d7bd
00000050: 6470 4cbe 1b6a 41be 05fb 87be 7302 0dbe
00000060: df60 36be 731a 62be 18eb 50bd f461 2ebe
00000070: 5a1e 9abd f2a1 08be 2649 35be 26d9 41be
-0.19805025 -0.14924893 -0.19584902 -0.18469898 -0.23486584 -0.21150348 -0.11415527 -0.3014446
-0.18679005 -0.14333513 -0.1695891 -0.11303482 -0.16736864 -0.192258 -0.014218349 -0.094872065
-0.4200332 0.0205626 -0.23933366 -0.10503137 -0.19964749 -0.18888132 -0.265587 -0.13770466
-0.17810391 -0.22080402 -0.051005453 -0.17029554 -0.0752532 -0.13343027 -0.17703685 -0.18930492

model.fc.7.running_mean f4 [32]
00000000: f9b8 5c3e 71a0 c83d 7e9a 363c ab1b 4bbe
00000010: 16a5 30bd 545c 9a3d 54b6 4e3e 5280 0bbe
00000020: ca5b 9b3b 73e1 e3bd 42ea 5bbc ed41 9c3d
00000030: 133d 663e 1e46 bc3d 7fbd 5c3d 647b 91bb
00000040: bb6a 033e 34f3 f8bc a0b6 863c 62bd 0b3e
00000050: 1fdc d73c f2d8 0fbe 97e5 3f3d fb3c 92bc
00000060: f65b ba3d 9340 9dbc 685c 843d e948 04bd
00000070: 2deb 793d a157 003e 19e1 53be 8421 883d
0.21554936 0.09796227 0.011145232 -0.19834773 -0.04312619 0.075371414 0.2018674 -0.13623169
0.0047411667 -0.111269854 -0.013422551 0.07629762 0.22484235 0.09193061 0.053891655 -0.004439758
0.12833683 -0.030389406 0.016444504 0.13646463 0.02635008 -0.14047602 0.046849813 -0.017851343
0.090995714 -0.01919583 0.064629376 -0.032296095 0.061015297 0.12533428 -0.20691337 0.066470176

model.fc.7.running_var f4 [32]
00000000: 9ae7 6e3f 7599 0d3f 93fb 093f b0b7 233f
00000010: 525f ec3f 91d7 ef3f 3c5d d33f 8c58 593f
00000020: 5394 1d3f 8791 293f a9a2 713f 62cb a23f
00000030: 9a88 273f 6c15 ed3e 5318 1140 3eb5 843f
00000040: 49f8 b03e dd8e 1b3f 1c45 4d3f eb24 9e3f
00000050: e94c bd3f 3c24 df3e 3792 173f a905 1c3f
00000060: f4b5 013f 7799 9b3f 1d5f 7d3f 4ab1 613f
00000070: 0c75 4f3f a042 0c3f 0b58 d73f 558f 2d3f
0.93322146 0.5531228 0.53899497 0.6395216 1.846659 1.8737661 1.6512828 0.84900737
0.6155445 0.6623768 0.94388825 1.2718318 0.6544281 0.46305406 2.2671096 1.0367811
0.34564427 0.6076487 0.8018358 1.2355016 1.4789096 0.43582332 0.5920748 0.60946137
0.50668263 1.2156209 0.98973256 0.88161147 0.81037974 0.5478916 1.6823744 0.6779683

model.fc.10.weight f4 [16, 32]
00000000: 2577 92bd 2d70 443b b945 b4bd 429e 38bd
00000010: 3c18 11be 049c 54bd 34a7 42be d3b2 053e
00000020: f67b fa3c 799b 1a3d 2784 413d 0072 3f3e
00000030: 5a09 e2bc 1a52 833d bfb1 a2be 398b 1a3b
00000040: 3e1b 8cbd 06a8 583e c6d6 0d3e 217f aabd
00000050: 4ca3 55be 65aa 423e 6051 04be 7e9f 0bbc
00000060: 4137 cdbb 879d 2ebe 2b99 193e f963 15bd
00000070: a506 103e a3b0 33be 153c febd bce2 623d
00000080: 0419 4dbe 9b94 4cbd 8e56 2cba f63b 5a3d
00000090: d3c3 14be b204 d6bb 2ede 9cbd 45a2 77bd
000000a0: 7e7e 443e aa52 20be 6c76 bfbd 0d86 0cbe
000000b0: d7ca 22be f771 bb3d af94 95bd 9286 c6bd
000000c0: 05b9 4f3e 6d85 32be c22f a0bd c702 1abd
000000d0: 9826 d43c d628 1dbe 1ed0 00bd b3ef 27be
000000e0: 66b3 7abd c314 8fbd 32da d73c 5b32 27be
000000f0: c591 22be 9c4d 723d 57ba b73d 0342 96bd
00000100: 2fbb 0c3e 9597 6ebe 0a68 b3bc b1df ee3d
00000110: e367 383e 6f03 e83d d640 5f3d 58c4 42be
00000120: 522a 8c3d c11f b5bd f29b b2bd 2203 73be
00000130: 0930 83bd b469 9abc 3005 c83c 5b9e abbd
00000140: 1500 523d ed4c 3e3b 23f9 243d d083 77bc
00000150: 616c 303e 76d1 81bd 3510 12be 68dd 88bd
00000160: 4f33 9cbe 4cad b43d fc16 1dbe d07b 90bc
00000170: a56c 95bb e8a1 edbc 12f4 6d3e 1b34 93be
00000180: 31fb 3e3e 4a9e 5cbe 62ed dc3c 63f1 9d3d
00000190: b3e4 df3d 624d 343e e42c e33d 29f1 163e
000001a0: 4f12 23bd 7cf2 20bd 4263 46be a29a d3bc
000001b0: 5740 3f3d ce37 10be d787 403e 5d80 943d
000001c0: 111b a8bd ffaa dabc 97c4 23be ac03 0abe
000001d0: 339f 503e 9e64 063c 4f99 7f3a 3224 dc3d
000001e0: 5b4a 12be eca2 5a3e 1228 0cbe e194 873d
000001f0: e1c8 93bd ac43 b9bd 3dda 003e e808 38be
00000200: 8196 c53d 695a ed3d 7b1a 693d f401 1fbe
00000210: a148 1dbc 237b 283e 6157 54bc 9440 423d
00000220: 56d8 b6be b59c 023e a01f a6bc 39b9 18bd
00000230: cdd2 343d 82e0 4bbe 1b38 b7bc 082e 553e
00000240: 251a 34bd e989 503d c874 4ebd bf1a 92bd
00000250: efc3 d33d e06f 0f3e 9dc6 053e 2507 0e3e
00000260: a10f 9cbd 4911 ca3d 1aa1 d7bd c936 df3d
00000270: 1472 333e fa2b 8fbe 4207 963d 6e9c 213e
00000280: f8f7 573d 9627 87bc d4be a93c 388c f2bd
00000290: ab2d bd3d 436c 923d 4003 203d 046e c63d
000002a0: 4469 8bbe 738f 0b3e c577 a8bc b745 64bd
000002b0: 3981 073d 9c48 45be 2df4 3cbc f4f2 3dba
000002c0: 38e3 a8bd 53d1 04bd 6960 283e ee26 6c3d
000002d0: a9ca 033e 2c3e e73d eda2 a73d eaf1 133e
000002e0: 59ef ebbd 1c8b e23d a42c ac3d 05f6 ca3d
000002f0: e28f 2a3e 8fd5 20be d7d3 fe3d 1467 db3d
00000300: e469 8f3d 536f 1a3e 78ff 74bd 85b3 803d
00000310: aad2 ebbd ec84 88be dfc9 94be 5ac4 d63d
00000320: 89fb a8bd b8d1 883b 5831 033e 14ad 4f3e
00000330: b2ea 0ebe 7876 523d 597a 90be 2b1b 403e
00000340: 4b88 e1bd 59ca 2bbc 2892 eb3d d0b7 e73c
00000350: b216 66bd 36f4 c43d 823b 1f3e dff2 403d
00000360: 0977 733d 1f6a bc3d 67d8 3f3d f6eb 0ebe
00000370: 79a5 4e3e a3e3 223d 7d73 debc d8fb 6e3c
00000380: 40df 603d 768f 1fbe fe1d f5bc 4edc 223d
00000390: c1da 233e d691 683e a755 123b 75a6 2fbe
000003a0: 030f d33d 2a64 a13d 3b96 5bbe 5791 72bd
000003b0: 2057 27bd c7ad debd d3da 043e 30bc 64bd
000003c0: 2770 f33c 1d87 36be 3a8b fcbd 5acc 9ebe
000003d0: 26c9 1d3e 0475 37bd c59f 36be 4bfc c73c
000003e0: 75f3 2abd f3db 263e 531f 0fbe 7822 bdbd
000003f0: 43d9 39bb 7f11 353c 21ad 143e 0135 86be
-0.07151631 0.0029974089 -0.08802361 -0.0450728 -0.14169401 -0.0519066 -0.19009095 0.13056497
0.030576687 0.037745927 0.04724517 0.18695831 -0.02759235 0.06412144 -0.31776235 0.0023581518
-0.068411335 0.21157846 0.13851461 -0.08325029 -0.20863074 0.19010313 -0.12921667 -0.008521913
-0.0062626903 -0.1705228 0.14999835 -0.036472294 0.14065035 -0.1754785 -0.124138035 0.055392012
-0.20029074 -0.04994641 -0.0006574177 0.05327984 -0.14527826 -0.0065313214 -0.07659565 -0.060457487
0.19188878 -0.15656534 -0.09348759 -0.13723011 -0.1589769 0.091525964 -0.0730375 -0.09693636
0.20285423 -0.1743371 -0.07821609 -0.037600305 0.02589731 -0.15347609 -0.031448476 -0.16400032
-0.061206244 -0.06986382 0.02634916 -0.16327803 -0.15875919 0.059156045 0.089710884 -0.073368095
0.1374328 -0.23300011 -0.021900196 0.116637595 0.1800838 0.1132878 0.05450519 -0.19020212
0.068440095 -0.08843947 -0.087211505 -0.23731664 -0.06405646 -0.018849231 0.024416536 -0.08379813
0.05126961 0.002903755 0.040276658 -0.01510711 0.17228843 -0.0633878 -0.14263995 -0.06682855
-0.30507895 0.08822116 -0.15340799 -0.017637163 -0.0045600706 -0.029007867 0.23237637 -0.2875069
0.1865051 -0.21544757 0.026968662 0.077120565 0.10932293 0.17607644 0.110925466 0.14740433
-0.039812382 -0.03929375 -0.19373801 -0.02583057 0.04669222 -0.14083788 0.18801819 0.07251046
-0.082082875 -0.026692865 -0.15992962 -0.13477963 0.2037323 0.0082027 0.0009750323 0.10749091
-0.14286177 0.21351212 -0.1368716 0.06620193 -0.07216049 -0.090461105 0.12583251 -0.17972147
0.09647847 0.1158951 0.05691002 -0.15528089 -0.009599836 0.16453223 -0.012960286 0.047424868
-0.35711926 0.12755091 -0.020278752 -0.037286017 0.044146348 -0.19909862 -0.02236562 0.20818341
-0.043970246 0.05091277 -0.05040434 -0.07134008 0.10340106 0.1400752 0.13064046 0.13869913
-0.076201685 0.09866578 -0.105287746 0.10899121 0.17523986 -0.2796324 0.07325603 0.1578233
0.052726716 -0.016498368 0.020720877 -0.11843151 0.09237226 0.071495555 0.0390656 0.096889526
-0.2722875 0.1362894 -0.020564923 -0.055730548 0.03308222 -0.1926598 -0.011532825 -0.00072459807
-0.082464635 -0.03242619 0.16443028 0.057654314 0.12870277 0.11291155 0.081853725 0.14447752
-0.11520261 0.11061689 0.08406952 0.09910206 0.1665645 -0.15706466 0.12442749 0.1071302
0.07002619 0.1508153 -0.059813946 0.06284241 -0.1151479 -0.2666391 -0.29060265 0.1048667
-0.082511015 0.004175391 0.12811792 0.20280868 -0.13956717 0.05138251 -0.28218344 0.18760364
-0.11012324 -0.010485255 0.115024865 0.02828589 -0.056173988 0.09616892 0.15550044 0.04710662
0.059439693 0.091999285 0.046837237 -0.139572 0.2018031 0.039767873 -0.027154678 0.014586411
0.054900408 -0.1558207 -0.029921528 0.03976088 0.16001417 0.22711882 0.0022328885 -0.17153342
0.10305598 0.07880433 -0.21444027 -0.059220638 -0.040854573 -0.10872989 0.129741 -0.055843532
0.029716564 -0.17824979 -0.12331243 -0.31015283 0.15408763 -0.04478933 -0.17834385 0.024412295
-0.041736085 0.16294841 -0.13976793 -0.0923509 -0.0028358258 0.011051535 0.14519168 -0.26212314

model.fc.10.bias f4 [16]
00000000: b5a7 233e 67fb bdbd 0c00 29bd a709 c6bd
00000010: 4699 1cbe dbc0 a23d d34e 6e3d e4ae 273e
00000020: c05f 0b3e c88b 153e 3ac8 8cbd 3ce1 31be
00000030: b126 8fbd 51b8 0ebc 44ab d13c 065d 833c
0.15981944 -0.09276467 -0.04125981 -0.0966981 -0.15292844 0.079469405 0.05818064 0.16375309
0.13610744 0.14604104 -0.06874128 -0.17371076 -0.06989802 -0.008710937 0.025594361 0.016035568

model.fc.11.weight f4 [16]
00000000: 69d0 4b3f 19e6 5d3f 25fb 703f daec 653f
00000010: 7b14 413f 5524 593f 1cba 4a3f c09c 673f
00000020: a874 633f c277 6b3f 2eca 573f d4fc 493f
00000030: 54d3 4b3f 9d90 463f 9748 403f 2358 673f
0.79614884 0.86679226 0.94133216 0.8981453 0.75421876 0.84821063 0.7919023 0.90473557
0.8884988 0.9197961 0.84292877 0.7890141 0.79619336 0.7756441 0.75110763 0.9036886

model.fc.11.bias f4 [16]
00000000: 9dee 7f3b 0779 67be a26a a9be 2eea 3abe
00000010: c20c c3bb 942b 57bd ba04 56bd 54b0 52be
00000020: 03c6 0ebe a425 98be c1e1 01be 5508 3dbe
00000030: 6742 8bbe 9d93 e0bd 2ee5 45be 84b9 b2be
0.0039052137 -0.22604762 -0.33089167 -0.18253395 -0.0059524486 -0.052531794 -0.0522506 -0.20575076
-0.13942723 -0.29716218 -0.12683775 -0.1846021 -0.27199098 -0.10965655 -0.19325706 -0.34907162

model.fc.11.running_mean f4 [16]
00000000: 6396 f33d 371f b9be 114b 41be 064b c7bd
00000010: 1016 89bd fdec 3f3e b9d6 ac3d faec 333b
00000020: 2649 383e 01f5 f3bd dcbe 2abe e066 1dbe
00000030: d74d 69bd 5072 50bc 4bc4 2a3c e598 91be
0.11893918 -0.36156628 -0.18876292 -0.097311065 -0.06693661 0.18742748 0.084393926 0.0027454481
0.17996654 -0.11911965 -0.1667437 -0.15371275 -0.056959 -0.012722567 0.010422776 -0.28436962

model.fc.11.running_var f4 [16]
00000000: 23a5 a03f a274 513f 44a6 9e3f 3747 b93f
00000010: 706b 663f dc55 303f f7d0 993f feb1 b43f
00000020: c733 ec3e c2da 383f d11e 603f 7b90 063f
00000030: a162 2e3f 3a5f 963f 3f13 8c3f 6594 453f
1.2550396 0.8181859 1.239449 1.4474858 0.90007687 0.6888101 1.2016896 1.4116819
0.46133253 0.722088 0.8754702 0.5256421 0.68119246 1.1747811 1.0943373 0.7717956

model.fc.14.weight f4 [8, 16]
00000000: 2c62 44be 860c 4fbe cd10 26bd 6fcb 093c
00000010: 989e 813e 37a3 833e cf69 a8bd d02d a9bc
00000020: 813a 2b3e 8752 51be 2553 2e3c b5e0 1e3e
00000030: 7722 1cbc 30f3 bb3c d0d4 23be a2e7 9fbe
00000040: 9d2b f6bd de61 983b efe7 923e 09cb 593e
00000050: a7a1 44bb 48a5 e03d f95a 15be 6ffe 993e
00000060: 59d1 54bd fd7e e43c 242b 29be 18d2 74be
00000070: e2ee 3cbd a168 4fbe b014 80bd b18c d23d
00000080: 0553 553c a4f8 933e 3f82 8d3d a0f0 1cbe
00000090: 9b55 6fbe 1c63 80be 497b b2bd 8512 283d
000000a0: e514 0b3e 0163 953e 754b a2bd 8f14 f43d
000000b0: 3336 bebd baf9 8ebd 6117 52bd 2aad 983e
000000c0: 516d 3f3e 24a8 1dbd c4f6 bc3d 2613 2cbe
000000d0: d379 803d 98a2 033d 3608 663e 1e72 91bd
000000e0: 2f76 98be 4343 0bbc 0bc9 46bc 5a37 3fbe
000000f0: 3994 623e 0aac 353e 2dc2 f63d 99ce 973e
00000100: aedc 77bd 24c8 623e e006 e8bc cc7e 9bbd
00000110: 8788 4ebe dc99 1abe b40c cebc a5dc 673a
00000120: 172f 753d bdf8 803e 32c0 523e 99c2 19bd
00000130: 4e80 dfbd 1736 32bd 1691 f8bd 7e44 6a3e
00000140: 860b 9f3c d97e 57bc beee 14be bf1d 87bc
00000150: 93d8 debd f1df 563d 2547 bd3d 30b1 d7bd
00000160: 0e20 b7be a6e4 bf3d 224a c63e f9a3 a23e
00000170: ac18 003e 7801 113e 465a cd3d 7b9f 87bc
00000180: e416 efbd 362d a63c c820 c23e ea57 493e
00000190: df37 703d aad2 6cbd ca51 18be b583 a93e
000001a0: a158 babd 5707 ab3d 8fba aabe 3193 4cbe
000001b0: b7b8 13bb 303c 0cbe 1932 a5bc a1d2 4f3d
000001c0: 2c62 29be 44e0 a6bc b866 053e f5c4 6b3e
000001d0: 0e9f ba3d 5c59 e93d 6c94 3abe 8a5f eb3d
000001e0: fa0c be3d 602a b9ba 5ba3 6fbd 27aa 9abc
000001f0: de24 2cbe 2d8a 53be b7a0 5fbe 9ede 87bd
-0.19178075 -0.20219621 -0.040543366 0.008410319 0.2531631 0.2571046 -0.082233064 -0.020651728
0.16721536 -0.20441638 0.01063994 0.15515406 -0.009529701 0.02294311 -0.1599915 -0.3123141
-0.12020037 0.0046503386 0.28692576 0.21268858 -0.003000358 0.10969025 -0.14585485 0.3007693
-0.051957462 0.027892584 -0.16520363 -0.2390827 -0.046126254 -0.20254757 -0.06253946 0.10280741
0.013020282 0.28900635 0.06909608 -0.15326166 -0.233725 -0.25075614 -0.08714921 0.041033287
0.1358219 0.29177096 -0.079245485 0.11917984 -0.092876814 -0.06981225 -0.051291827 0.29819614
0.18694045 -0.03849043 0.09226754 -0.1680418 0.06273236 0.032137483 0.2246407 -0.07101844
-0.29777667 -0.008499923 -0.012132893 -0.18673459 0.22126855 0.17741409 0.12048755 0.2964981
-0.06051319 0.2214666 -0.02832359 -0.07592544 -0.20169269 -0.15097755 -0.025152542 0.0008844829
0.05985936 0.25189772 0.20581129 -0.0375391 -0.10913144 -0.043508615 -0.12137048 0.2287769
0.019414674 -0.013152801 -0.14544198 -0.016493676 -0.10881152 0.05245966 0.09242085 -0.10531843
-0.35766643 0.09369783 0.38728434 0.31765726 0.12509412 0.14160717 0.10026984 -0.016555538
-0.11674288 0.02028523 0.37915635 0.19662443 0.058647033 -0.057818092 -0.1487495 0.33108297
-0.09098936 0.08351009 -0.33345458 -0.19978024 -0.0022540519 -0.13694835 -0.02016549 0.05073798
-0.16541356 -0.02037061 0.13027465 0.23024352 0.091123685 0.11393997 -0.18220681 0.11492832
0.09279819 -0.0014127009 -0.058505397 -0.018879963 -0.16810939 -0.20658179 -0.21838652 -0.06634258

model.fc.14.bias f4 [8]
00000000: 1d39 1f3e b8ea 08bd 15ac 173e 93aa 29be
00000010: 720c 09bb b3fa 563e f8b9 05be 70c1 163e
0.1554913 -0.03342697 0.14811738 -0.16568975 -0.002091196 0.20994072 -0.13059223 0.14722228

model.fc.15.weight f4 [8]
00000000: f086 a23f e53e d23f c833 953f 1343 773f
00000010: 9524 933f 6a91 873f e6ba d63f 4947 bf3f
1.269743 1.6425444 1.1656427 0.9658672 1.1495539 1.0591252 1.6775787 1.494363

model.fc.15.bias f4 [8]
00000000: 9883 0b3e 292c 083e 774f 713e 5076 853d
00000010: ef36 453e b51c 763e 051e 473e 18db 7d3e
0.13624418 0.13298096 0.2356547 0.06516707 0.19259237 0.24034388 0.19445045 0.24790609

model.fc.15.running_mean f4 [8]
00000000: a886 3e3e 1d07 27bd e54c d53d 488d 04be
00000010: a88c 09bd da4d 6f3e 622f 21be f3f0 0e3e
0.18606055 -0.040778268 0.10415057 -0.1294452 -0.033581406 0.23369542 -0.15740731 0.13959102

model.fc.15.running_var f4 [8]
00000000: 750a 793e 8d67 0f3f 7819 e83e 5afb 983e
00000010: abe0 963e 94e0 d03e 8a9d 133f 3e85 ee3e
0.24320395 0.5601738 0.4533193 0.29879266 0.29468283 0.4079634 0.5766226 0.4658603

model.fc.18.weight f4 [4, 8]
00000000: cb48 113f b88e 253f f5b1 39be a91c 2dbf
00000010: 8667 f8bd e462 44bf ac09 c93e 3f17 193f
00000020: 23db 24bf fd38 d63e 9807 6c3e 7db8 1f3e
00000030: d1b9 b53e 5e8b b9bd a442 9d3e dc6c 6f3e
00000040: db01 ee3d 0988 24bf 596e 143e 9b81 d73c
00000050: d681 ba3e 4bee 753e b819 28bf 493a 3bbe
00000060: bc0a b83e 95f5 2ebf 7b55 94bf 655f e63e
00000070: ab5a 28bf aff1 b53e a452 80bf 013e 88bf
0.567517 0.64670897 -0.18134291 -0.67621857 -0.121291205 -0.76713395 0.39265192 0.59801096
-0.64396876 0.41840354 0.23049772 0.1559772 0.3549333 -0.09059785 0.30714905 0.2338137
0.11621448 -0.64270073 0.1449522 0.026306918 0.36427182 0.24016683 -0.65664244 -0.18283953
0.3594569 -0.6834348 -1.1588587 0.44994655 -0.6576335 0.35535952 -1.002522 -1.0643922

model.fc.18.bias f4 [4]
00000000: 15c8 0cbf b963 b6bc 7553 863e 7c86 88bd
-0.549928 -0.022264348 0.26235548 -0.06666276
