MultiClassdiabet/checkpoints/bodyP-epoch=53-val_loss=0.31.ckpt (torch, 724348 bytes, 68 tensors)

model.fc.0.weight f4 [128, 363]
00000000: c03d f1bc 75d5 873c baad 14bd e7cb 4fbd
00000010: f9e6 633d 432b bcbb d5a6 94bd df18 e23a
00000020: ea72 96bc 7808 77bc 3923 fcbc 9963 ecbb
00000030: 3e20 e8bc 96fc 363b 48ab 5a3d b0b6 a0bc
00000040: 0dc0 e93c fa4d 19bc 90be 093c bf29 08bb
00000050: e62f 04bd fa50 38bc 7d1b b3bc 9258 9dbc
00000060: abeb a03c 981a db3c dce2 233c 6859 7ebb
00000070: fb48 84bc 7ac3 293b 5d49 53bd c3cf f53c
00000080: 96e2 333d 0e12 51bd fabf d6bc d758 a8bc
00000090: fb60 e93c 4728 63bc bd71 6b3d 6d46 893c
000000a0: 59c1 d4bc 6298 0cbd baba 323c 69dc 263d
000000b0: fb8c 66bc 7938 7f3d 2406 813b 1f80 38bd
000000c0: 320b 363d 6fce 963d 17d2 f5bc bca9 bcbc
000000d0: 7548 a23d f8a9 453d ea8d f63a 38ed 163d
000000e0: 59de afbc d66c 9c3c 1858 8dbb 742d 9e3a
000000f0: b84a 89bc 0f1e 3ebd 86b8 5abd 036e 313c
00000100: e8bb 013c d311 6abd 5a0c 6abc ff2e 6c3d
00000110: 9ac6 ab3d 5ee8 0a3d 0e66 563b 4065 2a3d
00000120: 71eb 5b3d c4b4 a9bc a9bb d3bc c2fb 1dbd
00000130: ab29 6b3b a179 2e3b 554d 9c3c 1a0f 7a3b
00000140: 5121 8cbc 6d39 a6bc 9cd6 b63c 677b 233d
00000150: 31a9 14bd 3182 2f3c 979a 533c 41fc 333c
00000160: d7ee 18bd af6f 763c 4fcf 1abd 79a8 92bc
00000170: eee6 c7bc 3a76 163d 85c4 a6bc 7a54 b13c
00000180: 9b63 b93c 338b 333d c3fa 8bbc 7543 103d
00000190: 54a9 593c 6017 5f3b 8b17 563c 8d7b 1ebd
000001a0: e3c4 5b3d af68 953c eb84 913c d26b 5d3c
000001b0: 2790 423d aeb7 503d f88f 02bd 5b0a 4f3d
000001c0: 46f6 2d3b 7f7d c8bb 8d35 edbb 785f 233d
000001d0: c53e 423c 72e7 2e3d a42d 353d c79c 343c
000001e0: a8fc 04bd 1095 24bd 96f1 e439 70cb 21bd
000001f0: 944b 003d 99cc 2e3d 365f 41bd 2520 aa3c
00000200: c402 a93c 596d e03c 33cd 293d 317a 48bd
00000210: 8a1a 743c 19bc 123c 8b67 893d 51e3 09bd
00000220: 9830 bebc 589d 093d a360 293d 6ab0 9b3b
00000230: 5703 ccbc 5a11 3e3c dcf3 f53c d4a4 32bd
00000240: 2e8f 55bc 192e 01bc 23e3 abbb 0e91 e0bc
00000250: 5ab9 21bc efca 2abc 5a88 903d 9375 ac3c
00000260: 708a dd3c d7c5 dfbc e2fc ce3b 01b2 1bbd
00000270: 2021 ef3c 3f16 d43c 5b69 5f3d 7e13 893d
00000280: 8da9 2d3d 0fac c4bc ed29 0e3d e852 c1bc
00000290: 4bd1 0fbc a050 06bd e250 743d 1018 5f3d
000002a0: 98eb 413d b405 aebc b478 753d 64b2 323d
000002b0: 403c 2bbc 125f 5b3d 31c6 a23c 2479 2ebd
000002c0: e051 e4bc 3e66 863c 4ccf 04bc c98a 8b3d
000002d0: 29ce 853c 1fb3 c3bc 886d 25bd cdd4 9fbd
000002e0: 15ef 313d 16c2 413d 3a01 71bd 16db 623b
000002f0: 7193 813d 6c7c abbb 34f9 c5bc d57e abbc
00000300: e878 a93c c21c debc ebdc db3c 8c8e 423b
00000310: f49c 1abd 1580 abbc 9a99 c0bc 7eec 263d
00000320: 4c00 4d3d 3d19 d13c 9dd7 7abd 03b5 ca3b
00000330: e577 6dbc ac4f 07bd 7d31 3abd 61f7 db3b
00000340: 395a c53b 340a 6d3c 0fc5 b43a ed94 3f3d
00000350: 881e 153d 2caa 8b3c c79d 44bd 0c4a 8c3c
00000360: 8b4b d43b 7a67 1f3d 7b90 d2bc 8fdd 7f3d
00000370: 10ae 2ebd 90e6 2cbd 1a56 003d ff53 e03b
00000380: 5e46 423d 48f7 943c 45f0 54bd dbd5 353d
00000390: 87e3 e4bc aeb8 c9bc e01b f6bc b946 eb3b
000003a0: 5e77 6cbb 2c34 8d3c 8e75 753d f570 043d
000003b0: 9f66 0d3d b276 883d f144 c73c 38bb 23bd
000003c0: 394f 86bc 0c29 3fbd 6350 52bb 74d9 293c
000003d0: 2338 9c3c aedc 543d 14f4 ad3c cfec 683d
000003e0: eb5c 5b3c 58dd eebc 2b12 2d3d 43d5 1d3d
000003f0: 7525 e63b 0442 b6bc 4af1 ab3c 0c6c 303d
-0.02944839 0.016581276 -0.03629849 -0.050731566 0.055640195 -0.005742462 -0.07258383 0.0017249844
-0.018365342 -0.015077703 -0.030778514 -0.0072140214 -0.028335687 0.002792155 0.053386003 -0.019618362
0.02853396 -0.00935697 0.00840725 -0.0020776836 -0.032272242 -0.011249775 -0.021863693 -0.019207273
0.019643625 0.02674608 0.010002818 -0.0038810614 -0.016148081 0.0025903867 -0.051583637 0.030006295
0.04391726 -0.05104261 -0.026214588 -0.020550175 0.028488627 -0.013864583 0.057481516 0.016757214
-0.025971102 -0.03432501 0.010908777 0.040737543 -0.014071698 0.062309716 0.0039374996 -0.04504406
0.04444427 0.07363593 -0.030007405 -0.023030154 0.07923976 0.048257798 0.0018810604 0.036847323
-0.021468328 0.019094866 -0.00431348 0.001206799 -0.016759261 -0.046415385 -0.05339863 0.0108294515
0.0079183355 -0.057145905 -0.014285171 0.057662006 0.083874896 0.03391301 0.0032714638 0.041600466
0.05369133 -0.020716079 -0.02584632 -0.038570173 0.003588299 0.002662279 0.019079844 0.0038155974
-0.01710573 -0.020291055 0.02231913 0.039912608 -0.036294166 0.010712192 0.012915275 0.010985435
-0.03733715 0.015041276 -0.03779536 -0.0179026 -0.024402108 0.036733843 -0.02035738 0.021646727
0.022630503 0.043833923 -0.017087346 0.035220582 0.013285 0.0034041032 0.0130671365 -0.038692046
0.053654563 0.018238394 0.017763576 0.013514476 0.047500756 0.05095642 -0.03187558 0.050546985
0.0026544495 -0.006118476 -0.0072390498 0.039885968 0.011855786 0.042701192 0.04423298 0.011023707
-0.032467514 -0.04018122 0.00043667544 -0.039500654 0.031322077 0.04267559 -0.04720994 0.02076728
0.020631202 0.027395891 0.04145546 -0.048944656 0.0148989055 0.008955979 0.067092024 -0.03366405
-0.02321653 0.03359732 0.041351926 0.004751255 -0.024903936 0.011600817 0.030023508 -0.043614224
-0.013034625 -0.007884526 -0.0052455827 -0.027412917 -0.009870851 -0.01042436 0.07057257 0.021052158
0.027043551 -0.027316017 0.006316767 -0.038011555 0.0291906 0.025889514 0.054543834 0.06693171
0.042398024 -0.024007825 0.034707952 -0.023599103 -0.008777927 -0.032791734 0.05964745 0.054466307
0.04734382 -0.021242954 0.059929565 0.043627158 -0.010451376 0.053557463 0.019869896 -0.042595997
-0.027871072 0.016406175 -0.008106064 0.068135805 0.016333656 -0.023889123 -0.04038766 -0.078042604
0.043440897 0.047304235 -0.05883906 0.0034615449 0.0632695 -0.005233338 -0.02416668 -0.020934502
0.020687535 -0.027113322 0.02683874 0.0029687015 -0.03774734 -0.020935098 -0.023510743 0.04075288
0.05004911 0.02552473 -0.06124078 0.006186129 -0.014493917 -0.033034965 -0.045457352 0.0067128395
0.0060227183 0.014467765 0.0013791638 0.046772886 0.03640607 0.017048918 -0.04800203 0.017125152
0.006478732 0.038917042 -0.02570366 0.062467154 -0.042646468 -0.04221207 0.031332113 0.0068459506
0.04743039 0.01818432 -0.05198695 0.0443934 -0.027940525 -0.024624195 -0.030042589 0.0071800617
-0.003608189 0.017236792 0.059926562 0.032334287 0.034521695 0.06663264 0.024324866 -0.039973468
-0.016395198 -0.046670005 -0.0032091371 0.010366786 0.019069737 0.05196827 0.02123455 0.056866463
0.013388853 -0.02915828 0.042253654 0.03853346 0.007023508 -0.022248276 0.020989079 0.04307179

model.fc.0.bias f4 [128]
00000000: 4cc9 5f3c 3ae0 24bd 6ca3 47bd 86d4 5abd
00000010: ac56 3cbd 9be9 123d 49f4 6fbd fed2 513c
00000020: 4bc0 213d 9e19 b2ba e7e7 38bd 3c9a 66bd
00000030: 9502 5dbd 2d5d 8abd 723f 44bb 1f7a 453d
00000040: 72a3 ba3c cec5 17bd 7213 6abd 56d7 5b3d
00000050: 3f31 e83c 7f57 8dbc cc6b 4cbd 6626 15bd
00000060: 9685 b33c f8f7 95bc 339d 07bd ef67 b73c
00000070: 2ea2 08bc 667f ccbc 78c9 70bd 7512 ea3b
00000080: 279b bb3a d215 113d 88e9 983d edac 32bd
00000090: ab30 e7bc 1d30 223d 6c29 4dbd a631 11bd
000000a0: 5224 993c 4d8e b5bc 5452 0bbd 2c05 42bd
000000b0: 9e81 67bd faca ee3c cd64 97bd 5505 903d
000000c0: 92ac 35bd 2f61 273c 90aa f6bc 4419 c7bc
000000d0: 52c7 4dbd 034d 88bd e92b 6abd 665d 55bc
000000e0: 63c5 7dbd 5b2f 59bc 4177 8e3c 5ff3 9bbc
000000f0: 734a 32bd cf7d a9ba 40ea fe3c c771 003c
00000100: 4c4a 2cbd 9585 353d 999b c6b9 f190 103d
00000110: fcb0 69bd eb7a ccbb 8abf 05bd 0b12 6fbd
00000120: d87e 01bc c1f6 a23b 43db 67bd d382 51bc
00000130: effb 75ba d917 143a bbb2 903d 3d97 cbbc
00000140: 71b0 b8bc fef2 f03c 3269 1cbc 6e0f 28bd
00000150: b93b 2e3d c925 de3c ae53 20bd a40e 0abb
00000160: c106 4bbd 7554 483d 8112 c43b a9a3 a03c
00000170: c0da d23b a713 393d 549c 3abc 199c 6e3c
00000180: 87a1 5d3d 7c9c 88bd 5358 20bd 1f91 9f3a
00000190: 7106 34bb 060c 8f3c cc2b e33b 6d42 7bbd
000001a0: 9608 723d 3a03 08bd b478 463b 38b3 4bbd
000001b0: 0439 f1bc fe9f 1abd d648 cebc d98c 12bb
000001c0: fd72 6bbd 3a20 863c 3a34 dbbb f45d eb3c
000001d0: 84bc d8bd 7724 4ebd 55d1 29bc a0c2 3c3c
000001e0: c8bc 283c 2e10 aebd 722e 113b d924 f8bc
000001f0: f8fb ed3c 5880 73bc fff8 28bd 996c 54bc
0.013658833 -0.0402529 -0.048739836 -0.053425334 -0.045981094 0.035867315 -0.058582578 0.012806652
0.039490025 -0.0013587957 -0.045143034 -0.056299433 -0.05395754 -0.06756053 -0.0029945043 0.048212167
0.022783015 -0.037053876 -0.05714745 0.053672157 0.028343795 -0.017253635 -0.04990749 -0.036413573
0.021914285 -0.018306717 -0.0331089 0.022388427 -0.008339448 -0.024963092 -0.058785886 0.0071433135
0.0014313207 0.0354212 0.074664176 -0.043621946 -0.028221449 0.039596666 -0.05008833 -0.03544774
0.018694077 -0.02216258 -0.03401406 -0.047368214 -0.056520097 0.029149521 -0.07392273 0.07032267
-0.04435403 0.0102160415 -0.030110627 -0.02430404 -0.050238915 -0.06655314 -0.057170782 -0.013022756
-0.06195582 -0.013255919 0.01739085 -0.019036947 -0.04352803 -0.0012931171 0.031117558 0.007839627
-0.042063043 0.044316847 -0.00037881432 0.035294477 -0.05705355 -0.006240239 -0.03265337 -0.058366816
-0.007903777 0.004973263 -0.05660559 -0.012787539 -0.00093835493 0.00056493055 0.0706534 -0.02485239
-0.022545071 0.029412743 -0.009546565 -0.04103034 0.042537425 0.027117627 -0.039142303 -0.0021065855
-0.049566988 0.04890867 0.005983651 0.01960929 0.0064347684 0.045184758 -0.011389811 0.014563584
0.054109123 -0.06670472 -0.039146733 0.0012173987 -0.002746966 0.017461788 0.006932711 -0.061342645
0.05909022 -0.033206202 0.0030284347 -0.049731463 -0.029446132 -0.037750237 -0.025181215 -0.0022361784
-0.05748271 0.016372789 -0.0066895755 0.028731324 -0.105828315 -0.050327744 -0.01036485 0.011521012
0.010298915 -0.0849918 0.0022152928 -0.030291008 0.029050812 -0.0148621425 -0.041253086 -0.012965345

model.fc.2.weight f4 [64, 128]
00000000: b549 b93d 04b9 1d3d 4555 b4bd 86da 42bc
00000010: 9de2 c33c bde9 44bd 1d53 a13d 5b61 32bd
00000020: 08ae b93c 00c6 783d 7f67 9d3c 57c5 6fbb
00000030: 2fd8 45bc 0dec 353d f3c6 93bd 70bc 8bbd
00000040: 1df1 883d 0e31 8dbc 0fea acbd 6692 5fbc
00000050: c9fc 13bd b621 1d3d 73d8 efbc 8052 4b3d
00000060: c53d b3bb c39f 153b c37c b03d 09b7 503c
00000070: d872 ec3c ffd6 fcbc 3d6d 613d c842 b5bd
00000080: 58ef 5b3d 80a9 663d 1377 203c e100 343d
00000090: 81af d13b 0b59 fe3b 61de 9dbc 30f8 803d
000000a0: 45b3 38bd f2ee ac3d 6fef 9c3d 47f6 f6bc
000000b0: b5b1 5a3d 9f52 b6bd 59c4 4f3d d2d9 a9bd
000000c0: ec3a 9dbd 69a9 853c 1580 f03b cc10 0ebd
000000d0: 3479 7fbd 6257 e53c aadc 253c 1bc4 3a3d
000000e0: 9ade 3a3c e958 cd3b 8a9f 78bd 369b b9bd
000000f0: 69d4 a5bc 8a85 86b8 93be 2d3d abb8 4b3d
00000100: 12a2 e6bd bedd 0cbd 16ea dc3c 74f9 d839
00000110: 2692 31bd 98d3 5d3d f66d a83d 32fb c2bc
00000120: 0e8e 973d 966f aebd 28de b03d 2959 8ebd
00000130: 3512 94bd 0bd4 09bd d872 09bd f6fd 0f3d
00000140: 7a5a a73c 0421 483b 0eab 9d3d cd62 183d
00000150: 7ab5 c7bc c483 0cbc fdf8 0a3d f91c 7abd
00000160: 1c9e 03bd cff0 16bc 05f0 253d 09ae 1dbc
00000170: 4b1e 943d d101 303d 9e2f db3c 4901 0d3d
00000180: 725e 84bd 0b31 8e3d e866 933d c8f5 afbd
00000190: b5e2 9cbd f997 b0bc 7fbd 8abc d534 63bd
000001a0: 8a59 42bd f0a1 813c 77b0 2fbc 7ec8 533d
000001b0: 9bb6 6b3d 0075 52bc 5efe a1bd ff71 783c
000001c0: eedc 883d a998 093d 0e43 83bd b5f6 56bd
000001d0: 523a 983c 78e7 d93c 669c aa3c 3ef2 b93d
000001e0: f879 c7bd 71fc 0cbc 0fcb 8bbd 297f d1bd
000001f0: 1138 483c 3197 453d ca5f a0bd e78a 93bd
00000200: 5ab7 72bd 66f1 7b3d 60de 333d 744f a9bd
00000210: 4da1 59bd 41bd 413d 572f 4ebc 814a 3e3d
00000220: cb67 74bc 80f3 8ebd 32e9 8a3d 31d3 d2bb
00000230: d596 67bd d7d7 dfbc 0342 d6bc 8ed9 193d
00000240: c1d6 4cbd cac6 183d 055d 833c d836 bb3d
00000250: 06b3 3a3d e9a0 163d d486 ce3b f4c6 2d3c
00000260: 04fa ffbc 8506 7fbd 5824 8e3d 4ea6 433d
00000270: 408b bfbc aabf 933c aa6e 4f3d 4705 a63d
00000280: d7cd 78bd 9de4 73bd b52f 95bd 4750 e3bc
00000290: f8f1 8cbd 6a11 5fbd 11fd 0c3c 437a ae3b
000002a0: d428 05be 840c bebd f828 2f3d d921 873d
000002b0: 019c abbd 3743 4ebd 5951 6e3d 262e 363c
000002c0: 3e36 89bd b624 723c 2645 da3c 1c6b 583d
000002d0: 36f7 ff3c a572 2dbd 43fc 20bd bff6 83bd
000002e0: bd3e 383d bd01 063d 3e2d 193d 8f03 883d
000002f0: 97a2 d33c 4165 e6bc 2cab 70bb 9fa5 553c
00000300: dc6a 9fbd e657 483d bf0d c2bd d743 eb3d
00000310: 1a3b 15bd 55d9 52bd a659 85bd 4a96 43bd
00000320: ad29 fa3c 87b6 d23c 7418 44bd 030e 693d
00000330: bb12 c23c c6e6 8bbd 5266 6f3d 3e61 3a3c
00000340: 175d 1b3d c6f0 00bd 9bf8 67bd da82 3abd
00000350: 5f67 aa3c 0563 ca3c 5132 553a b726 22bd
00000360: da0c 973b d454 a13d 3560 48bd d80a 803d
00000370: 010d fdbc 5a78 813b ec30 81bd 6feb 84bd
00000380: 80d3 13bc 61d1 9f3d e915 243d 296d ae3b
00000390: 6a75 6f3c 1440 83bc 4972 043d dd07 c2bd
000003a0: 50c1 093d 28e8 e5bc e4c6 8c3d 1631 20bd
000003b0: 7dde 27bd 87ed bcbc e8b3 ff3c 6bb2 e13b
000003c0: fc7f e43c 5a10 bcbd 0835 b0bd a32f 29bc
000003d0: f8d8 533d 477c 293d 945f e9bc 1a05 95bd
000003e0: fa2a acbd 3fa0 873c 34c5 6dbd ffad af3c
000003f0: c42b ae3a 3b89 aabd e113 a43d 5e70 193d
0.090472616 0.038506523 -0.08805326 -0.01189292 0.023911769 -0.048074473 0.07877181 -0.043549877
0.022665992 0.060735703 0.01921439 -0.003658613 -0.012075468 0.04441457 -0.07215681 -0.06823051
0.06686614 -0.017235305 -0.08443081 -0.013645744 -0.036129747 0.038362227 -0.029278016 0.049639225
-0.00547001 0.002283082 0.086175464 0.0127389515 0.028863356 -0.030864237 0.05503582 -0.08850628
0.053695053 0.05631399 0.0097940145 0.04394615 0.0063990955 0.0077620796 -0.019271078 0.06297338
-0.04509284 0.08444013 0.07662856 -0.030146731 0.05339213 -0.089024775 0.05072436 -0.08293499
-0.07677254 0.016316133 0.0073394873 -0.034683987 -0.062371448 0.027995769 0.010123411 0.045597177
0.011405611 0.0062667024 -0.060699023 -0.09062807 -0.020242887 -6.4144915e-05 0.042418074 0.04973666
-0.11261381 -0.034391157 0.02696709 0.00041384588 -0.04335227 0.05415687 0.082240984 -0.02380142
0.07400142 -0.08517377 0.08636123 -0.069506 -0.07230035 -0.033649486 -0.03355679 0.035154305
0.020428885 0.0030537257 0.07698642 0.0372036 -0.024378527 -0.008576337 0.03392886 -0.061062787
-0.032133207 -0.009212687 0.040512104 -0.009624013 0.072323404 0.042970482 0.026756104 0.034425054
-0.064633265 0.06942948 0.07197362 -0.08591801 -0.076604284 -0.021556841 -0.016936062 -0.055470306
-0.047448672 0.015824288 -0.010723225 0.051704876 0.057547193 -0.012845278 -0.07909845 0.015163898
0.06682764 0.033592854 -0.06409274 -0.052481372 0.018582497 0.02659963 0.02082653 0.09079407
-0.097400606 -0.008605109 -0.0682584 -0.10229332 0.0122203985 0.04823989 -0.0783077 -0.07204228
-0.05925689 0.061509512 0.043913245 -0.082671076 -0.053132344 0.047299627 -0.012584529 0.04645777
-0.014917324 -0.06980038 0.0678276 -0.0064338674 -0.05654033 -0.0273246 -0.026154524 0.037560992
-0.050009493 0.037298955 0.016035566 0.0914132 0.045580886 0.03677455 0.006302694 0.010606516
-0.031247146 -0.062262077 0.06940526 0.047766022 -0.02338183 0.018035728 0.050642647 0.08106475
-0.06074318 -0.059544194 -0.0728449 -0.02774824 -0.068820894 -0.054459967 0.008605258 0.0053246333
-0.13003856 -0.09279731 0.04276368 0.06598253 -0.08379365 -0.05035707 0.058183048 0.011119401
-0.06699799 0.01477926 0.0266443 0.052836522 0.031245809 -0.04234566 -0.039303076 -0.064435475
0.044981707 0.0327165 0.037396662 0.06641304 0.025834365 -0.028124453 -0.003672312 0.013039975
-0.07784054 0.04891195 -0.09475278 0.11487549 -0.036433317 -0.051476795 -0.0651124 -0.04775075
0.03053745 0.025721801 -0.047874883 0.05689813 0.023690572 -0.06831126 0.05844719 0.011375723
0.037930574 -0.03147962 -0.056633573 -0.045534946 0.020801244 0.02470542 0.0008132803 -0.039587703
0.0046096863 0.07877508 -0.048919875 0.06252068 -0.03088999 0.0039511146 -0.06308159 -0.06490218
-0.0090225935 0.07803608 0.040059958 0.0053230715 0.014615396 -0.016021766 0.032335553 -0.09474156
0.033631623 -0.028064802 0.06873873 -0.039109312 -0.040983666 -0.02306248 0.031213716 0.006887724
0.027893059 -0.09182806 -0.08603865 -0.010326299 0.05172059 0.041378286 -0.028487958 -0.07276364
-0.08406635 0.016555903 -0.058049396 0.021445272 0.001328819 -0.08326956 0.08011604 0.037460677

model.fc.2.bias f4 [64]
00000000: 5a08 a6bd 29e0 aa3d 3c5f 2f3d 8ebe f13c
00000010: 0b00 20bd 87c2 543d f7e8 7bbd 90f4 563d
00000020: 540b 863d d976 5b3d a039 e5bc e0e7 323d
00000030: e1bb 2a3d 3632 49bd 2f15 bbbc f940 0abd
00000040: a01b 843c 6d67 703d c86a b83d a097 1e3d
00000050: b8ea a43d d869 b7bd 551b 88bc ebfb 353d
00000060: 08d4 383d 804c 83bc 114a a1bd 7ad6 703d
00000070: 0d70 85bc 68cc 633d c860 08bd e815 9ebd
00000080: 4045 1bbd e211 98bd ce61 8f3d b2ad b43c
00000090: c472 71bd abe2 d039 66f2 6fbd 8bc9 323d
000000a0: 6443 05bc 4a03 b33c e76e 12bc 33c0 8f3d
000000b0: 9127 11bc e189 0a3c 0915 a9bd 16db 6a3d
000000c0: b4f0 813d 8f13 d53c 7de4 ad3c bcca 843c
000000d0: c079 b53d 1aa5 d13b 1fae 963d 7484 9e3d
000000e0: 5121 9fbc bf9a 9cbd 83b6 de3c 045b c63b
000000f0: 5f7d a93d 44e7 d0bb eadc 27bc 91f6 4abb
-0.08107062 0.083435364 0.042815432 0.029509809 -0.03906254 0.05194333 -0.06150147 0.052479327
0.065451294 0.05358014 -0.02798158 0.043678164 0.04168308 -0.04912015 -0.02283725 -0.03375337
0.016126454 0.058692385 0.09004742 0.03871882 0.080525815 -0.08955735 -0.016614595 0.0444297
0.045124084 -0.016027689 -0.07875455 0.05879829 -0.016288782 0.05561486 -0.033295423 -0.07719022
-0.03790784 -0.07425286 0.07001077 0.02205548 -0.05894734 0.00039841732 -0.05858078 0.043649238
-0.008133743 0.021852154 -0.008937574 0.07019081 -0.008859531 0.008455724 -0.08255965 0.057337843
0.063447386 0.026010303 0.021227116 0.016209953 0.088611126 0.0063978555 0.0735743 0.07740107
-0.019425066 -0.07646703 0.027186638 0.0060533304 0.08275866 -0.0063752253 -0.010245541 -0.003096972

model.fc.3.weight f4 [64]
00000000: 8732 7b3f 6c88 813f dace 803f a7bb 7d3f
00000010: f691 7d3f 6862 7f3f 8a49 7e3f 1d6e 7b3f
00000020: af8e 7f3f 3460 7f3f 45ae 793f 2e6c 853f
00000030: ce71 7e3f f0ce 803f 8e53 803f bbab 843f
00000040: 29e4 7c3f 3637 713f 1c07 7c3f d60f 7c3f
00000050: c8fc 7e3f 28ea 853f 5273 823f 7416 7d3f
00000060: 2439 733f ae56 7d3f 7444 7c3f 8cd9 893f
00000070: a29a 773f fcf1 833f 4e8a 7f3f 2c04 763f
00000080: eeff 853f d8ba 803f 7a07 773f 4bf5 793f
00000090: 8f97 7d3f 5154 7d3f 284c 853f 2831 7e3f
000000a0: 33df 843f b818 883f d4e4 7d3f f388 7f3f
000000b0: f4e2 813f b416 813f 3628 823f 9958 803f
000000c0: bf8e 833f 6a5d 803f cad5 7d3f b659 793f
000000d0: 3498 763f bd80 853f 96b5 783f 6435 813f
000000e0: 2ace 7a3f 5680 813f 3f16 7f3f 4acf 843f
000000f0: 5979 823f 5cd2 813f 79ca 793f 10ad 7e3f
0.98123974 1.0119758 1.0063126 0.9911446 0.99050844 0.9975953 0.9933096 0.98214895
0.9982709 0.9975617 0.9753154 1.0423639 0.993924 1.0063152 1.0025499 1.0364908
0.98785645 0.9422487 0.9844835 0.98461664 0.99604464 1.0462084 1.0191443 0.98862386
0.95009065 0.9896039 0.9854195 1.0769515 0.96720326 1.0308223 0.9982041 0.96100116
1.0468729 1.005702 0.96495783 0.9763991 0.99059385 0.9895678 1.0413866 0.99293756
1.0380615 1.0632544 0.9917729 0.9981834 1.0147386 1.0085053 1.0168521 1.0027038
1.0277938 1.0028508 0.9915434 0.97402513 0.96325994 1.0429913 0.9715208 1.0094419
0.9797083 1.011729 0.9964332 1.037576 1.0193282 1.0142322 0.97574574 0.9948282

model.fc.3.bias f4 [64]
00000000: 1eda 47bd f955 48bd 8acd 1dbc f440 5abc
00000010: 0254 f6bc 9880 8bbc 9d79 15bd 1d1b b0bc
00000020: bf6e dabb 68a9 80bc 4587 afbc 8837 dbbb
00000030: f39d 11bd 0102 edbc ae7d 343c 6b41 27bc
00000040: eecb 06bd c751 22bd bfbc 05bd 0f41 053c
00000050: 993c 80bc 6c4a 94bb 74f3 8cba 93be 423c
00000060: 780f a2bc 88e2 85bc b522 15bc d29b fa3b
00000070: 3255 abbc b4ac 993b 77dd f73b e572 b2bc
00000080: 4314 a5bc f638 b8bc 18e7 1abd a363 e13b
00000090: f600 77bc 3ce5 abbc 929d 94bb 0f66 e6bc
000000a0: f696 11bb fd81 443d 1fc4 0cbd fe07 57bc
000000b0: 1a67 02bd ee1d 183c 84a8 86bb f265 543c
000000c0: cc22 003b e1fd adbc 08a9 c73b 8ed2 14bd
000000d0: 52e8 f7bc b978 54bd 8bc4 bf3b d44f 183c
000000e0: 3de3 fabb dee4 cabc 55dc 9ebc 2a90 46bd
000000f0: 5150 b9bc 8b01 98bb 7716 97bc 0ad4 6ebc
-0.048791997 -0.048910115 -0.009631524 -0.01332115 -0.030069355 -0.017029092 -0.036492933 -0.021497304
-0.006666034 -0.01570578 -0.021426806 -0.0066899695 -0.035551023 -0.02893162 0.0110162925 -0.010208468
-0.032909326 -0.03962877 -0.032650705 0.008133187 -0.015653895 -0.0045254733 -0.0010753707 0.011886257
-0.019782767 -0.01634337 -0.009102513 0.0076479698 -0.020914648 0.0046897773 0.0075642425 -0.021783302
-0.020151263 -0.022488099 -0.037818044 0.0068783327 -0.015075913 -0.02098333 -0.0045353854 -0.028124837
-0.0022215224 0.04797553 -0.034366723 -0.013124464 -0.031836607 0.00928448 -0.004109444 0.012963759
0.001955199 -0.021239223 0.006093148 -0.036333613 -0.030262146 -0.051872943 0.005852287 0.009296376
-0.0076564834 -0.024767336 -0.019392172 -0.04847733 -0.022621306 -0.004638856 -0.01844333 -0.014576921

model.fc.3.running_mean f4 [64]
00000000: 720e 0cbf 4e1a 84be 7684 93be 0500 de3e
00000010: 7aa2 85bc 0662 6dbf be21 2dbe 8caf 8bbc
00000020: d43d 85bd 1dc6 c0bd 8843 883e b41a 6a3d
00000030: 3da7 9e3c b6d0 a73d 5920 323f 743a 53bf
00000040: 9e3c 153f 1230 443d 3bac 8f3e 8c8d 3dbf
00000050: 84d0 07bf 26ee 53bf d55a 88be a723 89bf
00000060: 0303 2fbf f145 6c3d 2d31 88bd 6e48 96bf
00000070: 2484 3abf 3eb8 61bf 12b3 a1be 489d 1dbf
00000080: c06c 4bbf 3aaf 44bf cf7d 90be 8e55 ad3d
00000090: e9c0 0dbf e6de c6be ed15 f93d 41ce 85be
000000a0: 4721 c83d 417b 363f 7337 e7be bf84 4dbf
000000b0: 8a74 b33e 4ab2 40bf 5c1a 8bbf a5a7 183f
000000c0: 117f e6be 1779 e53e 4183 853e 5d7d 85bd
000000d0: 8b8d 2ebf 8736 42bf 87fc 913e 11c9 5b3e
000000e0: 75e6 dd3e 0e81 3c3f 0f6a d93e fbb3 6fbf
000000f0: 0b03 e1be b971 14bf a7c5 19be 0e99 9c3e
-0.5470954 -0.2580132 -0.28811997 0.4335939 -0.016312826 -0.92727697 -0.16907403 -0.01705148
-0.065059334 -0.09412787 0.26614022 0.057154372 0.019366855 0.08194105 0.6958061 -0.8251107
0.5829562 0.047897406 0.2806109 -0.7404411 -0.53052545 -0.8278526 -0.266318 -1.0714005
-0.6836397 0.05768389 -0.066500045 -1.1740854 -0.7285788 -0.88171756 -0.31581932 -0.6156812
-0.79462814 -0.76829875 -0.28220984 0.08463584 -0.5537248 -0.38841933 0.12162385 -0.26133922
0.09771972 0.7128182 -0.45159492 -0.8028068 0.3504985 -0.7527205 -1.0867419 0.59630805
-0.4501882 0.44818947 0.260767 -0.06518052 -0.6818473 -0.7586445 0.28512976 0.2146342
0.43339887 0.7363442 0.4246373 -0.93634003 -0.43947634 -0.57986027 -0.15016805 0.3058552

model.fc.3.running_var f4 [64]
00000000: 92ee 173f 4538 2d3f fe22 9e3f 4e72 c63f
00000010: 4daf c33e 25b0 9a3f 64ed 013f d421 253f
00000020: 0f0a 653f 18ac ce3f 9938 ee3e 7373 e63e
00000030: 2879 653f a7b2 2f3f cd30 973f 2432 c03f
00000040: f786 853f 1de6 d73f 4bfe 263f ec42 0e40
00000050: ccdf eb3e aa32 6d3f 037b 323f 0c04 f23f
00000060: 9ca2 a93f 6fc7 a03f 07ed 983f 0633 8f3f
00000070: 1687 a63f b9a7 1b3f f60d ca3f 4e43 6a3f
00000080: 4be1 493f 9317 553f 33a1 a53f 437c bf3e
00000090: 277b 973f 06bd b73e 8e47 173f 2aac 993f
000000a0: b268 133f 0939 583f 4a6f 043f f89f 7c3f
000000b0: 785d 1a3f 576b 283f 96c2 1c3f d80e f43e
000000c0: af30 953f 7477 cb3f 125d bf3f 43cf 933f
000000d0: 87e6 cb3f 3def cd3e edd4 873f b582 aa3f
000000e0: 0041 923f e5ce 2e3f ed05 9d3f b5ff 6d3f
000000f0: 7644 4d3f 486f 933f 01a8 b83f 207a aa3f
0.59348404 0.67663985 1.2354429 1.5503633 0.3821968 1.2085005 0.50752854 0.6450474
0.89468473 1.6146269 0.46527556 0.45009956 0.89637995 0.68631977 1.1811768 1.5015302
1.0431813 1.68671 0.6523177 2.2228346 0.4606918 0.9265543 0.6971895 1.8907485
1.325275 1.2560862 1.1947335 1.1187446 1.3009975 0.608028 1.578551 0.9150895
0.78859395 0.83239096 1.2939819 0.37399492 1.1834458 0.358864 0.5909356 1.2005665
0.5758163 0.8446203 0.51732314 0.9868159 0.6029887 0.6578879 0.61234415 0.47667575
1.1655482 1.5895829 1.4950278 1.1547626 1.5929726 0.40221587 1.0611855 1.3321139
1.1426086 0.68284446 1.2267433 0.929683 0.8018259 1.1518335 1.4426271 1.331852

model.fc.6.weight f4 [32, 64]
00000000: d38b 6dbd 03bb 6dbd 94db 42bc 3662 6d3d
00000010: 0d10 81bb eb7c d83d 099f 623d ad7a d93d
00000020: 1b43 393d 4153 43bd adf8 ad3c b8e8 c03d
00000030: f814 893d 4037 df3c 9239 eb3d 89a0 f5bd
00000040: cd3b 063e 8f28 a43d 726d 04bd cfff 9dbc
00000050: 3bff 98bd db59 bebd b26a 0f3d 4d8b 18bd
00000060: 78d0 883b d1e1 2d3d 4e4f cebc cedb 04be
00000070: c1dd 9c3d 1c0c 583d 99ca da3b 7a54 003d
00000080: bbb4 2cbd a74d ddbd 5d48 1dbd ac33 01be
00000090: a843 023c a102 3f3d 1e67 98bb 2f2c ca3c
000000a0: 0b30 b03d 389a 0cbd 6921 073d 5185 03be
000000b0: 85f3 d63d cd1b ddbd 335a 773d fa50 a63d
000000c0: 5884 58bd 4034 443c 3e12 e4bb 07a2 d2bd
000000d0: 6fde d13d de08 e93d bbac a8bc 1e4f 26bd
000000e0: c263 9cbd 2883 96bc f065 a4bd 54da a2bd
000000f0: b838 de3d c48e 07bd 3599 583c 9326 e5bd
00000100: b2ac eb3c 9954 c9ba 2421 12bd a677 59bd
00000110: 6559 f8bc d3e7 24bd 7d8f e4bb cad6 24bc
00000120: c5ad 9abd 8f66 893d 0b9d 93bd dd4d 3abd
00000130: 4369 9b3d 2f18 d2bc 8865 dabc b38d 493d
00000140: 9660 efbd dff7 673c 6254 2a3d b908 bdbd
00000150: ef1d c33d 8170 ee3d d609 cbbc 6cf9 723d
00000160: b0d9 a03d 62c5 d03d 73c1 67bd 204c c63a
00000170: efd9 8b3d c305 a43d b82b 6bbd d7da fcbc
00000180: 2fcb 033d 46d5 3bbd 1398 11bd 71df 263d
00000190: 7213 ad3d ba20 953d 0b55 d5bc eb7c c9bd
000001a0: 39dd 2dbe 91df 13be 09cc d13d 368f 13bd
000001b0: 1ca4 0dbe d2c0 a53c 9e56 0d3d 5b4c 26bd
000001c0: 6d59 633d fa14 78bd 4619 b83d 6465 57bc
000001d0: 8d9d f53d 07c9 b93d 18e0 5bbd 3099 953c
000001e0: 42e5 86bb 85b5 b9bd f909 bbbd d916 78bc
000001f0: f67b 38bd 040b c2bd ff26 10be dd87 dfbd
00000200: 2ac2 b13d f441 b33d 7c04 9e3d 08cf debd
00000210: 9d9f 0f3e 0534 b63d 30bd 9abd cefc 243d
00000220: 29f1 073c 5f0c 8b3d 76ec 93bd 4e79 9d3c
00000230: 9b50 ac3c 5766 823d c94f 16bc 424a 993d
00000240: 4fbd a63d d185 2c3c d8ac 9abc 5c86 59bd
00000250: 6fa6 e0bd 6cf1 34bd 5d58 0dbd f795 c53d
00000260: 0efe a73d 17e0 a83b 50ac 3fbd eb71 aebc
00000270: f634 ccbd d188 a1bd 7402 07be 6fca c43c
00000280: 48b3 24bd 0001 84bd 814e e53d a29c 4a3d
00000290: d026 72bd 5f69 813d eb9b 82bd debc e6bd
000002a0: b3fc 4f3c d01d bbbd 616d 31bd e2d3 c7bd
000002b0: e368 a93c d346 803d 564d 903d 23e3 dabc
000002c0: 14b7 d33d 3ac1 05bd 297a 003e b55f 09bd
000002d0: bd84 be3d 4fe2 10be 5cdc fe3d 64a5 b83d
000002e0: f73a a5bc e0f3 a2bd df38 0eba 7f39 94bd
000002f0: 2b6f 653c 43ac 233d da2c 02bd 4f73 cdbd
00000300: 3b33 e7bd 494f 87bd 4c84 8b3d 8de4 6d3d
00000310: bff6 21bd 4fd7 13bd f664 c43d c443 c13d
00000320: bda0 22bc 8970 79bd 2e0b aa3d 7038 093c
00000330: 7510 b63c c7fe c9bb 45b7 133d b60f 83bc
00000340: 09c8 f1bb 5bee a43d 52ae 693b 4a0e ae3c
00000350: dbfb 07be 8efb babd b70f 46bd e382 f53c
00000360: d81e a03d 4d35 b8bd da90 f1bd c4b7 22be
00000370: 5434 5ebd 1bb7 bcbd 2c81 21b8 7379 cabd
00000380: 64d2 ebbd e8c0 0b3d 5215 cc3d 9b06 9abd
00000390: da7c 303c 5d2f 063e b43e 003e d1c9 80bb
000003a0: d18d 8bbd afb1 7bbd b459 81bd 30b6 9b3d
000003b0: 4af7 95bd 5ae6 ce3d 9488 eabd 1550 ecbc
000003c0: 63d6 8abd efed 9e3d 16bd 16bd d749 01bd
000003d0: 8825 5c3d 5bb7 e0bd 0712 743d 0ab4 143d
000003e0: 597a 02bc 1431 243c cdc9 2a3d 57b9 d13d
000003f0: bab3 dfbd f49c 32bd f13b c5bd c2b6 9c3d
-0.057994675 -0.058039676 -0.011893172 0.05795499 -0.003938681 0.10570701 0.05532745 0.10619102
0.045230012 -0.04768682 0.021236742 0.094193876 0.066934526 0.027248025 0.1148559 -0.1199351
0.1310875 0.080155484 -0.032330938 -0.019287018 -0.07470556 -0.09294482 0.035013862 -0.037242223
0.004175242 0.042451683 -0.0251843 -0.12974474 0.07659484 0.052745923 0.0066769836 0.031330563
-0.042164546 -0.10805827 -0.03839909 -0.12617368 0.007950701 0.046633366 -0.0046509644 0.024679272
0.086029135 -0.034326762 0.032990847 -0.12843825 0.104956664 -0.10796318 0.060388755 0.08120914
-0.052860588 0.011975348 -0.0069601825 -0.102848105 0.10247504 0.113786444 -0.020590177 -0.040602796
-0.07636215 -0.018373087 -0.080272555 -0.07951799 0.10850662 -0.033095136 0.013220121 -0.11188998
0.028768871 -0.0015360295 -0.035676137 -0.05309262 -0.030316064 -0.040260147 -0.006975113 -0.010060975
-0.07552675 0.067090146 -0.07207688 -0.045484412 0.075884365 -0.025646297 -0.026659742 0.0492074
-0.11688344 0.014158218 0.04158438 -0.09230179 0.09527194 0.11642552 -0.024784964 0.0593199
0.078540206 0.10193898 -0.056580972 0.0015128888 0.06828677 0.080089115 -0.05741474 -0.03086607
0.032176193 -0.04585769 -0.03554542 0.040740434 0.084509745 0.07281633 -0.026041528 -0.09838279
-0.16978921 -0.14440753 0.10243995 -0.03602525 -0.13832134 0.020233545 0.034506433 -0.040600162
0.055505205 -0.06056688 0.089891955 -0.013146732 0.11992941 0.09071546 -0.05368051 0.018261522
-0.004116685 -0.09067825 -0.091327615 -0.015142166 -0.045040093 -0.09474757 -0.14077376 -0.10914586
0.08679612 0.08752814 0.07715699 -0.10879332 0.14025731 0.08896641 -0.07555616 0.040280156
0.008297243 0.06789469 -0.07222836 0.019222882 0.02103453 0.06367176 -0.009174296 0.07484867
0.081415765 0.010529951 -0.018881246 -0.05310665 -0.10969245 -0.04417555 -0.034508098 0.09647744
0.08202754 0.0051536667 -0.04679519 -0.021294555 -0.09971039 -0.07887424 -0.1318453 0.02402231
-0.04021004 -0.06445503 0.11196614 0.049465783 -0.059119046 0.06318926 -0.06377395 -0.11266492
0.0126945255 -0.09136546 -0.043317202 -0.0975721 0.020679897 0.06263509 0.07046001 -0.026719635
0.10337654 -0.03265498 0.125466 -0.03353854 0.093026616 -0.1414883 0.12444374 0.09015921
-0.020169718 -0.07956672 -0.00054253446 -0.07237529 0.014003555 0.039959203 -0.031781055 -0.10031759
-0.11289068 -0.06606919 0.06812343 0.05807929 -0.039541956 -0.036094006 0.09589569 0.094367534
-0.009926018 -0.060898338 0.083029136 0.008375272 0.022224644 -0.006164405 0.03606345 -0.015998702
-0.0073785824 0.08053275 0.0035656882 0.021247048 -0.13279669 -0.091300115 -0.04835483 0.029969638
0.07818383 -0.08994541 -0.11795206 -0.15890414 -0.054249123 -0.09214612 -3.8505692e-05 -0.09886446
-0.11514738 0.034119517 0.09965004 -0.07520791 0.010771954 0.13104005 0.1252392 -0.0039303084
-0.06814159 -0.06144875 -0.06315938 0.07603109 -0.07322557 0.1010253 -0.114518315 -0.02884678
-0.06779172 0.07760226 -0.03680142 -0.03156456 0.05374673 -0.10972472 0.059587505 0.03630451
-0.00796374 0.010021467 0.04169636 0.10240429 -0.10922952 -0.043606713 -0.096305735 0.07652046

model.fc.6.bias f4 [32]
00000000: ba91 d53d 67fe 4c3d 29fa 403d e06f 8dbd
00000010: 2843 e13d 41d7 c73d 56b0 dd3c 719d e6bd
00000020: 28fe a6bd ddd1 883d 0987 9ebd 7a16 f03d
00000030: 00d9 1d3b df07 9e3d 620c 5fbd d2d6 8a3d
00000040: 3ba6 80bd 1270 83bd 5237 f53d f2fa 1e3d
00000050: 5bee 05bd 3f43 89bd 9f66 f7bd 9ca0 bebd
00000060: 15c0 5fbd 08f1 483b 2505 113d 74c6 c93c
00000070: 0305 c6bd 5389 0f3c d975 2e3d 47d3 7dbd
0.10428186 0.050047304 0.04711357 -0.06906104 0.10999137 0.09757853 0.027061623 -0.11260498
-0.08153945 0.06680653 -0.077406 0.11723037 0.002408564 0.07716345 -0.05445517 0.06779255
-0.06281706 -0.0641786 0.11973442 0.03881354 -0.032698017 -0.06702279 -0.1208012 -0.093079776
-0.054626543 0.0030661244 0.035405297 0.024630763 -0.09668925 0.008760768 0.042592857 -0.061969068

model.fc.7.weight f4 [32]
00000000: 6b2e 7f3f e48f 7c3f f0ac 883f 0305 823f
00000010: d964 883f 1e08 843f a376 853f 0720 7e3f
00000020: 9201 853f a64a 743f 4a7e 833f 8416 853f
00000030: a443 783f 8c76 833f e327 7a3f 8b9d 7e3f
00000040: ae33 883f 59db 6d3f 662c 793f bb11 723f
00000050: c246 763f 2779 823f a1b4 753f 07d6 6f3f
00000060: 04e1 723f 691c 763f 70e1 853f 4e34 783f
00000070: 2aa9 7b3f d8e2 7e3f a4f3 7d3f 5cab 823f
0.99680203 0.9865706 1.0677776 1.015778 1.0655776 1.0314977 1.042683 0.9926762
1.0391104 0.95426404 1.0272915 1.0397496 0.9697821 1.0270553 0.9771711 0.9945914
1.0640771 0.9291282 0.9733337 0.94558305 0.9620172 1.0193223 0.9597874 0.93685955
0.94874597 0.961371 1.0459423 0.9695481 0.98305 0.99564886 0.9919989 1.0208545

model.fc.7.bias f4 [32]
00000000: b2f1 283c a75f 34bd c0f7 3e3d caa5 00bd
00000010: a34a 8c3c 8252 3c3d a2e9 1bbc b033 34bc
00000020: 7ae7 123d 4801 48bd db61 983b f4ae 293d
00000030: eb13 60bc 1497 683c 42ab 17bc 9b08 d6bc
00000040: 3854 d13c 1c77 61bd 00ca 5fbc 7442 fcbc
00000050: 7995 07bd a752 453d 9865 85bc a11d 1fbd
00000060: ed26 0fbd 709b 16bd 38ee fc3c e45a 09bd
00000070: cc6e 7ebc fe65 ba3c 6c10 c2bc 84b8 50bb
0.010311531 -0.044036534 0.04662299 -0.03140811 0.017125433 0.045977123 -0.009516152 -0.010998651
0.035865285 -0.048829347 0.004650337 0.041426614 -0.013676624 0.014196176 -0.00925714 -0.02612715
0.025552854 -0.055045232 -0.013659 -0.030793406 -0.033101533 0.048174527 -0.016283795 -0.038846616
-0.034949232 -0.03676933 0.03087531 -0.033533946 -0.015529346 0.022753712 -0.023689471 -0.003184826

model.fc.7.running_mean f4 [32]
00000000: 0d50 b63d 68de e9bd d630 2d3d 36ab 6abe
00000010: 23b0 aa3d d389 f03d 79a1 1cbe b3e5 3b3d
00000020: d914 a73d 3040 3abe 5b82 38be 211e 7c3d
00000030: b900 2f3e 3a12 c43e e5ca bd3d 43f2 d9bc
00000040: b246 873b 63d9 c2bd f4d4 93bd 4675 78bc
00000050: 8838 483e ed0d 71be 16df 06be 1359 f9bd
00000060: eb80 8bbe a692 10bd 5faa 07be b62c bc3e
00000070: 0ed3 89bd 3291 b03e 0bc7 083e c252 ae3e
0.08901987 -0.11419374 0.0422829 -0.22916874 0.08334377 0.11745038 -0.15295972 0.045873355
0.08158273 -0.18188548 -0.18018477 0.06155217 0.1709012 0.38295156 0.09267215 -0.026604777
0.0041283006 -0.095141195 -0.07218352 -0.015164679 0.19552815 -0.23540469 -0.13171038 -0.12175193
-0.27246794 -0.035296105 -0.13248585 0.36752862 -0.067297086 0.34485775 0.13357179 0.34047514

model.fc.7.running_var f4 [32]
00000000: 0057 d03e 9b92 a13e 8ba6 023f 57d1 8f3e
00000010: 6bfb 6b3f 5c87 813f 18ad ab3f 2cb0 903e
00000020: 5a27 a83e db1b 123f a93b 023f 4500 3e3f
00000030: 9dfc 013f 1607 1a3f bf2f 293f 82f6 673f
00000040: dc8b 093f 0db6 6e3e 6801 363f 6aca 143e
00000050: cd09 f13e 57b8 433f 3beb 243f fcd5 653e
00000060: 7d5b 433e 5923 d53e 32ec e83e 59bc 323f
00000070: 360d c33e 17ab 193f 106c 8a3e b371 fe3e
0.40691376 0.31557164 0.51035374 0.280894 0.9218051 1.0119433 1.3412199 0.28259408
0.32842523 0.57073754 0.50872284 0.7421916 0.5077608 0.6016706 0.6608848 0.90610516
0.53729033 0.23311634 0.71095896 0.1453034 0.4707779 0.76453155 0.64421433 0.2244491
0.19077869 0.4162853 0.45492703 0.69818646 0.38096017 0.6002669 0.2703557 0.4969612

model.fc.10.weight f4 [16, 32]
00000000: 5ad3 ad3d a41a 043d 5385 d13d bb0e f6bb
00000010: 8f63 2abd 2b94 353e 12ac 39be bece e83c
00000020: 0e7f 0d3d 508e c5bd 14f8 ffbd 95b6 e63d
00000030: 896b 47bd 89b2 96bd cb21 833a a2e2 7f3d
00000040: e41d e73b 0ac0 dd3c 4699 14be c893 a23a
00000050: a13b b13d bd64 4e3e ea21 503d 2faa 94bd
00000060: e5b7 0e3e d849 48bc f83e 37be 7333 84bd
00000070: bf0d 073e 9938 0ebe 160d 333d e907 ad3c
00000080: f427 7e3c 6f57 923d bfe4 57bd 56a2 e13d
00000090: ea92 893d 468b 51be 8231 083e 1d52 b7bd
000000a0: 5311 96bd d579 aa3d 70b3 cf3d df10 c3bd
000000b0: a65d 27be 8ad2 39be 7583 013e 06ef bfbd
000000c0: e3ef 87bd be55 cabd d214 5d3c 9b4d df3c
000000d0: 0f76 2cbd de64 5bbe 407b 093e ebba d0bd
000000e0: e618 5d3d 0ec8 dfbc 8818 02bd 3d03 e13d
000000f0: 38c5 8abd e23d b63d c5b8 81bd f899 bcbc
00000100: 6a87 28be d966 2a3e 9840 60bd 790d 42be
00000110: f2ce 51be 806b 63bd ad87 73bd c3b1 283d
00000120: 1b79 bbbd fe01 933d 312a f93d 233a c7bd
00000130: dced cabd eb87 78bd c99f 3ebd 6dc8 24bd
00000140: 2337 b1bd 2fa6 b1bd 013e 32bd a390 b8bd
00000150: fdc2 3dbd 5ea5 413d d195 9fbd d0a0 433d
00000160: f1a3 ad3c 4e19 e5bd 0816 27be 8337 183e
00000170: eabb c03c 5d57 c63b 0992 a53d fe47 7b3c
00000180: 1df3 b7bd 0437 30bd c5a6 1bbe 2320 b2bd
00000190: f268 c03b ff07 afbd 82e2 643d 686b a03d
000001a0: 2340 a8bd ac41 a43c 01bd 27be 573d 54be
000001b0: 655c 423c c3ee 6ebe 3f54 00be 27d9 0bbd
000001c0: 12f1 4bbd f801 9d3c 9ad3 1f3e bc5f 3cbd
000001d0: 029d d9bd 325b 6c3d 224e 9b3d 2f77 e5bc
000001e0: a65e 9abc bd80 b33d 9279 f33d 47d4 e8bd
000001f0: dd35 2c3e 51bb 07be 3dce a43c b2cb 51be
00000200: eb0c 18be 9749 243d 7916 b7bc cced d33d
00000210: 6149 04be fb72 08be 36d3 41bd e9ed 65be
00000220: f83e 42be 26db f2bd 4908 3ebd 3161 f6bc
00000230: 5ddb 9bbc 95a6 59be 1a78 dbbd 7d3d c23d
00000240: 0825 78be 42b3 063e 9834 d53d 7933 fcbd
00000250: 6ebc bebd 1fbb a6bd 60d5 3b3d b175 913d
00000260: be89 2bbe 4826 463e 38b3 a8bd 2cc3 4abe
00000270: f00e 37bd 1b3d f5bd 9e09 0d3e b23a e8bd
00000280: 42c2 4c3e 91a1 ae3a b13c ddbc 3f45 bd3d
00000290: 01cf a83d 6fa4 333d 309e a7bd b11c 30be
000002a0: e13d 05be 6275 a4bb b89c 42be e3b4 4dbd
000002b0: b09d 83bd 3d66 d53d 5edc 5f3d 1511 8dbb
000002c0: f76b 3cbe e6a9 6ebc 81ee 123e 5baa 67bc
000002d0: a730 e73c b6c7 4cbe d034 1fbe daa7 e7bd
000002e0: d3a9 1dbe 7e11 c33d 3fd4 243e 6678 80bd
000002f0: 1fa1 d13d 6c72 ac3d 7ea7 21be cf69 4fbd
00000300: 1da3 4cbe d5f2 8b3d c40d 583d 66a2 18be
00000310: 3321 71be 851b 06be 49cc 00be 9dd0 043d
00000320: 3279 c2bd 6723 01bd 4142 db3b 08cf abbd
00000330: 65c2 ec3d 6d60 2c3e 2fbc d0bd ee0c b23d
00000340: 3d00 fe3c 59d4 de3d 4eac edbd 9aa3 223e
00000350: 7222 8f3d 076e 0c3e 0cb5 53be c0dc e83d
00000360: 64cc 133e a288 b93d 7b92 54be 7919 e0bd
00000370: e7c3 353c 7aa5 de3d 9d5d 1a3e 482a b8bd
00000380: b38e 51bd 7d28 2abe 9743 8d3d bd65 1e3d
00000390: 20fd 49be 18c7 a9bc 1323 52be 44db c83c
000003a0: d9b3 d2bc 4855 9e3c 8f90 073c 5df3 b83d
000003b0: b35c bc3d 8a70 273d 619b 2c3c 1ef7 093e
000003c0: f4b7 193c ef45 5fbd e547 c03d 12f9 00be
000003d0: e2f3 043e a15f 7d3d 7c50 6cbd 4ed6 f53b
000003e0: 90d1 c9bd 2326 81bd 5234 1bbe 8bae 263c
000003f0: df41 303d 1c5e 9c3d 6f04 ffbc 2b18 da3d
0.08487578 0.03225197 0.10230508 -0.00750908 -0.041598853 0.17732303 -0.18132046 0.028418895
0.034544997 -0.096462846 -0.12498489 0.112652935 -0.048686538 -0.07358272 0.0010004578 0.062471993
0.007053124 0.02706911 -0.14511594 0.0012403661 0.086539514 0.20155616 0.050813593 -0.072590224
0.13937338 -0.012224637 -0.17895114 -0.06455126 0.13188837 -0.13888778 0.04371365 0.021121936
0.015512455 0.07145583 -0.052708384 0.11017291 0.06717475 -0.20463285 0.13300136 -0.08951209
-0.07327523 0.08324019 0.10141647 -0.09524702 -0.16344318 -0.1814672 0.12647803 -0.09371762
-0.06637552 -0.09879635 0.0134937335 0.027258685 -0.042104777 -0.21425197 0.13425922 -0.10191902
0.053978823 -0.027317073 -0.031761676 0.10986946 -0.06775898 0.08898522 -0.0633407 -0.023022637
-0.16457906 0.16640796 -0.0547491 -0.18950452 -0.204891 -0.055522442 -0.059455562 0.04118515
-0.091539584 0.07178114 0.121662505 -0.097278856 -0.09908649 -0.060676496 -0.0465391 -0.040230203
-0.086530946 -0.08674275 -0.043516163 -0.09011962 -0.046328533 0.047276847 -0.07792247 0.047760785
0.021196337 -0.11186467 -0.16316998 0.14864926 0.023527104 0.006052895 0.080844946 0.0153369885
-0.08981917 -0.043021217 -0.15200336 -0.08697536 0.0058718855 -0.08546447 0.055880077 0.07832986
-0.08215358 0.020050846 -0.16380693 -0.20726524 0.011862849 -0.23333268 -0.12532137 -0.03414264
-0.04979045 0.019165978 0.15608063 -0.045989737 -0.1062565 0.057704158 0.07583262 -0.028010933
-0.01884396 0.08764789 0.11888422 -0.11368614 0.16817422 -0.1325505 0.020117873 -0.2048786
-0.14848678 0.040109243 -0.022349583 0.103480905 -0.12918617 -0.13325112 -0.047320567 -0.22454037
-0.18969333 -0.118582055 -0.04639462 -0.030075641 -0.019025499 -0.21254952 -0.10716267 0.09484384
-0.24232876 0.13154319 0.10410422 -0.12314505 -0.09313284 -0.08141159 0.045857787 0.07102526
-0.16751763 0.1935054 -0.08237308 -0.19801015 -0.04469198 -0.119745456 0.137732 -0.1133932
0.19995978 0.0013323297 -0.027006479 0.09241723 0.08242608 0.043857988 -0.08184469 -0.17198445
-0.13011886 -0.005018876 -0.19005096 -0.050221335 -0.06426561 0.10419891 0.054653518 -0.004305015
-0.1840056 -0.014566874 0.14348795 -0.014139737 0.028221441 -0.19998059 -0.1554749 -0.11311312
-0.15396814 0.09524821 0.1609659 -0.06272964 0.102358095 0.08420262 -0.1578655 -0.050638016
-0.19984098 0.06833426 0.052747503 -0.149057 -0.23547821 -0.13096435 -0.12577929 0.03242551
-0.094957724 -0.031527903 0.0066912477 -0.083890975 0.11560515 0.16833659 -0.10192143 0.086938724
0.031005973 0.10880346 -0.1160513 0.15882722 0.06988992 0.13713847 -0.20674533 0.1137023
0.14433438 0.09059264 -0.20759003 -0.109423585 0.01109407 0.10871406 0.15074773 -0.089924395
-0.05116148 -0.16617008 0.06897657 0.038671244 -0.19725466 -0.020724818 -0.20521192 0.024518616
-0.025720524 0.019327775 0.008274212 0.09030793 0.091973685 0.04087881 0.010535092 0.13473174
0.009382237 -0.054510053 0.09388713 -0.12595013 0.12983659 0.061858777 -0.057693943 0.0075023538
-0.09854424 -0.06306102 -0.15156677 0.01017345 0.04303157 0.076351374 -0.031130044 0.10649141

model.fc.10.bias f4 [16]
00000000: 7afd 0e3d 2a17 f2bd dc56 f73d 4e7c c1bd
00000010: 4356 8a3d b6af fd3d a8c2 c7bb ed6c 173e
00000020: 8ea6 06be c058 333e 3d41 033e 7057 a9bc
00000030: 5b30 b2bd c735 993d ac2e 0bbb 7de1 863d
0.034909703 -0.118208244 0.12077114 -0.09447537 0.06754734 0.1238703 -0.006096203 0.14787646
-0.13149473 0.17514324 0.12817855 -0.020671576 -0.08700629 0.0748096 -0.0021237535 0.06585977

model.fc.11.weight f4 [16]
00000000: 62f8 6b3f cf74 7f3f 82b1 863f 94df 7e3f
00000010: 24ff 813f 5db5 803f 9f65 753f 7c8c 713f
00000020: 5ff2 7e3f cfe2 753f 4cec 683f 98a0 883f
00000030: 22cb 813f c933 873f 7f50 5c3f 4889 7d3f
0.9217588 0.9978761 1.0522921 0.99559903 1.0155988 1.0055348 0.95858186 0.9435499
0.9958858 0.9604921 0.9098556 1.0674009 1.0140116 1.0562679 0.8606033 0.990376

model.fc.11.bias f4 [16]
00000000: 5a65 9d3b 6bb4 b3bc 6419 9c3d 7f3f efbc
00000010: 0996 003d ebda 603c e38b a73c b61e bdbc
00000020: 809f b53c 4037 e43c 4b1a a2bd 5838 69bd
00000030: 6daa 193c b4cd ba3d a3aa ecbd bd11 bbbc
0.004803342 -0.021936616 0.076220304 -0.029205082 0.031393085 0.013724069 0.020452445 -0.023085933
0.022170782 0.027858377 -0.07915171 -0.0569385 0.009379012 0.09121266 -0.11555984 -0.022835607

model.fc.11.running_mean f4 [16]
00000000: 2812 b23d 3fd2 98be 5fa1 36be e7d7 d3be
00000010: 78a5 d9be dcd3 dabc 8700 e8bd 26a0 063e
00000020: 6aa8 59be 1f05 863e 3709 4e3e a43b 24be
00000030: 3cb1 b8be f54c 69be 6639 e6bb 7094 5b3a
0.08694869 -0.29847905 -0.17834996 -0.41375658 -0.42509055 -0.02671235 -0.113282256 0.1314703
-0.21255651 0.26175782 0.20120703 -0.16038376 -0.3607272 -0.22783263 -0.0070258854 0.0008376306

model.fc.11.running_var f4 [16]
00000000: 8c2f c93e 9ca8 463f 4e42 ff3e 7409 0e3f
00000010: 60e1 303f 69ee 843f 6c5e 4c3f a237 a13e
00000020: e976 973e acb8 823e fb7a 0e3f c4d1 9b3e
00000030: 5160 b23f 9790 013f 8896 ca3e 60a3 453f
0.39294088 0.7760103 0.49855274 0.55483174 0.69093895 1.0385257 0.79831576 0.31487757
0.2958291 0.25531518 0.55656403 0.30433476 1.3935643 0.5061125 0.3956797 0.77202415

model.fc.14.weight f4 [8, 16]
00000000: 0b11 c23d aaf0 763e ffb5 02be 9d0f 093e
00000010: aaff 54bd 08cb 2f3e 4e70 50be 02b9 093e
00000020: 223e 813e e750 093d 4c6c 54be 7dd7 8fbe
00000030: 5649 21ba 9c05 1f3d 18c9 a53d 785b a3bd
00000040: d37e d5bc f438 32be 8995 dfbd 1af1 94be
00000050: 6ff4 2dbe a8ce 48be 4e9f 8bbc 10ea 8c3d
00000060: 8540 fc3d 2813 753d c356 163e 4df4 a9bd
00000070: 64f4 1abe 759b 9cbd 72eb bbbd 646b 0b3e
00000080: 2c0a 14bd b851 9c3d 0b43 1d3e ddc1 e03d
00000090: c92e 113e 6eb4 54bd 0a76 12be a6fa a9bd
000000a0: 40e8 45bb d4e8 10be 6473 02be b77a 2d3e
000000b0: a18a ae3d d908 3c3e e947 a9bd f71e 98bd
000000c0: 0acd 0b3d ea7c 4ebe e930 2a3e 5e09 60be
000000d0: cbef 73be 9e0a 75be a4e4 313d aa57 4d3e
000000e0: faf6 e73d f7ca 063e b839 de3d 8111 31be
000000f0: 3f43 dabd 0a6d 86be 923b 283e bb1d 63bd
00000100: 345a 543e 253a 06bd e8c8 553e 40a8 40be
00000110: e3d6 44be 20c6 c0bd 6b3b 793e 059f 29bc
00000120: ffc4 1abd 70be 7ebd 86a2 093e 670d 4fbe
00000130: f321 fabd 110d a0be 8ae7 633e e8a0 06be
00000140: ae1c d3bd 25fc 223e ad21 dabd 1f68 a5bd
00000150: c4b2 983e 0d06 b6bc 7de3 013d 6c11 7ebd
00000160: e45f c9bd 5a7b babd ff21 13bc a882 17bc
00000170: b24d 393e f29e 673e 0f14 813d 5a4e 06be
00000180: a2ff 6fbe 912a 453d 2366 7ebe e095 023e
00000190: f3a4 e2bd 3f46 ec3d 895e 5ebe d330 16be
000001a0: bd92 cd3d a879 b7bd c8c6 0c3e dd86 563c
000001b0: c5e2 8e3e 5c69 9abd 5ca6 4ebe 2b63 ff3b
000001c0: 49c8 6bbe 5f5d 303e ab79 93be 627b 34be
000001d0: 8261 ec3d a96a 013e 555c a83d bac5 cd3d
000001e0: 86a1 933d e404 363b a23c 16be 068e 8bbe
000001f0: a1a9 183e 7a95 a3bd 2895 753b 43c7 edbd
0.09475907 0.24115244 -0.12764739 0.13384862 -0.052001633 0.17167294 -0.20355341 0.13449481
0.25242716 0.03352442 -0.20744437 -0.28094092 -0.00061525905 0.03882371 0.08094996 -0.07976431
-0.026061451 -0.17404538 -0.109171934 -0.29090196 -0.16987775 -0.19610083 -0.017043736 0.068805814
0.123169936 0.059832722 0.14681534 -0.0829855 -0.1513229 -0.076468386 -0.09175767 0.13615185
-0.036142513 0.07632774 0.15357606 0.109744765 0.14178003 -0.051929884 -0.14302841 -0.082997605
-0.0030198246 -0.14151317 -0.1273933 0.16941343 0.08522535 0.1836275 -0.08265669 -0.07427781
0.034131087 -0.20164838 0.1662022 -0.21878573 -0.23821943 -0.23929831 0.04343094 0.20052972
0.11326404 0.13163362 0.10850853 -0.17291833 -0.106573574 -0.26255065 0.16428974 -0.055448275
0.20737535 -0.032770295 0.20877421 -0.18814182 -0.19222598 -0.09412789 0.24339072 -0.010352855
-0.037785526 -0.062193334 0.13440904 -0.20219956 -0.122135065 -0.3125997 0.22256294 -0.13147318
-0.103082046 0.15916498 -0.106509544 -0.080765 0.29823887 -0.022219682 0.03171109 -0.062028334
-0.09832743 -0.09105559 -0.008980273 -0.0092474595 0.18096045 0.22619227 0.06302654 -0.13115826
-0.2343736 0.048136298 -0.2484365 0.12752485 -0.11066618 0.11536836 -0.2171575 -0.14667062
0.10037754 -0.08958751 0.13747704 0.013093677 0.27907386 -0.07539627 -0.20180649 0.007793804
-0.23025621 0.17223118 -0.28803763 -0.17625192 0.11542036 0.12638344 0.08220736 0.10047479
0.072085425 0.002777391 -0.14671567 -0.27256793 0.14908458 -0.07987495 0.0037472937 -0.11610272

model.fc.14.bias f4 [8]
00000000: 780d 5dbe c315 253e 1dd3 a4bd f1a3 ffbd
00000010: e0c2 003c ef4b 543e 3b15 cebd ed10 183e
-0.21587169 0.16121583 -0.08048079 -0.12482441 0.007858962 0.20732091 -0.10062643 0.14850207

model.fc.15.weight f4 [8]
00000000: 0bea 9d3f 3b2c a83f 23ea a93f dfbe a43f
00000010: 5333 a73f 708f 9c3f 92fa a03f dcd7 9d3f
1.2337049 1.3138498 1.3274578 1.2870749 1.3062538 1.2231274 1.2576468 1.23315

model.fc.15.bias f4 [8]
00000000: 6f90 3b3e 49e8 883e 5edb 5d3e 0d52 7a3e
00000010: 8574 683e a210 313e 22eb 373e 4644 4e3e
0.18316816 0.2673972 0.21665713 0.24445362 0.22700699 0.17291501 0.1796079 0.20143232

model.fc.15.running_mean f4 [8]
00000000: c84f 26be 4ce9 8fbd 089c 4f3c 3ddc 9fbe
00000010: 827c 0bbe 90c9 943e bb72 58be f0d6 d83c
-0.16241372 -0.0702692 0.012671478 -0.31222716 -0.13621715 0.2906003 -0.21137516 0.026469678

model.fc.15.running_var f4 [8]
00000000: 123c f73e 47b3 d73e d738 c13e b654 6c3f
00000010: f394 253f 62bb ab3e 393d 0b3f 25e8 f03e
0.48288018 0.42128965 0.37738678 0.9231676 0.64680403 0.335414 0.54390293 0.47052112

model.fc.18.weight f4 [3, 8]
00000000: 8174 093f ad53 04be beef 53bd 415b b0be
00000010: 0315 bfbe ffe6 8d3e d18b d63e 2dc7 fe3e
00000020: f14d ccbe 1c77 d5be 429c 68bd 8629 27be
00000030: e2a7 2bbe f699 0d3e 75ee 4cbd c9ae 00bf
00000040: a5bd f7bd 6878 f33e 663d 05bf cf76 0c3f
00000050: d2f4 693e 727c d6be 99b1 c2be 78ac 60bc
0.53693396 -0.12922545 -0.051742308 -0.3444462 -0.37320718 0.277153 0.41903546 0.49761334
-0.39903215 -0.41692436 -0.056789644 -0.16324434 -0.16763261 0.13828263 -0.050032098 -0.502667
-0.12096719 0.475528 -0.5204681 0.5486879 0.22847298 -0.4189182 -0.3802612 -0.013712995

model.fc.18.bias f4 [3]
00000000: 6c9c 9ebe 38a0 0e3d d22e 9f3e
-0.30978715 0.034820765 0.3109041
