MultiClassdiabet/checkpoints/bodyP-epoch=25-val_f1=0.91.ckpt (torch, 285052 bytes, 68 tensors)

model.fc.0.weight f4 [128, 77]
00000000: a148 963d 5d84 2dbd f02c be3d fff2 503d
00000010: c167 ab3d d5a3 a33d 06be 96bd 95e6 25bd
00000020: d058 cebd 63e5 a93d 3940 233c 172a 73bd
00000030: d5ab 04bc 0e16 53bd aa89 b13d 9918 16bb
00000040: ca99 8dbd bcb4 33bc b31e fabb b9b5 adbb
00000050: b8b5 a73d 343d 903d 21ed 703d 69f5 c73d
00000060: 8076 92bd d461 a7bd 2aae 37bd 5f7a 843c
00000070: a65f a3bb 3e54 f63c 197a 34bd 74bb febc
00000080: e788 9d3d c2b5 823c ab50 d73c 51ff c53d
00000090: 60a7 963d 1881 df3d 30c7 d53d 9e3d aebd
000000a0: e8d3 04bd 6ffc 48bd 1f3e 903d 2aa7 c73d
000000b0: 5423 0bbd a382 d3bd 4d2d a9bd dc1a e5bd
000000c0: e64c 953d f3db 26bd 4ac0 6c3d 010d 793c
000000d0: 21c8 023b bbad ce3d 70e6 143d a5a2 a2bb
000000e0: 0a9a 1e3d 572b 1ebd 29d1 5b3b 2831 1e3c
000000f0: ae8a f4bc 543f a83d 090a d3bd 39a4 8cbc
00000100: cda2 fcbd 2309 3c3d abb7 703c 68c9 4abd
00000110: 8488 83bd 24da 813c 7c2f f8bc 1bff 843d
00000120: 198e 613c 0557 93bd c8e1 853d 7d5f bab9
00000130: 53ca 233d dea8 963c 8111 883d 2af0 803d
00000140: b75d 003d c0f5 e5bd 8fb0 bc3d eef4 853d
00000150: dbb7 0abc 9a86 34bc d8de f53d b840 eabd
00000160: eb2a 913d bdea 66bd 0c06 2cbd f173 4b3c
00000170: fb21 5c3d 209c aabc 9e9f a9bd d95f 233d
00000180: 3433 813d 28ad a5bd bf10 b6bd c6c7 00bd
00000190: 01e8 853c 9612 d2bd b2fe 01be a0ed b2bb
000001a0: 45ee b23c 785e ed3c 7e54 76bd 0835 88bd
000001b0: adee f3bc 21e3 913c 70f9 1c3d afd9 95bc
000001c0: 720e 1dbd 0abd 3a3d ec09 8d3d 7fb7 c2bd
000001d0: c4c5 bcbc 3e67 be3d 1ba2 c1bd 7b68 c3bd
000001e0: 132b 963d cda2 e83d b3f0 c73d f2ae eabd
000001f0: cc7c cbbd d38f bcbd 6300 9bbd c61c 563d
00000200: 2cb1 e13d 543e 09be 5ea7 2d3d 9af4 1c3d
00000210: 2575 49bd 9220 323d daea b6bd 4d5d 823d
00000220: 1184 d03d 8157 4abc fea5 4a3d 42d9 113c
00000230: 236b 733d f18e d93d 2985 2a3d 2935 4dbd
00000240: 6be2 c9bd a85f e33c 57aa d43d 1425 e1bd
00000250: 6926 063d afd3 b93d 9d8f 9d3d 481d 98bd
00000260: 643b 953d 185d 763d 50a2 3f3d 03f9 273c
00000270: 1e78 c43b a674 a8bd 5604 70bd 3575 803d
00000280: ebad 08bd 32a7 1fbd eaba abbd 16dc a83c
00000290: 8420 2cbd 0247 d8bd 5a21 09bd 04fe f3bc
000002a0: 9f9e 95bb a89a e3bc 170f 8b3d 7dc4 de3d
000002b0: 956d a6bd 2a38 a5bd b683 933d 42fb 83bd
000002c0: 84ee 283c 09dc e5bd 7902 ccbd fe1a f3bd
000002d0: 69ad fabb cbae edbc ea19 b83b 79c3 96bc
000002e0: fd2d 563d f935 1bbc f99c 94bc 2817 523d
000002f0: 9c81 91bc e726 aebc 6dfb 643d b780 97bb
00000300: 3902 15bd 1100 553d 0925 4d3d 19b0 dabd
00000310: 3a33 a13d dae4 153d e70e de3d 9b40 773d
00000320: faa9 dbbb cbc8 ad3d bb30 22bd b0ee c6bd
00000330: 84a9 873d bc87 dfbd c45f 12bd 4dfb 793d
00000340: 5a04 8ebd 85b6 863d 55b7 b13d deb8 d33d
00000350: 45d4 fdbd 9789 a43d 1e68 50bd bc7e 42bd
00000360: ec1d eb3d 4093 abbd cb74 883d b365 3e3d
00000370: 1092 3cbd 87da 8ebc 8c5c 163d f499 94bd
00000380: c589 2b3c adff b73d 1034 42bd 3851 c83d
00000390: 981c 7e3b 7dc0 c83c e3c2 fbbb a959 8f3d
000003a0: af2a 9e3d b6b9 15bd 4d70 d1bb c36c ebbb
000003b0: 59cc 803d 536f a0bc 0f86 d0bd b889 3abc
000003c0: 880c b7bd 2b82 833d a605 a9bd 79a2 193d
000003d0: 82ec 71bd d8be c1bc 2336 b9bd 6c51 85bd
000003e0: 13ff abbd 7f58 a03d 03eb 6e3c c7f4 77bd
000003f0: f2d1 a13d bc97 be3b 3c06 973d c345 99bd
0.073380716 -0.04236256 0.09285915 0.05101299 0.08369399 0.07990233 -0.07360463 -0.040503103
-0.100755334 0.08295705 0.009964042 -0.059366312 -0.008097609 -0.051534705 0.086688355 -0.0022902845
-0.069140986 -0.010968383 -0.007633054 -0.005301204 0.08188957 0.070429236 0.058819894 0.09763605
-0.07151508 -0.08172956 -0.04484383 0.016171632 -0.0049857674 0.030069467 -0.044061754 -0.031095244
0.07692128 0.01595581 0.026283583 0.09667838 0.07356143 0.109132946 0.104383826 -0.08507846
-0.032428652 -0.049068864 0.07043099 0.09748681 -0.03396924 -0.10327651 -0.082605936 -0.11186764
0.07290058 -0.040737104 0.05780057 0.015200854 0.0019955712 0.1009173 0.036352575 -0.0049632364
0.03872112 -0.03861555 0.0033541417 0.009655274 -0.029851284 0.08215204 -0.103046484 -0.017168151
-0.12335739 0.04590715 0.014692227 -0.049508482 -0.06422523 0.015851088 -0.03029608 0.0649397
0.013766789 -0.07194332 0.06537205 -0.0003554783 0.039987873 0.018391069 0.066439636 0.06295808
0.031339373 -0.11228514 0.092133634 0.06540857 -0.008466686 -0.01101842 0.12005395 -0.11438125
0.07088264 -0.056376208 -0.041997954 0.012417779 0.053743344 -0.0208264 -0.08282398 0.03988633
0.06308594 -0.080896676 -0.08889913 -0.03144052 0.01634598 -0.10257451 -0.12694815 -0.005460456
0.021842131 0.02897571 -0.06013917 -0.0665074 -0.029776895 0.017808499 0.03832382 -0.018292276
-0.038343854 0.045590438 0.06886658 -0.09507655 -0.02304352 0.09297036 -0.09454747 -0.095414124
0.073324345 0.11359177 0.097627066 -0.114591494 -0.099359125 -0.0920712 -0.07568433 0.052273534
0.11020121 -0.13402683 0.042395942 0.038319208 -0.049183983 0.043488093 -0.08931513 0.06365452
0.1018144 -0.012349964 0.04947471 0.008901896 0.059428345 0.10622967 0.041630898 -0.050099526
-0.09857639 0.027755573 0.10384052 -0.109934 0.032751475 0.090735786 0.07693408 -0.0742746
0.072867185 0.060147375 0.046785653 0.01025224 0.0059957644 -0.08225374 -0.058597885 0.062723555
-0.033368986 -0.03897781 -0.083852604 0.020612758 -0.042023197 -0.10560419 -0.033479072 -0.02978421
-0.0045660282 -0.027783707 0.067899875 0.10877321 -0.0812637 -0.08067353 0.07202856 -0.06444408
0.010310773 -0.11223609 -0.09961409 -0.11870383 -0.0076500666 -0.029014012 0.0056183236 -0.018403756
0.05228995 -0.009473317 -0.018141257 0.051291615 -0.017761998 -0.021258784 0.05590384 -0.0046234983
-0.036379073 0.052002016 0.050084148 -0.10678119 0.07871099 0.036595203 0.10842686 0.060364347
-0.0067036124 0.08485564 -0.039597254 -0.09713495 0.066241294 -0.10914561 -0.03573586 0.061030675
-0.06934424 0.065777816 0.08677546 0.10337995 -0.12394003 0.08034056 -0.050880544 -0.047484145
0.114803165 -0.08377695 0.066629015 0.046483707 -0.046037734 -0.017438186 0.036709353 -0.07255927
0.010469859 0.08984313 -0.047412932 0.09781116 0.0038774367 0.024505848 -0.0076831444 0.06999523
0.07722985 -0.03655406 -0.006391561 -0.0071845963 0.06288976 -0.019584334 -0.1018182 -0.011385374
-0.08937937 0.06421312 -0.082530305 0.03750846 -0.059063442 -0.023650572 -0.09043529 -0.065096706
-0.08398261 0.07829379 0.014582398 -0.060536172 0.07901372 0.005816428 0.07374236 -0.07484009

model.fc.0.bias f4 [128]
00000000: aa5f e3bc 22d1 a93c e79c d93d c984 043d
00000010: b28b 403d 69d9 b0bc 8b32 c23d 6275 473c
00000020: b50d fc3d d07b 793b 23be f7bc 8c9a ab3d
00000030: c40f 013d 164f cebc 2491 91bd 8bca 823d
00000040: f4b7 953d 725e 09bd 3269 0e3e 9c90 85bc
00000050: 015a c1bd 50ec d53d db47 51bd 45f4 c03d
00000060: 6488 1d3d e193 06be 5dab 323d dd7f c4bd
00000070: d0b0 913d 2e1a b6bd d942 9f3d d986 853d
00000080: f349 12bd adb6 d6bd 79df e03d 7acb 353c
00000090: a2c4 9cbd da41 a83c e34b 993d 7476 c73d
000000a0: afcf d1bd 2229 87bc 8962 3b3d 74af b8bd
000000b0: 3608 1c3d bcc4 9d3d f2ad aabd 7f18 e83d
000000c0: 7e79 bfbd a622 d7bd c82e 37bd b7e8 99bd
000000d0: a081 93bc 7c01 52bd a20f edbd 12ee 14bd
000000e0: 6128 4c3d c5e8 9c3d d388 5b3d 6aee 523d
000000f0: 4f5f 2d3d 42f6 803d 9fd2 2dbc 1b1c 963d
00000100: 3030 8eb7 c4e3 a63d a60f 79bd 4900 b8bd
00000110: ba4e 733d d74f e13d be00 80bd 4290 28bc
00000120: 5a53 ae3d adfc cebd e368 8a3d 3443 dbbd
00000130: f405 acbd bead 483d a281 933d 8a6a 8339
00000140: 3264 6f3d af73 1ebd 3de3 2dbd 3c0b 013e
00000150: d68d ae3d 6552 243d fd4b bd3d 1890 863d
00000160: 33e7 9cbb a217 f2bd 7a6d 66bc 4ebb 523d
00000170: f24d b9bd 1256 fe3d df57 b03d e026 95bd
00000180: c24e e03c 94f8 333d ec14 01be 3640 fcbd
00000190: fcde f6bb 7f49 c0bd 84a6 7d3a 4a14 bf3d
000001a0: 6724 19bd 6c63 babd 4f9e 95bd ed23 9ebd
000001b0: 922a 933d ba8e d3bd 4f8e a2bb f8cf a1bd
000001c0: 122f dfbd e9dd ba3d 91ba b6bd e92b db3c
000001d0: d01a 4ebd d40a c0bd 0af9 b93a 1d84 58bc
000001e0: f97f 99bd ded7 523d cb36 403c 6770 9d3d
000001f0: 23ce 263d 3e05 803c ad04 bbbd 0aa5 b2bc
-0.027755577 0.020729605 0.1062563 0.032353196 0.047008224 -0.021588044 0.094822966 0.012173982
0.12307302 0.0038068183 -0.030242031 0.08379087 0.031509176 -0.025184195 -0.071077615 0.06386288
0.07310477 -0.033537336 0.13907316 -0.016304307 -0.09440995 0.10445464 -0.051093917 0.09421591
0.03846015 -0.13142349 0.043620456 -0.095947005 0.071138024 -0.08891712 0.07776422 0.06519861
-0.035715055 -0.104840614 0.10980124 0.011095876 -0.07654692 0.020539213 0.07485177 0.0973939
-0.102446906 -0.016499106 0.045748267 -0.0901784 0.038093768 0.0770354 -0.08333959 0.11332797
-0.09349345 -0.105046555 -0.04472235 -0.0751509 -0.018006146 -0.051270947 -0.11575247 -0.036359854
0.049843196 0.07661585 0.053597283 0.0514969 0.04232722 0.0629697 -0.010609298 0.073295794
-1.6950158e-05 0.081489116 -0.06080594 -0.089844294 0.05940125 0.11001556 -0.062501416 -0.0102883
0.08511992 -0.10106788 0.06758287 -0.10706177 -0.08399573 0.04899382 0.0720246 0.00025065645
0.058445163 -0.038684543 -0.04245304 0.12601942 0.08523147 0.04011764 0.09243009 0.065704525
-0.0047883033 -0.11820914 -0.014064187 0.05144816 -0.0904807 0.1241876 0.0861051 -0.072828054
0.027381305 0.043938234 -0.12605637 -0.12316935 -0.007533906 -0.09389018 0.0009675997 0.09330042
-0.03738823 -0.091009945 -0.073055856 -0.07721696 0.07185854 -0.10329957 -0.004960812 -0.07900995
-0.1089765 0.09124357 -0.089223035 0.026754336 -0.05031854 -0.09377065 0.0014188599 -0.013215092
-0.07495112 0.0514754 0.011731814 0.07687455 0.04072393 0.0156275 -0.09131751 -0.021807212

model.fc.2.weight f4 [64, 128]
00000000: fac2 93bd 1da6 493d 2fe6 723d 9abe 86b7
00000010: 05d7 a43d f6af b8bd e71c 233d df82 cdbc
00000020: 8118 c7bc 1449 ffbb 8321 203d 22b7 603d
00000030: 2911 74bc 80d7 fd3c 7222 f2bc fa5b a33d
00000040: 17ea 923d 73cf 5b3d 8a5f 9bbd 4efa 8dbd
00000050: a10f d4bc 1672 a73c c2b5 b23d f0bd 0abd
00000060: b554 37bd fabd a0bb 23c2 173c ab13 1c3c
00000070: 3092 233d 0d15 603b 4031 a0bd bf8d 1a3d
00000080: 6516 ee3a 7c88 8bbd 9bd0 89bd 88c4 76bd
00000090: 9057 90bd 31ab 9ebd 8672 8bbd f91c 203d
000000a0: 66ad b3bc 1bbe 00bc c24d 313d 7c5c 653d
000000b0: 38f9 c93d 402d 313d 781b b33b a1a6 dcbc
000000c0: 4dd2 6c3b 250a 243d c94a 203d 41b9 a13d
000000d0: 64cf 96bd fd4d 12bd 55a0 8ebc dea9 1b3d
000000e0: 8101 713d 9b14 30bd 22bf 67bd 4d44 1f3d
000000f0: 4c58 c0bb 8d27 9f3c bb2a a6bd b111 1d3d
00000100: a45f 8dbd f982 93bd 263e cd3c 2605 c43c
00000110: 2815 783d 5ab1 a63c 6e23 debc 47f7 88bd
00000120: ae6f d7bc 8e67 55bd 8849 a0bd 7a86 b6bd
00000130: 751c c6bb 80de c2bd 4971 5a3c f3f7 3dbd
00000140: 9e1e 98bd a471 813d 111b 0a3d 3d80 94bd
00000150: f14d b73d be57 0d3d 30d6 5bbd cbb4 77bd
00000160: 63fa 83bd edd0 b0bd c735 2cbd 5ebb e33c
00000170: ea42 793d b462 99bd cb20 b73c 06d9 863d
00000180: 6cb6 903d 9057 9ebd f800 433d b87f 86bd
00000190: 8da2 8fbc ca47 57bd 0dc5 2d3d cb9c cfbb
000001a0: 06cf 603d c6f7 8c3d 57d6 183d 03bd 28bd
000001b0: d53a c2bc ee9f cf3d 2ad0 55bd 3e35 04bc
000001c0: 3526 99bd 7af7 b9bd 458a 8cbd 2e34 303d
000001d0: dfeb cabd e26c 3dbc 953a a4bd f665 d43c
000001e0: 8d81 ae3d f0c9 fd3c a516 0ebd 7a46 023d
000001f0: 604b a3bd c97d bb3b b21e 0f3d aa91 beb9
00000200: ea28 a3bd ff46 5e3d 0796 03bc 1a2a 6f3d
00000210: 5c12 313d 66eb d93d 387d 613d db9b 82bd
00000220: cf45 afbb 5c5e 2dbc 5781 c1bd 3364 88bc
00000230: 5847 2839 0c22 b73c fafa 00bd 0151 a3bd
00000240: 1d2a 7fbd fe85 913d d7b8 d73b db0d 80bb
00000250: aa2b 3f3d fd83 91bd 1723 103d 0d27 9f3d
00000260: 2201 08bc 92ed a23d bca5 a63d 0b4f 02bc
00000270: ae14 a93d 9c61 e73d f1d3 c3bd 87b0 ee3b
00000280: 0ad9 6f3d 6bac 973d efe8 32bd cabf 0abd
00000290: 3ae5 093d 729b 413d 58f1 973d 42db 7f3c
000002a0: 002d 623c 156a 813d 0e8b a03d 8bc0 e1bb
000002b0: 1c48 9cbd f315 21bd 9330 1b3c 9bd3 323d
000002c0: 2663 a8bd 9df1 49bd 264c 32bd 595d 33bd
000002d0: ccef 8b3d 5722 55bc e221 803d 279d c0bd
000002e0: 88ec dfbd ea7a 9fbd 5eaa 06bd eca7 593d
000002f0: e135 383c 6469 0f3d c845 6cbc 6551 8cbd
00000300: 4725 cc3c c6e8 a53d 997a 423d 6f3a bd3c
00000310: 16ba 48bb d82d 34bd 67cb 9dbd 407d 63bd
00000320: 7dc0 67bd f289 76bd 7f50 60bd 54f0 8fbb
00000330: 81c5 97bc 8eb1 763b c30c 74bd 50c5 89bd
00000340: 4a57 3fbc a70b 843d 74e0 743d 3813 f63c
00000350: 42ab 36bd 8cd1 023d 84d4 49bd 4018 a03d
00000360: 9257 cb3c 3206 843c d2e4 8dbd 5053 4fbc
00000370: cd64 15bd 7434 623c 8a09 e6bd e214 ba3c
00000380: 5ab5 2f3d a8d6 9ebd 2b2a 1d3d ef49 d5bd
00000390: f0be 10bd d00d 32bd 2063 063c 1d3d d63c
000003a0: f482 353d c002 24bd e5f9 9ebc e2fe 423d
000003b0: 0eac 8fbd 4fd6 d23c 8567 963d bd41 92bc
000003c0: 4768 343d f008 943c 5baa 903d d14a d8ba
000003d0: cd51 d8bd c854 1c3d bcbc d0bc 9732 59bd
000003e0: 6ad9 8d3d ed15 a33d d614 283d af0c c6bb
000003f0: df01 2fbd fd35 d23c 325a cf3d 3e53 37bd
-0.07214923 0.049230684 0.05930155 -1.60628e-05 0.08048824 -0.09017937 0.039822485 -0.025086818
-0.024303677 -0.007790694 0.03909446 0.05486215 -0.014896669 0.030986547 -0.02955744 0.079765275
0.07173555 0.053664636 -0.07586582 -0.069325075 -0.025886359 0.020440143 0.08726074 -0.033872545
-0.044758517 -0.0049054595 0.009262594 0.009526174 0.039934337 0.0034192235 -0.07821894 0.037732836
0.0018164633 -0.06813142 -0.067292415 -0.06024602 -0.07047951 -0.07747496 -0.06808953 0.03909013
-0.021933269 -0.007857825 0.043287046 0.055996403 0.09861988 0.043256044 0.005465921 -0.026934924
0.0036136091 0.040048737 0.03913382 0.078966625 -0.07363775 -0.035718907 -0.017410437 0.038003795
0.058839325 -0.0429884 -0.056578763 0.038883496 -0.005869901 0.019428039 -0.08113619 0.03834695
-0.069030076 -0.072027154 0.025054049 0.023928236 0.06056705 0.02034824 -0.027116504 -0.066877894
-0.02629837 -0.05210071 -0.07826525 -0.08912368 -0.006045873 -0.09515095 0.013332673 -0.04637904
-0.07427715 0.06320503 0.03371722 -0.07251022 0.08950413 0.034507506 -0.053671062 -0.060475152
-0.06444242 -0.086335994 -0.042043474 0.027799305 0.06085483 -0.07489529 0.022354504 0.06584363
0.07066044 -0.07731545 0.047608346 -0.06567329 -0.017533565 -0.052558698 0.04242425 -0.00633583
0.054884933 0.068831965 0.037313785 -0.04119588 -0.023709694 0.10137926 -0.052200474 -0.008069335
-0.074779905 -0.090804055 -0.0686231 0.043018512 -0.0990827 -0.011561604 -0.08018986 0.025927525
0.085208036 0.03098008 -0.034689564 0.031805493 -0.07973361 0.005721782 0.034941383 -0.00036348152
-0.07966788 0.054266926 -0.008031375 0.05838976 0.0432304 0.10640602 0.05505106 -0.06377383
-0.005348898 -0.010581579 -0.09448498 -0.016649341 0.00016048306 0.022355102 -0.03148935 -0.07974435
-0.06229602 0.07105635 0.006583314 -0.0039079017 0.0466725 -0.07105253 0.035189714 0.0777112
-0.008301051 0.07955469 0.0813708 -0.007953416 0.082558975 0.112979144 -0.09561909 0.0072842273
0.058556594 0.07405933 -0.043679174 -0.03387431 0.033665873 0.047267385 0.074190795 0.01561624
0.013804674 0.06319062 0.078390226 -0.006889408 -0.07630941 -0.039327573 0.00947203 0.043658834
-0.08222036 -0.049302686 -0.043529652 -0.043790195 0.06832847 -0.013008676 0.06256463 -0.094049744
-0.10933787 -0.07787116 -0.03287732 0.05313866 0.0112433145 0.035012618 -0.014420934 -0.06851462
0.024920119 0.08101039 0.0474802 0.023099152 -0.0030628494 -0.043989033 -0.077048115 -0.05553937
-0.056580056 -0.06019015 -0.054764267 -0.004392663 -0.018526794 0.0037642452 -0.059582483 -0.067270875
-0.011678526 0.06447535 0.059784368 0.030038461 -0.044596918 0.03193812 -0.049274936 0.07817125
0.02482203 0.016116235 -0.0692841 -0.012654141 -0.036473084 0.013806451 -0.11232288 0.022715036
0.04289756 -0.07755786 0.038370293 -0.10414492 -0.035338342 -0.043470204 0.008202344 0.026152188
0.04431434 -0.040041685 -0.019406268 0.047606356 -0.07015239 0.025736956 0.073439635 -0.017853612
0.04404476 0.018070668 0.07063743 -0.0016501789 -0.10562477 0.03816679 -0.02548062 -0.05302676
0.06926234 0.079631664 0.041035496 -0.0060439925 -0.042726394 0.02566051 0.10124625 -0.04475712

model.fc.2.bias f4 [64]
00000000: 2e7d 91bd 3f23 69bd 5fe6 51bd 10d2 a7bd
00000010: 8cb8 58bd c63d 983d 0090 a4bd 5872 afbd
00000020: 5a16 903d 666e 64bd 8fe3 36bd 463c 50bd
00000030: 64d8 7dbc 0b45 ed3c 4020 cfbc 6027 b4bc
00000040: deab 9b3d 060f 933d 9a39 fe3b 6fe0 b53c
00000050: f43c c8bb 3792 fe3a bb2e b83d 74a8 463d
00000060: 57c0 a2bb ce3a 913b 1cc5 2a3d f82f 10bd
00000070: 5275 1cbd 1870 35bc c197 cabb 82da a0bd
00000080: eb7f 8bbd fc62 1cbc a94b b53d 2f73 d8bb
00000090: 2781 4d3d ebe9 c53c d5ac 01bd 3c33 22bd
000000a0: 7192 dbbc 0b9b 263d 6df4 253c 17f1 153d
000000b0: 3417 26bd 5361 353d d4de b3bd 624e 9bbc
000000c0: 5858 a83d 2a2a 61bc 16dd 8ebc 284e d7ba
000000d0: 4cc9 9c3c 3b2b 353d 1914 08bd 9edc cd3c
000000e0: 32a9 ac3c 9b87 af39 bb89 583c 408b 123d
000000f0: 22d1 66bd d785 59bd 01eb 793d 0988 79bd
-0.07103954 -0.05691838 -0.05124509 -0.08194363 -0.052910373 0.07433657 -0.08035278 -0.08566731
0.07035513 -0.055769347 -0.04465061 -0.05083873 -0.015493486 0.028963586 -0.025283933 -0.021991432
0.076011404 0.071806 0.0077583315 0.022201745 -0.006110782 0.0019422238 0.08993288 0.048500493
-0.0049667764 0.004432059 0.041691884 -0.035201997 -0.038197823 -0.0110740885 -0.0061826413 -0.07854177
-0.06811508 -0.009545084 0.08852322 -0.006605528 0.050171997 0.024159392 -0.031658966 -0.039599642
-0.026803227 0.040675204 0.010129076 0.036606874 -0.040549472 0.04428227 -0.087827355 -0.018958274
0.08219975 -0.013742963 -0.017439406 -0.0016426491 0.019138955 0.04423068 -0.03322229 0.025129613
0.021076772 0.00033479635 0.013216431 0.03577733 -0.05635179 -0.053106155 0.061015133 -0.06092075

model.fc.3.weight f4 [64]
00000000: 4153 823f bb95 833f bcf2 813f ae6a 823f
00000010: ee7c 783f f46c 803f 76a4 7d3f f565 803f
00000020: 9835 813f fd25 783f a3e4 803f 08ff 7f3f
00000030: d6a5 803f a65c 793f a61a 793f cb5d 7f3f
00000040: 7ba1 793f eaab 7b3f 4818 803f aff6 793f
00000050: 7cf9 813f 8cfc 833f e787 7b3f d0dd 7a3f
00000060: 0a7d 853f e00b 803f fc41 7c3f ae73 7c3f
00000070: 98e1 7a3f 15b6 7f3f 6c7c 7e3f 440f 753f
00000080: dae2 813f bd25 7a3f 538a 803f d6ce 7c3f
00000090: cc7e 813f d2a6 803f ef2b 7d3f 7c22 7d3f
000000a0: 0c4e 813f 6e8d 7f3f 836a 7d3f 2ae5 823f
000000b0: 1a34 783f ac25 7b3f 36a6 7f3f f675 833f
000000c0: 140d 813f d097 813f fcd4 803f 3fb9 823f
000000d0: 06d0 783f 4908 7e3f 1dc8 7f3f 2b5e 7c3f
000000e0: 9168 833f e853 7b3f 77ce 783f e823 823f
000000f0: 914b 803f 058c 803f dd0d 823f 133f 803f
1.0181657 1.0280069 1.0152202 1.0188806 0.9706563 1.003325 0.9907907 1.0031115
1.009448 0.96932966 1.0069774 0.9999852 1.0050609 0.97406995 0.9730629 0.9975249
0.97512025 0.98309195 1.000741 0.97642034 1.0154262 1.0311446 0.98254246 0.9799471
1.0428784 1.0003624 0.98538184 0.98614013 0.9800048 0.9988721 0.994086 0.9572642
1.0147355 0.97713834 1.0042213 0.98753107 1.011682 1.005091 0.9889516 0.98880744
1.0101943 0.9982518 0.9899065 1.0226185 0.969545 0.9810436 0.9986299 1.0270374
1.0082116 1.0124454 1.0064998 1.0212783 0.9719242 0.9923139 0.99914724 0.9858119
1.0266286 0.98174906 0.9719004 1.0167208 1.0023061 1.004273 1.0160481 1.0019249

model.fc.3.bias f4 [64]
00000000: e2c1 af3b d12d aa3b ece3 67bc bd25 843c
00000010: 54bf 54bc 24a8 4c3c 736e 49bc 88c9 dabb
00000020: 70b6 913c f7a4 b0bc 3ef8 d03c ad8f 0bbc
00000030: 9b61 9d3c c080 d7bc 4cbe 75bc 8412 eb3b
00000040: 67a0 20bc 3d7a 1abc f376 91bc 2575 eabc
00000050: f104 b53b 75fd b63c 0161 d4bb c11f e03c
00000060: 26bd 273d 5e0d 95bb 524e 3dbc 61d2 733b
00000070: 3f66 233b 4312 903c 8815 00bd 5262 cdbc
00000080: a65e 9a3c 73d6 abbc 20b6 2b3b 62d2 81ba
00000090: 0678 ac3b 1720 22bc a5a4 73bc 1e8b 40bc
000000a0: dd6f 813b 996e fdbc a0d7 0cbb 6048 163d
000000b0: 45ea f0bc c2cb 8cbc 5c31 3a3c 6bdc b83c
000000c0: b70d 30bc 3736 0f3c 3f5f b43b 2adb 463c
000000d0: 2875 06bb 9f16 6dbc a773 cf3b 2f02 363c
000000e0: 080a 3fbc 9e85 43bc cbc4 d1bc a2c5 c33b
000000f0: 80d2 9a3c 7bce 0dbc 9955 473c bf50 963c
0.005363689 0.00519345 -0.014153462 0.016131276 -0.012985069 0.01249126 -0.0122944 -0.0066768564
0.017787188 -0.021563036 0.025508996 -0.008518142 0.019211581 -0.02630651 -0.014998984 0.007173838
-0.009803868 -0.009428558 -0.017756915 -0.028620312 0.0055242707 0.022337655 -0.0064812903 0.027358891
0.04095187 -0.0045487126 -0.011554318 0.0037204253 0.002493277 0.017586833 -0.031270534 -0.025071297
0.01884396 -0.02097628 0.0026201084 -0.0009904618 0.0052633313 -0.009895346 -0.014870797 -0.011751918
0.0039501027 -0.030936526 -0.0021490827 0.036690116 -0.029408583 -0.017187003 0.011364307 0.022566041
-0.010745457 0.008740953 0.0055045183 0.012137214 -0.0020516608 -0.014470725 0.0063309255 0.011108919
-0.0116601065 -0.011933712 -0.025606534 0.0059744874 0.018899202 -0.008655186 0.012166404 0.01834905

model.fc.3.running_mean f4 [64]
00000000: d828 cfbe 7272 a8bd aa57 f1bd 7612 52bd
00000010: 00b1 a4bb d270 a7bd aaaf 2b3e 4295 8bbe
00000020: 10e2 233e deb2 10bd 2231 5fbe e0f9 dcbd
00000030: e4be 85be 32bf 3a3c 0e9a 583b 4cf0 14bd
00000040: 02cf db3e e628 c33d f6c2 17be 05e1 48be
00000050: e762 713e 4e2f abbd e52f 1b3e a53b 4ebd
00000060: 24f4 6dbe 7e15 efbd 5542 0a3e 1d60 7fbe
00000070: b5d9 f8bc c4be a33e 5d89 083e b7a4 c1be
00000080: 58dd f0bd f6aa 5fbe 5f57 09be 6f81 77be
00000090: 940b fc3c 9bd8 e7bd d8bf cebe e1e1 98be
000000a0: c996 0dbe 9265 1cbe d371 e33d dead 5a3e
000000b0: 13c2 3c3d 5e2a 0a3e 8d54 293e 7449 1c3e
000000c0: acc8 eb3b 064a 683c 0f3e a2bd b9e3 e8bd
000000d0: ce84 5f3e 81c1 933d 03eb a63d ddbd 9f3d
000000e0: b0d1 9ebe ca48 5dbe ddd3 093e 098b 933d
000000f0: 8e0a a93d b855 82be 958d dcbd 71fa 82be
-0.4046085 -0.08224954 -0.11784299 -0.051287137 -0.005025983 -0.08175816 0.1676623 -0.27262312
0.16004205 -0.03532683 -0.21796086 -0.107898474 -0.261222 0.011398124 0.0033050808 -0.036361977
0.42931372 0.09529285 -0.14820465 -0.19617088 0.23572885 -0.08358632 0.15154989 -0.05034985
-0.23237664 -0.11674021 0.13501866 -0.24939008 -0.030377248 0.3198148 0.1333365 -0.3782098
-0.11760968 -0.2184256 -0.13412236 -0.24170469 0.03076724 -0.11320611 -0.4038074 -0.29859832
-0.13827051 -0.15273121 0.111056946 0.21355388 0.04608352 0.13492724 0.1653616 0.15262395
0.007195553 0.014177805 -0.07921993 -0.1137156 0.21828005 0.07214642 0.08150294 0.077998854
-0.31019354 -0.21609798 0.13459726 0.07204253 0.08253966 -0.25456023 -0.10769192 -0.25581697

model.fc.3.running_var f4 [64]
00000000: dfd6 653d 00ed 663d 23f4 113e bf98 f13d
00000010: 7311 853d d7d6 403e c660 973d e423 f13d
00000020: 05dc ce3d 8128 2c3e e65b fb3d e72e 0e3e
00000030: aeea e73d 3671 0b3e 53d6 573d 99b5 283e
00000040: b7eb c13d 5a17 ee3d c197 2a3d c1f6 d83d
00000050: 7ac2 ea3d 0300 5a3d 1e23 953d 9ad3 d03d
00000060: 54fa ad3d 523e f33d f715 4a3e d91f d13d
00000070: 840b 633d 6cb7 b03d 4918 7e3d 8735 e43d
00000080: 5806 a73d c312 f73d f93e c83d 74dc d83d
00000090: bd18 c33d 234b 3b3e 25f7 c73d 3d53 243e
000000a0: 1e4d c93d e9bd 9b3d 12ef c63d ea51 f83d
000000b0: 4260 aa3d 6cf8 723d 5f04 5e3d 0f0b ac3d
000000c0: 3eaa 493d fd09 d53d 34bb b23d 5c88 2f3d
000000d0: 1e5b ce3d 461a 903d 6cd5 483e 7486 c63d
000000e0: 1d91 3b3d 3c75 423d 4dec fb3d 0db8 943d
000000f0: e376 523d 5e93 5e3d b895 273e 90fc e93d
0.05611312 0.056378365 0.14253287 0.11796712 0.06497469 0.18831955 0.07391505 0.11774424
0.10100559 0.16812326 0.122733876 0.1388508 0.113240585 0.13617405 0.05269463 0.16475524
0.09468787 0.11625548 0.04164863 0.105939396 0.11462875 0.053222667 0.07282089 0.1019661
0.08495012 0.11877121 0.19734941 0.102111526 0.055430904 0.08628735 0.06203488 0.11143022
0.08155507 0.120641254 0.09777636 0.10588923 0.09526203 0.18290381 0.09763936 0.16047378
0.09829162 0.07604582 0.09713568 0.12124999 0.08319141 0.059318945 0.054203387 0.08400547
0.04923462 0.10402296 0.087271124 0.04285465 0.10075973 0.07036261 0.19612664 0.09693614
0.045792688 0.047475085 0.1230093 0.072616674 0.05138291 0.05433976 0.16365707 0.114251256

model.fc.6.weight f4 [32, 64]
00000000: 8784 053e bffb 05be d750 b7bd 5922 893d
00000010: 5674 d43d 7eaa ddbd 0360 fd3d 6dc7 9b3d
00000020: 7bf4 893d 30c2 b3bc fe24 11bd df9d 023d
00000030: edff 823d 9c4f 15be b44a bebc 5a10 e9bc
00000040: c21f 95bc e13f bbbd ac61 87bd 7c3b 4c3d
00000050: cf70 2fbd a360 e1bd 8c33 923d 1f68 083b
00000060: 05e8 da3c 6d97 47bd 7c26 1cbd 87df 8ebc
00000070: 7ec6 7b3c 19e3 abbd 5168 f63b 55f5 5a3d
00000080: 0b19 96bd a268 153c b628 a53d a4b0 fd3c
00000090: 425f a13d b462 3d3d cefd 2e3d 63ca f0bd
000000a0: b10e 6d3d ee66 a43d d4b6 dabd ba98 603d
000000b0: 65b9 a8bd 350f 443d f97c b0bd 7f8f 0cbe
000000c0: 751d 883d 8bf3 dc3c 14da d83d 21eb 0bbd
000000d0: d133 d8bd e8f0 873d e24b aa3c 7941 babd
000000e0: 2973 cf3d d180 893d 1c33 e9b8 21ee 03be
000000f0: dc03 0b3d 2d42 cdbd 561f ac3d aa53 a839
00000100: de2a 7f3d 8ad6 e4bd 7859 d7bc 24a3 0ebd
00000110: 02c5 80bd 6f3e cb3d e7ff 7e3d a55c cfbd
00000120: 1cb7 85bd 7eda fbbd 45b4 013e 91d5 c63d
00000130: bfba 4b3c 0c9b 87ba b966 913d a4df 2ebc
00000140: 88fe 403d be13 983d eb3b 043e 733f f9bc
00000150: 56c5 04bd c580 9dbd faee e7bb 9a8a d9bd
00000160: 9398 693d b052 d7bc c46b 5c3d 9a6e a23d
00000170: b71b 2d3d 6d46 86bd f291 493b 5e67 073d
00000180: b070 4e3d 61d7 7bbd 5d25 193d e353 1dbd
00000190: dc4b c0bd 4287 e7bd 0ff2 9dbd b952 d5bd
000001a0: 39a0 c1bd bbd4 853d d8fe d03d ecc3 d33c
000001b0: 2f78 fc3d 5b1a 733d 9b66 54bd 0ee8 2ebd
000001c0: cbc2 d53d 110e 80bd b764 5c3d 3b6a d03d
000001d0: 6179 253c 0cc1 0abe 241a a6bd 2fcd 9f3d
000001e0: 046b 913d 3f64 33bd 062d 6fbd a0e5 de3c
000001f0: 0b9e b03d 9d26 16bd e22a 783d 3144 94bd
00000200: 38e1 b13d 0398 4a3d 7543 443d 6fa4 6e3d
00000210: ad04 0b3b 7143 03be 140a aabd e807 9ebc
00000220: 80de fcbd 6d1a bbbc d6e2 b73c f5b7 ecbd
00000230: 1336 003e cf5c ba3d 8c46 2f3c d678 cbbd
00000240: 8c48 933d e5fc e43d a849 d53d b449 d33c
00000250: 5a27 b8bd fd90 88bd 6ba9 7fbc 64b2 ed3d
00000260: 9b83 f4bd e204 e4bd 81ff 64bd bc37 cd3b
00000270: b2e5 a03d c5db 0bba 7a84 4e3c ba49 ee3d
00000280: 3334 f2bb 58fb 83bd ce7d 8dbd 0afc 42bd
00000290: 5bf7 2bbd ffc2 cf3d 6811 8cbd c400 fc3c
000002a0: 7d19 7fbb 284f 43bc 96e4 c13d 6111 2a3d
000002b0: c245 823d cb63 d8bd 898a 813d 3c11 c4bd
000002c0: a5b7 7dbd b0a3 d63d 22f7 b4bc c2da f13d
000002d0: 6335 053e 4b43 c63d 710a babc f99c ca3d
000002e0: 47e7 fe3c 2345 093e 73f1 5fbd 736c a3bd
000002f0: db7f 293d f793 843d 3b4c 4c3d d79b 24bd
00000300: fbad a23b ade2 853c b9af ac3a 9726 063c
00000310: cbf6 abbd 6552 3e3d da7e 16bd d992 d93d
00000320: e25b d8bd 923b 943d d744 dbbd a9a8 e0bd
00000330: 51bf 1e3d 2bd7 553d b436 a1bd a6c4 903d
00000340: 2bfc e93d 89b6 8f3a 091c 61bd 7eba db3c
00000350: 7187 d33d 7800 f539 14b2 98bc b5d5 debd
00000360: 50fb 84bc 32d3 943d 04ab f3bd 6ed6 74bd
00000370: ee9f a2bd 4c61 94bd 1a7b 753d 9080 e13c
00000380: ebb8 a0bb f0a0 c3bb b4d3 993c 896f 58bc
00000390: d4b4 e7bc 00aa 5dbc 86b9 15bc 61b2 d53d
000003a0: 4b5b cbbc c511 d6bd 939b 11be 08d2 0ebe
000003b0: d892 77bb b334 54bd 4f82 c33d ffea cb3d
000003c0: f035 7c3d c6b2 b53d a9e3 f43b 65cc 5c3d
000003d0: c558 943d 3f1f 76bd ee59 06be c390 863d
000003e0: 47d1 573c 5405 44bd 62c0 833d 7255 d8bd
000003f0: 23a0 63bd 4ee7 b33d 786c 1cbe 2ab8 34bd
0.13038836 -0.13084315 -0.08950966 0.066960044 0.10373752 -0.108235344 0.123718284 0.07606397
0.06736084 -0.021943182 -0.03543567 0.03188884 0.0639647 -0.1458115 -0.02322898 -0.02845018
-0.01820362 -0.09143043 -0.06610426 0.049861416 -0.042832192 -0.1100476 0.07138738 0.0020814014
0.026721964 -0.048728395 -0.03812264 -0.01744057 0.015367148 -0.08392925 0.0075197597 0.053456623
-0.07328995 0.009119185 0.080644056 0.030968018 0.07879497 0.04623671 0.042722516 -0.11757352
0.05787534 0.08027445 -0.10679403 0.05483315 -0.08238486 0.047866065 -0.08617587 -0.13726614
0.066462435 0.0269716 0.1058847 -0.034159783 -0.10556758 0.06637746 0.020788137 -0.09094519
0.10129387 0.06714023 -0.00011119826 -0.12883808 0.033939227 -0.10022388 0.08404414 0.00032105792
0.06229674 -0.111737326 -0.02628778 -0.03482355 -0.06287576 0.09924018 0.062255766 -0.101250924
-0.06529066 -0.122975335 0.12666424 0.09708703 0.01243466 -0.001034589 0.07099671 -0.010673437
0.04711774 0.074256405 0.12913482 -0.030425763 -0.032414757 -0.076905765 -0.007078049 -0.10622139
0.05703027 -0.026284546 0.05381371 0.07931252 0.04226276 -0.065564014 0.0030757156 0.033057563
0.050400436 -0.0614847 0.037389148 -0.03841008 -0.09389469 -0.11305095 -0.07712185 -0.10416169
-0.09454388 0.06534716 0.102048576 0.025850259 0.12327611 0.059351306 -0.051855665 -0.042701773
0.104375444 -0.06252683 0.053806987 0.10176512 0.01009974 -0.13550204 -0.08110455 0.078028075
0.0710049 -0.043796774 -0.058392547 0.027209103 0.08623894 -0.03665792 0.06058777 -0.07239569
0.08685535 0.049461376 0.047915895 0.058262285 0.0021212504 -0.12818696 -0.083027035 -0.01929088
-0.12347126 -0.02283975 0.022447031 -0.115585245 0.12520628 0.09099733 0.010697972 -0.09935157
0.071915716 0.11181048 0.104144394 0.02579198 -0.08991881 -0.06668279 -0.015604357 0.11606291
-0.11939164 -0.11133744 -0.05590773 0.0062627476 0.07856311 -0.00053351774 0.012604827 0.11635156
-0.0073914765 -0.064444244 -0.06908761 -0.047603644 -0.041983943 0.101446144 -0.068392575 0.030762084
-0.0038925104 -0.011920728 0.094674274 0.04152048 0.063609615 -0.10565909 0.063252516 -0.095736
-0.061942715 0.1048044 -0.022090498 0.11809303 0.13008647 0.09680804 -0.022710057 0.098932214
0.031116141 0.1340528 -0.054673623 -0.079796694 0.041381698 0.064735346 0.049877387 -0.040187683
0.0049645877 0.016343439 0.0013174928 0.0081879115 -0.083966814 0.046465296 -0.03674207 0.10623712
-0.105644 0.07237925 -0.107064895 -0.10969669 0.038756672 0.052207153 -0.07871762 0.07068758
0.1142505 0.0010964434 -0.054958377 0.026822325 0.10328568 0.0004673039 -0.018639602 -0.10880605
-0.016233116 0.07266845 -0.11897853 -0.05977481 -0.079406604 -0.072451204 0.059931852 0.027527124
-0.0049048564 -0.005970113 0.018777706 -0.013210186 -0.028284468 -0.013529301 -0.0091384705 0.10434414
-0.024823805 -0.10452608 -0.14219503 -0.13947308 -0.0037776735 -0.05180807 0.09546339 0.09956931
0.061574876 0.08871989 0.0074734283 0.053905863 0.07243494 -0.060088392 -0.13120243 0.0657058
0.013172454 -0.047856644 0.064331785 -0.105631724 -0.05557264 0.08784352 -0.15275753 -0.044120945

model.fc.6.bias f4 [32]
00000000: 6553 383d fbca 7bbd 6230 363c 0f61 68bc
00000010: 0f48 3d3d 6105 afbd 685a 54bd f5c0 f33d
00000020: b453 6e3d 07d9 63bd f04b 58bd 3356 9f3d
00000030: 6ceb ffbd 7f55 f13d 7b8c 1f3a 88c9 6dbd
00000040: 3ff3 973d cf8e f53b 20a0 3f3d f2d0 b43d
00000050: a75a 2c3d 563d c93d 8edb 74bd de3d 8f3d
00000060: 2453 c13c d5e0 793b 249e 473d ee75 3d3d
00000070: 6134 c9bd 85b8 b53d b27f abbd 8cd6 fe3d
0.045001406 -0.061472874 0.011119934 -0.014183297 0.0462113 -0.08545948 -0.05184403 0.11902038
0.058185294 -0.055626895 -0.052806795 0.07780113 -0.12496075 0.11783885 0.0006086302 -0.058053523
0.074194424 0.0074938308 0.046783566 0.08828916 0.04207864 0.09826152 -0.059779696 0.06994222
0.023599215 0.0038128395 0.0487348 0.046255045 -0.098244436 0.08873085 -0.08373965 0.12443265

model.fc.7.weight f4 [32]
00000000: 52db 7c3f ac48 793f 132b 743f 8215 783f
00000010: ca5e 813f 3078 7a3f 5fd0 873f 1624 7e3f
00000020: ab63 863f 829e 7b3f 4f43 813f 2861 803f
00000030: 83e8 743f de3b 853f edc3 803f a867 853f
00000040: 2b7d 7f3f f774 7c3f 0d47 7b3f d951 763f
00000050: 4a96 823f 493e 7e3f 39b0 883f 2471 873f
00000060: 1233 743f 3113 803f 6694 7f3f 1008 7f3f
00000070: a46c 7d3f 304d 7d3f cec8 793f 08b6 7c3f
0.98772156 0.97376513 0.95378226 0.9690782 1.0107052 0.9783964 1.0610465 0.9927381
1.0499166 0.9828874 1.0098666 1.002965 0.95667285 1.0408895 1.0059792 1.0422258
0.99800366 0.98615974 0.9815529 0.9621864 1.0202115 0.9931379 1.0678779 1.0581403
0.9539043 1.0005857 0.99835813 0.9962168 0.989939 0.98945904 0.9757203 0.9871526

model.fc.7.bias f4 [32]
00000000: 40f2 dabb 39e5 1cbc d324 fabc b79d 42bc
00000010: 5333 e8bc a98b 4f3c d3da 803d c678 c53b
00000020: f9b4 403d 9656 223c bea4 c43a 342f 4ebc
00000030: e1fc 02bd 65d3 ea3c 4241 1cbc 4260 393d
00000040: 85cd af3c 8580 dc3c 96f8 52bc da7f 08bd
00000050: 633a 093d de6a b0bc 39c7 c13c acb7 0e3d
00000060: 8f90 b6bc d6a4 473d d017 e7bb a9fe 85bb
00000070: 6c31 abbc ab04 0b3d 3c34 05bd 3a9e 1cbc
-0.0066817105 -0.009576135 -0.030535137 -0.011878422 -0.028344786 0.012667575 0.062917374 0.00602636
0.04704759 0.009908339 0.001500271 -0.012584496 -0.031979445 0.028665254 -0.009537043 0.045257814
0.021460304 0.026916752 -0.01287665 -0.033325054 0.033502948 -0.021535333 0.023654567 0.034843132
-0.022285728 0.048741184 -0.007052399 -0.0040891957 -0.02089759 0.03394 -0.032520518 -0.0095592085

model.fc.7.running_mean f4 [32]
00000000: e2c2 a3bc 92e5 d8bc 8068 653e b83a 73be
00000010: 91b9 8bbe 6034 4b3e 8a61 18be e013 413e
00000020: 5600 62be 62ba c5be 5b8a 2f3e 84fe 863e
00000030: f147 373e de24 f4bc 8804 153e 44dc 6bbe
00000040: 966e a73e 1ca2 91be 6cc1 29bc 07f4 4e3d
00000050: ac33 d03e f8cd 7c3e b0b6 7f3e b81d eebc
00000060: 299e 203f a368 36bd dfbf 82be bb3b 21be
00000070: 45e5 30bf ebf2 06bf e852 d0be 0350 d23d
-0.019990388 -0.026476655 0.22403145 -0.23752868 -0.27290013 0.19844198 -0.14880958 0.18855238
-0.2207044 -0.3861876 0.17142622 0.26366055 0.17898537 -0.029802736 0.1455251 -0.23033243
0.32701558 -0.28443992 -0.010361057 0.05052569 0.40664423 0.24687946 0.24972034 -0.029066905
0.62741333 -0.044533383 -0.2553701 -0.15745442 -0.6909984 -0.52714413 -0.40688252 0.10269167

model.fc.7.running_var f4 [32]
00000000: 0b02 0d3e 7d36 103f 632a 393e 9f7e e83e
00000010: d096 423e 7eba db3e ce82 b43e 1039 663e
00000020: 5f05 c13e fa99 e23e c711 a73e 5f93 533e
00000030: c70f 8c3e a15b b53e 4dee 6b3e 98b7 ad3e
00000040: c27b c03e ec83 723e dd4c 973e 19f9 b73e
00000050: 42a5 ee3e a047 813e 9e0c d63e 6058 503e
00000060: 7fc1 b53e 95b8 593e 8abd 613e 0bf2 b63e
00000070: 5e14 4d3e 2c64 bc3e f15a 833e f6ec 1b3e
0.1377031 0.5633314 0.18082576 0.45409104 0.19002843 0.4291572 0.35256046 0.22482705
0.3769941 0.442581 0.3263075 0.20661686 0.27355787 0.3542147 0.23040123 0.33929133
0.3759442 0.23683137 0.2955083 0.35932234 0.46610457 0.25249958 0.418065 0.20346212
0.35499188 0.21261819 0.2204496 0.3573154 0.200273 0.36795175 0.2565532 0.15227112

model.fc.10.weight f4 [16, 32]
00000000: 8088 8abd 3741 cf3d 21b1 07be bf2f a73c
00000010: c56f fbbd 4f9d c4bd e3e2 2ebd 4e8d 2ebe
00000020: 7eef 73be 851f 1e3e 6d4f cebc d12e b7bd
00000030: 5912 1d3e 1f62 ebbb 3669 37be 8955 e93c
00000040: 19cf ff3d 9bb3 0a3e eb2a 1ebe a8ca ecbd
00000050: a7b8 a53d cb8b e9bc ef94 c8bd 044b 113d
00000060: 6727 adbd 2784 09be d059 4cbd afcb c5bd
00000070: 8863 083e 8fa2 0e3e a2de 893d b5cc b33d
00000080: 82c5 eb3c b34f aebc 1d38 f63d 9d8a ddbc
00000090: 79c6 d93d 0e74 013e 9206 7cbe d1f5 843d
000000a0: f6b3 b3bd c622 033e 8d17 c43d 7a22 5cbd
000000b0: 27ec 2f3e 9857 a6bd 91d3 7d3d 6f96 37bd
000000c0: 4847 003e be33 0fbe 3ff1 1e3d 184c 7d3d
000000d0: 6208 9b3d 8369 fc3d 7e81 48be 33a4 66bd
000000e0: 2015 743c 13a0 273e d47d 923d cb71 0a3c
000000f0: 26a3 e7bd ae0a 2f3e e66d 26be 55c5 ba3d
00000100: 94e5 0b3e b6af 18be bed8 95bd 3140 3dbe
00000110: 138c 1c3e 9886 0d3e e738 18bd 6e45 66bc
00000120: 2f2e b4bd 4b97 753d eae9 bcbd 7678 853b
00000130: aa93 10be 965a 46be cea7 1a3d 2366 1abe
00000140: 6c2f 39be 1f9c 9e3d 6036 56be 85a0 37be
00000150: ebed eabd fa17 f8bd 2c69 52be ae98 d4bd
00000160: 357e b0bd 04f0 ef3d 8c1b c8bd 0cf6 103c
00000170: 242c afbc f809 043e 3cfc ac3d 1763 69bd
00000180: 00d9 733d 747f febd 18fb 0d3e 9918 a4bd
00000190: 19b0 913d d48e ffbd 613a b5bd 6840 2bbe
000001a0: ea84 2a3d 1c99 0a3e 96dc 68bd dcfb 463e
000001b0: da71 183e 26ae f83d 530c fa3c bae5 c63d
000001c0: f2b9 2fbe f66d 213e b168 03bc 4fd6 0d3e
000001d0: 4bea 13be 95a9 40be 2d16 1ebe 8208 b43d
000001e0: 1925 223e 78f4 763d 013e 0c3e 007f ba3c
000001f0: 6326 75bc 7904 dc3d 1f9d 683d 41dc 81bc
00000200: 60ef 97bd cbdb a9bd 6317 a13d bcea 8ebd
00000210: 1ce8 073d 6770 52bd 2b96 12be 26e7 2c3e
00000220: a52f 59bd 2946 03be b375 503d 9afc dfbd
00000230: 4dd0 a03d 1d1c c0bd f3de 43be c7d4 cebd
00000240: c082 083d 325f 223e ce9a c43d 83c7 b43c
00000250: 4057 15be 0851 10be e2cd 2dbe bf67 22be
00000260: 88a0 3a3c 685c 9a3d 3282 c9bd 96de 12be
00000270: d160 7e3d a6da 15be feb1 85bd 86df 363d
00000280: ee11 7ebd 35f1 d5bc c5de ffbd 2bca 04be
00000290: 94e5 69bd 37ae 2b3d 0e7c 063b d7b1 37be
000002a0: d104 76bd 1e24 a0bd 0817 20be 89a4 60bd
000002b0: d4e1 69bd a730 fcbd 5ab5 5ebd 890c 123e
000002c0: b5d9 95bd 7fdb 16bd 0c26 81bd d2e0 2c3d
000002d0: 1b24 513d a31d 903d d7dd 233e f795 8fbd
000002e0: f50d 963d 9abf 15be 97b2 21be f2aa d63d
000002f0: 770c 53bd c50d 843d c774 b5bd 444a 533d
00000300: 8510 31bd 6c05 ab3d bfbd abbd 160f d83c
00000310: e54c 3abe 5591 aa3d f42a a03c c367 963d
00000320: 4725 4dbe 7d0c 883d 2c15 4ebd 1dc1 11be
00000330: 8371 01be c660 98bd 0312 1bbe 9b31 50bd
00000340: 9dd2 28be 584d 803d 0bf6 9cbd be87 fcbb
00000350: 3bbb 5bbc 7a81 873b bb2f b8bc fa5e 07bd
00000360: 19da 81bd 33a5 ae3d 8d01 133d 922b adbd
00000370: bfe5 b03c 3303 073e 1280 6abd 05eb 9abd
00000380: 0c30 e13d 31ac 313d 2828 243d e770 4abd
00000390: d6cd 21be 06e8 db3d 9c5a e0bd 1ceb 003e
000003a0: e955 a03d b26b a93d 6bbd 4ebd f869 e0bd
000003b0: 3268 5abd 81ca 26be b4d8 cfbd b1bc 91bd
000003c0: e58f 8abc 9137 223d abcb 63be ca87 c7bd
000003d0: a0e8 36be 4285 533d 43ff 3a3d 70fe 64be
000003e0: 182a 2cbe 4915 2a3e d8cf df3d b5dd ec3d
000003f0: 741f 1ebd 71ce 4a3d fe4c 45be 3b03 02bd
-0.067643166 0.101198606 -0.13251163 0.02040851 -0.12277178 -0.09600317 -0.042696845 -0.17046091
-0.23821828 0.15441711 -0.025184358 -0.089444764 0.1533903 -0.007183328 -0.17911229 0.02848317
0.124906726 0.13545077 -0.1544606 -0.11562091 0.0809186 -0.028509041 -0.09794032 0.03547193
-0.08454781 -0.13429318 -0.04989034 -0.0965799 0.13319218 0.13929199 0.06731917 0.08779279
0.028780703 -0.021278238 0.120224215 -0.027043635 0.10633559 0.12641928 -0.24611881 0.06492198
-0.08774559 0.12806234 0.095748045 -0.053743817 0.17179929 -0.08122176 0.061969344 -0.0448212
0.12527192 -0.13984582 0.03880429 0.061840147 0.07569958 0.12324812 -0.19580647 -0.056308936
0.014897615 0.16369657 0.07152906 0.008449982 -0.11310415 0.17093918 -0.1625286 0.09119669
0.13661796 -0.14910778 -0.07316731 -0.18481518 0.15287809 0.13820875 -0.03716364 -0.014054639
-0.08797871 0.059958737 -0.09224303 0.004073198 -0.1411883 -0.19370493 0.037757687 -0.15078025
-0.18084496 0.077446215 -0.2091918 -0.17932327 -0.114711605 -0.12113948 -0.20547932 -0.10380684
-0.08617822 0.11715701 -0.09770879 0.008847725 -0.021383353 0.12894428 0.084465474 -0.056979265
0.05953312 -0.124266535 0.13865316 -0.08012504 0.07113666 -0.12478414 -0.088490255 -0.16723788
0.041630663 0.13534969 -0.056850992 0.19432014 0.14887181 0.12142591 0.030523455 0.097117856
-0.17160776 0.15764603 -0.008020566 0.13851283 -0.14444844 -0.1881469 -0.15438147 0.08790685
0.15834464 0.060291737 0.13695528 0.022765636 -0.014962765 0.107430406 0.056790467 -0.015852096
-0.07418704 -0.08293875 0.07865789 -0.06978366 0.03318034 -0.051376726 -0.14315097 0.16885051
-0.053023953 -0.12819733 0.050893497 -0.10936852 0.0785223 -0.09380362 -0.19128017 -0.10099178
0.033327818 0.15856627 0.09599839 0.02206779 -0.14584064 -0.14093411 -0.1697307 -0.15859888
0.011390813 0.07537156 -0.09839286 -0.14342722 0.06210405 -0.14634189 -0.0652809 0.044646762
-0.062028818 -0.026115993 -0.12493662 -0.12967746 -0.05710371 0.04191419 0.002052072 -0.17938934
-0.060063187 -0.07819389 -0.15633786 -0.054844413 -0.057100132 -0.12313967 -0.05437217 0.14262594
-0.07316915 -0.03683042 -0.06306085 0.042206593 0.051059823 0.07036903 0.16002594 -0.070110254
0.07326881 -0.14623871 -0.15790783 0.10481824 -0.05152556 0.06447939 -0.08860164 0.051584497
-0.043228645 0.083506435 -0.083858006 0.026374381 -0.18193395 0.08328501 0.019551732 0.0734401
-0.20033751 0.06643007 -0.05031316 -0.14233823 -0.12640958 -0.07440333 -0.1514359 -0.050828557
-0.16486593 0.06264752 -0.076641165 -0.0077066114 -0.013411338 0.004135308 -0.022483697 -0.03304956
-0.06340427 0.08527603 0.03589015 -0.08455576 0.021593926 0.13184814 -0.057251044 -0.07564358
0.10995492 0.043377105 0.04007736 -0.04942408 -0.15801176 0.10737614 -0.10954782 0.12589687
0.07828886 0.082724944 -0.05047361 -0.10957712 -0.053322025 -0.16288187 -0.10148755 -0.07116068
-0.016914317 0.039603774 -0.22245662 -0.097426966 -0.17862177 0.051640756 0.045653593 -0.22362685
-0.16812932 0.16609682 0.10928315 0.11565725 -0.038604215 0.049513284 -0.19267651 -0.031741362

model.fc.10.bias f4 [16]
00000000: b0b2 23bd 5737 b93d 1f6d aa3b 8e21 1d3d
00000010: 3ebf 0f3e e697 c9bd 7dfc 0d3e dd86 f3bd
00000020: aba3 1fbd df89 003d 58a7 063c f39f 11be
00000030: 4334 243e 3907 da3d 789f 263e 6aff 02bd
-0.03996533 0.09043758 0.0052009965 0.03836208 0.14037797 -0.098434255 0.13865848 -0.118909575
-0.038974445 0.031381484 0.008218609 -0.14221172 0.16035561 0.10645909 0.1627177 -0.031981863

model.fc.11.weight f4 [16]
00000000: ff3d 853f e12c 7e3f ac51 7c3f 0689 773f
00000010: 4bdd 853f f3de 6e3f 94e2 853f 0b9a 873f
00000020: 4b23 773f d6ad 813f a475 743f 13bb 753f
00000030: 7d21 813f 51ab 7b3f 46cc 7b3f 27f1 8c3f
1.0409545 0.9928723 0.9856212 0.96693456 1.0458158 0.93308944 1.0459771 1.0593885
0.9653823 1.0131176 0.95492005 0.9598858 1.0088345 0.98308283 0.9835857 1.1011094

model.fc.11.bias f4 [16]
00000000: 69a2 c33d 1bd0 803d 9d8f 853d aa32 eebc
00000010: a718 a53d 814b 89bc 4513 a63d 91cc d23d
00000020: 85c4 d3bc e226 573d d315 35bc f374 b6bc
00000030: d2f7 393d 93f4 6d3d 35ac 36bb c417 d83d
0.09552462 0.06289693 0.06521533 -0.029076893 0.08061343 -0.016759636 0.08109144 0.10292924
-0.025850544 0.052527316 -0.011052567 -0.022272563 0.045402355 0.058094572 -0.002787364 0.10551408

model.fc.11.running_mean f4 [16]
00000000: cbdd a2be c068 a03e cf48 26bf 1c2d 893e
00000010: a627 d1be f232 01bf 6d30 85be 2d74 e9be
00000020: 5484 87be 9373 61be 4252 093f 49b6 163d
00000030: c225 1bbf 118b cc3e 8e3e 32be efdf 09be
-0.3180984 0.31329918 -0.6495485 0.26792228 -0.40850562 -0.5046836 -0.26013508 -0.45596448
-0.26468146 -0.22016744 0.5364114 0.036794934 -0.6060449 0.3994985 -0.17406675 -0.1346433

model.fc.11.running_var f4 [16]
00000000: be9c b33e 96ae dc3e 8eb5 193f 37ed 4a3e
00000010: d087 0e3f 4dd7 913e bfea a33e 0169 203f
00000020: 2660 d43d 92e8 c43e a617 603e 64c1 253e
00000030: 2408 f73e 4970 253f 314e 303e 5f18 ec3e
0.35080522 0.43101948 0.60042655 0.19817053 0.55675983 0.28484574 0.32015035 0.62660223
0.10369901 0.38458687 0.21884021 0.16187054 0.48248398 0.6462446 0.17217328 0.46112344

model.fc.14.weight f4 [8, 16]
00000000: d03f 153d 6743 5bbd 03ab 863d 2f0e 0e3c
00000010: 8633 09be 1f7f 5cbe 9132 50bd b7d3 24bd
00000020: 37ee fcbb 5bb6 3e3d 07a9 373e 8dc8 993e
00000030: 113f 523c baca 063e c640 1cbd b990 dcbd
00000040: 4e44 afbc e282 30be 4c98 84be d412 4bbe
00000050: 906f 453c 488f cabc fc8c 67bd e86a fdbc
00000060: a5fc 563c 968d 92bd 2f9c 5c3d bee6 f13b
00000070: 85d0 b0bd d952 223e f26d 94bd e7ac 513e
00000080: a035 c3bd aea7 f6bc 4b1d f4bd 7c6f 1ebe
00000090: 7807 41be e044 5e3e e838 98bd 3a44 20bd
000000a0: 737d f3bd 9b2e 68be 1ba5 eabd 0600 92bd
000000b0: 53f7 1d3b 2d2b 613d 6583 96bd 6b45 433d
000000c0: 5092 7b3e 7f62 683e 6c72 833d 0135 0fbe
000000d0: 2d90 713e 6036 50bd 142f 713e bd78 99bb
000000e0: b4cd 803d 8d5e 18bd d868 12be 3080 53be
000000f0: 139a 17bc a6b5 f53d 905a 05be b564 83be
00000100: 8c1a 433e 1437 643d 1001 533e 5d22 34be
00000110: 77ff 823e 2a3e bcbd 8d54 683e 274f 843d
00000120: 0147 2e3e 7388 e8bc 7f7a 20be 4aa9 ab3d
00000130: b55a f33d 8ea9 823d 29f3 253d 71bd 83bd
00000140: 1d48 913d 6293 163e 6aa5 353e 447e 1c3e
00000150: 70d2 5abd 9a09 0e3e 9418 a73d a5ad 863e
00000160: 16a5 7fbd 98a4 05bd 4c31 233d d997 39be
00000170: f708 303e b5de 1bbe f74f 733e c138 dabd
00000180: 23f4 5e3e 456a 113e fe90 0b3e 6ef9 ef3d
00000190: 2952 4b3d a081 9abd 776c 763e a472 5a3e
000001a0: a0cc ca3d 08b0 7dbd aef3 55bd 9e5d 7bbe
000001b0: 1a83 713c bbbb 94be e81e 71bd 4ca1 553d
000001c0: dfb2 8abd 4bb0 3bbe 1b79 003e 25d0 37be
000001d0: 00e1 f63a a9f7 eabd 2ed4 5abe 25a8 4abe
000001e0: 0b74 3abe 6703 95be 9ad2 c13d b68d 903d
000001f0: bf9c d8bd 1b88 7d3e 501c 523c edcd d03d
0.03643781 -0.053531077 0.06575587 0.008670374 -0.13398561 -0.21532868 -0.050829474 -0.04024097
-0.007718827 0.046560626 0.17935573 0.3003582 0.012832419 0.13163272 -0.03814771 -0.10769791
-0.021394875 -0.17237428 -0.25897443 -0.19831401 0.012050524 -0.024726525 -0.056530938 -0.030934766
0.013121759 -0.071559116 0.053859886 0.007382243 -0.08633522 0.15851916 -0.07247533 0.20476113
-0.095317125 -0.030109253 -0.1191965 -0.15472215 -0.18850505 0.21705961 -0.07432729 -0.039127566
-0.11889162 -0.22674029 -0.114572726 -0.07128911 0.0024103716 0.054972816 -0.0734928 0.047673624
0.24567533 0.22693823 0.064183086 -0.13985063 0.23590155 -0.050833106 0.23553115 -0.0046835826
0.06289235 -0.037199546 -0.14297807 -0.20654368 -0.009253043 0.11997537 -0.13022828 -0.2566277
0.19053096 0.05571659 0.20605874 -0.17591234 0.2558553 -0.09191544 0.22688504 0.064604096
0.17019273 -0.028385377 -0.15671729 0.08381899 0.11882535 0.06379996 0.0405151 -0.064326175
0.07093833 0.1470466 0.17738882 0.15282542 -0.053423345 0.1387085 0.08158985 0.26304355
-0.062413298 -0.032627672 0.039841935 -0.18124332 0.1719092 -0.15221675 0.23760973 -0.10655356
0.21772818 0.14200695 0.13629529 0.11717497 0.0496389 -0.07544255 0.24064814 0.21332794
0.0990231 -0.061935455 -0.052234344 -0.24547431 0.01474073 -0.29049477 -0.058867365 0.052155778
-0.06772398 -0.18328969 0.12546198 -0.17950495 0.0018835366 -0.11473019 -0.21370003 -0.19790705
-0.1820833 -0.29104158 0.09463997 0.07058279 -0.10576772 0.24758951 0.012824133 0.10195527

model.fc.14.bias f4 [8]
00000000: f23b 57be 4f0b 0f3e 3d46 d63c 410a c2bd
00000010: 6c40 983c ff39 dcbd b2db 9a3d e9b3 44bc
-0.21018961 0.13969158 0.02615654 -0.09474612 0.018585406 -0.107532494 0.07561435 -0.012005785

model.fc.15.weight f4 [8]
00000000: 7e95 923f 3c02 9a3f 08d0 953f cdb9 953f
00000010: 9ea5 943f ae9f 953f fbe7 9b3f e730 973f
1.1451871 1.2031932 1.1704111 1.1697327 1.1613042 1.1689355 1.218017 1.1811799

model.fc.15.bias f4 [8]
00000000: a827 e03d 35ed 3e3e 5270 2c3e 7f47 153e
00000010: bc24 233e 8199 2a3e 2e1f 5d3e 9e91 1c3e
0.10945064 0.18645175 0.16839722 0.14578055 0.15931982 0.1666012 0.21593925 0.15289924

model.fc.15.running_mean f4 [8]
00000000: 2e2a 39be 2dab aabd 192f cfbe f4fc 803d
00000010: 0c00 013f 04d3 9f3e 8d11 c03e 9e53 ccbe
-0.18082497 -0.083334304 -0.4046562 0.06298247 0.50390697 0.3121568 0.3751339 -0.39907545

model.fc.15.running_var f4 [8]
00000000: 98b3 4b3e 69fd 953e 98ca 8e3e 80d6 003f
00000010: 4891 e93e da6f bf3e 2dd0 053f 4fc6 d33e
0.19892728 0.292949 0.27888942 0.503273 0.45618653 0.37390023 0.52270776 0.41362235

model.fc.18.weight f4 [3, 8]
00000000: 2c69 373d e793 1c3c d939 c53e b644 67be
00000010: 99e4 bfbe 39c0 0cbe 787f c5be d219 15bd
00000020: 0077 ac3e 3b90 4dbe 2e20 e1be 2039 9b3d
00000030: baaf 8bbe 21a2 c1be ef95 d5be 3f11 17be
00000040: 8737 a6be cccd cfbe 9965 f0bd 0530 8c3e
00000050: 1cba d43e f622 9a3e ec3c cfbd 8926 f0be
0.044778034 0.009556747 0.38520697 -0.22584805 -0.37479094 -0.13745202 -0.38573813 -0.036401577
0.3368454 -0.20074551 -0.43969864 0.07579255 -0.27282506 -0.37819007 -0.41715953 -0.14752673
-0.3246424 -0.40586698 -0.11738128 0.27380386 0.4154824 0.30104798 -0.10119042 -0.469044

model.fc.18.bias f4 [3]
00000000: 52ed e1bc b6c3 78be 3cc2 813e
-0.027578983 -0.24293408 0.25343502
