MultiClassdiabet/checkpoints/bodyP-epoch=60-val_loss=0.30.ckpt (torch, 285052 bytes, 68 tensors)

model.fc.0.weight f4 [128, 77]
00000000: 6c45 70bb 564c 0ebc 953b 9d3d 284c c6bd
00000010: 20cd b73d 9f6d 4dbd 12ba 4abd ca17 14bd
00000020: b2d1 31bd eab5 a1bd c6a0 733d ca04 cd3d
00000030: bfd9 b83d 4679 5fbc 7564 af3d 7e00 b03d
00000040: 10bc a6bd b3be d53d c02e b63d 0bba cb3c
00000050: 30e4 d2bd 6627 9c3c 1882 c43d fbb6 393d
00000060: cf81 d63d 6ead 3dbb 2a86 aabd 402f a3bd
00000070: 6d05 debc 7f0d 113e 1158 a33c c59a fabc
00000080: 2244 61bd ac07 d73c f967 07bd ee46 3d3c
00000090: 849b b2bd d26b 15bd f046 2bbd 709f 823d
000000a0: ed4b 9e3d b90a 213c fba5 25bd 02b1 963d
000000b0: 34bb 3bbc fba1 5b3d d478 593d 6ab3 d9bd
000000c0: bff4 aabd 64f9 66bc 356a a5bb e1da d3bd
000000d0: fc5b 7f3d 4466 cf3d 8086 6c3d f63a 8d3d
000000e0: 89d8 72ba 1a46 493d c1e1 833d 7bca f83c
000000f0: 98e7 b7bd 518a d53c a752 3f3d a5a1 c53d
00000100: e9ef cbbc 9dbb 053d 0804 9c3d e984 e83d
00000110: ee7b 113e 48c9 373d 5b6a 963d 5f42 8f3d
00000120: 108d a93c 04d4 8d3d 35ee 6d3c f254 8f3c
00000130: 2795 8b3d 0228 abbd bab1 ed3c 41ae 8b3d
00000140: 798e 333c b7c5 003d 4aee eabd b31c 82bd
00000150: 2cfa bcbd 0820 f73b 8e38 2f3b a3bd f33d
00000160: cad9 c63d 7daa c0bd d0fa 113d b308 8f3d
00000170: 3bc0 7c3d 3661 d23d 43a4 8fbd 30e6 d8bd
00000180: c80a c43d bd91 94bd 05ee 90bd 4343 0b3e
00000190: 61cf e43d fe80 11bd 36fc 13bd 4d5d 4dbd
000001a0: 24cd 66bd dfbd 9ebd b2e6 973d 93db a43d
000001b0: 4145 0fb9 f41e 98bc 6456 6d3d 2e75 063d
000001c0: cce6 bb3d c511 b63d 8266 85bc 4226 7f3b
000001d0: 8380 d9bd 8abc 743d 8599 aa3d 310f a23d
000001e0: 5832 afbd 4b91 4f3c e0e1 ca3d bce3 f1bd
000001f0: 4d1d 103d bfda 2e3d 1dc0 3ebd abed 803d
00000200: e712 093e afba bd3d 84bb 233d bb8a a33b
00000210: e568 133e 87d6 bd3d 7e67 3a3d bda7 2e3c
00000220: cff4 d3bd 850a e5bd 98f3 42bb bab9 fbbb
00000230: 0db4 48bd b0fb 063d 1053 ee3c 9002 94bd
00000240: eba7 aebd 2e81 6a3d 1a29 053c a3c6 d33d
00000250: 11b5 a5bd af6c 59bd 3e70 05be 2788 67bd
00000260: bfd4 b53d 9cda ae3d 95d6 b6bd 7df1 c2bb
00000270: 315c bebd 9c00 883d 4154 f8bd 59a6 093e
00000280: 6eef 02bd ff11 323b 1fd9 4f3d 6bb4 3b3d
00000290: 71f8 0bbd 2013 d53d 4ba9 a03d 9445 1bbc
000002a0: 05e3 f93c e950 9b3c 2e07 083d e988 703c
000002b0: 0449 883d 48f7 803d 38e1 b93d 7f8a 813d
000002c0: af6e a2ba e7b0 ddbd f302 b63a 1037 ea3c
000002d0: f18e b5bd 2240 4b3c 5583 dfbd 9035 b4bd
000002e0: 7bcf c93d 13e5 e0bd ff25 c3bd 147b 9b3d
000002f0: 1c2f 00be ff29 babd 009c c2bc b90a 62bd
00000300: 004f 933d e5fa c73d ee6c 54bd 1b6a babb
00000310: f871 763d eb42 febc 387e d3bd 458b 733c
00000320: e346 203c e148 9b3d 5b65 97bd f6b6 163d
00000330: 1c98 99bd 557e bbbd d01b b7bd db7b 86bd
00000340: deee 6a3c 2bd5 b5bc 387f 8ebd 6f9c f63d
00000350: b52e 59bc 5b4b 17bd 9974 a9bc de0e d1bd
00000360: 7ba9 9d3d 788e 86bd 8c86 d3bc 2a6f cb3a
00000370: cd1c c53d d25d 473d 7892 aabd f262 d4bd
00000380: 6f88 00bd f761 923c 9f20 5dbc 1a7d 323d
00000390: d366 e2bd b883 efbd 43ee 3abe 1ab9 80ba
000003a0: 8170 4ebc 9f0f 9ebd 76d8 e8bd d28f cdbd
000003b0: d10e 603d 7a84 94bd bba6 fc3c 10ee d93d
000003c0: bec7 89bc dcd3 c3bd ee5e 9d3d 01e4 753d
000003d0: 2cc0 323a 7995 40bc f00e a03d 9501 dcbd
000003e0: d664 15bd 1372 7c3c 781f af3d 709a a3bd
000003f0: 3f45 603c fb84 11bc 22f7 8bbd c0ea 453d
-0.0036662472 -0.008685192 0.0767738 -0.096824944 0.08974671 -0.05015337 -0.049493857 -0.0361555
-0.04341287 -0.078960255 0.059479497 0.10010679 0.09025907 -0.013639754 0.085640825 0.08593844
-0.08141339 0.104367636 0.088956356 0.024868986 -0.102974296 0.019061755 0.09595126 0.04534052
0.10473978 -0.0028942483 -0.08326371 -0.079679966 -0.027102197 0.14165305 0.019939454 -0.030591378
-0.054996617 0.026248775 -0.03305814 0.0115525555 -0.087210685 -0.03647978 -0.0418157 0.063780665
0.077293254 0.009829217 -0.040441494 0.0735798 -0.011458207 0.053621273 0.053093746 -0.10629924
-0.08347463 -0.014097545 -0.0050480613 -0.10344482 0.062343583 0.101269275 0.057745457 0.068960115
-0.00092638336 0.04913912 0.064395435 0.030369988 -0.0897972 0.026066931 0.046709683 0.09649972
-0.024894672 0.032649625 0.076179564 0.113534756 0.14207432 0.04486969 0.073445044 0.06995081
0.020697147 0.069252044 0.014522125 0.01749656 0.06815558 -0.0835724 0.02901541 0.06820346
0.010959261 0.031438556 -0.11471231 -0.0635313 -0.09227404 0.00754166 0.002673659 0.11901405
0.09709509 -0.09407518 0.035639584 0.06984081 0.061706763 0.10272448 -0.07013752 -0.1059078
0.09572369 -0.0725436 -0.070766486 0.13599877 0.11172367 -0.035523407 -0.0361292 -0.050137807
-0.05634798 -0.07751059 0.074170485 0.08049693 -0.00013663342 -0.018569447 0.057943717 0.032826595
0.091748804 0.08890108 -0.016284231 0.0038932716 -0.10620215 0.059750117 0.08330063 0.07913054
-0.08554524 0.012668918 0.099063635 -0.11811015 0.035184193 0.04268908 -0.046569932 0.062953316
0.13386117 0.09264123 0.03997375 0.004990903 0.14395483 0.092694335 0.045508854 0.010660109
-0.10349428 -0.11183647 -0.0029747244 -0.0076820524 -0.048999835 0.03295487 0.029092342 -0.07227051
-0.085281216 0.0572521 0.008127475 0.10340621 -0.08091176 -0.053082164 -0.13031098 -0.05652633
0.08878469 0.0853779 -0.08927647 -0.005949198 -0.09294928 0.06640741 -0.12125445 0.13442363
-0.03196662 0.002717137 0.050744172 0.045826357 -0.03417248 0.104040384 0.0784479 -0.009477038
0.03050376 0.01895948 0.033209972 0.014681079 0.066545516 0.06297165 0.0907616 0.06325244
-0.0012392605 -0.10824757 0.0013886377 0.028590709 -0.088651545 0.012405427 -0.109137215 -0.08799279
0.09854027 -0.109811924 -0.095287316 0.07591835 -0.12517971 -0.09090041 -0.023756027 -0.055186007
0.071928024 0.09764651 -0.051861696 -0.0056889183 0.060167283 -0.031037768 -0.10326809 0.014864747
0.009782526 0.0758226 -0.07392379 0.03679558 -0.07499716 -0.09154955 -0.08940852 -0.06566592
0.014339177 -0.022196373 -0.06957859 0.12041556 -0.013255765 -0.0369371 -0.02068548 -0.10207914
0.076983415 -0.065701425 -0.025820993 0.00155208 0.09624634 0.04867346 -0.08328718 -0.10370435
-0.031380113 0.017868979 -0.013496547 0.043576337 -0.110547684 -0.11695045 -0.18254952 -0.000982079
-0.012600065 -0.07717823 -0.11369412 -0.10037197 0.05470163 -0.072518304 0.030841222 0.1064111
-0.016818877 -0.09561893 0.07684122 0.060031895 0.0006818797 -0.011754387 0.07815349 -0.10742489
-0.036473118 0.015408057 0.08550924 -0.07988441 0.013688385 -0.008881803 -0.06834246 0.04831958

model.fc.0.bias f4 [128]
00000000: d272 ad3d 12fd 51bd 08f3 1ebb 535b c2bd
00000010: 619f 57ba 8c11 5cbd 9bc4 1e3b f2f0 87bd
00000020: 5407 923d 07fb 12bc 75ce f4bd 5bba 7fbd
00000030: 1989 03bd 4035 cdbd d327 6b3d f371 80bd
00000040: 88e1 4dbd 6513 2a3d 66ad cabd c0d0 8abd
00000050: 0ff7 81bd 2477 6e3d ab11 ebbd 8ea1 efbd
00000060: 1ee0 533d 12e7 d63d b189 26bd 172c 563d
00000070: 4f66 7a3c 6d85 043d 20ed 87bd c421 ab3d
00000080: da93 1b3d 024a a8bc 5ca2 92bd fb46 9e3d
00000090: a12e 523c b43b d43c b1ed 42ba b1ea 16bd
000000a0: 951f 8d3d 8af3 d3bd e5a0 0a3d d601 33bd
000000b0: 2430 843d 4694 ea3c e354 73bc 3b87 c0bd
000000c0: 79e4 12be 0a4c e73d 0e4b 5dbd 6d2a afbd
000000d0: 0e6d 573d da53 8cbd aea2 f5bc 5449 083e
000000e0: c617 37bd 0662 3e3d b40f 07be 5e27 83bd
000000f0: 0886 453b a11f b5bd 5b2d d4bc 4c0a 4f3d
00000100: 1252 d3bd da2f 9a3d 7f48 aebd bb04 46bd
00000110: 5dfd 393b a5d5 b23d 72ea cebc a425 6bbd
00000120: 82b1 c43d 7726 b73d 5d0f 0dbe f248 d1bd
00000130: f0db 1e3d b29d b83d 5a33 81bd ae6b 0b3d
00000140: a5c5 123c bb6a b33d 9eae 7d3c 182c ff3d
00000150: 0909 92bb 3289 f33a db2d 4dbd 004e 6ebc
00000160: aba8 79bb 7b09 41bc daa1 d0bd 8203 f0bd
00000170: b83d 3abd ac08 d1bd 0a3b f9bd e4f5 833d
00000180: 3ab8 10be 5e10 94bc 8426 7b3d 3fe4 acbd
00000190: 65dd 46bd d357 073d 1778 cabd 960d b53c
000001a0: 8872 94ba cbaa 59bd 4bb2 5c3d ce7b 8b3d
000001b0: 95ac 6f3d d4c6 2bbc 31ea bcbd dede a5bd
000001c0: cc8f 21ba dcfc db3c 6f06 343d 925c bb3d
000001d0: e8b0 c7bc 5495 a5bd 3891 3b3c ed78 64bd
000001e0: 63f3 563d f78a 32bd 532a c5bd f45d e73c
000001f0: 4831 193c 32fc aabd fc58 0cbe 1bac a0bd
0.08469166 -0.051266737 -0.0024253745 -0.09490075 -0.00082253484 -0.05372767 0.0024226073 -0.066377535
0.07130304 -0.008970982 -0.11953441 -0.06243358 -0.03211317 -0.10019922 0.057411026 -0.06271734
-0.05026391 0.041522402 -0.098963544 -0.06778097 -0.06345951 0.05821909 -0.11477979 -0.11700736
0.051727407 0.10493292 -0.040658657 0.05228814 0.015283181 0.032353807 -0.06637025 0.0835605
0.0379828 -0.020543102 -0.07159874 0.07728382 0.0128285 0.025907375 -0.00074359315 -0.036844913
0.068907894 -0.10349186 0.033844847 -0.043702923 0.064544946 0.028635155 -0.014851782 -0.09400793
-0.14344968 0.112938 -0.054026656 -0.08553014 0.052594237 -0.06851931 -0.029984798 0.13309222
-0.044700406 0.0464802 -0.13189584 -0.06403993 0.0030139703 -0.08843923 -0.025900533 0.05054693
-0.10318388 0.07528658 -0.08509921 -0.048344355 0.0028379776 0.08732156 -0.025258277 -0.057408944
0.096041694 0.089428835 -0.13775392 -0.10218991 0.038783967 0.09014453 -0.06308623 0.03403824
0.008958255 0.087605916 0.0154835265 0.12459582 -0.0044566435 0.0018580316 -0.05009256 -0.014544964
-0.0038094919 -0.0117820455 -0.10187121 -0.11719419 -0.045469016 -0.10206732 -0.12169464 0.06443384
-0.14132777 -0.01807421 0.06131603 -0.08441972 -0.048550982 0.03304274 -0.098861866 0.022101205
-0.0011325637 -0.053141396 0.05388097 0.06810723 0.058514196 -0.010484416 -0.09224356 -0.08099149
-0.000616309 0.026853971 0.043951448 0.09148516 -0.024376348 -0.08085123 0.011448197 -0.055779386
0.052478205 -0.04358956 -0.09627213 0.028243043 0.0093501285 -0.08348884 -0.1370582 -0.078453265

model.fc.2.weight f4 [64, 128]
00000000: 1de6 abbc 48a4 b33d 5652 b83d da27 ab3d
00000010: 609a bbbc b9ec 743d 9a84 f43c 20c9 debc
00000020: d978 a0bd 17de 383d d1bc bd3a c8bf 88bd
00000030: abc4 01bd 0b53 68bc 6dba 803d 6856 76bc
00000040: 54b0 9ebd c744 0cbe 0537 acbc 8689 b13d
00000050: 3cf6 88bd c948 883c d643 88bd c3fa 8e3d
00000060: abd3 1f3d 00fe bcb9 17ac a33d 4298 663d
00000070: b44e 4b3d a259 f8bc 06ec 523d ed5f cbbd
00000080: 7b71 a9bb b717 c3bc 8b34 993d c09a 633c
00000090: 3d78 0cbb e0b1 47bd 946e b5bc 3601 283d
000000a0: f6a8 63bc 59d0 17bd 2e8f a93c 5fa6 213d
000000b0: fa3f 443c ba56 48bb 0e8e 8a3d 1905 93bd
000000c0: eab4 74bb 56e1 f5bc e2ed 9abb 395c 0cbd
000000d0: b25e 823c bd17 5a3d fad6 a63d 66b4 89bd
000000e0: 8af0 333d 3560 39bd 8005 393d c9e7 023d
000000f0: 307c 47bd 6a7a ac3b 1254 7d3d 954a 893d
00000100: 18e5 58bd 1294 0c3d ea9f a1bc 3f02 643d
00000110: ddc2 2fbd 2c1c d0bc d283 963d ad9a 1f3d
00000120: 521f fe3c 94ae 46bc f260 f8bc 2aaa d2bd
00000130: 79da cd3c 6b52 aebd 042e 03bd 4f75 46bc
00000140: f57e 15bd 9937 4a3a 0295 f93c 0c17 ca3c
00000150: bd4a 373d 20e4 823c 0819 62bc 6a9d dbbb
00000160: 8d5b a0bc c36a babd eb64 c1bc 77d2 933d
00000170: 27db 6d3d 5a61 9bbd 2c60 473d fbd2 613d
00000180: 6b7f 043d 9c8c de3d ad1a f03c 804d da3c
00000190: b64a 123c d4dc 6fbc 40e5 1fbd f0df a33a
000001a0: fe24 0f3d 3943 a3ba e2df 683d d2e6 2abd
000001b0: 03b4 b0bd 4172 54bd f7ee 6fbd 32b7 023d
000001c0: b33f c23d 13ab 8e3d 1528 c53b 6a14 963d
000001d0: 0e97 b1bd 08d1 24bd fd9c 36bd 8cbb 1e3d
000001e0: b5a0 863d 9616 00bd 9fe8 983c 8516 993a
000001f0: 4163 8ebd 8d4b 5ebc aa90 d53b af46 b03d
00000200: 4ce5 b73d 1ede e53b bd5c 3d3d 6674 653d
00000210: fab8 873d 31d3 433c 8498 e7bd 89d3 a93c
00000220: ad44 4c3a 6770 14bd 3e85 233d d180 4dbd
00000230: 18d2 8b3d 99a8 923d 4ae6 113b 5190 78bd
00000240: 971d febc ead0 08bd 51a7 143b 3cd4 173d
00000250: d291 913c 1c2b 143d 8704 ccbc 80b1 e23c
00000260: deb7 1cbd 0aec 8abd 7e77 c5bd dd27 33bc
00000270: a9b8 893c 69b9 863d 6d38 d8bc 1630 d53c
00000280: 7b3f cebd 326e a93d a083 babc 80b4 083d
00000290: 2bb3 483d e218 ef3c 0eb2 ce3c ec2d a23d
000002a0: d42e 653d e1ea 78bd 6907 7abd 5329 a8bd
000002b0: 7ea6 123d 507a 023c bea4 df3b 3865 a23b
000002c0: 3d7d 013d 229e 68bd 0a80 81bd d033 433d
000002d0: f706 afbd 4e43 babd 3db3 6f3d 45b7 e1bc
000002e0: fac1 70bd ed7e 3d3d b48f 603d d02c 223d
000002f0: 9dde 2c3c 3b10 073d 79ac 8e3d 2b76 68bd
00000300: 8dc7 853d eccc d53c 9b20 5b3d 0829 29bd
00000310: 07b3 c5bc b859 fd3c 241e a4bd 7009 a8bd
00000320: 992c 24bd 7a40 92bc e5f8 543c 1c50 d7bc
00000330: 3860 ae3d 1d3a eb3c 6534 b8bd 9abb fabc
00000340: c710 be3d c7a7 83bd 17bb 81bd 4ae7 be3c
00000350: f5f1 ed3b 2003 0c3c 2075 dcbb 10db 5c3d
00000360: 34f8 be3c 5a8a d4bd e746 7c3d d6ed 3abd
00000370: 53b5 c4bc 911c 3d3c 6c25 a6bc 9328 923d
00000380: 1cdc 9bbd 32f1 9ebd 9031 0cbd f8c1 bd3c
00000390: bcbf 20bd ba8c b8bc aa42 c73d e6f1 4fbd
000003a0: 3197 353d f9f2 e4bd 3793 443d 8a9d 1ebd
000003b0: fd72 15bd feac 0ebd 7f04 f13c 36cc 93bd
000003c0: b829 c0bd 8433 87bb 5e5e 683d a325 eebd
000003d0: 306e 21bd 3671 9f3d 5116 7dbd 7e8c 98b8
000003e0: f2fc b0bc f5a0 b13a 1783 65bd 4aeb 87bd
000003f0: b4cb f739 498e b83d 82ab 27bd 559b 253d
-0.02098375 0.087715685 0.09000079 0.083572105 -0.02290076 0.05979607 0.029848386 -0.027195513
-0.0783555 0.045133676 0.0014475827 -0.06677204 -0.031681698 -0.014179955 0.06285558 -0.015035249
-0.07748476 -0.13698111 -0.02102233 0.08668809 -0.066875905 0.01663627 -0.06653564 0.06981423
0.03902022 -0.000360474 0.07991808 0.056297548 0.049635604 -0.030316178 0.05149462 -0.09930406
-0.0051709986 -0.023815019 0.07480725 0.013891876 -0.0021433972 -0.04875362 -0.022147454 0.04101678
-0.013895264 -0.03706393 0.020698156 0.039465304 0.011978144 -0.0030569271 0.06765376 -0.07178707
-0.0037339278 -0.030014675 -0.004728065 -0.034267638 0.015914295 0.053245295 0.08146472 -0.067238614
0.043930568 -0.045257766 0.04517126 0.03195933 -0.04870242 0.0052636163 0.061847754 0.067036785
-0.052952856 0.0343209 -0.019729573 0.055666205 -0.042910445 -0.025404058 0.073493615 0.03896587
0.031020794 -0.012126584 -0.030319665 -0.102863625 0.02512859 -0.08511814 -0.032026306 -0.0121129295
-0.03649803 0.0007713973 0.03046656 0.024669193 0.04474901 0.01597792 -0.013799913 -0.006702115
-0.019574905 -0.091023944 -0.023607692 0.07217877 0.058070328 -0.07586928 0.0486757 0.055132847
0.032348078 0.10866663 0.029309595 0.026648283 0.008928945 -0.014640052 -0.03903699 0.0012502652
0.034947388 -0.0012455947 0.056854136 -0.041724034 -0.086280845 -0.051866774 -0.058577504 0.03191299
0.09484806 0.069662236 0.006016741 0.073281124 -0.086713895 -0.04023841 -0.04458331 0.038753077
0.06573621 -0.03127154 0.01866561 0.0011679685 -0.06952525 -0.013567817 0.0065174894 0.08607232
0.08979282 0.007015004 0.04623102 0.05601921 0.06627078 0.011952207 -0.11308387 0.02073075
0.0007792216 -0.036240008 0.03992199 -0.050171677 0.068271816 0.07161064 0.0022262507 -0.060684506
-0.031019969 -0.03340236 0.0022682736 0.037067637 0.017769728 0.036173925 -0.024904503 0.02767253
-0.038261287 -0.06783302 -0.09641932 -0.010934797 0.016811686 0.06578333 -0.026394093 0.026023906
-0.10070702 0.08272971 -0.022767842 0.033375263 0.048998993 0.02918667 0.025231387 0.07918915
0.055952862 -0.060770873 -0.061042223 -0.08211007 0.03580331 0.007963732 0.0068250587 0.004955914
0.031613577 -0.056791432 -0.0632325 0.047656834 -0.0854625 -0.090948686 0.058520544 -0.02755321
-0.05877874 0.046263624 0.054824546 0.039593518 0.010551122 0.032974463 0.0696649 -0.05675332
0.06532202 0.02609869 0.053497892 -0.041298896 -0.024133218 0.03092657 -0.08013561 -0.08204925
-0.040081594 -0.01785301 0.012998794 -0.026283316 0.08514446 0.028714234 -0.089943685 -0.030607034
0.09280544 -0.06428485 -0.06334513 0.023303647 0.0072615095 0.008545667 -0.0067278296 0.05391985
0.023311712 -0.10377951 0.061591055 -0.045636974 -0.024012243 0.011542455 -0.020281516 0.07136645
-0.07610342 -0.07760848 -0.034226954 0.02316378 -0.039245352 -0.022528041 0.09729512 -0.0507678
0.04433364 -0.11179156 0.047991958 -0.03872446 -0.036486614 -0.034832947 0.02942109 -0.072166845
-0.09382957 -0.004126014 0.05673062 -0.116282724 -0.039411724 0.07785265 -0.06178886 -7.2740935e-05
-0.021604989 0.0013551997 -0.05603322 -0.06636675 0.00047263282 0.09011514 -0.040935047 0.04043134

model.fc.2.bias f4 [64]
00000000: 8d7f 9c3b 51c0 6abd bbfc 163d 48ab fb3c
00000010: e9e5 80bb ef89 93bd 6142 42bd afee adbd
00000020: 0cec a4bd 3c50 963c b5d7 e2bc 9015 1c3d
00000030: b213 b2bd 9497 903d 634c 6dbd ff81 33bd
00000040: 0fc7 343d 67c5 d03c 9b6d 48bd 021d 86bd
00000050: 2c80 8f3d c8e2 963d 7ee6 893d b806 b63b
00000060: 3706 a83d 5ebf c33c 6835 ad3c ab5b a03d
00000070: e1e5 6fbd 099f 4bbd 1c92 84bd 795f d6bc
00000080: 0835 403d 8882 063d 04de b8bc b920 363d
00000090: 8157 e43c b7ca 993d ef21 8b3d e2b8 9fbd
000000a0: b450 8abd 380e 76bd 5f67 9e3d 5b9a fb3c
000000b0: ba52 bbbb 8ef1 7dbd ab5a 913c 5613 35bd
000000c0: 1a12 5fbb 4049 82bd 2202 2d3d 661c 95bc
000000d0: fa29 d0bc 8fec 1ebd eb77 30bd 5894 86bc
000000e0: f330 af3d 12f0 7abd 81ce 5b3d 4883 28bd
000000f0: cc22 12bd 7c01 8dbd b36a 363d 0a83 ac3d
0.0047759474 -0.057312313 0.036862116 0.030721322 -0.0039336574 -0.07204043 -0.047426585 -0.08492791
-0.08052835 0.018348806 -0.027690748 0.0381065 -0.08695163 0.07060161 -0.057934176 -0.043825146
0.04413515 0.025484754 -0.048932653 -0.065485016 0.07006869 0.07367474 0.06733416 0.005555
0.082043104 0.023894962 0.02114363 0.07829984 -0.05856884 -0.049712215 -0.06473181 -0.026168572
0.046925575 0.032839328 -0.022566803 0.0444648 0.027873756 0.07509368 0.06793582 -0.077989355
-0.06753674 -0.060072154 0.0773456 0.03071325 -0.005716649 -0.061997943 0.01774343 -0.044207893
-0.003403789 -0.063616276 0.042238362 -0.018202018 -0.025410641 -0.03879982 -0.043083113 -0.016428158
0.08554258 -0.061264105 0.053663734 -0.041140825 -0.035677716 -0.06885049 0.04453535 0.08423431

model.fc.3.weight f4 [64]
00000000: 98c0 7f3f 0794 6f3f c914 823f 05db 853f
00000010: a7f2 7f3f d9b0 8f3f 34db 793f 8a32 7b3f
00000020: 32b2 703f a6a9 763f 3a3c 813f 6dda 843f
00000030: 1b03 873f 1347 833f a6b4 7f3f dc28 823f
00000040: 9c4f 743f 97dc 743f 543d 743f 6790 803f
00000050: 6fc8 823f 1452 8a3f 72c8 803f bdad 813f
00000060: 077b 863f 4338 8a3f c670 833f 0e1d 7f3f
00000070: c66e 823f 6058 823f a924 803f 21f8 843f
00000080: 87e5 853f d90f 823f b67b 7f3f d193 803f
00000090: c766 873f 0875 6b3f eb44 7d3f d9dc 813f
000000a0: e7a4 823f 9b60 783f 6d55 7f3f 3036 823f
000000b0: b665 7d3f 544b 803f 41ed 823f 378b 863f
000000c0: db6d 843f f4f4 773f 7132 783f 12ae 873f
000000d0: c1bf 773f 4d2f 793f f0de 8a3f 08a6 823f
000000e0: 913c 803f c4fe 6c3f 289c 853f 64b8 833f
000000f0: 86cd 753f cb62 7b3f 7150 833f 7a11 783f
0.9990325 0.93585247 1.0162593 1.0457464 0.99979633 1.1225845 0.976001 0.9812399
0.94021904 0.9635261 1.0096505 1.0379158 1.0547823 1.0256065 0.9988502 1.0168719
0.95433974 0.95649093 0.9540608 1.0044068 1.0217417 1.0806298 1.0061171 1.0131146
1.0506295 1.079842 1.0268791 0.9965371 1.0190055 1.018322 1.0011188 1.0388223
1.0460671 1.0161086 0.9979814 1.004511 1.057824 0.9197545 0.98933285 1.0145522
1.0206574 0.9702241 0.99739724 1.0172787 0.98983324 1.0022988 1.0228654 1.0511235
1.0346025 0.96858144 0.9695197 1.0599997 0.9677697 0.973378 1.0849285 1.0206919
1.0018483 0.9257624 1.043828 1.0290647 0.9601673 0.9819762 1.0258924 0.9690167

model.fc.3.bias f4 [64]
00000000: c372 e1bc 42bf 12bd 6c6a 673a e596 b8bc
00000010: e4b6 92bd 41b4 6d3c b405 4dbd 2a2d b8bc
00000020: d445 2bbd be83 2cbd 2433 a6bb 6301 2cbd
00000030: e30b 693b e5d9 17bd ed47 aabc b232 0e3c
00000040: 61f2 83bd c9ec 13bd 9c81 2fbd 2b10 35bd
00000050: d4e9 30bc e67e 15bd 81b6 d3bc 747d 57bb
00000060: 4533 17bd 21e4 cbbc f145 f8bc 458e 73bb
00000070: ab35 05bd b154 bebb 1246 193b 8244 69bd
00000080: 5b84 34bd 4a34 a2bd b29c 03bd 17c6 573c
00000090: aef2 59bd 8fb9 9dbd 5c5c 0abb 4524 e1bc
000000a0: 81e8 46bc 3cc1 44bd eec7 61bd d7be eabc
000000b0: a509 45bd 37fe 8abb 2c9a 28bd e688 52bd
000000c0: 646e 163c a55c 8cbd 0d00 e6bc 7e74 9d3b
000000d0: a0f1 87bd f5aa 11bd 1b5d 97bc eba9 433a
000000e0: d760 adbc ce8b 64bd bc2d e1bc a73d 3abd
000000f0: 7388 40bc 3a4f bfbc d39d 763c 3457 19bd
-0.027520543 -0.03582693 0.0008827809 -0.02253289 -0.0716379 0.014508308 -0.050054267 -0.022482473
-0.04181464 -0.042117827 -0.0050720144 -0.04199351 0.0035560064 -0.037073035 -0.02078625 0.008679079
-0.064427145 -0.036114488 -0.042848215 -0.044204872 -0.0107979365 -0.036497973 -0.02584386 -0.0032881172
-0.03691413 -0.024889054 -0.030306788 -0.0037163657 -0.032521885 -0.005808436 0.0023387712 -0.0569501
-0.044071537 -0.079201296 -0.03213186 0.013169787 -0.053209953 -0.07701408 -0.002111218 -0.027483115
-0.012140394 -0.048035845 -0.05512231 -0.028655453 -0.0481049 -0.0042417306 -0.041162655 -0.051400088
0.009181593 -0.06853608 -0.028076196 0.0048051467 -0.06637883 -0.035563428 -0.018477013 0.00074639794
-0.02116434 -0.05579739 -0.027487628 -0.045468953 -0.011751282 -0.023353208 0.015052277 -0.03743668

model.fc.3.running_mean f4 [64]
00000000: 5401 3f3e f7d1 8bbe e19a 7a3d e0bc 1eba
00000010: 51fc dcbc 90c8 cbbe 33da 69bd 5a6e febd
00000020: 94d1 b6bd 8872 14be ee8b 36be 2b25 d33c
00000030: 7da9 22be 931c 8c3d bba3 6a3c c2cd 29be
00000040: 2ee0 b73d ffba 45bd 3af4 663d 40a5 e9bd
00000050: b96d a03d 4f4a 36be de9f 67bd 134f 5ebd
00000060: c937 443d 2869 2cbe af9c e93c 73ae 2f3c
00000070: e289 bfbe 1008 113e af9d aebe 10ef 89be
00000080: 175d 843d 8beb a3be 48ec 35bd 4376 d4bc
00000090: b7dc 84be 8476 45bd 3191 43bd cce1 d43d
000000a0: 711f 443e bb54 53be 996e 013e f85c 013e
000000b0: dd3a 313e c965 c7be 6199 3d3e 98a7 92be
000000c0: da01 41bd 5d7c c7be 0f73 a8bd e2c0 85bd
000000d0: 544a cdbc 4ab8 97be 70a3 7cbb acbf b0be
000000e0: 1705 70be a7dd 8abd 0162 653e e095 c0be
000000f0: 4aaf 89bc 53b9 bfbe 02e6 8dbe 4ed5 993d
0.1865285 -0.27308628 0.06118286 -0.0006055366 -0.026975783 -0.39801455 -0.057092857 -0.12423392
-0.089266926 -0.14496815 -0.17826816 0.025774559 -0.15884967 0.068413876 0.014321263 -0.16582397
0.08978306 -0.048274036 0.056385256 -0.11408472 0.07833428 -0.17801784 -0.056548946 -0.05427463
0.047904763 -0.16836989 0.028517095 0.010722744 -0.37409884 0.14163232 -0.34104678 -0.26940203
0.06463068 -0.32015643 -0.04441479 -0.025935298 -0.25949642 -0.04820873 -0.047745887 0.1039463
0.19152619 -0.20637791 0.12639846 0.12633121 0.17307611 -0.38944843 0.1851554 -0.2864349
-0.047120906 -0.3896207 -0.08225071 -0.0653093 -0.025059856 -0.2963279 -0.0038549565 -0.34521234
-0.23439442 -0.06780558 0.22400667 -0.37614346 -0.016807217 -0.3744608 -0.27714545 0.07511388

model.fc.3.running_var f4 [64]
00000000: f9cd 633e be11 4d3e 2b9e a23e e493 aa3e
00000010: 6db7 2c3e 2555 153e 4832 ff3d 7e42 273e
00000020: ab63 053e 3890 8f3e 5298 ab3e 9fa9 763e
00000030: 1b9c a33e 039d f83d 10f8 743e 8247 e13e
00000040: 7cf4 003e 1a29 bd3e eb41 3f3e e8e4 2c3e
00000050: 3a51 783e 3c87 453e 1b7d 453e 45d3 a93e
00000060: 7eed 883d 77f1 073e b4c1 053e 2d4b e83d
00000070: b136 043e d30f 143e 6269 413e d9c2 183e
00000080: 5f3a 533e 456e d53d 42e1 8b3e 12ed 6a3e
00000090: 1f6c 8f3e 6354 7c3e cb78 383e cc01 833d
000000a0: 0e03 163e 51f8 703e f042 523e 8e07 5c3e
000000b0: e83b 043e d8a2 3e3e 1dbc 8a3e 612b 0a3e
000000c0: 14cb a73e 80fc d03d 0f24 d03d 2b77 793e
000000d0: d712 c93d d409 cf3d 895e f93d db9e 253e
000000e0: e472 083e 74ad fd3d ba8b f33d 9a5b 133e
000000f0: 037a 413e 24a3 c83d 79de 453e 0064 383e
0.22246541 0.200263 0.31761298 0.33315957 0.16866846 0.14583261 0.12460762 0.16333959
0.13026302 0.28039718 0.3351465 0.24088143 0.31955037 0.121393226 0.23922753 0.4399987
0.12593263 0.3694542 0.1867749 0.16884196 0.24249735 0.19289869 0.19286005 0.33168998
0.06685923 0.13275705 0.13062173 0.11342464 0.12911488 0.14459161 0.18887857 0.14918078
0.20627736 0.10421423 0.27320296 0.22941998 0.28012177 0.24641566 0.18014829 0.06396827
0.14649603 0.23532225 0.20533347 0.21487257 0.12913477 0.18616807 0.27096644 0.1349311
0.32772124 0.102044106 0.10163128 0.24361865 0.098180465 0.101092964 0.12176234 0.1617388
0.13325077 0.12386599 0.11891885 0.14390412 0.188942 0.097967416 0.19323148 0.18006897

model.fc.6.weight f4 [32, 64]
00000000: 9378 363d da9d 903d 4d91 ddbd 7481 7bbd
00000010: b20b 003e 925b b6bd c49d 9c3d be7b 1dbd
00000020: 39ce 7dbd 2c4d 143b dad8 1bbd b838 353d
00000030: eb59 c7bd f023 73bd 2e73 cebd 20bb a8bd
00000040: c92a 19bd 63aa aebc f07a 71bd 7a1f b5bd
00000050: e748 a43d aba2 86bd add5 e03d faec 2d3d
00000060: ce0f a73d fe22 fcbd 6741 00be a20c 593d
00000070: 5776 c53d 40a7 9fbd 3de8 b33d 30f9 7d3d
00000080: d551 f0bd c6e6 843d 7e32 53bd 74b6 093d
00000090: e0e6 87bd 2649 293c 8f57 dd3d 22b4 f9bd
000000a0: 8495 883d 7ae1 953d b829 e13d 6e87 04be
000000b0: c29a c2bd 56ce 833d 8a77 1e3d eff6 ca3d
000000c0: 7f77 bbbd 7ff0 363d 7307 1e3c a7ff 613c
000000d0: 7230 d6bd 8ad2 043e 274a 12bd bcc3 e43d
000000e0: 3c13 b03c 73ed bcbd 1c93 c6bb 6b1b 9dbc
000000f0: 84fd 423d ed38 a83d 7248 843c 3518 e0bd
00000100: 8014 e4bd d24f 533b 80ab a2bd 6a4e e4bd
00000110: ed47 233c 3705 69bd 8787 a2bd c237 e63d
00000120: c920 293d 1234 7c3b dd38 713d 2708 e0bd
00000130: bb75 f7bd 7a3d 53bd 306a da3d 18d7 ca3d
00000140: 5de8 293d 9b16 ed3c e9e3 9dbd 6c28 003e
00000150: 29f3 15bc 246d 3cbe 3378 d43d 7b85 4cbd
00000160: 17f4 77bd 9b6e 643d 6519 073d 6bee 0b3d
00000170: cea0 bebd 8510 693d 3fea e03c fcce 923d
00000180: db32 cdbc 937b 9b3d 3927 bfbd b04a 9abd
00000190: c3e0 fd3b 2fde 113d c271 613d 75e6 c03d
000001a0: 4717 37bd f7bb 703d a9cd bd3c c18c 273d
000001b0: c651 97bd a9c2 043d a775 edbd 156a a63d
000001c0: 9a1c d63d 2d8e 093d 4336 a73d bf7d c5bd
000001d0: f4f5 323d c6d0 95bd 7560 263d 7ab9 5fbc
000001e0: d31c 35bb 6ace e13d 95c3 613d 1c7d 2bbd
000001f0: c93a cc3d 1ab3 aa3d 4215 d83d 78cf 023d
00000200: a446 90bd aacc 75bd 7dfb ca3d 0a32 a83b
00000210: 6346 83bd 6a7b 953d f691 b3bd 822d 1fbe
00000220: 7c9f 1e3d 1ae9 92bd 2dfd ae3d 1ae1 9ebd
00000230: aaba d2bd 0256 95bd e4a9 bc3c e29f e83c
00000240: ecfa afbd 2c8d dbbc 69a3 88bd 081c ebbd
00000250: 37e3 663d 4f8b 163c 5cd8 2bbc 7b15 683d
00000260: 2cf1 1e3d 0cbb 433d a6b1 063d a003 773c
00000270: 9a10 7cbd 1889 ac3d 5d6a a13d 8bfa a73d
00000280: cb9e b7bd c7b3 aabd 2647 243d e5bf 873d
00000290: 728e 92bd 6770 8a3d afef 603d d4e1 d9bc
000002a0: 9cad c8bd b370 5e3d 4da6 723d 6918 48bd
000002b0: cc1f 11be 93d1 06be 436c a3bc ded4 0dbe
000002c0: 3945 973d 3991 823d 838c 2f3d d813 0c3e
000002d0: c89d e9bc 3571 d43d b340 8abc be57 c03c
000002e0: d863 033b 4801 993d f4df ffbd db9c 03be
000002f0: 2663 4b3d 7c84 ac3c 15a1 053e 57e3 7b3d
00000300: 33ee a3bd e9d1 dcbb f0c9 803d ece7 753d
00000310: adbb 9ebd b0c7 813d 9cdc a93d 6a76 09bb
00000320: b161 b8bc 7174 aebd 463b abbc 7ff8 ad3c
00000330: 83d2 cd3c 4451 67bc e41a f63a f041 dfbc
00000340: cd96 fb3c 7b14 86bd 7a8d e23d 2652 4dba
00000350: a7fa 05be 463c ea3d 95e7 adbc 9104 68bd
00000360: 569e ab3d 1c8f e8bd 37ed e03d b1dc b5bd
00000370: 25b3 09be 456d 9bbc 67fa 423d f7ec bdbd
00000380: 9d4e 9fbd 853e 0bbd 608c 103d 5c88 cebd
00000390: 3daa 863d 5ecd 6e3d 4340 8abd 1a7a da3c
000003a0: 0ff7 08be fdf4 a0bb 34cc 86bd 9e65 e5bc
000003b0: ffeb 883d a97a a6bd 1195 fa3d 6396 6fbd
000003c0: e75a ad3d ee36 21bc 6937 68ba 05a0 6b3d
000003d0: fd8e cdbc 02e4 f8bc bdaa 8e3d a5c5 f8bb
000003e0: ea01 b8bd 177b a3bd ffab 7d3d 19d5 f8bd
000003f0: 20a5 1ebd 979a a03d ccc8 0cbe 9e42 4ebd
0.044548582 0.07061358 -0.108187295 -0.061402753 0.12504461 -0.089041844 0.07647279 -0.038448088
-0.061964247 0.0022629006 -0.038048603 0.044243544 -0.09733947 -0.059360445 -0.100805625 -0.08238816
-0.03739432 -0.021321481 -0.058955133 -0.08843894 0.080217175 -0.06573995 0.109782554 0.042462327
0.081573114 -0.12311362 -0.12524949 0.052990563 0.09641712 -0.07795572 0.0878453 0.06200522
-0.11734358 0.06489329 -0.051561825 0.033621266 -0.06635833 0.010332381 0.10807716 -0.12192561
0.06669143 0.07318397 0.10994285 -0.12942287 -0.09502174 0.0643584 0.03868822 0.0991038
-0.091536514 0.04466295 0.009645331 0.013793862 -0.10458459 0.1297094 -0.03571525 0.11170146
0.021493547 -0.09224977 -0.0060600173 -0.019178113 0.047605053 0.08213983 0.016147826 -0.10942117
-0.111367226 0.0032243622 -0.07942867 -0.11147769 0.009965879 -0.05688974 -0.07936006 0.11241104
0.041291032 0.0038483185 0.05889212 -0.10939055 -0.12083002 -0.0515723 0.10664785 0.09904307
0.041481365 0.028941443 -0.07709486 0.1251542 -0.009152212 -0.18401009 0.10374489 -0.049931984
-0.060535517 0.055769544 0.032983202 0.03416292 -0.09308015 0.05690052 0.027455447 0.071683854
-0.025048664 0.07591929 -0.09333653 -0.07533777 0.007747741 0.03561228 0.05504013 0.09418956
-0.044699933 0.058773007 0.023169355 0.040905718 -0.07388644 0.032412205 -0.11594706 0.08125702
0.10454674 0.033582855 0.081646465 -0.09643125 0.04369159 -0.07315211 0.040619332 -0.013655061
-0.0027635589 0.110256985 0.055118162 -0.04186736 0.0997215 0.08334942 0.105509296 0.03193614
-0.07044724 -0.060009636 0.09911249 0.0051329182 -0.064099096 0.0729893 -0.08768074 -0.15544704
0.038726315 -0.07173367 0.08544383 -0.077577785 -0.102895096 -0.07291795 0.023030229 0.02839655
-0.085927814 -0.026800714 -0.06671793 -0.11479956 0.056369033 0.009188487 -0.010488596 0.05666111
0.03880422 0.047785804 0.032884263 0.015076548 -0.06153927 0.08424586 0.07881615 0.08202084
-0.08965834 -0.08335071 0.040106915 0.06628398 -0.071560755 0.0675972 0.05491608 -0.026596941
-0.09798738 0.054306697 0.059240628 -0.048851404 -0.14172286 -0.13165884 -0.019949084 -0.13850734
0.0738625 0.06375355 0.04285861 0.13679445 -0.028517619 0.10373155 -0.016876554 0.023479339
0.0020048525 0.074709475 -0.124938875 -0.12852804 0.049655102 0.021059267 0.13049729 0.061496105
-0.08004417 -0.0067388904 0.062885165 0.06003563 -0.0775064 0.063369155 0.08294031 -0.0020975121
-0.02250752 -0.08518303 -0.020902287 0.021236656 0.025124794 -0.014118496 0.0018776325 -0.027253121
0.030711556 -0.06546875 0.11062141 -0.00078323705 -0.13083898 0.114372775 -0.021228591 -0.05664498
0.083798096 -0.11355421 0.10982745 -0.08879984 -0.13447244 -0.018973002 0.047602084 -0.09273713
-0.07778666 -0.03399517 0.035290122 -0.10084602 0.06575439 0.058301322 -0.06750538 0.02666955
-0.13375495 -0.0049120174 -0.065819174 -0.028002556 0.06685638 -0.08128864 0.122354634 -0.05849303
0.08464604 -0.009839756 -0.00088583544 0.057525653 -0.025092596 -0.03038216 0.069661595 -0.0075919204
-0.0898474 -0.07982462 0.061931606 -0.1215002 -0.038731694 0.07841986 -0.13748473 -0.0503565

model.fc.6.bias f4 [32]
00000000: 2e96 4f3d 400e ec3c e3e8 81bd ef81 813d
00000010: 92c2 1e3d a795 87bd d95f 33bc c4d8 dbbd
00000020: 3664 08bd 45cc fb3d 0792 443c 5d00 1e3d
00000030: da3f e93b b822 b3bd aa51 173d 6fb4 c2bd
00000040: b606 ebbd e87f c03d fad0 cbbd 1d34 debc
00000050: e5e8 843d 3801 0fbd 83e6 e73d d9af bebc
00000060: 530f e33d 49a9 013e b3ac a03d 4ab6 d33c
00000070: 4ac3 8fbd 0787 cd3c 2b26 03bd 0984 b8bd
0.050680332 0.028815389 -0.06343248 0.06323611 0.038759775 -0.06620341 -0.010948145 -0.10734704
-0.033298694 0.12294821 0.011997706 0.038574565 0.0071182074 -0.087468565 0.036943115 -0.09507071
-0.114758894 0.09399396 -0.099519685 -0.027124459 0.064897336 -0.03491327 0.113232635 -0.02327721
0.11086907 0.12662233 0.0784544 0.025843758 -0.0701967 0.0250888 -0.03201882 -0.09009559

model.fc.7.weight f4 [32]
00000000: 4e7f 763f 3995 813f 8d56 773f 7093 8f3f
00000010: 923d 7c3f 1ed1 783f 8c71 773f 2a27 7b3f
00000020: 4741 8c3f 4316 6c3f fb85 7c3f c507 883f
00000030: d6b6 833f 3feb 6d3f 7f43 773f f0f0 853f
00000040: 07c1 883f c849 773f cfda 703f da4f 723f
00000050: 95cd 7b3f 8b11 813f 6e8b 753f bff4 733f
00000060: 1c78 823f dc36 7f3f 8f58 833f 2649 863f
00000070: 2871 833f 1426 8a3f 219c 823f 0f26 6d3f
0.96288 1.0123664 0.9661644 1.1216869 0.9853145 0.9719409 0.96657634 0.98106635
1.0957421 0.9222147 0.9864194 1.0627371 1.0290172 0.9293708 0.96587366 1.0464153
1.0683907 0.96596956 0.94083875 0.94653094 0.9836057 1.0083479 0.9591588 0.9529533
1.0192904 0.99693084 1.0261401 1.0491073 1.0268908 1.079287 1.0203897 0.926362

model.fc.7.bias f4 [32]
00000000: 1f73 01bc 470c 0d3d 4402 02bc d5e9 263d
00000010: 6cb7 7abd 133e 9b3b 456c debc 23e3 19bd
00000020: a2c0 563d 00b1 60bd 10f0 9ebc 5206 233d
00000030: 6ded 85bc d184 90bd a41c 5abd b640 a63c
00000040: c2ed 83bd 7ea7 02bd c8c2 80bd a619 cbbc
00000050: 6a32 73ba b72d 21bb d05b 44bd a25c 61bd
00000060: 6534 65bd e62c b7bb 03f0 82bc 9e26 df3c
00000070: 6bed 7a39 a8ef 8e3d 4684 7abc c50c 6cbd
-0.007900982 0.034435537 -0.0079351105 0.040750343 -0.06121008 0.0047376244 -0.027151236 -0.03757013
0.052429803 -0.0548563 -0.01940158 0.03980095 -0.016348565 -0.07056583 -0.05324997 0.020294528
-0.06441833 -0.031898014 -0.062871516 -0.024792504 -0.00092772266 -0.0024593899 -0.04793912 -0.055019982
-0.05595817 -0.005590069 -0.015983587 0.027240094 0.00023930303 0.069793046 -0.0152903255 -0.057629365

model.fc.7.running_mean f4 [32]
00000000: aeed 03bd 2782 0a3e 58a7 d9bd f87e d5bd
00000010: bfcc 49be 8816 35bc c0a6 f93d dada bebd
00000020: 7c9d 74bd 2d11 e3bd d8aa 9cbe cf8b 5abd
00000030: bf76 053d da8b 29be 66a4 c6bd 5c51 8abe
00000040: b9a1 7dbe a620 2f3e bcf2 8dbc d9ce 093e
00000050: 2a1d bfbe 181c ae3c 53b0 473e a368 08be
00000060: 3aff 553d 2954 a43d fd19 51bd a43d 0ebd
00000070: be0f 71be 4d3b 2cbe 96ca aebb 9ebf 1ebe
-0.03220909 0.13526212 -0.106276214 -0.10424608 -0.1970701 -0.011052735 0.12190008 -0.093190864
-0.0597205 -0.110872604 -0.30599093 -0.053355988 0.03258395 -0.16557255 -0.09699325 -0.27015197
-0.24768724 0.17102298 -0.017327659 0.13457812 -0.37326938 0.02125363 0.19500856 -0.13321166
0.052245356 0.08023865 -0.051050175 -0.034726754 -0.23541161 -0.16819496 -0.0053342087 -0.15502784

model.fc.7.running_var f4 [32]
00000000: aa34 ad3e fef7 5f3f 508a 6d3e bb4d 243f
00000010: 0834 cc3e 653e d53e d9b9 9e3e 85ca 753e
00000020: 1035 603f 9178 583e b4e8 7b3f 0b68 663f
00000030: 3911 303f 2460 223f 5f48 9a3e 4178 d03e
00000040: 107d 8c3e e75b 8d3e e15c e03e 8800 103f
00000050: 3f6c a63e 4eb9 0f3f 7277 773e 4caf ac3e
00000060: 5f19 a43e 4fc4 423e f361 003f ab48 3d3f
00000070: 808b dc3e 4562 5c3f f05e 943e 40f5 003f
0.33829242 0.8748778 0.23197293 0.6418111 0.39883447 0.41649166 0.31001166 0.24003036
0.87580967 0.21139742 0.9840195 0.90002507 0.6877628 0.6342795 0.3013334 0.40716746
0.27439165 0.27609178 0.4382086 0.5625081 0.3250446 0.5614213 0.24166659 0.3372749
0.32050607 0.19020198 0.5014946 0.7393901 0.4307518 0.8608745 0.28978682 0.5037422

model.fc.10.weight f4 [16, 32]
00000000: d163 8c3c 3f3a 103e 1d12 33bd 5cb6 813d
00000010: 8058 283e 9cfc 43bd c495 81bd 8622 4bbe
00000020: 3038 d43d 3191 613c 1d94 143c 3d00 c03d
00000030: bf62 33bd 5ba7 c93c 8ccb 643d 01dd 02be
00000040: 1b23 b5bd b3f9 b8bd b1ad afbd 7b16 9a3c
00000050: bffc 3dbd d705 c4bd 4d0a 9bbc ddc7 bc3d
00000060: 5d1d 5ebe 8490 7abc 27dc e13d fbec cabc
00000070: 1af3 ebbd c221 16be 3768 cbbd 4ab7 3fbd
00000080: c94a bf3d c002 3e3d 21b5 26be 8f8b 553b
00000090: a8d8 28bd 4d1a 623d 52d2 15be 927f 6e3e
000000a0: c339 b7bd e2c2 973d b912 01be 922c 76be
000000b0: d4ab 64bd c9d1 5f3d 6c2c 92bd 6bbb 1bbd
000000c0: 8d7d 243e 7eef e7bd efda d13d 1eab 0a3d
000000d0: 99b5 553d 6ba0 dbbd ed02 2f3e eab4 cabc
000000e0: 2907 ecbb 0014 46be 527c 813d 391f e8bc
000000f0: cb29 5dbd e49c 43bb e47a 10be d33b 913d
00000100: 6ab9 003e 531e 6fbc 2b8c 4abd d43f 45be
00000110: 9fb6 93bd 1e28 023d 013f ec3d 6bab 493d
00000120: 12b0 7cbe 1f4a c53d 502f 063e 6325 debd
00000130: c69e d83d 03e9 01bd 10f6 7d3d 92a8 7d3d
00000140: 147e d73a 718f 543d 271b 30be 94f0 06be
00000150: c9aa 1cbe 1b52 063d 92bb cbbc 251f e43d
00000160: 0364 bbbd e9e1 8eba 90a0 93bd b6b5 18bd
00000170: ccca 47bd f67c ff3d 9831 04be c9f4 ac3d
00000180: d71f 35be bba1 50be 673a e93d 1133 a3bd
00000190: 8484 18be 32c5 f13d 0c04 bd3d cd7b d4bd
000001a0: 77ea d53d ee01 2bbb fcec d63c 5d4a 143e
000001b0: 0acc f0bd 5bb4 a33b bae4 6f3d 9d7a 3abe
000001c0: a257 58be bf6c d4bd 7b1f 19be 8d37 e73d
000001d0: aafa 253e 61c9 47be d8f3 21be f2d4 e53d
000001e0: 61ce 933c 2956 223e c4e9 283e ecc8 33be
000001f0: 9c2b b6bd b46d 37bd a627 62bc 6cfb 163e
00000200: 802c 113d 15d0 b93c 24ff 7b3d 29e5 09be
00000210: d42e 88bc 5ca4 853d 7e0c 17bc 9da3 0dbe
00000220: 92da 4dbe 661d 94bd ef90 2bbd 89fb 7abb
00000230: c430 ccbb ac9f 523d 80e7 133e b52d b6bd
00000240: 28e3 21bd fb2a 043e d693 32bd c28b a13d
00000250: 4331 ddbd 16ec d93c e3a6 963d f4a1 b53c
00000260: 5fcd 56be 4d44 b13c cd57 96bd 3060 30bc
00000270: 0a6b 0c3e 3699 803d cb3c 603d 3fd3 973c
00000280: f403 033e fa86 bcbc e48e 633d 7745 a2bd
00000290: 2cb0 b93d 0453 193e d5b5 7dbd 9cee 613d
000002a0: cb71 9f3d d7a6 803d fc8c 9abd b18e 85be
000002b0: cb41 a9bd ba92 f0bd acec f9bd d9d5 293d
000002c0: 36e5 81bd 5731 54bd 39d1 fd3d 4c71 353e
000002d0: 9ed5 32bc 5a4e 243c 89d7 0f3e a52d 44be
000002e0: 6492 f43d b847 8abd af85 0ebe 35ea 463e
000002f0: c075 533d d819 d23b c40c 063e f838 30bb
00000300: b981 cdbc c453 d53b 06f2 d33d f870 64bd
00000310: bb7f e03d 1af1 ccbd 18f0 1cbd df32 adbc
00000320: 0096 40be d434 ebbc 1e94 fe3c 273e b3bd
00000330: 64fa 2b3d a344 c1bd bcaf 5cbd 8c2f d4bc
00000340: 8633 2d3d 8b1e 443d fcc0 81bd 2d48 f43d
00000350: 3bf3 053e 3e69 18bd d060 f2bd 412a 29be
00000360: c4f7 303d 67ee 433c e4e7 9dbd 7d7e 023e
00000370: b060 123e 06fb aebc 768f 1b3e 1725 913b
00000380: 0cf9 9cbd f943 0dbe 5487 04bc 1cb7 0d3e
00000390: ec6d 98bc 017b 993c 3df3 2c3c 0f16 25be
000003a0: e177 1fbe 7809 1bbe bfd5 ecbd 200a e0bc
000003b0: 7082 64be 0f85 7f3d 6d76 1dbe 2f28 56be
000003c0: 0bb4 6cbd 07ab 39bd 8c99 a0bc 1117 f03d
000003d0: 5246 543d 8b74 b93d 6da6 bcbd cf5b 893d
000003e0: 1a3a d5bd cc9c 0d3b df1f e13d 1366 47be
000003f0: 70ee 533d 153a 5ebe 29db 2ebe 0492 ef3d
0.01713744 0.14084719 -0.043718446 0.063336104 0.1644001 -0.04784833 -0.06327394 -0.19837388
0.103622794 0.0137675265 0.009068516 0.093750454 -0.043795343 0.024615934 0.05585818 -0.12779619
-0.088445865 -0.09032001 -0.08578051 0.018809548 -0.046383616 -0.09571426 -0.01892581 0.092178084
-0.21690889 -0.015293244 0.11028319 -0.024771204 -0.11520977 -0.14661315 -0.09931987 -0.046805657
0.09340436 0.04638934 -0.16280033 0.0032584404 -0.041222245 0.055200864 -0.14631012 0.23290852
-0.08946564 0.07410218 -0.12604798 -0.2404044 -0.05582793 0.054643426 -0.07137379 -0.038020533
0.16063519 -0.113249764 0.102468364 0.033854596 0.05217514 -0.10723957 0.1709096 -0.02474447
-0.007203002 -0.19343567 0.0632254 -0.0283352 -0.053994935 -0.0029848153 -0.14109379 0.07091489
0.1257073 -0.014594632 -0.04945008 -0.1926263 -0.072125666 0.03177654 0.115354545 0.049235743
-0.2467654 0.09633278 0.13103986 -0.10846975 0.10577159 -0.031716358 0.06200224 0.06192834
0.0016440772 0.05189461 -0.17197858 -0.13177711 -0.15299524 0.032793146 -0.024869714 0.11138753
-0.09149935 -0.0010901067 -0.07208359 -0.037282668 -0.048777387 0.12475006 -0.12909544 0.084451266
-0.17687927 -0.20374195 0.113880925 -0.079687245 -0.148943 0.1180519 0.092292875 -0.103751756
0.10445111 -0.002609368 0.02623605 0.14481492 -0.11757667 0.0049958653 0.05856774 -0.18210836
-0.2112718 -0.10372304 -0.14953415 0.11289892 0.16208902 -0.19510414 -0.15815675 0.11222257
0.018042745 0.1585318 0.16495425 -0.17557114 -0.088950366 -0.044782355 -0.013803398 0.14744347
0.03544283 0.022682229 0.061522618 -0.13466324 -0.016623892 0.0652549 -0.009219287 -0.13831945
-0.20102909 -0.0723217 -0.041886266 -0.00382969 -0.0062313993 0.051421806 0.14443779 -0.08895437
-0.039523274 0.12907021 -0.04359802 0.07887985 -0.108004116 0.026601832 0.0735605 0.022171952
-0.2097678 0.021639014 -0.073409654 -0.01076512 0.13712707 0.06279223 0.054745477 0.018533347
0.12794477 -0.02301358 0.055556193 -0.079234056 0.09066805 0.14973074 -0.061940987 0.055159196
0.07785376 0.06281822 -0.07546422 -0.26085427 -0.08264502 -0.11746736 -0.12203345 0.041463707
-0.06342547 -0.051804867 0.12393422 0.17719 -0.010915188 0.010028446 0.14047064 -0.19158037
0.11941984 -0.067519605 -0.13918184 0.1942528 0.051625967 0.006411772 0.13090807 -0.0026889425
-0.02508627 0.00651023 0.10348897 -0.055771798 0.10961863 -0.10006924 -0.03831491 -0.021142421
-0.1880722 -0.028711714 0.031076487 -0.08752089 0.041986838 -0.094369195 -0.05387853 -0.025901578
0.042285465 0.04788069 -0.06335637 0.11927829 0.13081066 -0.03720974 -0.11834872 -0.16520025
0.043205038 0.011958695 -0.07710245 0.12743564 0.14294696 -0.021359932 0.15191445 0.0044294703
-0.076646894 -0.13795461 -0.008088905 0.13839382 -0.018607102 0.01873541 0.010556039 -0.16121696
-0.15573074 -0.15140331 -0.11564206 -0.027348578 -0.22315383 0.062382754 -0.15377207 -0.20913766
-0.05778889 -0.04532912 -0.019604467 0.117231496 0.051824875 0.09055432 -0.09211431 0.06706964
-0.104114726 0.002160835 0.10992407 -0.19472532 0.051741064 -0.21701844 -0.1707579 0.11697772

model.fc.10.bias f4 [16]
00000000: f28c 56bb e4e8 16be 2681 243e 517d 2abe
00000010: ca0c 2ebe d8f0 0cbe e6ca f83b 4adb ffbc
00000020: f693 cdbd c3db 4bbc 3fdc f73d 914c b7bd
00000030: 421b a1bc e1aa 02be 6b12 d73d 3ee7 813c
-0.0032737819 -0.14737278 0.16064891 -0.16649367 -0.16997066 -0.1376375 0.0075925468 -0.031232495
-0.10037987 -0.012442532 0.121025555 -0.08950151 -0.019666318 -0.12760498 0.1050156 0.015857335

model.fc.11.weight f4 [16]
00000000: dd0f 753f ee6e 803f 59ab 6f3f 3be8 843f
00000010: 459a 6e3f 6463 6b3f fe1c 813f 606a 843f
00000020: f8b5 8d3f 5075 6d3f 2c0c 7b3f 9039 823f
00000030: 1f05 833f 6393 823f 6cd0 833f 29f1 6f3f
0.9572733 1.0033853 0.9362083 1.0383371 0.93204147 0.91948533 1.0086973 1.0344963
1.1071157 0.9275713 0.9806545 1.0173817 1.0235938 1.0201229 1.029798 0.93727356

model.fc.11.bias f4 [16]
00000000: cc55 27bd 5c3e 8cbd 425d 8b3c 0d6e 203c
00000010: 4d2f 843d 6e14 1fbd e4f9 483d 9cfb 04bd
00000020: f323 25bc 3056 eebd 2cc2 c8b9 eb66 1cbd
00000030: 031c cdbc 7130 4c3d 0822 0c3d 2322 943c
-0.040853307 -0.068478316 0.017012242 0.009791863 0.064543344 -0.038837843 0.04906644 -0.032466516
-0.010079372 -0.11637533 -0.00038291642 -0.038184088 -0.025037771 0.049850885 0.034212142 0.018082684

model.fc.11.running_mean f4 [16]
00000000: d2cc 2fbe a59d 95be 5237 153d a439 aabe
00000010: 59e0 79be 9b0a a8bd d921 b9bc 8a4b e1be
00000020: 340f c5be f005 77be 849b f83c c595 d0be
00000030: 5679 19be da88 573d 91cd a5bd 8494 6c3d
-0.17167976 -0.29221836 0.03642971 -0.332471 -0.24401988 -0.08205148 -0.022599148 -0.44002944
-0.38488162 -0.24123359 0.030347593 -0.40739265 -0.14987692 0.052620746 -0.08095849 0.057758823

model.fc.11.running_var f4 [16]
00000000: 16c7 db3e b48f ae3e e9a6 ed3e 209a 5a3f
00000010: 1d31 d03e 9d42 063f 9063 cd3e 3b15 533f
00000020: c65c 143f fbf1 c53e 876c ba3e 779e f53e
00000030: 8367 c63e 9d7b 843f a9c0 083f f5f9 f13e
0.42925328 0.34094012 0.46416405 0.85391426 0.4066247 0.52445394 0.40115023 0.8245427
0.5795406 0.3866118 0.36410925 0.47972462 0.38750848 1.0350224 0.53418976 0.47261015

model.fc.14.weight f4 [8, 16]
00000000: ed21 60bd 65b3 713d 6a84 123e bfd4 82be
00000010: ca1b c2bd a86f 11bd ff8b c9bd 7e3a 27be
00000020: d826 0e3e 7533 e6bd 7462 b43b 6059 74be
00000030: 7a23 f43d 4dab 303e 3ad1 1ebe 2aec 33bd
00000040: b68c 80bd c504 1ebd 8682 1ebe 2c8f bc3d
00000050: 5558 79bd 825f 4dbe e8f9 a2bd 1ecd 2c3e
00000060: 995b d33d 20b6 4c3e 2714 4abe 44e9 843e
00000070: d27c 263d 001c 08be d733 923d 0490 8abd
00000080: d038 a43d 16a2 e0bc c36e 82be 31c8 743e
00000090: 95ce d8bd b48a 25be edfb e7bd c72b 0f3e
000000a0: 14ec 2abd 1d0d 66bd f5ea 68be 62a3 3a3e
000000b0: 475b 22be 6fc4 92bc 4bf8 e9bc 29a5 8f3d
000000c0: 0be8 5dbe 6058 5f3e 4bef a6bd 389a 6cbe
000000d0: 3c88 57bc 8fdb dcbd d58d 0dbe 3666 d33c
000000e0: ce7b 9c3d c972 32be 1aee 593d 44b7 9dbc
000000f0: 0f2f 3e3e 217e 2abe 43e9 5e3e 1b0e a8bd
00000100: 1bd9 2abe e6ca 303d 062f 723d 2453 01be
00000110: 67a5 16be 8897 81bd 9b00 0bbe dbae 2abc
00000120: 6f32 363e c99e 333e 224c f7bd fb87 9a3c
00000130: 3a0a 303c 66f5 20be fb84 143e 2e92 96bd
00000140: 4f89 bebd e1bd 89bd 0b87 3a3e 2aff 30bd
00000150: 0177 7b3d c6a4 773d 1cd9 6d3e 35ef 5abe
00000160: b9b1 86be 76aa 7fbd 6694 713e cf47 fb3d
00000170: 8b24 d9bc b2d3 823d 343c 1cbe 0598 083e
00000180: 745b c7bd e384 2f3e 34ba 6c3c 37f2 28be
00000190: a8e6 73be 758a 7d3d 3697 a03c 3ef4 41be
000001a0: 9c26 633e 535b 2dbe aa6d bdbd 7288 75be
000001b0: b383 923d b9f6 8cbe 4b0c f0bd b468 5bbe
000001c0: b61b 4b3e d6c6 c33d ebdf 3ebe e951 703d
000001d0: 051c 0dbe 9a96 5e3d 8169 44be 70bd 9aba
000001e0: 0736 303e 2c83 3d3e 3e27 35be da1a ca3c
000001f0: af00 51be 609a 16be 6629 353e cbd3 08bd
-0.054719854 0.059008975 0.14308324 -0.25552937 -0.094779566 -0.035506874 -0.09841155 -0.16330907
0.13882005 -0.112402834 0.0055049006 -0.23862219 0.11920829 0.17252846 -0.15509501 -0.043926395
-0.062768385 -0.038578767 -0.15479478 0.09206995 -0.060875256 -0.20055965 -0.07957822 0.16875121
0.10320205 0.1999135 -0.1973425 0.25959218 0.04064638 -0.13291931 0.07138794 -0.0676575
0.080186486 -0.027421039 -0.2547513 0.23904492 -0.105862774 -0.16166192 -0.11327348 0.13981543
-0.041729048 -0.05616485 -0.22745879 0.18226388 -0.15855132 -0.017915932 -0.028560778 0.07013924
-0.21670549 0.21811056 -0.0815111 -0.23105705 -0.013155039 -0.10784065 -0.13823636 0.025805574
0.07640801 -0.174266 0.053205587 -0.019252427 0.18572639 -0.16649677 0.2176867 -0.082058154
-0.16684382 0.04316225 0.059126876 -0.12629372 -0.14711533 -0.063277304 -0.1357445 -0.010417665
0.17792676 0.1754104 -0.12075068 0.018863669 0.010744626 -0.15718612 0.14503853 -0.073521
-0.09303533 -0.0672567 0.18215577 -0.043212093 0.061392788 0.060459875 0.23227352 -0.21380313
-0.26307467 -0.062418424 0.23591766 0.12269556 -0.026506683 0.06388034 -0.1525734 0.13339241
-0.0973424 0.17140536 0.014448691 -0.16498648 -0.23818457 0.06189962 0.019603353 -0.18940827
0.22182697 -0.16929369 -0.092494324 -0.23977831 0.07154026 -0.27531984 -0.11721095 -0.2142666
0.1983479 0.09559409 -0.18640105 0.058671866 -0.1378022 0.054342844 -0.19180872 -0.0011805724
0.1720811 0.1850707 -0.17690751 0.024671007 -0.20410417 -0.14707327 0.17691574 -0.033405107

model.fc.14.bias f4 [8]
00000000: 9023 283e 3f1e 9ebd 4a7d 6b3e 7264 ff3d
00000010: ef46 cd3d d8ae d83c 890b f73c 5d42 153e
0.16419816 -0.07720613 0.22997013 0.1247033 0.10023295 0.02645056 0.030156868 0.14576097

model.fc.15.weight f4 [8]
00000000: f6ca 9e3f bca7 a43f cc3e a53f 30fc 893f
00000010: ac32 9e3f 03ca ae3f dbfd 8d3f 3cfd a53f
1.2405689 1.2863688 1.2909789 1.0780087 1.2359214 1.3655399 1.1093096 1.2967906

model.fc.15.bias f4 [8]
00000000: c510 193e 4a69 513e f63d 543e 091d e6bd
00000010: de4f 8f3d 53f3 aa3e 9efc e3bd 87d4 603e
0.14947803 0.20450321 0.20726761 -0.11236007 0.06997655 0.33388767 -0.11132167 0.21956073

model.fc.15.running_mean f4 [8]
00000000: b550 aa3c d145 e0bd 4ed1 d53d 1145 c63c
00000010: 84b4 febb 7217 a13d f9fc 8ebe 286f a43d
0.020790437 -0.109508164 0.10440312 0.024202855 -0.007772984 0.078658 -0.27927378 0.08029014

model.fc.15.running_var f4 [8]
00000000: 77a1 cc3e 08c7 3e3f efb8 193f f998 b53e
00000010: f6be 9b3e d37e 473f d8d6 c43e 54c9 413f
0.39966938 0.7452245 0.6004781 0.3546827 0.3041913 0.77927893 0.38445163 0.7569783

model.fc.18.weight f4 [3, 8]
00000000: e1c2 27be b961 fa3e 56e7 fa3e f210 36be
00000010: 8f91 ae3d 9573 d7be 0795 31be 1cf6 d23e
00000020: dc1a c13e f76f 7c3c c81b d2be b94f b23e
00000030: 3ede 2b3e 4f93 1cbe fd29 d63e 4bf9 6c3d
00000040: 2ef4 c03e 6dce 08bf 411d c7be 55cd 31be
00000050: de78 21bf 0dc4 233f 04ef 4ebc 05ba cfbe
-0.16382934 0.4890268 0.4900462 -0.17779902 0.08523857 -0.4208037 -0.17342006 0.41203392
0.37715805 0.015407554 -0.4103682 0.3482645 0.16783997 -0.15290569 0.4182891 0.05785493
0.37686294 -0.5343998 -0.38889506 -0.17363484 -0.63075054 0.63971025 -0.012630228 -0.4057161

model.fc.18.bias f4 [3]
00000000: 05fd 6dbe d5d6 bebe 09e7 043f
-0.2324105 -0.3727328 0.5191503
