MultiClassdiabet/checkpoints/bodyP-epoch=10-val_f1=0.96-v1.ckpt (torch, 285052 bytes, 68 tensors)

model.fc.0.weight f4 [128, 77]
0	0xbceb8d01	-0.02875376
1	0x3cab0448	0.020876065
2	0xbd796990	-0.060891688
3	0x3d824d95	0.06362454
4	0x3dd80946	0.10548644
5	0xbd9bd883	-0.07609656
6	0x3dc65636	0.09684412
7	0x3cf18066	0.02948017
8	0x3db4e27b	0.0883226
9	0x3c2db208	0.010601528
10	0x3d71e0c4	0.059052244
11	0xbca2ded3	-0.019881641
12	0x3dac2a8b	0.08406552
13	0x3c2011e4	0.00976989
14	0xbd6ca3ab	-0.057773273
15	0x3cd173fb	0.025568
16	0xbd674364	-0.056460753
17	0xbc802e5d	-0.015647108
18	0xbd417741	-0.04723287
19	0x3d911d65	0.07085685
20	0xbdc12f2d	-0.09432826
21	0xbd6586b2	-0.05603666
22	0xbd0c4cdc	-0.034252986
23	0xbd99391b	-0.07481595
24	0x3be0f5cf	0.00686524
25	0xbde133d2	-0.10996212
26	0x3ddb85f4	0.10718909
27	0xbdce52cd	-0.10074387
28	0x3dc4d926	0.0961173
29	0x3cb5f540	0.02221167
30	0xbd2a36a6	-0.041556023
31	0x3d8f37a3	0.06993034
32	0x3c4a1881	0.012334944
33	0x3db16eb1	0.08663691
34	0x3c2095f3	0.009801376
35	0xbd1d1cc6	-0.03835752
36	0x3cc0893d	0.02350294
37	0xbd05f810	-0.032707274
38	0x3d38b5ee	0.045095377
39	0x3dc1975c	0.09452698
40	0x3d7f5260	0.06233442
41	0xbd593f82	-0.05303908
42	0x3d849dec	0.06475434
43	0x3c9f98c3	0.019482022
44	0x3d51bbeb	0.051204603
45	0xbd8d100b	-0.068878256
46	0xbdeaec62	-0.11470868
47	0xbd555644	-0.052084222
48	0xbdb7449e	-0.089486346
49	0x3dc9d538	0.098551214
50	0x3d1b3188	0.037889034
51	0x3d3a8f18	0.04554662
52	0x3d3af677	0.045645203
53	0x3b8c56ed	0.0042828233
54	0x3db34381	0.0875311
55	0xbd9ab8a1	-0.075547464
56	0x3c7390a9	0.014866033
57	0xbd9b7006	-0.07589726
58	0x3d36d6ce	0.044638447
59	0xbd075c63	-0.03304709
60	0x3d20995c	0.039208755
61	0xbc8f6610	-0.017504722
62	0x3dbd842c	0.092537254
63	0xbd87c2a0	-0.06628919
64	0xbd8871d5	-0.06662337
65	0xbd937676	-0.07200329
66	0x3dccd751	0.10002006
67	0x3d3ac641	0.045599226
68	0x3df23f6a	0.118285015
69	0xbdbcfc92	-0.092278615
70	0xbdd17207	-0.10226827
71	0xbdad0088	-0.08447367
72	0xbd9ad467	-0.07560044
73	0x3d4ff9c7	0.050775316
74	0x3d100c12	0.03516776
75	0x3dbb1aea	0.09135993
76	0xbd5fe1ff	-0.054658886
77	0xbd80eb17	-0.0629484
78	0x3d7385a5	0.059453625
79	0xbd2303c2	-0.039798506
80	0x3da60ab1	0.08107508
81	0xbd178b9a	-0.03699837
82	0x3d89d548	0.06730133
83	0xbdb1d16c	-0.08682522
84	0xbd75ce34	-0.060011104
85	0x3d358120	0.044312596
86	0x3ccbe765	0.024890611
87	0xbd12aa73	-0.035807084
88	0x3da91329	0.08255608
89	0x3dbbea6a	0.0917557
90	0xbd899970	-0.06718719
91	0xbd3ce9c7	-0.046121385
92	0x3def025b	0.11670371
93	0xbcbd4258	-0.023102924
94	0xbce673fe	-0.028131481
95	0xbdc695b1	-0.0969652
96	0xbd468a5a	-0.048471786
97	0x3d3582d5	0.044314224
98	0xba2b128b	-0.00065258954
99	0xbdab4283	-0.083622955
100	0x3c1352b7	0.008991889
101	0xbd8b8a0f	-0.06813442
102	0xbddef9f2	-0.10887517
103	0xbd775e40	-0.06039262
104	0xbdc9c6e9	-0.09852392
105	0xbd9cb73d	-0.076521374
106	0x3df66e21	0.12032724
107	0x3cb99fc5	0.022659192
108	0x3cfcaf16	0.030845206
109	0xbdccd2b8	-0.10001129
110	0xbd811e45	-0.063046016
111	0xbd19af1f	-0.037520524
112	0x3cd42526	0.02589662
113	0xbdbb0cfc	-0.09133336
114	0xbd370ce2	-0.04469002
115	0xbd73d359	-0.05952773
116	0x3c105544	0.008809391
117	0xbd16d517	-0.036824312
118	0x3b859f98	0.004077863
119	0xbd99a2d1	-0.07501758
120	0xbd86bfdc	-0.06579563
121	0xbd6647dd	-0.056220878
122	0xbd050e18	-0.032484144
123	0xbd9b3ada	-0.075795844
124	0x3dd76ae2	0.10518433
125	0xbc57393f	-0.013136207
126	0x3db43251	0.087986596
127	0x3d070003	0.032958996
128	0xbdcd1372	-0.100134745
129	0x3d93099a	0.07179566
130	0xbd024ee5	-0.03181352
131	0xbd454388	-0.048160106
132	0xbddda912	-0.10823263
133	0xbde3ad80	-0.11117077
134	0x3d17eb94	0.0370899
135	0xbcbcdded	-0.023055041
136	0x3d53820b	0.05163769
137	0xbdb808b6	-0.089860365
138	0x3da73510	0.08164418
139	0xbda7cec7	-0.081937365
140	0xbca59b3a	-0.02021562
141	0x3cfbeab7	0.03075157
142	0x3d791700	0.06081295
143	0x3dbc98fa	0.092088655
144	0x3dcf5b6c	0.10124859
145	0xbdaf38b3	-0.085557364
146	0x3cde9dc5	0.02717484
147	0xbd5ebb13	-0.054377627
148	0xbbaa8ca6	-0.005204755
149	0xbda42f8e	-0.08016883
150	0x3ddfebf9	0.1093368
151	0xbdaa8dfe	-0.08327864
152	0x3d79f992	0.061029024
153	0x3d084438	0.033268183
154	0x3d092baa	0.033488907
155	0xbd87cc11	-0.066307195
156	0x3dde099d	0.10841677
157	0x3ccdfc96	0.025144856
158	0xbbfd0afb	-0.0077222562
159	0xbde49ad4	-0.111623436
160	0x3d3315d7	0.043722
161	0xbc7910ff	-0.015201806
162	0xbd7abce7	-0.061215308
163	0x3dc2917c	0.09500405
164	0x3c23e19f	0.010002523
165	0xbd883a7e	-0.066517815
166	0xbd79a849	-0.060951505
167	0xbc095b45	-0.008383577
168	0x3d6ff0e9	0.05857936
169	0xbd149c58	-0.036281914
170	0xbd89634f	-0.06708395
171	0xbd2e56ee	-0.04256337
172	0xbdb6bbf0	-0.08922565
173	0x3d1f3e5d	0.038877834
174	0x3db39f7b	0.08770653
175	0xbde5c1aa	-0.11218579
176	0x3cb1d3b5	0.021707395
177	0x3d7cb443	0.06169535
178	0x3c922b7f	0.017843006
179	0xbd64c491	-0.055851523
180	0x3d50578c	0.05086474
181	0x3d6be879	0.05759475
182	0x3d3063e8	0.043064028
183	0xbd070590	-0.03296429
184	0xbcffb6ca	-0.03121509
185	0x3b5ccbc9	0.0033690801
186	0xbc788f4b	-0.015170882
187	0xbcfa75da	-0.030573774
188	0x3d89e3ff	0.0673294
189	0x3dc69dec	0.0969809
190	0xbc4f22ce	-0.012642575
191	0xbca31564	-0.01990766
192	0xba3a8c58	-0.000711625
193	0xbbc49ea6	-0.0060003577
194	0x3cd8c61a	0.02646165
195	0x3d03241c	0.03201686
196	0xbde75934	-0.11296311
197	0xbd49c520	-0.04926026
198	0x3db3e86d	0.08784566
199	0x3d3a1fc6	0.045440458
200	0xbc5caf26	-0.013469493
201	0xbd967f6e	-0.07348524
202	0xbd9d1910	-0.07670796
203	0xbdfe92da	-0.124303535
204	0xbd65e45a	-0.056125976
205	0x3cc2b2b4	0.023766853
206	0x3d73ff94	0.05956991
207	0x3d033499	0.032032583
208	0xbde8e923	-0.11372592
209	0xbdb9b737	-0.090681486
210	0xbcec66e4	-0.028857656
211	0x3dd2ba17	0.102894
212	0x3c91d92b	0.01780375
213	0xbd29278d	-0.041297484
214	0x3d2616fa	0.040549256
215	0xbd7447ad	-0.059638668
216	0xbd9ff9f8	-0.0781135
217	0x3da96a59	0.08272237
218	0xbd6bd511	-0.057576243
219	0xbcd261b1	-0.025681349
220	0xbdfa140c	-0.12210855
221	0x3d9ed9a4	0.077563554
222	0x3da7077e	0.08155726
223	0x3d276558	0.040868133
224	0xbdb2b6da	-0.087262824
225	0xbdf76186	-0.12079148
226	0xbdc821f7	-0.09772103
227	0x3d8812fc	0.06644246
228	0x3d52ee2d	0.051496673
229	0x3db3948a	0.08768566
230	0x3d3575f8	0.044301957
231	0x3d027669	0.031851206
232	0x3c007268	0.007839777
233	0xbdb60b40	-0.088888645
234	0xbdbe8106	-0.09301953
235	0xbddc1e6e	-0.107479915
236	0x3d5552f8	0.05208108
237	0xbd4f45db	-0.05060373
238	0xbc97b802	-0.018520359
239	0xbd8b604f	-0.06805479
240	0xbc75a7f0	-0.014993653
241	0xbd9fcbf4	-0.07802573
242	0xbd922d3e	-0.071375355
243	0x3d23bbaa	0.039973892
244	0xbd0732a9	-0.033007298
245	0x3d96b414	0.07358566
246	0xbd122701	-0.03568173
247	0xbdab0927	-0.08351355
248	0xbc751e67	-0.014960862
249	0xbd529884	-0.05141498
250	0xbd00d312	-0.031451292
251	0xbdd3370b	-0.10313233
252	0x3d86fe4c	0.06591472
253	0xbd900936	-0.07033007
254	0x3d7a283d	0.06107353
255	0x3d6d2072	0.05789227

model.fc.0.bias f4 [128]
0	0x3aec62d7	0.0018034828
1	0xbdf84068	-0.121216595
2	0x3d0dc786	0.03461411
3	0xbde65335	-0.11246339
4	0xbdc36366	-0.09540443
5	0x3d895fe3	0.06707742
6	0x3da7e3b4	0.08197728
7	0xbd3561cd	-0.044282723
8	0xbd94df79	-0.072691865
9	0x3d837181	0.064181335
10	0xbdf1046e	-0.11768423
11	0x3dc3641c	0.09540579
12	0x3d8ed300	0.06973839
13	0x3d2e5d9a	0.042569734
14	0x3ce5ee25	0.028067658
15	0x3cfd4312	0.03091577
16	0xbdae1887	-0.08500772
17	0xbd47e5e3	-0.04880322
18	0x3d981afd	0.074270226
19	0x3de65b81	0.11247922
20	0xbb81a40d	-0.003956324
21	0x3cf13348	0.029443398
22	0xbdeefd7e	-0.116694435
23	0x3d926e4a	0.07149942
24	0xbd952109	-0.072816916
25	0xbd6d8c2e	-0.057995014
26	0x3dfa7669	0.12229616
27	0xbd097e68	-0.033567816
28	0xbd9936e5	-0.074811734
29	0x3c9cba9f	0.019131957
30	0x3db074b3	0.086160086
31	0x3dcd8808	0.100357115
32	0xbac6a2d0	-0.0015154723
33	0x3da5d2aa	0.080968216
34	0x3d8feaff	0.07027244
35	0xbcf36237	-0.029709918
36	0xbd98a007	-0.07452398
37	0x3b7c4016	0.0038490347
38	0xbd1a3d00	-0.03765583
39	0x3d50caac	0.050974533
40	0xbd97cb79	-0.07411856
41	0xbd972211	-0.073795445
42	0xbda0b33c	-0.07846686
43	0xbda3354c	-0.0796915
44	0x3d94c908	0.07264906
45	0xbdd61b72	-0.104544535
46	0xbc304053	-0.010757524
47	0xbda2f73e	-0.07957314
48	0xbd3e3119	-0.046433542
49	0xbc640989	-0.013918289
50	0x3d8d44d4	0.068978935
51	0x3da172d9	0.078832336
52	0xbd0da6f2	-0.03458304
53	0x3903802c	0.00012540881
54	0xbc36ac8a	-0.011149535
55	0x3dd59142	0.10428096
56	0x3d35a19e	0.044343583
57	0xbd158acc	-0.03650932
58	0x3db32114	0.087465435
59	0xbdaff551	-0.08591712
60	0x3d634a48	0.055490762
61	0x3da9b9be	0.08287381
62	0xbd7f0574	-0.06226106
63	0x3d83433b	0.064093076
64	0x3d37d33b	0.04487918
65	0xbdde1252	-0.10843338
66	0x3d418d16	0.04725369
67	0x3d9cb754	0.076521546
68	0x3c4878bf	0.012235819
69	0xbc64e591	-0.0139707485
70	0xbd2de7fd	-0.04245757
71	0xbdad7041	-0.08468676
72	0x3d242177	0.040070977
73	0xbddf6245	-0.10907415
74	0xbdb54ce9	-0.0885256
75	0xbd078e89	-0.033094916
76	0xbddee6fa	-0.10883899
77	0x3dea2cc3	0.11434319
78	0xbcd94246	-0.02652086
79	0xbd5113a9	-0.05104414
80	0x3cebc912	0.028782401
81	0x3d33f1f4	0.043931916
82	0x3dc0f540	0.09421778
83	0xbd52d51c	-0.05147277
84	0xbb1148c5	-0.0022168618
85	0xbdbeaaad	-0.093098976
86	0xbdba5358	-0.09097928
87	0xbd5df1f1	-0.05418581
88	0x3c6b4d90	0.014361754
89	0xbd055624	-0.032552853
90	0xbd16e28f	-0.036837157
91	0x3d3bbaec	0.04583256
92	0x3ce025a6	0.027361702
93	0x3d8f535e	0.06998323
94	0x3d84d28e	0.064854726
95	0x3d5cdc37	0.05392095
96	0xbd6bf6ed	-0.057608534
97	0x3d6f7c7e	0.058468334
98	0xbdf4a3bb	-0.119452916
99	0x3d274e93	0.04084642
100	0xbda2714c	-0.07931766
101	0x3d0709f4	0.032968476
102	0xbdf81265	-0.121128835
103	0xbc78e0b8	-0.015190296
104	0x3d721ddb	0.059110504
105	0xbd8e1c06	-0.06938939
106	0x3da2fbaf	0.07958161
107	0xbd020913	-0.031746935
108	0x3de4893c	0.11158988
109	0x3dd477cc	0.10374412
110	0xbda7d27c	-0.081944436
111	0xbccf4224	-0.025300093
112	0xbc5c51d6	-0.013447246
113	0xbd361c35	-0.044460494
114	0x3d0806e7	0.033209708
115	0xbde3c930	-0.11122358
116	0xbda3b5be	-0.07993649
117	0xbc6456e4	-0.013936732
118	0xbde3a1b2	-0.11114825
119	0xbdeaf84f	-0.11473142
120	0x3d3c1b4c	0.04592447
121	0xbdc46bcd	-0.09590874
122	0x3da2ad3c	0.07943198
123	0xbd8f9717	-0.0701124
124	0x38eedf2c	0.000113902934
125	0x3d83fefa	0.06445117
126	0xbdf33408	-0.118751585
127	0xbdcfdf76	-0.10150044

model.fc.2.weight f4 [64, 128]
0	0x3bd95e52	0.0066335583
1	0xbd09e5f9	-0.033666585
2	0x3d314270	0.04327625
3	0x3cfb828d	0.0307019
4	0x3cc9eaed	0.024648154
5	0x3d457714	0.048209265
6	0x3da8ea8a	0.0824786
7	0x3c3e9ced	0.011634094
8	0x3d8719b6	0.06596701
9	0xbd506892	-0.050880976
10	0x3d8a0908	0.06740004
11	0xbc3d09b5	-0.011537959
12	0x3d47b304	0.048754707
13	0xbd9cda30	-0.076588035
14	0xbd781f79	-0.06057689
15	0xbd8d39af	-0.06895768
16	0x3d4cc3ff	0.049991604
17	0xbbc9eadc	-0.0061620306
18	0xbd9ccee9	-0.076566525
19	0x3dc8554a	0.097818926
20	0x3cc4bbe9	0.024015384
21	0x3dbb71ef	0.091525905
22	0x3c61650f	0.013757004
23	0x3cabfda5	0.02099497
24	0x3d593dc4	0.05303742
25	0xbd8eb72a	-0.069685295
26	0x3db9044c	0.09034023
27	0xbd36ca82	-0.04462672
28	0x3c53360b	0.012891303
29	0xbd7c70b4	-0.06163092
30	0xbd3baf62	-0.045821555
31	0x3d86fce5	0.065912046
32	0xbb9b33c9	-0.004736398
33	0xbc84813b	-0.016174903
34	0x3d87d42f	0.06632268
35	0x3daf66b1	0.08564509
36	0xbdb9a83e	-0.09065293
37	0xbbe5005a	-0.0069885673
38	0x3c2856a6	0.010274565
39	0x3da29ff6	0.079406664
40	0xbcf402c3	-0.029786473
41	0xbc98ecae	-0.018667545
42	0xbd70d4c4	-0.05879666
43	0x3c9cd5b8	0.019144878
44	0x3cce1523	0.025156563
45	0xbcbfa617	-0.023394627
46	0xbc9a8f07	-0.018867029
47	0xbd936087	-0.071961455
48	0xbd1bf290	-0.038073123
49	0xbcd7369e	-0.02627116
50	0x3d0c6e58	0.03428492
51	0x3d2699d5	0.04067405
52	0x3d430636	0.047613345
53	0xbd9a409a	-0.07531853
54	0xbc31611a	-0.0108263735
55	0xbc69410e	-0.014236702
56	0x3dc00eef	0.09377848
57	0x3d318609	0.043340717
58	0xbda1ab52	-0.07894005
59	0xbd70f70b	-0.05882935
60	0xbd8a7b7e	-0.067618355
61	0xbc936bcc	-0.017995737
62	0xbd71ce93	-0.059034895
63	0x3cee0311	0.029054197
64	0xbcf5b54b	-0.029993674
65	0xbd3694e4	-0.044575587
66	0x3afc967e	0.0019270924
67	0xbcfc0eab	-0.030768713
68	0x3d5b7d2a	0.053586163
69	0x3db4a9e4	0.088214666
70	0xbdb20a85	-0.08693413
71	0x3d36cd6b	0.044629496
72	0x3bb8bafc	0.0056375246
73	0x3d549772	0.051902242
74	0xbd014276	-0.031557523
75	0x3b7c5015	0.003849988
76	0xbbd46eeb	-0.006482949
77	0x3ce8eeeb	0.028434237
78	0x3d677539	0.056508277
79	0x3d30d0fe	0.04316806
80	0x3b4c5e88	0.0031184275
81	0xbd811dd3	-0.06304517
82	0xbd875c61	-0.06609417
83	0xbd1bef02	-0.038069732
84	0xbda9e067	-0.082947545
85	0x3da582c0	0.08081579
86	0xbd073044	-0.033005014
87	0xbd515227	-0.051103737
88	0xbd33c116	-0.043885313
89	0x3d3a9cb8	0.045559615
90	0xbd800573	-0.06251039
91	0xbd8ad0f8	-0.06778139
92	0xbd7ef93d	-0.06224941
93	0x3c472800	0.012155533
94	0xbc59e587	-0.0132993525
95	0xbdb0f9af	-0.08641373
96	0xbd79e114	-0.061005667
97	0xbd9c827c	-0.076420754
98	0x3ca24d2a	0.019812185
99	0x3d56f817	0.05248269
100	0x3bd2e084	0.0064354558
101	0xbc88b37d	-0.01668715
102	0xbd425b1b	-0.047450166
103	0x3caa42dd	0.020783836
104	0xbcaa85e3	-0.020815795
105	0xbc360645	-0.011109893
106	0xbcd146c6	-0.025546443
107	0x3a7308c6	0.00092710217
108	0x3cc5d346	0.024148595
109	0x3d6e54be	0.058186285
110	0x3da6b99e	0.081408724
111	0xbc973ea1	-0.018462481
112	0x3bd71602	0.006563903
113	0xbd5b071a	-0.05347357
114	0xbdac115c	-0.084017485
115	0x3da9f2b3	0.08298244
116	0x3c887b82	0.016660456
117	0xbd47a1e6	-0.048738383
118	0x3d14f8a6	0.036369942
119	0x3d283971	0.041070405
120	0x3d16a5c7	0.03677919
121	0x3d415c18	0.047206968
122	0xbc03a16a	-0.00803409
123	0xbd5fb46b	-0.05461542
124	0xbda3f389	-0.08005435
125	0x3d9e27a7	0.07722407
126	0x3d62f4f8	0.0554094
127	0xbd8045af	-0.06263291
128	0x3da398ea	0.079881504
129	0xbdb31643	-0.087444805
130	0x3d895a16	0.06706636
131	0x3d415003	0.047195446
132	0x3d846a76	0.06465618
133	0x3d222c1a	0.03959284
134	0xbd2b5b31	-0.041835014
135	0xbd4f5610	-0.050619185
136	0x3cf2bffd	0.029632563
137	0x3cb348a4	0.021885224
138	0x3daa4f25	0.08315877
139	0x3c2a57c8	0.010396905
140	0x3d36cc25	0.04462828
141	0xbd2fec08	-0.042949706
142	0xbca22f7f	-0.019798039
143	0x3d770dd4	0.060315922
144	0x3c5cd34c	0.0134781115
145	0x3d9d62fc	0.076848954
146	0xbdabcd3e	-0.08388756
147	0xbd623bc6	-0.055232786
148	0x3cc199e7	0.023632957
149	0xbad806ee	-0.0016481557
150	0xbd85b261	-0.06528164
151	0x3d412bf5	0.04716106
152	0xbba89893	-0.0051451414
153	0x3c752963	0.014963481
154	0x3c487617	0.012235186
155	0xbd70a12a	-0.058747448
156	0xbd8a01d0	-0.06738627
157	0xbda13ae4	-0.078725606
158	0x3d9ad6cb	0.075605
159	0xbd0d4610	-0.034490645
160	0x3dc069b8	0.09395164
161	0xbca6929c	-0.02033358
162	0x3cabea7d	0.020985836
163	0x3dadd0a5	0.084870614
164	0xbd06e141	-0.032929663
165	0xbdac582e	-0.084152564
166	0x3b3885f9	0.0028156026
167	0xbd60311f	-0.054734346
168	0x3d3faf4a	0.046798028
169	0x3d29671a	0.04135809
170	0x3d82773f	0.06370401
171	0xbbc79e43	-0.0060918643
172	0xbd926fcd	-0.071502306
173	0xbdba9ee9	-0.09112341
174	0xbd87ae48	-0.066250384
175	0x3d916b0e	0.07100497
176	0xbc928dd7	-0.0178899
177	0x3b3f3d47	0.0029180811
178	0xbc9bff33	-0.019042587
179	0xbd276c0c	-0.040874526
180	0x3d9f72cb	0.07785567
181	0xbcf72aea	-0.03017183
182	0xbd2e88c3	-0.042610895
183	0x3d9d6f7f	0.07687282
184	0x3d322fbd	0.043502558
185	0x3d1db50b	0.038502734
186	0x3d8012f8	0.06253618
187	0xbd7b2e7d	-0.06132363
188	0x3cfbdfa8	0.030746296
189	0xbd04f8dc	-0.032463893
190	0x3c420892	0.011842864
191	0x3d2baa0b	0.041910212
192	0xbcd6c9b0	-0.026219219
193	0x3daa5905	0.083177604
194	0x3be95098	0.007120203
195	0x3d4ce399	0.05002174
196	0x3c909746	0.017650258
197	0xbd9c243c	-0.07624099
198	0xbd64cd0f	-0.05585962
199	0xbd8de644	-0.06928685
200	0x3c4faa6b	0.012674908
201	0xbd702a6f	-0.058634218
202	0xbdadec37	-0.0849232
203	0x3bb4c939	0.0055171517
204	0xbda0c74f	-0.07850515
205	0xbd729cca	-0.059231557
206	0xbd4c1df8	-0.049833268
207	0x3d0d8a39	0.034555648
208	0x3d966fbc	0.073455304
209	0x3d1e925a	0.03871379
210	0xbd645aa7	-0.055750515
211	0x3d9196a9	0.07108814
212	0x3db070db	0.086152755
213	0xbcc0a2dd	-0.02351516
214	0x3d909684	0.070599586
215	0x3cbcfe9d	0.023070628
216	0xbd612bdc	-0.05497347
217	0xbcc69685	-0.024241695
218	0xbd84dcff	-0.06487464
219	0x3d3e6e42	0.04649187
220	0x3d08f859	0.033439968
221	0xbdd14123	-0.10217502
222	0xbd0b5cf3	-0.03402419
223	0x3b653335	0.0034973149
224	0x3da65ecd	0.081235506
225	0xbd2c9347	-0.042132642
226	0x3c0e44d2	0.0086834
227	0x3a88969f	0.0010420865
228	0xbd509d18	-0.050931066
229	0xbcfa76b5	-0.030574182
230	0xbcf79e10	-0.030226737
231	0xbd214396	-0.039371096
232	0xbd05abe6	-0.03263464
233	0x3c6b9af0	0.014380202
234	0x3bea0488	0.0071416534
235	0xbd14a624	-0.036291257
236	0x3d5d4887	0.054024246
237	0x3d5ab273	0.05339284
238	0xbc3aeedc	-0.011409488
239	0xbc309743	-0.010778251
240	0xbd9f9f18	-0.077940166
241	0xbd7dd810	-0.06197363
242	0xbbf8213a	-0.0075723203
243	0xbc4870e1	-0.012233944
244	0x3d500058	0.050781578
245	0xbd116429	-0.03549591
246	0xbd070ba4	-0.032970086
247	0x3c4208a1	0.011842878
248	0x3dbd33a3	0.092383645
249	0x3d6e3ab9	0.05816147
250	0xbd331f42	-0.04373098
251	0xbbbb9e30	-0.0057256445
252	0xbc6135d1	-0.013745741
253	0xbc5d42de	-0.013504712
254	0x3d18b543	0.03728224
255	0xbd141c81	-0.036159996

model.fc.2.bias f4 [64]
0	0x3d5e56c8	0.05428198
1	0x3d8bf7ca	0.068343714
2	0xbd605b90	-0.05477482
3	0xbd87b520	-0.06626344
4	0x3d911391	0.0708381
5	0x3da85b61	0.08220554
6	0x3d30fb6b	0.04320852
7	0x3d15ebe7	0.036601927
8	0xbca8dadc	-0.020612173
9	0x3d07f49c	0.033192262
10	0xbd36cf78	-0.04463145
11	0xbb8cdd66	-0.0042988537
12	0x3da2c95c	0.079485625
13	0xbd610036	-0.05493184
14	0xbd988578	-0.07447332
15	0xbbd53c56	-0.0065074367
16	0x3d325d54	0.043546036
17	0xbdae24e4	-0.0850313
18	0x3d5b240a	0.053501166
19	0x3b9aa14a	0.004718934
20	0x3c3910d1	0.011295513
21	0x3d6a14b3	0.057148647
22	0x3d33abef	0.04386514
23	0xbbaa28fa	-0.005192873
24	0xbdaa3742	-0.08311321
25	0x3d981bd9	0.074271865
26	0xbce6bd5e	-0.02816647
27	0xbd4b2292	-0.049593516
28	0x3cef228b	0.029191276
29	0x3d7b6619	0.061376665
30	0x3c393f41	0.011306585
31	0xbd5346e0	-0.051581264
32	0xbda24027	-0.07922392
33	0x3d1b6edf	0.03794753
34	0x3cf7d8b8	0.030254707
35	0x3d3b5bd0	0.045741856
36	0x3db7d9cd	0.08977089
37	0xbd4624da	-0.04837499
38	0x3ccd8453	0.025087511
39	0x3db55131	0.08853377
40	0xbaa4d94f	-0.001257697
41	0xbd0fa717	-0.03507146
42	0xbd8b1904	-0.06791881
43	0xb981726d	-0.0002469005
44	0xbd2b899a	-0.041879274
45	0xbd6ed4fe	-0.058308594
46	0xbdab09bc	-0.08351466
47	0x3d130ca5	0.03590073
48	0xbc83b233	-0.016076183
49	0x3d0e012c	0.034669086
50	0x3d4c13aa	0.04982344
51	0xbdb15e95	-0.08660618
52	0xbd0349eb	-0.032052916
53	0x3da256aa	0.07926686
54	0xbc96273c	-0.018329255
55	0x3d739942	0.05947233
56	0xbd9db879	-0.07701201
57	0x3da5a00a	0.08087166
58	0x3d1c0781	0.038093094
59	0xbd7a90a6	-0.061173104
60	0x3cb12d21	0.021627964
61	0x3d6ad98f	0.057336386
62	0x3d3ef523	0.0466205
63	0x3c725134	0.014789868

model.fc.3.weight f4 [64]
0	0x3f800d33	1.0004028
1	0x3f7e0427	0.99225086
2	0x3f80470e	1.0021684
3	0x3f83ffd5	1.0312449
4	0x3f7d41d5	0.98928577
5	0x3f7e75bd	0.99398404
6	0x3f819b98	1.0125608
7	0x3f81541f	1.0103797
8	0x3f7c8879	0.9864574
9	0x3f81a274	1.0127702
10	0x3f7f65d9	0.9976478
11	0x3f8230fa	1.0171196
12	0x3f7e1942	0.9925729
13	0x3f7d3915	0.98915225
14	0x3f811de6	1.0087249
15	0x3f801aec	1.0008216
16	0x3f8061f2	1.002989
17	0x3f81fe06	1.0155647
18	0x3f7e4cee	0.99336135
19	0x3f830167	1.0234803
20	0x3f7ce1f4	0.9878228
21	0x3f7ba306	0.9829563
22	0x3f80b7b6	1.0056064
23	0x3f8015e6	1.0006683
24	0x3f8183ad	1.0118309
25	0x3f8107be	1.0080488
26	0x3f80a9a4	1.005177
27	0x3f7f46ab	0.99717206
28	0x3f7f9d4a	0.9984938
29	0x3f80e7d6	1.0070751
30	0x3f7f2669	0.99667984
31	0x3f80e8c3	1.0071033
32	0x3f7d09b9	0.9884296
33	0x3f80cbff	1.0062255
34	0x3f7e00c0	0.99219894
35	0x3f8197e5	1.012448
36	0x3f7e3bf1	0.99310213
37	0x3f8219a1	1.0164071
38	0x3f7ab879	0.9793773
39	0x3f7d4b39	0.98942906
40	0x3f8288e7	1.0198029
41	0x3f7d287b	0.98889893
42	0x3f7ee861	0.9957333
43	0x3f7c77cf	0.98620313
44	0x3f81f32c	1.0152335
45	0x3f7dd06f	0.9914617
46	0x3f7d3a3b	0.9891698
47	0x3f7b9e17	0.982881
48	0x3f7fb21e	0.9988116
49	0x3f7ed4d1	0.9954348
50	0x3f7d52a6	0.98954237
51	0x3f7b086a	0.98059714
52	0x3f8121cf	1.0088443
53	0x3f7d951c	0.9905565
54	0x3f813ae4	1.0096097
55	0x3f818f6b	1.0121893
56	0x3f7efd47	0.9960522
57	0x3f818710	1.0119343
58	0x3f7b3d59	0.98140484
59	0x3f801e9a	1.0009339
60	0x3f804776	1.0021808
61	0x3f81d489	1.0142986
62	0x3f809cda	1.0047867
63	0x3f7f3cac	0.9970195

model.fc.3.bias f4 [64]
0	0xbab23b2e	-0.0013597959
1	0xbb511fc6	-0.0031909808
2	0x3987e8a2	0.00025922531
3	0x3d05050e	0.032475524
4	0x3ada77e2	0.0016667808
5	0xbc0fca49	-0.008776256
6	0x3cc09947	0.023510588
7	0xbc333bb1	-0.0109395245
8	0xbc7a20e0	-0.015266627
9	0x3a995de7	0.0011700959
10	0xbad05618	-0.0015894799
11	0x3c10b3d7	0.00883194
12	0xbbe52fbb	-0.0069942153
13	0xbc5d79a7	-0.013517774
14	0x3b7635dd	0.0037568726
15	0x3c582e8e	0.013194693
16	0x3c3c6293	0.011498111
17	0x3c734270	0.014847383
18	0xbafff935	-0.0019529226
19	0x3cb43390	0.021997243
20	0xbcb1cda9	-0.021704512
21	0xbc814a02	-0.01578236
22	0xbb9ec98e	-0.0048458045
23	0x3ca7f06b	0.020500382
24	0x3b985a1a	0.004649413
25	0xba9374d8	-0.0011250032
26	0x38f796d0	0.00011805969
27	0xbae1ce46	-0.0017227612
28	0xbc34f987	-0.01104582
29	0xbaf94400	-0.0019017458
30	0xbb06c8af	-0.0020566394
31	0x3b3f8472	0.002922323
32	0xbccef077	-0.025261147
33	0xba96b045	-0.0011496624
34	0xbc123949	-0.008924791
35	0xbaf925ea	-0.0019008492
36	0xbbf4855c	-0.0074621867
37	0x3c0cfdc8	0.008605428
38	0xbc295e50	-0.010337427
39	0xbc0c9559	-0.008580529
40	0x3c46c37d	0.012131569
41	0xba83b410	-0.001004817
42	0xb90b3199	-0.0001327455
43	0xbca4bb78	-0.020108923
44	0x3c145b24	0.009054933
45	0xba129988	-0.0005592336
46	0xbbae474c	-0.005318558
47	0xbc52a216	-0.012856027
48	0xbb72edb3	-0.003706795
49	0xbc54b1c3	-0.012981835
50	0xbc10cb9c	-0.008837607
51	0xbcde229d	-0.027116114
52	0x3c8ade68	0.016951755
53	0xbc065aaa	-0.008200327
54	0xbbebc387	-0.0071949395
55	0x3bd9388b	0.006629055
56	0xbb9eb50f	-0.004843361
57	0x3c0a0f0a	0.008426437
58	0xbbf326c9	-0.007420395
59	0x3c329212	0.010899084
60	0x3bb6ce45	0.0055787885
61	0x3c0a92d4	0.008457858
62	0x3b3c2ee4	0.0028714472
63	0xbb9a23fc	-0.0047039967

model.fc.3.running_mean f4 [64]
0	0x3cb6ec59	0.022329496
1	0x3c29836a	0.010346273
2	0xbd659f85	-0.056060333
3	0xbe2d932f	-0.16950677
4	0x3cfe0746	0.031009328
5	0x3e34782b	0.17623965
6	0x3ce29723	0.027659958
7	0x3d823f50	0.06359732
8	0x3cbd03c0	0.023073077
9	0xbd7902fe	-0.06079387
10	0xbd113ddf	-0.035459395
11	0xbd29ede3	-0.041486632
12	0x3e375838	0.17904747
13	0xbe03ae02	-0.12859347
14	0xbdfb1ac0	-0.122609615
15	0xbd2d9831	-0.04238147
16	0xbd390f9a	-0.045180894
17	0xbe2fca0b	-0.17166917
18	0x3e2566ea	0.1615254
19	0x3d987c10	0.07445538
20	0xbd9b12bf	-0.07571935
21	0x3def6de8	0.11690885
22	0x3d8495bc	0.06473872
23	0x3d7b5e06	0.061368965
24	0xbdc8e8f5	-0.09810058
25	0xbd34bece	-0.044127278
26	0xbddb74cf	-0.10715639
27	0xbb2bffa8	-0.0026244912
28	0xbd54f182	-0.051988132
29	0x3e215adf	0.15757321
30	0x3c92a7a0	0.017902195
31	0xbdf46acb	-0.11934432
32	0x3d2a559d	0.041585553
33	0x3e2a58de	0.16635463
34	0x3ba48de8	0.0050217994
35	0xbdfcb04d	-0.12338314
36	0x3d952172	0.0728177
37	0xbe4c5046	-0.19952497
38	0x3d39a65e	0.045324676
39	0x3e37260d	0.17885609
40	0xbd8e1ad5	-0.069387116
41	0x3dbbfc3d	0.0917897
42	0xbe52a1cd	-0.20569535
43	0x3e0b3906	0.13595971
44	0xbe034c8a	-0.12822166
45	0xbd689c5f	-0.056789752
46	0xbe1c7854	-0.15280277
47	0x3e2b0cb0	0.16704059
48	0xbd996f4a	-0.0749193
49	0xbc68890c	-0.014192831
50	0x3e087e7b	0.13329498
51	0xbd099db6	-0.03359767
52	0xbc086cfd	-0.008326766
53	0x3d774e58	0.06037745
54	0x3afce968	0.0019295635
55	0x3e3780d0	0.17920232
56	0xbd5b7f58	-0.05358824
57	0x3d37e9ec	0.04490082
58	0xbde01254	-0.10940996
59	0xbcde9f2f	-0.027175514
60	0xbcde470e	-0.02713349
61	0x3cf21289	0.029549854
62	0x3d8dad7d	0.06917856
63	0x3cedbc1a	0.029020358

model.fc.3.running_var f4 [64]
0	0x3d84692d	0.06465373
1	0x3dbeb9f0	0.093128085
2	0x3ddec18d	0.10876761
3	0x3dd4107c	0.10354707
4	0x3de23c3c	0.11046645
5	0x3d13475d	0.03595673
6	0x3e193f6e	0.14965603
7	0x3d2c3cc6	0.042050146
8	0x3daafa33	0.08348503
9	0x3e53b4f3	0.20674495
10	0x3d6a699d	0.057229627
11	0x3d79ca59	0.06098399
12	0x3db807bd	0.08985851
13	0x3e6827dc	0.22671455
14	0x3d6d565a	0.05794368
15	0x3d9cafc5	0.07650713
16	0x3de2f636	0.11082117
17	0x3d090365	0.033450503
18	0x3daf487d	0.08558748
19	0x3dfd484e	0.12367307
20	0x3d967a97	0.07347601
21	0x3dcf9227	0.10135298
22	0x3dfad452	0.12247528
23	0x3d54fb84	0.051997676
24	0x3dd2709e	0.10275386
25	0x3de75f73	0.11297502
26	0x3d4a0f9a	0.049331285
27	0x3df8a0a0	0.12140012
28	0x3d879e00	0.06621933
29	0x3d407bc5	0.046993036
30	0x3d945aba	0.07243867
31	0x3d8c45cf	0.068492524
32	0x3d7a27e3	0.061073195
33	0x3e8c6d5b	0.27427182
34	0x3df60c8d	0.120141126
35	0x3d4e377a	0.050345875
36	0x3e55f14a	0.20892826
37	0x3db38a98	0.08766669
38	0x3e0102d6	0.12598738
39	0x3de12ba4	0.10994652
40	0x3d69c597	0.057073202
41	0x3d878abd	0.06618259
42	0x3d8e9081	0.06961156
43	0x3da5f744	0.08103803
44	0x3d6fa841	0.05851007
45	0x3dce97b3	0.10087528
46	0x3e36f8bc	0.17868322
47	0x3dd0f3ed	0.10202775
48	0x3d7b2931	0.06131858
49	0x3de9f4c2	0.11423637
50	0x3d9ce3c2	0.07660629
51	0x3df3b17b	0.11899086
52	0x3dcc6540	0.099802494
53	0x3da8f871	0.082505114
54	0x3d1a5331	0.037676994
55	0x3d8db935	0.06920091
56	0x3dfa452d	0.122202255
57	0x3dd91fee	0.10601793
58	0x3e092d8f	0.13396285
59	0x3d89ebbf	0.06734418
60	0x3e09c06d	0.13452311
61	0x3d68fde7	0.056882765
62	0x3d8a6a01	0.067585
63	0x3dbffb44	0.09374097

model.fc.6.weight f4 [32, 64]
0	0xbd465cc4	-0.048428312
1	0xbc9006fc	-0.017581455
2	0xbdb9d61c	-0.09074041
3	0x3e160c8f	0.14653228
4	0x3d21af43	0.039473783
5	0x3cf28d08	0.029608265
6	0xbdcf0468	-0.10108262
7	0xbdab9630	-0.08378255
8	0xbc8a92d3	-0.016915714
9	0x3da959b0	0.0826906
10	0x3dbcf70e	0.092268094
11	0xbd38eaf8	-0.04514596
12	0x3d7c92da	0.061663486
13	0xbd0b9f75	-0.034087617
14	0xbcb50d1b	-0.022100976
15	0x3e08aa38	0.13346183
16	0x3b06b4f8	0.0020554643
17	0x3e1daf81	0.1539898
18	0xbde9d5eb	-0.11417755
19	0x3cbd6199	0.023117827
20	0xbd712e54	-0.058882073
21	0x3dc1d1d5	0.094638504
22	0x3dac8fa7	0.08425837
23	0x3d1abc20	0.037777066
24	0x3d14b567	0.03630581
25	0xbdc8c960	-0.09804034
26	0xbcc24f60	-0.02371949
27	0x3da0bd93	0.078486584
28	0xbd6c8051	-0.05773956
29	0x3c0caa8c	0.008585583
30	0x3d3ea79a	0.046546556
31	0xbdedce99	-0.11611671
32	0xbd64e365	-0.055880923
33	0xbdb3d6f4	-0.087812334
34	0xbe02be10	-0.12767816
35	0xbd579cae	-0.052639656
36	0x3c4e7321	0.012600691
37	0x3cdf1c48	0.027235165
38	0x3d9ae57a	0.075633004
39	0x3ca85278	0.020547137
40	0xbd667ecf	-0.056273278
41	0xbdc89269	-0.097935505
42	0x3dad5964	0.084643155
43	0x3cc932f2	0.024560425
44	0x3d88549e	0.066567644
45	0xbde18f15	-0.11013619
46	0xbda877c1	-0.08225966
47	0xbc08f999	-0.00836029
48	0x3dc4bec1	0.09606696
49	0xbdc60812	-0.09669508
50	0xbd8c7d9a	-0.06859894
51	0xbdacbc30	-0.084343314
52	0x3cdf5d6f	0.027266232
53	0x3d200d68	0.039075285
54	0xbd3fe645	-0.04685046
55	0x3dbeea4f	0.093220346
56	0xbda7ed5f	-0.08199572
57	0x3b6f8bc9	0.0036551824
58	0xbd866c84	-0.065636665
59	0xbc7a0625	-0.015260254
60	0xbcd4961b	-0.025950482
61	0xbcd1d642	-0.025614861
62	0x3dfacc18	0.12245959
63	0xbde50c9a	-0.11184044
64	0xbd259eb2	-0.040434547
65	0xbc916f40	-0.017753243
66	0xbd437e07	-0.04772761
67	0x3dcf3145	0.10116819
68	0x3d4afe37	0.049558844
69	0x3dcad47a	0.09903808
70	0x3ddc33ba	0.107520536
71	0xbc9db926	-0.019253325
72	0x3d9a7e28	0.07543594
73	0xbca38d3f	-0.019964812
74	0x3daf537a	0.08560844
75	0x3d1cb1d7	0.03825554
76	0x3d6c5a39	0.05770323
77	0x3d32d6b7	0.0436618
78	0xbd8119e8	-0.06303769
79	0x3dcb4673	0.099255465
80	0x3dda9f41	0.106749065
81	0xbd489959	-0.04897437
82	0xbd0f3789	-0.03496507
83	0xbde54480	-0.11194706
84	0x3d922e17	0.07137697
85	0xbdc5e506	-0.096628234
86	0xbde3c38d	-0.11121283
87	0x3dc1d0d0	0.09463656
88	0x3d5349aa	0.051583923
89	0x3ddd3c72	0.10802545
90	0xbdebe0ae	-0.115174636
91	0xbd9474c4	-0.07248834
92	0xbd0ac547	-0.033879545
93	0x3dc07ecb	0.09399184
94	0xbdb8d581	-0.09025098
95	0xbdd0daac	-0.10197958
96	0xbd29ebc9	-0.041484628
97	0xbd5fd55d	-0.05464684
98	0x3de9bb00	0.114126205
99	0x3d2fbab3	0.04290266
100	0xbd8e42a1	-0.06946302
101	0xbd143959	-0.036187503
102	0xbbcdbf35	-0.006278897
103	0xbd9ad976	-0.07561009
104	0xbde15026	-0.11001615
105	0x3dda6675	0.106640734
106	0xbd9aea94	-0.075642735
107	0x3d9047a8	0.07044917
108	0xbd11099a	-0.035409547
109	0xbd906733	-0.07050934
110	0xbd563b23	-0.05230249
111	0xbd785c1b	-0.060634714
112	0xbd9435a7	-0.07236796
113	0xbda5b443	-0.08091023
114	0x3ba370b6	0.0049878014
115	0xbd9c3a0a	-0.076282576
116	0x3def84fe	0.11695288
117	0xbde29862	-0.11064221
118	0xbca10187	-0.019654049
119	0x3da1625e	0.0788009
120	0xbdaaf828	-0.08348113
121	0xbd226276	-0.03964468
122	0xbdad320d	-0.08456812
123	0xbe02c7c4	-0.12771517
124	0x3dac46e8	0.08411962
125	0x3d4ee998	0.05051574
126	0x3a9f4616	0.0012151625
127	0x3dc4c05a	0.09607001
128	0xbccec1c3	-0.025238877
129	0xbdf6ed87	-0.120570235
130	0xbdf0f744	-0.11765912
131	0xbbd0eaf0	-0.006375663
132	0xbda2f6f3	-0.07957258
133	0x3de1d6a4	0.110272676
134	0xbb260f43	-0.0025338687
135	0x3db6b7cd	0.08921776
136	0xbce6a361	-0.028154077
137	0xbda88750	-0.08228934
138	0xbe0f25eb	-0.13979308
139	0x3dfab3db	0.12241336
140	0xbde86c5f	-0.11348795
141	0x3dc36011	0.095398076
142	0xbd132f4b	-0.035933774
143	0xbdd077cb	-0.10179099
144	0xbd320956	-0.043465935
145	0x3d4d827a	0.05017326
146	0x3db94ec3	0.09048226
147	0xbddafb8b	-0.10692509
148	0xbdbb537b	-0.09146782
149	0x3c9b3b83	0.018949276
150	0x3d1ee6ea	0.038794436
151	0xbdbc84f0	-0.09205043
152	0x3d8c09bd	0.06837795
153	0xbcbbf1d1	-0.022942455
154	0xbde13d5d	-0.10998032
155	0x3d71cbbf	0.059032198
156	0xbdb11da4	-0.086482316
157	0x3b812710	0.003941424
158	0xbd03e117	-0.032197084
159	0xbd6191c3	-0.05507065
160	0xbcbd7b48	-0.023130074
161	0xbde9a412	-0.11408247
162	0x3deee49f	0.116647
163	0xbdac41b1	-0.08410967
164	0x3d9a3f81	0.07531644
165	0x3cc9d0c4	0.02463568
166	0xbc6d06bd	-0.014466939
167	0xbaa6c280	-0.001272276
168	0xbd8fbb3f	-0.07018136
169	0xbcee361e	-0.02907854
170	0x3dd24523	0.10267093
171	0xbd52416f	-0.051331934
172	0x3d6b3a46	0.05742862
173	0xbde103ab	-0.10987028
174	0xbd76044e	-0.0600627
175	0x3d8f85fa	0.07007976
176	0x3d8157fd	0.063156106
177	0xbdf5506c	-0.1197823
178	0xbd9b9a39	-0.07597775
179	0x3d933282	0.07187368
180	0xbb5ba11c	-0.0033512777
181	0x3dfc06b3	0.12305965
182	0xbdf044db	-0.11731883
183	0x3c7ae9d1	0.015314535
184	0xbe07fc1d	-0.13279767
185	0x3d0c867a	0.034307934
186	0xbd034642	-0.032049425
187	0xbcdc2c88	-0.026876703
188	0x3c226e27	0.009913958
189	0x3bec44ff	0.0072103734
190	0xbdbc316e	-0.091891155
191	0xbd96b07e	-0.07357882
192	0x3d93f632	0.072246924
193	0xbd762e25	-0.0601026
194	0x3cb778fd	0.022396559
195	0xbc3f4fdf	-0.011676758
196	0x3da3b04d	0.07992611
197	0xbcfa237f	-0.030534504
198	0x3db004eb	0.08594688
199	0x3cbc95fa	0.023020733
200	0xbd7b3b4b	-0.061335843
201	0x3d2690b2	0.040665336
202	0xbd9f5cab	-0.07781347
203	0x3d18f9d1	0.03734762
204	0xbd3900fd	-0.045166958
205	0x3cab5f2a	0.020919401
206	0xbd1d5fcb	-0.038421433
207	0xbc6f4dfb	-0.014605994
208	0xbde08622	-0.10963084
209	0xbd604144	-0.054749742
210	0x3df1cd77	0.118067674
211	0x3dbf12d9	0.09329767
212	0xbd618d57	-0.055066433
213	0x3cf1b601	0.029505732
214	0x3cfa191f	0.030529557
215	0x3db34d27	0.0875495
216	0x3d9c4bb0	0.07631624
217	0xbd64267f	-0.055700775
218	0xbd02c664	-0.03192748
219	0x3df78b6d	0.1208714
220	0xba986915	-0.0011627997
221	0xbd931c31	-0.071831115
222	0xbd3a3da9	-0.04546896
223	0xbd949aaa	-0.07256062
224	0xbddfe770	-0.10932815
225	0xbd877882	-0.06614782
226	0x3e09eebf	0.1346998
227	0xbc866066	-0.016403388
228	0x3dbcab9a	0.09212418
229	0xbe0319f6	-0.12802872
230	0x3da22a23	0.07918193
231	0x3d49ce30	0.0492689
232	0xbde53610	-0.11191952
233	0xbc57eaf3	-0.013178575
234	0x3cd90861	0.026493253
235	0xbdcb9aae	-0.09941612
236	0x3d47ebaf	0.04880875
237	0x3d809172	0.062777415
238	0xbde8f58c	-0.11374959
239	0xbcf22114	-0.029556789
240	0x3d934ef3	0.07192793
241	0x39d2ec0f	0.000402302
242	0xbd662c5f	-0.05619466
243	0x3d0f5029	0.034988556
244	0xbdb591f1	-0.08865727
245	0x3d016630	0.031591594
246	0xbdad87a3	-0.08473136
247	0x3d7507ef	0.05982202
248	0xbd42f3b2	-0.047595687
249	0xbcbb16a4	-0.022837944
250	0xbd7da8d1	-0.061928574
251	0x3daa1237	0.083042555
252	0xbde68d3c	-0.11257407
253	0x3da5a2bb	0.08087679
254	0x3d84dcce	0.06487428
255	0xbda60708	-0.0810681

model.fc.6.bias f4 [32]
0	0x3d3f5afa	0.04671762
1	0xbcfb9b84	-0.030713804
2	0x3de0b07e	0.10971163
3	0x3da44455	0.08020846
4	0x3d04355f	0.03227746
5	0xbd2a187f	-0.041527268
6	0xbd9cc083	-0.07653906
7	0x3de6ea5b	0.112751685
8	0x38d8f6f4	0.00010345681
9	0xbc84006e	-0.016113486
10	0xba83b363	-0.0010047968
11	0xbd8515c5	-0.06498293
12	0x3d681d5b	0.05666862
13	0x3cd6308c	0.026146196
14	0x3cc241a9	0.02371295
15	0xbc9be0cd	-0.019028092
16	0x3d296487	0.041355636
17	0x3dd44e31	0.10366476
18	0x3d8ecc24	0.069725305
19	0x3de7acd1	0.11312259
20	0x3d1755bf	0.03694701
21	0x3d831b5c	0.06401703
22	0xbd2637a7	-0.040580418
23	0xbdb2f2e9	-0.08737738
24	0x3d802134	0.06256333
25	0x3c893691	0.016749652
26	0xbafd7166	-0.0019336164
27	0x3c9db690	0.019252092
28	0x3d42b10d	0.04753213
29	0xbb3be340	-0.0028669387
30	0x3d624997	0.055245962
31	0x3def9b01	0.116994865

model.fc.7.weight f4 [32]
0	0x3f80c00b	1.0058607
1	0x3f814ed6	1.0102184
2	0x3f7f9feb	0.9985339
3	0x3f7c19b1	0.984767
4	0x3f85afdd	1.0444294
5	0x3f8064f8	1.0030813
6	0x3f85fa0c	1.0466933
7	0x3f83a9d2	1.02862
8	0x3f7e1e2b	0.9926478
9	0x3f7e6f80	0.99388885
10	0x3f83e0d3	1.0302986
11	0x3f7d76f1	0.99009615
12	0x3f7e1dab	0.9926402
13	0x3f7896a6	0.9710487
14	0x3f80efab	1.0073141
15	0x3f7d889c	0.99036574
16	0x3f7a0574	0.9766457
17	0x3f7d9d0a	0.9906775
18	0x3f7e978a	0.9944998
19	0x3f8219b8	1.0164099
20	0x3f7f3d19	0.997026
21	0x3f794725	0.9737418
22	0x3f826c9d	1.0189396
23	0x3f7e6092	0.99366105
24	0x3f81130c	1.0083938
25	0x3f7fe022	0.99951375
26	0x3f7df91b	0.9920823
27	0x3f78e5e5	0.9722579
28	0x3f7d6335	0.989795
29	0x3f81d42c	1.0142875
30	0x3f7c7b59	0.98625714
31	0x3f7c3d73	0.98531264

model.fc.7.bias f4 [32]
0	0x3c893242	0.016747598
1	0xba4048c4	-0.00073350617
2	0x3ba6cbb6	0.005090202
3	0xbc1415d5	-0.009038408
4	0x3cfad686	0.03061987
5	0x3cc27444	0.02373708
6	0x3ced2eca	0.028952975
7	0x3cc01d38	0.023451433
8	0xbbfe9a6d	-0.007769874
9	0x3c2b2ecf	0.010448172
10	0x3c9218a7	0.01783402
11	0xbba87f8a	-0.005142157
12	0xbc88ee08	-0.016715065
13	0xbc5e9ab7	-0.013586692
14	0x3c9affa1	0.018920721
15	0xbbbb8b48	-0.0057233907
16	0xbcae67c3	-0.021289712
17	0xbb208547	-0.0024493502
18	0xbb32e8a0	-0.00272993
19	0x3c5d2cd5	0.013499458
20	0xbb81f2ec	-0.003965726
21	0xbc7ecd1a	-0.01555183
22	0x3b3c5cea	0.0028741905
23	0x3a306819	0.0006729379
24	0x3b811f70	0.003940515
25	0x3c5ebcfb	0.013594861
26	0xbb893a9e	-0.004187896
27	0xbc467b60	-0.012114376
28	0xbb54f215	-0.0032492925
29	0x3ca55d04	0.020185955
30	0x3c3d792d	0.011564535
31	0xbc2b3432	-0.010449456

model.fc.7.running_mean f4 [32]
0	0xbc8d8eb3	-0.017279958
1	0xbdd8d582	-0.105875984
2	0xbe32bb44	-0.17454249
3	0x3cc59583	0.024119144
4	0xbe1f6fda	-0.15570012
5	0x3e0e9b00	0.13926315
6	0xbe31d4a3	-0.1736627
7	0x3cbafe6b	0.022826394
8	0xbea86899	-0.32892302
9	0xbe0750b7	-0.13214384
10	0xbe319530	-0.17342067
11	0x3e1a72cc	0.15082854
12	0xbddaade2	-0.10677697
13	0xbdf39255	-0.11893145
14	0x3b572b14	0.0032832073
15	0xbe09bb10	-0.13450265
16	0xbc06ae91	-0.008220331
17	0x3d5e4db6	0.05427333
18	0xbe2f5549	-0.17122377
19	0x3e740837	0.23831259
20	0x3d8e6e03	0.06954577
21	0xbcab350f	-0.020899324
22	0xbd5ea406	-0.054355644
23	0xbe085475	-0.13313468
24	0xbdf4a587	-0.11945634
25	0x3de53738	0.11192173
26	0x3e190176	0.14941964
27	0xbc83ad56	-0.016073864
28	0x3d2fdafb	0.042933445
29	0xbe83e807	-0.2576296
30	0xbc3634b7	-0.011120967
31	0x3e0ebbaa	0.13938776

model.fc.7.running_var f4 [32]
0	0x3e8208d1	0.2539735
1	0x3ec161ae	0.37769836
2	0x3ee80a20	0.45320225
3	0x3e03f778	0.1288737
4	0x3ecdfc45	0.4023153
5	0x3f15896e	0.58412826
6	0x3f0ebb82	0.55754864
7	0x3e6a939b	0.2290787
8	0x3ee47058	0.4461696
9	0x3e7d45cb	0.24733655
10	0x3e9fa663	0.3118163
11	0x3f04e2a0	0.519083
12	0x3e5f5151	0.21808363
13	0x3e24a117	0.16077076
14	0x3ea17a32	0.3153854
15	0x3f005619	0.50131375
16	0x3ea70880	0.32623672
17	0x3eb80849	0.3594382
18	0x3e8712e6	0.26381606
19	0x3ef505ec	0.4785608
20	0x3e42ce4a	0.19024006
21	0x3e000241	0.1250086
22	0x3e84ab40	0.25911903
23	0x3e2b5d82	0.16734889
24	0x3e2c8610	0.16848016
25	0x3e127123	0.1430097
26	0x3eb88e8f	0.36046264
27	0x3e17b7ba	0.1481618
28	0x3e5bca49	0.21463884
29	0x3f045ef0	0.51707363
30	0x3e953347	0.29140684
31	0x3e712fe6	0.23553428

model.fc.10.weight f4 [16, 32]
0	0xbce50536	-0.027956586
1	0xbcc5a573	-0.024126744
2	0xbd8eb4cb	-0.06968077
3	0x3dc176b8	0.09446472
4	0xbd2eb0ac	-0.042648956
5	0x3cbeddf1	0.02329919
6	0xbdccc171	-0.099978335
7	0x3da00aa2	0.07814528
8	0xbded8adb	-0.1159875
9	0x3bc5f24f	0.0060408483
10	0xbe031e2d	-0.1280448
11	0xbe295387	-0.1653577
12	0x3c218811	0.009859101
13	0x3d21ddb4	0.039518073
14	0xbe134b4d	-0.14384194
15	0xbdee4669	-0.116345234
16	0x3ddb976f	0.10722243
17	0xbca4d2bb	-0.020120015
18	0x3decc58c	0.115611166
19	0xbde77c18	-0.11302966
20	0xbcfc731d	-0.030816609
21	0x3da528b8	0.08064407
22	0xbe341bdb	-0.17588751
23	0x3d3587cf	0.04431897
24	0xbde9b7a5	-0.114119805
25	0xbdc195e0	-0.094524145
26	0x3d270f0e	0.04078584
27	0x3dbbb92d	0.09166179
28	0xbdd5b666	-0.1043518
29	0x3d1163eb	0.03549568
30	0x3ae12414	0.001717689
31	0xbe05d54c	-0.13069648
32	0xbd3db95c	-0.04631935
33	0x3ce105b2	0.027468536
34	0xbd9ca33c	-0.07648322
35	0xbdb4dd3d	-0.0883126
36	0x3e26ba98	0.16282117
37	0xbdfa4b2d	-0.1222137
38	0xbb8f8390	-0.004379697
39	0x3e0eeb64	0.13956982
40	0xbd3f9d01	-0.04678059
41	0xbe03d3e5	-0.128738
42	0xbde42d96	-0.11141507
43	0xbe16a57e	-0.14711568
44	0x3dfb4a2d	0.12270007
45	0xbda0265b	-0.07819816
46	0x3d537499	0.051624868
47	0x3d8d0406	0.06885533
48	0xbd73bced	-0.059506346
49	0x3daab5b2	0.08335437
50	0x3e1fcace	0.15604708
51	0xbd0ad226	-0.03389182
52	0x3da28eda	0.07937403
53	0xbdb809e8	-0.089862645
54	0x3deafc19	0.11473865
55	0xbe2e94e6	-0.17048988
56	0xbd810791	-0.06300271
57	0x3c7b2e5f	0.01533088
58	0xbdf70e87	-0.12063318
59	0xbe07db3b	-0.13267224
60	0x3db9622b	0.09051927
61	0xbe0cbcd1	-0.13743903
62	0x3cbf6645	0.023364196
63	0x3e14196d	0.14462824
64	0xbe27bdf9	-0.16381063
65	0x3e359dec	0.17736024
66	0x3e0c4d08	0.1370126
67	0xbd64d6b4	-0.05586882
68	0x3d8c5257	0.068516426
69	0xbd847365	-0.06467322
70	0xbdb0438e	-0.08606635
71	0x3dc091db	0.0940282
72	0x3d1e40f2	0.038636155
73	0x3d71b725	0.05901255
74	0x3e10dce5	0.14146765
75	0xbcf4b949	-0.029873507
76	0xbc9d3056	-0.019188087
77	0xbe19457c	-0.14967912
78	0xbe3076e7	-0.17232858
79	0xbdf623a7	-0.12018519
80	0xbdf22531	-0.118235
81	0x3e0e7250	0.13910794
82	0xbd81f717	-0.06345957
83	0xbd234c00	-0.0398674
84	0x3e0384af	0.12843584
85	0xbdadfd49	-0.08495576
86	0xbb3d785c	-0.002891085
87	0xbe22ae61	-0.15886833
88	0x3df9740d	0.12180338
89	0xbe32b082	-0.17450145
90	0x3dcf3e81	0.101193435
91	0xbc964f90	-0.018348485
92	0xbda0f332	-0.07858886
93	0xbd071851	-0.032982174
94	0xbded4ddd	-0.11587117
95	0xbd87413b	-0.066042386
96	0x3e05fe7b	0.13085358
97	0x3e1000dd	0.1406283
98	0x3db4dce6	0.088311955
99	0xbd670230	-0.05639857
100	0xbd7c1541	-0.061543707
101	0x3d8a5bd6	0.067557976
102	0xbe3867b0	-0.18008304
103	0xbe353459	-0.1769575
104	0xbe47a057	-0.19494759
105	0x3e34d31a	0.17658654
106	0x3d9f391c	0.077745646
107	0xbda29b0d	-0.0793973
108	0xbd6906b5	-0.056891162
109	0x3d71ac6d	0.05900233
110	0x3d9ae443	0.07563069
111	0x3caeb7a8	0.021327808
112	0x3da0c736	0.078504965
113	0x3cbf3138	0.023338899
114	0xbd43c26a	-0.04779283
115	0x3d5fc8a3	0.0546347
116	0x3dcf6be1	0.10127998
117	0xbd126835	-0.03574391
118	0x3d50771c	0.05089484
119	0xbe17aca2	-0.14811948
120	0xbe19a78c	-0.1500532
121	0xbe27dbe5	-0.16392477
122	0x3d4cba41	0.049982313
123	0xbdb88713	-0.09010138
124	0x3da22f30	0.079191566
125	0x39f8f530	0.00047484925
126	0x3d6de864	0.058082953
127	0xbe0c1e67	-0.13683473
128	0x3e1d66f8	0.1537131
129	0xbe2cc3f5	-0.16871627
130	0xbdbed18d	-0.093173124
131	0xbb9c0dc8	-0.004762385
132	0x3c55bb91	0.013045208
133	0xbc475faf	-0.012168809
134	0xbe4f6ed6	-0.20257124
135	0xbe133d7a	-0.1437892
136	0xbde9cb4f	-0.11415731
137	0x3e1d5505	0.15364464
138	0x3d60d2bd	0.054888476
139	0x3dd2802b	0.10278352
140	0xbd93cdf7	-0.07217019
141	0x3de33ea9	0.11095936
142	0xbd696caa	-0.056988396
143	0x3d8a14b6	0.067422315
144	0x3d8251c2	0.0636325
145	0x3e16dc13	0.14732389
146	0x3d1073f9	0.03526685
147	0xbc6ad565	-0.014333104
148	0x3df93663	0.121685766
149	0x3df3df36	0.119078085
150	0xbdee2480	-0.116280556
151	0xbd8f7000	-0.07003784
152	0x3e0da772	0.13833407
153	0xbd4fba86	-0.050714992
154	0xbda792cf	-0.081822984
155	0xbd0cb85a	-0.0343555
156	0x3da53681	0.080670364
157	0xbe392eec	-0.18084306
158	0x3db51db3	0.08843555
159	0xbc648f39	-0.013950163
160	0x3d8a8e8e	0.067654714
161	0xbe0954ed	-0.13411303
162	0xbba49198	-0.005022239
163	0x3dfbd4d2	0.12296452
164	0xbda0795c	-0.078356475
165	0xbb98ada8	-0.0046593733
166	0x3cdf84aa	0.027284939
167	0xbdb27481	-0.087136276
168	0x3e28400f	0.16430686
169	0xbe3f7424	-0.18696648
170	0x3b7fe00f	0.0039043461
171	0xbd235413	-0.0398751
172	0x3e1f0559	0.15529384
173	0x3dceec2d	0.10103641
174	0xbe1984cb	-0.14992063
175	0xbd55c6cd	-0.052191544
176	0x3e0d29a4	0.13785416
177	0x3c940256	0.01806752
178	0x3dc65804	0.096847564
179	0xbe2540ad	-0.16137953
180	0xbd4c5ed4	-0.049895123
181	0xbe446d65	-0.19182356
182	0xbe15094e	-0.1455433
183	0xbdec6598	-0.11542815
184	0xbc84d280	-0.016213655
185	0x3c365087	0.011127598
186	0xbe3b97a4	-0.18319565
187	0xbd752c1e	-0.059856527
188	0xbc5816b5	-0.0131890075
189	0x3e32ef5b	0.1747412
190	0xbd538873	-0.0516438
191	0xbdf04551	-0.11731971
192	0x3d1469df	0.03623378
193	0xbb0a64f8	-0.002111731
194	0xbb907649	-0.004408632
195	0xbd40f297	-0.04710635
196	0xbce525fc	-0.027972214
197	0x3e0e107b	0.13873474
198	0xbe1e718d	-0.15473004
199	0x3d7b3fe6	0.061340235
200	0xbddcf7bb	-0.10789438
201	0x3d5a0b17	0.053233232
202	0xbd90ae73	-0.070645235
203	0xbe0a42cd	-0.13502045
204	0x3d9d7514	0.076883465
205	0x3d200eb1	0.03907651
206	0x3d9e2430	0.07721746
207	0xbd4758f2	-0.04866881
208	0x3d2b68f6	0.041848145
209	0x3df415d2	0.119182244
210	0x3e0c291c	0.13687557
211	0x3def2662	0.11677243
212	0xbd5dcaf6	-0.054148637
213	0xbd994b7e	-0.07485102
214	0x3ce9f3f0	0.028558701
215	0xbdfe58ce	-0.12419282
216	0xbcd818e4	-0.026379056
217	0x3c017e1a	0.0079036
218	0x3d3dfc1d	0.046383012
219	0xbc75bc96	-0.014998576
220	0x3d89301a	0.06698628
221	0xbe348e75	-0.17632468
222	0x3d18f2a7	0.037340786
223	0xbde60cd7	-0.11232918
224	0xbe22497f	-0.15848349
225	0x3d2565d1	0.040380303
226	0x3e26debd	0.16295905
227	0x3bf72745	0.007542523
228	0x3db86408	0.090034544
229	0xbd4ce5c8	-0.050023824
230	0x3d0b36df	0.033987876
231	0x3cc93b58	0.02456443
232	0xbd642c25	-0.055706162
233	0x3df7bdb4	0.1209673
234	0xbe156730	-0.14590144
235	0x3d95b6ab	0.07310232
236	0x3dd74c74	0.10512629
237	0xbdc39815	-0.09550492
238	0x3e168049	0.14697374
239	0x3d20aa3e	0.039224856
240	0x3e05d673	0.13070087
241	0x3d9bbffb	0.07604977
242	0xbdbb93cf	-0.091590516
243	0x3db95252	0.090489045
244	0x3e29399b	0.16525881
245	0x3dbee515	0.09321038
246	0x3d1d6aeb	0.038432043
247	0x3cb9be15	0.022673646
248	0xbc122528	-0.008919992
249	0x3e33a914	0.17544967
250	0xbd8fc21a	-0.07019444
251	0x3cf8d7f1	0.030376406
252	0xbc97c44a	-0.018526215
253	0x3e38d0ac	0.18048352
254	0x3e050035	0.1298836
255	0xbe049595	-0.12947686

model.fc.10.bias f4 [16]
0	0xbe1541a7	-0.14575826
1	0x3c5d952b	0.013524334
2	0xbde80fe0	-0.11331153
3	0xbd959753	-0.073042534
4	0x3e2d14d4	0.16902477
5	0xbd760e27	-0.06007209
6	0x3db34d39	0.087549634
7	0x3debb51d	0.11509154
8	0x3e0230f8	0.12713993
9	0x3e14b91d	0.1452374
10	0x3de517a9	0.111861534
11	0x3c9a7054	0.01885239
12	0x3e1baece	0.15203401
13	0x3e2dd0d6	0.16974196
14	0xbdf70166	-0.120608136
15	0x3d181ebd	0.03713869

model.fc.11.weight f4 [16]
0	0x3f7e5bfe	0.9935912
1	0x3f7bf1ee	0.9841603
2	0x3f7733d0	0.96563435
3	0x3f7401b1	0.9531508
4	0x3f829aeb	1.0203527
5	0x3f7da3cf	0.9907808
6	0x3f76c758	0.96397924
7	0x3f74fb41	0.95695883
8	0x3f8076aa	1.0036213
9	0x3f853a33	1.0408386
10	0x3f7c5f1e	0.9858264
11	0x3f75c204	0.9599917
12	0x3f8399eb	1.0281347
13	0x3f874c26	1.0570114
14	0x3f768da7	0.96309894
15	0x3f7f748a	0.997872

model.fc.11.bias f4 [16]
0	0x3ca75522	0.020426337
1	0xbce2838e	-0.02765062
2	0xbc75c954	-0.015001614
3	0xbc3d45d3	-0.011552292
4	0x3d4d1fa3	0.050079
5	0xbcb9c931	-0.022678943
6	0xbd082f42	-0.033248194
7	0xbbdb9b25	-0.0067018443
8	0xbc8faff5	-0.017539958
9	0x3d3f26cd	0.046667863
10	0x3d19ecd4	0.037579373
11	0xbce554ed	-0.027994597
12	0x3c1c5333	0.009541321
13	0x3d64f61a	0.055898763
14	0xbd11da55	-0.03560861
15	0x3bd624fa	0.0065351697

model.fc.11.running_mean f4 [16]
0	0xbec55c5c	-0.38547027
1	0xbd925c79	-0.07146544
2	0xbe72b214	-0.23700744
3	0xbe0b58d1	-0.136081
4	0x3e1f3b08	0.15549862
5	0xbe845a87	-0.25850317
6	0x3d699a6b	0.05703203
7	0x3ed0c1dc	0.40772903
8	0x3d1ff60d	0.03905301
9	0x3dfba179	0.12286658
10	0xbc27a668	-0.010232545
11	0xbce0b7f4	-0.027431466
12	0x3d80a89b	0.06282159
13	0x3e99bd32	0.30027157
14	0x3d10b587	0.035329368
15	0xbe89c4c7	-0.26907942

model.fc.11.running_var f4 [16]
0	0x3e1fc047	0.15600692
1	0x3e6c62d9	0.23084582
2	0x3f0123cd	0.5044525
3	0x3e3eff61	0.18652107
4	0x3ecd938e	0.40151638
5	0x3e337800	0.17526245
6	0x3d94672c	0.07246241
7	0x3e885215	0.26625124
8	0x3e3d0106	0.18457422
9	0x3eb9d3aa	0.362943
10	0x3ef914bd	0.48648635
11	0x3e9e371e	0.30901426
12	0x3e0de005	0.13854988
13	0x3f081508	0.5315709
14	0x3dc201fd	0.094730355
15	0x3e9350b4	0.2877251

model.fc.14.weight f4 [8, 16]
0	0x3e36944b	0.17830007
1	0xbdfca1df	-0.12335562
2	0x3e023390	0.12714982
3	0x3debf743	0.11521771
4	0xbd066e1c	-0.032819852
5	0xbd4bb109	-0.04972938
6	0xbd573d6c	-0.05254881
7	0x3e46e7a3	0.194243
8	0xbe2a009d	-0.16601796
9	0x3e12872f	0.14309381
10	0xbe2ccdaa	-0.1687533
11	0x3e50a38f	0.20374893
12	0xbd7a8f27	-0.061171677
13	0x3dc74772	0.09730424
14	0x3e1acd1f	0.1511731
15	0xbd23966d	-0.03993838
16	0xbc8500ce	-0.016235735
17	0x3e7d6479	0.24745359
18	0x3e7ef213	0.24897031
19	0x3ddf276e	0.108961925
20	0xbc8f7642	-0.017512444
21	0x3cde1653	0.027110254
22	0xbe0f0e9e	-0.1397042
23	0x3e1b06d6	0.15139326
24	0x3de132e5	0.109960355
25	0x3e62e980	0.22159386
26	0xbe2c68a9	-0.168368
27	0x3daf2b81	0.085532196
28	0x3d881150	0.06643927
29	0xbd5a9fc0	-0.053375006
30	0xbcd51599	-0.026011275
31	0x3d2fd3de	0.04292666
32	0xbd92f87e	-0.071763024
33	0x3e7e26b7	0.24819456
34	0xbe4caab4	-0.19986993
35	0xbd0bfe17	-0.034177866
36	0xbdf4ae70	-0.11947334
37	0x3e476462	0.19471887
38	0xbdc027c2	-0.09382583
39	0xbd507b99	-0.050899122
40	0x3e6107e5	0.21975668
41	0xbe3c2d33	-0.18376617
42	0xbda874e5	-0.08225421
43	0x3e68a628	0.22719634
44	0x3e4ededa	0.20202199
45	0xbd67ab0c	-0.056559607
46	0xbd0d4e5b	-0.034498554
47	0xbddf4160	-0.10901141
48	0x3bec5802	0.00721264
49	0x3cabc443	0.020967608
50	0x3defa45a	0.117012694
51	0x3e09e55a	0.13466397
52	0x3e2e7f98	0.1704086
53	0xbd9a0305	-0.07520107
54	0xbe073b03	-0.13206105
55	0x3e034ba8	0.1282183
56	0xbcda6720	-0.026660502
57	0xbe59df74	-0.21276647
58	0x3d81b488	0.06333262
59	0x3e4443f7	0.19166552
60	0xbd844ff8	-0.06460565
61	0xbe87901c	-0.26477134
62	0x3df158a2	0.117844835
63	0x3e4c24d7	0.19935928
64	0xbe33fbf9	-0.17576589
65	0xbe69b3a1	-0.22822429
66	0xbe4dd560	-0.20100927
67	0x3dd1674f	0.10224783
68	0xbd8d178c	-0.06889257
69	0xbe7885b7	-0.24269758
70	0x3b4b5592	0.0031026346
71	0xbde925fe	-0.113841996
72	0xbd8eb36f	-0.06967818
73	0xbe0a3c67	-0.13499604
74	0xbd3096f8	-0.043112725
75	0xbe224c39	-0.15849389
76	0xbd85f10e	-0.06540118
77	0xbe381f14	-0.17980605
78	0xbd0588d9	-0.03260121
79	0xbe0d8f2b	-0.13824145
80	0x3ce30fb4	0.027717449
81	0x3e2e3b07	0.17014705
82	0xbdb49579	-0.08817572
83	0xbc8d098a	-0.017216463
84	0xbd85453e	-0.065073475
85	0xbda6d8df	-0.08146834
86	0xbe1b9e88	-0.15197194
87	0x3dcb3520	0.09922242
88	0xbd448b0d	-0.04798417
89	0x3d502af3	0.05082221
90	0xbd88b075	-0.066742815
91	0xbe035a49	-0.1282741
92	0xbd9d69fa	-0.07686229
93	0x3e3ff5c3	0.18746094
94	0x3e1d219c	0.15344852
95	0xbdaeea63	-0.085407995
96	0x3dc8b1a6	0.09799509
97	0xbe23b20e	-0.15985891
98	0xbd1bc261	-0.03802717
99	0xbe521a34	-0.20517808
100	0xbc02b835	-0.007978489
101	0x3d70eeca	0.058821477
102	0x3e0ffc29	0.14061035
103	0x3d87dc92	0.06633867
104	0x3e07698f	0.13223861
105	0xbdb89156	-0.09012096
106	0x3e86353b	0.26212487
107	0xbe5a50f6	-0.21319947
108	0xbd8b09d3	-0.06788983
109	0xbdb475e6	-0.0881155
110	0x3e147e15	0.14501221
111	0x3d744d7c	0.059644207
112	0x3e82955a	0.2550457
113	0xbe12000c	-0.1425783
114	0x3dd120a6	0.10211305
115	0xbe5a3a7f	-0.21311377
116	0x3d3e963d	0.046529997
117	0xbdb2ebc6	-0.087363765
118	0xbde17ffb	-0.110107385
119	0x3bd02b0f	0.0063527892
120	0x3d67226b	0.056429308
121	0x3e8a47c1	0.2700787
122	0x3e3074b1	0.17232014
123	0x3d2ac951	0.041695897
124	0x3def5e77	0.116879396
125	0x3d818814	0.06324783
126	0xbd0e579a	-0.034751512
127	0xbe2a0fa2	-0.16607526

model.fc.14.bias f4 [8]
0	0xbe4aab42	-0.19791892
1	0x3cd05c5b	0.025434664
2	0xbdd08b82	-0.10182859
3	0x3e6e5cb2	0.23277548
4	0xbdd84d4d	-0.10561619
5	0x3d8cc5d2	0.06873669
6	0xbdfbd49e	-0.12296413
7	0x3e7dec37	0.2479714

model.fc.15.weight f4 [8]
0	0x3f87f0b2	1.0620329
1	0x3f835843	1.026131
2	0x3f7d84a7	0.99030536
3	0x3f8a21bb	1.0791544
4	0x3f89dd2d	1.0770622
5	0x3f8a1aa8	1.0789385
6	0x3f841101	1.0317689
7	0x3f7637ce	0.961789

model.fc.15.bias f4 [8]
0	0x3d349d36	0.04409524
1	0xbcade2e2	-0.02122635
2	0xbd4fb95d	-0.050713886
3	0x3d9ea099	0.07745475
4	0x3d9990d6	0.074983284
5	0x3d976be0	0.073936224
6	0x3d1b6fde	0.03794848
7	0xbd50e533	-0.05099983

model.fc.15.running_mean f4 [8]
0	0xbd96f920	-0.073717356
1	0x3e6a76ff	0.22896956
2	0xbdfbd360	-0.12296176
3	0x3e9897ae	0.29803222
4	0xbf0b2c38	-0.5436435
5	0x3d53f8b2	0.051750846
6	0xbdcde780	-0.10053921
7	0x3ebfe2d9	0.3747776

model.fc.15.running_var f4 [8]
0	0x3e504435	0.20338519
1	0x3e8eb808	0.2787478
2	0x3e45f95f	0.19333409
3	0x3e377c5c	0.17918533
4	0x3eb23ff6	0.34814423
5	0x3dfe6d80	0.12423229
6	0x3e15eadc	0.14640373
7	0x3e7c71eb	0.24652831

model.fc.18.weight f4 [3, 8]
0	0x3e5df45b	0.21675245
1	0x3e853aed	0.2602152
2	0x3e05d1ac	0.13068265
3	0xbdf658a1	-0.12028623
4	0xbe47fd2e	-0.19530174
5	0xbdb8c1e6	-0.09021358
6	0xbebaa151	-0.364512
7	0x3a896b52	0.0010484254
8	0xbe5c4b76	-0.21513161
9	0x3e8bd84e	0.27313465
10	0x3eabb5f0	0.33537245
11	0xbe9688dc	-0.2940129
12	0xbd2df319	-0.042468164
13	0xbeb302d4	-0.34963095
14	0x3df15ca3	0.11785247
15	0x3e684a27	0.22684537
16	0xbe7a17d3	-0.2442315
17	0xbe9e4fb6	-0.3092019
18	0xbddfcd44	-0.10927823
19	0x3ebaf7f0	0.36517286
20	0x3ea6469f	0.32475755
21	0xbe6f8fd4	-0.2339471
22	0x3db90789	0.0903464
23	0xbe9e503c	-0.3092059

model.fc.18.bias f4 [3]
0	0x3ea58d58	0.323344
1	0x3db5c52a	0.08875497
2	0xbda0c7a8	-0.078505814
