MultiClassdiabet/checkpoints/bodyP-epoch=33-val_f1=0.92.ckpt (torch, 724348 bytes, 68 tensors)

model.fc.0.weight f4 [128, 363]
00000000: a1e1 4bbd c487 74bc 8227 eabc 4133 c8bc
00000010: 867d 26bc 4d51 11bd 4d3e d9bc 9b85 57ba
00000020: 0c94 d13c 8d61 7a3c bc19 e9bc 76f8 343d
00000030: 5e40 103d 6417 03bc 5798 c4bc 85c1 b0bc
00000040: 4fc1 3cbd 8635 16bc 3353 86bc 3eb5 3abd
00000050: 52b5 21bc 7a40 5f39 c556 943a 5a59 a6bc
00000060: 4984 27bd e825 213d d94e 263d 772a 463c
00000070: c42e d5bc 5501 a43c 14a0 1e3c 6310 68bc
00000080: 9e2f cd3c a3de 1a3d 337d 35bd 9373 7fbc
00000090: ba3d 97bc 9e26 e6bc 6890 1d3c 9b7b 383d
000000a0: 8534 eb3c ca98 0d3d a836 933c a624 52bd
000000b0: 8f60 45bd e4d5 843c b187 233c a750 e33c
000000c0: f927 5b3c 1193 e8ba fe10 1c3d c7b5 61bd
000000d0: 0795 0fbd 10f7 38bd 81d9 9b3c ab73 05bb
000000e0: be9c 603c 6a8c 3abc 8e4f 6bbd e135 cabc
000000f0: 3502 21bd b964 a0bb 6b15 1b3d b669 30bd
00000100: faa3 2fbd b1cc 45bd 413b b53c 7e4f 633c
00000110: 02b8 8abc 683e fe3c a273 a0b9 d874 613a
00000120: 4764 5dbd f51a 073d 2fed 39bd b9a7 32bd
00000130: fb88 bd3b b2da 653c c0f4 2ebd ee5b 42ba
00000140: c8d1 953b fd33 39bd e784 d4bc d15e 38bd
00000150: e8c1 02bc b472 5fbd 6be2 dd3c 3d26 b13c
00000160: 5a32 4abd 6390 fa3c 8d7d 233c 3453 49bd
00000170: d183 5abd a4cc 42bc 1d7a 6c3c 5b31 853c
00000180: c9ec ea3b c763 f03b 1757 f73c 77d2 ffbc
00000190: 9a26 1cbd 0af8 b7bc 1f07 ff3b f202 f73c
000001a0: 0ca3 dd3c 7f73 163d 12cf 983b 2bf6 173d
000001b0: f219 183d 95c7 c8bc 8233 59bd 1161 d93c
000001c0: f31b 57bd 1e73 10bc c3cc 603b f415 123d
000001d0: e876 52bd bf9e df3c 6e1b 1cbd 5de1 323d
000001e0: 593a 5fbc 0406 df39 c15d 2c3d 4ace c13b
000001f0: c220 eabb 7827 ec3c f036 fbbc 21f3 c8bc
00000200: 88c8 dbbc f372 3b3c 7c93 5ebd 0b10 c23c
00000210: d3aa e23c 4803 303d 029b b83b 3678 163a
00000220: 92b2 e6bc 1a36 56bd 9bcc 9c3c fce4 5dbc
00000230: b961 9b3c 13c3 883c 7b07 9fbc 4eb5 ed3b
00000240: 72d6 15bd 8c77 febc e661 233b 328f b7bc
00000250: 714a 333c 65bc e8bc bcbb 9b3c 7f19 773c
00000260: 501d 633c 96f5 ecb9 b2f1 873c 5fc8 203c
00000270: 287a 43bd d0b6 19bd 3e1b ae3c 3c9a 60bc
00000280: 3d73 283d 6c3e a4bb fa5c b83a 3b2b 25bd
00000290: ab3a 023c a369 80bd 6caf 2c3d e4ad 9d3b
000002a0: 9793 2ebd c2c7 f9bc 4e98 b1bc 0f29 c23b
000002b0: 3099 d63c 196c ac3c e518 e6bc 3a7a 10bd
000002c0: ea45 b73b b135 3b3d de9f c1bb cb70 113d
000002d0: f902 c5bc 977a f7bc c468 89bc 07b7 d8bb
000002e0: 66af 57bd e0f7 8c3c f419 41bd 115b 053c
000002f0: 46cf ca3c 21a1 9e3c 97d0 32bd 8173 debc
00000300: 406b 2f3b 0e78 34bc aa55 52bb 9484 c3bb
00000310: 589f c93b 13b0 16bd 6d83 aabc 0dbb c9bb
00000320: 9101 12bb a594 9b3c 2660 223d 0b40 c33c
00000330: b438 1ebb 59c2 b3bc 7992 f2bc 42bb 97bc
00000340: 4b40 58bb 18e2 41bd 324e d8bc 59c4 15bb
00000350: c84b 1dbc f15a 323c 8614 c9bc 87e7 033d
00000360: 1815 72bc 813c 82bc f419 1dbd 6629 c33c
00000370: 9238 5c3d dba8 073d 73f2 ecbc aab5 86bc
00000380: 3fe0 ac3c a1d0 b83c 118e e63c cc38 d5bc
00000390: 4f73 2a3c a975 30bd 380f 813c 4f50 9d3c
000003a0: 54c6 b43c 7155 7abc 98cb 2bbd cdb2 593d
000003b0: 0e4f 04bd c2a1 57bc 53dc f83c c707 15bd
000003c0: 702a 273d f1e9 813c 285a 00bd b160 59bc
000003d0: db6b 363d f9f5 56bd 5574 193d 0562 0ebd
000003e0: df6b e73c 7741 143d d6ab 243d 7a5d babb
000003f0: e91a 02bd ecac 82bd 0453 2bbd 941d 52bd
-0.049775723 -0.014924947 -0.028583292 -0.024438502 -0.010161763 -0.035477925 -0.026518965 -0.0008221508
0.02558329 0.015282047 -0.028454654 0.044182263 0.035217635 -0.008001182 -0.023998423 -0.021576652
-0.04608279 -0.009168034 -0.016397094 -0.045583002 -0.00986989 0.00021290957 0.0011317363 -0.020306278
-0.04089764 0.03934279 0.04060254 0.012095085 -0.026023276 0.020020166 0.00968172 -0.014164063
0.02504712 0.03780998 -0.044308852 -0.01559152 -0.01846205 -0.028094586 0.009616949 0.045039754
0.028711567 0.03456954 0.017970398 -0.051304482 -0.04818779 0.016215272 0.009981082 0.027748419
0.013376229 -0.0017744025 0.038102143 -0.055104997 -0.035054233 -0.045157492 0.019024612 -0.0020363133
0.013709245 -0.011386016 -0.057448916 -0.024683895 -0.039308745 -0.0048948196 0.037862223 -0.043069564
-0.04288099 -0.048290912 0.022122981 0.013873933 -0.016933445 0.031035617 -0.0003060373 0.000860048
-0.05405071 0.032984693 -0.04539221 -0.043616984 0.0057841516 0.014029192 -0.04271388 -0.0007414211
0.004572127 -0.045215596 -0.025942279 -0.0450123 -0.007980801 -0.05455275 0.027085504 0.021624679
-0.049364425 0.030586427 0.009978664 -0.049151614 -0.053348366 -0.01188961 0.014433411 0.016258886
0.0071693403 0.007336113 0.030192895 -0.031228287 -0.03812275 -0.022457141 0.0077828313 0.030152772
0.027055286 0.03673124 0.0046633566 0.0371 0.03713412 -0.02450923 -0.053027637 0.026535543
-0.05251689 -0.008816509 0.0034301735 0.035665467 -0.05138293 0.027297376 -0.038112096 0.043671954
-0.013624751 0.00042538357 0.0420816 0.005914484 -0.0071450183 0.028827414 -0.030665845 -0.024529995
-0.02682902 0.01144098 -0.05433987 0.02368929 0.027669346 0.04297188 0.0056337127 0.0005739959
-0.02816132 -0.05229769 0.019140532 -0.013543364 0.018967496 0.016694581 -0.019412747 0.007254279
-0.036581464 -0.031062864 0.0024930178 -0.022407148 0.010943041 -0.028410146 0.019010417 0.015081762
0.013861969 -0.00045196404 0.016594741 0.009813397 -0.04772392 -0.03752786 0.021253224 -0.013708647
0.041125525 -0.005012324 0.0014065795 -0.04032443 0.007948558 -0.062701486 0.042159483 0.004811989
-0.04262122 -0.03049076 -0.02167907 0.0059253047 0.026196092 0.021047639 -0.028088043 -0.035272814
0.005593051 0.0457055 -0.00590895 0.03550796 -0.024049269 -0.030209823 -0.016773589 -0.0066136154
-0.052657507 0.01720804 -0.04714389 0.008139388 0.024757039 0.019363942 -0.043655958 -0.027154686
0.0026766807 -0.011014951 -0.0032094517 -0.0059667323 0.0061530285 -0.03678901 -0.020814622 -0.0061563314
-0.0022278766 0.018991778 0.039642476 0.023834249 -0.0024142684 -0.021943258 -0.02961086 -0.018521909
-0.0032997306 -0.04733476 -0.026404474 -0.0022852628 -0.009600587 0.01088594 -0.02454592 0.032203224
-0.014775537 -0.015897991 -0.03835483 0.023823451 0.053764887 0.033120017 -0.028924203 -0.016444046
0.021103023 0.02256042 0.028143914 -0.02602806 0.010403468 -0.04308096 0.015754327 0.019203333
0.022067226 -0.01527916 -0.04194221 0.053149033 -0.032301955 -0.013161125 0.030378496 -0.03638437
0.040811956 0.015858622 -0.03133598 -0.013267682 0.044536453 -0.05248067 0.03746446 -0.034761447
0.02824968 0.036195245 0.040202938 -0.005687413 -0.031763945 -0.063806385 -0.041827217 -0.05129774

model.fc.0.bias f4 [128]
00000000: 5900 9b3c 0978 023d c53c f9bb 3d0e 53bd
00000010: 8b1b e8bc c846 55bd 366f dabb 5392 afbc
00000020: 45b8 2c3d 1ebd fd3b 8227 0fbb 867d afbb
00000030: dd94 60bd 127d 0f3d 7c33 90bd d216 37bd
00000040: af0c 58bb b27d c5bb bcd3 8ebc c98f 1bbd
00000050: 7543 d9bc 8688 af3c 3dfe 8cbd 06b3 a83c
00000060: 6ecd adbb 3b34 af3c 87a7 08bd ef5a d8bb
00000070: c2b0 30bd 1b86 a03b ebac 1b3d f0c4 42bc
00000080: 9b45 92bd b34d 75bd 0e33 a63a 1782 973b
00000090: c78d 2aba 99b6 8c3c 58b2 fb3b 44ca a6ba
000000a0: 07e0 a5bd 90fc 3fbd 00f3 89bd bdd5 3b3d
000000b0: 9724 763a c1ed 2ebd b73f a53b 867e a7bc
000000c0: 7705 143b e279 7b3d b070 303c 9379 a2bc
000000d0: cd10 75bc 44eb 233d 173b 49bd 74f5 53bd
000000e0: 803d 163b c8a8 c2bc 03a5 01bd f357 38bc
000000f0: c0cc 8a3b 44f7 003d 0f1e 8b3c a455 2a3d
00000100: 095e 8fbc 6133 9a3c 60de ccbc 3f8f 08bd
00000110: 02ee de3d 7224 a93c feab 37bd c2cf 24bc
00000120: 2e9f 2a3c 0247 213c e5b1 683c 2c06 bc3c
00000130: 7a4a e4bc 41a0 6fbd c96c 613d 811f 363c
00000140: 3280 50bd 8bfa 153d 45d0 9d3c 54eb d3bb
00000150: 0984 0cbd d8cf f3bc b44f cfbc 77d8 82bc
00000160: 65f3 43bc 677d 35bd 10e6 283c 5519 c9bc
00000170: 2cd3 31bd 3eb5 413d ff1f 5e3c cfd7 43bc
00000180: d801 0ebc 5ed5 d6bb 8270 bdbc 3778 8dbb
00000190: 16a3 2ebd c6ae f03c e50d 0b3d ad9b 013b
000001a0: ec6c 6dbd 41a6 9d3c 4f87 09bd c7f6 ddbc
000001b0: 28f4 023d 68a6 44bd 2434 0d3d c138 1bbd
000001c0: 2718 82bc 251a 603c 9c30 af3d 30d2 313d
000001d0: c2b4 d93b e6bd 003d 2e5b e3bc 35d3 023d
000001e0: 1838 efba 9c13 093c 0568 69bd c6be 683d
000001f0: c2ce 893c ed4f ee3c 572b 82bc 3a56 91bc
0.018921064 0.031852756 -0.0076061212 -0.05152725 -0.028333446 -0.052069455 -0.0066660894 -0.021432078
0.04216792 0.007743492 -0.0021843617 -0.0053555397 -0.054829467 0.035031386 -0.0704107 -0.044699498
-0.0032966544 -0.006026947 -0.017434947 -0.03797892 -0.026521424 0.021427404 -0.068844296 0.020593178
-0.00530403 0.02138721 -0.03336289 -0.006602637 -0.04313732 0.004898799 0.038006704 -0.011887774
-0.071421824 -0.059888553 0.001268001 0.004623662 -0.0006506112 0.017176913 0.0076811723 -0.0012725075
-0.080993704 -0.04687172 -0.06735802 0.045858134 0.00093896076 -0.04270721 0.005042996 -0.020446073
0.0022586265 0.061395533 0.010769054 -0.019833362 -0.014957619 0.04001929 -0.049128618 -0.051747754
0.002292484 -0.023762122 -0.031651508 -0.0112514375 0.004235834 0.03148581 0.016982106 0.04158558
-0.017500894 0.018823327 -0.02500838 -0.033339735 0.1088524 0.020647261 -0.04484176 -0.010059299
0.010413928 0.00984359 0.01420257 0.022952162 -0.027867544 -0.05850244 0.055035386 0.01111591
-0.050903507 0.03661589 0.01926435 -0.0064672623 -0.034305606 -0.029762194 -0.02530656 -0.01597236
-0.011959885 -0.044309046 0.010308757 -0.024548212 -0.04341428 0.047291987 0.013557433 -0.011953308
-0.008667432 -0.006556197 -0.023124937 -0.0043173092 -0.042636 0.029380213 0.033948798 0.0019776628
-0.057965204 0.019244315 -0.033576306 -0.027095212 0.031971127 -0.04801026 0.034473553 -0.03789592
-0.015880657 0.013678108 0.085541934 0.04341334 0.0066438625 0.0314311 -0.027753439 0.031939704
-0.001825097 0.008366492 -0.056983966 0.05682256 0.016822223 0.029090846 -0.015889807 -0.017741311

model.fc.2.weight f4 [64, 128]
00000000: 568a cdbd ca35 723d 49ea 873d 3d99 bcbd
00000010: b728 dd3c aee2 973d e797 9d3b b607 96bd
00000020: 56f7 7a3c 710b c03d 0d31 bb3c 302e a939
00000030: 49ef 1a3d fbd9 343d 2e1e 41bd a420 92bc
00000040: fa22 c33c 3cd0 ccbd 89a2 cabd ed8b ae3d
00000050: 8184 aa3b a897 6c3d 225c 893d 9445 3a3d
00000060: cf65 373c da1f 5b3d b0c7 8939 1b0a d73b
00000070: e977 84bc ae3e 003c eb30 09bd 6aaf a73d
00000080: 0aa9 5a3c 568c e3bd 41f9 263d a073 4e3d
00000090: 9524 883d 846a ddbd dbc7 3c3c a3b3 b33c
000000a0: bd1d 463d fcbd 6bbd aa92 9abd a61d d8bc
000000b0: ec65 acbd ae5b 3d3d cf2e c33d 2a25 363d
000000c0: 1b97 223d 13fa 98bb 6f6d 933d 6688 f5bc
000000d0: 3c2f a0bd ce56 783d 818c a23c 8f62 1abd
000000e0: d044 d0bc 71f7 ee3c 23d1 ebbc 2879 213d
000000f0: 3736 fb3b d26b 353d e3ca 33bc d75e 903a
00000100: 2b32 973c eb28 81bd f0ce a8bd a729 76bd
00000110: 03b3 1c3d ad81 b4bd ec08 abbd b9d7 a93c
00000120: 26c9 2bbd aa83 83bb b1c3 f73c 62de 823d
00000130: 1b5a 583d a955 763d bb65 8f3d dd7c f5bc
00000140: cfdc dbbc adce 983d f16f 3d3a 3ecc e1bc
00000150: 536a cdbc 88da ee3c bb41 7c3d 9aaf eebc
00000160: ca3f fa3c 53f2 76bd 18ba 153d 4a60 7f3d
00000170: c12d 67bd f7dc 633a 5e27 53bd e6d5 493d
00000180: 3461 143c f7be 08bd 6c79 70bd 4551 223d
00000190: 9b38 7dbd 0b7b 963d 06d6 a33b f22e 433d
000001a0: 1afa b4bd 54a6 2a3d 2c3f 03bd 0da7 973c
000001b0: 5e9e 3b3b b405 55bd 8ae7 ae3d f662 563d
000001c0: 0624 243d 2845 193c e67b a3bc 713b 86bd
000001d0: 56b6 5cbd a361 77bd 1a00 423d 0428 a1bd
000001e0: 1b95 4fbd 91f3 0dbb 44fd 2c3d d980 b4bd
000001f0: 9476 4d3b 520b d03c 726a ffba bbaf 2ebd
00000200: fd82 d33c eaf3 c3bc 1b15 9f3d 2dfe 673c
00000210: 8590 be3c ccc4 86bd e90a 4abd 1942 2b3c
00000220: e273 163d cbaf fa3c 03d2 013d b983 94bd
00000230: 2066 a33d 772a 9bbc 66a0 f13c 2a3d 0c3c
00000240: c486 2bbd 173b 933d bed2 81bb 2cbf 02bd
00000250: a084 2b3d 3e59 92bd 664c 793d eddd 16bd
00000260: 6f39 31bd 0bb4 fcbc 6ff7 87bd dd34 b83d
00000270: e1e4 a93d c726 57bd 89fb b9bc e4c4 2abd
00000280: 8aa1 cebb e920 1fbd ba6b b0bd 49b7 9d3d
00000290: 5848 833d 5d83 2e3d 60d3 e0bb 1aa0 73bd
000002a0: 6dd9 d7bb 215f 6bbd 3438 7c3d fc66 68bd
000002b0: c905 1ebd d394 2abc 47a6 7a3d f3b6 be3c
000002c0: 7fc5 a73d 120c 3fbd a4ca 9bbd 8f07 423d
000002d0: 63fb 2dbd 942a d5bd ece9 65bc ea42 713d
000002e0: 7299 463d 79df 95bd 2dbd f3bc a8a0 833d
000002f0: df92 ef3b 783e 2dbd 668e 543d 16ec 663b
00000300: 0ce5 e83c 8641 eabc 8a28 7f3d 60c4 c9bc
00000310: 14e6 b3bc aa71 0e3d 314c 973d 339b c4bd
00000320: 9688 41bb d8a5 1cbd 6941 2c3d fb5b 04bd
00000330: a930 423d 6c3a f2bc bb3f 11bd 912d 01bb
00000340: ed21 33b9 4357 52bd cbab 83bd 359b 963d
00000350: f194 f43c 7f7d 583d 6e95 b73d 58f0 493d
00000360: 6ff3 243d 41ae 753d 9877 14bd 3cf0 cbbc
00000370: e40e 4e3c 6996 9b3d 7ddf 41bd 47c8 4abd
00000380: 2f9b 613d 7068 46bd c5c2 a2bd 9407 b7bc
00000390: 42d3 743d b09e a4bd 6346 383c acc0 0cbd
000003a0: 41f8 2c3c a010 94bd e770 d5bc ba6b 25bd
000003b0: 6e22 64bd 841b d03d b04f 33bb c4a7 243d
000003c0: 056c 06bd 8e4d 9bbd 7025 a9bd 7db1 a43d
000003d0: b654 1bbc 2db6 e03d 0dec 3abd 31f4 e9bc
000003e0: 3f41 b23c 45cd 95bd a3df 8f3b 05c1 2cbd
000003f0: 4479 753d abc1 b13c a81a 45bd 5225 1e3c
-0.10036151 0.05913333 0.06636483 -0.092089154 0.026996953 0.074162826 0.004809368 -0.073256895
0.015317759 0.09377182 0.022850538 0.00032268604 0.037825856 0.044153195 -0.047147922 -0.01783783
0.023820389 -0.10000655 -0.09894282 0.085227825 0.005203784 0.05776182 0.06707026 0.04547651
0.011193707 0.053497173 0.00026279455 0.006562484 -0.016170459 0.007827444 -0.033493917 0.081877545
0.013345966 -0.11110751 0.04076505 0.050403237 0.066476025 -0.10811332 0.011522259 0.021936243
0.048368204 -0.05755423 -0.07547505 -0.026381325 -0.084178776 0.04623001 0.095304124 0.044469036
0.039694887 -0.004668483 0.07198607 -0.029972266 -0.07821509 0.06062966 0.019842388 -0.03769165
-0.025423437 0.029170724 -0.028786248 0.039422184 0.007666375 0.04429228 -0.010973665 0.0011014593
0.01845654 -0.063066326 -0.08242595 -0.060098317 0.038256656 -0.08813796 -0.08351311 0.020732747
-0.041939877 -0.0040134983 0.03024468 0.063900724 0.052820306 0.060140286 0.070018254 -0.029966766
-0.026838688 0.07461295 0.00072264584 -0.02756321 -0.025075113 0.029156938 0.061586123 -0.029136468
0.030547995 -0.060289692 0.036554426 0.062347688 -0.05644012 0.0008692289 -0.051551215 0.049276255
0.009056378 -0.033385243 -0.058709547 0.039628286 -0.06182156 0.07347687 0.004999879 0.047652192
-0.088367656 0.04166253 -0.032042667 0.018512273 0.002862833 -0.052007392 0.08540256 0.05234047
0.040073417 0.009354867 -0.01995654 -0.06554306 -0.053884827 -0.060395848 0.047363378 -0.078689605
-0.050679307 -0.002166007 0.04223372 -0.08813638 0.0031351196 0.025396023 -0.0019486679 -0.04264806
0.025819296 -0.023920018 0.077676974 0.014159721 0.023262272 -0.06580505 -0.04932681 0.010452771
0.03673161 0.030601403 0.031694423 -0.072516866 0.07978463 -0.018941147 0.02949543 0.0085595045
-0.04187657 0.07189005 -0.00396189 -0.031920597 0.041874528 -0.07145928 0.060863875 -0.03683274
-0.043267664 -0.03084757 -0.06638991 0.08994458 0.08295608 -0.052527215 -0.02270295 -0.041691676
-0.006305878 -0.038849745 -0.08614297 0.077009745 0.06410283 0.042605747 -0.0068611354 -0.059478857
-0.0065871985 -0.05746377 0.061577037 -0.05673884 -0.038579736 -0.010411459 0.06119373 0.023280596
0.08191966 -0.04664237 -0.0760701 0.04737049 -0.04247607 -0.10408512 -0.014032822 0.058901705
0.04848618 -0.07318015 -0.029753292 0.06427127 0.0073112096 -0.042295903 0.051893614 0.0035235933
0.02842953 -0.028595697 0.06229452 -0.024629772 -0.021960296 0.034776367 0.07387579 -0.095999144
-0.0029530874 -0.0382441 0.042054567 -0.032314282 0.047409687 -0.029568873 -0.03546117 -0.0019710998
-0.00017083409 -0.05135275 -0.06429251 0.07353822 0.029856177 0.052854057 0.08964048 0.049301475
0.04027122 0.059980635 -0.036246866 -0.024894826 0.012576792 0.07597048 -0.047332276 -0.049507406
0.055079635 -0.048439443 -0.079473056 -0.02234248 0.059771784 -0.0803808 0.01124725 -0.034363434
0.010557235 -0.072297335 -0.026054813 -0.04038594 -0.055696897 0.10161498 -0.002736073 0.040199056
-0.03281786 -0.07583152 -0.08259094 0.08041666 -0.009480646 0.10972247 -0.04563527 -0.028558822
0.021759627 -0.07314543 0.0043906732 -0.042176265 0.0599301 0.021698793 -0.048121125 0.009652453

model.fc.2.bias f4 [64]
00000000: 92ac 613d 27d6 a13c 9805 dabc c638 92bd
00000010: b96f 303d 9bc8 943d c70f 16bd 5ea9 5c3d
00000020: d1bd 823d e38c fb3c f890 b1bc 6f1a 7e3c
00000030: a995 d93a 717f 80bd c00c 3a3d 2d4c 46bd
00000040: d2d4 5fbd 3a0d e5bc b673 28bd 9316 b13a
00000050: e538 643c 5b1f 873d 0686 6f3d 2584 98bd
00000060: 6cda a0bd 76d4 3e3c 7554 a3bd 2d8a 81bd
00000070: 6f06 853d 6267 f13c e586 8f3c bb85 2cbd
00000080: 58ac 17bd 6bf1 4b3d c192 8f3d 50e9 58bc
00000090: 0e75 b1bd 30f0 4b3c cb0e 4b3d e993 adbd
000000a0: c3e0 84bd 4258 08bd 0ef8 603d a4a5 4d3d
000000b0: 6bed 583d a43f 4db9 f4f9 9cbd 0eb5 513d
000000c0: 28b5 6d3d 296e 50bb 72bf 51bc ccd7 7b3d
000000d0: 0842 a7bb 97e6 fd3c 123d acbc ea68 803d
000000e0: 8a99 94bc 524f 643d 11da 143d 84e7 903d
000000f0: 2db6 82bd 2689 2a3d 0b1f cc3c a078 17bc
0.055096216 0.019755436 -0.026613995 -0.07139735 0.043075297 0.07264825 -0.03663614 0.05387246
0.06383861 0.030706828 -0.021675572 0.015509232 0.0016600388 -0.062743075 0.045422316 -0.04841249
-0.05464632 -0.027960408 -0.041125976 0.0013510756 0.01392958 0.065977775 0.058477424 -0.074470796
-0.07854161 0.011647334 -0.07975093 -0.06325183 0.06495368 0.029468242 0.017520377 -0.042119723
-0.037029594 0.04979078 0.07010413 -0.01323922 -0.086649045 0.012447402 0.049574655 -0.08475477
-0.064881824 -0.033287294 0.054924063 0.050206795 0.052960794 -0.00019574031 -0.07664862 0.051198058
0.058034092 -0.0031803942 -0.012801992 0.061485097 -0.005104307 0.030993743 -0.021025214 0.06270011
-0.01813962 0.05573971 0.036340777 0.07075408 -0.063824035 0.0416347 0.024917146 -0.009245068

model.fc.3.weight f4 [64]
00000000: fdf3 773f cbd4 783f 7c67 7b3f 4da1 813f
00000010: 70e8 823f 9580 7b3f 191a 793f 1a00 793f
00000020: ed8c 7a3f 7d28 7b3f a907 823f fa1d 803f
00000030: ed67 7d3f 532b 813f b45b 863f 4ae3 793f
00000040: d24e 813f 2f14 813f ea86 793f a420 843f
00000050: d233 793f 16ee 813f 7aa9 803f 7b57 7f3f
00000060: ad7e 783f 4413 803f 50b5 803f c27b 813f
00000070: 25e0 813f 5fb3 803f 80d7 7c3f 8017 823f
00000080: 9612 833f 1855 823f 35e4 853f a001 7c3f
00000090: de06 853f 3999 7d3f 97cb 7f3f d19c 813f
000000a0: c3c3 773f bf18 7c3f 27d8 773f 0bf0 7c3f
000000b0: 983a 733f b52a 7b3f f643 803f c5bb 7f3f
000000c0: 40bf 863f 9615 823f 0299 853f 68c2 803f
000000d0: d4d8 823f ea24 763f c1bc 833f a350 7f3f
000000e0: e2bf 813f 7a35 773f 4674 7b3f 63aa 7f3f
000000f0: e33a 7e3f 4cc6 873f 0d3c 853f 5c4c 7a3f
0.9685667 0.97199696 0.9820478 1.012735 1.0227184 0.98243076 0.97305447 0.9726578
0.97871286 0.98108655 1.0158588 1.0009148 0.98986703 1.0091347 1.0496736 0.9761244
1.0102179 1.0084285 0.9747149 1.0322461 0.97344697 1.0150783 1.005172 0.9974286
0.9706829 1.0005879 1.0055332 1.0115893 1.0146528 1.005474 0.98766327 1.0163422
1.0240047 1.0182219 1.0460268 0.9843998 1.0392721 0.99061924 0.9992003 1.0125982
0.96783084 0.9847526 0.968142 0.98803777 0.9501128 0.9811204 1.002074 0.9989589
1.0527115 1.0162838 1.0437319 1.0059328 1.0222421 0.96150076 1.0291978 0.99732417
1.0136683 0.96565974 0.98224294 0.99869365 0.99308604 1.060739 1.0408951 0.97772765

model.fc.3.bias f4 [64]
00000000: 9780 f8bc 1328 14bd bee2 963a 91af 0ebc
00000010: 8958 ac3b f16a a3bc 15d6 aebc 3916 9bbc
00000020: 23db c9bc f198 f2bc 15fc cf3b 2c39 7f3b
00000030: d9d0 26bd ecfa 0f3c 2842 503b efc6 52bb
00000040: b3c9 e5bc 777b b53c b74b 8abc 7f68 323c
00000050: 4e68 e7bc d31a 953c ddf0 07bc 2d97 43bd
00000060: b40d 29bd 01b7 443a 5702 db3c 9928 c6bc
00000070: 6bf8 ef3b 8b60 4239 fb76 e3bc e4cd 233c
00000080: bcb6 0f3c 79c7 aabb 85d8 d33c 6407 afbb
00000090: 3673 9e3a b6c8 81ba b8f0 9ebc 7a2a c3bc
000000a0: caac 49bd 10d4 13b9 9e71 c4bc 35d5 fabc
000000b0: 4d41 49bd 6d62 983c dd6c d43b 4276 143b
000000c0: 05b9 593c bb8c b73a 8f3d 343c f506 0ebd
000000d0: 9215 593b 85d9 24bd 52f6 193d b9a1 3bbc
000000e0: 4e8a 853c 1f0b 46bc eb2c 8dbb 7c2b 7dbc
000000f0: 3c7d c3bb f469 1e3c 5a81 1d3d 2e23 03bd
-0.030334754 -0.03617103 0.0011511666 -0.0087088505 0.0052595777 -0.019948455 -0.021342317 -0.018931495
-0.024640625 -0.029613944 0.006347189 0.003894399 -0.040726516 0.008787852 0.0031777713 -0.003216203
-0.02805028 0.0221536 -0.016881807 0.010889172 -0.028247979 0.018201267 -0.008297172 -0.047751594
-0.041272834 0.00075040763 0.026734514 -0.02418928 0.007323315 0.00018537247 -0.027766695 0.009997819
0.008771595 -0.0052117673 0.02586008 -0.005341457 0.0012088779 -0.0009901735 -0.019401893 -0.023823965
-0.04923705 -0.00014098012 -0.023979958 -0.030619243 -0.04913454 0.01860162 0.006482704 0.0022653495
0.013288741 0.0014003733 0.011001005 -0.034674603 0.003312443 -0.040246505 0.037588425 -0.011452132
0.0163013 -0.012087612 -0.004308333 -0.015452262 -0.005965857 0.009668816 0.038453437 -0.03201597

model.fc.3.running_mean f4 [64]
00000000: e368 b33d 37d6 c8be a222 e7be 0cb4 41bf
00000010: 65a9 28bc 3c4b d6bd 6015 04bf 10ed cbbe
00000020: 557d e1be 1922 713e 9e19 7e3e 8478 533f
00000030: 2726 eb3c 124f a03e 68ca 7bbf b351 9abd
00000040: 14e1 0bbf eaef afbe 9224 79be 7bdc 1fbf
00000050: f92e 04bd 4ddf 20bf 86bd 1b3e 69ff 9ebf
00000060: 2033 50bf f4cc edbe e156 5a3e 5102 7cbf
00000070: 99d9 69bd 5ffc 0ebf 3253 6ebe cc15 0dbe
00000080: 0549 42be 6cf3 123e 2655 99be 0e9f 93be
00000090: 4921 8cbe 4afc adbe d07c 1d3f b9f6 a33e
000000a0: da23 09bf 4ac1 503e 5421 453e fd11 23bf
000000b0: d754 cabe 3673 99bd 2615 473f 5b23 213e
000000c0: e6e9 41bf bb26 44bf f428 a9be 1728 14bf
000000d0: 4734 22bf d33e 6fbe 76f6 893e c349 07be
000000e0: b98a d3be a99d d13e 060b e3be ddb5 62bf
000000f0: cda2 373e 14dc fb3e 4402 11bf df6f 15bf
0.0876024 -0.39225933 -0.4514361 -0.75665355 -0.010294293 -0.104635686 -0.51595116 -0.39829302
-0.44040933 0.23548163 0.2481446 0.8260577 0.028704716 0.31310326 -0.9835572 -0.07535114
-0.54640317 -0.34362727 -0.24330357 -0.624458 -0.03227136 -0.6284073 0.15209016 -1.2421695
-0.8132801 -0.4644543 0.21322204 -0.98441035 -0.057092283 -0.5585384 -0.23273924 -0.13777846
-0.18973167 0.1435067 -0.29947776 -0.28832287 -0.27369145 -0.33981544 0.61518574 0.32024172
-0.5357033 0.20386234 0.19250995 -0.6369932 -0.39517853 -0.07492678 0.77766645 0.15736143
-0.75747526 -0.766216 -0.33039057 -0.5787367 -0.6336102 -0.2336381 0.26945847 -0.13211732
-0.41316774 0.40940598 -0.44344348 -0.8855875 0.17933197 0.49191344 -0.5664408 -0.58373827

model.fc.3.running_var f4 [64]
00000000: a597 ba3f d608 0840 01cc 9b3f 5629 cd3e
00000010: db40 ea3e 7611 813f 2dbc 2b3f 36c5 ec3e
00000020: 7bef 8a3f 37ab d23e 4eec 2a3f a2b4 eb3e
00000030: 7452 c13e 5016 913f 60ba e73e 613e cf3f
00000040: a536 d43e 62ac 3f3f 6e99 1640 92a2 393f
00000050: 820a 823f 37ec 093f 9be9 8f3f 7c7a 073f
00000060: 0359 023f 58d4 8a3f 9d87 aa3f 4374 0e3f
00000070: 6fd2 703f a3ce a13f 48bd 3e3f 0f8d 1c3f
00000080: ef61 873f c109 773f e71e e93e 1de5 b33e
00000090: 7c9f c63e 1212 903f f6e8 863e f153 ef3e
000000a0: 1062 303f 78ae d43f 164e bc3e d96f ce3e
000000b0: c97e e53e aa53 833f 672c 823f 9054 193f
000000c0: 2f73 8a3f 097a 713f c92b de3e 110b cb3e
000000d0: 5dc7 7f3f c2a6 843e 4107 8b3f e4e7 d23f
000000e0: a817 193f dea4 dd3e d0da 873f e01e 093f
000000f0: b09c ea3e 8429 b63e f826 4d3f fccb 6d3f
1.4577528 2.1255393 1.2171632 0.400706 0.45752606 1.0083454 0.6708401 0.4624421
1.0854334 0.41146252 0.6676682 0.4603625 0.3775822 1.1334934 0.4525938 1.6190912
0.4144794 0.7487241 2.3531146 0.7251369 1.0159457 0.5387606 1.1243166 0.5292127
0.5091707 1.0846052 1.3322636 0.5564615 0.94071096 1.2641186 0.7450757 0.6115274
1.0576762 0.9649926 0.4553139 0.35135737 0.38793552 1.1255515 0.2634961 0.4674373
0.6889963 1.6615744 0.36778325 0.40319708 0.44823292 1.0259907 1.01698 0.5989466
1.0816401 0.94326836 0.4339278 0.3965688 0.9991358 0.25908476 1.0861589 1.6477017
0.5980172 0.43289846 1.0613651 0.53562737 0.45822668 0.3557855 0.80137587 0.9288938

model.fc.6.weight f4 [32, 64]
00000000: 3c32 4c3d 2101 8b3c 0528 8dbd 8518 3a3c
00000010: f467 b33c c160 e13d 0b48 86bd 381f 9a3d
00000020: 8eb3 ac3d 5788 d53d db31 7c3c f410 913d
00000030: 962c 033d a38a c7bd 7645 2fbd d4f1 65bd
00000040: 6eb5 3c3d f2d9 8c3b 4391 ad3d f7ce 4b3d
00000050: 642b 5b3d 73b4 be3d a8d4 3cbd 32bd 82bd
00000060: cebe 4c3d 714d c23c 114f 413d 34a9 973d
00000070: 594e 443d 14cf 4a38 e9ae b93d 5626 df3d
00000080: a2c3 bf3d 2a62 f73c 2c87 0dbe 3d53 923d
00000090: b11b a5bb 5a1e cdbd c732 8d3d c41b d13d
000000a0: 7959 b5bd a9ed 9ebd ab0a c9bd 185f 0fbc
000000b0: ffa1 a73d 2cc8 f23d 63eb fcbd 0f22 a5bc
000000c0: 8e61 1f3e 68c2 cc3d 74d1 973d dfe2 c5bd
000000d0: 8979 2abc abfa 7a3d e0a3 6f3d 0ffe 22bb
000000e0: 471c ab3a 116c 323c 610f 18be 1bbb eabd
000000f0: 52e7 77bd 3a5f 9abd 7098 e13d f9c1 f83c
00000100: 470c af3d d2f9 4dbd 2202 07bc 9bc1 843d
00000110: 91ce 76bd 8446 c2bc bc9f 663d 0a04 0fbd
00000120: 81f4 b6bc 7b3e 3ebd 0b70 1fbe e389 b83d
00000130: af30 f73b 040f a9bd 676b e33d 1170 1a3c
00000140: 6e7d 973d 54b5 583c 2d34 913d 4a2c f83c
00000150: e938 13bd 39e9 c2bc 68d4 c1bd 2b6c 68bd
00000160: e008 673c 4ad3 8ebd 69bd bfbd c9d7 d03c
00000170: 082d 0a3e eea2 22be 2f79 2a3c 8c89 92bd
00000180: 8916 64bd 80dc 6ebd 26f9 0e3d c477 1dbd
00000190: 8f88 d83d 89a8 343d 6429 34bd 4ad5 ae3d
000001a0: 351c a63c 81d8 f0bd f16d 47bc f978 623d
000001b0: bc4d f13d 13d8 723d b47c b6bd 7342 6fbd
000001c0: 73fb caba 0836 16bd 5c96 11be bb89 e73d
000001d0: f44c e8bd ef1e b1bd 96a8 ae3d 125b 0b3e
000001e0: e3cb 77bd 97b3 8d3c 2020 b4bc 5d11 1f3e
000001f0: f1e6 42bd 3764 b0bd 09f0 f2bb f4a7 583c
00000200: 9b80 a53d 8c07 de3d e0ba 753b 6152 dc3d
00000210: d81b d6bd 5a3f 46bd fa72 d23d 6602 95bc
00000220: 8bc1 9f3d 1400 083d 23c3 69bd 696b 02be
00000230: 0eaf 1c3d fe0b d73d 7bab 103e 9e83 803d
00000240: 22b7 393d 71c5 b23d 698b b3bd 2e67 c33d
00000250: 3f9e 313d 33b5 74bd d1f7 a73d ccb5 e23d
00000260: 61e7 fd3d b41d 953d 3132 ea3d 6331 f53d
00000270: 0004 93bd 5b2e 92bc bba9 803c 0747 823d
00000280: c29c 3a3c bcad 11bc bca6 22bc c9c4 d2bc
00000290: a89d 883d 1f0e 9fbd 7d08 4dbb 5c1c 94bd
000002a0: dc22 023d cfba 86bc fed5 8bbd 4e90 233d
000002b0: e0f3 3b3d 649f 013d 8f6d 5abd c761 b6bd
000002c0: 00ef 303c cefe a63d 6209 a1bd 5847 4bbd
000002d0: 74ff 0f3c 8a50 cbbd b4c4 ffbd 2533 cbbb
000002e0: 2969 553d 3092 6a3d ac35 d43c e7e1 ee3d
000002f0: 9187 363d 17d9 3fbd 21bc 41bd 4bcd df3d
00000300: a761 e33c af96 1b3d ae28 1cbd a838 ebbd
00000310: c687 d33c d87e 7bbd eef4 1f3d ba10 d9bd
00000320: 29a1 003d 49d8 eb3b eefc b43d d5e3 84bd
00000330: 8f0a 353d d469 b63d 237d aebd 24d1 9fbd
00000340: 7a64 14bc 9bdf 583c 7004 0c3c fd85 21bd
00000350: 19fc 62bc 72a5 e33d 0ae5 aebd 7288 73bc
00000360: 8e8a 19bd 2f04 8d3d ac27 61bd 98d0 f3bd
00000370: 105b c7bc b4e0 93bd ae29 b93d d76a a9bd
00000380: 0f2c 85bd 6e1d 833c 235c 3a3d f86d 59bd
00000390: 99b5 9e3d 5a9f acbd c151 36bd 54dc 4a3c
000003a0: ce59 efbc e67f 79bd fab6 5bbd 410d 95bd
000003b0: b30f b93d 610c 713d 6ff7 a8bc 03a4 a03d
000003c0: 788f b73c 4bae cd3c 705a 95bd da6b b5bd
000003d0: 48ca dfbd 56e3 e7bc 5d31 d03d 10f6 6dbd
000003e0: e087 b2bd e8a2 83bc 64f6 d53d 4d17 9b3d
000003f0: 7486 453d 3e91 2d3c e936 13be 4604 cf3c
0.049852595 0.016968312 -0.06892399 0.011358385 0.021900155 0.110047825 -0.0655671 0.07525486
0.08432685 0.104263954 0.015392746 0.07083312 0.032024942 -0.0974324 -0.042790852 -0.05613883
0.046071462 0.004298442 0.08474972 0.049757924 0.053508177 0.09311762 -0.046101242 -0.063837424
0.049986653 0.023718568 0.047194544 0.0740532 0.04792628 4.835341e-05 0.090665646 0.10895984
0.09363486 0.030198175 -0.13821095 0.07144783 -0.0050387015 -0.10015555 0.06894451 0.10210374
-0.08854956 -0.07760174 -0.09816488 -0.008750699 0.08185195 0.11854586 -0.12349584 -0.020157842
0.15564558 0.099980175 0.07412997 -0.09662413 -0.010404953 0.06127421 0.058505893 -0.002487067
0.0013054692 0.010890023 -0.14849617 -0.11461469 -0.06052334 -0.07537694 0.11015403 0.03036593
0.085472636 -0.050287075 -0.008240255 0.0648224 -0.06025559 -0.023715265 0.05630468 -0.03491596
-0.022333385 -0.046446305 -0.15570085 0.09010675 0.0075436453 -0.08254817 0.1110447 0.009426133
0.07396971 0.013226826 0.0709003 0.030294556 -0.035942946 -0.02379285 -0.094643414 -0.056743782
0.014101237 -0.06973894 -0.09362299 0.02549352 0.1349374 -0.15882465 0.010404869 -0.07155141
-0.055685554 -0.058315754 0.034905575 -0.038444296 0.105729215 0.04410604 -0.043984786 0.085367754
0.020277122 -0.11760045 -0.012172208 0.05529115 0.11782405 0.059288096 -0.08910504 -0.05841298
-0.0015486315 -0.036672622 -0.14217514 0.11305567 -0.11342803 -0.08648478 0.08528249 0.1360896
-0.060497176 0.01729755 -0.021987975 0.15533967 -0.047583524 -0.086128645 -0.0074138683 0.013223637
0.0808117 0.10841283 0.003749542 0.107579 -0.104545295 -0.04840026 0.10275836 -0.01818962
0.07800587 0.0332032 -0.057070863 -0.12736286 0.038252883 0.10500334 0.14127915 0.06275104
0.045340665 0.08729065 -0.08766825 0.09541164 0.043363806 -0.059743118 0.08201564 0.11069831
0.12397648 0.07281056 0.114353545 0.119723104 -0.07178497 -0.01784437 0.015705934 0.06361204
0.011389913 -0.008891519 -0.009927448 -0.0257286 0.066706955 -0.07766365 -0.0031285577 -0.072319716
0.031771526 -0.0164465 -0.06827925 0.03993254 0.045886874 0.031646147 -0.05332714 -0.08905368
0.01079917 0.08154069 -0.07863118 -0.049628586 0.008788932 -0.09927471 -0.1248869 -0.0062011653
0.05210224 0.05726832 0.025904499 0.11664181 0.04456288 -0.046837892 -0.047298554 0.109278284
0.027756525 0.0379855 -0.038124733 -0.11485416 0.025821578 -0.061400265 0.039051943 -0.105988935
0.031403694 0.007197414 0.08837305 -0.06488768 0.044199523 0.08906904 -0.08519962 -0.07803562
-0.009057159 0.013236905 0.00854598 -0.03943442 -0.01385405 0.111155406 -0.085397795 -0.014864074
-0.03748565 0.068855636 -0.054969475 -0.119050205 -0.024335414 -0.07220593 0.09041153 -0.08272331
-0.06502544 0.016005244 0.045498025 -0.05308339 0.07749481 -0.084288314 -0.04451156 0.012381632
-0.029217627 -0.06091299 -0.053641297 -0.072779186 0.090361975 0.058849696 -0.020625798 0.07843783
0.022407278 0.025107523 -0.0729264 -0.08858462 -0.10927254 -0.028306644 0.10165665 -0.05809599
-0.08717322 -0.01606889 0.10447386 0.07572804 0.048223928 0.0105937105 -0.14376415 0.025270592

model.fc.6.bias f4 [32]
00000000: 2f5d bc3c 8713 81bd 475c 8b3d ef24 60bc
00000010: f140 843c 99bc b2bd c8fd 783d 4794 cbbd
00000020: 82b2 cdbc 71db d93c 1b94 d8bd 5c4c bfbd
00000030: 44ce 00bd 0b6d ee3d 93eb 953c 7649 ce3d
00000040: 48e1 fe3c 84cc ffbb 8ab2 82bc d60c a03d
00000050: f52e 0339 2b9a 793c 54d2 f9bd 001c bd3d
00000060: 9822 853d d556 3a3b 187d b03b 00ad d5ba
00000070: 4439 52bd 68ed e33b 2b92 f63d 31af 153d
0.022993652 -0.06302553 0.0680471 -0.013680681 0.016144248 -0.087273784 0.0607889 -0.09940391
-0.025109533 0.026593896 -0.10575124 -0.09340736 -0.03144671 0.11641892 0.018300807 0.10072605
0.031113282 -0.0078063626 -0.015954275 0.07814948 0.00012510626 0.01523451 -0.1219832 0.09233856
0.06500739 0.0028433104 0.005386006 -0.0016302168 -0.051324144 0.0069557913 0.12039598 0.03654403

model.fc.7.weight f4 [32]
00000000: 5f6c 773f 8238 7c3f cc7f 803f 8a28 873f
00000010: ac7a 823f 9703 813f fa09 833f fa40 773f
00000020: 14e5 853f 522b 843f 34a0 7d3f 5121 6e3f
00000030: f251 783f 8316 833f 3072 7e3f c821 7c3f
00000040: d25f 803f e94c 783f 8a0a 853f 649c 843f
00000050: 090a 863f d005 833f 0e6d 773f 35f1 733f
00000060: 7a1d 7b3f 1a57 783f fc69 7e3f 8a64 753f
00000070: bade 7a3f 67c2 853f ba4e 7c3f 023c 833f
0.96649736 0.98523724 1.0039 1.0559247 1.0193686 1.007922 1.023742 0.9658352
1.0460534 1.032572 0.99072576 0.93019587 0.9700004 1.0241245 0.99392986 0.98489046
1.0029242 0.96992356 1.0393841 1.0360227 1.0471812 1.0236149 0.9665078 0.9528993
0.9809185 0.97007906 0.9938047 0.95856535 0.97996104 1.0449952 0.9855763 1.0252688

model.fc.7.bias f4 [32]
00000000: 211c 5a3c e26c 9fbc 96f1 a5bc be6f d23c
00000010: 7eb2 e73c 471b ab3c 8c7d 1c3c 4a02 c1bc
00000020: ae3d b53c f375 563c 7947 2cbc 294c 62bd
00000030: a4a3 94bc 41d5 a53c 411c a33b 3c0f e63c
00000040: 61d6 de3b ffc7 07bc 1f99 2f3d b0a4 6f3b
00000050: 74ba 523d 9177 dd3c 524d 643b 7dc2 45bd
00000060: c014 d1bc ebf5 acbc 946a 0cbd 59a2 22bd
00000070: 2391 62bc edef a43c b257 e33c e48a cc3a
0.0133123705 -0.019461099 -0.020256799 0.025688048 0.028283354 0.02088703 0.009551417 -0.023560662
0.022124138 0.013089645 -0.010515087 -0.055248413 -0.018144436 0.020243289 0.0049777334 0.028083436
0.0068004583 -0.008287429 0.042870637 0.0036566667 0.051447347 0.027034553 0.0034836126 -0.04828118
-0.02552259 -0.021113357 -0.03428133 -0.039705608 -0.013828549 0.020133937 0.027751777 0.0015605357

model.fc.7.running_mean f4 [32]
00000000: 12c9 883e b5d1 0fbe c9dd a43e c417 38be
00000010: 7f7b b03d 56ab 523e 4099 133d 2fba f43d
00000020: da7f aabd 83fa c13c 7bfc adbb 23b5 bebe
00000030: e686 07bd 307a b03e 07f4 d5bd b45e e83d
00000040: 1e82 7abe 6009 bb3c a71c 37be 0a28 323e
00000050: f125 fb3d 28c3 efbd bcf6 99be fc29 5e3e
00000060: 75a3 7f3d 3f88 9a3d 3d6c 13bc f088 1b3e
00000070: 17f6 6abe 4868 383e ba6a b4bd 8b58 99bd
0.26715904 -0.1404484 0.3220046 -0.17977816 0.08617305 0.20573172 0.036034822 0.11949574
-0.08325167 0.023679024 -0.005309639 -0.3724757 -0.033087634 0.34468222 -0.10446935 0.11346188
-0.24463698 0.022831619 -0.17882024 0.17398086 0.12263096 -0.11707145 -0.30071056 0.21695703
0.062411744 0.07545518 -0.008997974 0.15188956 -0.22945438 0.1800853 -0.08809419 -0.07487591

model.fc.7.running_var f4 [32]
00000000: eb12 ca3e fea5 603e dbb3 6f3e 19c9 923e
00000010: 578f f03e c03b 673f ae3f fb3e 3210 b93e
00000020: 59ef 0d3f f5fa 1c3f 5916 6e3e 4387 863e
00000030: a4cc bc3e d190 513f 6dd1 9e3e 0e6c 003f
00000040: fb3b 2b3f 2592 bd3e 9a21 b23e f3be 943e
00000050: a93c 2b3f 7d3f de3e 2f48 693f 0196 353e
00000060: 1c51 383f 5f7e e43d 5692 633e f476 ca3e
00000070: 1d55 133f 131e 033f d9fb e23e 063c b33e
0.39467558 0.21938321 0.23408453 0.2866905 0.4698436 0.90325546 0.4907202 0.3614517
0.5544334 0.6132043 0.23250712 0.26275072 0.36874878 0.818616 0.31019154 0.5016488
0.668884 0.37025562 0.3479126 0.29051933 0.66889435 0.43407813 0.9112577 0.17733003
0.71998763 0.11156916 0.22223791 0.3954388 0.5755175 0.51217765 0.4433277 0.35006732

model.fc.10.weight f4 [16, 32]
00000000: b48f 203e 6937 5bbd cba5 35bd 348a 4abe
00000010: 5ce4 413c 0b4a b53d 14ee 5ebd 9741 9fbd
00000020: a9e7 9fbd 05ce fe3d dd87 4d3c 90dc 163e
00000030: d307 a0bd 7042 bc3d d4b8 e8bd cd19 42be
00000040: acf5 073e cd49 0cbe 339a 20be ed77 cebd
00000050: b186 26be 7470 b8bc c6f1 333d d78d c03a
00000060: 04b7 77bd 7f1d e53d 5d31 cebd 6860 71bd
00000070: da2b 02bd 3b61 25be a71b 123e 5afc 02bd
00000080: 2684 113c 3ac6 06be d876 c5bd a885 e03d
00000090: 7c9e f6bd 8dc8 8c3d 80c1 983d e49f a23d
000000a0: c431 3b3e 4d0b 07be c7c0 273d e005 89bd
000000b0: c637 9bbd 80de c4bd 1751 86bc 9d75 19be
000000c0: cca5 f63d 533c ae3d 73b9 c5bc 33e2 a6bc
000000d0: e5b6 ccbd 1468 fa3d b6e0 1e3e e5ca 12be
000000e0: b089 2fbc ceb9 ed3d 9055 8ebc 9929 74bc
000000f0: 7d73 2a3e 5908 cbbd 48b8 253e d5cc 61bd
00000100: 0dfe 0b3e 388e 40bc 0a26 a53d aa47 99bd
00000110: 086d 85bd aff5 46be 0e7c b9bc e899 29be
00000120: 6c86 e83d e8d3 58be 539f 3f3e 1db1 483c
00000130: 3a4a eebc 27fc 5e3d a473 b9bc 6145 07be
00000140: d91e 0c3e 87a2 08be ecd1 b93d 3eae 1d3e
00000150: 604d 47bd 8fea 30bd b555 233e 8269 193e
00000160: c879 0e3d 7426 1abd c206 bc3d 8f32 ef3d
00000170: b82a 9a3d 32bd 0bbe 84f1 8dbd 5879 36be
00000180: 6686 eebc 8132 793c 4492 15be b349 f1bc
00000190: 04df 593d c6e6 623c 46b3 19be 7a76 dd3d
000001a0: 4ad8 e8bd dc8d a73d 673c 25be 606f 073e
000001b0: 338c 49be c00a 77bd 7066 1d3e d221 cd3d
000001c0: b8f7 b1bd 9a15 c7bb 3340 f83d 6d84 08be
000001d0: a748 1e3e fc43 8fbd 8d54 1a3d 2811 7e3d
000001e0: da6d ecbd 0e83 4bbd 6b90 8d3c 3ebc 003e
000001f0: eb4a 3e3b ab29 f43d 9ee8 4cbe 39e7 e23d
00000200: 19f2 7fbd 00c2 47bd 4395 0dbe 8d03 063e
00000210: f5d2 cbbd 3c13 17be 73cb 80ba 9d1b 0f3e
00000220: 2039 86bd 6335 02be 0779 163e 1cdb 01be
00000230: 003c 313e 24ea 18be 49b6 8ebd 6851 2bbe
00000240: ac56 8b3d 38e2 c53d 09c2 563d 3273 933d
00000250: ef50 f2bd f464 6bbe bc7a dd3b 6480 083e
00000260: 39c2 f03d f4bb b93d 21e8 19be fc3a d03d
00000270: 46e7 743c 7f44 74bd 4e71 61bd bc31 89bd
00000280: b12a bb3d e002 1abe ae0a cd3d d6b5 103e
00000290: 81fc c03c ee4d 53be 6229 5ebd 5690 fb3d
000002a0: e373 073e fa1f 17be a24b 1bbe f419 cf3d
000002b0: 3735 0d3e 00ee 52bd d120 e0bd af91 00bd
000002c0: f5f1 eb3d 50d4 6cbc a070 28be d4fd 993d
000002d0: 588e 8c3a 48d5 ad3b 99f8 ce3d ac74 993d
000002e0: 727d 0f3d 7c16 1d3e 68c5 53be 8a25 0ebe
000002f0: 8ab2 1c3e f82f 33bd f87a 4a3d ee03 0dbe
00000300: 8cc9 1bbe 0965 133e 5858 3f3d f2eb 16be
00000310: b19c a3bc 4a86 1f3d dc3c 1dbb 36cc 54bd
00000320: f311 a2bd ab79 3cbe b504 303e 2c41 31bd
00000330: 7bfe 9bbb 47b3 c9bd 005d f0bd 1c56 2d3d
00000340: 8329 9dbd 4915 f3bd 40df 1aba 5ecc 30be
00000350: 87a6 f1bd bdd2 003e dba4 2b3c efe7 9f3d
00000360: d0e8 b53d 4abb c43d 7e53 20bd 5d27 35be
00000370: 56c1 efbc 39b0 bcbc 5f64 8b3d cf57 24be
00000380: a8d3 2bbe 8f14 153b c911 2e3d 51a7 30be
00000390: be39 69bd e8c3 f4bc 82b3 5ebe 652a df3d
000003a0: 5161 4dbd 37b2 ca3d c26e 123e 5c63 0f3e
000003b0: 3a2d 2dbd 82b3 e6bd 3e4e 28bd a2cf be3d
000003c0: a856 163d 50f8 02bd 90d0 d7bc 7e55 0ebe
000003d0: ab67 363e 7e9c 023e 2b4f 993d cc63 be3c
000003e0: 7835 dcbc 87f5 12be 1d58 2f3e f1a2 603d
000003f0: 4016 e3bd 4717 44be db78 cf3d a6a6 1e3c
0.15679818 -0.05351964 -0.044347566 -0.19779283 0.01183423 0.08852013 -0.054426268 -0.07776182
-0.078078575 0.12441639 0.012544599 0.14732575 -0.07813992 0.091923594 -0.11363378 -0.18955155
0.1327731 -0.13700028 -0.15683822 -0.10081468 -0.16262318 -0.02251456 0.043931745 0.0014690709
-0.06047727 0.111872666 -0.10068009 -0.05892983 -0.0317801 -0.16150372 0.14268361 -0.031978942
0.008881604 -0.13161555 -0.09641808 0.10962993 -0.12041947 0.068741895 0.07458782 0.07940653
0.18280703 -0.13187905 0.04095533 -0.06690574 -0.07578997 -0.09612751 -0.016396089 -0.14986272
0.12043342 0.085076 -0.02413628 -0.020371532 -0.09995822 0.122268826 0.15515408 -0.1433521
-0.01071398 0.11607705 -0.017374784 -0.014902496 0.16645618 -0.099137016 0.16183579 -0.055126984
0.13671131 -0.011752658 0.08063896 -0.07484372 -0.06514937 -0.19429658 -0.022642162 -0.16562617
0.11353764 -0.21174586 0.18713121 0.012249258 -0.029088128 0.05443969 -0.02263815 -0.1321006
0.13683642 -0.1334325 0.090732425 0.153985 -0.048657775 -0.043192443 0.15950663 0.14981654
0.03478411 -0.037634328 0.091809765 0.11679565 0.07527679 -0.13646391 -0.06930831 -0.17819726
-0.02911682 0.015209795 -0.14606577 -0.029454088 0.0531912 0.013848966 -0.15009794 0.10813613
-0.11369379 0.081813544 -0.16136323 0.1322608 -0.19682388 -0.060312986 0.15371108 0.10016216
-0.08689827 -0.006075573 0.1212162 -0.13331766 0.15457402 -0.06995389 0.03767829 0.06202808
-0.1154439 -0.04968553 0.017280778 0.12571809 0.0029036354 0.1192201 -0.20010611 0.110792585
-0.06248674 -0.048768997 -0.1382647 0.13087292 -0.09952346 -0.14753431 -0.0009826258 0.13975377
-0.065538645 -0.12715678 0.14694606 -0.1268124 0.17308044 -0.14933068 -0.06968362 -0.16730273
0.06803641 0.096622884 0.05243114 0.07199706 -0.11831843 -0.2298773 0.006759016 0.13330227
0.11755795 0.09069052 -0.15029956 0.101675004 0.014947718 -0.059635635 -0.055039696 -0.06698939
0.09139002 -0.15040159 0.100118026 0.14131865 0.023557903 -0.20635197 -0.054238684 0.12283389
0.13227801 -0.14758292 -0.1516557 0.10112372 0.13789831 -0.051496506 -0.10943759 -0.031388935
0.11520759 -0.014454916 -0.16449213 0.07519117 0.0010723574 0.005304966 0.1010601 0.074929565
0.035031743 0.15340608 -0.20680773 -0.13881508 0.15302482 -0.04374692 0.04943368 -0.1377103
-0.15213603 0.1439401 0.04671511 -0.14738443 -0.019972177 0.038946427 -0.0023992574 -0.051952563
-0.0791358 -0.18405788 0.17189296 -0.043275043 -0.004760561 -0.098486476 -0.11736488 0.04231845
-0.07673933 -0.11869294 -0.00059079006 -0.1726546 -0.11799341 0.1258039 0.010476316 0.0780791
0.08882296 0.09606035 -0.039142124 -0.17690797 -0.029266994 -0.023033248 0.06806254 -0.16049121
-0.16779959 0.002274785 0.04249743 -0.17251326 -0.056939833 -0.029878572 -0.21748164 0.10896758
-0.050141636 0.09897273 0.14300063 0.14002746 -0.04227946 -0.11264707 -0.041090243 0.093169466
0.036703736 -0.03197509 -0.026344568 -0.138998 0.17812984 0.1275501 0.07485803 0.023240946
-0.026880965 -0.14351474 0.17123456 0.054842893 -0.11088228 -0.19149505 0.10130473 0.009683287

model.fc.10.bias f4 [16]
00000000: cd9c fcbd 9183 173e 2199 ca3d 1922 34bd
00000010: 2308 3e3c 3354 ad3d a93f 833d e0b0 023c
00000020: 47cf d63d 4401 153d e3df 0ebe 6da6 2a3d
00000030: 04d6 d8bd d880 293e bf19 01bc 4a79 ecbb
-0.12334595 0.14796282 0.09892488 -0.04397783 0.01159862 0.08463325 0.064086266 0.007976741
0.10488754 0.03637816 -0.13952594 0.041662622 -0.10587695 0.16553056 -0.0078796735 -0.007216607

model.fc.11.weight f4 [16]
00000000: 6fea 6f3f 0634 6b3f 3ebb 7b3f d3ae 833f
00000010: 313f 873f 1236 813f e6ee 7d3f 0ae1 863f
00000020: 2a8a 743f c284 863f ed28 823f ee81 6a3f
00000030: ca6e 883f 5612 793f 0e8b 773f 829d 803f
0.9371709 0.91876256 0.98332584 1.0287727 1.056616 1.0094626 0.99192655 1.0537426
0.9552332 1.0509264 1.016874 0.91604507 1.065881 0.97293603 0.96696556 1.0048068

model.fc.11.bias f4 [16]
00000000: fba3 7ebd be5b a7bd 7483 9c3c 6159 773d
00000010: 9b9f 1d3d 764d a43b 364a 093d 914f bbbb
00000020: 208c 6ebb c39e d33c 83f5 c63c 96f2 4abd
00000030: 7b41 333d 732c 833b f5b1 593d f982 3cbd
-0.062168103 -0.08171795 0.01910565 0.060387973 0.03848229 0.005014117 0.03351804 -0.005716272
-0.003639944 0.02583254 0.024286991 -0.049547754 0.04376362 0.0040031015 0.05314823 -0.046023343

model.fc.11.running_mean f4 [16]
00000000: d815 b4be bb09 3f3e d33b a83d d81f aabd
00000010: e394 13be 783a ae3d 1207 38be 6f1d 74bd
00000020: d999 e93d 5a79 dcbd 4699 80bc a0d5 56bd
00000030: 277b 2dbe 0599 c9bd 2995 82be 3d29 d73a
-0.35172915 0.18656056 0.082145356 -0.08306855 -0.14412265 0.08507246 -0.17971447 -0.059598383
0.11406297 -0.107653335 -0.015698086 -0.052449822 -0.1694151 -0.09843639 -0.25504425 0.0016415488

model.fc.11.running_var f4 [16]
00000000: 2f99 e13e 3732 263f a7af 253f 360b 683f
00000010: b09d df3e f41e 473f 1c13 043f c883 b53e
00000020: 5aa8 323f 1656 843f 249c e23e 34c0 ed3d
00000030: ace2 413f 1788 173f 9f0a 613f a4c2 ce3e
0.44062182 0.6492037 0.6472115 0.90642107 0.43674994 0.77781606 0.5159166 0.35452104
0.69788134 1.0338771 0.4425975 0.116089255 0.757365 0.5919203 0.8790683 0.40382874

model.fc.14.weight f4 [8, 16]
00000000: 30ae 043e 1703 4dbd e7a8 98bd 9731 a2bd
00000010: f64f 75bd fc17 ffbd 489d 973d 4e4d e93d
00000020: 0438 c73b 467c b1bd 5498 0ebe 0b9e ccbd
00000030: f416 98bd 623b 083e 72d3 4e3d e4a8 fe3d
00000040: a699 6e3e 8811 3b3e 8d75 523d c8d5 17bd
00000050: c242 be3d 79b3 243c e52a 953e e3f9 093d
00000060: eee5 b33c e0f4 463c 64db 0bbe 890b 1c3c
00000070: 5d4e 22be 119a 063d ac29 cb3d 0c43 43bd
00000080: 4cfa 36bd c011 8ebe daa0 84be 4deb 453e
00000090: f9f3 51be c53e 063e 6391 2fbe 0e1f e73d
000000a0: 819f 873e b604 87be 9484 15be f2c9 08be
000000b0: 2549 393c 4dac 7bbe 17f5 533d 2c8c af3d
000000c0: 4d4c 843d 64c6 84bd bab5 f0bc 9c02 6dbd
000000d0: 2ff4 803e 8ca9 083d 5c0b 3c3e 5d6d 04be
000000e0: 0ccf 47be 4ebe dc3d c099 6f3e cd7e b93d
000000f0: ff7a 6e3c 3ea3 78bd aee8 0b3e cdb1 2ebe
00000100: 63bc b83d c038 f83d 4dd7 71bd 0633 3c3e
00000110: e22c c7bd 523c 1fbe 00a5 57be 4af4 7ebd
00000120: eaf4 7e3e 52ad 4dbe c481 e2bd 853f 523b
00000130: 2eff 1d3d 1a55 653a 96e7 8bbe 0bbc c7bc
00000140: f40d a0bd 22ce 4f3c 0de5 1d3e c9a8 3ebd
00000150: 56a6 5a3d 3f85 563e 17f6 de3d 56bf dbbd
00000160: 46c3 2bbe 0280 133c a946 7bbc 0719 a73c
00000170: 993f a5bd ced6 e63d c8bf 673d c289 68bd
00000180: f087 803e 970d 3a3d 1fab 173e f972 45be
00000190: bdfa 2d3e d31d b73d 8917 56be 7b7e 71be
000001a0: 551c c83d 18b9 2a3e 33dd 793e b340 50bd
000001b0: 76ca 2dbe ab0a 7d3e 3284 693d 5e71 c83d
000001c0: 7968 4bbe 2a58 6abe d89c 353e b051 48bd
000001d0: 9bdc c03d 6638 37be b9fc ef3c edbf db3b
000001e0: 1419 f7bd a863 193e 138d 78be 7908 fabd
000001f0: 3fef 26bd 8937 a13d 030a 5d3e 9e4c 8d3e
0.12957072 -0.050051775 -0.074540906 -0.07919615 -0.05989071 -0.124557465 0.07403046 0.11391698
0.0060796756 -0.086662814 -0.13925296 -0.09991082 -0.07426253 0.13303903 0.05049462 0.12434557
0.233008 0.18268406 0.051381636 -0.037069112 0.09290077 0.010052555 0.29134288 0.033685576
0.021960225 0.012143344 -0.1365791 0.009524235 -0.15850206 0.032861773 0.09920058 -0.047671363
-0.044672295 -0.27747917 -0.2590397 0.19328041 -0.20503224 0.13109882 -0.17145304 0.1128522
0.2648888 -0.26370782 -0.14601356 -0.13358286 0.011308943 -0.24577446 0.051747408 0.085716575
0.06459866 -0.064831525 -0.029383529 -0.057863817 0.25186297 0.033364818 0.18363708 -0.12932344
-0.19512576 0.10778485 0.23398495 0.090573885 0.014555692 -0.060702555 0.13662979 -0.17060013
0.09020307 0.12120199 -0.059043217 0.18378839 -0.097253576 -0.15550354 -0.21059036 -0.06224469
0.24898115 -0.20085648 -0.11059907 0.0032081318 0.038573436 0.0008748338 -0.27325124 -0.024381658
-0.07815161 0.012683423 0.15419407 -0.046547685 0.053381287 0.20949267 0.10886782 -0.10729854
-0.1677371 0.009002687 -0.015336671 0.020397676 -0.08068771 0.112714395 0.05657938 -0.056772
0.25103712 0.045423117 0.14811371 -0.1928214 0.1699018 0.089412354 -0.20907415 -0.23583405
0.09771029 0.1667217 0.24400787 -0.050842952 -0.16971764 0.24711101 0.057010837 0.09787248
-0.19864072 -0.22885194 0.17735612 -0.04890603 0.09417077 -0.17892608 0.029295312 0.006706229
-0.1206533 0.14979422 -0.24272566 -0.12208647 -0.040755507 0.078719206 0.2158585 0.27597517

model.fc.14.bias f4 [8]
00000000: d4c9 35be 9a83 4d3e 2e9a 7bba 0bce 32bd
00000010: 105f 8c3c 5cb3 c9bd c233 af3d bded 813d
-0.17752773 0.20069733 -0.00095978647 -0.04365353 0.017135173 -0.09848663 0.08554794 0.06344173

model.fc.15.weight f4 [8]
00000000: f8f6 883f 2f87 8c3f fe03 9d3f d0d0 993f
00000010: c5c2 9c3f 2cd7 963f 7b5a 973f e059 823f
1.0700369 1.0978755 1.2266843 1.201685 1.2246939 1.1784415 1.1824487 1.0183678

model.fc.15.bias f4 [8]
00000000: bb13 53bd be6e e43d 8d0a 3e3e 4fdd 3d3e
00000010: 778e 323e c28c 263e 05b3 303e 4cd5 2fbd
-0.05153249 0.11153935 0.18558712 0.18541454 0.17437159 0.16264632 0.1725579 -0.042928025

model.fc.15.running_mean f4 [8]
00000000: 8886 79be 4e64 af3e f78c 52be 33f5 ad3d
00000010: 32b6 0ebe c045 15bd f894 863e 2089 243d
-0.24367726 0.34256214 -0.20561586 0.08494034 -0.1393669 -0.036443472 0.2628553 0.040169835

model.fc.15.running_var f4 [8]
00000000: 6887 053e dc3c 633e 3d1c 513f 3a52 ae3e
00000010: e31c 053f b307 703e aeea 473f ce81 3d3e
0.13039935 0.22191185 0.81683713 0.3404711 0.519972 0.23440437 0.7809247 0.18506548

model.fc.18.weight f4 [3, 8]
00000000: e67e c6be 91e0 ecbe 0441 6e3e eb6b dd3d
00000010: 2f10 d83e 82e2 8bbe eeb3 cbbe f5f7 c9be
00000020: 6869 a43e abbc 2a3e 52a6 fe3c 4aad 74be
00000030: 3196 bcbd fef4 de3d cc71 dbbe a842 443e
00000040: dcff 9cbe b5e5 083e e90e b5be 087a db3e
00000050: 38a4 e5be 7419 833e 78b5 f33e 1836 08be
-0.3876869 -0.4626508 0.23266989 0.10811599 0.42199847 -0.2732125 -0.39785713 -0.3944699
0.3211167 0.16673534 0.031085167 -0.2389423 -0.09208334 0.10886572 -0.42860258 0.19166052
-0.30663955 0.13368876 -0.35362938 0.4286654 -0.4485185 0.25605357 0.47599387 -0.13301885

model.fc.18.bias f4 [3]
00000000: d625 7c3e d316 aabe ade0 d23e
0.24623808 -0.33220538 0.4118704
