MultiClassdiabet/checkpoints/bodyP-epoch=02-val_f1=0.87.ckpt (torch, 293326 bytes, 83 tensors)

model.fc.0.weight f4 [128, 77]
00000000: cd1e 103d 93f4 3dbd be0f df3c a928 64bd
00000010: 59f1 5b3d 2bd0 d2bc 84f8 893d 5149 8e3d
00000020: 8c3e a73d 87e5 bcbd e424 983d f3fb f5bc
00000030: 8e9f a93d c181 b2bd d3b7 7fbd a315 ccbd
00000040: be85 973d 5616 163d 6a7a 0bba 5615 8c3d
00000050: 1a25 29bd f247 853d 880a 0cbd 393a 8f3d
00000060: 8c61 cabc 37b2 f13c efd1 c5bd 5a52 b33d
00000070: dc73 103d 6e11 863c e63d bb3d 8482 153d
00000080: 613d 96bc c89f d13b 17c8 a9bd 9848 3abd
00000090: 3b54 093b cc29 e8bd bbaa 8d3d 477d 65bc
000000a0: f372 93ba 8da8 923d 4325 3d3d d771 c53c
000000b0: 6da1 00bc 83ef bd3d 475d 2cbd c020 d2ba
000000c0: 4248 d4bd 3a06 593d 4962 cdbc f905 bfbd
000000d0: 41cd ac3d cea8 18bd ff00 363d ea36 47bc
000000e0: 714b f13c e5aa c53d e203 8e3c 2486 b8bd
000000f0: a834 37bc cf7d 4d3d d935 843d 2b34 bc3d
00000100: 4924 b53d e162 0abc cb27 923d be9f 9abc
00000110: 89dd 57bc b6e4 e1bd 65e7 543d 38eb b9bd
00000120: 2061 133c 51c1 b9bc 3ee4 cf3d 8f90 60bd
00000130: 325b 54bd b393 69bd e1d2 9a3d 15ed 553c
00000140: 8555 c83d 23bd 733c def9 d4bb 3d3b bdbd
00000150: 260c da3d 9e23 04bd 8be3 b3bd 2f5b 9e3d
00000160: 56ba b4bd 6a60 1f3d fd42 15bd eb6f 8bbd
00000170: 4762 92bc 084a 613d e820 bcbd d31d ae3d
00000180: c5eb dfbc 246b 3abd a239 8f3d 348f 853d
00000190: e621 c13d 03d8 843d 8ea5 f63d f129 bc3d
000001a0: cf06 263d 0895 4c3d bfac c53d 6728 97bd
000001b0: 01dd df3c d91a 993c 5058 6d3d aa7c 293d
000001c0: 651d 4abc 65b2 433c 0e37 313d 1df1 4ebd
000001d0: 748b 843d f052 05bd 4f11 e3bb fe13 b9bd
000001e0: 8d86 343b 2c53 c43d d15c 10bd d615 a4bd
000001f0: e804 d43d 8523 343d e234 4f3d ac22 a03d
00000200: 92fd 72bd e1a5 b13d 431f 9c3d 2a44 86bc
00000210: 2f4f 223d 0c79 a23d 8b97 0fbc a5c3 eebc
00000220: d6a2 a43d ae48 ce3d 8ac9 a5bd 3c66 45bb
00000230: de9f 853d 6675 913d 6d2e ce3d b21e 053d
00000240: eb3f 463b 7e20 a5bc 5d46 923d 4e0e b93d
00000250: d0b7 1cbd c6c1 f6bc 4f54 663d 5655 6abd
00000260: 7a72 82bd b664 ddbc ffef 56bd a8d9 babc
00000270: 71db c7bd cf15 323d cfde 923d 5d8a 4c3d
00000280: 5d3a d13d 5b2b e1bd a7bd db3d 1580 20bd
00000290: 3921 eb3b 44f0 96bd d9b3 ba3d 7c25 9a3d
000002a0: c388 4cbd 7682 d0bd 8006 c33d ea14 bdbd
000002b0: 4b43 ec3c 2136 cdbc 2f29 dfbb 7914 e63d
000002c0: 43c6 b8bd 37a5 cabc 906e 63bd 7a12 06bc
000002d0: 6518 c93d e92a 0f3c 2427 f0bd 328d ac3d
000002e0: 44b5 f7bd 47f4 fbbd 6488 953d d064 e4bd
000002f0: af3d 0e3d 25bf 163a 8ab3 19bc ddfe cb3d
00000300: 8ee5 b1bd 7ccc d63d 78cc 1fbc 6ac9 193d
00000310: 06ad bd3d 3123 c83b ad13 0d3d df50 a8bc
00000320: d016 59bd dbb3 3d3d f5ff e0bd ac14 0dbd
00000330: da81 973d 51d8 c8bb bd17 a33d 59e6 d0bd
00000340: 9efb 313b 8858 203d a076 d6bd 93f0 cf3c
00000350: 9301 2c3d 5a09 c3bd c72a a3bc c7aa a8bd
00000360: 8160 83bd 3504 ddbd 5582 a8bd dfe8 5ab9
00000370: 25f8 4ebd fc59 083d 898d 19bd 5c26 b13d
00000380: dcd7 a23d 1266 2b3d 1b5b bb3c ce5f 37bd
00000390: 9596 b13d 9fc9 a43c c734 9e3c e0c6 e4bd
000003a0: a109 7cbd e123 92bc 4e80 603d 865a a839
000003b0: 800f e93c f8b5 953d 989e b6bd 946e aabd
000003c0: 2615 76bc 09b4 9d3d 4086 763d 04fd 293d
000003d0: fb4f bcbd 1547 b6bd c6a9 bf3c 7e6d 4e3c
000003e0: 75e1 a8bd da14 a53d 798e f5bc 01cf 8dbc
000003f0: 953e ba39 210f be3d 4b78 f1bd 5a17 e0bd
0.035185624 -0.046375822 0.027229186 -0.05570284 0.053696964 -0.025734028 0.06736854 0.06947578
0.08166227 -0.09223466 0.07428911 -0.030027365 0.08282386 -0.08716155 -0.062431168 -0.099650644
0.07398556 0.036642395 -0.00053206703 0.06840007 -0.04129515 0.06507863 -0.03418973 0.06993527
-0.024704717 0.029503925 -0.09659182 0.08755942 0.035266742 0.016365733 0.091426656 0.036501423
-0.018339815 0.0063972212 -0.08290117 -0.045479387 0.0020954746 -0.11336097 0.0691733 -0.014006919
-0.0011249467 0.07161055 0.046178114 0.024102135 -0.007850987 0.09274199 -0.042081144 -0.0016031489
-0.103653446 0.052984454 -0.02507128 -0.09327311 0.084375866 -0.03727036 0.044434544 -0.012159089
0.029454919 0.09651736 0.017335836 -0.0900996 -0.011181988 0.05016881 0.06455583 0.09189638
0.088448115 -0.008446426 0.07136496 -0.018875 -0.013175377 -0.11029951 0.051978488 -0.090780675
0.008995324 -0.022675188 0.101509556 -0.05482536 -0.051844783 -0.057025623 0.07559753 0.013057013
0.097819366 0.014876637 -0.006499513 -0.092398144 0.106468484 -0.03226053 -0.08783635 0.07732236
-0.08824603 0.038910307 -0.036440838 -0.06808456 -0.017869128 0.055002242 -0.09185964 0.08501782
-0.027334103 -0.045512334 0.069934145 0.065214545 0.09430294 0.064865135 0.12043296 0.09187687
0.040533837 0.049946815 0.09652089 -0.07380753 0.027327063 0.01868956 0.05794555 0.041378655
-0.01233611 0.011944388 0.043265395 -0.050522912 0.06471911 -0.0325498 -0.0069295536 -0.09037016
0.0027546019 0.09586176 -0.035244767 -0.080119774 0.10352498 0.043979187 0.050587542 0.07819113
-0.059323855 0.08674217 0.0762315 -0.016389925 0.039626297 0.07933244 -0.008764158 -0.029146025
0.08038871 0.10072456 -0.08095081 -0.003012075 0.06524633 0.0710247 0.10067449 0.032499976
0.00302505 -0.020157095 0.07142327 0.090359315 -0.038261235 -0.030121695 0.056232747 -0.05721029
-0.06369491 -0.027025562 -0.05247497 -0.022808865 -0.09758652 0.04347783 0.071714036 0.04993664
0.1021621 -0.109945975 0.10729533 -0.03918465 0.0071755913 -0.07370046 0.091163345 0.07526681
-0.049935114 -0.101811334 0.09522724 -0.09232505 0.028840682 -0.025050225 -0.0068103294 0.112343736
-0.090221904 -0.024736984 -0.055525362 -0.008183116 0.09819106 0.008738258 -0.117262155 0.08425368
-0.120951205 -0.123024516 0.07301405 -0.11152041 0.034726795 0.00057505287 -0.009381184 0.09960721
-0.08686362 0.10488221 -0.009753339 0.0375456 0.09261517 0.006107711 0.034442592 -0.020546375
-0.05300027 0.0463141 -0.1098632 -0.034443542 0.07397814 -0.0061293026 0.07963512 -0.10200185
0.0027158032 0.03914693 -0.10471845 0.02538327 0.04199369 -0.09523268 -0.019917859 -0.08235698
-0.06414891 -0.10791818 -0.08227984 -0.00020876851 -0.050529618 0.03328894 -0.037488494 0.086498946
0.07951328 0.04184539 0.02287059 -0.0447691 0.08671299 0.020115672 0.019312276 -0.11170745
-0.06153262 -0.017839374 0.05480986 0.00032110902 0.028449774 0.073100984 -0.08916968 -0.08321872
-0.015019691 0.077003546 0.060186625 0.04150106 -0.091949426 -0.089002766 0.023396384 0.012599347
-0.082461275 0.08060618 -0.029975163 -0.017310621 0.00035523312 0.09280229 -0.11790522 -0.10941954

model.fc.0.bias f4 [128]
00000000: 8e57 a3bd 564f efbc ad77 cdbc 44a7 0f3d
00000010: 261f e33d 17e6 ac3d ab96 e9bc 0724 483d
00000020: 78f7 c03d d57f 18bd d0cb d4bd 08a2 50bd
00000030: 3dea d83d 5569 63bd cfc0 8b3c 0363 783d
00000040: 4351 97bd ee48 9dbc 0795 a73b 30c9 af3d
00000050: f727 6dbd 48d9 c53d 97cd e13c 0826 78bc
00000060: 1ade 8a3d 7adb be3d 8ca6 dbbc bfc2 4f3b
00000070: 4fad 703c c455 e3bd 21a6 cebc 3184 df3d
00000080: b344 66bd 16ab 333d 756c a3bd 0eff d53d
00000090: 2be9 babd 8f61 0ebd 0f03 92bd a2a3 dcbd
000000a0: e85e b4bd 4e3f 3b3d 0d4b 4fbd 8b97 84bc
000000b0: 25cd 5e3d f119 f8bc b5a9 28bc e658 c03d
000000c0: cbe7 043d fc33 babd 096c aebd d78c 583d
000000d0: e689 b5bd 6d87 733d dc5b d33c d224 c4bc
000000e0: e429 9b3c 8405 bebd 51f4 ad3d d6c4 45bd
000000f0: 5a23 953d b64b a23d b705 0fbd acb9 cdbd
00000100: 4e3a 33bd 396f 383d 4206 9ebd 3b7a d03d
00000110: 089d 9cbd a4f0 90bc 1622 b7bd 0b85 aa3b
00000120: 0b55 71bd 6a4a f9bb 023d 9e3d 5656 e53d
00000130: 83e2 5b3c bcbd cf3c 9197 a23a f36d e03d
00000140: bf4f 153d 0424 45bd ca63 713d 9497 b9bc
00000150: de5f d13d 0558 7ebd 04af 51bd 1a44 5f3d
00000160: 774a 9abd 5c13 d5bd a8cf 9c3c b075 b9bc
00000170: 6707 e33d 130d be3b 40f8 08bb 230c 0e3d
00000180: d20b df3d 00e3 9cbc 6dbd 3fbd 94a2 fbbc
00000190: 3ba3 f7bc 83df c23d e866 813c adc0 50bd
000001a0: 9e3d 9fbd 77bb 033d 492c c0bd ca19 a93d
000001b0: d4df 903d 9db9 8fbd 6bc2 beba c1d3 5b3d
000001c0: 2604 6dbd 178c a7bd 9605 b6bb 4ada c23d
000001d0: feb1 9cbd f742 20bc bd0c 9c3d 46a0 a53d
000001e0: 526d 13bd 87d1 b13d e534 3dbd 1aec 47bc
000001f0: 56d2 0c3c a838 483b f2c1 fe3c 068d a63d
-0.07975684 -0.029212635 -0.02508148 0.035071626 0.110899255 0.08442324 -0.028514227 0.048862483
0.09422201 -0.037231285 -0.10390437 -0.050935775 0.105915524 -0.055520374 0.017059712 0.0606413
-0.07388546 -0.019199815 0.005114201 0.08583295 -0.05789944 0.09660584 0.027563853 -0.015145786
0.06780644 0.093192056 -0.026812814 0.003170177 0.0146897575 -0.11100343 -0.0252257 0.109138854
-0.05621786 0.043864332 -0.07979671 0.104490384 -0.091265045 -0.034761008 -0.0712949 -0.10773398
-0.088071644 0.04571467 -0.050608683 -0.016185543 0.05439486 -0.030285807 -0.010294368 0.09391956
0.032447618 -0.090919465 -0.085167 0.05286869 -0.08864193 0.059455324 0.025800638 -0.023943339
0.018940873 -0.09278396 0.08493865 -0.04828342 0.072821334 0.07924597 -0.03491756 -0.1004518
-0.043756776 0.045027945 -0.07716037 0.101795636 -0.07647139 -0.017692871 -0.08942048 0.0052038482
-0.058918994 -0.007607748 0.0772648 0.11198108 0.013420704 0.025359027 0.001240479 0.10958471
0.036453005 -0.04813005 0.058933057 -0.022655286 0.10223363 -0.06209566 -0.0511923 0.054508306
-0.07533734 -0.10404083 0.019141987 -0.022639126 0.11085396 0.0057998984 -0.0020899922 0.034679543
0.108909264 -0.01915121 -0.04681151 -0.030717172 -0.030229202 0.09515288 0.01579614 -0.050965
-0.077754244 0.032161202 -0.09383447 0.08256872 0.07073942 -0.07017825 -0.0014553791 0.05366874
-0.057865284 -0.08181017 -0.005554865 0.095142916 -0.07651137 -0.009781591 0.07619617 0.0808721
-0.035992928 0.08682542 -0.046193022 -0.012202287 0.00859507 0.0030551348 0.03109834 0.08132367

model.fc.1.bias f4 [1, 128]
00000000: 312d 4bb8 460c a4b9 780f 09b9 a0bd db39
00000010: 029a edb8 a1e3 a13a 5b71 ae3a 5cff eb39
00000020: 312d 4bb8 3334 0cb8 0331 1a39 7ae2 eb37
00000030: 37da 093a 0e22 c2b9 48c2 9639 50e1 0f3a
00000040: eee7 ba3a 780f 09b9 01ee 8cb9 2b8d 6cb9
00000050: bd68 64b9 4ffc e639 8020 073a 149f 19b9
00000060: ce68 dfb9 571d 85b9 3334 0cb8 312d 4bb8
00000070: 780f 09b9 1c0f a93a 780f 09b9 c394 4ab9
00000080: 3dcd 6f3a 571d 85b9 3665 aeb9 780f 09b9
00000090: 960f e139 3509 15b9 9791 c8b9 dd0e ebb9
000000a0: 3223 8bb8 593e 203a 22eb e5b8 b0ed 2cb9
000000b0: 100a 1139 780f 09b9 3223 8bb8 7af4 b839
000000c0: aac0 f0b8 b568 4339 df4e 94b9 72bb 8ab9
000000d0: fdfb 5e3a 0e22 c2b9 b5a3 e939 8e92 a5b9
000000e0: 59b9 ddb9 780f 09b9 f46b 043a b3b4 edb8
000000f0: 780f 09b9 eaa6 cbb9 571d 85b9 3dbb 073a
00000100: 17b5 74b9 00ee 55b9 09a2 443a c394 4ab9
00000110: bb12 b339 a3f9 dfb8 1cba f839 2aee a839
00000120: f321 b939 0e22 c2b9 ce68 dfb9 e6de 943a
00000130: feb0 a239 571d 85b9 7758 dab9 0e22 c2b9
00000140: f909 1bba 0e22 c2b9 0e22 c2b9 5367 78b9
00000150: c394 4ab9 0e22 c2b9 70b2 1ab9 661c cfb9
00000160: 3334 0cb8 9c3f 0fb9 3334 0cb8 e9c8 abb9
00000170: c4a4 16b9 e265 9d3a 780f 09b9 fe1f b93a
00000180: 906d fe39 343c 093a ac90 26ba 3223 8bb8
00000190: 780f 09b9 82a4 65b8 8522 cfb8 571d 85b9
000001a0: 5473 bcb9 7c49 36b9 57c7 3b3a 2c3a 583a
000001b0: 571d 85b9 de88 76b9 c686 c9b9 571d 85b9
000001c0: c9b7 93b9 65f3 1138 780f 09b9 ce68 dfb9
000001d0: b923 4cb9 ce68 dfb9 3223 8bb8 9ade 013a
000001e0: 87fc c6b9 5e1d c6b9 8522 cfb8 780f 09b9
000001f0: 2586 5fb9 6a27 c0b9 fc17 2b3a 3334 0cb8
-4.844106e-05 -0.00031289662 -0.000130711 0.00041912217 -0.00011329727 0.0012351164 0.0013308929 0.0004501295
-4.844106e-05 -3.3427215e-05 0.00014704843 2.8119644e-05 0.0005258652 -0.00037027936 0.0002875498 0.0005488591
0.0014259794 -0.000130711 -0.00026880208 -0.00022559303 -0.00021782792 0.00044057003 0.0005154684 -0.00014650478
-0.0004261196 -0.00025389597 -3.3427215e-05 -4.844106e-05 -0.000130711 0.001289818 -0.000130711 -0.00019319639
0.00091477094 -0.00025389597 -0.00033263274 -0.000130711 0.00042926957 -0.00014213177 -0.00038255446 -0.00044833767
-6.634592e-05 0.0006112806 -0.00010963368 -0.00016491744 0.00013832026 -0.000130711 -6.634592e-05 0.00035277364
-0.00011479978 0.00018635656 -0.00028287523 -0.0002646107 0.0008506177 -0.00037027936 0.00044563194 -0.00031580444
-0.000422905 -0.000130711 0.00050514867 -0.000113346985 -0.000130711 -0.00038843538 -0.00025389597 0.0005177742
-0.00023337115 -0.00020401925 0.0007500952 -0.00019319639 0.00034155496 -0.00010679967 0.00047440908 0.00032220903
0.00035311244 -0.00037027936 -0.0004261196 0.0011357933 0.00031030917 -0.00025389597 -0.00041646112 -0.00037027936
-0.0005914267 -0.00037027936 -0.00037027936 -0.00023689614 -0.00019319639 -0.00037027936 -0.00014753058 -0.00039503275
-3.3427215e-05 -0.00013661239 -3.3427215e-05 -0.0003276535 -0.00014366495 0.0012008513 -0.000130711 0.0014123914
0.00048528286 0.0005235106 -0.0006353955 -6.634592e-05 -0.000130711 -5.4751064e-05 -9.876959e-05 -0.00025389597
-0.0003594408 -0.00017384248 0.0007163188 0.00082484144 -0.00025389597 -0.00023511375 -0.00038438122 -0.00025389597
-0.00028174956 3.4797373e-05 -0.000130711 -0.0004261196 -0.00019468264 -0.0004261196 -6.634592e-05 0.00049541297
-0.0003795365 -0.00037787383 -9.876959e-05 -0.000130711 -0.0002131691 -0.0003665046 0.0006526706 -3.3427215e-05

model.fc.2.weight f4 [64, 128]
00000000: 6a59 ccbc 814f 2bbc 52ee a2bd f201 6e3d
00000010: f24f 7dbd 1405 63bd 4351 2f3d 163e eabc
00000020: e5aa db3c 169a 883c e5fe 00bd 887b 803c
00000030: 9d5c 68bd bd90 46bc 2619 9a3d 58e9 bb3d
00000040: eab9 883d ef6c aebd 771a 71bd 94a1 41bd
00000050: 3fe2 423d 0a67 3abc 2141 02bc 3583 87bd
00000060: 28d8 ae3c 263a 93bc 5226 01bd 3fd4 10bd
00000070: 5cb7 97bd c068 9d3d 1955 c93b 23c2 4d3b
00000080: c8c6 b8bd 778c 95bd b08a 7e3d 3641 37bd
00000090: 964a 0e3d 691a a23d 0850 cbbc f333 f73b
000000a0: 1508 213c eee4 123d 5ebd 6ebc 029c b23d
000000b0: 6ca0 9e3d dea9 75bd 5a91 4d3c fbf9 b03a
000000c0: 1c53 543c a9df 21bd 538e b3bd a52a 133d
000000d0: 9e8d 4bbd 275e 2c3d 51f8 083d 0056 6d3d
000000e0: c14e 34bd 12c0 43bc 37da 27b9 b818 883c
000000f0: 859d 01bd e5f2 47bd 6063 9dbd 4641 97bd
00000100: efc4 4a3d e95b b73c a9dc 713c 3ee8 af3d
00000110: 5c4b 2e3d 29a7 eebc 51ac 713d 5b72 08ba
00000120: 6518 bf3c 46d1 44bd 454b 9e3c be87 17bd
00000130: 6a0a 91bc 1a80 3cbd 98d8 623d 8c20 4c3c
00000140: b643 463d 2a9c 263d 6a58 0a3d 114b 503d
00000150: 7231 593b 0f2e 4f3d 6a30 c3bd ada3 56bc
00000160: 22ed 943d d1a6 e33b 0f3b 35bd ff55 453d
00000170: a6b8 8b3d 623d 72bc 7b6c 233b 1847 92bd
00000180: ba4d 723b 6f4f 3fbd 532e f3bc e3dd ccbb
00000190: ecd8 a63d 5056 943d f9e7 65bc 803a 263d
000001a0: 7391 b13d 70ec ac3d 506a c33d e7b2 5a3d
000001b0: be9d a5bd c0e3 7b3c 89e2 64bc dc33 50bd
000001c0: 397b 863d e053 6e3d 4139 88bd c70d 463c
000001d0: 3b28 643d da4d 8abd d183 8ebd 72e9 803d
000001e0: 5c07 85bd 2dac 66bd 669c aa3d a25a 823d
000001f0: 3976 5c3d 5e4e 9cbd 336b 8e3d 02fe 27bd
00000200: 84d5 8dbc 4045 6dbd e2cf f23c c53d c1bc
00000210: c7ee 073d 5068 05bd 673f e7ba fb3e 90bd
00000220: 6821 2fbd 705e 4c3d fc94 34bd 235e 563c
00000230: 4043 a23d 839f 66bd 6640 8e3d 29e5 0d3d
00000240: 4e75 b93c 9797 b6bd 0f7a 9dbd e512 f73c
00000250: 3150 9cbd 228d 01bc acd2 5a3d ca31 d83c
00000260: b5dd 093d 2fd5 303d ab72 8c3d 1e21 01bd
00000270: 3dd9 603d 7e51 133d 5007 02bd d298 9e3d
00000280: f797 09bd 7fba 19bd 6b76 713d 0d96 313d
00000290: f250 703d 3d27 51bd 514f a7bd 0e13 6f3c
000002a0: bb35 8dbc 8edc 213d f2dd b23c b4d0 bb3c
000002b0: 7ccc 003d 4a43 a43d c8b1 3dbd eabe 93bd
000002c0: 3b87 52bd d9c9 ee3c 0306 1f3d de5b 20bd
000002d0: b61e b33d f748 003c 41d6 223d 2b6c 0ebd
000002e0: 8041 8c3c 3401 763d cfbe 323c de31 813b
000002f0: a1ab 5c3c 0f47 77bb aa89 863d 318c b33d
00000300: bbf3 7c3d 28f8 5fbd 2a1a 973d 89fc 233d
00000310: caa2 a73c 80cc 7fbb dba9 903d 90ad 663d
00000320: 9663 323c 7985 88bd a859 8ebd 37fd 403d
00000330: c2ca afbd b303 37bd 3e41 3ebd c5d4 b439
00000340: 9d56 e839 f2b5 9ebd cd3d 0cbd dd44 503d
00000350: 84dd ec3b 238e 70bc 00f2 1d3d ca73 8d3d
00000360: 55d2 9abc 635a 2dbc 3e48 ba3c e374 ac3d
00000370: cf1a f1bc 40f3 9cbd 80c3 e1bb 5f62 b5bd
00000380: 58d8 90bd afda edbb 7dee 2bbd d9b4 023d
00000390: 8048 89bb 9941 40bd daef d2bb 12c8 b9bd
000003a0: 5625 393b a902 6bbd d855 d93c 2302 dc3c
000003b0: a882 a2bd 69e7 053c e0cb 91bd 873b 493d
000003c0: f170 a63d a0b5 09bd 04f8 383d 3c87 a8bc
000003d0: d763 80bd ef53 643c b25b c83c c65c 9bbd
000003e0: 5990 aabd 00e3 983d 8de1 06bc d918 713d
000003f0: 3f32 39bc 18c8 a83c 93fe 50bd b675 ca3c
-0.02494498 -0.010455967 -0.07955612 0.058107324 -0.06184382 -0.055424765 0.042802107 -0.028594058
0.026814887 0.016675036 -0.031493086 0.015683904 -0.056728948 -0.012119469 0.07524328 0.09175366
0.06676085 -0.08516871 -0.05886313 -0.047273234 0.047579046 -0.0113771055 -0.007950098 -0.06616823
0.021343306 -0.017972063 -0.031530686 -0.035358664 -0.0740802 0.07685995 0.0061441776 0.0031396232
-0.090222895 -0.07302182 0.06214398 -0.044739924 0.0347391 0.079151936 -0.024818435 0.0075440346
0.009828587 0.035862856 -0.014571516 0.087211624 0.07745442 -0.05997645 0.012546862 0.0013502234
0.012959268 -0.03951994 -0.087673806 0.03592934 -0.049695604 0.04208198 0.033439938 0.057943344
-0.044020418 -0.011947649 -0.00016007652 0.01661335 -0.031644363 -0.048815627 -0.0768497 -0.07385497
0.049504217 0.022382693 0.014762082 0.085892186 0.042552337 -0.029132443 0.059002224 -0.00052050286
0.023327062 -0.04805114 0.019323 -0.03699469 -0.017705161 -0.046020605 0.05538234 0.012458932
0.048404418 0.040676273 0.033775724 0.05085284 0.0033141044 0.050581034 -0.095307186 -0.013100547
0.07271792 0.0069473763 -0.044245776 0.048177715 0.06822328 -0.014785143 0.0024936486 -0.07142466
0.0036972598 -0.046706613 -0.029685175 -0.006252037 0.08146843 0.07243025 -0.014032357 0.040583134
0.0867032 0.084435344 0.09541762 0.05339327 -0.080867276 0.015374124 -0.013970026 -0.050830707
0.065664716 0.05818546 -0.06651545 0.012088246 0.05570243 -0.0675313 -0.06958736 0.06294526
-0.06495544 -0.056316543 0.08330612 0.06364943 0.053823683 -0.07632135 0.069540404 -0.041013725
-0.017313726 -0.05792737 0.029640142 -0.023589024 0.0331867 -0.032570183 -0.0017642797 -0.070432626
-0.042756468 0.04989475 -0.044087395 0.013083967 0.07922983 -0.056304466 0.06945877 0.034642372
0.022638943 -0.08915632 -0.076892965 0.030160377 -0.07632483 -0.007907184 0.05342357 0.026390929
0.033658702 0.043172058 0.06857809 -0.031525724 0.054894675 0.03596639 -0.031745255 0.07743992
-0.03359219 -0.037531372 0.058950823 0.04335599 0.058670945 -0.05106281 -0.08169425 0.014591945
-0.017237535 0.039516978 0.021834347 0.022926666 0.03144501 0.08020647 -0.046312124 -0.07214148
-0.051398497 0.029148983 0.038824093 -0.03915011 0.08746092 0.007829896 0.03975511 -0.034771126
0.017121077 0.06005974 0.01090975 0.003942712 0.013468654 -0.0037731563 0.06569226 0.08766974
0.061755877 -0.05468002 0.07378037 0.04003576 0.020463366 -0.0039031804 0.07063647 0.056317866
0.010888001 -0.06666083 -0.06950694 0.047116484 -0.08583595 -0.044681262 -0.04644894 0.000344908
0.0004431502 -0.07749547 -0.034238625 0.050846923 0.007228555 -0.014682326 0.038560867 0.06906851
-0.018899122 -0.010580632 0.022739526 0.08420732 -0.029431729 -0.07663584 -0.0068897605 -0.088566534
-0.07072514 -0.007258735 -0.041975487 0.03191075 -0.004189551 -0.04693756 -0.006437284 -0.090713635
0.0028251014 -0.057375584 0.026530191 0.026856488 -0.07935077 0.008172848 -0.07118964 0.049129035
0.081270106 -0.033620477 0.0451584 -0.020572297 -0.06269043 0.013936027 0.024457786 -0.075860545
-0.083283134 0.07465172 -0.008232486 0.058861587 -0.0113034835 0.020603225 -0.05102403 0.024714332

model.fc.2.bias f4 [64]
00000000: 15c6 68bc bdd2 643c 82bb 27bd e990 b83b
00000010: 9280 a8bd 9fc5 e73c f23f 64bc e66b b93c
00000020: 3b62 613d bce8 9dbd 622a 913c 0f3a 96bd
00000030: 85fb afbc 47b2 aabd 9ab0 63bd dcfe 4bbc
00000040: ee9d 523b 32d9 a6bc c3e6 b53d 1ee2 dfbc
00000050: 2730 2cbd c903 5c3d 6619 73bd f9f8 acbc
00000060: 5688 383c c9fc f23c 0c1b bfbc d654 863d
00000070: b567 58bc 05c9 1bbd 4f46 353d 4070 373d
00000080: 0a3d dfbc c0d3 923c 304e 043d 7bd9 2c3d
00000090: 99c8 5ebb 4e10 583c 2ce3 843d adac 563d
000000a0: b5e4 85bd ef7c eb3c 8f2d 2dbd bf93 45bd
000000b0: c5b9 7f3d 1bf1 663d 714d 0bbd 5ce2 6ebd
000000c0: 66fb ccbc 3d00 b03d 0dce 3e3d 18c6 21bc
000000d0: 71eb fcbb 3a36 663d d673 c1bc 5909 343d
000000e0: 3392 68bd f7f7 ac3d acc0 5fbd 91fc 57bb
000000f0: 9582 98bd 9b8b d13c aa15 0d3d 6497 063d
-0.014207383 0.01396626 -0.040950306 0.005632509 -0.08227648 0.028292475 -0.013931261 0.022634458
0.05502532 -0.07710406 0.017720405 -0.073352925 -0.021482239 -0.08334785 -0.055588342 -0.0124509
0.003213759 -0.020367239 0.08881905 -0.0273295 -0.04203811 0.053714547 -0.059350394 -0.021114813
0.011262974 0.029661553 -0.023328327 0.0655915 -0.013208319 -0.038033504 0.044256505 0.044784784
-0.027250785 0.017923236 0.032301128 0.042199593 -0.0033994077 0.013187481 0.06488642 0.05241077
-0.06537763 0.028746096 -0.042279776 -0.048236605 0.062433023 0.05638228 -0.0340094 -0.058321342
-0.02502222 0.085937954 0.046583224 -0.009873889 -0.0077184965 0.05620406 -0.023614805 0.043954227
-0.05678005 0.08445733 -0.054627106 -0.0032956938 -0.074467815 0.025579264 0.03444449 0.03285922

model.fc.3.weight f4 [64]
00000000: cbf2 7e3f a867 803f caa1 7f3f 38d7 7e3f
00000010: a342 803f 24af 803f d42b 803f d800 7f3f
00000020: 880e 803f 5308 803f 33b0 803f e176 7e3f
00000030: 218f 7f3f fe99 813f b336 7c3f d858 7e3f
00000040: 5736 7e3f 8d7b 803f d16f 803f a694 7e3f
00000050: 56f3 803f 1a07 813f c3d9 7e3f 95bd 813f
00000060: 538e 803f d2a1 7f3f 0406 803f d890 7f3f
00000070: 0e86 803f 9602 803f 2af1 7e3f fe91 7d3f
00000080: 5f3b 7e3f fc48 813f 200c 803f 8775 7e3f
00000090: db29 7f3f 6289 7f3f f2fd 803f 81b4 7e3f
000000a0: e3c6 7f3f c736 813f 9fe2 7e3f 193a 7f3f
000000b0: 042a 7f3f 5398 7d3f b6f7 7d3f 218c 7f3f
000000c0: 6a4e 813f abe6 7c3f 5b76 803f 094b 803f
000000d0: ac92 813f 62c2 813f bfb7 7d3f 0ad6 803f
000000e0: c916 803f 1882 813f 1e6f 7e3f 6369 7f3f
000000f0: 4313 7f3f 4502 7f3f 9078 7c3f 26c5 7e3f
0.9958922 1.0031633 0.99856246 0.9954715 1.0020336 1.0053449 1.0013375 0.9961066
1.0004435 1.000254 1.0053772 0.99400145 0.9982777 1.012512 0.98520964 0.99354315
0.99301666 1.0037705 1.0034124 0.9944557 1.007426 1.0080292 0.9955103 1.0135981
1.0043434 0.99856293 1.0001836 0.9983039 1.004091 1.0000789 0.9958674 0.9905089
0.99309343 1.0100398 1.00037 0.9939808 0.9967324 0.99819005 1.0077498 0.9949418
0.9991285 1.0094842 0.99564546 0.99698025 0.99673486 0.99060553 0.992061 0.99823195
1.0102055 0.9878947 1.0036119 1.0022899 1.0122886 1.0137446 0.991085 1.006532
1.0006953 1.0117826 0.993883 0.9977018 0.99638766 0.9961284 0.98621464 0.99519575

model.fc.3.bias f4 [64]
00000000: 7462 3dbc f7db 933b ee49 cf3a d162 3fba
00000010: 8f2b 09bb 4e14 e4ba 0ce2 273b 8c2b c4bb
00000020: 3993 00bc 4bd0 9b3a fc42 bfbb 1d90 3a3c
00000030: 9028 7ebb d09f 523b dabd 7fba ffa7 1cbc
00000040: 780c 48ba b71f a23b 8354 823b 6621 23bc
00000050: 9a1f 413b 86b1 2b3b ca04 333c 6e66 00bc
00000060: f08e cd3a c803 b33b ba3c fe3b c8d4 a1bb
00000070: c1d5 193b 91e9 ee3b 533d 26bc dd30 36bc
00000080: 73a3 abbb 6c39 d0b9 24b1 1fba d79b b03a
00000090: bf53 66bb de78 1bbb b08a c539 4444 023b
000000a0: aab3 a83b cc8c 54ba 6004 303b 1894 883b
000000b0: 4a56 f83b 24d1 cdbb 1886 50bb bf2c a539
000000c0: 8b79 b7bb b66a 1d3b cca6 af3b 934e bcb8
000000d0: 5068 07bc d23a 553b 5f02 42bb 8129 e9b8
000000e0: 37f9 cb3a 8200 62bb 419a 86bb 673d 9e3b
000000f0: 72ad a23b 949d babb 1420 07ba fa44 f13b
-0.011559118 0.004512306 0.001581488 -0.00073007966 -0.0020930504 -0.0017401071 0.0025616912 -0.0059866365
-0.007847601 0.0011887638 -0.0058368426 0.011386898 -0.0038781501 0.0032138713 -0.0009755768 -0.009561538
-0.00076312525 0.0049476284 0.0039773597 -0.009956693 0.00294683 0.0026198342 0.010926435 -0.007836921
0.0015682857 0.0054630972 0.007758704 -0.0049386956 0.0023473355 0.007291027 -0.010146457 -0.011120048
-0.0052379905 -0.00039715634 -0.00060917647 0.0013474178 -0.0035145131 -0.0023723166 0.00037678098 0.0019877115
0.0051483708 -0.00081081386 0.0026858076 0.004168045 0.007578646 -0.006281035 -0.0031818207 0.0003150459
-0.005599206 0.0024019904 0.00536046 -8.979174e-05 -0.008264616 0.003253628 -0.0029603464 -0.000111180365
0.0015561943 -0.0034485166 -0.004107744 0.004829097 0.004964524 -0.0056950543 -0.00051546213 0.007362959

model.fc.3.running_mean f4 [64]
00000000: efb5 28bd 94af 5dbc 23d6 9ebd b33e eb3c
00000010: 5b7c a0bd 3f24 013d a22f 7f3b 8050 abba
00000020: d24a 453d 582e 9cbd bada 9b3c 2da8 a4bd
00000030: 83f7 4bbc 2b97 cdbd e411 62bc cc3d 463d
00000040: f929 e13c c028 163b a3cf d53d 4653 92bd
00000050: bb68 90bd ca8d c23c 93d9 1cbd 6347 d7ba
00000060: 143e de3b e624 6f3c 87d1 9cbc 0232 d23d
00000070: 7d12 4fbd 80cd b6bc 6763 b93d b057 c33c
00000080: e617 19bd c6ba 4d3d 9608 2c3d 664c 553d
00000090: 69f9 2d3d d337 b23d de98 c63b 5c13 a53d
000000a0: fee6 d3bd d326 b13c 8cb6 babc 05a0 583c
000000b0: 44b0 9b3d 33a9 6c3d 8f39 14bd 3a85 f4bc
000000c0: 4937 f1bc 5265 9f3d 9ce4 063d 325c 40bd
000000d0: 8c48 edbc 06be dd3d 9953 69bd a798 8e3d
000000e0: 746d fabc 1530 c93d f2de 5fbd f202 043d
000000f0: 8187 a1bd cbde 723d 02af b63d 1861 4c3d
-0.04118913 -0.013530631 -0.07755687 0.02871642 -0.07836219 0.031528708 0.0038938303 -0.0013070256
0.048167057 -0.07626027 0.019025195 -0.080398895 -0.012449148 -0.100385986 -0.013798211 0.048398778
0.027485834 0.0022912472 0.10439994 -0.071447894 -0.07051226 0.02374925 -0.038293432 -0.0016424473
0.0067823026 0.0145962 -0.01914288 0.102634445 -0.05055474 -0.022314787 0.090521626 0.023845524
-0.037376307 0.05022695 0.042000376 0.052074812 0.042474184 0.08702054 0.0060607037 0.08060333
-0.10346793 0.021624958 -0.022792123 0.013221745 0.076019794 0.05777855 -0.036187705 -0.029848684
-0.029445307 0.07782997 0.032932863 -0.046962924 -0.028965257 0.1082726 -0.05696449 0.0696271
-0.03056977 0.09823624 -0.054655977 0.03222937 -0.078871734 0.059294503 0.08920099 0.049897283

model.fc.3.running_var f4 [64]
00000000: 1269 783e fda8 823e adac 893e 38e6 933e
00000010: 3e7e 903e ef02 743e 2f68 493e e20e c03e
00000020: 3740 0c3f 141c a63e 28cb 523e bc48 873e
00000030: 2aa2 bb3e 7606 8a3e dfe6 813e 8200 843e
00000040: a61d ad3e 3c5f 623e c9c1 af3e 27b8 6c3e
00000050: 2a49 a53e 38bc f03e acef 803e aa72 5b3e
00000060: 098c 7c3e 4034 5a3e 8729 c83e 1d7c 9f3e
00000070: bb4f 0e3f d624 453e 23bd 773e c255 8f3e
00000080: 7ded a33e 37d8 693e b30d 993e c4a2 873e
00000090: c486 373e 486e b23e b908 bd3e dd82 783e
000000a0: 06e4 a03e 8b23 cc3e f13c 823e b3e6 863e
000000b0: 775d 833e 9cbd 823e 310f ae3e 6929 843e
000000c0: 9845 c53e ab3a 683e 5c8d 043f 6ee4 853e
000000d0: 381a 693e 3124 5d3e b6fd 943e 8304 b73e
000000e0: d91d ad3e 8ef3 8e3e 9b07 883e f090 dc3e
000000f0: 0c24 7b3e c289 3c3e 1fa8 763e 9657 c43e
0.24258831 0.25519553 0.26889554 0.2888658 0.28221315 0.23829244 0.19668649 0.37511355
0.54785484 0.32443297 0.2058531 0.2642268 0.3664716 0.26958054 0.25371453 0.25781637
0.33811682 0.22106642 0.34327534 0.23117124 0.32282382 0.470186 0.25182855 0.2143046
0.24662794 0.21308994 0.39094183 0.31149378 0.5559041 0.19252333 0.24193244 0.27995116
0.32017127 0.22836386 0.29893264 0.26491368 0.17922503 0.34849763 0.36920717 0.2426867
0.31423968 0.39870867 0.2543712 0.26347885 0.25657246 0.25535285 0.33995965 0.25812843
0.38529658 0.2267863 0.517782 0.2615084 0.22763908 0.21595837 0.29099816 0.3574563
0.33811834 0.27920192 0.26568303 0.4307933 0.2452547 0.18411925 0.2408757 0.38348073

model.fc.4.bias f4 [1, 64]
00000000: 67cf afbb 4fcf afbb cda3 76bb 82cf afbb
00000010: 61bc 6abb 84c2 9bbb f68a a23a edcd afbb
00000020: b4cf afbb 97cc 8f3a e9cf afbb 44d1 353c
00000030: 19d0 afbb 9c9f 4e3b e061 00bb 9fcf afbb
00000040: 83ce afbb 3bf7 aebb 20cf afbb 9f96 90bb
00000050: 8ca2 283b 59cc afbb 38fd 303c fecf afbb
00000060: 44cf afbb c14f b03b 3d90 ef3b 5ace afbb
00000070: f2da 493a 2a2e e43b c699 afbb 71cf afbb
00000080: d3cb afbb 0073 9bbb d9c8 afbb 5d5f 88bb
00000090: f4cf afbb 109c aabb 5ccf afbb f87d 77bb
000000a0: 5223 873b b0cf afbb 71cf afbb 6e36 7b3b
000000b0: 6ad4 ee3b f4cf afbb 10e1 49bb fe4d e5b9
000000c0: 30d0 afbb 4760 dc3a 668e a03b d0cf afbb
000000d0: 34cf afbb 3b10 263b b2ea 89bb d5cf afbb
000000e0: 60ad ba3a 3dd0 afbb 73b9 afbb d19f 913b
000000f0: 780f 09b9 09d0 afbb 36cc afbb 67ca ed3b
-0.0053653005 -0.0053652893 -0.0037634254 -0.005365313 -0.003581785 -0.0047534127 0.0012401033 -0.0053651244
-0.0053653363 0.0010971007 -0.005365361 0.011097256 -0.0053653833 0.003152824 -0.0019589588 -0.0053653265
-0.0053651943 -0.0053395308 -0.0053652674 -0.0044124867 0.002573165 -0.0053649363 0.01080256 -0.005365371
-0.005365284 0.005380601 0.0073108957 -0.005365175 0.0007700167 0.006963511 -0.0053589074 -0.005365305
-0.005364874 -0.0047439337 -0.005364519 -0.004161759 -0.005365366 -0.0052065924 -0.0053652953 -0.0037764292
0.0041240836 -0.0053653345 -0.005365305 0.0038332003 0.0072885053 -0.005365366 -0.0030804314 -0.00043736392
-0.005365394 0.0016813361 0.0048997877 -0.0053653494 -0.0053652767 0.0025339264 -0.004208886 -0.0053653517
0.0014242344 -0.0053654 -0.0053626834 0.0044441004 -0.000130711 -0.005365376 -0.00536492 0.0072567943

model.fc.6.weight f4 [32, 64]
00000000: 1b03 9f3d f586 00bd 4454 963d e847 5b3d
00000010: 20ba b93a 3028 ed3d 6f3e ecbd 5918 c6bd
00000020: 8d86 46bd f8f3 7dbc 721a a53d 0916 223d
00000030: 32d2 a5bd 2d3d a03d 2ec7 84bd 17cf bdbc
00000040: da12 edbd 7daa afbd 8628 823d 349c da3d
00000050: 7a4c 54bd a20e b93d 9f7e 4f3d 9ed6 fc3d
00000060: 2266 b7bd 11db bcbd c7f1 e83a cadf ca3d
00000070: a9c4 a83d 044d e9bd 0650 debb 8b61 483c
00000080: 4e62 c23d dd30 033d ea13 c83b cecf 87bc
00000090: 8c1d bd3d 114c a73d 8a32 1b3d b38a 93bd
000000a0: aa20 9a3c 3ea1 67bd 9cb8 2c3c e736 f53d
000000b0: 7635 bc3d b21f eb3d ba6a a53c 7ec4 babd
000000c0: bf3e 12bd 4d6a b1bd 153f a23d fc9c 7c3c
000000d0: 136a ebbc 599e efbd 7ed6 9dbd 24d3 25bd
000000e0: 047f b3bd 4f47 be3d 14e8 fc3d c809 f0bc
000000f0: ea7b b33d 310b d3bd 86b5 763d 0403 72bd
00000100: c6f7 db3c 6c1b d2bb 15ee 8abc 1627 c43d
00000110: 7275 cfbc 59bc db3d 228f 7e3b db0d 153d
00000120: 7fca ef3d c73c bbbd 492e dd3d e6dd eabd
00000130: 3598 ebbd cafc 04bd 1020 813d 9e0d d3bd
00000140: 52cf c5bd 4a9c 133d 26a8 83bd 81b5 7b3d
00000150: 61c2 e23d a3f7 14bd f3e7 58bd e893 263d
00000160: a6cd c13c 18de f1bd 2e47 043d ad0a f13d
00000170: 33d4 dabd 4bbd a83d a79d 713d 6fed 8dbd
00000180: 7eec ea3d d06c 213d 0045 233d bb00 96bd
00000190: 6552 a93d cc7d c0bd 7afd 313d 93b7 193d
000001a0: 9a11 f43d d29c f03d 98d7 093e bef2 8bbd
000001b0: 5b4d 34bd dc4c 9cbd e540 e2bd ff54 02be
000001c0: 56fe c13d 93f2 4d3d 2318 2e3d fb2d fb3d
000001d0: 5ea8 cfbd 8d0a bfbd 52e9 fa3c 85e2 353c
000001e0: fa06 ac3c c359 2ebd c88d 4abd 22f7 a83d
000001f0: f9de 093d 1d58 ea3c 759c e2bd 2039 e1bd
00000200: d7b6 7fbc e9d7 c33c 3842 ea3d 595d bbbb
00000210: bcdd df3d b54b 9dbd aea1 bdbb c4c7 a1bd
00000220: 592c ddbd 8361 053e ef8d 063e b050 febc
00000230: fea6 b93c f61f c53d 0d27 a93d 24fe c4bd
00000240: 4a4f 633c 7365 9dbd efd8 dcbc ccfa 14bc
00000250: a40a 01bd 247c f13c 4919 f03d 8a49 ce3c
00000260: 0dd3 5f3d 9655 a7bd 0d0f dabd 9f82 983d
00000270: 32ad 93bd ab42 89bd 8cd4 033d 553b 263d
00000280: 5178 08bd 08cb 08be 6a1a 83bc fe0e 96bb
00000290: 17cf 363d 1887 f7bd 66df 9a3c a8f4 b3bd
000002a0: edc3 983d e044 063e e185 bcbd 8f88 dcbd
000002b0: 7ee7 c4bc 16a7 303d 3ec1 b43c 2b4b c03d
000002c0: 1b53 fd3d e732 813d 8437 7abc e7b6 c13d
000002d0: b4d2 d7b9 5fcc 03bc 6753 e83d 4383 383d
000002e0: 44eb c4bd a7fb bf3c f0c5 ab3d cfde c83d
000002f0: d371 c83d 36a2 8ebc ce31 693d 4a0d ebbd
00000300: cd26 a13d d06c 42bd 6a60 8dbc b960 da3d
00000310: ed26 d33d 037d 013e 9a30 713c f1e2 403d
00000320: 16e2 8c3d 768b fabb 375a 17bd 4600 46bd
00000330: a15d 9ebc 4020 c7bd c26c 97bd 4d87 683d
00000340: c10e e1bc a07d b13d 3f5a 173d b54e 303d
00000350: e6a7 00bd ea1c a33c ad3b 923c d9ec e2bb
00000360: 101c c2bd 8948 c93c 95ec 7fbd 55eb cb3d
00000370: 531c ee3c 2348 dd3c 5861 cebd 7ac2 823c
00000380: d44e 0dbd a717 613d c34b 82bc 90f7 cb3c
00000390: 8c66 e53d 7749 f1bd fcaf d63c 5494 c0bd
000003a0: 430b 7fbd 1c51 a13d 607b 113b 7ccf b33d
000003b0: c69c d03d 38bb acbc ea43 9fbb 4e70 063c
000003c0: dbae 3fbd 4456 af3d 3394 ca3d 64d6 313d
000003d0: 1955 c63d dfec 70bb ecea 15bd 9f29 92bd
000003e0: 3283 71bd 3c69 8bbc 6233 ba3d 05e7 d9bd
000003f0: 7200 993d 4091 d6bd 939c a8bd 2506 aabd
0.07764264 -0.031378705 0.07340291 0.053535372 0.001416985 0.11579931 -0.11535346 -0.09672613
-0.04846816 -0.015500061 0.08061685 0.039571796 -0.08096732 0.07824168 -0.06483303 -0.023170037
-0.11575861 -0.0857744 0.063553855 0.10674325 -0.051830746 0.09035994 0.050657865 0.123456225
-0.08955027 -0.09221471 0.001777225 0.099059656 0.08240635 -0.11391643 -0.006784442 0.012230287
0.094914064 0.03202902 0.0061058896 -0.016578581 0.09234151 0.081688054 0.037889995 -0.07204189
0.018814404 -0.056550257 0.010542061 0.119733624 0.09189884 0.11480655 0.020192493 -0.09119509
-0.03570437 -0.086628534 0.07922188 0.015418287 -0.028737104 -0.11700124 -0.07706927 -0.040484563
-0.08764461 0.09290945 0.12348953 -0.029301539 0.08763869 -0.10304869 0.060231708 -0.059084907
0.026851546 -0.0064119603 -0.01695923 0.095777676 -0.025324557 0.10729284 0.0038842638 0.036390167
0.11708545 -0.09142452 0.10799844 -0.11468105 -0.115036406 -0.03246764 0.063049436 -0.10305332
-0.09658684 0.03603772 -0.06428556 0.061452392 0.11072231 -0.036368977 -0.05295558 0.0406684
0.023657631 -0.11809939 0.032294445 0.11769614 -0.10685005 0.0823923 0.05898824 -0.069300525
0.114708886 0.039410412 0.039860725 -0.07324358 0.08267669 -0.09398994 0.043454625 0.037528586
0.1191742 0.11748661 0.13461149 -0.06833409 -0.044019084 -0.07631847 -0.11047534 -0.12727736
0.09472339 0.050280165 0.042503487 0.122646295 -0.10139535 -0.09328184 0.030628834 0.01110137
0.02099942 -0.042566072 -0.04945162 0.08250262 0.03365991 0.028606469 -0.11064998 -0.10997224
-0.015607557 0.023906665 0.114384115 -0.005717915 0.10930964 -0.076804556 -0.005787096 -0.078994304
-0.10799474 0.13025479 0.13140081 -0.031044334 0.022662636 0.09625237 0.082594015 -0.09618786
0.013873884 -0.076853655 -0.02695891 -0.009092998 -0.03150429 0.02947814 0.11723573 0.02518155
0.054644633 -0.08170621 -0.10647402 0.07446789 -0.07210769 -0.06702169 0.032185122 0.040583927
-0.033317868 -0.133587 -0.016003806 -0.004579424 0.04463109 -0.12086314 0.018905353 -0.08786899
0.07459245 0.13112211 -0.09205223 -0.10768234 -0.024036165 0.043128096 0.022064801 0.09389337
0.12369367 0.06308537 -0.015272025 0.09458714 -0.00041164982 -0.008044331 0.11344033 0.045047056
-0.09615186 0.023435427 0.08387363 0.09808122 0.09787335 -0.017411333 0.056932263 -0.11477144
0.07868729 -0.047467053 -0.017257888 0.1066298 0.10310159 0.12645344 0.01472106 0.04709143
0.0687906 -0.0076460196 -0.03695127 -0.048340105 -0.019331755 -0.09722948 -0.07393791 0.056769658
-0.027472856 0.08666539 0.0369513 0.04304381 -0.03141012 0.019911248 0.017850721 -0.006925207
-0.09478009 0.02457072 -0.06248148 0.099569954 0.02906624 0.027011937 -0.100771606 0.015961874
-0.034499004 0.054954197 -0.015905267 0.02489832 0.112012 -0.117815904 0.026206963 -0.09403291
-0.0622666 0.078767985 0.0022198781 0.08779809 0.10186152 -0.021085367 -0.004860391 0.008205486
-0.046797615 0.08561376 0.09891548 0.04341735 0.096842 -0.003676228 -0.036600992 -0.07136845
-0.05896301 -0.017017953 0.09091832 -0.106397666 0.07470788 -0.10476923 -0.08232989 -0.08301953

model.fc.6.bias f4 [32]
00000000: 805b 6d3c 0f90 8fbd 0b88 903c 6795 923d
00000010: 57aa 973d e6e5 32bd a3bd f2bd d503 b33d
00000020: 0705 5f3c 8b43 783d 7852 87bd 7d6e d03d
00000030: 1808 86bc 8557 903d 009b 983d ea88 f03d
00000040: 3a5f d7bd 05ea 90bd 34cb 733d a67b 9dbd
00000050: 4bc8 c4bd d833 393d 7602 83bd 9493 fc3d
00000060: 4b6d 1dbd 2697 cabd fe4b 89bd e706 b83b
00000070: 7925 e23d 6d62 18bc 2a1a babd 7ae5 efbd
0.014487147 -0.07009899 0.017642995 0.071574025 0.074055366 -0.04367628 -0.118525766 0.08740965
0.013612038 0.06061129 -0.066075265 0.10177324 -0.016361281 0.07047943 0.07451439 0.11744864
-0.1051621 -0.07075886 0.05951996 -0.076896 -0.09608515 0.045215458 -0.06396954 0.12332836
-0.038434308 -0.098921105 -0.067039475 0.005616057 0.110423036 -0.00930081 -0.09087022 -0.11713691

model.fc.7.weight f4 [32]
00000000: 2264 813f 7859 7c3f a9d7 7f3f 6b58 7f3f
00000010: 88b4 7e3f 4e22 7e3f 1d19 803f 72cb 803f
00000020: 1730 803f e753 813f eab4 7b3f d5e2 7f3f
00000030: b27f 803f 6e75 813f 5009 813f 6a30 7e3f
00000040: ec13 7d3f b5c1 7d3f a6d8 803f 560b 813f
00000050: baa8 813f 826a 7f3f ff48 803f 8e6d 823f
00000060: faeb 7f3f defc 813f 2e20 803f 6056 7c3f
00000070: 52e3 7d3f 383c 7e3f 8965 7e3f 1ba7 7d3f
1.0108683 0.9857402 0.99938446 0.9974429 0.9949422 0.99271095 1.0007664 1.0062087
1.0014676 1.010373 0.9832293 0.99955493 1.003897 1.0113962 1.0080967 0.99292624
0.98858523 0.991237 1.0066116 1.0081584 1.0129616 0.99771893 1.0022277 1.0189683
0.99969447 1.0155294 1.000982 0.985693 0.9917499 0.99310637 0.9937368 0.9908311

model.fc.7.bias f4 [32]
00000000: 5887 77ba 3704 a83b 3143 a83b d2e5 da3b
00000010: c89f 893b add3 df3b a141 ee3b 26a1 173c
00000020: 9203 b4ba 662a 763b 2828 023c 447a 613b
00000030: ee7d 3b3c 0277 cd3b 0a88 c03b a758 b2bb
00000040: 07cc 003b ffb1 ec3b bd37 03b9 d62d 70bb
00000050: 32fb fc3a 7ec5 1bbb 25a2 4139 6c92 713c
00000060: 2291 6b3b 6cfb 46bb 383f 09bb ddc1 823a
00000070: 33c6 ad3b 324a 8dbb ad5b 443b 1316 0e3c
-0.000944247 0.0051274556 0.005134963 0.0066802287 0.0041999556 0.0068306536 0.007271007 0.009254729
-0.0013733974 0.0037561893 0.007944144 0.0034405151 0.011443598 0.0062702904 0.005875592 -0.005442697
0.001965286 0.007223367 -0.00012513898 -0.0036648414 0.0019300936 -0.0023768838 0.00018466318 0.014744382
0.003594466 -0.0030362261 -0.0020942222 0.0009975989 0.005303168 -0.0043118233 0.002996187 0.008672255

model.fc.7.running_mean f4 [32]
00000000: f249 253b 040a 90bd 7239 1c3c 4d46 593d
00000010: 7d1e 903d 1033 c8bc d8ab f0bd 3a5b 993d
00000020: 1876 1b3c a979 563d 769c 5abd 583b b33d
00000030: 022a 0ebc f2b1 7a3d c53e 833d 349e d63d
00000040: c55b babd f8dd 81bd abb5 863d 2cf5 60bd
00000050: 5d65 a4bd e9bb 2c3d 09f0 85bd a7c1 f43d
00000060: 4d09 a6bc 61ec b4bd b8a8 86bd 0914 043c
00000070: 4ae0 db3d 5b6c d43b d998 a1bd c88a c8bd
0.0025221077 -0.0703316 0.00953518 0.05304556 0.07037065 -0.024438411 -0.117515266 0.07488103
0.009488605 0.052362118 -0.05337187 0.08751553 -0.008677008 0.061204858 0.06408457 0.104793936
-0.09099535 -0.06341165 0.06577619 -0.054921314 -0.08027146 0.042171393 -0.06539924 0.11950999
-0.020268107 -0.08834148 -0.06575149 0.008061417 0.10736139 0.0064826435 -0.078904815 -0.097920954

model.fc.7.running_var f4 [32]
00000000: 0c60 6e3f 3d19 da3f 64c9 1d3f 46c5 fe3e
00000010: 061e 0b3f 237d 4a3f 9606 f13f 93eb 883f
00000020: f493 0b3f 75eb 283f a544 9e3e 0655 343f
00000030: 1019 bc3e 60cf 163f 461a 0e3f e746 323f
00000040: 7047 863f 99df 343f b66e 9e3f a6d4 8b3f
00000050: b5b8 4c3f 279c ec3e 9223 eb3e 3dc1 da3e
00000060: 75e6 ec3e 8173 463f 7ad7 1b3f 6fe3 623f
00000070: c432 3f3f 8ce8 ea3e 982e f43e 3f3b 083f
0.93115306 1.7038952 0.6163542 0.49759883 0.5434269 0.79097193 1.8830135 1.0696892
0.54522634 0.6598428 0.30911747 0.70442235 0.3673787 0.5891018 0.5550884 0.6963944
1.0490551 0.7065368 1.2377536 1.092427 0.7996934 0.46212885 0.45925575 0.42725554
0.46269575 0.77519995 0.60875666 0.88628286 0.7468684 0.45880544 0.47691798 0.532154

model.fc.8.bias f4 [1, 32]
00000000: f4ca afbb d50e a63b b384 923b fdc8 afbb
00000010: 0bce afbb 0d05 e3ba 76ce afbb 9823 233c
00000020: d7cf afbb bf68 8fbb 4bfa f53b 121e 473b
00000030: b699 353c 0218 af3b eaa9 a53b 0ed0 afbb
00000040: 06d0 afbb baa0 df3b 2e72 05bb d7cc afbb
00000050: d5d1 aabb 8c61 fcba f8ce afbb ae1c 6d3c
00000060: b5d8 323b 5616 88bb 03d0 afbb cd3d b9bb
00000070: 0acc afbb eccf afbb b8cd afbb fc35 0c3c
-0.00536477 0.005067686 0.0044713854 -0.005364536 -0.0053651384 -0.0017320231 -0.0053651882 0.009957217
-0.0053653526 -0.0043765004 0.007506644 0.0030382914 0.011084011 0.005343438 0.0050556557 -0.005365378
-0.0053653745 0.00682458 -0.0020362246 -0.005364995 -0.005213002 -0.0019255145 -0.005365249 0.01447217
0.0027289812 -0.0041530533 -0.005365373 -0.005653119 -0.0053648995 -0.0053653624 -0.0053650998 0.008557793

model.fc.10.weight f4 [16, 32]
00000000: 69a1 323e fc05 82bd 8f80 f03d 8b17 6abc
00000010: 2b3a 863d e36e 913b 864b 163e 1ffc 31be
00000020: 9a40 a73d 087d 1dbe 439a 4cbd 6ebc 1bbe
00000030: cf5a 583d b495 f9bd 9f45 173e 46ef bcbd
00000040: 3817 10be e57e 24be 0cac 9e3d 44c1 ccbd
00000050: d32b 1f3e 96fd 013e 66e1 b33d 68ef b43d
00000060: 79c3 b5bd cd38 35be 4039 1a3e 6283 b6bd
00000070: dfc5 073e f9aa 2ebe 236e 53bd 174a 80bd
00000080: b5e9 cabd 0ec5 c93d c43f 09bd a985 e4bc
00000090: 9e1d 1dbe 4f52 02bd 2b90 85bd 52c6 79bc
000000a0: 35fb 253e 9bde 2ebe 8324 ecbd 5b38 2d3d
000000b0: 1250 09be 7150 8ebd baf5 4a3b 7086 7ebb
000000c0: cc8c 6dbc c3f1 39bc 8ccc 783c de64 debd
000000d0: 258b bc3d e4ab cf3d 4e85 17be 82c9 e73d
000000e0: 550d f2bd 503a 58bd 8aaa 2cbe a690 ffbc
000000f0: 00c2 b8bc cf06 1bbe e6d9 fcbd fcae dfbb
00000100: 077a 353e c8ad d3bd 1b38 cc3d 9ec9 fdbc
00000110: 6373 643d 9405 8dbc 4179 343e e19b 36be
00000120: ef0f 8d3c d406 24be 12a5 a7bc 8d4c babd
00000130: 31f9 763d 4326 2bbd 8dab 043e 74c0 cebd
00000140: fca0 c83d 405f ec3c eda9 a9bd 7567 a23c
00000150: 2878 f83d 41a4 11bd de12 ad3d f1c7 37bc
00000160: ca97 c33d 1612 0b3e 1fe8 b23c 650c 163e
00000170: 0c8b ab3d 119a 2e3c 592d 153e 7024 04be
00000180: 4b1f 223d 0531 68bd 3f5a 01be a4c3 dfbd
00000190: a058 16be c8df f6bc ae7f 1abe d55f 2fbd
000001a0: 39c9 12be 5ad8 bb3c 06e7 83bd a659 01be
000001b0: cb48 98bd 341b 53bd 65fe eabd a5e6 bfbd
000001c0: bdeb c0bd 31b8 313e 849e 6b3d 1a5a b93d
000001d0: 6f9e 3bbe 591b 5e3d 4ec9 e6bc be9c e2bd
000001e0: 8152 e2bb 7e73 c03d 356d 813c e416 1d3e
000001f0: 81cd 27be 2195 04be 29de 083d 052f 7abd
00000200: bed7 2a3a a0c7 42be 080d b5bd f048 76bc
00000210: 1d9a dc3d 4fc4 37be 08b4 093d 5b8a 35bc
00000220: fd93 003e b6f3 8f3c 2ac9 f73d c99e ae3d
00000230: 710c a73d 7c32 033d 1b7d f23d bff1 2ebe
00000240: 6f5e 25be 346c a3bc f241 bfbd a579 353e
00000250: 5f7e 6ebd 9e54 e93b 8448 51bd 082d b5bc
00000260: 8808 c63d 4508 d4bd 3cb6 183e 5afc d23d
00000270: 7771 a7bc a3f3 32be fcd9 bb3d 1336 0bbc
00000280: 9058 0bbe c2e1 f63d 58a4 6fbd 723c 6e3d
00000290: 10de 11be ae82 073e 6bcc 183e 67c2 b13d
000002a0: 83f6 78bd fd04 cfbd 1860 e0bc 4f4f 8d3d
000002b0: 081b 93bd debe a3bc d168 073e a5de bc3d
000002c0: 04be 15be f18e a73d 8ad8 bcbd f4ec 363d
000002d0: 66cb d13d ed66 82bd c307 303c 7975 e03d
000002e0: 5ebb c73c 06c7 163e be50 03be cc21 3abe
000002f0: 7b0f 9bbd 7bf1 b5bd 0890 383e 92e0 ff3c
00000300: 1f64 863b 2909 583d 6cc3 af3d e48f e93d
00000310: 61b1 373c a9c1 28be b632 203e 91b5 933d
00000320: e5ab 2dbe 1c26 293e 2f09 cb3d c638 e6bc
00000330: f0c7 e9bd a6f2 e2bc bd7d 23be ebf1 a23c
00000340: 44e5 fd3d a453 083d eb70 553d f7cb d33c
00000350: 06fb d6bb 16fe 78bd e236 32be fe71 873d
00000360: b918 f93d 4946 66bc 229d d03d ebec 6fbd
00000370: ae21 13bd e0f4 303e 86b0 9ebd 2e59 e8bd
00000380: 8a2d 303e 48c3 163e b09a 19be a1d9 f7bd
00000390: d86c f73d 099e df3c 1814 0b3e 3e06 2dbe
000003a0: 05a5 bdbd 6359 09be bfd5 cd3d 73b8 1a3e
000003b0: d6b8 733d 0d79 b03d 3a82 973d 4278 f83d
000003c0: 2c1e eebd 5696 eb3d 4fa6 ef3c faf4 31be
000003d0: 90ab 3c3d 29be 0ebe 080b 1dbe dc5f c9bc
000003e0: 614b ccbd 3d10 15be 8854 923d 92bc 253d
000003f0: 32b4 1abc c0ee e1bd 837f d63d 330b 07be
0.17444386 -0.06348798 0.117432706 -0.01428784 0.065540634 0.0044382676 0.14677247 -0.17381333
0.08166619 -0.15379727 -0.049951803 -0.15208599 0.052820977 -0.12186757 0.14772652 -0.09225325
-0.14071357 -0.16064031 0.07747659 -0.099978 0.15544061 0.12694392 0.08783226 0.088347256
-0.08875174 -0.17697449 0.15060902 -0.08911778 0.13259076 -0.17057408 -0.051618706 -0.062641315
-0.09907857 0.09852038 -0.033508077 -0.027895765 -0.1534333 -0.031816777 -0.065216385 -0.015245037
0.16209109 -0.17077105 -0.115304016 0.042290073 -0.1340945 -0.06948937 0.0030969218 -0.0038837455
-0.014498901 -0.011349144 0.0151854865 -0.10859083 0.09206227 0.101402074 -0.14796945 0.113177314
-0.11818949 -0.052789986 -0.1686193 -0.031196903 -0.022553444 -0.15139316 -0.12346248 -0.0068262797
0.17722331 -0.103358805 0.09971639 -0.030979928 0.055774104 -0.017214574 0.1762438 -0.178329
0.017219512 -0.1601823 -0.020464454 -0.09096632 0.06029624 -0.041784536 0.12956066 -0.10095301
0.0979633 0.028854012 -0.08284364 0.019824723 0.12132293 -0.035557035 0.08450864 -0.011217103
0.09550436 0.13581118 0.0218392 0.14653166 0.083761305 0.0106568495 0.1456808 -0.12904525
0.039580625 -0.056687374 -0.12632082 -0.10925987 -0.14682245 -0.030136004 -0.15087768 -0.042816002
-0.14334573 0.022930313 -0.064405486 -0.12631854 -0.07435759 -0.051539615 -0.11474303 -0.09370164
-0.094199635 0.1735542 0.05752422 0.09050389 -0.18322156 0.0542253 -0.028172161 -0.110650524
-0.006906808 0.093970284 0.015799144 0.15340763 -0.16386987 -0.12947513 0.033414993 -0.061079998
0.00065171334 -0.19021463 -0.08840376 -0.015032038 0.10771582 -0.1794598 0.033618957 -0.01108035
0.12556453 0.017572265 0.12098916 0.085263796 0.0815667 0.032030568 0.11840268 -0.17084406
-0.16149305 -0.019949056 -0.0933875 0.17722185 -0.058225986 0.007120683 -0.051094547 -0.0221162
0.09669596 -0.1035314 0.14913267 0.103020385 -0.020439846 -0.17475753 0.091724366 -0.008496779
-0.13608003 0.12054779 -0.05850634 0.058163114 -0.14244866 0.13233444 0.1492173 0.086796574
-0.060781967 -0.10108373 -0.027389571 0.068998925 -0.0718289 -0.019988474 0.13223578 0.092221536
-0.14623266 0.08181561 -0.09220989 0.04465957 0.10243873 -0.06367288 0.010744038 0.10959906
0.024381336 0.14724359 -0.1282377 -0.18176955 -0.07571312 -0.08883949 0.18023694 0.031235013
0.004101291 0.05274311 0.08582196 0.11404398 0.011211724 -0.16480125 0.15644345 0.072123654
-0.16960104 0.16518444 0.09913861 -0.028103244 -0.11415088 -0.027703594 -0.15965934 0.019890746
0.123972446 0.03328289 0.05210964 0.025854094 -0.006560686 -0.06078919 -0.17403749 0.06613539
0.121629186 -0.014054843 0.10186221 -0.058575552 -0.03592079 0.17280912 -0.07748513 -0.11345135
0.17204872 0.14722931 -0.15000415 -0.12102056 0.12081307 0.027297037 0.13581884 -0.16896912
-0.092599906 -0.13413005 0.100505345 0.15109424 0.059502445 0.086168386 0.073978856 0.12132312
-0.116268486 0.11503284 0.029254107 -0.17378607 0.046062052 -0.13939728 -0.1533624 -0.024581842
-0.09975315 -0.14556976 0.07145029 0.040463038 -0.009442376 -0.11031866 0.1047354 -0.13187866

model.fc.10.bias f4 [16]
00000000: 1ec3 1c3e 604c 0c3e b191 c83d c961 2e3e
00000010: e1c0 97bd ffc1 ab3d 3ada 133c e168 2f3e
00000020: 3451 933c 438c 7ebd 7293 213e 2b5c 58bd
00000030: eb16 b3bd ccd5 69bd d73d eb3d 7777 d1bc
0.15308806 0.1370101 0.097934134 0.1702949 -0.074098356 0.08386611 0.009024197 0.17129852
0.017983057 -0.062145483 0.15778902 -0.052822273 -0.08744606 -0.05708866 0.114864044 -0.02556966

model.fc.11.weight f4 [16]
00000000: 7444 7d3f c721 7f3f dfc4 803f 901f 813f
00000010: 66ee 7e3f 26d9 7b3f 3f75 7c3f d46b 823f
00000020: 9989 7f3f c7c9 7f3f 2dea 7b3f 2aa4 7b3f
00000030: 8892 7c3f 6d25 823f 0504 803f d49c 7b3f
0.98932576 0.99660915 1.006008 1.0087757 0.9958252 0.9837822 0.98616403 1.0189157
0.9981933 0.9991726 0.984042 0.9829737 0.9866109 1.0167671 1.0001227 0.98286176

model.fc.11.bias f4 [16]
00000000: 9b65 4abb d1c0 aa3a 24d2 553b a665 a73b
00000010: b44e 11bb 844c b63a 8309 f9ba d7db fa3a
00000020: c82f 21bc 9c12 6dba 2eb6 fd3b aa41 5fbb
00000030: 1b1a 533b 0737 a0bb d76a 81bb e70c 8fbb
-0.0030883315 0.0013027434 0.0032626474 0.005108553 -0.0022172155 0.0013908301 -0.0019000027 0.0019139004
-0.009838052 -0.00090436055 0.007742665 -0.0034066238 0.0032211605 -0.0048893723 -0.003949504 -0.0043655518

model.fc.11.running_mean f4 [16]
00000000: 13ad 0b3e 3267 f13d 66d8 c23d 4e76 153e
00000010: 4786 83bd 1a68 b23d b630 19ba aff9 143e
00000020: e82c ed3c d101 54bd 933b 0c3e eea2 32bd
00000030: decb a0bd 4578 2dbd bf11 cc3d f2c2 0cbc
0.13640241 0.11787261 0.09513931 0.14595911 -0.06422096 0.08711262 -0.00058437453 0.14548372
0.028952077 -0.051759545 0.13694601 -0.043612413 -0.078513846 -0.042351026 0.09964322 -0.0085914

model.fc.11.running_var f4 [16]
00000000: 4f98 be3f 4019 473f 4e12 1c3f 145b 3e3f
00000010: 29fb c53e 69f1 bf3e 9e69 003f ba54 5c3f
00000020: 5aba 0e3f f33c 553f 8d2d c83e 51ba cd3e
00000030: 64b3 153f 92ac 1e3f e7cf ba3e 1615 de3e
1.4890231 0.77772903 0.6096543 0.74357724 0.38668182 0.3748887 0.5016116 0.8606678
0.557531 0.83296126 0.39097252 0.4018121 0.58476853 0.6198207 0.36486742 0.43375462

model.fc.12.bias f4 [1, 16]
00000000: 6ac8 afbb 89cc 273a 7fd2 393b 2366 a33b
00000010: e32b aebb 1ec2 573a 63c0 afbb ffcd afbb
00000020: 0fcf afbb 0a44 7bba 54cf afbb 28a7 17bb
00000030: c29b 02bb 8bcf afbb adcd afbb 22d0 afbb
-0.0053644674 0.00064010225 0.0028354225 0.004986541 -0.0053152903 0.0008230525 -0.0053635105 -0.005365133
-0.0053652595 -0.0009585029 -0.0053652916 -0.0023140404 -0.0019929265 -0.005365317 -0.0053650946 -0.0053653875
