MultiClassdiabet/checkpoints/bodyP-epoch=06-val_f1=0.94.ckpt (torch, 292192 bytes, 76 tensors)

model.fc.0.weight f4 [128, 77]
00000000: 78e2 c0bc 89f9 ee3c df11 61bd 29c7 993d
00000010: 3fc4 e23d 7913 afbd e4b4 bd3d b165 1f3c
00000020: 31f5 b43d 7a58 713c 94a8 8d3d 335e 70bc
00000030: fa97 b83d bddf 933c 200b 58bd 1fb9 013d
00000040: 51f9 54bd 7e6e 52bc ef94 38bd 591e 9d3d
00000050: 30af b1bd f69a 4bbd 04cc d4bc c0c2 85bd
00000060: 9558 aa3c 0756 d1bd 9bd6 d13d 5f0c cabd
00000070: d655 a43d 4e6d ce3c b9c9 0cbd d494 a63d
00000080: 7318 953c 8436 ca3d 2a19 a93c 4f5b 1fbd
00000090: 12ba e53c e15c 2abd 3a04 503d 59f3 d23d
000000a0: 439a 973d 3883 2abd 7cdc 993d 505f be3c
000000b0: c776 743d 73cb 93bd dc5c d8bd 0863 25bd
000000c0: 2ca2 9abd 7d91 d43d 59dd 0d3d 47f4 453d
000000d0: 1603 f83c f993 9d3b c11c be3d 81b4 88bd
000000e0: ff25 b43b 82a4 a8bd 354a cd3c 329e 16bd
000000f0: f77e 1b3d 1999 99bc 5649 b53d 9a9d a3bd
00000100: 5369 8abd 3c8f 8bbd b856 d53d 9122 d23c
00000110: 08e9 d73d 8a8a ccbd 4ade f0bd e587 adbd
00000120: e8ae 94bd 63e1 613d eff3 253d 312f c93d
00000130: f790 36bd 17fe 92bd 2c80 9d3d 28d1 42bd
00000140: 9659 6e3d fbf7 e3bc fdd6 853d 45f9 b6bd
00000150: fce3 7bbd 446b bd3c 12af 943c cca2 edbc
00000160: 8415 973d 7625 ab3d 331e 9cbd 0033 61bd
00000170: dc9c e03d b87a 05bd 8274 0abd 6d2a dabd
00000180: 06aa 73bd a40a 093d 3e67 1dbc ba9b 87bd
00000190: 7469 423c 7315 a7bd 2c35 bcbd a74a 67bd
000001a0: a8ad c3bd cf62 91bd 6ffd db3d bbb3 a53c
000001b0: b353 393d 8799 dcbd 50b6 a9bd 6151 14bd
000001c0: efb3 873c d77f cdbd 034e 5bbd 34af 9dbd
000001d0: e41c c8bb b407 26bd bf35 9abc 0db2 bbbd
000001e0: d544 b4bd 0e6b 9abd 1240 39bd 113d cfbd
000001f0: 88a7 a73d 5211 15bd d802 c73d 8dc5 143d
00000200: 5d23 c7bd c87a 973d 9ad4 23bd 0388 42bd
00000210: 414d c4bd 865c e7bd 60a0 053d a21d f2bc
00000220: de30 163d f907 c8bd 1000 ac3d a497 acbd
00000230: c7a2 bcbc fc18 8d3c 8411 673d 1cb4 b93d
00000240: b966 cb3d f172 cfbd 2e4f a03c 1778 68bd
00000250: 02b3 c6bc 5d6a c8bd f56b ba3d de27 b6bd
00000260: 8ecd 613d c424 243d e487 1b3d df4e 78bd
00000270: 443f cd3d 464d af3c 80b2 0f3c ca68 d7bd
00000280: 1dfe 133d a244 56bc ca5a 77bd c8c3 b53d
00000290: 6cfb a93c 3a36 7ebd 7b14 67bd ccd3 b6bb
000002a0: d187 823d 64ab eabc 6194 81bd 400b 20bd
000002b0: 0cfb b4bd 71c4 383d 5897 b93d a694 dabd
000002c0: 6295 e03c 2e42 663d bfa0 963c e2ab 2ebd
000002d0: 7aa4 703d a923 523d 6a2d 3c3d d9b2 f9bc
000002e0: e2b0 14bd bde9 293c 1fa2 bfbc 67fb 18bd
000002f0: 1740 863d f0a7 be3d 39eb c2bc 97cb dcbc
00000300: 8ad3 54bb 5323 81bc 9845 af3c 7cb1 e73c
00000310: c2a9 e1bd 23ff 45bd 2706 aa3d 7514 253d
00000320: 1167 3ebc af29 a7bd 0a1b 9cbd c106 ddbd
00000330: cc28 25bd 238c d83c 3594 953d d6f8 313d
00000340: e076 e2bd 9034 9bbd e1ba b8bc 98d5 cd3d
00000350: c923 933c 8ff3 21bd 2410 273d fedb 4abd
00000360: 8718 b1bd 8186 973d 7bad 85bd 38b9 0abd
00000370: 426b fdbd f427 a33d efd8 a53d dcf3 113d
00000380: 7533 a3bd 0990 f6bd aeb1 d2bd 17fb 933d
00000390: 20a8 323d 1478 b33d f36e 613d 1a57 db3c
000003a0: 87ee e53b 7241 bdbd ed50 d1bd d14e d2bd
000003b0: 8667 2d3d 0790 53bd 0fb4 96bc b613 91bd
000003c0: 77a7 82bc 9052 94bd daa1 9cbd e91b 113d
000003d0: 206f 1fbd 4aa9 883d 6a61 26bd 79f9 adbd
000003e0: f5c0 b7bc 7e19 65bd f276 13bd 10f5 e1bd
000003f0: 306b 7d3d b2c1 91bd 146d 6d3d d50b 4e3d
-0.023545489 0.029171722 -0.054948684 0.0750869 0.11072587 -0.08548636 0.09263018 0.009728835
0.08835829 0.014730567 0.06916919 -0.014670896 0.09013362 0.018051023 -0.052744985 0.031670686
-0.05199558 -0.012843726 -0.04506391 0.07671804 -0.086759925 -0.04970833 -0.025976188 -0.06531286
0.020794192 -0.102214865 0.10246011 -0.09865641 0.080241844 0.025198605 -0.034372065 0.081338555
0.018200135 0.09873679 0.020641882 -0.038905438 0.028042827 -0.041592482 0.05078528 0.10300321
0.0740247 -0.041629046 0.07512757 0.023238808 0.059683587 -0.07216539 -0.105645865 -0.040377647
-0.07550463 0.10379312 0.03463492 0.048328664 0.030274909 0.0048088995 0.09282828 -0.066750534
0.0054976935 -0.082345024 0.025059799 -0.03677196 0.03796288 -0.01874976 0.08851878 -0.079890445
-0.0675837 -0.06814429 0.10416931 0.025651248 0.10542494 -0.09987362 -0.11761148 -0.084731854
-0.07259923 0.055146586 0.040515836 0.09823454 -0.044571843 -0.0717737 0.076904625 -0.04756275
0.058190905 -0.027828207 0.065351464 -0.08934263 -0.06149672 0.023122437 0.018149886 -0.029008292
0.07377151 0.083567545 -0.076229475 -0.054980278 0.109674186 -0.032587737 -0.033802517 -0.10652623
-0.05948832 0.033457413 -0.009607134 -0.06621499 0.011865962 -0.08158388 -0.09189829 -0.05646768
-0.09554607 -0.07098924 0.10741698 0.020227304 0.045245837 -0.107714705 -0.082867265 -0.03621042
0.016565291 -0.10034149 -0.053541195 -0.07699433 -0.0061069597 -0.04053469 -0.018824456 -0.0916482
-0.08802191 -0.0753995 -0.045227118 -0.10119069 0.08186251 -0.03639347 0.09717339 0.03632121
-0.09723542 0.073964655 -0.039997675 -0.047492992 -0.095850475 -0.11296944 0.03262365 -0.029555146
0.036667697 -0.09767146 0.083984494 -0.08427361 -0.023026837 0.017223828 0.05641319 0.09067556
0.09931702 -0.10129345 0.019569006 -0.05675515 -0.02425528 -0.09785912 0.091026224 -0.08894323
0.055127673 0.040074125 0.037971392 -0.060622092 0.100218326 0.021399152 0.008770585 -0.10518034
0.036131013 -0.013077887 -0.060389318 0.08875233 0.02074977 -0.062063433 -0.056416016 -0.0055794474
0.06373561 -0.028646179 -0.06327129 -0.03907323 -0.08836946 0.045109216 0.0906207 -0.10672884
0.027414981 0.056215458 0.018387197 -0.04264439 0.058750607 0.05130354 0.045941748 -0.030480789
-0.0363015 0.010370669 -0.023392735 -0.03734913 0.06555193 0.09309375 -0.023793804 -0.026952548
-0.003247472 -0.015763914 0.02139549 0.028282873 -0.11018707 -0.04833902 0.08301955 0.040302712
-0.011621253 -0.081622474 -0.07622345 -0.10792304 -0.04032211 0.02643401 0.07303659 0.0434502
-0.1105783 -0.07578385 -0.022550048 0.100505054 0.0179614 -0.039538916 0.040786877 -0.049526207
-0.08647256 0.073987015 -0.065272294 -0.033868045 -0.123739734 0.07966605 0.080980174 0.035632953
-0.07968799 -0.12039191 -0.10287796 0.07225626 0.043617368 0.087631375 0.05503745 0.026774932
0.00701696 -0.09240998 -0.102205135 -0.10268939 0.042335056 -0.051651027 -0.018396406 -0.07083838
-0.015948994 -0.0724231 -0.07648058 0.035427008 -0.038924336 0.06672914 -0.040620245 -0.08494849
-0.022430876 -0.055932514 -0.036002107 -0.1103307 0.0618698 -0.071170226 0.057965353 0.050304253

model.fc.0.bias f4 [128]
00000000: 982f 7cbb bb57 e8bd 5015 983c 26fd e4bd
00000010: 058d 9fbd bcfb 8e3d 0b5e b03d 2ef1 23bd
00000020: 825f 8cbd b6fd 4f3d 55c2 dabd 225d 913d
00000030: c7a6 9f3d d37f 483d 9f89 153d 1355 c13c
00000040: 65eb b0bd cc8b 41bd 3932 963d 3cad c43d
00000050: fd48 143b 7e54 ee3c a591 e0bd cdd9 a63d
00000060: 74da 87bd e0eb 7cbd f04b e83d 244e 04bd
00000070: 972d 70bd 0ef3 7e3c fef5 b73d 1c4c d33d
00000080: 47e7 323c 0974 9e3d d146 a83d f5ec 9cbc
00000090: b053 b8bd 7b9c 993b 843a 1dbd 1952 203d
000000a0: 59e6 a9bd 948b 9cbd 3448 b0bd a0ee aebd
000000b0: 0d2c b23d 58b4 e7bd e6d2 85bb d344 8fbd
000000c0: 65e0 43bd ba01 0abd 5307 583d cdbc 9c3d
000000d0: 4936 cebc d2c5 863b 880b 61ba fa13 d43d
000000e0: 7898 4f3d 40bd c0bc 991b 9e3d 088f c0bd
000000f0: 0eb5 363d f2e6 b73d f353 71bd 29bb 343d
00000100: 4fac 513d 8c0d c1bd 267f 063d 499d af3d
00000110: 1fac 313c 9909 a8bc 722a 33bd 8415 9bbd
00000120: 7cff ea3c 84e7 debd b53f c7bd 5473 26bd
00000130: 3f13 ddbd cde8 db3d f07b 14bd c91c 79bd
00000140: fc94 e83c 0899 473d e77e b03d 4a53 41bd
00000150: ff9c b2bc c81f b1bd 31ae c8bd b113 4ebd
00000160: ec1e 723c 9d06 6abd 7573 febc ee60 2a3d
00000170: d71b c53c b3ad 8d3d 6ea3 593d a1e6 743d
00000180: 48f7 6ebd bb4c 7c3d 6713 d2bd 7514 0b3d
00000190: c89d 93bd b466 f83c edb4 d6bd da39 9ebc
000001a0: d490 8e3d a17a 6bbd f1e4 923d 11bf 8cbc
000001b0: 908b d83d 2ce6 db3d 95aa 8abd 02ca d9bc
000001c0: cd09 b2bc c5ba 2dbd 41ee 133d db86 d4bd
000001d0: 49d3 8cbd 623b 8ebc 25fb cfbd eeda e0bd
000001e0: 2179 433d cfe9 c2bd d3cc 9c3d 7d58 87bd
000001f0: 0426 1ebc 3be9 8d3d f894 e5bd 8b21 e7bd
-0.0038480517 -0.11344858 0.01856485 -0.11181097 -0.07790569 0.06981608 0.08611687 -0.04002493
-0.06854154 0.050779067 -0.10681597 0.07097842 0.07795482 0.048950028 0.0365082 0.023600137
-0.08638648 -0.04725246 0.07333798 0.09603354 0.0022626512 0.029093023 -0.109652795 0.08147011
-0.066334635 -0.061748385 0.11342609 -0.032301083 -0.058637228 0.015560878 0.08982466 0.10317251
0.010919399 0.07736976 0.08216632 -0.019155959 -0.09000337 0.0046878434 -0.038385883 0.039140794
-0.082958885 -0.0764381 -0.08607522 -0.08541608 0.08699808 -0.11313695 -0.004083979 -0.06995549
-0.04782142 -0.033693053 0.05274136 0.076531984 -0.02517237 0.0041129375 -0.0008584787 0.10355373
0.050682515 -0.023527741 0.077201076 -0.09402281 0.04460626 0.08979596 -0.05891795 0.044123802
0.051189717 -0.09426412 0.032836102 0.08574922 0.0108442595 -0.020512389 -0.04374165 -0.07572463
0.028686278 -0.10884002 -0.09728948 -0.04063733 -0.107946865 0.107377626 -0.03625101 -0.060818467
0.028391354 0.048729926 0.08617955 -0.04719857 -0.021803377 -0.0864864 -0.097988494 -0.050311748
0.01477788 -0.057135213 -0.031060914 0.041596346 0.024061127 0.06917896 0.053134374 0.059790257
-0.058341295 0.061596613 -0.10257607 0.033955056 -0.07207829 0.03032241 -0.104837276 -0.019314695
0.069612175 -0.057489995 0.07172573 -0.017180951 0.105734944 0.10737261 -0.06770817 -0.026585583
-0.021733189 -0.042414445 0.03611589 -0.10377284 -0.06876237 -0.0173623 -0.10155324 -0.109792575
0.04772294 -0.09517252 0.076562546 -0.06608675 -0.009652618 0.06929251 -0.11210054 -0.11285695

model.fc.1.weight f4 [128]
00000000: eb2e 803f b474 803f c429 823f 2c17 7c3f
00000010: e7b5 7c3f 706f 803f 1f5f 803f 6e82 7e3f
00000020: a742 7e3f 0409 823f 4d4d 803f b07f 803f
00000030: ea11 803f a4d1 7f3f 0ac8 7d3f 16ae 803f
00000040: a8a8 7f3f 4031 803f 6e9c 803f 1018 813f
00000050: 3a07 7b3f e17b 7e3f 0558 7f3f db34 803f
00000060: db7a 7d3f 44f6 803f fdc3 7e3f ba6a 7e3f
00000070: 8e38 7d3f 031a 803f 6ac7 7e3f 8a14 7d3f
00000080: 5786 7e3f df58 803f 98e7 7c3f 9267 803f
00000090: 586d 813f 6f85 803f d02c 7f3f 7e08 813f
000000a0: c9c4 803f 99a8 803f ccf0 803f 41d4 803f
000000b0: d4f7 7f3f 41e5 823f 8c2a 7f3f 4b5c 7f3f
000000c0: b966 7f3f b302 823f 8b23 823f 8c3f 813f
000000d0: 42e6 7c3f 39c0 7e3f 7f3d 803f 6016 7f3f
000000e0: 4f6b 7e3f b95a 7c3f 31ac 803f 1589 7e3f
000000f0: b938 823f f6ab 7b3f 3e08 7c3f ab37 823f
00000100: 17e9 7f3f 5cd4 7e3f 3c25 7d3f 0091 7d3f
00000110: 9d43 813f a8e1 7f3f 4fd6 7d3f 8996 7e3f
00000120: c614 813f 6309 813f c318 803f 5481 7e3f
00000130: bf39 803f 8190 803f dcdd 7f3f 1ac4 813f
00000140: 1842 813f 1115 7e3f 03c1 7f3f 8cd8 803f
00000150: 2b0d 823f 1bda 7e3f 26cc 7f3f 8631 7e3f
00000160: 91a9 7e3f 2f0d 813f 6219 803f 2e4b 803f
00000170: 584d 803f e04a 803f fd46 813f bfe5 803f
00000180: ae7a 7d3f ba2b 813f de13 7f3f 2ecb 803f
00000190: 82eb 7f3f d89b 803f be52 7c3f b4bb 803f
000001a0: 71fd 7f3f 4192 7d3f 8534 813f ac75 7f3f
000001b0: dc7f 803f 4804 7e3f 697f 7f3f 2921 7e3f
000001c0: 5b22 813f f7a6 7c3f 3045 7e3f 1e65 7e3f
000001d0: 6257 7f3f e9b8 7e3f d9f2 7b3f 93f5 7d3f
000001e0: c559 7d3f 42f8 7d3f bf6c 803f 06d7 7c3f
000001f0: e543 803f 8bd7 7d3f e74f 7f3f 1fc3 803f
1.0014318 1.0035615 1.0168996 0.9847286 0.9871506 1.0034008 1.0029029 0.9941777
0.99320453 1.0159001 1.002359 1.0038967 1.0005467 0.9992926 0.9913336 1.0053127
0.99866724 1.001503 1.0047739 1.0085468 0.980579 0.99407774 0.9974368 1.001613
0.9901559 1.0075154 0.99517804 0.993816 0.9891442 1.0007938 0.9952303 0.98859465
0.99423736 1.0027121 0.98790884 1.0031607 1.0111494 1.0040721 0.99677753 1.0080717
1.0060054 1.0051452 1.0073485 1.0064775 0.9998753 1.0226213 0.99674296 0.997502
0.9976612 1.0157074 1.0167097 1.0097518 0.98788846 0.9951206 1.0018767 0.99643517
0.9938249 0.9857593 1.0052549 0.9942792 1.017356 0.98309267 0.98450077 1.0173239
0.9996504 0.99542785 0.9888494 0.9904938 1.0098759 0.999537 0.99155134 0.9944845
1.0084465 1.008099 1.0007557 0.9941609 1.0017623 1.0044099 0.99947906 1.013797
1.0098295 0.99250895 0.9990389 1.0066085 1.0160269 0.9955155 0.9992088 0.99294317
0.9947749 1.0082148 1.0007746 1.0022943 1.0023603 1.002285 1.0099789 1.0070113
0.9901532 1.0091469 0.9963969 1.0062006 0.9996873 1.004756 0.98563755 1.0057282
0.99996096 0.9905129 1.0094153 0.9978893 1.003902 0.9922528 0.9980379 0.9926935
1.008861 0.9869227 0.9932432 0.9937304 0.9974271 0.995009 0.9841743 0.9920284
0.989651 0.99206936 1.0033187 0.987656 1.002072 0.9915702 0.99731296 1.0059546

model.fc.1.bias f4 [128]
00000000: 053e 283c 710e c83b df9c 0a3b 813d babb
00000010: c346 49bc e93e f4bb 9301 da3b 140b 2e3b
00000020: 905f 233b 62a1 b73c c5ca 0c3a 9cae a73c
00000030: 57bb c03b 1050 e7bb fe00 2dbb a955 463c
00000040: 8ad1 ee3a 6a1d 8ebb d431 9c3a e6fe b03b
00000050: a47e d4bb 44ae f539 a841 8a3a 1af2 80ba
00000060: 0b34 3fbc 050e 74bb 6ed5 35bb a851 4abb
00000070: 06b7 14bc 01c8 42bb c8b2 c1bb 6104 56bb
00000080: 6a8d 33bc 5f7c 703b 81c0 43bc b69f 0abc
00000090: 9b1f 043c 78b6 283c 5252 ccbb d445 c33b
000000a0: e41c 2c3c f3e8 a6ba 2581 363c 336f 083c
000000b0: 7fd5 a7bb e109 893c 02de f7bb 5945 ae39
000000c0: fa1f e23a 5179 c03c d045 883c 3e9b ef3b
000000d0: 04fb 07bb f892 fcba 2124 c13b ab41 da3a
000000e0: 0473 e5b9 23b1 3fbc 2afc ae3b bbae 993b
000000f0: b2ac 913c 178b 1dbc 5a99 2fbc c36e 883c
00000100: 862e 2fbb 012c 72bc f370 dd3a 2260 b4bb
00000110: eb9e 723c e6bb 4e3c af00 04bb 6f9b 27bc
00000120: 93d8 253c 7521 973b f40d 523b fc41 1e3c
00000130: b434 1abc 3889 223c c981 b83b 35a7 a03c
00000140: 80ee c03b 6b31 80bc 9f5d 8dba c8bd 203a
00000150: ba46 753c 0e76 2e3a a51a a13b 31fa 86bb
00000160: b41a 6bbb 7c5a b03c da52 51bb a606 463b
00000170: 9cf3 c639 4491 823b 410b 203c 3eaa 81ba
00000180: a732 ffbb 9b48 6b3b f1b2 b43b d1a3 423c
00000190: e2fb 1ebc e92a bd3b baf2 cbbb a72a 443c
000001a0: a91a 70bc 750d 35bc 8c8b 223c 0a75 35bc
000001b0: 80e4 21bb 65a5 10bb 5f5c 34bc b2da 46b8
000001c0: dc3a 443c cd6c 1dbc 0aa4 dd3a b686 d8bb
000001d0: 869f f5bb 4275 d6ba e1aa 39bc 5abc 15bc
000001e0: 993d 31bc bd49 93bb e5cd 8e3b c9e0 4dbc
000001f0: eb6b 813c 1767 70bc 0b5c 01bc 16b8 303c
0.010268693 0.006105237 0.0021150631 -0.0056836014 -0.012284937 -0.0074537885 0.0066530197 0.0026556896
0.0024928786 0.02241582 0.0005370791 0.020469002 0.0058817076 -0.0070591047 -0.0026398296 0.012105384
0.0018220406 -0.0043370025 0.0011916705 0.00540148 -0.0064848233 0.0004685988 0.0010548132 -0.0009837777
-0.011670123 -0.0037239802 -0.0027745622 -0.0030871425 -0.009076839 -0.0029721262 -0.005911205 -0.0032656419
-0.010959009 0.0036695225 -0.011947752 -0.00846093 0.008064176 0.01029741 -0.0062353993 0.005959252
0.010504935 -0.0012734219 0.011139189 0.008327293 -0.0051218863 0.016728343 -0.007564307 0.00033239534
0.0017251961 0.023495348 0.016634852 0.0073122075 -0.0020748982 -0.0019269874 0.0058941995 0.0016651651
-0.00043763977 -0.0116999475 0.005340119 0.004690019 0.017782543 -0.009615681 -0.010717714 0.016654378
-0.002673061 -0.014780999 0.0016894623 -0.005504624 0.014808397 0.012618041 -0.002014201 -0.010229929
0.010122436 0.0046121427 0.0032051774 0.009659287 -0.0094119795 0.009920411 0.005630706 0.01961098
0.0058878064 -0.015648564 -0.0010785348 0.0006131795 0.014970476 0.0006655165 0.0049165064 -0.0041191806
-0.003587407 0.021527521 -0.0031940253 0.0030216365 0.00037947006 0.003984602 0.009768308 -0.0009892655
-0.0077880207 0.003590143 0.0055144955 0.011879877 -0.009703608 0.0057729376 -0.0062240036 0.01197306
-0.014654794 -0.011050572 0.009920966 -0.011075268 -0.0024702847 -0.002207124 -0.011008351 -4.7410555e-05
0.011976924 -0.00960846 0.0016909849 -0.0066078557 -0.0074958233 -0.001636185 -0.011332245 -0.009139145
-0.010817909 -0.0044948743 0.0043580406 -0.0125658 0.01579853 -0.014673016 -0.00789548 0.010786077

model.fc.1.running_mean f4 [128]
00000000: 7a6c 193b 9b5d 07be 9415 c63c 7ce2 ebbd
00000010: 131e 8fbd 987b 9f3d b411 c83d 20ef 42bd
00000020: 06aa 80bd cbd5 483d 2b59 d0bd fd41 9e3d
00000030: f6f2 b53d ddca 373d 8467 193d 51a7 543c
00000040: 8cc3 8dbd 97a9 63bd 7ff2 953d dc8e d83d
00000050: ce11 25bb 36e0 093d 9256 b9bd b908 983d
00000060: f774 acbd 4d44 70bd 9cad ec3d ffab 82bc
00000070: 75c8 69bd f13a 373c ec33 b83d 0a78 c23d
00000080: 48f5 833c ceeb b23d 8876 973d 689e 6abc
00000090: d234 b5bd a481 a23b b552 4abd bfae 043d
000000a0: da72 bcbd 9cef 5bbd 2e30 c2bd 45e5 babd
000000b0: 644c b03d e478 ffbd bfd2 efbb c41b 8dbd
000000c0: 8c35 65bd d428 0fbd f972 683d acc7 ac3d
000000d0: 73a5 9abc 5ea0 16bc 20eb d0bb 7eda e03d
000000e0: 3f4e 4f3d 9fc9 1abd 85da 6f3d 1886 cdbd
000000f0: 389b 5a3d 38a8 a83d b7ad 48bd 7c9f 393d
00000100: a494 493d 5838 9bbd 8f4c 183d 8fb7 b03d
00000110: dbde 283c 552b d3bc 071c 67bd 200d 90bd
00000120: b800 083d ba46 e0bd c62b dbbd 3cbd 2dbd
00000130: 0b6d d5bd f6f8 e83d 61a6 dcbc e38a 81bd
00000140: f405 a83c 967e 733d bd8f 8d3d 4002 28bd
00000150: a687 efbb 8203 a5bd 34b0 acbd 1333 44bd
00000160: e683 5d3c 56dc 4ebd 72fb 13bd 40d1 153d
00000170: dc96 903c 10f4 563d 22a8 3a3d d877 3d3d
00000180: a8ed 5cbd c310 933d da1c f6bd e97a 373d
00000190: eaee a8bd e05c 0f3d 5d87 d4bd 6c93 13bd
000001a0: 7a8d 6d3d be5b 0fbd 210a 863d 76c5 efbc
000001b0: 8646 ef3d e4d8 db3d d0aa 7dbd 3784 78bc
000001c0: 938a 73bc dfca 09bd 1683 eb3c 9822 d1bd
000001d0: 1535 8dbd 099f 18bc c8bc e2bd b362 c8bd
000001e0: 8140 353d 1d59 c1bd 1463 913d 1083 8bbd
000001f0: 10f1 47bc 6623 853d 49d3 d9bd 8de4 cdbd
0.0023410604 -0.13219301 0.024180211 -0.11517808 -0.06988158 0.077872455 0.097690016 -0.04759133
-0.062824294 0.049032014 -0.101732574 0.0772743 0.08884232 0.0448712 0.037452236 0.012979344
-0.06922063 -0.055581655 0.07321643 0.10574123 -0.0025187614 0.03366109 -0.09049715 0.07423539
-0.08420747 -0.058658887 0.11556551 -0.015951155 -0.057075936 0.011183486 0.08994278 0.09495552
0.01610817 0.087363824 0.07395655 -0.014319994 -0.08847965 0.004959302 -0.04939528 0.032393213
-0.09201594 -0.053695306 -0.09481846 -0.09125761 0.0860832 -0.1247423 -0.007318824 -0.068900615
-0.05595927 -0.034951046 0.05675027 0.08436522 -0.01887772 -0.009193508 -0.0063756853 0.10979174
0.05061173 -0.037789937 0.058558006 -0.10035342 0.053370684 0.0823521 -0.048993792 0.04531811
0.04921402 -0.07579106 0.037182387 0.08628761 0.010307039 -0.025777498 -0.056423213 -0.070337534
0.03320381 -0.1095099 -0.107017085 -0.042416796 -0.10421189 0.113756105 -0.026934804 -0.06325319
0.020510651 0.059446894 0.069121815 -0.04101777 -0.0073098717 -0.0805731 -0.084320456 -0.04790027
0.013520217 -0.050503097 -0.03612847 0.03657651 0.01765006 0.05247885 0.0455705 0.04625687
-0.053937584 0.071809314 -0.12017222 0.04479495 -0.08248694 0.035000682 -0.10377381 -0.036029264
0.05799625 -0.0349996 0.06544901 -0.029268961 0.11683373 0.10734728 -0.061930478 -0.015168241
-0.014864582 -0.03364074 0.02874903 -0.10211676 -0.0689489 -0.009315261 -0.110711634 -0.097844504
0.04425097 -0.09440825 0.07098976 -0.068121076 -0.01220347 0.06500892 -0.106360026 -0.10053358

model.fc.1.running_var f4 [128]
00000000: 84f8 243e a8be 7d3f 7df9 603e f9c0 f33e
00000010: 90fa 1c3f f0f8 b73e 9019 a33e 6bf4 9c3e
00000020: 03b2 2d3e dadd ca3e 03ac 993e 8071 383f
00000030: 1725 bd3e 4980 eb3e 98ac ae3e 8348 0b3f
00000040: 259a c23e 8db9 633e 691d c73e 9733 443f
00000050: 1733 683e 21c1 2a3e c51e 313f c7d0 ba3e
00000060: 0baf 173f 6faf 6c3e 2e4e 883e 8dad 853f
00000070: 7076 993e 5bb0 2b3f e43a 383e c1d1 7d3e
00000080: 6777 9d3e 4361 9d3e 56de f13e 3265 123f
00000090: 8a04 d93d 2fd5 a83e bfc8 b93e e989 ac3d
000000a0: fa77 9d3e 1d7a 223f ce13 7a3e bcf5 333e
000000b0: 49ce a83e a850 e73e dead d93d 48a3 353e
000000c0: 3359 fd3e 13b1 7d3e 8ffb c73e 51b1 863f
000000d0: 5bb1 f53e aafe 843e 08fa 183e abc6 b63e
000000e0: 86cb 8b3e ef76 0b3f c834 893e 5147 903e
000000f0: 8678 103f 082e fa3d 79b9 bb3e f4de 893d
00000100: 6e8a e33e 5df9 193f 8476 0d3f c093 b43e
00000110: a449 2b3e f057 c63e f27f 513f 614a ea3e
00000120: 336c e73e 601f 983e bbd2 d43e 1028 ad3e
00000130: ee20 2b3f 2973 de3e 6c55 ee3e df4e 3f3e
00000140: d5c1 3d3f 46b3 f03d 0610 e43e 82b8 b03e
00000150: 08e6 e63e 8402 c13e d382 ad3e cf7e 423e
00000160: 674b 5d3e 444b de3e 6c63 633e dc1c 253f
00000170: 4f38 c63e ae02 2e3f 7edb a73e 076e 9c3e
00000180: c507 063e 36e1 d33e f5ab 413f 1c53 f93e
00000190: 2d63 713f ad65 083f 862c 4f3e e823 ea3e
000001a0: b094 9d3e 1a40 3c3f 1c1a 8f3e dbc2 d43e
000001b0: 5d21 053f f25d 143e d17b cd3e 2c55 a73e
000001c0: d94b 713e a4d5 943e 551b b73e e82a 0d3e
000001d0: 84a7 823e e89a a83e e9ae 9d3e b2d8 993f
000001e0: 2733 c33e ad5c 953e d871 b53e 6c1e 323f
000001f0: bfc4 e33e fc24 613e 6440 023f 40a7 ac3e
0.16110426 0.99119043 0.21970172 0.47608164 0.6131983 0.35932112 0.3185544 0.30655226
0.16962437 0.39622384 0.30014047 0.7204819 0.3694236 0.4599631 0.34116054 0.5440752
0.38008228 0.22238751 0.38889626 0.7664122 0.22675739 0.16675235 0.69187576 0.3648741
0.5925147 0.23113798 0.26622146 1.0443588 0.29973173 0.6706597 0.17991215 0.24787046
0.3075516 0.30738267 0.4723994 0.5718566 0.10596569 0.32975146 0.3628597 0.08424742
0.30755597 0.6346758 0.24421617 0.17574209 0.32969883 0.45178723 0.10628866 0.17738068
0.49482116 0.2477458 0.3905911 1.0522863 0.47986874 0.25975543 0.1493913 0.35698447
0.27303714 0.54478353 0.2679808 0.2817941 0.56433904 0.12215811 0.36664942 0.06731978
0.4444155 0.60146123 0.55258965 0.35268974 0.1672731 0.38738966 0.81835854 0.45759872
0.45199737 0.29711437 0.41567025 0.33819628 0.6684712 0.43447235 0.46549547 0.1868243
0.7412389 0.11752944 0.44543475 0.34515768 0.45097375 0.37697232 0.33888873 0.18993686
0.21610795 0.43416798 0.22205895 0.6449716 0.38714835 0.6797284 0.32784647 0.30552694
0.13088901 0.4138276 0.7565301 0.4869622 0.94291955 0.53280145 0.20231828 0.4573052
0.30777502 0.7353531 0.27949607 0.41554913 0.52004033 0.14488962 0.40133527 0.32682168
0.2356409 0.29069245 0.3576304 0.13785899 0.2551843 0.32930684 0.30797508 1.2019255
0.38124964 0.29172269 0.35438418 0.6957767 0.44486043 0.21986765 0.508795 0.33721352

model.fc.3.weight f4 [64, 128]
00000000: 3e1f 1c3b 8ccd fbbc 274e 533d dc41 113d
00000010: af47 b13c 54e0 e33c bee5 9c3d 5fea 523c
00000020: c27f 883d f66f 78bd 8d57 7a3d a8ec c9bc
00000030: 9945 423d 4886 6abd 1d9f 86bd 5127 82bd
00000040: 1874 483d 4ab9 843a 76e0 94bd 1166 b23d
00000050: 84f0 0d3d 16fd a73d 1c28 213c 9814 a23c
00000060: 0f38 683d 419f 92bd 46d0 a83d 379b 58bd
00000070: f909 093c 1289 83bd 43b0 77bd 64c5 813d
00000080: 404b 6fbc 314d d1bc d59e 8b3d 6083 a63d
00000090: 2a4f 9dbd 7a02 d33b 07c8 763c 6587 a03d
000000a0: a893 f6bc 630c ebbc fe17 63bd b902 8b3c
000000b0: c872 0b3d 9610 1fbc c2c7 8cbc 7172 83bd
000000c0: ab28 23bd 789d fabc cba8 133d df17 053d
000000d0: 6b60 363d a2e8 88bd d9fd 59bc 42cc 94bc
000000e0: 65e1 cb3d fa04 5a3d f0c0 93bd 4d3d 5fbd
000000f0: 18cf 8ebd 62cb cabc 36e5 93bd 291b da3c
00000100: 6a04 09bd 0b4c 37bd 8bbc d5ba eadb 0bbd
00000110: 8ac9 703d ec75 c63d 77e7 a6bd 761c 383d
00000120: 1fee 833b 734e 833d fc2b b2bc 388b b23b
00000130: cffc 97bb 2b91 e53c 25bc 4b3d c98e 503d
00000140: daf0 7a3c 385b 8abd 4099 72bd 4dfc 2ebd
00000150: 9c08 b5bd 1579 b53d 30d7 13bd e7ce 74bd
00000160: a384 02bd f809 2a3d aaf2 73bd 5029 6ebd
00000170: c0ad 87bd b3e5 543c 6bdc 66bc 0c2d abbd
00000180: f475 86bd cb03 97bd bd2a 143d 32a6 443d
00000190: 502c 663c 2cc4 b6bc c0bb 3abd b2de df3c
000001a0: 61e9 6ebc 20e8 35bc eb38 60bc 9101 af3b
000001b0: 90d8 b43c 636b 783d a3d9 b73d d3b5 81bc
000001c0: 2054 e23b 86aa 72bd 186e a1bd 6ac9 9f3d
000001d0: 090b a43c b59f 40bd 82b5 203d a479 0c3d
000001e0: 3e71 d63c e132 3d3d d80b 5eba 4a4b 82bd
000001f0: 2031 96bd c78e a73d 5608 573d 9aac 8fbd
00000200: f073 8b3d dd79 c4bd 21e1 693d 9baa 3b3d
00000210: 40ee 443d 79be f43c 5de8 53bd 5f46 4abd
00000220: c177 bb3c 430f 1a3d e90e a93d 7952 393c
00000230: b14c 013d a029 96bd af3e 47bc 6430 793d
00000240: f55c c63b 121c a33d f948 b0bd 8af3 63bd
00000250: f921 f13c eecd 68bb 7024 8dbd f30c 1b3d
00000260: fe2f 1c3a 1aa5 2c3c f2d0 403c 24e5 60bd
00000270: 0c74 a1bd e76a afbd 357f 893d 48ae 12bd
00000280: c96e b33d 087c 9abc 7d94 8d3c 45da ba3d
00000290: 5166 22bd e5d8 9cbd 9bea cf3b 40f4 69bd
000002a0: ebfd 483d 68ce 1b3d 20ac 5f3d fcba 2bbc
000002b0: 1b27 94bd 5542 aabd b8cb 74bd 4ed1 923d
000002c0: 33ad a5bc 4e10 eaba e7b9 d4bc 6858 28bd
000002d0: 51d6 a23d b03d a1bc c503 09bd d48a b03d
000002e0: 298e 2f3d 6766 123d e213 903d d2cd 81bd
000002f0: 3524 033d 7641 9dbc de5c 273c 9cfa 113d
00000300: c752 b0bc d7bf bb3d 25aa fd3b bbbf 6b3d
00000310: 25f0 5d3c 745b a5bd 1627 7abd 3917 8abd
00000320: 5de9 5f3c 521b 6cbd 0165 81bd e5cc e53b
00000330: 4e32 94bd 4c2a 7fbd 7298 74bd 39ad 023d
00000340: 7c1b 973d b08a ff3c c893 51bd d58c 993d
00000350: e7f8 b43d 19e0 89bc f7b4 813d 5101 f53c
00000360: fe66 69bd fa9a bfbc 5703 77bd 52d8 153d
00000370: bf52 4e3d 3f26 c5bd bb14 d7bc 5e19 84ba
00000380: d532 9f3d 1e6a 2cbd cd16 893a 7a2a b139
00000390: 79f6 5dbd 4a20 59bd 0ee7 c1bc dc70 09bd
000003a0: 9783 1cbd b03c 4b3c 1997 9039 a623 08bd
000003b0: 15fc 763d 4070 583d 7749 8bbc 0993 52bc
000003c0: 33d1 bdbd a9d9 84bd 1c8d 39bb aa41 45bc
000003d0: 9939 fb3c 6f89 0cbd ebc8 eabc 54ac bd3c
000003e0: 426c d13d c3ff 863d 8ee7 55bd 933b d938
000003f0: be9d 80bc cddd 1cbc 08ce 273d d9f2 f5bc
0.0023822333 -0.03073766 0.051588204 0.0354632 0.021640627 0.027816929 0.07661007 0.012873261
0.06664993 -0.06065365 0.06111865 -0.02464898 0.047429655 -0.057256967 -0.06573317 -0.06355155
0.04893884 0.0010126021 -0.07269375 0.08710874 0.0346532 0.08202569 0.009836223 0.01978521
0.056694087 -0.071592815 0.0824285 -0.0528824 0.008364194 -0.064226285 -0.06047083 0.063364774
-0.014605343 -0.025549503 0.06817404 0.081305265 -0.07681115 0.006439504 0.015062339 0.078383245
-0.030099705 -0.02869243 -0.055442803 0.016969072 0.03404501 -0.009708544 -0.017185096 -0.06418312
-0.039833706 -0.030592665 0.036049645 0.03249347 0.044525545 -0.06684996 -0.013305151 -0.018163804
0.099551 0.053227402 -0.07214534 -0.05450182 -0.06973094 -0.024755184 -0.07221453 0.02662428
-0.033451475 -0.044750255 -0.00163068 -0.034145273 0.058785953 0.096904606 -0.08149617 0.044949017
0.004026189 0.064114474 -0.021749489 0.005448725 -0.0046382914 0.028023323 0.049739975 0.05091742
0.015316213 -0.0675568 -0.05922818 -0.04272108 -0.08839533 0.08860985 -0.03609389 -0.05976763
-0.031864773 0.041513413 -0.059557594 -0.058144867 -0.06624937 0.012994218 -0.014090638 -0.083582014
-0.065654665 -0.0737377 0.03617357 0.04801006 0.014048651 -0.022310339 -0.04558921 0.02732787
-0.014582009 -0.011102706 -0.013685445 0.005340763 0.022075921 0.060649287 0.08977058 -0.01583377
0.006907001 -0.059244655 -0.07882327 0.078020886 0.020024793 -0.04702731 0.0392356 0.034295693
0.026177045 0.0461911 -0.0008470393 -0.063620165 -0.073335886 0.081815295 0.052498184 -0.07015343
0.06809223 -0.09593556 0.057099465 0.045817 0.048078775 0.02987598 -0.05173527 -0.049383517
0.022884252 0.03761221 0.08254797 0.011311167 0.03156728 -0.07332158 -0.012160941 0.060837165
0.006053562 0.07964338 -0.086076684 -0.05565218 0.029435145 -0.0035523134 -0.068917155 0.037854146
0.0005958079 0.01053741 0.011768566 -0.054906026 -0.07883462 -0.08565312 0.06713716 -0.03581074
0.08761365 -0.01885797 0.017282719 0.09123663 -0.039648358 -0.07658557 0.006345106 -0.0571177
0.04907028 0.03803864 0.05460751 -0.010481592 -0.07234021 -0.08313433 -0.059764594 0.07168828
-0.02022419 -0.0017857642 -0.025967551 -0.041099936 0.07951034 -0.019682735 -0.03345086 0.08620229
0.042860184 0.03574219 0.07035042 -0.06338085 0.03201695 -0.019196253 0.010215012 0.03563939
-0.021523846 0.0916745 0.00774123 0.057555895 0.013546024 -0.08074084 -0.06107243 -0.067427106
0.013666478 -0.057643242 -0.06318093 0.0070129507 -0.07236157 -0.062296197 -0.059715696 0.03190348
0.07378289 0.031194061 -0.051166326 0.07497565 0.08836537 -0.01683049 0.063333444 0.029907854
-0.056982987 -0.023389328 -0.06030592 0.036583252 0.05037188 -0.096264355 -0.026255002 -0.0010078361
0.07773367 -0.04209339 0.0010459066 0.00033791718 -0.054190133 -0.05300931 -0.023669746 -0.033554897
-0.03821143 0.012404606 0.00027578397 -0.033237122 0.060298998 0.052841425 -0.017002804 -0.012852439
-0.09268417 -0.06486828 -0.0028312868 -0.012039581 0.030667113 -0.034310754 -0.028660258 0.023153462
0.10225727 0.065917514 -0.05222278 0.00010358463 -0.015700217 -0.009574366 0.04096797 -0.030023025

model.fc.3.bias f4 [64]
00000000: ea50 753d 0b4c 903d 7922 68bd f89f 80bd
00000010: a737 923d a258 a93d 316d 2f3d c10a 153d
00000020: 6e2e adbc 777e 013d 4ff2 25bd 86ed 99bb
00000030: 2fb2 aa3d 7128 62bd 9a8f 97bd ffcd e2bb
00000040: 2eb4 403d fcc0 acbd 94f8 663d fd4f 983b
00000050: 1d38 213c f142 643d 5876 353d 5ce3 a6bb
00000060: c831 abbd e855 983d f52a e6bc 9127 43bd
00000070: 038e ef3c 66e9 813d e928 363c 2e65 51bd
00000080: d77f a5bd b94f 253d 8d85 003d 53e7 603d
00000090: 8c54 b03d 2c3f 4cbd bcb5 ca3c b826 b13d
000000a0: 9275 86bb 6893 fbbc 72c3 8ebd c5f3 f73a
000000b0: 9cd4 3fbd 8ca6 75bd 7649 a7bd c6e9 1f3d
000000c0: 214f 52bc 1a7a 203d cca6 433d 61d0 afbd
000000d0: edf0 01bd b270 9f3d 37a5 71bc 421d 6b3d
000000e0: bd69 9bbd 6d94 a33d 30d3 183d e75a 7dbd
000000f0: 6c5a aa3c 9a15 693d 8a35 473d 0cb3 943c
0.05989162 0.07045754 -0.0566735 -0.062805116 0.07139521 0.082688585 0.042828742 0.03638721
-0.021140303 0.031614747 -0.040514287 -0.0046975045 0.08334767 -0.05521435 -0.07400437 -0.0069215293
0.047046833 -0.08435246 0.056389406 0.004648207 0.009840039 0.055727903 0.044302315 -0.0050930213
-0.083591044 0.0743826 -0.028096655 -0.047645155 0.029242521 0.06343345 0.011118152 -0.051121883
-0.08081024 0.040359233 0.031377364 0.054908108 0.08609876 -0.049864933 0.02474486 0.08649963
-0.004103371 -0.030709937 -0.06970872 0.0018917253 -0.04683362 -0.059973285 -0.081683084 0.039041303
-0.012836249 0.039178945 0.04776649 -0.08584667 -0.031723905 0.07785167 -0.014748863 0.05740095
-0.07588527 0.07987294 0.03731078 -0.06185427 0.02079507 0.056905366 0.048635043 0.018151782

model.fc.4.weight f4 [64]
00000000: b55a 7f3f c3c2 7e3f bbc5 7f3f 2895 833f
00000010: e66d 7f3f 2842 7e3f 7b2a 823f 0030 7f3f
00000020: 915e 7d3f 952e 813f 8867 7f3f aaac 803f
00000030: 1c4b 803f 5012 803f b8ca 7e3f 65da 7e3f
00000040: 0dee 7e3f 6a4b 7e3f 4898 7e3f 15d8 813f
00000050: 67cf 7c3f 5273 7b3f 00c0 803f 66e6 7e3f
00000060: 6f01 813f 3a6b 7e3f 157d 7d3f 6fcb 7e3f
00000070: 9ad9 7f3f c8dd 7f3f cce7 7f3f 4b65 803f
00000080: 6b16 7e3f 757a 813f e767 7e3f 760c 803f
00000090: 3496 803f 6529 813f ae1b 7c3f 192b 7e3f
000000a0: 8b18 7f3f a0b5 7e3f 237b 7f3f cebb 7c3f
000000b0: 08be 813f 23bb 7c3f 8424 813f 6279 7a3f
000000c0: 2c34 7c3f c8e4 7d3f a39e 7d3f c4f8 803f
000000d0: 917a 813f 9acb 813f 88ac 7e3f 3599 813f
000000e0: eea3 7d3f 01dd 813f 4e2d 7f3f 0c48 803f
000000f0: f038 803f e388 813f 9924 803f bb2f 803f
0.9974778 0.9951593 0.9991109 1.0279894 0.99777067 0.99319696 1.0169214 0.9968262
0.9897242 1.0092341 0.9976735 1.0052693 1.0022922 1.0005589 0.99528074 0.99551994
0.99581987 0.9933382 0.9945111 1.0144068 0.9875397 0.9822284 1.0058594 0.9957031
1.0078562 0.99382365 0.99018985 0.99529165 0.9994141 0.99947786 0.9996307 1.0030912
0.9925296 1.0115496 0.9937729 1.0003803 1.0045838 1.0090758 0.98479736 0.9928451
0.99646825 0.9949589 0.99797267 0.9872407 1.0136118 0.9872305 1.0089269 0.97841465
0.9851711 0.9917722 0.99070185 1.0075917 1.0115529 1.0140259 0.9948201 1.012488
0.9907826 1.014557 0.99678504 1.0021987 1.0017376 1.01199 1.0011169 1.0014566

model.fc.4.bias f4 [64]
00000000: 306d 93bb 6fa8 ac3a b1c6 8ebb df5e e03c
00000010: b4a4 eabb b8bd 1dbc c9b3 b83c b3e3 d3ba
00000020: 0653 1dbc f216 daba 0da1 52ba 6027 e7ba
00000030: 2037 1bbc d3a8 21bc a2ce 2dbc bae5 263b
00000040: 98c7 cdbb 0295 12bc a13b 0f3a 64c8 943c
00000050: 5416 2bbc 1de0 94bc 200f a7ba 3fa3 20bb
00000060: cdd1 0d3c 5822 12bc c96d 09bb 8882 3abb
00000070: 012f faba 27aa 02b9 40d4 d9bb 08cd 0eba
00000080: f542 0bbc 9de4 4b3a 86bf 99b9 aa59 c03b
00000090: 3410 453c b721 173b caca b0bb d369 813a
000000a0: 9906 2dbb f634 8abb 5614 16bc 5f57 14bc
000000b0: 83bb 113c 061f 38bb f7e3 4c3c 617f 64bc
000000c0: 3dcc a9bb 8264 f4bb ad40 07bc 5ae3 24bb
000000d0: 6049 4d3c 73b0 413c 1665 8dbb 01f6 6e3c
000000e0: 725b b7bb e9ac 3d3c ea7b 8bba ba8b 493c
000000f0: c150 dc3a 3bd5 ce3b 2ae3 0e3b 0d9c 953b
-0.0044991 0.0013172756 -0.004357182 0.027388988 -0.0071607474 -0.009627752 0.022546666 -0.0016165882
-0.009602314 -0.0016638918 -0.00080348627 -0.0017635636 -0.009473592 -0.009866911 -0.010608347 0.0025466518
-0.006279897 -0.008946659 0.00054639025 0.01816196 -0.010442335 -0.018173272 -0.0012745596 -0.0024511365
0.008655977 -0.008919321 -0.0020969978 -0.002845915 -0.0019087495 -0.00012461153 -0.0066476166 -0.0005447422
-0.0084998505 0.00077779015 -0.0002932513 0.005870064 0.012027789 0.0023060867 -0.005395268 0.0009873457
-0.0026401638 -0.004217739 -0.009160122 -0.009054034 0.008894804 -0.0028094663 0.012505523 -0.013946385
-0.005181818 -0.0074582705 -0.008255166 -0.0025159926 0.012529701 0.011821854 -0.004315029 0.014585019
-0.005595618 0.0115768695 -0.0010641788 0.01230138 0.0016808735 0.00631204 0.002180288 0.004565722

model.fc.4.running_mean f4 [64]
00000000: 4a94 f43b 2108 0c3c b62c 0bbe b9a1 67be
00000010: feea f1bc aca3 273e b866 00bd 8631 013e
00000020: 60cc c6bd 3ed4 c0bc 3231 cbbd 13ba 8ebd
00000030: c368 993e 40c7 4bbd a0fa 10be a75c e9bd
00000040: db31 8d3c 44d1 9bbe 4661 083c b19d 9fbb
00000050: 2b7b fdbd 9830 0c3e 3156 bd3b dba1 093e
00000060: 862a bebd 5401 e9bd 1150 2cbe b6a2 a23c
00000070: fcd9 98bd 8dc7 173e ba15 4e3e 6160 1a3d
00000080: db83 af3d 121b fb3d 7262 b63d 5223 5cbe
00000090: 3326 1dbd 3d77 5dbe 65e4 613d 18bf 7c3d
000000a0: 991c 49be dda3 c23d 7958 6abe 8dbe 4b3e
000000b0: a0f4 5cbe 2c72 4fbe 595e 7b3d a21e 5a3e
000000c0: f3a8 92bd a266 073d 391a c5bb 1b1f 84bd
000000d0: eb7b d9bd 6e1f 063d 6468 dfbc e82c 903e
000000e0: 766f 3cbd e02f 133d 13f4 87be 3a7c 3abd
000000f0: 63ed fbbc 07b7 243e 7d54 5e3a 9b5b 1f3e
0.0074639665 0.00854686 -0.13591275 -0.22620286 -0.029530998 0.1637103 -0.03134796 0.12616548
-0.0970695 -0.023538705 -0.09921493 -0.069690846 0.2996274 -0.049750566 -0.14158106 -0.11394625
0.017235687 -0.30433095 0.008323973 -0.004871093 -0.12377008 0.13690412 0.005778097 0.13440649
-0.092854545 -0.113772064 -0.16827418 0.019852977 -0.07463452 0.14822216 0.20125476 0.03768957
0.08570071 0.122610226 0.08905496 -0.21497849 -0.038366508 -0.21627517 0.055149455 0.06170568
-0.19639815 0.09503911 -0.22885312 0.19896908 -0.21577692 -0.20258397 0.061369274 0.21300748
-0.07161131 0.033056863 -0.006015089 -0.064512454 -0.106193386 0.032744817 -0.027271457 0.2815926
-0.046004735 0.03593433 -0.265534 -0.045528628 -0.030752843 0.16085444 0.00084812177 0.15562288

model.fc.4.running_var f4 [64]
00000000: c315 323e 569b 993e 0f06 a53e f7fc 763e
00000010: fb74 453e f2ee 093e 902c e43e c18b 0d3e
00000020: 7f21 e23e fe01 be3e 55f6 5b3e c73d 8a3e
00000030: 383d 1a3e 7f1f 193e 2fcc 6d3e df26 ed3d
00000040: c944 523e 4882 393e 8bbd 273e 2d88 973e
00000050: ef56 a03e 5124 2c3e c826 fc3e bbf9 da3e
00000060: b363 9c3e 7ff6 1c3e 4d28 b73d fec7 253e
00000070: 0c50 293e d740 f93d 1f89 103e e14c bf3d
00000080: 4590 803e 00c7 de3e 78ba ba3e 0dae f63d
00000090: f1c9 aa3e c0fa 833e 594b 193e 5ac9 643e
000000a0: 6bee d13e 41d3 5c3e bb14 723e 1481 2b3e
000000b0: 8899 6f3e 639f 863e 9684 263e 6ef5 1d3e
000000c0: 4fbf 2f3e 276e 343e bff5 a93e 6fe6 7b3e
000000d0: 36a7 683e 3aaa 303e d0c6 0e3e 9631 683e
000000e0: 15fc 633e 8ca8 aa3e f1b9 313e 41cc ae3e
000000f0: d14e 493e c7a4 533e 0f98 573e 5768 103e
0.17391114 0.30001324 0.32231185 0.24119936 0.19282906 0.13470057 0.44565248 0.13822843
0.4416618 0.37110895 0.21480687 0.27000257 0.15062416 0.14953421 0.23222421 0.1157968
0.20534052 0.18116105 0.16380899 0.2959608 0.31316325 0.16810729 0.49248338 0.42768654
0.30544814 0.15328406 0.08943234 0.16189572 0.16534442 0.1217057 0.14114808 0.09340835
0.2511007 0.435112 0.3647039 0.12044916 0.33357194 0.25777245 0.14970149 0.22342435
0.4100221 0.21564962 0.2364072 0.16748458 0.23398411 0.26293477 0.16261515 0.15425655
0.17162822 0.17620145 0.33195302 0.24599622 0.22720036 0.17252436 0.13943028 0.22675166
0.2226413 0.33331716 0.17356087 0.34140208 0.19658972 0.20668326 0.210541 0.14102302

model.fc.7.weight f4 [32, 64]
00000000: ec45 50bd a8d4 54bc bc0f 95bd 17d2 0e3e
00000010: 3fd7 d13c 3617 9a3c 42e6 afbd f0c4 d7bd
00000020: 025e 12bd 3196 bc3d 52eb c63d de81 2fbd
00000030: 1e8b 3b3d c19d ffbc ddd1 84bc 34e6 093e
00000040: 0409 d33b 73e1 e23d e192 d0bd cb5d f73c
00000050: 5964 ebbc 26dc d33d 9b54 b93d 17b7 203d
00000060: 6730 5d3d be41 5ebd 5c68 7ebc a516 a83d
00000070: b1f5 92bd b8c3 b53b bb0d 603d df06 e9bd
00000080: 7654 62bd 025b a2bd a445 0bbe 099e 5cbd
00000090: 1449 2f3c 6acc d23c eeb0 a93d f259 df3c
000000a0: aadd 86bd 5725 c4bd db69 cc3d f553 c33c
000000b0: 7972 b03d 8572 c9bd 1a92 a9bd c1ce 653c
000000c0: dcb4 b63d 0e25 e5bd 392c 65bd 6144 dbbd
000000d0: 9740 153d e6b1 983c a29e 2ebd b6d5 d83d
000000e0: 8e68 bfbd 1c82 d03b 47f8 94bd d180 89bc
000000f0: 48b9 c8bc 8409 95bc 984e 0a3e 47ea e0bd
00000100: bd54 18bd 4e1f 81bc 57f7 4fbd 0638 be3d
00000110: 4cc3 3d3d d884 c03d 1a15 e23d 589c 1dbc
00000120: aeae bb3d 0f54 c2bc 7aa9 b13d 1703 003d
00000130: ad83 613d 2b88 233d 7e8f 45bd 1138 ba3d
00000140: cbaf d53d 2e27 28bd 4b48 5abd fa0f fabd
00000150: 8cda 833d 7980 babd a10e f8bd 5546 bf3d
00000160: 97db 433d 4ad4 e33d 9ff4 e5bd 9231 88bd
00000170: f5bd 36bd 8364 b73d 8479 d1bd cd77 d1bd
00000180: 1555 47bd b560 90bd 4219 ec3d 2157 533d
00000190: f17a 92bd 9506 21bd b287 22bc 814c b2bd
000001a0: fc99 d8bd 33b5 dc3d cc03 a3bd e8e6 803d
000001b0: 13b0 fabc 6115 a3bd 4e01 4dbd 7cf7 76bd
000001c0: d89a 85bd 3aeb 98bd dccc 043b 60a7 5bbd
000001d0: 0960 ed3d fd88 07be e11f ebbc f03f 923d
000001e0: 7f92 a3bd 039c 2fbd 4061 b0bd 6583 09be
000001f0: 119b 973d 69cb 383d 20f7 7e3b b472 ce3d
00000200: 31bd 0a3b 2aa4 f1bd 1c66 febd 1f27 71bb
00000210: aae4 a3bd 98b7 fd3d 6463 32bb 6be3 c43d
00000220: 18d4 ffbb 2523 8fbd 5411 fcbd a5c8 ff3d
00000230: 313a c8bd 11db b73d b841 7cbd 6743 ccbd
00000240: 8c77 18bd 93a2 653d e321 af3d 9867 e4bd
00000250: 537e ccbd d6b9 e93c 22dd 5c3d 3075 b6bd
00000260: c681 763d 5778 f7bc d179 e3bd 6471 6c3d
00000270: 1dd1 c5bd 3b09 98ba b2df 07bd 3444 63bd
00000280: f92e 08bd 21bf e3bd 1cfc c33d 27f8 afbd
00000290: 5704 be3d 4510 843c 9321 32bc 871b 82bc
000002a0: 8841 83bd 053b d0bc ac1d d23d ff05 66bd
000002b0: b1a2 833d b66f d1bd df57 6ebd 18ba 973d
000002c0: 026b 513d 3f01 f3bd 22a8 a8bd 2ada b53d
000002d0: ce45 6d39 3abc e13d ef48 0abe c6a8 a23c
000002e0: da74 fabd ad6a 053d 76b6 c1bc 1b5f f4bc
000002f0: 19ca 503c 459a 9d3c 9fed b0bd ecd3 95bd
00000300: d350 643d eff3 8fbd a404 c03c dc9d cbbc
00000310: aaf2 a93d 4560 1bbd c391 b43d aae2 5d3c
00000320: 9a73 9fbd deaf a13c 75bc a4bd 9e3a 233d
00000330: 2e04 68bd 4873 ef3c fde0 d5bc bda4 dbbc
00000340: 50c6 cabd 06ca 2bbd 5836 de3d 1269 913d
00000350: 5eab 1ebd 47fa 9e3c 21c0 763c efd1 a93d
00000360: 5fcb 9c3d 1a5a 6dbd 9138 04bd f6d5 eb3d
00000370: 7fc0 183c b5f7 88bd 6d52 8bbd 7faf 7cbd
00000380: e767 efbd d7ea bdbd 420e 0c3e f951 e6bb
00000390: 7fa4 9d3d cec8 e5bd 8a8a 8f3d a0ae 343d
000003a0: 79f0 01be d6b0 fdbc cdbb cc3c 3bbe c7bd
000003b0: 908a 4c3d 1f0e 793d ac1b e9bd a3ab 3abd
000003c0: 7011 b13d 1164 0cbb 111a 95bd bb3e f13c
000003d0: 5f42 c4bd a218 1a3d 35f3 82bd ddda 393d
000003e0: a43c 7fbd 5778 1dbd 15a2 90bd 9500 923d
000003f0: c705 e0bd 5c07 a73d a35c 713d 25de a3bd
-0.050847933 -0.012990154 -0.07278392 0.1394733 0.025615333 0.018809896 -0.0858884 -0.1053561
-0.035734184 0.09208334 0.097128525 -0.04284846 0.04578697 -0.031203153 -0.016213352 0.13466722
0.0064402837 0.11078157 -0.10184265 0.030196091 -0.028734373 0.10344724 0.0904934 0.039237108
0.05400124 -0.054261915 -0.015527811 0.08207444 -0.07175768 0.005547013 0.054700594 -0.11378264
-0.05525633 -0.079275146 -0.13600785 -0.05386165 0.0106985755 0.025732238 0.082857 0.027264569
-0.06585248 -0.095774345 0.09981128 0.023843745 0.08615584 -0.09836296 -0.0827982 0.014026345
0.08921215 -0.11188708 -0.055950377 -0.107064016 0.03643855 0.018639516 -0.042631753 0.10587637
-0.09346114 0.0063631665 -0.07273918 -0.016785057 -0.024502411 -0.018193014 0.13506544 -0.10982185
-0.037190188 -0.015761998 -0.05077299 0.092880294 0.046328828 0.09400338 0.11039181 -0.009619795
0.09164177 -0.023721723 0.08674903 0.031252947 0.055057216 0.03992478 -0.048232548 0.09092725
0.104339205 -0.04105299 -0.0532916 -0.122100785 0.06438169 -0.091065355 -0.12112165 0.09339587
0.04781684 0.11124475 -0.112282984 -0.0665008 -0.04461475 0.08954718 -0.102282554 -0.10227928
-0.048665125 -0.070496954 0.11528255 0.051596764 -0.071523555 -0.039312918 -0.009920048 -0.08705998
-0.10576245 0.107767485 -0.079597086 0.06294042 -0.030601537 -0.07963062 -0.050050072 -0.060294613
-0.06523675 -0.07466741 0.0020263707 -0.053626418 0.11590583 -0.1323585 -0.028701724 0.07141101
-0.07986926 -0.042873394 -0.08612299 -0.1342903 0.074026234 0.045115862 0.0038904622 0.10080472
0.0021169896 -0.1179889 -0.124218196 -0.0036797 -0.080025986 0.12388533 -0.0027219886 0.09613689
-0.007807266 -0.06989125 -0.123079926 0.12489442 -0.09776724 0.089773305 -0.06158611 -0.099737935
-0.037223384 0.056063246 0.08551385 -0.111525714 -0.09985032 0.028530996 0.053921826 -0.089090705
0.060182355 -0.03020875 -0.11107219 0.057725325 -0.09659026 -0.001159943 -0.033172317 -0.055484965
-0.03324792 -0.11120439 0.095695704 -0.08592253 0.092781715 0.01612104 -0.0108722625 -0.015882267
-0.064089835 -0.025418768 0.10259566 -0.056158062 0.06427515 -0.10226385 -0.05818927 0.074085414
0.05112744 -0.11865472 -0.08235194 0.08879502 0.00022628086 0.110222295 -0.13504384 0.019855868
-0.12229319 0.032572437 -0.023646574 -0.029830506 0.012743496 0.0192386 -0.086390726 -0.073158115
0.055741142 -0.070289485 0.023439713 -0.024855547 0.082982376 -0.037933607 0.08816864 0.01354281
-0.07785721 0.01973718 -0.08043758 0.039850824 -0.05664461 0.029229775 -0.02610826 -0.026811952
-0.09901106 -0.04194071 0.10850209 0.07100119 -0.038737647 0.01940645 0.015060456 0.08291995
0.076559775 -0.057947256 -0.03228051 0.11515419 0.009323238 -0.06687871 -0.06802831 -0.061690804
-0.1168974 -0.09273308 0.13677314 -0.007028815 0.07697391 -0.11219941 0.07008846 0.044111848
-0.1268939 -0.030968111 0.024991894 -0.097530805 0.04993683 0.060804483 -0.11382231 -0.04557384
0.08645904 -0.002142195 -0.072803624 0.029448858 -0.09582972 0.037621148 -0.06394044 0.04537474
-0.06231369 -0.038444843 -0.07062165 0.07129017 -0.10938602 0.081557006 0.058926236 -0.08001355

model.fc.7.bias f4 [32]
00000000: 1e6c 3f3d a6f8 04bd 506b db3d e9c9 9e3d
00000010: aa3e 0b3d d32b 21bd 1ab9 9bbd 590c e23d
00000020: 8024 eb3a a69b b1bc b68c 20b9 c2cf 83bd
00000030: f01e 713d c53f e83c e2ff d53c d925 93bc
00000040: b6ca 2d3d d771 dd3d 96ea 833d 2950 ef3d
00000050: 8da2 1a3d 1223 813d af9a 26bd 4ac1 b1bd
00000060: c839 863d c0e6 7f3c f274 f5ba 5d20 843c
00000070: 2777 573d 0035 85bb ced9 603d 8710 f93d
0.046733968 -0.032463692 0.107138276 0.07753355 0.033995308 -0.039348435 -0.07603665 0.110375114
0.0017939955 -0.021680664 -0.00015311208 -0.06436111 0.058867395 0.02835072 0.026122991 -0.017962383
0.04242965 0.10812729 0.06441228 0.11685211 0.037752677 0.06305517 -0.04067486 -0.08679445
0.0655399 0.01561898 -0.0018726869 0.016128713 0.052603867 -0.004065156 0.054895215 0.121613555

model.fc.8.weight f4 [32]
00000000: fbb7 813f 43cd 7e3f 4561 803f a44b 7d3f
00000010: 09be 833f 73bd 813f d7c9 823f 4eae 813f
00000020: aebd 7b3f b154 7f3f f844 833f fbba 7e3f
00000030: 55f7 7c3f 55ac 7c3f 13c6 803f 97d6 7c3f
00000040: a03f 793f 592b 803f c152 803f b32b 813f
00000050: 1f89 803f 5d69 7b3f b485 813f 8da7 7b3f
00000060: da2d 813f 9de4 7d3f 5f3d 803f 86df 7d3f
00000070: c657 7d3f 6ad4 813f 3286 803f aa3d 7b3f
1.0134271 0.99531955 1.0029684 0.98943543 1.0292369 1.013594 1.0217847 1.0131319
0.98336303 0.99738604 1.0255423 0.9950406 0.988149 0.9870046 1.0060447 0.9876494
0.9736271 1.0013229 1.0025254 1.0091461 1.0041846 0.98207647 1.0118928 0.9830254
1.0092118 0.9917696 1.0018729 0.99169195 0.98962057 1.0142949 1.0040953 0.98140967

model.fc.8.bias f4 [32]
00000000: cbb3 663b 8bbd e23a 5060 373c c7c3 25bc
00000010: e8da ca3c 37d9 623c 678d 783c 273d cd3c
00000020: 662d 5cbc 466b 03bc b920 7c3c 092d 7abb
00000030: 0e5d ffbb ca87 f1bb f5ff 533a 615d 49bc
00000040: 4915 c3bc fc3c 5a3c b24c 05bb 6c23 533b
00000050: a3e0 3cbc 0bf4 55bc 1d84 123b d938 443a
00000060: 0d86 9b3b a939 863a f822 50b9 2355 02bc
00000070: d402 20bc 94d7 9e3c baad 353c c1f6 13bc
0.003520238 0.001729892 0.011192396 -0.010117478 0.024762586 0.013845733 0.015170432 0.025053574
-0.013438558 -0.008021181 0.015388661 -0.0038173816 -0.0077930754 -0.0073709236 0.0008087152 -0.01229033
-0.02381386 0.013320204 -0.0020339903 0.0032217158 -0.011528167 -0.013058673 0.0022356578 0.00074852776
0.0047462047 0.0010240573 -0.00019849453 -0.0079548685 -0.009766299 0.019389905 0.011088783 -0.009030999

model.fc.8.running_mean f4 [32]
00000000: 293e c9bc 741e 0dbe 710f 14be 3cea d0bc
00000010: bb91 33be e616 173e da78 54be d3c6 073d
00000020: a61a 8dbe ea4a fcbd 30b3 f4bd 2868 303e
00000030: ef2a 86bd f223 a6bd 78af 11ba 15d4 b7bd
00000040: fe78 ae3c 9c18 453d 1a7f 0abe 0aa4 433e
00000050: 7526 903d 2bdb 30bc e364 aebd 796b 0dbe
00000060: 319b 01be ebfd 133e 878b 133e 899c 38bd
00000070: cedf 213d dd37 64be b025 c1bc d081 1f3e
-0.024565773 -0.13781148 -0.14459015 -0.025502317 -0.1753606 0.14754829 -0.20749226 0.033148598
-0.27559394 -0.12318976 -0.1194824 0.17227232 -0.06551158 -0.08112325 -0.0005557458 -0.08975998
0.021297928 0.048119172 -0.13525048 0.19105545 0.07038585 -0.010794441 -0.08515336 -0.13810529
-0.12656857 0.14452331 0.14408694 -0.04507116 0.039520077 -0.22286935 -0.023577541 0.15576863

model.fc.8.running_var f4 [32]
00000000: 6148 753e 9946 db3e f801 1e3f 3f69 063e
00000010: a675 083f ba6d 8b3e 6343 cc3e f0da c13e
00000020: c74f 723f 61e5 b43e 43ab f83e 35bc bb3e
00000030: 074a 853e a334 023e ff96 bc3e b865 893e
00000040: 27c2 ac3e 0877 a83e 5326 373e c741 f63e
00000050: fadf 993e d3e7 373e 5dc2 8c3e 1343 343e
00000060: 585b 933e 0232 163e 7a2e ae3e b750 073e
00000070: 7298 0a3e b311 0f3f 3172 d53e 6e53 6c3e
0.23953392 0.428273 0.61721754 0.13126086 0.5330452 0.27232152 0.39895162 0.3786235
0.9465298 0.35331252 0.48568162 0.36667028 0.2603304 0.12715392 0.3683395 0.26835418
0.33741876 0.32903314 0.17885713 0.4809706 0.30053693 0.17959528 0.27492037 0.17603712
0.28780627 0.14667514 0.34019834 0.13214384 0.13534716 0.5588638 0.41688684 0.23078701
