MultiClassdiabet/checkpoints/bodyP-epoch=07-val_f1=0.91.ckpt (torch, 310078 bytes, 113 tensors)

model.fc.0.weight f4 [128, 77]
0.0759118 -0.0727322 0.021261528 0.028215634 0.028810551 0.034661133 -0.023529913 -0.054584045
-0.0002441511 0.007826639 -0.100141816 0.044717383 0.11416822 -0.042484682 0.041413076 0.038710788
-0.04113065 0.061477378 0.011633089 0.09602232 -0.03305457 0.0867144 -0.07580701 0.0028354663
-0.051757284 -0.039334472 0.027858753 0.109488636 -0.026291193 0.08873445 0.06389287 0.10696102
0.014376221 0.02326736 -0.1054766 -0.030262684 -0.05184732 0.11261731 0.06306856 -0.007839843
-0.004015164 0.06349314 0.08638241 -0.071745366 0.028139198 0.00820565 -0.072271846 0.050106633
0.04661098 -0.045370717 0.030803965 -0.08473819 -0.11104105 -0.11661477 -0.076536804 -0.055446573
-0.03412342 -0.11156265 0.037402067 0.0010519297 -0.10601011 -0.10117984 0.07298882 -0.10148818
0.075415045 0.008737289 0.08534642 -0.09642084 0.07009891 0.04879457 -0.0034918718 0.030753542
-0.07476201 0.115325004 0.04857098 0.06569988 -0.0034258747 -0.077563964 0.07503778 -0.1133452
0.051796757 0.0056961975 0.03257773 -0.050146848 -0.03576262 -0.062295217 -0.05221517 0.011229824
0.03846906 0.07528405 -0.070589386 0.032908104 -0.0024961422 -0.08239279 0.017807381 -0.010409075
-0.061392233 -0.09596513 -0.066713 0.08771249 -0.07341896 -0.042489417 -0.03408035 -0.11152085
0.10157539 0.08101529 -0.06753054 -0.024503034 -0.0031695587 -0.08697874 0.10964513 0.06707469
0.022265026 -0.107980564 -0.09305906 -0.006451305 0.06533444 -0.061020933 0.056135464 -0.021925751
-0.093716025 -0.013211865 0.0061171376 -0.037211876 0.013534073 0.07613015 0.040774275 0.022851586
-0.025639046 0.11217805 0.09630639 -0.0114982715 0.080177955 0.052990183 0.059934206 -0.08866391
0.037134234 0.0012605177 0.02847908 0.0010485515 0.04608218 -0.046375595 -0.08307741 -0.068447225
-0.055275455 -0.104267016 0.05626148 0.043537393 -0.022979626 -0.035499875 0.040266708 -0.005843451
-0.013050792 -0.11900877 0.03476597 -0.10382252 -0.062850244 0.10306649 -0.065418325 -0.07150515
0.10080137 0.0042779963 -0.04967166 0.052106503 -0.10880554 0.037623394 -0.07311928 -0.08470686
-0.048902415 0.08814173 0.029804226 -0.017380673 -0.080832615 -0.01422709 0.09444691 0.08510681
0.08950513 0.0718763 -0.051004823 0.07434555 0.012724221 0.08429615 0.058080144 0.026755651
0.10718462 0.061907332 -0.041928448 0.032912116 0.041399702 0.039875783 0.12312959 0.06578224
-0.061273932 0.06073339 -0.07874365 -0.015123032 0.0020170165 0.0048329425 -0.064436905 -0.120116755
0.03186926 0.049087074 0.1102475 -0.080648504 -0.10118738 -0.06671189 -0.030774651 0.0040231417
-0.09671804 0.078963004 0.039745897 0.10291408 0.03763035 0.08535718 -0.0043652845 0.0074185366
0.048457116 0.00030684858 0.0680265 0.085908696 0.023715457 0.007139236 0.010500711 -0.09510499
0.0757973 -0.055610027 0.025008388 -0.03686703 -0.07627513 -0.09863068 0.07104463 0.09197195
-0.100737035 -0.026429122 -0.031267878 -0.10821735 -0.10727523 0.020850595 0.026829036 0.057628844
0.092435986 -0.005022249 -0.02095138 0.046070937 -0.02975384 -0.05201761 -0.043648306 0.050517555
-0.008036682 -0.022230301 0.078534074 0.061377957 0.04496003 -0.0019394417 -0.07276114 0.06819533
00000000: a577 9b3d 9ff4 94bd a82c ae3c 7924 e73c
00000010: 1b04 ec3c d5f8 0d3d cec1 c0bc 8593 5fbd
00000020: 6801 80b9 4e3b 003c 2717 cdbd 9329 373d
00000030: 07d1 e93d 6b04 2ebd c2a0 293d 348f 1e3d
00000040: 9d78 28bd b4cf 7b3d b698 3e3c 5aa7 c43d
00000050: 3b64 07bd 5297 b13d b540 9bbd 3bd3 393b
00000060: 72ff 53bd 2f1d 21bd 0a38 e43c 943b e03d
00000070: a160 d7bc 68ba b53d 44da 823d 610e db3d
00000080: 3e8a 6b3c 319b be3c 1e04 d8bd 73e9 f7bc
00000090: db5d 54bd e7a3 e63d 172a 813d af72 00bc
000000a0: a391 83bb b108 823d 43e9 b03d 3cef 92bd
000000b0: 2d84 e63c fe70 063c 4303 94bd 9d3c 4d3d
000000c0: 28eb 3e3d a5d6 39bd 9958 fc3c 378b adbd
000000d0: 7d69 e3bd b9d3 eebd 54bf 9cbd f21b 63bd
000000e0: 00c5 0bbd f57a e4bd e932 193d e7e0 893a
000000f0: d41b d9bd 6037 cfbd 2a7b 953d 09d9 cfbd
00000100: 3473 9a3d d926 0f3c 1bca ae3d 4a78 c5bd
00000110: 0490 8f3d d1dc 473d e3d7 64bb daee fb3c
00000120: d31c 99bd 842f ec3d 5df2 463d a98d 863d
00000130: a484 60bb dbd9 9ebd 68ad 993d 8721 e8bd
00000140: d628 543d 2ba7 ba3b 3a70 053d c866 4dbd
00000150: d37b 12bd 4529 7fbd 93df 55bd 4cfd 373c
00000160: bc91 1d3d 862e 9a3d 2b91 90bd a6ca 063d
00000170: 5196 23bb 8dbd a8bd c9e0 913c d38a 2abc
00000180: 6c76 7bbd 5e89 c4bd d3a0 88bd 9ba2 b33d
00000190: ae5c 96bd 6209 2ebd d697 0bbd 0b65 e4bd
000001a0: c206 d03d 58eb a53d 744d 8abd 96ba c8bc
000001b0: 5fb8 4fbb e921 b2bd a08d e03d 745e 893d
000001c0: 2565 b63c ea24 ddbd c095 bebd 7865 d3bb
000001d0: 10ce 853d 16f1 79bd 4dee 653d a29d b3bc
000001e0: 30ee bfbd 9476 58bc 4572 c83b 7b6b 18bd
000001f0: 04be 5d3c 20ea 9b3d ed02 273d 4033 bb3c
00000200: fa08 d2bc 9bbd e53d 493c c53d 3f63 3cbc
00000210: 5734 a43d 3c0c 593d 927d 753d 6d95 b5bd
00000220: 111a 183d f537 a53a f64c e93c 8d6f 893a
00000230: abc0 3c3d 56f4 3dbd 7d24 aabd 0f2e 8cbd
00000240: 8468 62bd f289 d5bd 7072 663d 4454 323d
00000250: c53f bcbc 5168 11bd b4ee 243d 6b7a bfbb
00000260: fdd2 55bc dfba f3bd c366 0e3d e7a0 d4bd
00000270: a1b7 80bd 8614 d33d 0bfa 85bd 4b71 92bd
00000280: f370 ce3d 6f2e 8c3b 8374 4bbd a16d 553d
00000290: 70d5 debd fd1a 1a3d 90bf 95bd ca7a adbd
000002a0: e64d 48bd a783 b43d fe27 f43c ea61 8ebc
000002b0: 928b a5bd be18 69bc 626d c13d 7b4c ae3d
000002c0: 774e b73d e233 933d 6fea 50bd 7b42 983d
000002d0: 4079 503c 76a3 ac3d 72e5 6d3d ab2e db3c
000002e0: 9c83 db3d 8b92 7d3d 2abd 2bbd dbce 063d
000002f0: bc92 293d ca54 233d 5e2b fc3d d7b8 863d
00000300: 60fa 7abd 93c3 783d 5a44 a1bd 98c6 77bc
00000310: ec2f 043b a95d 9e3b 7ff7 83bd c6ff f5bd
00000320: 5789 023d 870f 493d 71c9 e13d 0b2b a5bd
00000330: 543b cfbd 3ea0 88bd 1f1b fcbc 8fd4 833b
00000340: 1c14 c6bd 5bb7 a13d 98cc 223d 9ec4 d23d
00000350: 4822 1a3d bfcf ae3d a90a 8fbb 3217 f33b
00000360: f87a 463d 85e0 a039 7a51 8b3d e6f0 af3d
00000370: eb46 c23c 41f0 e93b 2d0b 2c3c 68c6 c2bd
00000380: 9d3b 9b3d 57c7 63bd 64de cc3c e201 17bd
00000390: 2336 9cbd e2fe c9bd d97f 913d ca5b bc3d
000003a0: 384f cebd e381 d8bc bf12 00bd 0fa1 ddbd
000003b0: 1eb3 dbbd dece aa3c 91c8 db3c 390c 6c3d
000003c0: 144f bd3d ae91 a4bb 3aa2 abbc e1b4 3c3d
000003d0: 53be f3bc 6b10 55bd 91c8 32bd 7feb 4e3d
000003e0: 4aac 03bc 521c b6bc 79d6 a03d 7467 7b3d
000003f0: 0228 383d dd34 feba cb03 95bd fea9 8b3d

model.fc.0.bias f4 [128]
0.103915505 0.009857847 -0.025758745 0.09421312 0.10227292 -0.13605559 -0.0030483024 -0.096552745
-0.081074394 0.01749104 0.047414217 -0.058832467 0.035930175 0.029084206 0.06842778 0.041662276
0.058830813 0.011938072 -0.1213606 -0.04470808 -0.016030895 -0.0982012 -0.082241245 -0.07027357
0.023007961 0.023777355 -0.03141317 -0.067389235 0.055663407 -0.023512537 0.07979232 0.10019947
0.004157672 0.08037141 -0.08067413 -0.0482075 -0.045217466 0.06497616 -0.06225109 0.020469066
0.0304746 -0.029440477 -0.07875487 0.054444917 0.016167646 -0.03017186 -0.099181965 0.020383697
0.0006513031 -0.0050438927 -0.0068952786 -0.117435396 -0.01889587 0.050110485 0.0006414156 0.030790877
0.01876434 0.0065523246 0.111801334 0.009680707 0.10439204 0.025345854 0.033441477 -0.04915069
0.050891377 0.05236025 0.08261994 0.031407204 -0.08717828 0.08737717 0.09524965 0.06745544
-0.014473033 0.0037877625 0.11178455 0.08866104 -0.11026118 0.005722452 -0.09320951 -0.01837517
-0.08766041 -0.00416905 -0.11723404 -0.08819711 -0.0029150394 0.06473712 -0.02785037 -0.033220258
0.10489813 0.00246929 -0.06335208 -0.043152314 0.04463956 0.01676844 -0.012501718 0.036123615
-0.032943796 -0.021561133 0.10205254 0.07662294 0.02214324 0.025810685 -0.01838349 -0.11172716
-0.07606838 0.05375 0.041371115 0.0103129875 -0.061922953 0.046303082 0.09428794 0.020853644
0.04099846 0.115865864 0.011106386 -0.06820969 -0.10897215 -0.05576293 0.0029166301 0.061102252
-0.06368249 0.049455713 0.0524644 0.001101067 -0.10147937 -0.032310862 -0.10215681 -0.027538646
00000000: a7d1 d43d cf82 213c 0104 d3bc cff2 c03d
00000010: 7774 d13d 2852 0bbe 07c6 47bb 72bd c5bd
00000020: 550a a6bd 5f49 8f3c 6935 423d 50fa 70bd
00000030: 852b 133d 0042 ee3c dd23 8c3d 10a6 2a3d
00000040: 94f8 703d e797 433c e88b f8bd d21f 37bd
00000050: 3953 83bc b61d c9bd 196e a8bd 97eb 8fbd
00000060: 317b bc3c bac8 c23c 19ab 00bd 5e03 8abd
00000070: 50ff 633d 5d9d c0bc 286a a33d 6135 cd3d
00000080: 153d 883b c499 a43d 7a38 a5bd 3a75 45bd
00000090: f335 39bd 3912 853d 00fb 7ebd beae a73c
000000a0: dea5 f93c 282d f1bc 3c4a a1bd a201 5f3d
000000b0: 0372 843c fa2a f7bc ea1f cbbd b6fb a63c
000000c0: 36bc 2a3a 3d47 a5bb caf1 e1bb f881 f0bd
000000d0: 83cb 9abc a740 4d3d ac24 283a 263d fc3c
000000e0: acb7 993c e2b4 d63b 19f8 e43d d49b 1e3c
000000f0: 7ecb d53d 1ca2 cf3c eef9 083d 3c52 49bd
00000100: 7a73 503d b477 563d a534 a93d d7a4 003d
00000110: 878a b2bd cdf2 b23d 4012 c33d 1426 8a3d
00000120: 4d20 6dbc 1c3c 783b 4cef e43d eb93 b53d
00000130: 9dd0 e1bd 6883 bb3b a1e4 bebd 8687 96bc
00000140: 4d87 b3bd 879c 88bb 6618 f0bd b0a0 b4bd
00000150: 3f0a 3fbb e594 843d 7626 e4bc f711 08bd
00000160: d5d4 d63d d0d3 213b bcbe 81bd 7bc0 30bd
00000170: f9d7 363d f85d 893c 01d4 4cbc 5bf6 133d
00000180: 13f0 06bd f9a0 b0bc ec00 d13d 7dec 9c3d
00000190: bd65 b53c ee70 d33c f998 96bc 36d1 e4bd
000001a0: bdc9 9bbd f628 5c3d c274 293d cef7 283c
000001b0: eca2 7dbd 4da8 3d3d 091a c13d 43d5 aa3c
000001c0: 00ee 273d 154b ed3d 8ff7 353c 86b1 8bbd
000001d0: ca2c dfbd ac67 64bd ef24 3f3b 5b46 7a3d
000001e0: f76b 82bd 1392 4a3d e9e4 563d ae51 903a
000001f0: 6ad4 cfbd 6558 04bd 9737 d1bd ba98 e1bc

model.fc.1.p1 f4 [1, 128]
-2.2737029 0.48514384 -1.3988856 -0.9992087 -0.52907443 1.01597 -2.6306498 -0.28588068
-1.1580975 1.0321157 0.17960203 0.1520522 0.64930826 -0.35271263 -0.20348643 0.55831057
-0.8006642 0.7746759 -0.9432918 -0.6834545 -2.2605631 0.48078644 -0.8202716 0.91211176
0.21838011 -1.7687768 0.9709882 -0.45035252 0.62181854 -0.46357837 1.318842 -0.41419756
1.0071946 0.85554636 0.114725985 0.24871565 -1.172947 0.1043966 -1.7754683 -1.7786065
-0.10876114 -0.67056996 0.07707322 1.2318668 0.9167092 -0.58768845 0.5058391 -0.3788424
-0.05534465 -0.93990695 -1.8218608 0.6493237 -0.65396136 -1.4582201 -0.2587661 1.327861
-0.2424259 -0.6461892 -0.37167245 0.13731949 -0.46925983 -0.2676705 -1.0229195 -1.3613017
-0.30673134 2.379948 0.085417464 -0.029003771 1.2949908 -1.2194445 0.80658275 -0.6288548
0.37909216 1.3489323 -0.30955794 0.93187124 0.023085894 1.4073368 -0.23632206 -0.59682214
-1.2029057 0.386491 1.8751382 -2.4222603 -0.3361103 -0.25706914 0.81406343 0.17318241
-0.017139003 -0.52140236 -0.27041513 0.0045914855 -0.0016501982 0.12480606 2.9776785 0.14344294
-1.340957 0.5497495 -0.22939171 2.1075656 1.2398912 -0.5220992 0.8381791 -1.6838777
0.4693489 1.8478782 0.6089527 1.1092407 0.40257168 1.2442346 -0.057396762 -0.05886077
-0.5303475 -0.6993314 0.16591044 0.31492692 0.43189177 -0.08823864 0.6370431 -0.27555814
1.3563824 -1.8683963 0.7337783 0.4036254 -0.21421435 -0.07240078 -0.9169632 1.518391
00000000: 5984 11c0 c664 f83e af0e b3bf 24cc 7fbf
00000010: 6c71 07bf 4e0b 823f 915c 28c0 f45e 92be
00000020: 8a3c 94bf 5e1c 843f 98e9 373e 92b3 1b3e
00000030: 1139 263f c096 b4be bf5e 50be 71ed 0e3f
00000040: 54f8 4cbf 2951 463f 927b 71bf e0f6 2ebf
00000050: 11ad 10c0 a429 f63e 52fd 51bf 2880 693f
00000060: 099f 5f3e 4767 e2bf af92 783f 9b94 e6be
00000070: 802f 1f3f 255a edbe d1cf a83f b411 d4be
00000080: c1eb 803f 1605 5b3f 75f5 ea3d 51af 7e3e
00000090: 2123 96bf e2cd d53d 8c42 e3bf 61a9 e3bf
000000a0: 29be debd 79aa 2bbf 90d8 9d3d d0ad 9d3f
000000b0: 74ad 6a3f c072 16bf ac7e 013f a2f7 c1be
000000c0: 12b1 62bd be9d 70bf bc32 e9bf 143a 263f
000000d0: 036a 27bf f5a6 babf fe7c 84be 59f7 a93f
000000e0: 7f3e 78be a86c 25bf da4b bebe 7b9d 0c3e
000000f0: d342 f0be 1c0c 89be 07ef 82bf 223f aebf
00000100: e40b 9dbe 1151 1840 5aef ae3d 5199 edbc
00000110: 42c2 a53f c216 9cbf 357c 4e3f a1fc 20bf
00000120: 5e18 c23e d0a9 ac3f 617e 9ebe 1d8f 6e3f
00000130: a11e bd3c 9d23 b43f 69fe 71be 56c9 18bf
00000140: d0f8 99bf 26e2 c53e 8704 f03f 5006 1bc0
00000150: a616 acbe 919e 83be 7666 503f bb56 313e
00000160: 1867 8cbc a07a 05bf da73 8abe 2c74 963b
00000170: 774b d8ba 529a ff3d 4992 3e40 b5e2 123e
00000180: 7ba4 abbf 62bc 0c3f a9e5 6abe 5be2 0640
00000190: c1b4 9e3f 4ba8 05bf e892 563f 4e89 d7bf
000001a0: 804e f03e 4687 ec3f 53e4 1b3f 99fb 8d3f
000001b0: e01d ce3e 1443 9f3f de18 6bbd fe17 71bd
000001c0: dbc4 07bf 6207 33bf 6de4 293e 1a3e a13e
000001d0: eb20 dd3e 76b6 b4bd 4215 233f f515 8dbe
000001e0: f09d ad3f 9c27 efbf e5d8 3b3f fda7 ce3e
000001f0: 025b 5bbe dc46 94bd 1abe 6abf a35a c23f

model.fc.1.p2 f4 [1, 128]
1.3590107 0.21329047 0.10578956 0.39727747 -2.034096 0.347804 -0.33750126 -0.42689976
-0.6295683 -0.19986483 0.20451626 0.8378538 -0.49644145 1.21116 0.008233756 0.6209717
-0.10699723 -0.2951589 -0.52907383 0.42175153 0.05117296 -0.14613526 -0.051443014 -0.26004368
-1.5130085 -1.3842397 -2.0684829 -1.1393083 0.45151502 0.068401136 -0.4052543 -0.6083787
-1.6250216 0.24447018 2.8766665 1.042771 -0.29236737 0.76177967 -1.4211645 -0.88168585
1.0520682 -0.2510039 0.00618893 -0.73734266 0.30557054 0.14113984 0.92428285 -1.0957936
0.20031333 0.4374114 -0.101309 -0.4227943 -1.4069356 0.018434001 -0.5549299 -1.3267102
1.1784319 0.6888805 1.5545473 0.103809215 0.47509417 1.6121476 -0.99354255 -0.6704664
1.7275378 -0.27994424 -0.079717875 2.0955162 -0.19915421 -2.1774893 -0.19921784 2.5003152
-0.05564781 -0.6475869 0.29606605 0.020533143 1.0052891 0.10329318 1.2722445 0.61362994
-1.2984244 0.52695405 0.09014852 -1.0853435 0.18860216 0.15722069 -0.18300937 -1.2640742
-1.768356 0.11114075 0.8841699 0.37881786 0.8610736 -0.36788204 -0.13703813 1.5009733
0.65245706 -0.13291994 -0.52322596 -1.6586138 -1.2479353 -0.5809642 -0.80040526 0.50255734
-0.9197013 0.5763913 0.10749968 -1.4748586 0.94482124 0.1318659 1.1305122 0.47113317
0.73557395 -0.17467998 -1.0144092 0.41509494 0.92327017 0.55101895 1.3468018 -1.5806706
0.31594887 1.3139123 0.55719787 0.4668195 2.4285123 0.7109797 1.7840481 1.2806736
00000000: 10f4 ad3f d168 5a3e 32a8 d83d f467 cb3e
00000010: a12e 02c0 5e13 b23e f7cc acbe 9b92 dabe
00000020: 632b 21bf 5ea9 4cbe b66c 513e 967d 563f
00000030: 932d febe 4a07 9b3f e0e6 063c 00f8 1e3f
00000040: 5d21 dbbd 111f 97be 6271 07bf d1ef d73e
00000050: bd9a 513d 7ba4 15be e9b5 52bd 7224 85be
00000060: 43aa c1bf c42e b1bf 0662 04c0 dbd4 91bf
00000070: fa2c e73e e515 8c3d 7e7d cfbe b5be 1bbf
00000080: b500 d0bf 6456 7a3e 4e1b 3840 8579 853f
00000090: 2db1 95be fe03 433f b8e8 b5bf 2ab6 61bf
000000a0: 2caa 863f 9583 80be 82cc ca3b 7dc2 3cbf
000000b0: be73 9c3e f686 103e cd9d 6c3f f742 8cbf
000000c0: f01e 4d3e 63f4 df3e 187b cfbd 7f78 d8be
000000d0: 7716 b4bf e702 973c e30f 0ebf a4d1 a9bf
000000e0: dbd6 963f 795a 303f 68fb c63f ed99 d43d
000000f0: 8b3f f33e da5a ce3f ce58 7ebf b0a3 2bbf
00000100: f51f dd3f da54 8fbe 2043 a3bd f01c 0640
00000110: 15ef 4bbe fc5b 0bc0 c3ff 4bbe 2a05 2040
00000120: f5ee 63bd 41c8 25bf f895 973e 1f35 a83c
00000130: 50ad 803f 608b d33d e8d8 a23f da16 1d3f
00000140: c532 a6bf 76e6 063f ca9f b83d 89ec 8abf
00000150: ed20 413e 76fe 203e cf66 3bbe 2fcd a1bf
00000160: 7d59 e2bf c39d e33d f558 623f 6af4 c13e
00000170: 526f 5c3f 095b bcbe b953 0cbe e51f c03f
00000180: 6d07 273f 2a1c 08be 23f2 05bf 754d d4bf
00000190: 58bc 9fbf 12ba 14bf 5ce7 4cbf 99a7 003f
000001a0: 8b71 6bbf 618e 133f cb28 dc3d 2bc8 bcbf
000001b0: cedf 713f db07 073e a0b4 903f 5e38 f13e
000001c0: 934e 3c3f 4fdf 32be 29d8 81bf 5387 d43e
000001d0: 6f5b 6c3f 940f 0d3f 0064 ac3f 6a53 cabf
000001e0: 0dc4 a13e 472e a83f 85a4 0e3f f702 ef3e
000001f0: bf6c 1b40 c402 363f b05b e43f 1ded a33f

model.fc.1.beta f4 [1, 128]
1.0026627 0.9949114 1.0033437 1.0008129 1.0054142 1.0020399 0.995516 1.0042943
0.9877717 0.9981992 1.0025786 0.99669623 0.99856675 0.99654996 0.994303 1.0148339
0.99972296 1.0189779 0.9970234 0.9957256 1.0005645 1.011188 0.99082845 0.9983
1.0013424 1.0005487 0.9803924 0.99448454 0.9966842 1.0022987 1.0056583 1.0044459
1.0017997 1.0024242 1.0009952 0.9830365 0.99186796 0.9996309 0.9866776 0.9838384
1.0005791 0.9976432 0.99825084 0.98846716 0.99728376 0.9995489 1.0103632 0.99823076
1.0158486 1.0021858 0.99771905 1.0081453 0.98771286 1.000193 0.9981174 1.0064406
0.9872147 0.98604274 1.0118812 0.9974921 1.0050118 1.0136348 0.9970281 1.0066398
0.997634 1.0018128 0.9988018 0.9924395 1.0102944 0.9968516 1.0011907 1.014412
0.99471414 1.0097442 0.99350125 1.0007802 1.0031728 1.005976 1.0122457 1.0121346
1.0062793 0.99567735 1.0058297 0.99918884 1.0022671 1.0008088 0.99730307 1.0021608
1.0060279 0.99566704 0.9935677 0.9972444 1.0040004 0.9869352 0.989243 0.99950564
0.99883527 0.9927975 0.99949914 1.0107745 0.9904837 0.99826014 0.985712 0.99687904
0.99778354 1.0080612 0.9939292 1.0044887 1.0153137 0.9969831 1.0000595 1.00449
0.9865164 0.9909894 1.0035325 0.9986666 0.99826324 0.98965216 1.000348 0.9948964
0.9981111 0.9945048 0.9977774 1.0095972 1.0032933 0.99723405 1.0165919 1.0035603
00000000: 4057 803f 83b2 7e3f 916d 803f a31a 803f
00000010: 6ab1 803f d842 803f 23da 7e3f b78c 803f
00000020: 9bde 7c3f fc89 7f3f 7f54 803f 7c27 7f3f
00000030: 12a2 7f3f e61d 7f3f a48a 7e3f 14e6 813f
00000040: d8ed 7f3f de6d 823f ed3c 7f3f dfe7 7e3f
00000050: 7f12 803f 9c6e 813f efa6 7d3f 9790 7f3f
00000060: fd2b 803f fb11 803f fffa 7a3f 8a96 7e3f
00000070: b226 7f3f 534b 803f 69b9 803f af91 803f
00000080: f93a 803f 704f 803f 9c20 803f 48a8 7b3f
00000090: 0feb 7d3f d0e7 7f3f e796 7c3f d5dc 7b3f
000000a0: fa12 803f 8b65 7f3f 5e8d 7f3f 2f0c 7d3f
000000b0: fd4d 7f3f 70e2 7f3f 9553 813f 0d8c 7f3f
000000c0: 5407 823f a047 803f 846a 7f3f e80a 813f
000000d0: c0da 7c3f 5306 803f 9f84 7f3f 0cd3 803f
000000e0: 1aba 7c3f 4c6d 7c3f 5385 813f a45b 7f3f
000000f0: 3aa4 803f c9be 813f 3c3d 7f3f 93d9 803f
00000100: f164 7f3f 673b 803f 7ab1 7f3f 8410 7e3f
00000110: 5451 813f ab31 7f3f 0427 803f 41d8 813f
00000120: 96a5 7e3f 4c3f 813f 1956 7e3f 9119 803f
00000130: f767 803f d2c3 803f 4491 813f a08d 813f
00000140: c3cd 803f b6e4 7e3f 07bf 803f d7ca 7f3f
00000150: 4a4a 803f 811a 803f 414f 7f3f ce46 803f
00000160: 86c5 803f 09e4 7e3f 745a 7e3f 694b 7f3f
00000170: 1683 803f c9a7 7c3f 073f 7d3f 9adf 7f3f
00000180: abb3 7f3f fa27 7e3f 2ddf 7f3f 0f61 813f
00000190: 5790 7d3f fa8d 7f3f 9f57 7c3f 7733 7f3f
000001a0: be6e 7f3f 2608 813f 2572 7e3f 1693 803f
000001b0: cdf5 813f 493a 7f3f f301 803f 2193 803f
000001c0: 578c 7c3f 7bb1 7d3f c173 803f 9da8 7f3f
000001d0: 2e8e 7f3f d859 7d3f 670b 803f 88b1 7e3f
000001e0: 3684 7f3f de97 7e3f 576e 7f3f 7b3a 813f
000001f0: ea6b 803f bb4a 7f3f af1f 823f aa74 803f

model.fc.2.weight f4 [64, 128]
-0.05435073 -0.0401902 -0.07276898 -0.037622545 0.08103299 -0.0041679326 0.08717607 -0.0573669
0.017771 -0.05536545 0.028699743 0.08963284 -0.065970786 0.03512044 -0.019010747 -0.07551627
0.022747483 -0.040624548 -0.03807934 -0.06448886 0.05912645 -0.025706286 -0.067094415 -0.06526649
-0.027498959 0.02340997 0.041838672 0.036940508 0.04399475 -0.045375712 -0.009903901 -0.000504749
0.019105708 0.0098660225 0.024528248 0.023195503 0.03362865 0.062373895 -0.022379022 -0.030738726
0.015338251 -0.044111878 -0.04737098 0.043355566 -0.07531496 0.05475411 0.048075505 -0.04668997
0.058528464 0.08414553 -0.045947764 0.05884196 0.06142384 -0.086966254 -0.08808352 -0.07969037
0.07421544 -0.0045839655 0.08167112 -0.057800155 -0.028419722 -0.087196805 0.06707177 -0.06384885
0.05481294 -0.063576914 -0.0068773828 -0.07039154 0.0065455157 -0.040452093 0.0593107 -0.02605091
0.05828434 -0.030471617 0.033306748 0.04535276 -0.048531596 -0.020665823 0.08077322 -0.024927309
0.030867064 0.040232886 -0.08878876 0.021430667 -0.005333101 -0.033251233 -0.071079314 -0.0020914518
0.074542604 -0.057593986 0.007077173 -0.08462208 0.050655607 0.008157357 0.04847138 -0.00725562
-0.01346371 -0.016597642 -0.004882875 0.033676475 0.055353038 -0.089522615 0.08429347 0.020380039
-0.008492311 -0.07168074 -0.036098696 -0.07106215 -0.029059727 0.023918757 -0.09023578 0.04826992
0.099071 0.03611672 0.04717152 0.06274663 -0.043003988 -0.07495429 0.06458566 -0.073209904
-0.078654915 -0.0136994505 -0.08027693 0.037691414 -0.0057038534 0.072159715 -0.035158113 -0.06492508
-0.03647923 0.011262399 0.06421122 0.095345475 0.091818266 0.014141789 0.08568191 -0.0038905893
-0.054746967 0.080457844 0.026983507 0.06885547 0.08698866 0.06942549 -0.08060496 0.08914974
-0.04567135 0.03141121 -0.06778206 0.05123881 -0.016324775 0.06405741 0.07446461 -0.021751555
0.028272584 -0.02477937 0.029512366 -0.07713951 0.008546377 0.045579545 -0.063734844 -0.035415046
-0.009391985 0.03030818 0.0021849417 0.07277407 -0.042366304 -0.051508203 0.028023845 -0.021832282
0.021793226 -0.01757519 0.05800066 -0.04493492 -0.09772363 -0.06156096 -0.029005311 0.004595179
-0.019897977 0.08855037 0.027862204 -0.07736533 -0.094104454 0.0611713 0.054746274 0.020057093
0.029792191 -0.0851046 -0.06688696 0.04306539 0.01260506 0.05231463 0.04623934 0.012941205
0.06583324 -0.040069632 0.0065016556 0.086707935 0.0010775642 0.04806545 0.07055463 0.020965219
0.03295541 0.018436667 0.025019217 0.052224923 0.032326296 0.04233686 -0.08044567 0.022727668
-0.004127302 -0.05093252 0.00205066 0.04362579 -0.044000052 -0.02583743 -0.04826081 0.0092959
0.05888847 -0.0076311063 0.03363018 0.04749954 -0.008367144 -0.036377586 -0.04228344 -0.00040062476
0.0509312 0.058559865 -0.037045754 0.045336567 -0.06933735 -0.055359658 -0.07079994 -0.058557466
0.041045547 -0.02558121 -0.009130898 -0.003669117 -0.011177756 -0.027148444 0.036118146 0.041434072
0.017414212 -0.009117773 -0.04977041 -0.03998049 -0.016233267 0.04832351 0.055595845 0.074111596
0.043572042 -0.06424852 -0.04008654 0.0030364585 -0.02331843 0.06434743 -0.06126332 0.018907553
00000000: df9e 5ebd 7b9e 24bd e707 95bd 191a 1abd
00000010: a0f4 a53d 2793 88bb 5e89 b23d 8ef9 6abd
00000020: 7d94 913c e2c6 62bd b91b eb3c 6c91 b73d
00000030: b11b 87bd 73da 0f3d 6dbc 9bbc 46a8 9abd
00000040: ee58 ba3c ed65 26bd 15f9 1bbd bc12 84bd
00000050: 942e 723d fd95 d2bc cc68 89bd 70aa 85bd
00000060: 7f45 e1bc 44c6 bf3c 075f 2b3d ee4e 173d
00000070: d733 343d e2db 39bd f943 22bc 2251 04ba
00000080: 9383 9c3c 19a5 213c 77ef c83c 7f04 be3c
00000090: 32be 093d c57b 7f3d 3654 b7bc c8cf fbbc
000000a0: 4a4d 7b3c a8ae 34bd 1308 42bd 9b95 313d
000000b0: bb3e 9abd d845 603d d2ea 443d fb3d 3fbd
000000c0: 8bbb 6f3d 7e54 ac3d b933 3cbd 4404 713d
000000d0: 9097 7b3d 5d1b b2bd 2265 b4bd b434 a3bd
000000e0: 44fe 973d 1735 96bb 3043 a73d dbbf 6cbd
000000f0: 7ad0 e8bc 3d94 b2bd ed5c 893d 30c3 82bd
00000100: 8983 603d 9d34 82bd ab5b e1bb 7129 90bd
00000110: c47b d63b 18b1 25bd c7ef 723d b868 d5bc
00000120: 8fbb 6e3d 9d9f f9bc a86c 083d d1c3 393d
00000130: 11c9 46bd 5f4b a9bc 6e6c a53d 5b34 ccbc
00000140: eddc fc3c 3dcb 243d e2d6 b5bd 5e8f af3c
00000150: 4bc1 aebb 7232 08bd 0892 91bd bd10 09bb
00000160: cba9 983d ace7 6bbd a1e7 e73b 574e adbd
00000170: 417c 4f3d 6fa6 053c ed89 463d 8dc0 edbb
00000180: e596 5cbc c7f7 87bc 8600 a0bb 58f0 093d
00000190: deb9 623d a257 b7bd 0ea2 ac3d 0af4 a63c
000001a0: 5623 0bbc 5acd 92bd 3adc 13bd 0889 91bd
000001b0: aa0e eebc 45f1 c33c 89cd b8bd aeb6 453d
000001c0: bde5 ca3d 20ef 133d ec36 413d 4e81 803d
000001d0: f324 30bd a381 99bd 7d45 843d 13ef 95bd
000001e0: d415 a1bd a973 60bc 3b68 a4bd 5062 1a3d
000001f0: 64e7 babb 79c8 933d f401 10bd 71f7 84bd
00000200: 3f6b 15bd ed85 383c 2c81 833d 7d44 c33d
00000210: 370b bc3d f6b2 673c ff79 af3d 42f9 7ebb
00000220: 5b3e 60bd 15c7 a43d 840c dd3c 1904 8d3d
00000230: 1c27 b23d f42e 8e3d 3714 a5bd 2494 b63d
00000240: e211 3bbd 0aa9 003d 52d1 8abd c9df 513d
00000250: 89bb 85bc 8830 833d e780 983d 5130 b2bc
00000260: e89b e73c 1bfe cabc ebc3 f13c 52fb 9dbd
00000270: 1a06 0c3c 9eb1 3a3d 6a87 82bd 5e0f 11bd
00000280: d7e0 19bc dc48 f83c 3d31 0f3b 920a 953d
00000290: 4a88 2dbd 44fa 52bd 4392 e53c 9dd9 b2bc
000002a0: b587 b23c d8f9 8fbc 1a92 6d3d ae0d 38bd
000002b0: 5423 c8bd 5827 7cbd 8c9c edbc 2893 963b
000002c0: 1501 a3bc e559 b53d 473f e43c b771 9ebd
000002d0: d6b9 c0bd c28e 7a3d a13d 603d c64e a43c
000002e0: c10e f43c 524b aebd 08fc 88bd 5665 303d
000002f0: 7485 4e3c de47 563d 7665 3d3d 5907 543c
00000300: 94d3 863d 0e20 24bd d70b d53b ee93 b13d
00000310: 0e3d 8d3a 47e0 443d f27e 903d 40bf ab3c
00000320: 41fc 063d 7e08 973c 1af5 cc3c cde9 553d
00000330: 9468 043d 6a69 2d3d b3c0 a4bd 602f ba3c
00000340: 523e 87bb 9e9e 50bd 5e64 063b f5b0 323d
00000350: 6639 34bd 05a9 d3bc 21ad 45bd d54d 183c
00000360: 0935 713d 5c0e fabb cdbf 093d e18e 423d
00000370: 5816 09bc aa00 15bd 6631 2dbd f20a d2b9
00000380: 3c9d 503d 78dc 6f3d 4abd 17bd d6b2 393d
00000390: be00 8ebd cfc0 62bd 8fff 90bd f4d9 6fbd
000003a0: 601f 283d b08f d1bc c399 15bc 9275 70bb
000003b0: e822 37bc 6a66 debc 9ff0 133d c6b6 293d
000003c0: 40a8 8e3c b662 15bc 0fdc 4bbd 95c2 23bd
000003d0: a1fb 84bc dfee 453d 78b8 633d d2c7 973d
000003e0: 9978 323d ba94 83bd c931 24bd 52ff 463b
000003f0: 4b06 bfbc 96c8 833d 3fef 7abd 03e4 9a3c

model.fc.2.bias f4 [64]
0.0827402 0.06805513 -0.037876077 -0.002135302 -0.04801365 -0.03002292 0.07949239 -0.043868165
0.012376543 0.08758424 0.07284544 -0.054890238 -0.024176534 -0.058117982 -0.062313836 0.07227487
-0.0025935285 -0.07685465 0.058849487 -0.05809088 -0.070490725 -0.048408996 -0.018409919 -0.003366079
-0.0056192395 -0.06995565 0.070201695 -0.010777257 0.033815503 0.031477388 -0.08144567 0.008224238
0.082252756 0.08368755 0.0077205775 0.061043166 -0.04565883 -0.08642817 -0.06564494 -0.035644278
-0.08253783 0.049769185 0.006073493 -0.040918037 -0.05823423 0.016717797 -0.05144823 -0.03912389
-0.005286557 -0.07578913 -0.01630023 0.087134495 0.06440497 0.0102023445 -0.06611365 0.023533562
-0.05071514 -0.07823378 -0.048534047 -0.06915917 0.046972472 -0.07500082 -0.015013149 0.009833863
00000000: b273 a93d 7d60 8b3d f223 1bbd 6cf0 0bbb
00000010: f6a9 44bd a0f2 f5bc e8cc a23d 1baf 33bd
00000020: fcc6 4a3c 5e5f b33d fd2f 953d 96d4 60bd
00000030: de0d c6bc 1f0d 6ebd cb3c 7fbd d904 943d
00000040: 30f8 29bb f965 9dbd 290c 713d b4f0 6dbd
00000050: 715d 90bd 8348 46bd 66d0 96bc 6f99 5cbb
00000060: 9921 b8bb e844 8fbd e8c5 8f3d 1893 30bc
00000070: 2082 0a3d 6fee 003d fdcc a6bd f4be 063c
00000080: 2274 a83d 6164 ab3d e6fc fc3b 6608 7a3d
00000090: c104 3bbd 4101 b1bd db70 86bd bcff 11bd
000000a0: 9809 a9bd c6da 4b3d 2704 c73b ac99 27bd
000000b0: 0487 6ebd c3f3 883c 61bb 52bd 5f40 20bd
000000c0: db3a adbb 5537 9bbd 0f88 85bc 9273 b23d
000000d0: c1e6 833d bc27 273c 9866 87bd 75c9 c03c
000000e0: aeba 4fbd 0839 a0bd a3cb 46bd 53a3 8dbd
000000f0: 3566 403d 089a 99bd b6f9 75bc 361e 213c

model.fc.3.weight f4 [64]
1.0127767 1.0177643 0.99761033 0.9967479 0.99048156 1.0052998 1.0070226 1.00159
0.99818516 1.011667 0.9905104 1.0031981 0.9986797 0.99970824 0.9923318 0.98622465
1.0010446 0.9937172 0.9885326 0.98118275 0.99849147 0.9987467 0.9895842 1.0027922
0.99950105 1.0104352 1.0042536 1.0063527 1.0108535 0.9996659 0.99987656 0.98457724
0.9897713 1.0198057 0.99037653 1.0005106 1.0253814 0.990557 0.9889975 1.0157838
1.004337 1.0143741 0.99586326 1.0141563 1.0054828 1.0077121 1.00533 0.99989533
1.0056409 0.9978239 0.9925832 1.0150176 0.99577117 1.0044703 0.99340063 0.9934359
0.98812056 1.0011141 1.0026474 1.0170398 0.9970684 0.99395335 0.9899916 0.9832107
00000000: aba2 813f 1a46 823f 6463 7f3f df2a 7f3f
00000010: 3390 7d3f aaad 803f 1ee6 803f 1a34 803f
00000020: 1089 7f3f 4e7e 813f 1792 7d3f cc68 803f
00000030: 79a9 7f3f e1ec 7f3f 7509 7e3f 3879 7c3f
00000040: 3b22 803f 4064 7e3f 7910 7d3f cb2e 7b3f
00000050: 239d 7f3f ddad 7f3f 6455 7d3f 7f5b 803f
00000060: 4ddf 7f3f f155 813f 628b 803f 2ad0 803f
00000070: a663 813f 1bea 7f3f e9f7 7f3f 410d 7c3f
00000080: a761 7d3f fe88 823f 5189 7d3f bb10 803f
00000090: b33f 833f 2595 7d3f f12e 7d3f 3405 823f
000000a0: 1d8e 803f 03d7 813f e5f0 7e3f e0cf 813f
000000b0: a9b3 803f b6fc 803f a7ae 803f 24f9 7f3f
000000c0: d7b8 803f 6371 7f3f ef19 7e3f 19ec 813f
000000d0: dcea 7e3f 7c92 803f 814f 7e3f d151 7e3f
000000e0: 78f5 7c3f 8224 803f c056 803f 5c2e 823f
000000f0: e03f 7f3f ba73 7e3f 1770 7d3f b2b3 7b3f

model.fc.3.bias f4 [64]
0.0037952352 -0.01645367 0.011946954 0.009264837 -0.010735118 -0.0035749853 -0.00276449 0.002977765
-0.00315138 -0.009619923 -0.012543828 0.0008222285 0.005883529 -0.003950322 -3.394144e-05 0.017002616
0.0073755817 -0.0022067295 -0.004606033 0.011979659 -0.0029584512 0.007969431 -0.006513824 0.011734035
0.0013429791 0.0011220067 -0.0036028167 0.009757099 -0.01632931 0.0058897543 -0.009880954 0.006032596
-0.0011474434 -0.017529868 0.017234253 -0.0021851908 0.017626727 -0.0084182825 0.013313798 0.0087370565
-0.004466461 -0.004540056 -0.0032741055 -0.008876507 -0.002819762 -0.004144766 0.00075291045 0.008738629
-0.009910939 0.0112719545 0.011322769 -0.012357714 -0.006951983 0.011297214 0.0012142387 -0.0059537156
0.008372334 -0.004014828 0.004214963 -0.013095974 0.0066821985 -0.008218092 0.0006185039 0.0018517484
00000000: 7bb9 783b d9c9 86bc 28bd 433c 8bcb 173c
00000010: 59e2 2fbc 4d4a 6abb 722c 35bb 9b26 433b
00000020: 6287 4ebb e29c 1dbc a184 4dbc d28a 573a
00000030: 9eca c03b b471 81bb 585c 0eb8 1249 8b3c
00000040: ddae f13b c79e 10bb 35ee 96bb 5546 443c
00000050: 93e2 41bb 3792 023c eb71 d5bb 1c40 403c
00000060: e706 b03a 4c10 933a 3c1d 6cbb 3ddc 1f3c
00000070: 0cc5 85bc d7fe c03b bae3 21bc 15ad c53b
00000080: d065 96ba cc9a 8fbc d92e 8d3c 6b35 0fbb
00000090: ed65 903c d6ec 09bc 1e22 5a3c df25 0f3c
000000a0: 645b 92bb c0c4 94bb 6092 56bb c56e 11bc
000000b0: c2cb 38bb d1d0 87bb f75e 453a 772c 0f3c
000000c0: 7e61 22bc 01ae 383c 2383 393c 0278 4abc
000000d0: 76cd e3bb f317 393c 1727 9f3a 6317 c3bb
000000e0: 1d2c 093c d18e 83bb ac1d 8a3b 7f90 56bc
000000f0: 58f6 da3b 2da5 06bc 1823 223a 5eb6 f23a

model.fc.3.running_mean f4 [64]
0.043619223 0.09146822 -0.26988786 -0.24922153 0.061278567 0.25401288 0.08714162 0.0774306
-0.034217097 0.050816353 -0.15363854 -0.101663806 -0.09725224 -0.12241629 -0.07131559 -0.0107247075
0.026671078 0.07485982 -0.1275869 -0.06359758 -0.051147986 0.10382789 -0.03297516 -0.04299928
0.28043893 -0.199445 0.20542018 -0.09973187 -0.08382735 -0.1045083 -0.24173418 -0.08568148
0.044479966 0.0139193 -0.15556625 0.16302781 0.06474892 0.105377026 -0.13370144 0.080828846
-0.26593602 -0.1369516 0.05489951 -0.043316185 -0.11421744 0.22866973 0.10664672 -0.13126765
0.09512156 -0.21315777 0.0304592 0.17711668 -0.06491473 -0.17019516 -0.22429654 -0.005889922
0.15232049 0.009123938 -0.02171335 0.032758914 0.058359955 -0.08391228 0.15321435 0.37236488
00000000: 12aa 323d b153 bb3d be2e 8abe ee33 7fbe
00000010: 3cff 7a3d fa0d 823e 4e77 b23d ef93 9e3d
00000020: 3a27 0cbd cf24 503d 6c53 1dbe 1d35 d0bd
00000030: 2f2c c7bd 64b5 fabd e80d 92bd afb6 2fbc
00000040: 4e7d da3c 1b50 993d 24a6 02be 733f 82bd
00000050: 8d80 51bd b7a3 d43d f610 07bd 0320 30bd
00000060: b195 8f3e 4f3b 4cbe ab59 523e 3940 ccbd
00000070: acad abbd 7308 d6bd 2a89 77be c679 afbd
00000080: a030 363d c70d 643c c24c 1fbe c3f0 263e
00000090: 159b 843d e9cf d73d 08e9 08be 9889 a53d
000000a0: c428 88be 0a3d 0cbe 4fde 603d 506c 31bd
000000b0: d5ea e9bd 6628 6a3e 9869 da3d 076b 06be
000000c0: 18cf c23d 0846 5abe 9285 f93c 135e 353e
000000d0: 04f2 84bd a447 2ebe fead 65be 3f00 c1bb
000000e0: e7f9 1b3e 927c 153c 32e0 b1bc 362e 063d
000000f0: d90a 6f3d 34da abbd 39e4 1c3e 9ca6 be3e

model.fc.3.running_var f4 [64]
0.11363461 0.035821695 0.056646924 0.068800755 0.044371635 0.14441572 0.10305452 0.13590294
0.055146825 0.114000835 0.112117186 0.13558933 0.062598825 0.12222867 0.068291 0.12625492
0.11045086 0.15487316 0.12991507 0.06404106 0.17478457 0.20326094 0.3286796 0.13710314
0.09663516 0.16598773 0.073057845 0.07196879 0.1820339 0.082529165 0.21962517 0.08412932
0.11376141 0.16857745 0.08237711 0.11259772 0.13082077 0.16657043 0.03728465 0.13863263
0.1332177 0.13678454 0.0933368 0.08325371 0.10642566 0.08101124 0.06385469 0.13980812
0.18524322 0.1266311 0.03797528 0.082896955 0.06597898 0.13742083 0.09007041 0.24136935
0.16365771 0.06915818 0.16791588 0.12969199 0.33698973 0.080997884 0.1794773 0.09934765
00000000: 43b9 e83d c5b9 123d 9b06 683d 69e7 8c3d
00000010: 08bf 353d b7e1 133e 400e d33d 242a 0b3e
00000020: a3e1 613d 4579 e93d b29d e53d eed7 0a3e
00000030: d033 803d 0653 fa3d 27dc 8b3d f848 013e
00000040: 0f34 e23d 1297 1e3e 7508 053e f627 833d
00000050: bafa 323e a323 503e b148 a83e c464 0c3e
00000060: a8e8 c53d b0f8 293e 5a9f 953d 5f64 933d
00000070: 1867 3a3e 0d05 a93d 6ce5 603e fe4b ac3d
00000080: befb e83d 919f 2c3e 55b5 a83d a299 e63d
00000090: e1f5 053e 7091 2a3e cab7 183d b6f5 0d3e
000000a0: 396a 083e 3f11 0c3e 5d27 bf3d ec80 aa3d
000000b0: b2f5 d93d 39e9 a53d 3fc6 823d dc29 0f3e
000000c0: 66b0 3d3e 95ab 013e f88b 1b3d e1c5 a93d
000000d0: fd1f 873d 0cb8 0c3e d676 b83d 8729 773e
000000e0: e395 273e cea2 8d3d 24f2 2b3e facd 043e
000000f0: eb89 ac3e 38e2 a53d e6c8 373e c876 cb3d

model.fc.4.p1 f4 [1, 64]
-0.6091779 -0.8028777 -0.95779496 -0.41968492 -0.76458824 0.46062547 -0.028409896 -0.66323245
0.41794708 -0.07487201 1.247872 -0.21482106 -1.5311795 -0.83606374 0.46957755 -0.9061393
-2.1162713 1.152181 0.7102689 -1.7199591 -0.21084617 -0.11673798 2.1314664 -0.44264942
0.09749732 0.11132601 0.87272954 -0.18439601 0.21678016 -0.54707164 2.0089257 -1.213631
0.7033352 -0.059926532 0.44055584 0.1424612 -0.22411883 -1.526436 1.1645014 0.5352473
0.033288505 -0.8790396 -1.9547262 -1.4970816 -0.574527 -0.6348009 0.85338795 0.7621871
0.08690436 1.1667885 -0.71902794 -0.050128832 -1.3086679 1.1129993 0.35884026 -2.0903494
-1.0327018 -0.86088073 0.8777078 -0.7775724 -0.84523666 -0.7466398 -0.4007227 -0.30921656
00000000: 15f3 1bbf 6589 4dbf 0d32 75bf f1e0 d6be
00000010: 0ebc 43bf 1ad7 eb3e dfbb e8bc 9ac9 29bf
00000020: 29fd d53e 7f56 99bd 45ba 9f3f 0dfa 5bbe
00000030: b1fd c3bf 4608 56bf 786c f03e bff8 67bf
00000040: fd70 07c0 ab7a 933f 2fd4 353f 9f27 dcbf
00000050: 0fe8 57be 5214 efbd f269 0840 f2a2 e2be
00000060: adac c73d e4fe e33d 346b 5f3f 4fd2 3cbe
00000070: 9efb 5d3e e30c 0cbf 3d92 0040 4358 9bbf
00000080: c70d 343f 8675 75bd 8990 e13e 59e1 113e
00000090: 687f 65be 4162 c3bf 620e 953f f805 093f
000000a0: 8759 083d bd08 61bf 7834 fabf 5fa0 bfbf
000000b0: 3414 13bf 5082 22bf a277 5a3f b21e 433f
000000c0: eafa b13d 5359 953f 3712 38bf e453 4dbd
000000d0: 6e82 a7bf c376 8e3f e9b9 b73e 49c8 05c0
000000e0: 932f 84bf ae62 5cbf 75b1 603f fc0e 47bf
000000f0: 6e61 58bf c923 3fbf 872b cdbe a251 9ebe

model.fc.4.p2 f4 [1, 64]
0.50187784 0.042036798 0.7357703 0.9867188 -0.8709486 1.0413737 -1.3999643 -1.8036772
-1.6385124 -0.95700526 0.3285009 1.0277882 -1.4583218 -1.4417497 -0.95653784 -1.7328099
1.5127697 0.32275257 0.87067485 -0.24793129 -0.6847019 0.81780493 -0.4334624 0.9419654
0.43762872 -0.6746789 0.6314368 0.61220235 0.41833743 0.4281332 0.63771075 -0.59864837
0.09566086 -0.9252026 -0.6626126 0.26971063 1.1854428 1.4187694 -0.4417838 1.0198317
-0.34608185 -1.808156 0.15790994 -0.312852 1.039893 0.07837225 1.8080561 1.2567052
-2.1731064 -1.4480442 -0.69984967 -0.42933446 -1.826463 0.2841887 0.029120427 -2.5422957
0.053709712 -0.73861307 3.3932178 -0.61220074 1.4988332 -0.20029895 -0.5622066 0.5560898
00000000: 117b 003f c72e 2c3d 715b 3c3f 9a99 7c3f
00000010: 7df6 5ebf bc4b 853f 0832 b3bf e5de e6bf
00000020: c6ba d1bf 4cfe 74bf 4531 a83e 908e 833f
00000030: 4aaa babf 418b b8bf aadf 74bf b7cc ddbf
00000040: 70a2 c13f d33f a53e 8ce4 5e3f b3e1 7dbe
00000050: a048 2fbf aa5b 513f c9ee ddbe a524 713f
00000060: df10 e03e c2b7 2cbf d8a5 213f 4bb9 1c3f
00000070: 5330 d63e 4634 db3e 0341 233f 0541 19bf
00000080: d7e9 c33d 14da 6cbf fba0 29bf 8317 8a3e
00000090: 97bc 973f 3c9a b53f 7c31 e2be d889 823f
000000a0: a431 b1be a871 e7bf 25b3 213e 232e a0be
000000b0: 371b 853f a181 a03d 626e e73f b7db a03f
000000c0: 2d14 0bc0 8359 b9bf 5929 33bf bad1 dbbe
000000d0: 8ac9 e9bf 2e81 913e f68d ee3c f9b4 22c0
000000e0: b7fe 5b3d bf15 3dbf 7b2a 5940 30b9 1cbf
000000f0: c4d9 bf3f 2b1b 4dbe c6ec 0fbf e75b 0e3f

model.fc.4.beta f4 [1, 64]
1.0130208 1.0115753 1.0001677 1.0001582 1.0258133 0.9990084 0.98827875 1.0124999
1.0086371 1.0091906 1.0167481 1.0007119 1.0029087 0.99651235 0.99199927 1.0060084
0.9858479 0.9929732 1.0044351 0.98513794 1.015962 0.99162537 0.9968274 0.99673575
1.0016019 1.0160134 1.009061 1.0041707 0.98691994 0.99976224 0.99971664 0.99367833
0.99603593 1.0104793 0.99285 1.004628 1.0177594 1.0026181 0.9849089 0.9939996
1.0086129 1.0033832 1.0093182 1.0064048 1.0034573 1.0066366 1.0048378 1.0050477
0.9948327 1.0011673 0.9934528 1.0081018 1.0094217 1.0024453 0.99969035 1.0126559
0.9914102 0.9898022 1.002251 1.0029048 0.98578495 1.0017577 1.0018321 0.98498815
00000000: aaaa 813f 4d7b 813f 7f05 803f 2f05 803f
00000010: da4d 833f 04bf 7f3f d6ff 7c3f 9999 813f
00000020: 051b 813f 282d 813f cd24 823f 5417 803f
00000030: 505f 803f 6f1b 7f3f aaf3 7d3f e2c4 803f
00000040: 8760 7c3f 7e33 7e3f 5491 803f 0032 7c3f
00000050: 0b0b 823f 29db 7d3f 1530 7f3f 132a 7f3f
00000060: 7e34 803f ba0c 823f e928 813f aa88 803f
00000070: c9a6 7c3f 6bf0 7f3f 6eed 7f3f b461 7e3f
00000080: 36fc 7e3f 6357 813f 6b2b 7e3f a697 803f
00000090: f145 823f ca55 803f fd22 7c3f c276 7e3f
000000a0: 3a1a 813f dc6e 803f 5731 813f dfd1 803f
000000b0: 4a71 803f 78d9 803f 869e 803f 67a5 803f
000000c0: 5bad 7e3f 4026 803f ec52 7e3f 7b09 813f
000000d0: bb34 813f 2150 803f b5eb 7f3f b59e 813f
000000e0: 0fcd 7d3f ad63 7d3f c349 803f 2f5f 803f
000000f0: 675c 7c3f 9939 803f 093c 803f 2f28 7c3f

model.fc.6.weight f4 [32, 64]
-0.05101914 -0.08418508 0.04867376 0.019411858 -0.09076154 -0.041516174 0.006925098 0.08218846
-0.05415678 -0.0008446269 -0.070857644 0.116008766 -0.06367569 -0.03512008 0.07761894 0.094471
0.068703055 0.122224 -0.085621096 -0.06152579 0.12530343 0.13362926 0.123136014 -0.091003634
0.04553244 0.1205805 0.074154094 0.025932351 0.10604474 0.13425063 0.07944559 0.041173678
-0.10292992 -0.13034819 0.026331838 -0.10387242 -0.018766666 -0.04608802 -0.0012736093 -0.06629992
0.07512937 0.10634074 -0.10609953 0.11511745 -0.107005365 -0.06161179 0.03434987 -0.033175696
-0.10457101 -0.060556322 0.11336678 -0.07692473 -0.04766823 -0.07906784 0.046805434 0.057953183
-0.06480119 0.017396571 0.010253993 -0.10414653 0.020800376 0.0510936 0.09938864 0.11858508
-0.06943721 -0.045918193 -0.031251185 -0.0860561 0.06374834 0.057671078 -0.020700393 0.096087225
0.0013955267 0.050852176 0.070190676 -0.117773056 -0.0034725275 0.06652911 -0.034240887 -0.0071636797
0.05467377 0.013511902 -0.058924984 0.09461653 0.052176107 0.02537911 -0.08684825 -0.10242462
-0.014175392 0.015020583 0.11231475 0.014080929 -0.0024482475 0.036352493 -0.11069122 0.0043688538
0.03589886 -0.045679845 0.01759645 -0.039484084 -0.13323578 -0.104265094 -0.0087151015 -0.12238173
0.0998686 0.055885404 0.10620158 -0.020950187 0.082855664 -0.11204971 0.03600163 0.03703154
0.020643387 -0.06412862 -0.061105546 -0.053618155 0.09660652 0.026824363 -0.04988921 -0.054291476
0.0051747453 0.048091367 0.12484375 0.074067205 0.09470634 -0.050871618 0.028276622 0.07991729
0.12198787 0.020356111 0.12225196 -0.094588816 -0.12762247 0.022973256 0.081852615 0.06976267
-0.09209401 0.088919565 -0.117132455 0.1012956 -0.049396355 0.11662181 0.04875842 0.08271992
-0.00846544 -0.12638116 -0.09830951 -0.09141436 -0.046317033 -0.03583261 0.03217855 -0.11910436
-0.09560678 -0.023451757 -0.027868737 -0.03903078 -0.104436584 -0.115285344 -0.1084285 -0.06688067
-0.025334898 -0.10769133 -0.111907996 -0.018764442 0.10667565 0.08300811 -0.026393035 -0.10534361
0.026041996 -0.1181567 -0.08745153 0.0020635033 0.0040060477 -0.04993553 -0.0017718661 -0.012074897
-0.031499308 0.02849288 0.059829656 -0.0860588 -0.015559167 -0.1334828 -0.07099611 -0.117868334
-0.08450761 -0.077698074 0.008304208 -0.008476339 0.0005232049 0.09455806 0.028367128 0.0064580035
0.033948775 -0.06741656 -0.010729108 0.03781396 0.11670135 0.114536345 -0.11806046 0.0012157001
0.105075404 0.040000215 -0.10932219 0.07732997 -0.09092778 -0.08846241 -0.09103965 0.106139876
0.10781061 -0.041859858 0.0347985 0.028576974 -0.1164513 -0.077736795 -0.051316384 -0.0021851656
-0.040075872 0.089133725 -0.08838358 -0.06820781 0.01176546 -0.013022687 -0.025978297 -0.058746196
0.07333073 0.081862375 0.016737811 0.0018274126 0.13653708 0.009293687 -0.0461472 -0.061738774
0.058491446 -0.07053367 0.044768155 -0.037167773 0.0623371 0.04284128 0.09221153 -0.0028493141
-0.048631597 0.031393707 -0.045913342 0.057580967 -0.010779643 0.005840561 0.12061168 -0.0838121
0.09450247 0.04161056 -0.081420176 0.1056367 -0.03685345 -0.09467226 -0.031787585 -0.009925328
00000000: 72f9 50bd 3a69 acbd 235e 473d 9e05 9f3c
00000010: 30e1 b9bd dd0c 2abd efeb e23b 6c52 a83d
00000020: 80d3 5dbd f469 5dba d01d 91bd 0196 ed3d
00000030: 6668 82bd 13da 0fbd aef6 9e3d 037a c13d
00000040: 30b4 8c3d 9450 fa3d 1d5a afbd 7702 7cbd
00000050: 8b4f 003e 1cd6 083e bc2e fc3d 1d60 babd
00000060: 3980 3a3d e9f2 f63d 1ade 973d 1570 d43c
00000070: fc2d d93d ff78 093e 5fb4 a23d bba5 283d
00000080: eccc d2bd ff79 05be deb5 d73c 10bb d4bd
00000090: 8dbc 99bc cbc6 3cbd 3def a6ba 41c8 87bd
000000a0: 6ddd 993d 2dc9 d93d b64a d9bd b3c2 eb3d
000000b0: a125 dbbd a55c 7cbd 73b2 0c3d 3de3 07bd
000000c0: 5329 d6bd e809 78bd d82c e83d b68a 9dbd
000000d0: c33f 43bd 52ee a1bd 0eb7 3f3d 5160 6d3d
000000e0: 7cb6 84bd 4183 8e3c 5d00 283c c74a d5bd
000000f0: 8d65 aa3c 8647 513d 458c cb3d bcdc f23d
00000100: 1935 8ebd b714 3cbd 3e01 00bd 2e3e b0bd
00000110: 7d8e 823d 8238 6c3d df93 a9bc 61c9 c43d
00000120: 1bea b63a 5f4a 503d 21c0 8f3d 0033 f1bd
00000130: 5893 63bb 6a40 883d 2c40 0cbd 4dbd eabb
00000140: 9af1 5f3d 0661 5d3c 535b 71bd 50c6 c13d
00000150: 9db6 553d dae7 cf3c 7fdd b1bd 00c4 d1bd
00000160: e73f 68bc e418 763c 4705 e63d b2b3 663c
00000170: c772 20bb 5ae6 143d 14b2 e2bd 9a28 8f3b
00000180: af0a 133d ca1a 3bbd 6e26 903c 10ba 21bd
00000190: f66e 08be f088 d5bd c9c9 0ebc 46a3 fabd
000001a0: e987 cc3d 18e8 643d 3780 d93d ba9f abbc
000001b0: 3bb0 a93d 517a e5bd 7276 133d 62ae 173d
000001c0: 521c a93c de55 83bd cf49 7abd b69e 5bbd
000001d0: a4d9 c53d c4be db3c a158 4cbd bd60 5ebd
000001e0: e990 a93b 74fb 443d 14ae ff3d 8cb0 973d
000001f0: 66f5 c13d c25e 50bd 60a4 e73c adab a33d
00000200: c7d4 f93d dcc1 a63c 3c5f fa3d c8b7 c1bd
00000210: 77af 02be 6932 bc3c 58a2 a73d bbdf 8e3d
00000220: c99b bcbd 761b b63d 24e3 efbd 1174 cf3d
00000230: d553 4abd 6ad7 ee3d e9b6 473d 1069 a93d
00000240: a1b2 0abc 106a 01be 7f56 c9bd 7437 bbbd
00000250: eeb6 3dbd 37c5 12bd a8cd 033d fdec f3bd
00000260: 7dcd c3bd e61d c0bc fa4c e4bc bdde 1fbd
00000270: d9e2 d5bd b91a ecbd c30f debd bcf8 88bd
00000280: 228b cfbc 468d dcbd 0530 e5bd e3b7 99bc
00000290: c378 da3d 2800 aa3d 3536 d8bc 64be d7bd
000002a0: 0656 d53c 24fc f1bd ca19 b3bd d73b 073b
000002b0: 2a45 833b 3389 4cbd f63d e8ba cad5 45bc
000002c0: 6b05 01bd e669 e93c f10f 753d 993f b0bd
000002d0: e0eb 7ebc b7af 08be 6966 91bd f464 f1bd
000002e0: 5312 adbd 2b20 9fbd 5f0e 083c 58e0 0abc
000002f0: b027 093a a8a7 c13d 2e62 e83c a99d d33b
00000300: df0d 0b3d b211 8abd 24c9 2fbc d0e2 1a3d
00000310: 1e01 ef3d 0892 ea3d afc9 f1bd 2058 9f3a
00000320: c631 d73d 44d7 233d 50e4 dfbd 2d5f 9e3d
00000330: 5838 babd c82b b5bd ff72 babd dd5f d93d
00000340: cfcb dc3d 3e75 2bbd df88 0e3d 421a ea3c
00000350: 057e eebd 7834 9fbd 2131 52bd ff34 0fbb
00000360: 9926 24bd be8b b63d 7302 b5bd 89b0 8bbd
00000370: eac3 403c 1c5d 55bc 70d0 d4bc da9f 70bd
00000380: 6c2e 963d 76a7 a73d bc1d 893c cb85 ef3a
00000390: 60d0 0b3e 8c44 183c d904 3dbd cce1 7cbd
000003a0: ba94 6f3d f573 90bd d05e 373d 3c3d 18bd
000003b0: 3055 7f3d 577a 2f3d 66d9 bc3d 8fbb 3abb
000003c0: ed31 47bd b096 003d a10f 3cbd 05da 6b3d
000003d0: 1a9d 30bc 2d62 bf3b 4203 f73d aea5 abbd
000003e0: 838a c13d d66f 2a3d 9fbf a6bd 0e58 d83d
000003f0: a5f3 16bd 88e3 c1bd b333 02bd d89d 22bc

model.fc.6.bias f4 [32]
-0.017184068 -0.10281504 -0.053960234 0.06384586 0.11312861 -0.037830256 -0.03212743 -0.12177547
-0.028340474 0.0896221 0.055007905 0.049470194 -0.027506018 -0.040591706 0.040747054 -0.030782752
-0.009304246 -0.06976827 -0.0433232 0.00065042876 -0.06256336 -0.05730757 -0.015128392 0.08848009
-0.038655084 -0.06127993 0.054572973 -0.0012366297 0.045652375 -0.073248334 -0.073440105 -0.11583787
00000000: 9ac5 8cbc b190 d2bd 6805 5dbd 9ec1 823d
00000010: f9af e73d e6f3 1abd 0d98 03bd 6b65 f9bd
00000020: 482a e8bc cb8b b73d f84f 613d 42a1 4a3d
00000030: 4d54 e1bc 7d43 26bd 62e6 263d 1c2c fcbc
00000040: d670 18bc abe2 8ebd ab73 31bd 8981 2a3a
00000050: 3821 80bd 58bb 6abd 13dd 77bc 0d35 b53d
00000060: cb54 1ebd aa00 7bbd e987 5f3d 6816 a2ba
00000070: fcfd 3a3d 3903 96bd c467 96bd 683c edbd

model.fc.7.weight f4 [32]
1.0125067 1.0066134 0.9954473 1.0030696 1.0286722 0.9892226 1.0049682 0.9927694
0.9944907 1.0044658 0.9920292 0.9923171 1.0080533 1.0106424 1.0144954 0.9952172
1.0100374 0.9983055 0.9946844 0.97444373 1.0054867 0.9961367 0.9916183 0.99453473
0.9912214 1.0059575 0.98753595 1.0081168 0.9940611 1.0024283 0.98958737 0.9937383
00000000: d299 813f b5d8 803f a2d5 7e3f 9664 803f
00000010: 88ab 833f b13d 7d3f cca2 803f 2326 7e3f
00000020: f196 7e3f 5692 803f a0f5 7d3f 7e08 7e3f
00000030: e407 813f bb5c 813f fcda 813f 8ec6 7e3f
00000040: e848 813f f390 7f3f a3a3 7e3f 2575 793f
00000050: cab3 803f d102 7f3f b2da 7d3f d499 7e3f
00000060: b0c0 7d3f 37c3 803f 28cf 7c3f f909 813f
00000070: ca7a 7e3f 924f 803f 9955 7d3f a265 7e3f

model.fc.7.bias f4 [32]
-0.0071373186 0.0028462335 -0.0057785236 0.011134081 -0.013529874 -0.010493194 -0.0015040901 0.0026273779
0.011516464 0.010442996 0.009574955 0.0070725884 0.009082713 0.015036478 0.0084831705 0.0005054676
-0.01764212 -0.0047556926 -0.0060745124 0.002149864 0.0061444123 0.008676271 -0.008257081 0.0043040784
-0.007933697 -0.013963664 0.006845482 -0.016542707 0.0011283052 -0.002494112 0.0016558032 0.0029500753
00000000: 2be0 e9bb e087 3a3b c559 bdbb b86b 363c
00000010: 68ac 5dbc a5eb 2bbc e424 c5ba 1630 2c3b
00000020: 8daf 3c3c 1a19 2b3c 46e0 1c3c 2cc1 e73b
00000030: a9cf 143c 8f5b 763c fffc 0a3c 5b81 043a
00000040: 3586 90bc a4d5 9bbb b40c c7bb bce4 0c3b
00000050: 1157 c93b eb26 0e3c b548 07bc 3a09 8d3b
00000060: 56fc 01bc dac7 64bc 1150 e03b 9284 87bc
00000070: a4e3 933a 4174 23bb 8907 d93a 0d56 413b

model.fc.7.running_mean f4 [32]
0.013119178 -0.073462345 -0.15953526 0.1898219 0.15293714 -0.03342513 -0.06281585 -0.51374066
0.11752335 0.46579736 0.16050631 0.012840484 0.030299895 -0.55506575 -0.33949563 0.24225688
0.10385114 -0.04454153 -0.09964817 -0.0022302167 0.14963572 0.17079258 0.07836706 -0.057898108
0.09306642 -0.4365295 0.028095663 0.23776905 0.24284536 0.32137537 -0.377461 -0.42302114
00000000: d2f1 563c 6d73 96bd 365d 23be ac60 423e
00000010: 8e9b 1c3e cae8 08bd 99a5 80bd 8284 03bf
00000020: 15b0 f03d fe7c ee3e c45b 243e e560 523c
00000030: 7c37 f83c ca18 0ebf 5fd2 adbe 3012 783e
00000040: e8af d43d 2e71 36bd 5714 ccbd d428 12bb
00000050: 1b3a 193e 40e4 2e3e e97e a03d 9126 6dbd
00000060: 9b99 be3d cb80 dfbe e028 e63c bb79 733e
00000070: 74ac 783e 508b a43e 9142 c1be 3a96 d8be

model.fc.7.running_var f4 [32]
0.22274807 0.3562146 0.369877 0.4194105 0.27621037 0.5093283 0.29394463 0.32245532
0.3531955 0.21600763 0.37749726 0.17161614 0.33516684 0.5162889 0.47295323 0.29325062
0.44875127 0.18190098 0.42158887 0.31237596 0.3200962 0.5452813 0.9111895 0.2120767
0.4939689 0.5566806 0.16648535 0.27802342 0.7180878 1.0799928 0.2252802 0.42469904
00000000: 1218 643e c361 b63e 8560 bd3e f9bc d63e
00000010: 726b 8d3e 5763 023f e97f 963e dd18 a53e
00000020: 0ad6 b43e 1b31 5d3e 5247 c13e 24bc 2f3e
00000030: fd9a ab3e 822b 043f ed26 f23e f224 963e
00000040: bac2 e53e 4044 3a3e 7fda d73e beef 9f3e
00000050: a6e3 a33e 8e97 0b3f b743 693f a22a 593e
00000060: 7ee9 fc3e 9f82 0e3f 237b 2a3e 1659 8e3e
00000070: 9ad4 373f 343d 8a3f daaf 663e 2772 d93e

model.fc.8.p1 f4 [1, 32]
-0.5319263 1.2359711 0.41126782 1.0687973 0.16347486 -1.6357071 -0.22543418 1.1115645
0.3160177 0.4818472 2.0457892 -0.31439877 1.0511537 0.31544605 1.8047298 0.11935976
0.45971537 0.037907515 -1.1575445 -1.8879813 -0.07880471 1.3410109 -0.27195647 -0.09925597
-0.044540852 -1.509787 0.44657668 0.040532317 1.0702156 0.088167034 0.31194574 -1.1544032
00000000: 522c 08bf 4d34 9e3f b291 d23e 5ace 883f
00000010: f465 273e da5e d1bf 38d8 66be bf47 8e3f
00000020: 12cd a13e adb4 f63e 36ee 0240 e0f8 a0be
00000030: 348c 863f 2582 a13e 6301 e73f e472 f43d
00000040: d05f eb3e e944 1b3d 6b2a 94bf 5fa9 f1bf
00000050: 5d64 a1bd 3fa6 ab3f e13d 8bbe b746 cbbd
00000060: 7870 36bd b340 c1bf b3a5 e43e 3705 263d
00000070: d3fc 883f eb90 b43d 5ab7 9f3e 7cc3 93bf

model.fc.8.p2 f4 [1, 32]
0.19321716 -0.1888108 0.5318075 0.76559806 0.08992217 2.0624177 -0.66891074 -0.39647987
-0.11853991 0.19014214 0.25809267 -0.48680463 0.6864575 0.8062645 1.1213475 0.028142706
-1.6952388 0.03910878 -0.8284258 0.48572752 -0.48055816 -0.2779785 1.4636085 0.7245909
0.6458674 0.17959347 0.48201033 -0.33842325 -1.2611986 -1.7803913 -0.05912115 1.48647
00000000: b8da 453e 9e57 41be 8924 083f 3cfe 433f
00000010: 1d29 b83d a7fe 0340 bc3d 2bbf 69ff cabe
00000020: 0dc5 f2bd 9fb4 423e b924 843e 753e f9be
00000030: aebb 2f3f 5a67 4e3f 5188 8f3f 888b e63c
00000040: 96fd d8bf 8730 203d b713 54bf 47b1 f83e
00000050: b80b f6be 3353 8ebe 8657 bb3f ca7e 393f
00000060: 9157 253f 5ae7 373e 0fca f63e d045 adbe
00000070: f56e a1bf dde3 e3bf 0529 72bd a644 be3f

model.fc.8.beta f4 [1, 32]
1.0125158 1.005075 0.99660397 1.0236439 1.0049512 1.000543 1.0013182 0.9909689
0.9851526 1.0045719 1.0021254 1.0069083 1.0096806 0.9827838 1.0048873 0.9962437
1.0005097 0.999737 0.9909471 0.9989481 0.99913573 0.99230117 0.9950825 0.9885478
1.0060444 1.004935 0.98933315 0.997176 0.9836699 1.0013033 0.9928527 0.99359006
00000000: 1e9a 813f 4ca6 803f 7021 7f3f c306 833f
00000010: 3ea2 803f cb11 803f 322b 803f 23b0 7d3f
00000020: f632 7c3f d095 803f a545 803f 5fe2 803f
00000030: 373d 813f b897 7b3f 26a0 803f d409 7f3f
00000040: b410 803f c4ee 7f3f b6ae 7d3f 10bb 7f3f
00000050: 5cc7 7f3f 7307 7e3f babd 7e3f 7811 7d3f
00000060: 10c6 803f b6a1 803f f044 7d3f ed46 7f3f
00000070: cad1 7b3f b52a 803f 982b 7e3f eb5b 7e3f
