MultiClassdiabet/checkpoints/bodyP-epoch=57-val_loss=0.30.ckpt (torch, 183676 bytes, 68 tensors)

model.fc.0.weight f4 [128, 11]
0.20318785 0.009277063 -0.0044219024 0.027642494 0.17160302 -0.15485172 -0.087540396 -0.21696813
0.30962023 0.28687358 0.18299739 0.02746169 -0.26342475 -0.28862816 0.16958976 0.068403274
0.09143521 0.18059978 -0.15811048 -0.24086015 -0.23569204 0.27156422 -0.115476154 0.2531282
0.06376141 0.108072005 -0.20402554 0.0026486046 -0.22894123 0.06521431 0.26254776 -0.1531622
0.10028715 -0.029768173 -0.2890714 -0.06902012 -0.253309 -0.27034843 -0.08728993 -0.27072427
0.053282537 -0.09441885 0.19536796 -0.23627542 -0.2132488 0.07230248 0.2440377 0.103127785
-0.3516439 0.2270256 -0.06792656 -0.12904613 -0.15871234 -0.22252081 -0.10995365 0.011301345
-0.17699881 0.06999101 0.054201342 -0.027939904 0.13521132 0.041308578 -0.12344443 -0.20837139
0.019708272 -0.15586291 -0.1500075 -0.08602877 0.29471168 -0.22522284 -0.38638923 0.024085825
0.15681152 -0.2162011 0.21999086 0.06619335 -0.21083012 0.099294245 -0.23269628 0.2671643
0.06339637 -0.018139638 -0.12920722 0.10331211 -0.038014516 -0.20234898 0.25286824 -0.25438142
0.1434147 -0.23565951 0.030182876 0.1562434 -0.17009228 -0.028101215 0.12601773 0.067271456
-0.21606097 0.053178687 -0.06643433 0.23716259 -0.070153825 0.20582883 -0.26864803 0.04717859
-0.24203563 -0.23419406 0.000982451 -0.26558584 -0.28501102 0.19892444 -0.026128346 -0.12016971
0.16491157 -0.26106605 0.06934524 0.1319756 0.18309113 0.11725664 0.23347017 0.19134977
0.31603554 0.18763044 0.26299155 -0.2652051 -0.0048439293 0.17067929 0.1571971 0.18493143
0.10775451 0.16722384 0.30611354 0.12121781 0.0044032433 0.014869606 0.19358955 0.121457204
-0.20734882 0.0661071 -0.2691517 0.068309285 0.027264118 -0.02978769 -0.17318109 -0.11462103
0.17805964 0.2361746 0.045524947 -0.20434654 -0.26862252 -0.21666265 -0.26184297 -0.010129012
0.006991434 -0.25426313 0.16394825 0.31973782 0.25191706 -0.01719582 -0.048489213 -0.056157004
0.16164118 -0.2663815 -0.25535363 -0.21685834 0.24656071 -0.2689138 0.25208512 -0.082791
-0.27226722 0.23784132 -0.09580242 -0.24247144 0.058811866 0.048895467 -0.2902849 0.13290586
0.19993234 -0.06725626 0.04248873 -0.02826885 0.011886373 -0.2699247 -0.22024262 0.26523155
-0.07096872 0.23268239 0.026337525 -0.21230514 -0.133094 -0.29395482 -0.095239274 0.2143593
-0.22130771 -0.27277437 0.20537551 -0.1793968 -0.10113815 0.074119575 0.07052196 -0.026644947
-0.020964775 -0.034198627 -0.35590374 -0.27969572 -0.05122825 -0.22480015 0.1933348 0.042919032
0.007995402 0.14305387 -0.026753481 0.027732037 0.22977608 0.004466304 -0.22012585 0.20553926
0.013433726 0.12833895 -0.24731986 -0.23382232 -0.21954562 0.15608527 -0.23046285 -0.13213024
-0.04948706 -0.26196402 0.25794095 0.024740502 -0.091945626 0.28285778 0.054818466 0.05582811
0.14569671 -0.23275232 -0.28199214 0.16219434 0.12620611 -0.049241994 0.12376075 0.23607107
-0.1977023 -0.12272863 -0.08809006 -0.10545828 0.116076306 0.026052468 -0.072281815 -0.10515454
-0.06352932 -0.21620637 0.18368918 0.080456346 -0.0068343305 0.2026905 0.09743542 -0.11917985
00000000: 7a10 503e d3fe 173c 9be5 90bb 8372 e23c
00000010: b4b8 2f3e 7391 1ebe 6148 b3bd e52c 5ebe
00000020: 8b86 9e3e 18e1 923e ab63 3b3e 57f7 e03c
00000030: 9cdf 86be 12c7 93be f0a8 2d3e 0417 8c3d
00000040: 6242 bb3d 26ef 383e b7e7 21be 0ba4 76be
00000050: 4159 71be 770a 8b3e c37e ecbd 059a 813e
00000060: 5895 823d db54 dd3d 12ec 50be 3694 2d3b
00000070: 926f 6abe 158f 853d a96c 863e 8dd6 1cbe
00000080: 5963 cd3d 62dc f3bc 2b01 94be 6c5a 8dbd
00000090: b8b1 81be 1c6b 8abe 10c5 b2bd 5f9c 8abe
000000a0: ca3e 5a3d ac5e c1bd 8a0e 483e 2ff2 71be
000000b0: e55d 5abe 5313 943d 05e5 793e a934 d33d
000000c0: ab0a b4be 6679 683e 151d 8bbd ab24 04be
000000d0: 7d85 22be 7fdc 63be 612f e1bd 4729 393c
000000e0: 2d3f 35be 7257 8f3d 3a02 5e3d 3ae2 e4bc
000000f0: d674 0a3e 2f33 293d 6fd0 fcbd 4f5f 55be
00000100: 3e73 a13c 879a 1fbe 919b 19be da2f b0bd
00000110: 73e4 963e d1a0 66be cfd4 c5be a34f c53c
00000120: 3393 203e d263 5dbe 4945 613e 6190 873d
00000130: dae3 57be c85a cb3d ef47 6ebe c2c9 883e
00000140: f5d5 813d 9499 94bc e64e 04be 4d95 d33d
00000150: 1cb5 1bbd 9234 4fbe f277 813e 483e 82be
00000160: 4edb 123e ba50 71be 1442 f73c 45fe 1f3e
00000170: ac2c 2ebe 8534 e6bc cb0a 013e 9ec5 893d
00000180: 163f 5dbe e5d1 593d b90e 88bd c0da 723e
00000190: cfac 8fbd cbc4 523e 3c8c 89be 563e 413d
000001a0: 30d8 77be 91d0 6fbe 96c5 803a defa 87be
000001b0: f7ec 91be d9b2 4b3e 1d0b d6bc 891b f6bd
000001c0: 94de 283e 73aa 85be e104 8e3d 9d24 073e
000001d0: 3e7c 3b3e 4024 f03d ce12 6f3e 32f1 433e
000001e0: 69cf a13e 3222 403e d4a6 863e f6c8 87be
000001f0: d3b9 9ebb 8dc6 2e3e 47f8 203e aa5e 3d3e
00000200: 66ae dc3d ba3c 2b3e eaba 9c3e 0b41 f83d
00000210: 1549 903b a69f 733c 573c 463e 8ebe f83d
00000220: 4053 54be 2963 873d 40ce 89be bde5 8b3d
00000230: 0059 df3c 5005 f4bc 6256 31be 6ebe eabd
00000240: 4455 363e c1d7 713e 5e78 3a3d 3840 51be
00000250: e488 89be d0dc 5dbe 4810 86be 28f4 25bc
00000260: 6618 e53b c72e 82be 0de2 273e adb4 a33e
00000270: 46fb 803e 40de 8cbc a09c 46bd e304 66bd
00000280: 4485 253e 2863 88be b6bd 82be 1d10 5ebe
00000290: 697a 7c3e 12af 89be 4d11 813e 548e a9bd
000002a0: 9c66 8bbe ad8c 733e 0f34 c4bd 6f4a 78be
000002b0: b6e4 703d 9d46 483d 39a0 94be 7918 083e
000002c0: 10bb 4c3e a6bd 89bd aa08 2e3d 1394 e7bc
000002d0: 10bf 423c 9233 8abe 4887 61be 6ecc 873e
000002e0: 0c58 91bd 4b44 6e3e cbc1 d73c 8566 59be
000002f0: cb49 08be 3f81 96be cf0c c3bd 0181 5b3e
00000300: 7d9e 62be 15a9 8bbe f54d 523e cbb3 37be
00000310: 8521 cfbd 01cc 973d d16d 903d 8146 dabc
00000320: 52be abbc dc13 0cbd 0439 b6be 4734 8fbe
00000330: b7d4 51bd 0332 66be 8ff9 453e decb 2f3d
00000340: 26ff 023c b77c 123e 1e2a dbbc 4c2e e33c
00000350: 6c4a 6b3e 135a 923b ac68 61be e278 523e
00000360: 2119 5c3c 496b 033e 6b41 7dbe 1e6f 6fbe
00000370: 91d0 60be d1d4 1f3e 74fe 6bbe 264d 07be
00000380: f2b2 4abd 2620 86be d610 843e 98ac ca3c
00000390: fd4d bcbd bcd2 903e 5489 603d 04ac 643d
000003a0: 8531 153e a056 6ebe 4661 90be 4616 263e
000003b0: 2d3c 013e f9b1 49bd 4776 fd3d 9dbc 713e
000003c0: 7972 4abe 2659 fbbd 9068 b4bd 83fa d7bd
000003d0: 6ab9 ed3d fc6b d53c 7d08 94bd 435b d7bd
000003e0: a91b 82bd 3465 5dbe 0419 3c3e 4cc6 a43d
000003f0: 85f2 dfbb 198e 4f3e 398c c73d 9114 f4bd

model.fc.0.bias f4 [128]
0.06354403 0.010303464 -0.062513284 -0.102531895 0.004457243 0.23187482 0.28617278 -0.25667313
-0.18567719 -0.34165916 0.2315749 -0.2559157 -0.2750191 0.21900788 -0.25963673 0.312504
-0.1170389 0.14257315 0.028831962 0.26430297 -0.021171093 0.17371042 -0.24927299 -0.08673406
-0.27316633 0.010530715 0.030329121 0.07808312 0.261743 -0.2858896 -0.2372716 0.15062329
-0.05938091 -0.08162519 0.005381121 -0.20956647 0.11940778 -0.22016324 -0.27988178 0.11847699
0.02223628 -0.116797134 0.080830984 0.08193897 0.2063098 -0.29140037 0.09639901 0.26635
0.12277978 0.21430023 -0.20461854 0.25888976 0.21652618 0.22624491 0.08734929 0.049604494
-0.2433775 0.00028669598 -0.18475164 0.09657866 0.059171803 -0.26122925 0.16770382 -0.16715275
0.12896901 0.24665716 0.116572976 0.20987509 0.22879526 -0.3042757 -0.068833224 -0.2775681
0.18894282 -0.24543294 -0.09057258 0.065013506 0.11181871 0.28395593 -0.13675162 0.10473205
0.16638145 -0.088246696 0.2577447 0.19589782 -0.21385765 0.23424014 0.2613197 -0.124247834
0.15383005 0.19637296 0.01356173 -0.095223024 -0.18696663 -0.049490526 0.2642452 0.0040428597
0.27051905 -0.054211743 0.2585842 -0.01794192 -0.037462458 -0.030889543 0.21307993 0.14348072
-0.161087 0.111869335 0.26018548 -0.17809603 0.068618834 0.08593286 0.027265836 0.03444286
0.16519591 0.17146982 -0.14173912 0.07798913 -0.024974616 -0.029850872 -0.26449603 0.13252927
-0.18685701 0.076199606 -0.1965985 0.13328241 -0.13209285 0.15056032 0.1221702 0.030289821
00000000: 5f23 823d dccf 283c f706 80bd 3efc d1bd
00000010: 100e 923b 9870 6d3e 3d85 923e a96a 83be
00000020: 2922 3ebe f3ed aebe f821 6d3e 6207 83be
00000030: 4ecf 8cbe 9a43 603e 1bef 84be 8600 a03e
00000040: 17b2 efbd b2fe 113e 0231 ec3c b852 873e
00000050: 006f adbc 25e1 313e 6b41 7fbe a0a1 b1bd
00000060: 75dc 8bbe 0589 2c3c c774 f83c 0bea 9f3d
00000070: 2e03 863e 1f60 92be 54f7 72be fe3c 1a3e
00000080: 6639 73bd 1c2b a7bd 1d54 b03b 9898 56be
00000090: 118c f43d 7972 61be aa4c 8fbe 10a4 f23d
000000a0: dc28 b63c 5633 efbd b78a a53d 9ecf a73d
000000b0: e042 533e 6e32 95be d86c c53d 075f 883e
000000c0: f773 fb3d 8571 5b3e 8687 51be 338d 843e
000000d0: 0ab9 5d3e bfac 673e 2fe4 b23d 152e 4b3d
000000e0: f437 79be af4f 9639 892f 3dbe 08cb c53d
000000f0: 225e 723d d7bf 85be 8dba 2b3e 172a 2bbe
00000100: 7410 043e b293 7c3e d0bd ee3d 7fe9 563e
00000110: 4e49 6a3e 06ca 9bbe 6ff8 8cbd 681d 8ebe
00000120: 3a7a 413e c652 7bbe 1e7e b9bd cd25 853d
00000130: 3501 e53d ac62 913e 9e08 0cbe c27d d63d
00000140: e65f 2a3e afba b4bd 1df7 833e 7099 483e
00000150: 80fd 5abe a6dc 6f3e b2cb 853e a675 febd
00000160: a085 1d3e fe15 493e 0532 5e3c 4a04 c3bd
00000170: 2e74 3fbe 94b6 4abd 264b 873e f779 843b
00000180: 7981 8a3e 220d 5ebd 2665 843e effa 92bc
00000190: 3c72 19bd 110c fdbc a031 5a3e 9cec 123e
000001a0: fef3 24be c01b e53d 0837 853e ce5e 36be
000001b0: 0888 8c3d 91fd af3d 9a5c df3c f513 0d3d
000001c0: 1e29 293e c995 2f3e 0f24 11be c4b8 9f3d
000001d0: 9197 ccbc d189 f4bc 066c 87be c1b5 073e
000001e0: 7257 3fbe 8a0e 9c3d 1e51 49be 2f7b 083e
000001f0: 5943 07be 7c2c 1a3e 5f34 fa3d 5c22 f83c

model.fc.2.weight f4 [64, 128]
-0.060706984 -0.022909002 0.00021011688 0.09967301 0.022507137 0.021268593 0.09113378 0.02333807
0.012379907 0.01456239 0.024140285 -0.08760163 0.08542091 0.021285573 -0.043526992 0.027033404
0.03742384 -0.03741385 -0.061602157 -0.054764528 -0.026830526 0.045948032 0.07109587 -0.016667241
-0.089742966 -0.06384217 0.065428674 -0.041612204 0.01424353 0.07288537 0.08564758 0.05733003
-0.010489027 -0.01991149 -0.06398685 -0.060126077 0.021086441 -0.071265064 -0.0060161767 0.06657189
-0.014373616 0.012044973 0.06188022 0.05686294 -0.05343887 -0.0656583 0.023593796 0.06274726
0.062862635 0.06182755 0.017960038 -0.061474 -0.049413893 0.052350625 0.020599611 -0.0057676383
0.00014548546 -0.08915157 -0.08684395 0.0623891 -0.054964207 -0.026735159 -0.06335702 0.05486661
-0.0046782955 0.014755813 -0.06393353 -0.056915697 0.04518212 0.06404495 0.03263979 -0.003897953
-0.004512391 0.02673028 0.043661024 -0.036535192 0.06107745 -0.044144925 -0.025070453 -0.03567805
-0.023445744 -0.052880835 0.096145146 0.01865428 0.050390422 -0.0095253 -0.056884464 0.04995419
-0.048105977 0.010327834 -0.057040993 0.066350274 -0.012707527 0.0047305613 0.017579412 0.054361124
-0.020487327 -0.007678594 0.051558655 0.035597835 0.075021334 0.08217419 -0.008435887 -0.035996836
-0.0022174278 0.07949939 0.008994496 0.022640672 0.046148 -0.08842329 0.05921138 0.09754009
0.040882975 0.029069783 -0.03751163 -0.057370376 -0.06063241 -0.07782505 0.013068146 0.058271486
-0.10170012 -0.06918311 0.060458023 -0.017526165 -0.11422468 0.02972244 -0.05036484 -0.035428636
0.03673015 -0.0014473441 0.047492947 -0.058904596 -0.07202641 -0.059921697 -0.06937446 4.7827358e-05
0.06352575 0.006804257 0.0011078937 0.03981662 -0.009536154 -0.04846287 0.063487254 0.04465069
0.049652703 -0.08118016 -0.06009086 -0.054375403 -0.06086434 -0.021687804 0.028233416 0.09361919
-0.05622869 -0.061375804 -0.008201766 -0.023545487 0.039596763 -0.026603082 0.09096115 0.062428746
-0.012527856 0.08189426 -0.030695342 -0.0542698 0.04170848 -0.07715973 -0.015457539 -0.00016581058
0.09975131 -0.058509514 -0.048747275 0.07728471 0.039090138 -0.08071366 0.09412164 0.02665507
-0.011291998 -0.010194048 0.02317142 0.060004313 -0.08569621 0.07727766 -0.028248575 0.019097561
0.045384895 -0.037082016 -0.01990957 0.09768565 -0.0641773 0.0321559 -0.053278573 -0.089137994
0.07503292 0.019576991 0.039931834 0.085533604 0.04241824 0.064636685 -0.033851776 -0.020875791
-0.036402192 0.03477477 -0.10538223 0.046307415 0.09024987 0.09511651 -0.06904056 -0.06744599
-0.053002335 0.029096674 -0.035856765 0.07905874 0.06432745 0.08719741 0.028367661 -0.0075379657
-0.016104672 0.023499038 -0.004198991 0.03882483 0.080018364 -0.033941958 0.014038105 0.075507976
-0.024095614 -0.0032773504 0.032205556 0.0969652 -0.06980402 0.08687121 0.0103041865 0.057983764
-0.08147118 -0.020930322 0.0076488988 0.099577144 0.10159082 0.056879994 0.06859434 -0.08328176
0.07039377 -0.07819591 0.070521526 0.0809061 0.03766106 -0.06155105 -0.025971606 0.031871807
-0.019915896 -0.036131684 -0.022036796 -0.0019379522 0.018227031 -0.07944921 0.061341684 0.0051784543
00000000: e3a7 78bd a9ab bbbc d252 5c39 5d21 cc3d
00000010: e360 b83c 793b ae3c 59a4 ba3d 7b2f bf3c
00000020: 18d5 4a3c 1797 6e3c d9c1 c53c 7c68 b3bd
00000030: 28f1 ae3d 155f ae3c 5c49 32bd 2875 dd3c
00000040: be49 193d 443f 19bd 8b52 7cbd c550 60bd
00000050: b1cb dbbc 0134 3c3d b69a 913d bd89 88bc
00000060: 29cb b7bd afbf 82bd 78ff 853d 8f71 2abd
00000070: b25d 693c ed44 953d 0068 af3d e5d2 6a3d
00000080: 2bda 2bbc 6c1d a3bc 8a0b 83bd c346 76bd
00000090: 79bd ac3c 6bf3 91bd 5923 c5bb d856 883d
000000a0: 517f 6bbc 4758 453c 1d76 7d3d 1de9 683d
000000b0: b7e2 5abd dc77 86bd c747 c13c a381 803d
000000c0: 20be 803d e33e 7d3d ee20 933c 29cc 7bbd
000000d0: 3966 4abd 9c6d 563d 84c0 a83c 75fe bcbb
000000e0: 758d 1839 1995 b6bd 3edb b1bd b78b 7f3d
000000f0: 2622 61bd b103 dbbc 53c1 81bd cfbb 603d
00000100: 634c 99bb 5ec2 713c 95ef 82bd 6f20 69bd
00000110: e310 393d 002a 833d 4db1 053d cd74 7fbb
00000120: aedc 93bb 76f9 da3c e7d5 323d eda5 15bd
00000130: 592c 7a3d 4fd1 34bd 8d60 cdbc 2623 12bd
00000140: 4a11 c0bc 9399 58bd bfe7 c43d dcd0 983c
00000150: 3066 4e3d 0110 1cbc afff 68bd c49c 4c3d
00000160: c60a 45bd 1336 293c d1a3 69bd a7e2 873d
00000170: 3b33 50bc d302 9b3b b302 903c c5a9 5e3d
00000180: 0ad5 a7bc b79c fbbb 2b2f 533d 09cf 113d
00000190: c9a4 993d f14a a83d ad36 0abc 6b71 13bd
000001a0: 4452 11bb 94d0 a23d a75d 133c ee78 b93c
000001b0: af05 3d3d 4517 b5bd a287 723d 19c3 c73d
000001c0: e874 273d c123 ee3c cca5 19bd 33fd 6abd
000001d0: b159 78bd bd62 9fbd c71b 563c 15ae 6e3d
000001e0: 2748 d0bd e0af 8dbd d5a2 773d 0893 8fbc
000001f0: a1ee e9bd 797c f33c 5d4b 4ebd 9e1d 11bd
00000200: 5b72 163d cfb4 bdba f787 423d f245 71bd
00000210: 9582 93bd 7470 75bd 3214 8ebd 3c9a 4838
00000220: ca19 823d 3ff6 de3b be36 913a c116 233d
00000230: 873d 1cbc 0181 46bd 9b05 823d a4e3 363d
00000240: a260 4b3d c941 a6bd d521 76bd beb8 5ebd
00000250: e34c 79bd 9faa b1bc c449 e73c 6bbb bf3d
00000260: 0e50 66bd 3265 7bbd b360 06bc 77e2 c0bc
00000270: 3730 223d b5ee d9bc d749 ba3d 49b5 7f3d
00000280: a341 4dbc 2eb8 a73d cc74 fbbc 034a 5ebd
00000290: 83d6 2a3d ec05 9ebd 9e41 7dbc 70dd 2db9
000002a0: 6a4a cc3d aca7 6fbd 39ab 47bd 7247 9e3d
000002b0: fb1c 203d 344d a5bd d9c2 c03d bc5b da3c
000002c0: 1302 39bc f004 27bc fdd1 bd3c 15c7 753d
000002d0: 7f81 afbd c043 9e3d 8e69 e7bc 7d72 9c3c
000002e0: 83e5 393d 50e3 17bd 6519 a3bc 6a0f c83d
000002f0: 636f 83bd e8b5 033d a23a 5abd fb8d b6bd
00000300: dcaa 993d ed5f a03c 908f 233d 3e2c af3d
00000310: c0be 2d3d 3d60 843d 29a8 0abd b503 abbc
00000320: 771a 15bd fd6f 0e3d a3d2 d7bd d8ac 3d3d
00000330: edd4 b83d 72cc c23d 2365 8dbd 2021 8abd
00000340: fa18 59bd 265c ee3c 8bde 12bd 8ce9 a13d
00000350: 1cbe 833d 8e94 b23d 4c63 e83c 0a01 f7bb
00000360: f2ed 83bc 0e81 c03c b197 89bb c906 1f3d
00000370: abe0 a33d b906 0bbd 1400 663c eda3 9a3d
00000380: 2a64 c5bc d1c8 56bb f9e9 033d b195 c63d
00000390: 69f5 8ebd 88e9 b13d e4d2 283c 6280 6d3d
000003a0: 5dda a6bd 1176 abbc 9da3 fa3b 1aef cb3d
000003b0: d90e d03d fffa 683d 307b 8c3d a18f aabd
000003c0: 9c2a 903d 2d25 a0bd 976d 903d 19b2 a53d
000003d0: 7c42 1a3d f41c 7cbd 68c2 d4bc 038c 023d
000003e0: a926 a3bc d1fe 13bd 8386 b4bc e302 feba
000003f0: db50 953c 44b6 a2bd 6b41 7b3d 06b0 a93b

model.fc.2.bias f4 [64]
0.0024804135 0.045321014 0.01823798 0.078702025 -0.08104076 0.067846425 0.0016086526 0.05156373
-0.07635758 0.07732047 0.041212957 -0.063913085 0.022943955 -0.017270356 -0.019125758 0.02741551
0.08934562 0.0019177193 0.0069477996 0.062122073 -0.050567776 0.06962071 0.010995172 0.0632855
0.06453172 -0.009518153 0.07210618 0.058882315 -0.027746784 0.021290665 0.01865802 -0.088150576
0.058504716 -0.024914788 -0.010706169 0.03430108 -0.07354762 0.036766995 -0.019342104 0.085848235
-0.0025861973 -0.062442314 -0.019621557 0.02448721 -0.07121886 -0.04162019 0.033752553 0.06626578
-0.00046499236 -0.0132825775 -0.046634898 -0.056904126 -0.09126997 -0.063833244 -0.04203414 -0.062178295
-0.04138311 -0.048714995 0.03890359 0.00090112607 -0.049098097 -0.07404222 -0.087800056 0.058659397
00000000: 6f8e 223b 87a2 393d d167 953c 872e a13d
00000010: b3f8 a5bd 11f3 8a3d 6dd9 d23a 7d34 533d
00000020: 5d61 9cbd 325a 9e3d ebce 283d dde4 82bd
00000030: f6f4 bb3c 907a 8dbc 9fad 9cbc 7e96 e03c
00000040: d6fa b63d fb5b fb3a 5eaa e33b b773 7e3d
00000050: 2820 4fbd 4e95 8e3d 1825 343c d49b 813d
00000060: 3529 843d 07f2 1bbc 68ac 933d 952e 713d
00000070: 394d e3bc c369 ae3c b4d8 983c 4a88 b4bd
00000080: a4a2 6f3d 191a ccbc ed68 2fbc 4a7f 0c3d
00000090: 22a0 96bd fd98 163d 5573 9ebc 33d1 af3d
000000a0: 317d 29bb 83c3 7fbd 63bd a0bc 6799 c83c
000000b0: 32db 91bd ef79 2abd 1e40 0a3d 5ab6 873d
000000c0: 38ca f3b9 2b9f 59bc 3c04 3fbd 4d14 69bd
000000d0: c0eb babd 01bb 82bd fe2b 2cbd abae 7ebd
000000e0: 5681 29bd 6089 47bd 5f59 1f3d 8c39 6c3a
000000f0: 161b 49bd 73a3 97bd 84d0 b3bd d644 703d

model.fc.3.weight f4 [64]
0.9802747 0.9627388 0.98682296 1.0191472 0.9544471 0.9856645 1.056119 1.038847
0.9645113 0.9807371 1.002724 1.0635377 0.95606434 0.979407 0.9653091 0.99075925
0.964938 1.0964636 0.99599737 1.0401574 0.9617243 1.0084951 1.068967 0.9933432
1.0468483 0.984123 1.0030575 1.01274 1.0343206 1.004015 0.96874964 1.0105957
0.9994758 1.0625832 1.0442983 0.9741058 1.0098318 0.9699306 1.0043045 1.0188428
1.0029154 0.9600501 1.07031 0.9892438 0.98236996 0.96236074 0.98511124 1.0418077
1.0176467 1.0063467 0.9939336 0.97859675 0.98812336 1.0410933 0.9741328 1.0297498
1.005063 0.9966586 0.97906315 0.96096975 0.9723079 0.9931196 1.0542351 1.0171007
00000000: 48f3 7a3f 0d76 763f 6ea0 7c3f 6a73 823f
00000010: a556 743f 8254 7c3f e82e 873f f0f8 843f
00000020: 36ea 763f 9611 7b3f 4359 803f 0122 883f
00000030: a2c0 743f 6bba 7a3f 7f1e 773f 66a2 7d3f
00000040: 2d06 773f eb58 8c3f aff9 7e3f e123 853f
00000050: 9033 763f 5e16 813f e9d3 883f bd4b 7e3f
00000060: 20ff 853f 7cef 7b3f 3064 803f 77a1 813f
00000070: 9e64 843f 9083 803f faff 773f 335b 813f
00000080: a5dd 7f3f ba02 883f 91ab 853f ff5e 793f
00000090: 2b42 813f 5f4d 783f 0d8d 803f 7169 823f
000000a0: 885f 803f d8c5 753f ebff 883f 153f 7d3f
000000b0: 997c 7b3f 465d 763f 4030 7c3f f459 853f
000000c0: 3f42 823f f8cf 803f 6f72 7e3f 5185 7a3f
000000d0: a7f5 7c3f 8c42 853f c460 793f d7ce 833f
000000e0: e8a5 803f 0525 7f3f e2a3 7a3f 1d02 763f
000000f0: 2ce9 783f 163d 7e3f 2df1 863f 5b30 823f

model.fc.3.bias f4 [64]
-0.0015164233 -0.053891245 -0.01286697 -0.02075374 -0.02949327 -0.0354217 0.006035065 -0.015785595
-0.02507775 -0.019643186 -0.02994356 0.008772522 -0.030553326 -0.007965518 -0.021020265 -0.03329965
-0.017049003 -0.013399926 0.00014006729 -0.007901751 -0.028693797 -0.0005739218 -0.04194437 -0.008296476
0.0016944573 -0.053857666 0.0038535402 -0.003699311 0.0077145877 -0.005343673 -0.028857764 0.010263603
-0.031463582 -0.02031684 -0.019897714 -0.0073236343 0.01911537 -0.024891892 -0.0047171786 -0.015981184
-0.05645637 -0.026022516 -0.023679256 -0.022976624 -0.010250201 -0.04603 -0.02888503 -0.026497787
0.0046199816 -0.021732846 -0.030758811 -0.019067612 -0.03377462 -0.019159172 -0.016177326 -0.006028467
-0.011633287 -0.024921997 -0.03251065 -0.048921824 -0.039087273 -0.016308606 -0.0035285722 0.004695635
00000000: b9c2 c6ba 11bd 5cbd fccf 52bc bf03 aabc
00000010: df9b f1bc 5816 11bd cbc1 c53b cb50 81bc
00000020: db6f cdbc bfea a0bc 324c f5bc a0ba 0f3c
00000030: f84a fabc ce81 02bc b132 acbc 3765 08bd
00000040: 5aaa 8bbc 5d8b 5bbc 07df 1239 5976 01bc
00000050: 410f ebbc 3d73 16ba dccd 2bbd f1ed 07bc
00000060: 8d18 de3a db99 5cbd ad8b 7c3b 2470 72bb
00000070: a7ca fc3b fa19 afbb 1e67 ecbc ac28 283c
00000080: f5df 00bd 806f a6bc 8800 a3bc 19fb efbb
00000090: d697 9c3c 15ea cbbc 9092 9abb f9ea 82bc
000000a0: cb3e 67bd 2c2d d5bc 00fb c1bc 7939 bcbc
000000b0: 76f0 27bc f489 3cbd 4ca0 ecbc e311 d9bc
000000c0: 3763 973b 1509 b2bc e7f9 fbbc ae33 9cbc
000000d0: 4257 0abd b2f3 9cbc 5086 84bc 728a c5bb
000000e0: 8b99 3ebc 3729 ccbc e329 05bd 4062 48bd
000000f0: fa19 20bd a099 85bc 9e3f 67bb d7dd 993b

model.fc.3.running_mean f4 [64]
0.041385833 0.20333928 0.04607853 0.17673144 -0.051348567 0.22671664 -0.14344513 0.014097178
-0.23099525 -0.0068005132 -0.023665672 -0.06143742 0.056732014 -0.0029723516 0.11371261 -0.10170625
-0.032978855 -0.11267975 0.13016862 0.17205845 -0.13780357 0.2585622 -0.08951781 0.0821279
0.010330074 -0.3107803 0.043537095 0.16134 -0.05046271 0.047322124 -0.06410313 -0.031578742
-0.1119655 -0.10510923 0.009516979 -0.10373415 -0.30445424 -0.0039499267 -0.036045536 0.24965616
-0.11251515 -0.059754327 0.041291185 0.052444275 -0.07117772 0.009111819 0.0660294 0.023241615
0.0058339583 0.09119426 0.007455843 -0.24433948 -0.18235357 -0.03175213 0.09383971 -0.22767052
-0.12559968 -0.18387581 0.07354225 0.019842613 -0.08934175 -0.06500353 -0.11919341 0.35515708
00000000: 3184 293d 2c38 503e d7bc 3c3d 16f9 343e
00000010: e052 52bd 6828 683e 48e3 12be daf7 663c
00000020: 058a 6cbe d7d6 debb 83de c1bc cea5 7bbd
00000030: d45f 683d c9cb 42bb 28e2 e83d 5e4b d0bd
00000040: d614 07bd a4c4 e6bd ec4a 053e 1730 303e
00000050: 611c 0dbe 4462 843e 1d55 b7bd ac32 a83d
00000060: 783f 293c 981e 9fbe f453 323d 5036 253e
00000070: fdb1 4ebd d8d4 413d 8048 83bd b658 01bd
00000080: 2b4e e5bd 8243 d7bd 1aed 1b3c 9272 d4bd
00000090: 6de1 9bbe 636e 81bb 7ca4 13bd dda5 7f3e
000000a0: 586e e6bd f4c0 74bd f220 293d cfcf 563d
000000b0: a0c5 91bd bd49 153c 6c3a 873d 3365 be3c
000000c0: ca2a bf3b 0ec4 ba3d 2550 f43b 2134 7abe
000000d0: e5ba 3abe 850e 02bd 092f c03d 7622 69be
000000e0: 349d 00be f149 3cbe 529d 963d fa8c a23c
000000f0: cff8 b6bd 9220 85bd ad1b f4bd 26d7 b53e

model.fc.3.running_var f4 [64]
0.11118429 0.10213795 0.05661488 0.054837335 0.055724792 0.14031847 0.043545775 0.06625775
0.09309854 0.101022094 0.08796558 0.103642255 0.09364536 0.10338508 0.13583417 0.13605027
0.047224257 0.07749888 0.048044495 0.07622031 0.15087745 0.13815685 0.08249068 0.22703475
0.23394966 0.05253765 0.052904658 0.038743194 0.08214746 0.15276955 0.05130114 0.16139254
0.060422305 0.056621008 0.030606978 0.14424771 0.07789827 0.14907691 0.064190805 0.03286136
0.069838084 0.075998165 0.057374164 0.09748342 0.12014281 0.05366467 0.08572878 0.063365236
0.07755084 0.08808745 0.05405361 0.09869843 0.070925355 0.043351706 0.08209959 0.05526037
0.12730181 0.08174838 0.06315331 0.06614576 0.054502416 0.06089229 0.043362595 0.08097159
00000000: 97b4 e33d b42d d13d 01e5 673d 1d9d 603d
00000010: ae3f 643d a5af 0f3e 0e5d 323d 25b2 873d
00000020: 73aa be3d ace4 ce3d 4c27 b43d 6442 d43d
00000030: 23c9 bf3d 8fbb d33d 1d18 0b3e c350 0b3e
00000040: 396e 413d bcb7 9e3d 4eca 443d 6519 9c3d
00000050: 9e7f 1a3e fd78 0d3e e0f0 a83d cc7b 683e
00000060: 8090 6f3e b831 573d 8eb2 583d 2fb1 1e3d
00000070: ed3c a83d 9f6f 1c3e 2521 523d 1644 253e
00000080: 617d 773d 6eeb 673d 7cbb fa3c acb5 133e
00000090: 2189 9f3d 9ea7 183e 7876 833d a299 063d
000000a0: 4507 8f3d eda4 9b3d 2c01 6b3d 63a5 c73d
000000b0: 6f0d f63d 7ccf 5b3d 9292 af3d a2c5 813d
000000c0: fad2 9e3d 3167 b43d 5167 5d3d 6722 ca3d
000000d0: 5041 913d 8f91 313d d423 a83d b358 623d
000000e0: 685b 023e b26b a73d 8656 813d 6e77 873d
000000f0: ed3d 5f3d 326a 793d fa9c 313d 6fd4 a53d

model.fc.6.weight f4 [32, 64]
-0.12625106 -0.019956805 0.10875005 -0.02125012 -0.0192088 -0.04580277 0.099198356 0.057363704
-0.075010486 0.013046941 -0.08193389 0.065112345 -0.13708018 0.049520284 0.061977867 0.08408777
-0.022631343 0.11316038 0.022485312 0.14520344 0.118980825 -0.08923996 -0.019685145 0.05726288
0.11079812 0.04867286 0.016092844 -0.101222366 0.008867732 -0.10788683 -0.021536328 -0.11399446
-0.07757114 0.14802441 0.054254368 -0.024842992 0.019686421 0.032812778 -0.035710398 0.10346914
0.08603225 -0.077297345 -0.015406705 -0.04128314 -0.09116354 0.024978485 -0.06793388 -0.030453566
-0.060598448 0.047158297 0.09881416 -0.12512332 -0.059639815 0.04489189 0.012330038 -0.056773026
0.08495552 -0.020338561 -0.07209491 -0.07548769 -0.0675956 -0.03359632 0.03516451 -0.0025346668
0.09952289 -0.11572443 0.05218121 0.098199286 -0.047267973 0.0768825 -0.14098462 -0.013467555
-0.074703515 0.04341313 0.07782771 -0.04628292 -0.10192594 0.06416519 -0.11599424 0.038085077
0.03176344 -0.095672384 0.07304971 0.075613506 -0.065523736 0.07375193 0.053672016 0.012868931
0.01791484 0.020476693 0.12988293 0.081835605 0.059016462 0.04792089 -0.012884988 0.0988734
0.048234247 -0.09601766 -0.045666844 0.13854198 -0.05452652 0.06522658 -0.118017666 -0.0033864875
-0.08853327 0.04444507 0.010231352 0.11611523 0.025261356 0.05118662 -0.10018747 0.008890903
0.10255186 0.058491476 -0.05453613 -0.018505646 -0.046278335 -0.13341306 -0.02313066 -0.099106394
-0.009243627 0.022167234 0.009036989 0.07613164 -0.023993213 0.051455077 0.12118399 -0.022970848
-0.019289931 -0.030097777 0.121058635 0.09180016 -0.031958442 0.12620476 0.115120284 -0.017389597
-0.017676083 -0.13476084 0.03434126 -0.04621002 0.043968994 0.011635952 0.075724624 -0.07575648
-0.048447672 -0.010400779 -0.09352855 0.051558893 -0.02226072 -0.08619886 0.00016694571 -0.08204911
-0.012763177 0.026410062 0.060504183 0.1161567 0.020522596 -0.112283394 0.093032345 -0.1767366
-0.0019936666 0.12288864 0.008534623 0.06841693 -0.072439566 0.08930303 -0.05813617 0.11018579
0.03904747 0.08314221 0.02971635 -0.10100731 -0.055229712 0.02474213 0.09572278 -0.04487336
0.009651557 0.03802871 0.057696838 -0.0875932 0.06955942 -0.0052547087 -0.09555497 0.105261095
0.07941749 0.06589145 0.031186841 -0.08532878 -0.048830543 -0.030330399 0.04676323 -0.026753465
0.03670576 -0.096415505 -0.009226407 -0.013576762 -0.044778604 -0.11786195 -0.04696233 -0.14572921
-0.02992701 -0.027092712 0.08040709 0.03402726 -0.057390936 0.14003378 -0.077337265 0.032382768
0.008547232 -0.10698001 0.098736286 -0.03002099 0.06229499 0.06784207 -0.10604383 0.03024491
-0.0776083 0.10712693 0.013267464 -0.015647266 -0.093684435 -0.079406716 0.095705636 -0.009643649
0.08815265 0.03829561 0.02680558 -0.012813389 -0.03089937 0.046125002 0.013551557 -0.05194484
0.00039500862 0.005231111 -0.016315797 0.05111748 0.08901917 0.039121117 -0.08955821 -0.060411744
-0.029356118 -0.014710171 -0.09754884 0.07284462 -0.019275758 -0.05092739 0.023706788 -0.031458866
0.018709993 -0.09582441 0.03131401 -0.07897955 -0.10138473 0.021708507 -0.025071023 -0.023161903
00000000: f547 01be 747c a3bc 59b8 de3d bb14 aebc
00000010: c65b 9dbc af9b 3bbd 8228 cb3d 34f6 6a3d
00000020: 199f 99bd d6c2 553c f5cc a7bd 9f59 853d
00000030: bf5e 0cbe c8d5 4a3d 81dc 7d3d 3536 ac3d
00000040: 5e65 b9bc a1c0 e73d 1e33 b83c 36b0 143e
00000050: 38ac f33d 71c3 b6bd be42 a1bc 7b8c 6a3d
00000060: 20ea e23d 315d 473d 24d5 833c ac4d cfbd
00000070: f749 113c c5f3 dcbd f46c b0bc ed75 e9bd
00000080: 9edd 9ebd b693 173e d439 5e3d 8883 cbbc
00000090: 6b45 a13c b166 063d 1145 12bd a1e7 d33d
000000a0: ad31 b03d 124e 9ebd 686c 7cbc 8318 29bd
000000b0: f3b3 babd ae9f cc3c eb20 8bbd c279 f9bc
000000c0: 1436 78bd 0f29 413d 145f ca3d 5420 00be
000000d0: e148 74bd 8fe0 373d ed03 4a3c d58a 68bd
000000e0: 29fd ad3d 0e9d a6bc 7fa6 93bd 4a99 9abd
000000f0: 906f 8abd 4b9c 09bd a908 103d a71c 26bb
00000100: a8d2 cb3d ee00 edbd f7bb 553d b51c c93d
00000110: 109c 41bd 9274 9d3d 465e 10be 05a7 5cbc
00000120: 28fe 98bd f7d1 313d 2264 9f3d 2993 3dbd
00000130: 8cbe d0bd 0a69 833d 638e edbd 19ff 1b3d
00000140: 621a 023d e2ef c3bd 169b 953d 41db 9a3d
00000150: 4f31 86bd 400b 973d 30d7 5b3d 35d8 523c
00000160: 24c2 923c bdbe a73c 0800 053e 6d99 a73d
00000170: 3fbb 713d b248 443d 8f1b 53bc 237e ca3d
00000180: 4691 453d e8a4 c4bd 280d 3bbd f3dd 0d3e
00000190: 3357 5fbd 8395 853d 3fb3 f1bd d5ef 5dbb
000001a0: ee50 b5bd 090c 363d 67a1 273c d2cd ed3d
000001b0: e7f0 ce3c 10a9 513d 172f cdbd 26ab 113c
000001c0: b606 d23d c294 6f3d 4761 5fbd 2799 97bc
000001d0: 5a8e 3dbd 6f9d 08be 837c bdbc 4bf8 cabd
000001e0: 9572 17bc 0f98 b53c e10f 143c e8ea 9b3d
000001f0: 6a8d c4bc 8fc2 523d 502f f83d 5c2d bcbc
00000200: eb05 9ebc 9d8f f6bc 97ed f73d b901 bc3d
00000210: dbe6 02bd d23b 013e 2fc4 eb3d a174 8ebc
00000220: 6fcd 90bc bffe 09be 6ca9 0c3d b846 3dbd
00000230: d518 343d b8a4 3e3c 8315 9b3d 3726 9bbd
00000240: 1171 46bd 0768 2abc e58b bfbd 6b2f 533d
00000250: 1d5c b6bc 0789 b0bd 260e 2f39 5d09 a8bd
00000260: a51c 51bc ea59 d83c 3cd3 773d 90e3 ed3d
00000270: 011f a83c d6f4 e5bd be87 be3d 70fa 34be
00000280: 2da8 02bb 0aad fb3d ced4 0b3c 2d1e 8c3d
00000290: 325b 94bd 82e4 b63d 3120 6ebd 16a9 e13d
000002a0: 3df0 1f3d 7746 aa3d b46f f33c ecdc cebd
000002b0: 8d38 62bd 02b0 ca3c 4e0a c43d 21cd 37bd
000002c0: 9021 1e3c fec3 1b3d 8553 6c3d 1064 b3bd
000002d0: 2b75 8e3d b12f acbb 53b2 c3bd 2193 d73d
000002e0: a3a5 a23d 19f2 863d 8c7b ff3c dbc0 aebd
000002f0: 8902 48bd 7577 f8bc cd8a 3f3d 152a dbbc
00000300: c758 163d 7e75 c5bd 5b2a 17bc 1171 5ebc
00000310: c569 37bd 9b61 f1bd 925b 40bd 0a3a 15be
00000320: 7d29 f5bc 89f1 ddbc 79ac a43d 2b60 0b3d
00000330: c212 6bbd 0465 0f3e 0063 9ebd cba3 043d
00000340: b009 0c3c 5618 dbbd 4036 ca3d 94ee f5bc
00000350: 0829 7f3d c8f0 8a3d 822d d9bd 2cc4 f73c
00000360: 1af1 9ebd 5d65 db3d c75f 593c b22e 80bc
00000370: a0dd bfbd fd9f a2bd 5101 c43d 6500 1ebc
00000380: 6089 b43d dcdb 1c3d 6097 db3c 40ef 51bc
00000390: ad20 fdbc 92ed 3c3d 5a07 5e3c 1dc4 54bd
000003a0: 2919 cf39 bd69 ab3b b5a8 85bc 9060 513d
000003b0: af4f b63d 773d 203d 4b6a b7bd 4e72 77bd
000003c0: 3e7c f0bc ee02 71bc b0c7 c7bd 8f2f 953d
000003d0: 32e8 9dbc 3d99 50bd bd34 c23c 03db 00bd
000003e0: b345 993c 973f c4bd 1f43 003d 08c0 a1bd
000003f0: cca2 cfbd 0ad6 b13c bf61 cdbc 08be bdbc

model.fc.6.bias f4 [32]
0.027263647 -0.021143055 0.029043423 -0.015068844 0.070010215 0.044995483 0.1146334 0.093347825
-0.10970843 -0.093850985 0.06723567 -0.0023541674 -0.08980602 0.044883374 0.08780198 -0.1090649
0.105777815 0.0033156471 -0.046085715 -0.10180947 0.10948034 0.038465403 -0.0031697005 -0.0517486
0.07432119 -0.0010914182 0.066223234 -0.06285693 0.022929044 -0.1315537 0.0017721034 -0.08378479
00000000: 0358 df3c 3334 adbc 79ec ed3c 50e3 76bc
00000010: 8461 8f3d 2f4d 383d ebc4 ea3d 252d bf3d
00000020: d0ae e0bd f234 c0bd dbb2 893d 6048 1abb
00000030: 38ec b7bd a1d7 373d 86d1 b33d 6b5d dfbd
00000040: 0aa2 d83d 544b 593b 60c4 3cbd 7c81 d0bd
00000050: 3a37 e03d e68d 1d3d c0ba 4fbb 57f6 53bd
00000060: b535 983d eb0d 8fba 0ca0 873d 22bb 80bd
00000070: b1d5 bb3c 03b6 06be ec45 e83a 5c97 abbd

model.fc.7.weight f4 [32]
1.0564178 1.0340477 0.94285315 0.96924603 1.0386369 0.98706293 0.98613995 0.96098006
1.0274845 1.0801636 1.0537437 1.0168556 1.036779 0.99107313 1.0003392 0.99048483
1.0029358 1.0032326 1.0132369 0.9721383 0.9947683 0.94683146 0.988858 1.0293405
1.0189397 0.9431436 0.92755115 0.97286123 0.99163735 0.9787755 1.0509536 0.9597548
00000000: b338 873f ad5b 843f d35e 713f 8220 783f
00000010: 0ef2 843f 28b0 7c3f ab73 7c3f ca02 763f
00000020: 9d84 833f cd42 8a3f 13e1 863f 5328 823f
00000030: 2db5 843f f8b6 7d3f 1d0b 803f 6a90 7d3f
00000040: 3360 803f ed69 803f bfb1 813f 0ede 783f
00000050: 23a9 7e3f 8c63 723f cc25 7d3f 6ec1 833f
00000060: 9e6c 823f dc71 713f fe73 6d3f 6f0d 793f
00000070: f2db 7d3f 0891 7a3f a685 863f 7eb2 753f

model.fc.7.bias f4 [32]
0.008483632 0.018517949 -0.060313903 -0.009701312 -0.021079423 0.0073704696 -0.02407094 -0.0420146
0.004722448 0.01085834 0.020506106 -0.015144795 -0.012880093 -0.027386738 0.026732443 -0.01670244
0.03701718 0.00065714424 0.012950998 -0.023977261 0.03315205 -0.015353988 0.021689327 -0.0037999393
0.03938992 -0.04683896 -0.056664634 -0.02063653 -0.027287679 -0.0053926487 0.006448062 -0.04445891
00000000: eefe 0a3c f4b2 973c b60b 77bd 40f2 1ebc
00000010: c1ae acbc fb83 f13b 6c30 c5bc 8017 2cbd
00000020: c4be 9a3b 2ee7 313c 6cfc a73c e021 78bc
00000030: 0707 53bc 275a e0bc fffd da3c 8ed3 88bc
00000040: 549f 173d 3444 2c3a 6c30 543c f66b c4bc
00000050: 72ca 073d 4b8f 7bbc d1ad b13c 6708 79bb
00000060: 5357 213d 36da 3fbd 2d19 68bd f10d a9bc
00000070: 698a dfbc d1b4 b0bb 444a d33b 8c1a 36bd

model.fc.7.running_mean f4 [32]
0.041227844 0.109807774 0.11105068 -0.16277912 -0.03250654 0.27023762 -0.010222645 -0.089512825
-0.18359412 -0.39439604 0.1229364 -0.03264415 -0.13502747 -0.15544882 0.021407133 -0.36266753
0.1284675 -0.07932302 0.13784906 -0.24258564 -0.031537693 0.19396858 0.096079394 -0.2743973
0.10326263 -0.10037211 -0.13750724 -0.026397299 -0.26040113 -0.23431505 -0.25750127 -0.17282423
00000000: 87de 283d e6e2 e03d 8a6e e33d 92af 26be
00000010: 9425 05bd 965c 8a3e e17c 27bc 8052 b7bd
00000020: 1900 3cbe 47ee c9be 14c6 fb3d dfb5 05bd
00000030: a444 0abe fa2d 1fbe 035e af3c 8faf b9be
00000040: fc8c 033e 1c74 a2bd 4e28 0d3e 5f68 78be
00000050: ab2d 01bd b39f 463e 46c5 c43d ce7d 8cbe
00000060: 5c7b d33d e58f cdbd b3ce 0cbe 263f d8bc
00000070: 4c53 85be 49f0 6fbe 35d7 83be d6f8 30be

model.fc.7.running_var f4 [32]
0.7844759 0.7906296 0.35307136 0.5904536 0.4833512 0.1602347 0.32477698 0.39142257
0.36163482 0.90380186 0.5321658 0.22279388 0.6380379 0.25297427 0.5841696 0.3219304
0.45190635 0.64409083 0.31436285 0.57734907 0.6304324 0.23934184 0.43429077 0.5078367
0.3713468 0.2887974 0.3279113 0.29169995 0.3142606 0.117036566 0.6074707 0.4963147
00000000: 6ad3 483f b466 4a3f c5c5 b43e f827 173f
00000010: cf79 f73e 9114 243e 2b49 a63e 8a68 c83e
00000020: 3328 b93e 8f5f 673f 053c 083f 1424 643e
00000030: 7456 233f d885 813e 248c 153f 10d4 a43e
00000040: 4560 e73e 23e3 243f 2bf4 a03e 26cd 133f
00000050: 0564 213f 0716 753e 5c5b de3e 9601 023f
00000060: 2b21 be3e 41dd 933e fde3 a73e b259 953e
00000070: c4e6 a03e deb0 ef3d 3383 1b3f f61c fe3e

model.fc.10.weight f4 [16, 32]
-0.16979532 0.11526041 -0.16435489 0.016131269 -0.14167708 -0.15786314 0.13539225 -0.07141709
-0.020801196 -0.0485417 -0.04307771 -0.06319854 -0.04402092 -0.11806258 0.13208598 -0.041813217
-0.16658433 0.12733103 0.11020151 0.09052849 -0.20284958 0.1276775 0.053345542 -0.12387641
-0.07666722 0.08382567 0.1556274 0.1279219 0.103245065 0.16598937 0.056720953 -0.06705305
-0.18419668 0.050156604 -0.056630675 0.10923219 0.027513808 -0.09600815 -0.06417941 0.04549028
-0.074426614 -0.041896053 0.056419414 -0.025529517 0.03597 0.12551077 0.06945661 -0.10474483
-0.06538209 0.12623337 -0.12157468 0.18230875 -0.030710032 0.09257222 -0.15862016 -0.18353994
-0.19771223 -0.0076278127 0.15071058 0.11814314 0.020820946 -0.048867375 0.13370526 0.14021851
0.034995098 -0.08831218 -0.031459693 -0.052973457 -0.11820924 0.025711937 -0.131878 -0.0973438
0.0048304466 0.079060756 -0.19388999 0.058928784 0.14413166 -0.0076570427 0.0060153725 0.03656039
-0.055357836 0.0189756 -0.1848492 -0.09147242 -0.1481919 0.11461583 0.15003328 -0.20039025
-0.09456342 -0.07496285 0.06621725 0.03344695 0.1277302 0.16062148 -0.058456197 0.06909194
-0.113564655 0.1453385 0.031488016 -0.06530764 0.06880563 -0.19071828 -0.17162667 0.022062216
0.042198934 0.040097844 0.035690263 0.11789101 0.10401933 0.17128083 -0.10141766 0.061785694
-0.008990323 0.03680033 -0.107667714 0.12734681 -0.0961711 0.053194214 0.080746554 -0.019532284
-0.057856187 0.09566716 -0.054312512 -0.009475219 0.15457277 0.08393708 -0.07892371 0.020210572
0.14250365 -0.01216772 0.08142534 -0.06400019 0.07168525 -0.10837303 -0.0677413 -0.0014287977
-0.10033565 -0.15384783 0.04655729 0.007639922 -0.024822095 0.049017657 -0.117791176 -0.063055135
-0.048391353 -0.09971277 -0.07694858 -0.042511504 0.046148542 0.068347044 -0.14009856 -0.026613709
-0.035143673 0.12743388 -0.14013457 -0.07034802 -0.0020612727 -0.0013972836 -0.04603921 -0.08796558
-0.04727668 -0.10595964 0.066210076 -0.21998242 -0.08888984 -0.10743488 -0.039036315 -0.11270538
-0.15885712 -0.21277481 0.0777753 0.055923637 -0.08264512 0.034792144 -0.17385377 0.016827388
0.07946841 -0.19146502 -0.0007217445 -0.095182605 0.13992107 -0.14946008 -0.04150719 0.030660162
-0.11832311 0.10461947 0.13681066 -0.14823714 -0.068088084 -0.1869828 -0.16958316 -0.14875467
0.007994842 -0.17573643 0.0323174 0.08129271 -0.10826935 -0.010906015 0.15301809 0.18754451
-0.10730351 -0.115466446 -0.00014273215 -0.027861454 -0.12405929 -0.06895298 -0.20827621 -0.079992905
0.16209573 0.031300675 0.030605031 0.009267126 0.13023578 0.093881465 0.082583115 0.072428584
0.14590424 -0.15636049 0.10490755 0.081270084 0.06961953 0.09864056 -0.22776936 0.098464176
-0.20100956 -0.18312237 -0.08714437 -0.1171604 -0.13341337 -0.09818776 0.09858922 0.063376926
0.19188212 -0.07378591 -0.057109516 -0.088723764 -0.10677291 0.04411944 -0.08275281 0.198341
-0.15751217 0.10276545 0.05134282 0.019827925 0.03239791 -0.04765136 -0.076359026 -0.17935519
0.09190336 0.059432466 -0.024390582 -0.03242681 -0.14075391 -0.1437594 0.030666564 -0.13569792
00000000: d3de 2dbe a60d ec3d a64c 28be b925 843c
00000010: cc13 11be e0a6 21be 44a4 0a3e 2043 92bd
00000020: 4567 aabc a9d3 46bd 4172 30bd 3c6e 81bd
00000030: 484f 34bd cbca f1bd 8c41 073e 5644 2bbd
00000040: 1595 2abe 1163 023e 54b1 e13d 0067 b93d
00000050: cdb7 4fbe e4bd 023e db80 5a3d eab2 fdbd
00000060: b403 9dbd cbac ab3d ca5c 1f3e f5fd 023e
00000070: 2672 d33d 1ef9 293e 3b54 683d 1c53 89bd
00000080: 0e9e 3cbe 0371 4d3d 91f5 67bd 20b5 df3d
00000090: a364 e13c ec9f c4bd 7f70 83bd 0454 3a3d
000000a0: fb6c 98bd 329b 2bbd 0b18 673d 4723 d1bc
000000b0: 4755 133d e585 003e 443f 8e3d 7584 d6bd
000000c0: 0ce7 85bd 5243 013e 25fc f8bd 25af 3a3e
000000d0: 9b93 fbbc 8196 bd3d 536d 22be e5f1 3bbe
000000e0: 1375 4abe bbf2 f9bb e053 1a3e 08f5 f13d
000000f0: b090 aa3c 2829 48bd 08ea 083e 7195 0f3e
00000100: 0557 0f3d 04dd b4bd e1db 00bd b2fa 58bd
00000110: b017 f2bd d7a1 d23c 070b 07be 305c c7bd
00000120: b948 9e3b 9bea a13d 198b 46be 4f5f 713d
00000130: 4097 133e eee7 fabb 9a1c c53b 59c0 153d
00000140: e6be 62bd b872 9b3c 1c49 3dbe e455 bbbd
00000150: 9ebf 17be b4bb ea3d 53a2 193e 1a33 4dbe
00000160: 77aa c1bd 1f86 99bd e99c 873d abff 083d
00000170: b5cb 023e f579 243e c46f 6fbd 1380 8d3d
00000180: 9694 e8bd 9ed3 143e 94f9 003d 03c0 85bd
00000190: f7e9 8c3d a74b 43be e7be 2fbe d2bb b43c
000001a0: cad8 2c3d a33d 243d f42f 123d d870 f13d
000001b0: 1608 d53d 3e64 2f3e 10b4 cfbd ff12 7d3d
000001c0: 264c 13bc f1bb 163d e480 dcbd 3467 023e
000001d0: 5bf5 c4bd 2de2 593d 735e a53d 2b02 a0bc
000001e0: 9cfa 6cbd 25ed c33d cc76 5ebd f33d 1bbc
000001f0: 5348 1e3e 34e7 ab3d c1a2 a1bd a490 a53c
00000200: 7aec 113e 1e5b 47bc 54c2 a63d 8812 83bd
00000210: b7cf 923d aef2 ddbd f3bb 8abd 7f46 bbba
00000220: c77c cdbd 498a 1dbe dbb2 3e3d 5058 fa3b
00000230: b557 cbbc bdc6 483d 803c f1bd 0d23 81bd
00000240: 0336 46bd 3536 ccbd 3897 9dbd 8b20 2ebd
00000250: 4106 3d3d 89f9 8b3d ff75 0fbe fe04 dabc
00000260: d0f2 0fbd 077e 023e 707f 0fbe 9f12 90bd
00000270: 6b16 07bb 0f25 b7ba 9c93 3cbd 4c27 b4bd
00000280: 31a5 41bd 5e01 d9bd 2699 873d 1243 61be
00000290: e00b b6bd d206 dcbd 8be4 1fbd 14d2 e6bd
000002a0: 71ab 22be a4e1 59be a848 9f3d 2f10 653d
000002b0: d841 a9bd 3582 0e3d b906 32be 97d9 893c
000002c0: 55c0 a23d 680f 44be 7433 3dba 19ef c2bd
000002d0: 7847 0f3e 100c 19be 7103 2abd 052b fb3c
000002e0: 6353 f2bd bc42 d63d 1818 0c3e 7acb 17be
000002f0: c471 8bbd 6b78 3fbe 35a7 2dbe 2553 18be
00000300: ccfc 023c 40f4 33be 405f 043d cb7c a63d
00000310: 52bc ddbd 24af 32bc c6b0 1c3e ab0b 403e
00000320: f1c1 dbbd ac79 ecbd 5faa 15b9 b43d e4bc
00000330: cc12 febd 3837 8dbd 5c46 55be 52d3 a3bd
00000340: 6cfc 253e 2335 003d 67b7 fa3c 25d5 173c
00000350: 875c 053e ed44 c03d 5621 a93d 7055 943d
00000360: ec67 153e f71c 20be c5d9 d63d ee70 a63d
00000370: af94 8e3d 1004 ca3d 5f3c 69be 96a7 c93d
00000380: 73d5 4dbe 6e84 3bbe bf78 b2bd cbf1 efbd
00000390: 849d 08be aa16 c9bd 25e9 c93d c3cb 813d
000003a0: bf7c 443e 111d 97bd abeb 69bd ceb4 b5bd
000003b0: c1ab dabd 96b6 343d 4e7a a9bd e719 4b3e
000003c0: df4a 21be b176 d23d d94c 523d 2c6e a23c
000003d0: acb3 043d 132e 43bd 1f62 9cbd e3a8 37be
000003e0: d437 bc3d 756f 733d c2ce c7bc fad1 04bd
000003f0: cb21 10be aa35 13be 7238 fb3c 65f4 0abe

model.fc.10.bias f4 [16]
0.046125833 0.060951762 -0.04664369 0.16277523 -0.17490679 0.13652368 -0.022845209 -0.06062579
-0.0064142062 -0.14512324 0.11301827 0.037211295 -0.0598718 -0.067674875 0.042449556 -0.11761218
00000000: 71ee 3c3d 8ea8 793d 740d 3fbd 8dae 263e
00000010: c41a 33be ddcc 0b3e e025 bbbc c052 78bd
00000020: 432e d2bb 309b 14be 1f76 e73d df6a 183d
00000030: 223c 75bd 2099 8abd 96df 2d3d a8de f0bd

model.fc.11.weight f4 [16]
0.8989767 0.99392366 0.99042267 1.0093181 1.0054898 1.0189829 0.9929228 1.0481367
1.0296625 0.9860918 0.99042875 0.94357586 0.9627258 1.027154 0.975896 0.9648834
00000000: 5623 663f c871 7e3f 578c 7d3f 5631 813f
00000010: e4b3 803f 086e 823f 3030 7e3f 5829 863f
00000020: fbcb 833f 8370 7c3f bd8c 7d3f 308e 713f
00000030: 3375 763f c879 833f 52d4 793f 9902 773f

model.fc.11.bias f4 [16]
-0.057690352 -0.0052415514 -0.02710884 0.029727578 -0.031960413 0.019806532 0.059306163 -0.051426865
0.041123495 -0.10247664 -0.0004586783 -0.030292386 -0.028279208 0.08138234 -0.004927044 0.024559373
00000000: b84c 6cbd 52c1 abbb 5c13 debc 4087 f33c
00000010: ece8 02bd 4f41 a23c 05eb 723d faa4 52bd
00000020: 1c71 283d 46df d1bd c27a f0b9 bd27 f8bc
00000030: cca9 e7bc c9ab a63d 0a73 a1bb bd30 c93c

model.fc.11.running_mean f4 [16]
-0.005049122 0.04532772 -0.20840476 0.23267251 -0.4112317 -0.34376365 0.0027506782 -0.33910522
-0.29333252 -0.44078103 -0.0004952724 -0.11585778 0.027489193 -0.0049299304 -0.1109739 -0.27423477
00000000: 1b73 a5bb 8fa9 393d 0f68 55be b441 6e3e
00000010: f68c d2be ca01 b0be b944 343b 339f adbe
00000020: ae2f 96be 0dae e1be 2bd5 01ba d846 edbd
00000030: 0431 e13c 418b a1bb 4946 e3bd 8068 8cbe

model.fc.11.running_var f4 [16]
0.64798754 0.7141082 0.47758517 0.6215291 0.31114694 0.8763267 0.7507765 0.31460696
0.42459944 0.21231191 0.37946084 0.7043276 1.0483035 0.46579224 0.14817777 0.33007497
00000000: 83e2 253f cccf 363f 0b86 f43e 881c 1f3f
00000010: a74e 9f3e f256 603f e432 403f 2a14 a13e
00000020: 1965 d93e 4b68 593e b148 c23e d04e 343f
00000030: cf2e 863f 527c ee3e eabb 173e 96ff a83e

model.fc.14.weight f4 [8, 16]
-0.13695882 0.21936111 0.20850037 0.1163432 0.19207 -0.040163893 -0.14322509 -0.17013068
-0.25215796 -0.12814215 0.20528889 -0.05629304 0.2250006 0.06775938 0.1827717 0.0046548396
0.042539787 -0.07512957 0.12014178 0.057905003 -0.048495147 -0.25058013 -0.14767528 0.061883416
-0.14285898 -0.08882141 -0.07275229 0.25163636 0.2375099 0.16142812 -0.031374734 -0.13271397
0.15317602 0.19484676 0.12777568 0.26697296 -0.21564688 -0.0937585 -0.16470148 -0.13033932
-0.22479615 -0.052120987 -0.1051095 0.1346793 -0.06498253 0.008398527 -0.047167826 0.14633502
0.07369499 0.056055773 -0.23577689 -0.079584114 0.19427133 0.21359079 0.2168836 -0.043212127
0.015973046 -0.2583421 0.17972414 0.067326166 -0.030963605 -0.20526642 -0.080732696 0.2523788
0.044723414 -0.09825241 -0.15370838 0.14833455 0.16790695 -0.02236423 0.032926455 -0.11766618
0.11415641 -0.19139959 0.08144556 -0.10203379 0.13208692 -0.3054981 0.024152113 0.12958913
-0.21096249 -0.23502246 -0.17439683 -0.17503108 0.0032309534 0.020826511 0.261416 0.08217942
0.22830248 -0.052758545 -0.10048662 -0.26376 -0.2811769 -0.23279631 -0.047821354 0.023062335
-0.13597381 -0.13718954 -0.0351916 -0.30831873 -0.092403345 0.22823402 -0.14334033 0.060994506
0.21276505 0.10122013 0.13114397 0.0599548 -0.22757353 -0.008239835 -0.034707572 -0.1163982
-0.1307038 -0.13033964 -0.13297775 -0.12420761 0.13252535 0.054996148 0.16670395 -0.1641404
0.19127342 -0.28322896 0.12665747 0.06504391 -0.16280471 -0.15084778 0.22868638 0.14481814
00000000: ef3e 0cbe 33a0 603e 1f81 553e 5845 ee3d
00000010: 00ae 443e e582 24bd 99a9 12be bd36 2ebe
00000020: d91a 81be b237 03be 4037 523e 8893 66bd
00000030: 8f66 663e 6ec5 8a3d 8128 3b3e a087 983b
00000040: 333e 2e3d 88dd 99bd e50c f63d cc2d 6d3d
00000050: d9a2 46bd 0a4c 80be 3038 17be 7779 7d3d
00000060: a049 12be 00e8 b5bd 27ff 94bd 7bd6 803e
00000070: cc35 733e 6a4d 253e cb82 00bd 2ce6 07be
00000080: 2dda 1c3e e985 473e a1d7 023e aeb0 883e
00000090: 89d2 5cbe 7504 c0bd 81a7 28be ac77 05be
000000a0: f630 66be d17c 55bd a643 d7bd 5fe9 093e
000000b0: 9015 85bd fa99 093c 0d33 41bd d9d8 153e
000000c0: 66ed 963d bd9a 653d 7f6f 71be fffc a2bd
000000d0: 10ef 463e 8bb7 5a3e bc16 5e3e 33ff 30bd
000000e0: e8d9 823c 6a45 84be 9b09 383e 4de2 893d
000000f0: 63a7 fdbc 5c31 52be 2f57 a5bd cb37 813e
00000100: e62f 373d 8f38 c9bd bb65 1dbe 03e5 173e
00000110: cdef 2b3e 3135 b7bc e4dd 063d f7fa f0bd
00000120: d6ca e93d 41fe 43be eecc a63d 17f7 d0bd
00000130: cb41 073e 3f6a 9cbe a7da c53c 03b3 043e
00000140: 8d06 58be baa9 70be 1595 32be 593b 33be
00000150: 67be 533b 5c9c aa3c 51d8 853e af4d a83d
00000160: 20c8 693e 5819 58bd eecb cdbd 8d0b 87be
00000170: 6bf6 8fbe 2862 6ebe 53e0 43bd 39ed bc3c
00000180: b83c 0bbe 6a7b 0cbe 1125 10bd f4db 9dbe
00000190: f73d bdbd 2eb6 693e cfc7 12be 60d5 793d
000001a0: 15df 593e 804c cf3d 9b4a 063e 2a93 753d
000001b0: 0909 69be 5f00 07bc 8729 0ebd 2e62 eebd
000001c0: 38d7 05be c177 05be 522b 08be 8f60 febd
000001d0: bab4 073e a443 613d 71b4 2a3e 6c14 28be
000001e0: 2edd 433e 6303 91be 7fb2 013e be35 853d
000001f0: 47b6 26be d777 1abe c32c 6a3e 354b 143e

model.fc.14.bias f4 [8]
0.06395833 -0.05888523 -0.15864545 0.23245075 0.21947098 0.0938329 0.020110985 -0.22917522
00000000: 96fc 823d a431 71bd f473 22be 9207 6e3e
00000010: 00bd 603e 772b c03d cbbf a43c e9ac 6abe

model.fc.15.weight f4 [8]
1.2748564 1.2674434 1.2472495 1.3237408 1.3061739 1.2527442 1.312217 1.2435331
00000000: 7f2e a33f 963b a23f dfa5 9f3f 5770 a93f
00000010: b530 a73f ec59 a03f baf6 a73f 182c 9f3f

model.fc.15.bias f4 [8]
0.2280834 0.21278982 0.15650557 0.2614625 0.28629863 0.23275787 0.27177453 0.19210452
00000000: b28e 693e 93e5 593e ff42 203e 6ade 853e
00000010: bc95 923e 1458 6e3e 0826 8b3e 0cb7 443e

model.fc.15.running_mean f4 [8]
0.18214019 -0.09340311 -0.19525215 0.33779016 0.18646911 -0.15516548 -0.06670225 -0.24276245
00000000: f582 3a3e 214a bfbd 2ef0 47be d5f2 ac3e
00000010: c2f1 3e3e b3e3 1ebe 309b 88bd b896 78be

model.fc.15.running_var f4 [8]
0.4135047 0.645499 0.66868633 0.7688498 0.34044832 1.295051 0.43785647 0.80990225
00000000: e3b6 d33e 6c3f 253f 072f 2b3f 57d3 443f
00000010: 3e4f ae3e 3bc4 a53f b92e e03e c155 4f3f

model.fc.18.weight f4 [3, 8]
0.5637611 0.5086664 0.5373356 -0.2927278 0.17666095 -0.51590085 -0.4824537 -0.29127404
-0.5779754 0.15527032 -0.097218305 -0.25099164 -0.34323943 -0.007237152 0.13724862 -0.524166
0.2088422 -0.4613229 -0.534839 0.3502964 0.49080297 0.37077996 0.24100974 0.49621087
00000000: a652 103f f637 023f d38e 093f 6be0 95be
00000010: 9ce6 343e 1412 04bf 2c04 f7be df21 95be
00000020: 32f6 13bf 2fff 1e3e 641a c7bd fa81 80be
00000030: 14bd afbe a225 edbb e78a 0c3e be2f 06bf
00000040: bbda 553e 8432 ecbe 35eb 08bf 0d5a b33e
00000050: 874a fb3e dfd6 bd3e 42cb 763e 5a0f fe3e

model.fc.18.bias f4 [3]
0.20975538 0.09379794 0.21787937
00000000: 1dca 563e 2219 c03d c51b 5f3e
