MultiClassdiabet/checkpoints/bodyP-epoch=11-val_f1=0.92.ckpt (torch, 285052 bytes, 68 tensors)

model.fc.0.weight f4 [128, 77]
000000 ae c6 34 bd 70 32 58 3d 68 31 69 3d d2 c3 9f bd
       -0.04413479 0.052782476 0.056931883 -0.07801022
000010 b4 22 85 3d 9c 3a 8c 3d 22 15 21 3c 2b 93 3d bd
       0.0650076 0.06847116 0.009831699 -0.04628293
000020 08 06 b9 3d cf 78 2b bd ce bd db 3d 02 44 2d 3d
       0.090343535 -0.04186326 0.10729562 0.042301185
000030 b2 ac 31 bd 37 e0 a9 3d 54 ba 7d 3c e8 37 e0 3d
       -0.043377586 0.08294719 0.015486319 0.10948163
000040 8e b4 74 bc 45 09 c1 bd 09 78 9a bd 37 96 88 bb
       -0.014935626 -0.09425596 -0.07542426 -0.0041682976
000050 08 f1 e2 bd 68 1c 54 bd a2 b3 cb 3c c4 6b 0a 3d
       -0.11081129 -0.051784903 0.024865929 0.03379418
000060 49 b8 e0 bb df 94 2d bd fe e6 4c bd c1 c2 ec 3c
       -0.006857906 -0.042378303 -0.05002498 0.02890146
000070 ac 70 8e bd 75 5c 3b bd e4 97 09 bd ba 35 7a 3c
       -0.06955084 -0.04574247 -0.03359212 0.0152715985
000080 3a bd 74 3d e9 16 7e 3d d7 f4 8d 3c 2e 4d e4 3a
       0.059750773 0.062033568 0.017328663 0.0017418021
000090 d9 47 92 3c 80 94 96 3b 7f 72 da bd 35 77 e1 3d
       0.017856525 0.0045953393 -0.1066637 0.11009065
0000a0 22 ab 9d bd ef 1d 08 3d c7 05 42 3d 73 91 9f bd
       -0.076986566 0.033231672 0.04736879 -0.07791414
0000b0 d7 2f 19 bd 49 a9 27 3d e1 52 62 bd 65 7a 0a bc
       -0.03739914 0.040932927 -0.05525482 -0.008452033
0000c0 cf 9f 5f 3d 33 ac 94 bd 7c ea bc 3d 8f 64 b5 bd
       0.054595765 -0.07259407 0.09224412 -0.08857071
0000d0 24 7d 9a 3d d8 88 3f bd 62 45 66 bd 53 25 c0 3d
       0.075434 -0.046761364 -0.056218512 0.09382119
0000e0 7b 72 b5 3d e3 96 24 bd d7 05 ba 3d f5 96 89 bd
       0.08859726 -0.04018296 0.09083145 -0.06718246
0000f0 38 57 df bd 2e 9b cc 3d 1f 2c da 3d 3b 7c e5 bd
       -0.109053075 0.09990536 0.10652947 -0.11205336
000100 90 88 ec 3d 24 44 d9 bd af 3c 97 3d 02 5b ee bd
       0.11549485 -0.106087 0.07384621 -0.11638452
000110 cb 21 bb bd 0f 5d 51 bc 45 ad 21 3d d8 2b 1a bd
       -0.09137305 -0.012778535 0.039471883 -0.03763947
000120 93 ad d2 bd 56 25 c1 3d 28 a7 b4 bd 07 f6 80 bd
       -0.10287013 0.094309494 -0.08820945 -0.06296926
000130 b6 ba aa bd fe eb 2e 3c af ba dd 3c 68 fe a7 bb
       -0.083363935 0.010676382 0.027066557 -0.005126763
000140 b4 87 64 3b b5 e6 08 3d 41 b1 67 bd c5 c1 c0 3c
       0.0034870924 0.033423144 -0.056565527 0.023529897
000150 4d 79 92 3d 44 bf c2 3d ce ed 8a 3d 3d 61 e9 bd
       0.071520425 0.09509137 0.06783639 -0.113955
000160 19 c3 a8 bd d4 76 81 3c 1f 0d d6 bd 2f 4b 95 bd
       -0.08240337 0.015803732 -0.104517214 -0.07289731
000170 72 d8 d9 3c 31 2b 73 bd d3 4c c0 3d 45 b2 ba bd
       0.026592467 -0.059367362 0.09389653 -0.091160335
000180 16 77 85 3d e5 fb fe bc df a5 ae 3d b6 e6 74 3c
       0.065168545 -0.031125972 0.08527731 0.014947584
000190 e2 8f 37 3d cf 73 d8 3c 92 b7 a7 bd d7 a4 cb 3d
       0.04481495 0.02642241 -0.0818931 0.0994355
0001a0 c3 39 77 3d 2b 04 9a bd e5 b0 eb 3a 4c ad bf 3b
       0.06035782 -0.07520326 0.0017981796 0.005849516
0001b0 8a 53 95 bc cd f8 c7 bd 41 43 a3 bd c5 47 ac bd
       -0.018228311 -0.09764252 -0.07971812 -0.084121265
0001c0 75 77 5f 3d 88 ad b8 3d a5 42 66 bd 08 b9 cf bd
       0.054557282 0.090174735 -0.0562159 -0.10142714
0001d0 25 79 50 bd 73 e5 c0 bd 2a 34 d9 3d 63 62 a9 3d
       -0.050896782 -0.09418764 0.10605653 0.08270719
0001e0 aa 27 df 3d d4 d4 7c 3c ee d5 8c 3d 91 59 de bd
       0.10896237 0.015431602 0.06876741 -0.10856927
0001f0 b0 28 cb bc cc 48 b4 3d fa ae 45 bc 85 0d 4d 3d
       -0.024799675 0.088029474 -0.012065643 0.05006172
000200 52 9a c6 bd ec 3d 17 bd 7d 5c f6 bd 2e a8 cd 3d
       -0.09697403 -0.036924288 -0.120293595 0.10041843
000210 09 68 86 3d c9 20 d6 bd 45 c7 5f 3a 07 f7 91 bd
       0.06562812 -0.10455472 0.00085364684 -0.07127195
000220 b8 88 4c bc 28 bf ca 3d 7c b8 8d 3b fd b4 e6 3c
       -0.012483768 0.098997414 0.0043249708 0.028162474
000230 8b f1 a1 3d 9f a6 76 bd dc 4c 49 bd 22 38 64 3d
       0.07907399 -0.060217496 -0.049145564 0.055717595
000240 3e 75 1c bc 07 09 ad bd 9f a2 2b 3d d1 99 df 3d
       -0.009549437 -0.084489875 0.041903134 0.1091801
000250 c0 1d 4f 3a 02 51 5f 3c c7 25 c1 3d 9b ea 21 3d
       0.00079008564 0.013630154 0.094310336 0.039530378
000260 6f c6 84 3d 14 e4 38 3d 08 60 9c bd 3e d9 0e 3d
       0.06483161 0.045139387 -0.07635504 0.034875147
000270 14 9d 96 bd 92 0c 5c 3d a7 b7 ce 3d 4a 69 85 3c
       -0.07354179 0.053722925 0.10093623 0.016285557
000280 59 02 e7 3d 44 d2 17 3d 1f 16 0a 3c b9 bd 30 3d
       0.11279745 0.03706576 0.008428126 0.043149684
000290 54 c7 d1 bb 09 1d a7 bd d1 10 10 bc ce 84 c1 3c
       -0.0064019356 -0.08159835 -0.008793072 0.023622897
0002a0 0c 63 8e bd a0 a0 5f 3d 6b 2b 6d bd 50 f7 24 3d
       -0.069524854 0.054596543 -0.057902735 0.040274918
0002b0 a7 c9 b0 3c d5 5b 97 bd d1 47 c1 bd 8f ee 76 bc
       0.02158053 -0.073905624 -0.09437526 -0.015071525
0002c0 6d 9d f1 bd 9d 25 e1 bd c3 57 b6 bd ce c5 a4 bc
       -0.11797605 -0.10993502 -0.08903458 -0.020113852
0002d0 4e d3 ce 3d a5 33 64 3d 52 6d b4 3c 02 1b 5e 3d
       0.10098897 0.055713315 0.022024784 0.054224975
0002e0 51 c5 cf 3c 7b de a7 bd 8b e3 9a 3d 65 f4 85 3b
       0.025362642 -0.08196732 0.075629316 0.004087972
0002f0 bc 05 de 3d 8e b6 7c bd e3 9f a6 bd 73 0b fa 3c
       0.108409375 -0.061697535 -0.08135965 0.030523038
000300 ff 2a 90 3d 3c 18 3b bd 33 86 7e 3d 8b 5e 7d bc
       0.07039451 -0.04567741 0.0621397 -0.015464435
000310 8b 4e 39 bd 75 cc a4 3d 72 b3 86 bc f7 a0 0f 3d
       -0.04524092 0.080468096 -0.016442988 0.035065617
000320 3b 1c aa 3c f7 b0 8e 3d ff 8f 8f 3c 0d 9b dd 3d
       0.020765414 0.06967347 0.017524717 0.10820589
000330 d3 0d 8e 3d ed 42 90 bd 4f 20 b1 bd 98 a5 d8 3d
       0.069362305 -0.07044015 -0.086487405 0.105784595
000340 16 39 b4 bd fe aa 1b 3d 15 0c ec 3d 22 2b e6 bb
       -0.08799951 0.038004868 0.11525742 -0.007024185
000350 aa 28 ba 39 b1 72 18 bd cb b2 1f bd 07 0b 16 3d
       0.00035506982 -0.037218753 -0.03898887 0.03663161
000360 1d b0 ff bb a6 8d 85 bd 1e bf 5a bd a3 4f 89 3d
       -0.0078029768 -0.06521158 -0.05340492 0.067046426
000370 03 de 88 bc d3 60 06 bd c9 ec e9 bd 3e db db bd
       -0.016707426 -0.032807183 -0.11422116 -0.107351765
000380 33 65 bc 3d 80 79 c4 3d 97 23 0e 3d 5d af 73 3d
       0.0919899 0.09593487 0.03470191 0.05949341
000390 df a7 dd 3d 6c 04 a7 bd f9 93 6b bd 8e c8 dc 3d
       0.108230345 -0.0815514 -0.057514165 0.1078044
0003a0 6d 41 f4 3c 57 3e ea 3d 48 64 d8 3d 24 43 10 3b
       0.029816354 0.11437672 0.10566002 0.0022012675
0003b0 f2 69 6d bd 97 79 90 bc 94 c8 98 3d 34 6e a1 bd
       -0.057962365 -0.017636104 0.07460132 -0.07882348
0003c0 a7 c8 c9 bc 39 31 c7 bd 77 06 a4 bd 13 3b ad 3d
       -0.024631811 -0.09726185 -0.080090456 0.08458533
0003d0 fb 0b 8c 3d 2a 84 4c bd 67 19 31 3d a7 0b 09 3d
       0.068382226 -0.04993073 0.043237116 0.03345838
0003e0 16 b0 c5 3d 97 1b f1 bc 90 2d 91 bd ea 5f d9 3d
       0.09652726 -0.029432101 -0.070887685 0.10613997
0003f0 46 a4 5e 3d c1 a2 c4 bd 15 8d b8 bb 80 4d 5e 3a
       0.054355882 -0.09601355 -0.0056320527 0.00084801763

model.fc.0.bias f4 [128]
000000 2b b4 27 3d 14 49 8d bd 33 b3 f8 3c 8b 10 07 bd
       0.040943306 -0.06898704 0.030358886 -0.03297476
000010 55 a9 55 3d 0c 56 99 3d 4c 65 aa bd d7 29 66 3d
       0.05216344 0.07487115 -0.08320102 0.056192245
000020 02 77 75 3d 38 27 92 bd 00 7b 84 ba e3 4f 0d 3d
       0.059927948 -0.07136387 -0.0010107458 0.034500014
000030 c2 ad c7 b8 88 c2 c1 bd ec b0 88 3c 2f fd aa 3c
       -9.521424e-05 -0.09460932 0.016685925 0.02087268
000040 99 00 07 3d a3 f7 bb bd b7 31 cd bb d2 c7 92 bd
       0.032959554 -0.09178092 -0.00626203 -0.07167019
000050 20 ec db bd d2 7e 23 bd b6 48 ed bd 6a 74 bf 3d
       -0.10738397 -0.039915867 -0.11586134 0.09348376
000060 21 58 38 3c 40 86 98 3d d6 01 78 3d de 0b fc bd
       0.01125148 0.07447481 0.060548626 -0.12306951
000070 ae fb 37 bd b5 ad 83 bd 11 b1 77 bd 34 b3 9c bd
       -0.044917755 -0.06429616 -0.060471598 -0.07651368
000080 20 00 63 bd 1b 20 e2 3d 84 d9 98 3d 07 ce 9d bd
       -0.05542004 0.1104128 0.07463363 -0.07705312
000090 e8 9d 4a 3d df fa 9d 3d 31 c0 db 3d a0 91 cd bd
       0.049466997 0.077138655 0.10730017 -0.100375414
0000a0 d4 93 2b bd f2 94 c9 3d a9 8b 7f bc f0 c9 1c 3d
       -0.041889027 0.09842862 -0.015597262 0.03827852
0000b0 66 c1 a9 bd a6 4f fb 3d 60 9b 19 3d 73 06 ba 3d
       -0.08288841 0.12271051 0.037501693 0.09083261
0000c0 26 9e cf bb 87 b1 ff 3d ac a0 87 bd e0 13 be 3c
       -0.0063359914 0.124850325 -0.066224426 0.023202837
0000d0 1d 60 7e bd 82 f8 c7 3d d7 7c 1c bd ae ee 30 3d
       -0.06210338 0.09764196 -0.038204994 0.043196373
0000e0 5a d7 2f 3d 86 76 ad 3d 4f a9 6c bd 36 df fc 3d
       0.042929985 0.08469872 -0.057778653 0.123472616
0000f0 6c ff df 3d 15 2f 4e 3d 57 04 8e 3d 5a 89 ec 3c
       0.1093739 0.05033787 0.069344215 0.028874088
000100 55 75 88 bd 20 8b 9e 3d 59 7f 34 bd 7b 52 1b 3d
       -0.06663004 0.0774138 -0.04406676 0.037920456
000110 7e 7f c0 bb 46 d0 e7 3c 20 52 51 3d 62 a6 dc 3c
       -0.0058745733 0.028297555 0.05110371 0.026934806
000120 99 5a 46 bd 9b 56 bf bc e0 d8 c4 bd 69 59 72 bd
       -0.048426244 -0.023356726 -0.09611678 -0.0591673
000130 04 1b ef bd 38 24 75 bb 2e c5 ba 3d 89 bf b0 bb
       -0.11675075 -0.0037405621 0.0911964 -0.0053939265
000140 bf ce b3 bd 39 1a e6 bd fe 38 ed bc f4 ed 4e bc
       -0.08779668 -0.1123547 -0.02895784 -0.012629975
000150 61 60 51 bd 10 84 bc bd 65 c0 e4 3c 31 d0 45 3d
       -0.051117305 -0.092048764 0.027923772 0.04829425
000160 e9 f1 36 bd 22 3c 9a bd 99 91 d3 bd ce fa 9b bd
       -0.044664297 -0.07531001 -0.10330505 -0.076161966
000170 b2 ac 9c 3d 73 a9 c8 bd c0 85 a1 bc 58 3d 89 bc
       0.076501265 -0.09797945 -0.019717097 -0.016752884
000180 d5 b5 a1 bb 16 ad 33 3c d4 0d c6 bd dc 27 9a bc
       -0.004935006 0.01096656 -0.09670606 -0.018817835
000190 dd ba 61 3c 1d 6e 93 3c 38 5d 3f bc 1e fc af 3b
       0.013777462 0.017996842 -0.01167994 0.005370631
0001a0 d2 d3 e5 3c 6d 3e 89 bd 60 fa 86 ba b6 c9 99 bd
       0.028055105 -0.0670136 -0.0010298006 -0.075091764
0001b0 dc 1f ef bd cf c0 cc 3d 7f 71 11 bc ff 6b 19 3d
       -0.116759986 0.09997713 -0.008877157 0.03745651
0001c0 a1 2d 35 3d aa dd 8a 3c 1f fe e6 3c 37 f4 a5 bd
       0.04423297 0.0169514 0.028197346 -0.08103221
0001d0 5c 50 c7 bd 62 ff 9f bd f4 18 69 bd 8d 34 b0 3d
       -0.09732124 -0.07812382 -0.056908563 0.08603773
0001e0 88 34 75 bd 5a b5 a8 bd e9 2d 4c 3d d6 4e b7 3d
       -0.05986455 -0.08237715 0.04984847 0.08950584
0001f0 42 68 45 3d 0c 62 ad bd 38 3d f9 3d a7 83 78 3d
       0.04819513 -0.084659666 0.1216988 0.06067243

model.fc.2.weight f4 [64, 128]
000000 b6 f7 2f bd 97 5b 22 3b 00 e7 07 bd bf 16 9e bd
       -0.042960845 0.002477383 -0.033179283 -0.07719182
000010 c4 30 44 bd f9 70 a4 bd 41 33 da bc a9 54 3a 3d
       -0.04789807 -0.0802936 -0.026635768 0.045490894
000020 73 b3 33 bd 41 6a 9b bd 4b 08 a1 bb 1d d6 73 3d
       -0.043872308 -0.07588626 -0.0049143187 0.059530366
000030 bb f4 47 bd 16 e7 b3 bc 1e 04 9f bd cf d0 9a 3c
       -0.048817378 -0.021960776 -0.07764457 0.018898396
000040 c4 27 81 3d fe a5 2b bd 53 f4 fb 3b 78 c4 5a 3d
       0.06306413 -0.04190635 0.007689038 0.053410023
000050 b6 17 62 3c 3d b3 29 3d d7 e2 52 bc 0d d1 84 3d
       0.013799598 0.0414307 -0.012871466 0.06485186
000060 9b ad a3 bd d1 ef a5 bd 15 19 27 3d c8 3f 94 3d
       -0.07992097 -0.08102382 0.040795404 0.07238728
000070 7b 0d 29 bd 23 31 6a 3b d8 b2 57 3c bc d7 2c 3c
       -0.04127262 0.0035734854 0.013165198 0.010549482
000080 42 26 89 3c 7d 2e 0a 3d c6 7c 77 3d df 6f 4a 3b
       0.016741876 0.03373574 0.060421728 0.0030889434
000090 d2 26 1f bc ce 08 eb 3c 71 43 8f 3d a3 48 a3 bd
       -0.009713845 0.028690722 0.06995285 -0.07972839
0000a0 a8 7c 30 bd 1f fd 57 bc db 1f 96 bd ea 84 30 3d
       -0.04308763 -0.013182907 -0.07330295 0.043095507
0000b0 0e b1 89 3d 01 d4 a9 bd 92 d8 86 bd 51 2b 39 3d
       0.067232236 -0.0829239 -0.06584276 0.045207325
0000c0 80 d7 92 3d 81 02 59 bd 72 d1 32 bc 1d 49 63 bd
       0.071700096 -0.052980904 -0.0109141935 -0.055489648
0000d0 58 5b 49 3c 8f 2c 75 bd 8d 68 a8 3d 9e 9f 5a bd
       0.012289844 -0.059856948 0.082230665 -0.05337488
0000e0 c3 d1 d4 3a eb 10 55 bd b0 c2 32 bd 11 b5 89 bd
       0.001623683 -0.052018087 -0.0436427 -0.06723989
0000f0 db fa 9e 3d 8e d2 16 bd d3 65 97 bd 0d cc 95 3d
       0.07762691 -0.036821894 -0.07392468 0.0731431
000100 41 6f 32 3b 84 40 d7 bc 42 19 b4 3d 1a 0f 86 3d
       0.0027226957 -0.02627588 0.0879388 0.06545849
000110 ea da bf 3c d5 e5 6f bd f1 5c 71 bc 2c 37 5d 3d
       0.023419816 -0.058568794 -0.014731632 0.054007694
000120 23 47 63 3d 84 a5 51 3d b9 e6 1a 3c 90 29 8e bd
       0.055487763 0.05118324 0.009454423 -0.06941521
000130 1c 24 ad bd d9 8a 72 bd 97 90 5c bd db 26 8f bd
       -0.08454153 -0.059214447 -0.05384883 -0.06989833
000140 c7 5b 85 bd c8 0d 6b bd 32 9e 98 bc 81 e3 6d 3d
       -0.06511646 -0.05738619 -0.01863012 0.058078293
000150 61 5b 18 3d 47 99 3a 3d 4a eb a0 3d 95 91 6e bc
       0.03719652 0.045556333 0.07857378 -0.014561077
000160 38 21 ff 3c e1 11 cd bc f6 94 88 bd 5f 0b 37 bd
       0.03114377 -0.02503294 -0.06669037 -0.04468858
000170 c0 0e 10 3d 11 8e 16 bb e4 f9 c0 3d b2 39 e3 3c
       0.035170317 -0.0022972862 0.09422663 0.027737472
000180 e4 76 75 bd 77 99 68 bd 89 7d 68 bd 49 a6 8a bd
       -0.059927836 -0.05678698 -0.056760345 -0.067699976
000190 57 8a 15 3d 4e c5 39 3d e4 90 7b 3d 3c 88 bc bc
       0.036508884 0.04535418 0.061417475 -0.02301418
0001a0 80 fa 6f bd 46 fe b8 bc 9f 91 a4 3d d8 51 29 bd
       -0.058588505 -0.022582185 0.080355875 -0.041337818
0001b0 02 bf 5c bd c2 9d 2f bd 90 33 08 3d e2 be 39 3d
       -0.053893097 -0.04287506 0.0332523 0.045348056
0001c0 5d 1f b9 3d bc 46 8b bc 29 58 57 3d 14 60 a9 3a
       0.09039185 -0.017001502 0.05257431 0.001292231
0001d0 3c a5 8e bd 35 45 35 bd 75 f9 6a 3c 38 22 be 3d
       -0.0696511 -0.044255454 0.014341702 0.092838705
0001e0 7a ad 35 bb 93 c3 fa bc 0a 9d 85 bd f6 e7 b1 bd
       -0.0027721808 -0.030610835 -0.065240934 -0.08686821
0001f0 48 b3 ae bc 2d 1e b7 3b 0b 82 b2 bd 67 ff 77 3d
       -0.021325722 0.005588314 -0.0871621 0.060546305
000200 ab 8f 12 3d e7 f9 b9 3d 4f b6 54 bc f1 4e 0f 3d
       0.035781544 0.09080868 -0.012982919 0.034987394
000210 ad ca 45 bd fb e1 9b bd d2 6d 00 bc a4 e1 15 bd
       -0.04828899 -0.07611462 -0.007838683 -0.03659214
000220 42 68 d2 3c d3 cd ad bd be 21 9a bd 70 d9 31 3d
       0.02568448 -0.084865235 -0.07525967 0.043420255
000230 78 a3 6a 3d f7 7b 9a bd 71 fb 61 bc 33 57 d6 3c
       0.057284802 -0.07543176 -0.013792858 0.026164627
000240 2a 36 2a bc 38 79 b8 3d d5 84 0e bd a8 a2 f9 bc
       -0.01038889 0.09007496 -0.034794647 -0.030473068
000250 1e 21 99 bd dd f0 ff ba 26 49 0e bd 72 19 24 3d
       -0.0747702 -0.0019526739 -0.03473773 0.04006333
000260 7f 6a 02 bd f0 30 35 bd ca be 8d bc 70 1e 86 3d
       -0.031839844 -0.044236124 -0.01730289 0.06548774
000270 bc e1 b2 bd cd 8d 42 3c 4e 25 cf bc 46 a3 50 3c
       -0.08734462 0.011874628 -0.025286343 0.01273424
000280 9f ad 62 bd 53 a4 c4 bd 90 d4 90 3c f1 0c 90 bd
       -0.05534136 -0.09601655 0.017679483 -0.070337184
000290 7e 43 89 bd b6 1f 15 3d 91 89 81 3d b8 09 ad 3c
       -0.06702326 0.036407195 0.06325067 0.021122798
0002a0 8e 43 d5 3c ea 88 5d bd 5d 31 60 3c f8 36 20 3c
       0.02603319 -0.05408565 0.013683644 0.009778731
0002b0 40 c8 39 bc f9 c8 8b 3d c1 f7 e6 3c c0 a0 5b bd
       -0.011339247 0.06825442 0.02819431 -0.0536201
0002c0 23 2c 97 bc 8f 2d 85 3d 4f 7f 84 3c 19 81 c3 bc
       -0.018453663 0.0650283 0.016173987 -0.02386527
0002d0 85 2a ab bd e1 c4 b5 bc 33 0a 7d 3d 36 b0 b1 3d
       -0.08357719 -0.022188606 0.061777305 0.08676188
0002e0 8a 60 88 3c 4b 27 98 bd b6 d9 53 bd 5c 84 82 3d
       0.016647596 -0.074293695 -0.051721297 0.06372902
0002f0 c9 a4 b3 bb b4 18 50 3d 4b ca 64 bd 9d 92 db bc
       -0.0054822904 0.05080481 -0.055856984 -0.02680331
000300 64 99 93 bc 31 2f 68 bd 62 97 ae bc 5c 86 41 bc
       -0.018017478 -0.05668563 -0.02131242 -0.011811819
000310 29 ef 88 bd b9 42 91 3d 48 96 7a 3d e6 31 82 3d
       -0.06686241 0.070928045 0.061178476 0.063571736
000320 16 de d5 bb fd 35 03 bd f9 9f 98 bd 19 55 ee bb
       -0.006526719 -0.03203391 -0.07452387 -0.007273328
000330 40 99 8f 3d ff a2 20 bb b0 2a f6 bc 6b c3 50 3d
       0.07011652 -0.0024511216 -0.030049652 0.050967615
000340 b2 34 8b 3d 18 3e 41 bc 93 e0 ff bc 75 54 50 3d
       0.0679716 -0.011794589 -0.031235015 0.050861795
000350 60 87 94 bd 3e bc 5d 3d 29 d3 b2 3b 2c 6b 35 bd
       -0.07252383 0.0541346 0.005457301 -0.04429166
000360 82 b7 85 bc 5b cd 56 bd 8a bd b4 3c 59 6d 30 3c
       -0.016322855 -0.052441936 0.022063036 0.010768258
000370 15 02 c8 bc f0 f9 ba bd f8 30 1a bd 43 0c 3a bc
       -0.024415055 -0.09129703 -0.037644356 -0.0113554625
000380 b3 46 97 bd 46 76 7c 3c 93 e6 a1 3d 57 c9 4c bd
       -0.07386532 0.015409058 0.07905307 -0.0499967
000390 8a c6 6d 3d 8e 9f 5a 3d 89 3f c9 3c 05 c4 af bc
       0.05805067 0.05337482 0.024566429 -0.021455774
0003a0 dc 4b 9f bd e3 71 37 3d cf f6 17 3d 7c f8 9e bd
       -0.07778141 0.044786345 0.03710061 -0.077622384
0003b0 85 5f 89 bd d9 9a a1 3d 06 ac 29 bd f2 53 f4 3b
       -0.06707672 0.07890863 -0.04142382 0.007456296
0003c0 1b a4 55 bc c2 e8 a0 3d d3 e6 1f bd 64 ce 4f bc
       -0.013039614 0.07856895 -0.03903849 -0.012683485
0003d0 29 a7 95 bd 12 9b 83 3d 7b ef a5 3d 2e 19 0a bd
       -0.07307274 0.06426062 0.08102318 -0.03371542
0003e0 9b 14 c3 bd 96 19 33 3d 7e 11 f3 3a e7 8a d7 3b
       -0.095254146 0.043725573 0.0018544642 0.0065778377
0003f0 f9 2f 82 bd 5e a4 ee bc fe b4 95 bd e5 ab c6 bb
       -0.06356806 -0.02913111 -0.07309912 -0.006062972

model.fc.2.bias f4 [64]
000000 fe 7d 81 bd 43 ee 56 3d dd 91 fc 3c b4 96 87 3d
       -0.06322859 0.052473318 0.030831272 0.06620541
000010 14 a5 f7 bc d2 46 ff bc a5 07 9d bd 76 c8 ae 3c
       -0.030230083 -0.0311617 -0.07667474 0.021335822
000020 89 d0 72 bd 96 b9 30 3c bd 46 a6 bd 84 7b 91 3d
       -0.059280906 0.010786435 -0.08118961 0.07103637
000030 dd 1f fd 3c 90 ee 8f bc 9d 25 e3 3b 17 ec a1 3d
       0.030898983 -0.01756981 0.006931974 0.07906359
000040 c5 f7 3e bd 1a 10 14 3d 5a a9 0e 3c be 40 d0 39
       -0.04662301 0.03614817 0.008707369 0.00039721088
000050 11 0f 25 bd 05 8e 10 bd be d0 ac 3d 2c f8 36 bd
       -0.04029757 -0.03529169 0.08438252 -0.04467027
000060 74 d4 90 3c d7 06 0c 3d 6b 1f 88 3c 54 e2 c4 bc
       0.01767943 0.03418621 0.016616544 -0.024033703
000070 f5 ce 25 3d f7 72 99 bc 14 c5 a1 bc dd 57 61 3d
       0.040480573 -0.018731577 -0.019747294 0.055015434
000080 c2 94 6c bc b9 3b 0e bd 16 46 7a 3b c5 10 8f bd
       -0.0144397635 -0.034724925 0.0038188747 -0.069856204
000090 ed 36 5b bd c5 72 98 bd f1 94 ad 3d 4e 40 a8 3d
       -0.05351918 -0.074437656 0.08475674 0.0821539
0000a0 08 f2 3e bb 2d be 1d 3d c7 79 9a bd 5b 9f 93 3d
       -0.002913596 0.038511444 -0.075427584 0.07208129
0000b0 3b c9 c8 bc e2 71 a7 3d fe ef 8d 3d 57 43 99 3d
       -0.024510017 0.08176018 0.069305405 0.07483547
0000c0 74 2e 14 bc d0 ed 6b 3d 13 b6 89 3d 5b 2e db 3c
       -0.009044278 0.057599843 0.06724181 0.026755502
0000d0 b2 1a a4 bd c0 08 3b 3d 10 72 ad 3d 7a 9f a9 3d
       -0.08012904 0.04566264 0.08469021 0.08282371
0000e0 b6 be b1 3d 74 13 82 bd a9 3f 09 bb 5a d3 41 3d
       0.08678953 -0.06351367 -0.0020942485 0.0473207
0000f0 f0 4d 5c bc 84 68 b7 bd f3 ba 85 bd 06 13 85 3d
       -0.013446316 -0.08955482 -0.06529798 0.06497769

model.fc.3.weight f4 [64]
000000 a9 45 82 3f 84 c4 80 3f 8c dc 7e 3f bd 73 7d 3f
       1.0177509 1.0059972 0.9955528 0.9900473
000010 49 53 7b 3f a4 dd 81 3f bf 55 82 3f 37 27 7c 3f
       0.9817396 1.0145764 1.0182418 0.9849734
000020 68 9a 7d 3f 8b da 7b 3f 95 e8 7e 3f 6b 03 7b 3f
       0.9906373 0.98380345 0.9957364 0.9805209
000030 43 5c 7a 3f a5 2a 80 3f 52 d2 7e 3f e3 d9 80 3f
       0.9779703 1.0013014 0.99539673 1.0066494
000040 d0 1d 7c 3f 01 e4 80 3f 06 64 81 3f d4 76 7b 3f
       0.9848299 1.0069581 1.010865 0.9822819
000050 ce 4f 82 3f 11 e0 80 3f ad 5b 7e 3f 9f 85 7a 3f
       1.0180604 1.006838 0.99358636 0.9786014
000060 9e 82 81 3f 7a d9 82 3f 3c 85 7d 3f 16 fe 82 3f
       1.0117986 1.0222619 0.99031425 1.0233791
000070 e9 ac 7e 3f f5 f6 7a 3f 39 84 7e 3f ed 6b 7e 3f
       0.9948259 0.98033077 0.99420506 0.9938343
000080 6a 5b 7e 3f df 43 81 3f 5f a6 81 3f 7c a5 82 3f
       0.99358237 1.0098838 1.0128897 1.0206752
000090 20 86 80 3f ff 3c 85 3f 7c 43 7c 3f 22 52 81 3f
       1.0040932 1.040924 0.98540473 1.010319
0000a0 b7 63 7a 3f f1 09 7f 3f 84 ad 78 3f a9 94 80 3f
       0.978084 0.99624544 0.97139764 1.0045367
0000b0 fb 00 83 3f 48 68 80 3f 6b 7f 7d 3f 82 66 80 3f
       1.0234674 1.0031824 0.9902255 1.0031283
0000c0 87 b1 7f 3f a2 0c 81 3f 65 b0 81 3f fa fe 7f 3f
       0.9988026 1.008198 1.0131956 0.9999844
0000d0 50 11 83 3f 7b 84 80 3f 96 45 7e 3f 36 1c 7d 3f
       1.0239658 1.004043 0.9932493 0.9887117
0000e0 e3 61 80 3f fa 7a 81 3f d1 24 82 3f 91 ea 7b 3f
       1.0029873 1.0115654 1.0167485 0.98404795
0000f0 77 8d 81 3f 91 40 7c 3f 01 61 7b 3f 13 40 80 3f
       1.0121297 0.9853602 0.9819489 1.0019554

model.fc.3.bias f4 [64]
000000 36 a0 7f 3c 3c 1a 12 3c 52 54 1c bb 8c ca a5 bc
       0.015602162 0.008917388 -0.002385397 -0.020238183
000010 f8 f6 93 bc 19 a7 ea b9 49 c9 96 3b e6 c9 a0 bb
       -0.0180621 -0.00044756455 0.004601632 -0.0049068807
000020 ba 4f fe bb 25 77 e9 bb 86 a6 c6 b9 eb 13 71 bc
       -0.007760969 -0.007124799 -0.00037889573 -0.0147142215
000030 f0 70 c8 bc 0b 1b ee 3a 1c 65 15 bb 61 a5 08 3c
       -0.024467915 0.0018166018 -0.0022795862 0.008340211
000040 16 f3 41 3a 1b 3a 0b 3c d0 28 13 3b da 5e 89 bc
       0.00073985884 0.00849774 0.0022454746 -0.016768862
000050 6a 73 72 3c 87 43 8a ba ee 00 83 bb c5 74 20 bc
       0.014798025 -0.0010548689 -0.0039979136 -0.009793465
000060 90 1d 10 3a 24 60 a3 3c 43 d0 9e bc 4a 51 91 3c
       0.0005497569 0.019943304 -0.019386416 0.017738957
000070 68 02 52 bc db 68 bf bc 8a 3d 0f 3c 0a 87 44 3c
       -0.0128179565 -0.023365429 0.008742699 0.011995086
000080 a7 6b d4 bb e7 27 0c 3c af a3 a3 3c 2b e4 78 3c
       -0.0064825597 0.008554435 0.019975511 0.015191118
000090 ce ec ea 3b 76 43 ae 3c 7f 01 13 bc e1 18 a1 3b
       0.0071693426 0.021272402 -0.008972525 0.004916296
0000a0 be 9c c0 bc d4 6a 4f bb 5c 3b a5 bc 10 a7 8d ba
       -0.02351224 -0.0031649368 -0.020169906 -0.0010807235
0000b0 9c 28 85 3c 7a 9d 70 bb d2 ea a0 bc 84 02 44 3a
       0.016254716 -0.0036714957 -0.019643221 0.00074771815
0000c0 38 f9 bc bb ae e5 fe 3c 64 48 3a 3b c0 49 2f bb
       -0.005767014 0.03111538 0.0028424496 -0.002674684
0000d0 c7 0e a3 3c 7b 4a 03 3c f6 29 15 bc 16 c8 0c bb
       0.019904507 0.008013363 -0.009104243 -0.0021481565
0000e0 a7 9b c6 bc 47 52 eb b9 8a 14 e4 bb 83 5a 90 bc
       -0.024244143 -0.00044883994 -0.0069604563 -0.017621284
0000f0 2a 84 c8 3c 0c 20 70 bc 75 00 b4 bc 99 ca 37 bc
       0.024477083 -0.014656078 -0.021972874 -0.011217737

model.fc.3.running_mean f4 [64]
000000 a8 28 1f be 60 52 23 bd ff 39 5c 3d c7 f6 52 3e
       -0.15542853 -0.03987348 0.053766247 0.2060195
000010 82 47 25 3c 9e 4a b9 bd be 99 2c be 7a a5 90 3c
       0.01008785 -0.09047435 -0.16855523 0.01765703
000020 88 ec b2 3c 8a 87 d8 bd 3f 7c 00 bd 76 f7 d3 bd
       0.021841303 -0.10572727 -0.03136849 -0.10349934
000030 04 96 41 be e7 df 1f 3d 92 46 93 3d 10 86 b8 3d
       -0.18904883 0.03903189 0.071911946 0.090099454
000040 3a e8 56 be 65 30 9f 3d 36 2b 1f bc 5b ad ad bd
       -0.20987025 0.077729024 -0.009714892 -0.084803306
000050 1c 87 28 3d 19 8d ff 3c 39 67 ae bd 74 f4 06 bc
       0.041144475 0.03119521 -0.08515782 -0.008236993
000060 82 4b 10 3e ed 83 c8 3d 1c 10 b0 3c 69 21 2b be
       0.14091304 0.09790788 0.021492057 -0.16711964
000070 c7 2d 64 3d 69 0d 1f 3b 65 53 05 3d c3 8b 5a 3d
       0.05570772 0.0024269468 0.032550234 0.053355943
000080 4d aa 27 3c 47 20 8e bd cf ba 63 bd ab 33 66 bd
       0.010233474 -0.0693975 -0.055598076 -0.05620162
000090 aa 02 10 3d 42 6f b6 bc 73 37 48 3e 05 e9 ef bb
       0.03515879 -0.022269849 0.19552402 -0.0073214793
0000a0 a2 68 91 bd 32 8d 88 3d 4a 08 9b bd ce 71 5b bc
       -0.07100035 0.06667556 -0.075699404 -0.013393832
0000b0 c1 08 41 be d8 95 92 3d 7d a5 38 3e 34 84 82 bb
       -0.18850996 0.07157487 0.18031879 -0.003983045
0000c0 d6 37 28 3d 13 e7 ab 3d a3 76 e0 3d f8 d7 c1 bd
       0.041068874 0.08393683 0.10960128 -0.09465021
0000d0 a9 06 58 be 57 64 f0 3d 87 e2 67 3e 6e 23 a2 3c
       -0.2109629 0.11737888 0.22645007 0.019792285
0000e0 68 44 83 3c bd 57 8d bd 19 9d e8 3c a0 3a 06 be
       0.01602383 -0.069015004 0.028395222 -0.13108301
0000f0 4c 5d 97 bd 55 36 7f be b9 25 13 be 1d e3 54 3d
       -0.07390842 -0.2492307 -0.14369859 0.051974405

model.fc.3.running_var f4 [64]
000000 c4 06 5f 3d f4 88 06 3d 85 c5 6d 3d 7e b1 25 3e
       0.05444981 0.032845452 0.058049697 0.16180989
000010 69 0a ac 3d bd 00 ad 3d 7b 93 00 3e fe 15 4c 3d
       0.08400423 0.084474064 0.1255626 0.04982566
000020 67 83 1f 3e da 96 54 3d ed ba 1c 3e 8a 95 ca 3d
       0.1557747 0.051901676 0.15305682 0.098918036
000030 23 d6 62 3d 2d 26 0f 3e cd 6c cb 3d 34 1e 09 3e
       0.055379998 0.13979407 0.099328615 0.13390428
000040 e9 1b 6a 3d 38 19 70 3d 84 90 e2 3d fd 2f 50 3d
       0.057155523 0.0586178 0.110627204 0.050827015
000050 f8 b3 f0 3d 1d 6b fa 3c cf 3b 24 3d 13 f0 25 3e
       0.11753076 0.030568654 0.0400961 0.16204862
000060 5a bd 18 3e 56 75 1c 3e f1 4e 06 3e d9 c4 1a 3e
       0.14915982 0.15279135 0.13116051 0.15114154
000070 bd b3 d4 3d 4f d4 68 3e 44 22 f7 3d 77 d6 43 3e
       0.10385845 0.2273724 0.120670825 0.1912478
000080 d2 59 6d 3d d9 cf 90 3d 6f 8f 04 3e ea d7 e1 3d
       0.057946987 0.07070894 0.1294534 0.110275105
000090 cc bc 83 3d 17 b4 bd 3d 4d b6 27 3d ca be 8d 3d
       0.064324945 0.09262865 0.04094534 0.06921156
0000a0 e6 82 a5 3d 4d a8 92 3d f3 2c 21 3e 0c a5 48 3d
       0.080816075 0.07161007 0.15739803 0.048985526
0000b0 e5 66 e6 3d a4 67 60 3d 8e 1c d3 3d ee c1 c7 3d
       0.11250094 0.05478634 0.10308181 0.09753786
0000c0 19 64 f7 3d 9d b2 7b 3d d2 02 2f 3e 76 f7 8d 3d
       0.12079639 0.061449636 0.1709092 0.06931965
0000d0 42 86 fe 3d 35 03 d8 3d e6 aa f3 3d b3 af 9a 3d
       0.124279514 0.10547487 0.11897831 0.07553043
0000e0 4a a7 b8 3d 86 f7 4f 3d 72 67 87 3d 26 ac dc 3d
       0.09016283 0.050773166 0.066115275 0.10775022
0000f0 1d 71 20 3d 02 14 21 3d 0d 50 a6 3d 03 34 a8 3d
       0.039170373 0.03932572 0.08120737 0.082130454

model.fc.6.weight f4 [32, 64]
000000 91 41 fa 3d ff 4b c5 bc ad f7 53 bd c3 ff c8 3d
       0.12219537 -0.02408409 -0.051749874 0.09814408
000010 8e cc 3d ba 41 32 b2 bd 62 b1 ae bc 3f 3c 2c 3d
       -0.0007240259 -0.087009914 -0.021324817 0.042049643
000020 50 f0 ab bd fc 2f d4 3d f6 b8 24 3d 5c 94 80 3d
       -0.08395445 0.10360715 0.040215455 0.06278297
000030 11 09 2d bd c0 7b 18 bd 16 20 f5 bc 75 1c ea bd
       -0.042244975 -0.037227392 -0.029922526 -0.11431209
000040 fa 66 06 3e 2b 29 be bd 89 8b 8b 3c 0b 8d 92 3d
       0.1312522 -0.09285196 0.017034309 0.07155808
000050 93 58 5e 3d 12 55 ec bc be 6a 93 3d 67 34 00 3e
       0.05428369 -0.028849158 0.07198094 0.1251999
000060 5b ca 41 3d b5 a7 d6 bd 31 0d 07 3d 64 b2 b2 bd
       0.04731212 -0.10481206 0.032971565 -0.087254316
000070 32 2f 80 3d 42 4f da 3d 91 47 0b be fc 17 a3 3d
       0.06259002 0.106596485 -0.13601519 0.07963559
000080 57 8e 3c 3d 12 0b dd 3c 24 cd db bd cc d9 94 bd
       0.046034183 0.026982818 -0.10732487 -0.07268104
000090 06 e1 54 3d 39 48 8f 3d 2c 79 0c bc e1 60 69 3d
       0.05197241 0.06996197 -0.0085738115 0.056977157
0000a0 36 27 a5 bd 41 f4 c1 bd 5d 6e 41 3d a5 0e 09 be
       -0.080641195 -0.09470416 0.04722439 -0.13384493
0000b0 41 6b 32 bd a2 1b db 3d ef a1 bd bd 7a 1b dd 3d
       -0.043559317 0.1069863 -0.09259402 0.10796256
0000c0 7d da ad bd fe 28 8c 3d be 24 6f 3d 7f 61 bf bd
       -0.08488939 0.06843756 0.05838465 -0.09344768
0000d0 33 b9 ed bd 5b a9 a1 bd 1d a5 c9 3d 7a 8d e3 3d
       -0.116075896 -0.0789363 0.09845946 0.11110969
0000e0 2b 74 e0 3d 31 4e fd 3c a6 f7 0e 3e 35 5e ac bd
       0.10959657 0.030921074 0.13961658 -0.08416406
0000f0 eb a0 01 3e d1 7a 4f bd 6d 65 01 bc 7b ef 48 3d
       0.12659042 -0.050654236 -0.007897717 0.04905651
000100 f0 cf be 3d 45 cc 4a 3d 99 8c e6 3d 2b 86 b3 bd
       0.09317005 0.049511213 0.112572856 -0.08765825
000110 37 55 de bd 76 b3 e6 bc d3 70 8d 3b 94 ba 85 3d
       -0.10856097 -0.028161746 0.004316428 0.065297276
000120 22 87 a4 bd 62 73 9d 3d fb 69 60 3c 7a a4 1e bc
       -0.08033587 0.07688023 0.013697143 -0.009682769
000130 cf b8 c9 3d 56 38 b4 3c a9 86 90 bd 4c 68 e0 bd
       0.098497026 0.02199952 -0.070569344 -0.10957393
000140 ae 99 ee bd 44 b1 09 bd 8c 96 35 bb ee 02 ad bd
       -0.11650406 -0.03361632 -0.002770814 -0.084478244
000150 75 a9 91 3d a7 3f 27 bc 16 e4 ce bd 14 7c e2 bb
       0.071123995 -0.010208047 -0.10102098 -0.006911764
000160 e7 9d 07 3e b1 b4 b4 bd fb 33 8e bd 40 c5 2b bd
       0.13243829 -0.08823527 -0.06943508 -0.04193616
000170 93 3b 8e 3d b4 dd ee 3d 06 c7 6c 3d 03 1b 6e bc
       0.06944957 0.1166338 0.05780699 -0.014532807
000180 a7 b0 3b 3d 7a 5a 92 3d 64 a2 b3 3d 02 64 c1 bd
       0.045822766 0.07146163 0.08771208 -0.09442903
000190 cd 7e 93 3c 23 db 3d bd 48 2c c8 bd a2 61 96 bd
       0.0180048 -0.046351563 -0.09774071 -0.07342841
0001a0 86 70 a0 3d 53 da 82 bd 1e 2c 1a bc 0c 0c af 3d
       0.07833962 -0.06389298 -0.009409932 0.0854722
0001b0 b5 e5 62 3c 08 2d b5 3c 05 61 81 3c 5a 69 cb bd
       0.013848712 0.0221162 0.015793333 -0.099322036
0001c0 ad de 46 3d b3 c8 0b 3e 36 59 d8 bc 81 22 d1 3c
       0.048552204 0.1365078 -0.026409727 0.025529148
0001d0 ae ee 78 3c a5 13 f1 bc 04 88 9f bc 5b 5f ed bd
       0.015193624 -0.029428313 -0.019474037 -0.11590453
0001e0 2d 15 a0 bc 08 4a 6d 3d 45 3a e7 3c ff ec d8 3d
       -0.019541347 0.05793193 0.028226027 0.105920784
0001f0 df bc 6a 3d b3 27 83 3d 3b 8b eb 3c 97 96 6e bd
       0.057309028 0.064040564 0.028752914 -0.058249082
000200 ff 4d 91 bd ec 4c 81 bd 9e 90 67 3d ef 0b 8b bb
       -0.07094955 -0.063135 0.056534402 -0.004243366
000210 93 e6 e3 bd 3c 1c d5 bd 32 31 a7 3d 9e 04 b0 bd
       -0.11127963 -0.10405776 0.0816368 -0.08594631
000220 e2 9a 9e 3d 20 0d 00 be 87 29 41 3d 59 c9 ee bd
       0.07744385 -0.12505007 0.047158744 -0.11659498
000230 88 01 cd bd 3f 29 f2 bd 66 ea 2a bc 93 a7 81 3c
       -0.10010058 -0.11824273 -0.0104318615 0.015826976
000240 0a 33 07 bd 57 41 c7 3d dd 2d d3 3d 91 17 e4 3d
       -0.03300766 0.097292595 0.10311482 0.111373074
000250 f9 73 cc bd 18 55 f5 bc 0c 7f 5f 3d 8b cd 68 3d
       -0.099830575 -0.029947802 0.05456452 0.056836646
000260 9e d9 d9 bc 28 e0 cb bd f1 21 df 3d 5c 83 95 3d
       -0.026593026 -0.09954864 0.10895146 0.073004454
000270 bf 21 5d 3d 5c d5 f4 3d a8 be 15 bd 11 0b 29 3d
       0.05398726 0.119547576 -0.036558777 0.04127032
000280 61 07 0d 3e d9 69 d6 3d 63 34 0d 3e de 81 f4 3d
       0.13772346 0.104694076 0.13789515 0.11938833
000290 a1 10 ac bd 5b 8e 95 bc cf 1b 52 3c 8f a0 41 3c
       -0.08401609 -0.018256357 0.012824013 0.011818065
0002a0 46 d9 f9 bd 8b 9a 2a bd 19 cd 75 3d ad 81 8b 3d
       -0.12199645 -0.04165129 0.06001005 0.06811843
0002b0 17 aa 92 3d f3 a7 d5 3d b4 d1 c8 bd f7 d0 12 bd
       0.07161348 0.104324244 -0.09805623 -0.035843816
0002c0 32 a6 85 bd 6a 3d c9 bd 98 8f 3c bc 43 5a 3b bd
       -0.0652584 -0.09826167 -0.011508845 -0.045740377
0002d0 78 5f ed bc cc ea ad bc 8c 17 fc 3d 5f 1c 1a bd
       -0.028976187 -0.021230124 0.12309179 -0.037624713
0002e0 b4 23 a6 3d 59 d3 1e bd a4 36 51 3d ce 39 cd bd
       0.081122786 -0.038775776 0.0510775 -0.10020791
0002f0 2c a3 04 be c6 dd f2 3d b7 36 d4 bd df f9 5e bd
       -0.1295287 0.11858706 -0.103619985 -0.054437514
000300 c5 76 a2 bd c4 83 45 3d 17 37 1a bd c2 9c f4 bd
       -0.0793281 0.048221365 -0.037650194 -0.11943962
000310 6e 0a 54 3d ab 2f 7b 3d 67 f9 61 3c 43 92 ff bd
       0.05176776 0.061324757 0.013792372 -0.12479069
000320 bb 56 b4 bd 7f 03 d0 3d ce 3d f7 bc 1d d1 bd bc
       -0.08805605 0.10156917 -0.030180838 -0.023171002
000330 ff 7e b7 3d eb 3f 45 3c 0b a0 9a bd 69 20 cb bc
       0.089597695 0.012039165 -0.07550057 -0.024795728
000340 e2 f7 ef 3c 6f 9e c7 3d 29 51 8d bd 2b 8c 88 bd
       0.029293004 0.09747016 -0.06900246 -0.0666736
000350 0b 57 9d 3d 07 3f e7 3d c8 9e 1a 3d 68 63 9c bd
       0.07682618 0.112913184 0.03774908 -0.07636148
000360 c9 3e 7c bd 14 19 d1 3d a0 08 91 bd af d5 bf bd
       -0.061583314 0.102098614 -0.07081723 -0.09366929
000370 95 ad 99 3d 24 4b 9e bc ff 46 af bb 92 00 8f bd
       0.07503811 -0.01932294 -0.0053490396 -0.06982531
000380 57 8b e3 bd 93 b4 54 bd 47 2e ac 3d cd 15 1b 3d
       -0.11110561 -0.05193002 0.08407264 0.037862588
000390 a2 e0 ad 3d f9 25 c6 bd b4 15 7c 3c ce a8 ae bd
       0.08490111 -0.096752115 0.015386034 -0.08528291
0003a0 22 f8 c4 bd 38 44 73 bc 9d 4d 90 3d 59 d8 01 bd
       -0.0961764 -0.014847808 0.070460536 -0.031700466
0003b0 c8 20 0e bd 13 d2 e3 3c 0d 32 d2 bc 26 35 6f bd
       -0.03469923 0.027810132 -0.025658632 -0.058400296
0003c0 8f 12 60 3c 1f 80 57 bd 0b 05 bd 3d 50 cc a1 bd
       0.0136763 -0.05261242 0.092294775 -0.07900298
0003d0 dd dd 5b bd 90 05 c8 bd 99 98 ff bd 2c f2 bf 3d
       -0.053678382 -0.09766686 -0.124802776 0.093723625
0003e0 b5 a6 d5 3d 2c 15 8a 3c 54 1b e4 bd 74 83 b9 3d
       0.104321875 0.016855799 -0.11138025 0.09058276
0003f0 9d 63 b1 3d bd 85 b0 bc a5 7f 3b bd ef 88 da 3d
       0.08661578 -0.021548146 -0.04577603 0.10670649

model.fc.6.bias f4 [32]
000000 68 21 e7 bd 01 a4 4c bd 8d 3d b9 bd 45 3d ea 3c
       -0.112856686 -0.049961094 -0.09044943 0.028593669
000010 f6 64 c5 bd 31 88 6b 3c d5 35 c2 3d c9 c5 4b bd
       -0.096383974 0.014375732 0.09482924 -0.04974917
000020 1b 1b ba 3d ff 1f 1e 3c eb 15 38 bd c5 3f 7a 3d
       0.09087201 0.009651183 -0.044942778 0.06109597
000030 01 77 3c 3c 49 25 98 bd b6 5c b1 bd a4 6a 04 bc
       0.011502982 -0.074289866 -0.08660261 -0.008082066
000040 60 90 ce bb f3 b8 a3 3d af c5 81 bb 60 06 a9 bc
       -0.006303832 0.07994261 -0.0039603333 -0.020632923
000050 e9 dc 98 bd 56 ec 76 bd 24 1c 0c 3d b9 9a 04 3d
       -0.0746401 -0.06028398 0.034206524 0.032374118
000060 d1 ee c8 3d b5 3e f5 3d 72 58 c9 3d 93 6a 61 bd
       0.098111756 0.11974851 0.09831323 -0.055033278
000070 a0 c2 4f bd ca 7a 71 3c d6 f5 ba 3d c4 b7 72 3c
       -0.05072272 0.014738748 0.09128921 0.014814321

model.fc.7.weight f4 [32]
000000 6d f8 79 3f 36 76 81 3f ad b8 84 3f b9 9f 7a 3f
       0.9764469 1.01142 1.0368859 0.9789997
000010 4e 65 83 3f ca 2a 7c 3f b5 28 7c 3f 92 20 7f 3f
       1.0265291 0.9850279 0.98499614 0.99659073
000020 b5 e1 80 3f 5a ab 7f 3f 10 48 7c 3f 93 cf 7f 3f
       1.006888 0.99870837 0.9854746 0.9992611
000030 11 54 7f 3f 2b de 83 3f c9 7a 7f 3f f7 ca 7f 3f
       0.9973765 1.0302175 0.9979673 0.99919075
000040 0e 37 82 3f 45 44 77 3f 7a dd 7c 3f 7b bf 7f 3f
       1.0173051 0.96588546 0.98775446 0.9990155
000050 9f 0d 80 3f ef 4e 82 3f e9 43 79 3f 3f 4b 7a 3f
       1.0004157 1.0180339 0.9736925 0.97771066
000060 c1 15 7d 3f 9e c5 80 3f e0 86 7a 3f 30 df 7b 3f
       0.9886132 1.0060308 0.9786205 0.9838743
000070 4a 24 84 3f 54 84 7a 3f 65 49 85 3f bd e5 7f 3f
       1.0323575 0.97858167 1.0413023 0.9995993

model.fc.7.bias f4 [32]
000000 75 64 cb bb e1 ad 5c 3c 7c 2c ef 3c 9e c6 82 bc
       -0.006207044 0.01346919 0.029196016 -0.015963849
000010 23 d7 16 3d da 4e 6b bc c3 7d 09 bc 2d 04 0d 3b
       0.036826264 -0.014362061 -0.0083918 0.0021517382
000020 f2 af ed 3a 87 3f 8e 3a d5 b8 43 bc 67 07 11 ba
       0.0018134101 0.0010852673 -0.011945923 -0.0005532414
000030 4c 19 c7 3b e9 85 fc 3c 5a e5 ca 3a d7 02 b2 bb
       0.0060760137 0.030825572 0.0015479729 -0.0054324674
000040 25 bd 8e 3c 3d b8 58 bc 94 c5 73 bb 46 bb 8e 3b
       0.017424176 -0.01322752 -0.0037196623 0.004355821
000050 66 a1 93 3b 5a b2 e8 3b 0d e8 04 bc f8 2d f9 ba
       0.004505324 0.0071013393 -0.008111966 -0.0019010892
000060 d0 66 c1 bb f7 d6 ef 3c 9e ed 82 bc 73 9c b4 bc
       -0.005902149 0.029277308 -0.015982445 -0.022047257
000070 a5 0a 29 3d 91 1b a7 ba 92 f1 61 3d e2 f7 51 bc
       0.041269917 -0.0012749304 0.05516202 -0.0128154475

model.fc.7.running_mean f4 [32]
000000 06 0a bf 3b a8 72 57 bc c0 70 b7 bd e4 5f c0 bd
       0.0058300523 -0.013149895 -0.08957052 -0.0939329
000010 02 68 17 be d5 af 9d bd 18 51 fc 3d 70 75 ad be
       -0.1478577 -0.07699553 0.12320155 -0.3387866
000020 07 6a aa bd bd 12 1f be 91 8c d0 be 1e 35 16 bd
       -0.08321004 -0.15534492 -0.40732244 -0.03667175
000030 ec e2 87 bd 7e 17 ad bd f9 13 06 3e a5 ac 92 bd
       -0.06635079 -0.084517464 0.13093556 -0.071618356
000040 16 d5 a5 3d 28 e4 82 3d 0c a8 ae 3d 82 07 c0 bd
       0.080972835 0.063911736 0.08528146 -0.09376432
000050 26 ea db bc 5f b2 0e 3d c8 7a 14 3e 4a 98 ce 3d
       -0.02684505 0.034838077 0.14499962 0.100876406
000060 19 03 c6 3c f2 d7 8d 3e c2 72 e6 bd 63 ed d2 3b
       0.024171399 0.27703816 -0.11252357 0.00643699
000070 1a b9 23 bb c5 71 9b 3d a5 51 b2 3e 74 cc 32 3e
       -0.0024982155 0.07590059 0.34827915 0.17460805

model.fc.7.running_var f4 [32]
000000 41 51 81 3e bf 8e 27 3e c0 5b 48 3f 3a ea 3a 3e
       0.25257304 0.16363047 0.78265 0.18253413
000010 22 af 9a 3e 40 f6 83 3e 5a 34 c9 3e 77 16 82 3e
       0.3021174 0.2577381 0.39297754 0.25407764
000020 aa f8 30 3e 8d 78 53 3e 35 42 90 3e f4 8e ae 3e
       0.17282358 0.20651455 0.28175512 0.3409344
000030 e5 4a 86 3e ec d4 08 3f 5c e2 43 3e 0a 09 2d 3e
       0.26229015 0.53449893 0.19129318 0.1689798
000040 22 96 e1 3e e7 6e 69 3e 96 0d 11 3e 8b a4 90 3e
       0.44059855 0.22796212 0.14165339 0.28250536
000050 93 56 ed 3e 1f 4d e6 3e 08 da b2 3e 55 cb e9 3e
       0.46355113 0.44980714 0.3493197 0.45662943
000060 33 a1 bd 3e cb be 3d 3e e3 78 5f 3e 29 c4 5e 3e
       0.37037048 0.18529813 0.21823458 0.21754517
000070 f9 2e eb 3e a6 9f 9e 3e 4b 5c 32 3f e4 b3 1f 3e
       0.45934275 0.30981177 0.6967208 0.15595967

model.fc.10.weight f4 [16, 32]
000000 6b 25 90 bd a4 e5 81 bd cc 8d 0a bd 89 30 19 3e
       -0.07038387 -0.063426286 -0.033826634 0.14959921
000010 51 bb 98 bd 84 9b 1d be a6 9a b0 bd 21 e1 16 3e
       -0.07457603 -0.15391356 -0.08623247 0.14734317
000020 2f cf 19 bd 96 d4 22 bc 5e 59 29 bc 07 af c2 3d
       -0.0375511 -0.00993838 -0.010336248 0.0950604
000030 ec af cc 3d 9a ca 21 3e d9 0c ed bd 85 24 02 3e
       0.09994492 0.15799943 -0.11574716 0.12709244
000040 eb 46 91 3d 35 cf 82 bd 67 c8 08 be 90 98 24 be
       0.07093605 -0.06387178 -0.13357697 -0.16073823
000050 96 53 47 3c cf a2 ba bd f7 06 f6 bd b1 dc 27 bd
       0.0121659245 -0.091130845 -0.12013047 -0.040981952
000060 cc 97 cb 3d a3 21 bc bd d4 04 29 be f6 0a 41 be
       0.09941062 -0.09186103 -0.16505748 -0.18851838
000070 28 b7 d2 3c 4d 6d 0b be fc e5 2b 3d 3c f3 fe bd
       0.025722101 -0.13615914 0.041967377 -0.12448737
000080 5a ad 2d 3e b1 b5 0a 3e e6 d7 92 bd 04 c1 b5 3d
       0.1696066 0.13545872 -0.071700856 0.088747054
000090 36 5e 15 be 7e 2e cb bd 43 2d e2 bd 16 f5 2a 3e
       -0.1458672 -0.09920977 -0.11043789 0.16695055
0000a0 57 16 4c 3e 23 14 21 be 15 0e 18 be 3f 44 ef bd
       0.19930397 -0.15730338 -0.14849122 -0.11682939
0000b0 73 06 03 3e d0 67 bb 3d 58 7d a7 3d 29 ef 1c 3e
       0.12795429 0.0915066 0.08178204 0.15325607
0000c0 40 55 af 3d 17 8b ee 3d bc 3d fc bc a8 ba 1e be
       0.08561182 0.11647623 -0.030791156 -0.15500891
0000d0 f0 42 5d 3d c1 0a 05 3e 2a ea d5 3d 60 55 b0 bc
       0.054018915 0.12992384 0.10445054 -0.021525085
0000e0 47 ef 22 3e 03 11 af bb 11 90 24 be 9d 0d 13 3e
       0.1591159 -0.005342604 -0.16070582 0.14360662
0000f0 bb 08 40 bd 12 42 13 be 33 42 4a be cf d4 f2 bd
       -0.046883326 -0.14380673 -0.19751815 -0.11856996
000100 3b e3 c1 3d a1 b9 0d bd a7 c9 54 be de db a9 bd
       0.09467169 -0.034600858 -0.2078005 -0.082938895
000110 c1 f2 a5 bd a6 00 ed bd 2e 4e 0e be f5 3f ef bd
       -0.08102942 -0.11572389 -0.1389701 -0.11682121
000120 84 a8 ac bd a4 8c c3 3d e8 16 32 3d 94 ad 2f be
       -0.08430579 0.095483094 0.043478876 -0.17156059
000130 b4 bd 1d bc 7a f8 01 3e 82 37 34 be 5c 00 b5 3b
       -0.009627748 0.12692443 -0.175993 0.0055237245
000140 8f fc 51 3d bd cc 09 be f3 a4 ac 3c 34 48 d5 bd
       0.05126625 -0.13457008 0.021074748 -0.10414162
000150 2b 6a bf b9 25 6f af 3d d3 3e 2f 3e 36 f3 2b 3e
       -0.0003650946 0.08566121 0.1711381 0.16791996
000160 75 b8 9d bd a8 6f c3 bd fa 09 8b 3d 73 e0 d9 bd
       -0.07701198 -0.09542781 0.06789012 -0.106385134
000170 58 b0 0d 3c 7f 0f 94 3d 41 ca 97 3c 16 5e 0a be
       0.008648001 0.07229518 0.01852906 -0.13512453
000180 24 ee 39 bb c2 cc b1 bd bb 15 35 bd 51 5d c2 3d
       -0.0028370703 -0.086816326 -0.044210177 0.09490455
000190 7d 21 0f be 41 ed d4 bc d0 9c 44 bc 2c 71 ea bc
       -0.13977619 -0.025992038 -0.012000278 -0.028618418
0001a0 86 5c 4e 3e 50 ba ba bd 86 4d 18 bd 2c f8 06 3e
       0.20152482 -0.091175675 -0.037183307 0.13180608
0001b0 22 5b e4 bd d4 29 18 bd e4 94 18 be 6d d0 b2 3d
       -0.11150195 -0.037149265 -0.14900547 0.0873116
0001c0 59 83 3f 3d 68 71 51 bc 53 b3 10 3d 9d 13 26 3e
       0.046756122 -0.012783386 0.035327267 0.1621842
0001d0 62 a9 8b 3d 04 15 0b be 71 01 02 3e 20 07 d7 bd
       0.068194166 -0.13582236 0.12695862 -0.10499406
0001e0 3f 7b b4 bd bf 78 19 be b6 44 0d bd b8 b4 25 3e
       -0.0881257 -0.14987467 -0.034489356 0.1618222
0001f0 04 67 1c be 3d d2 cb bc 11 d3 d9 3d fb 72 81 bd
       -0.15273672 -0.024880523 0.10635961 -0.06320759
000200 bc fe d5 bd fb 1e cb bc b8 f5 6d 3d 28 b6 ac bd
       -0.10448977 -0.024795046 0.058095664 -0.08433181
000210 70 4e 9e bd 71 a9 2e bb 5b dc b7 3c a2 72 bd 3d
       -0.077298045 -0.0026651288 0.02244394 0.0925038
000220 31 5c 92 bc c2 b8 26 be 1a bb e3 bd be e4 fb 3d
       -0.017866226 -0.16281417 -0.11119671 0.122994885
000230 c0 ea ba 3d 72 68 03 be 31 e1 10 3e 77 52 a3 3d
       0.09126806 -0.12832811 0.14148404 0.07974713
000240 35 46 d9 bd 4e 55 08 be bd c5 93 3d 0b e6 89 3c
       -0.10609094 -0.13313791 0.0721545 0.016833326
000250 ae f8 6d 3d 40 99 15 bc 8f a3 9f 3d 25 e7 1b be
       0.058098488 -0.009130776 0.07794868 -0.15224893
000260 ab 47 20 3d 3d 40 51 3d c2 73 c7 3c 30 60 43 3d
       0.039130848 0.051086653 0.02434719 0.047699153
000270 8a 77 35 be fe bb b7 3d c4 5a e4 bc 78 cd e3 3a
       -0.17721382 0.089714035 -0.027875312 0.001737996
000280 e8 bb cf bd 90 19 f0 b7 52 ca 18 bd 8b 92 1b be
       -0.10143262 -2.8622133e-05 -0.037302323 -0.1519262
000290 d7 81 ab 3d 4d f7 1e 3d 12 17 20 3e 2c cc 91 3d
       0.08374374 0.038810063 0.156338 0.07119021
0002a0 2d 79 06 3e df 65 0e 3e ff 3a 01 3e 7e c7 75 bc
       0.13132162 0.13906048 0.12620161 -0.015001176
0002b0 59 a3 f5 3d 35 3e 35 be 09 69 db 3c 3b 64 c9 bd
       0.11994047 -0.17699511 0.026783483 -0.098335706
0002c0 21 2f 85 bc 14 29 2a 3e 26 12 30 be d5 04 f9 3d
       -0.016257824 0.16617233 -0.17194423 0.12159125
0002d0 73 f3 33 be 25 d7 86 bd 72 0b 40 be 83 97 27 3e
       -0.17573337 -0.06584004 -0.18754366 0.16366391
0002e0 21 2d 0f 3e 4a ba 41 be 05 5e ff bd e6 c0 1b 3e
       0.13982059 -0.1891872 -0.12469105 0.15210304
0002f0 32 5c 42 bd 6f bf 17 3e 62 c5 56 bb 9f e2 1b be
       -0.047451206 0.1481912 -0.0032771458 -0.15223168
000300 b9 61 d0 bd 2a c2 15 be ef f3 0e 3e 6f 07 ff bc
       -0.10174889 -0.14624849 0.13960241 -0.031131474
000310 4b 41 f1 3c 13 90 93 3d 73 bf 26 bd 68 72 b5 bd
       0.02945008 0.07205214 -0.040709924 -0.08859712
000320 b1 e7 25 be 5f 42 41 bd bc 1f 10 be 5f e5 b2 bc
       -0.16201665 -0.047182437 -0.14074606 -0.021837888
000330 23 8d 9e 3d e1 11 fc bd 01 c8 0b be 8d 33 0d be
       0.077417634 -0.12308098 -0.13650514 -0.13789196
000340 1c 74 86 bd b7 13 80 3b 71 6a f5 bd c7 07 bd 3d
       -0.06565115 0.0039086 -0.11983193 0.09229999
000350 68 1f 3d 3e 4a f6 26 be fa 44 ab bd 15 b3 45 be
       0.18469012 -0.1630489 -0.083627656 -0.19306596
000360 3b e7 28 3e 13 5c a3 bb 3c 98 e2 bd 8e 34 08 be
       0.16494457 -0.0049853413 -0.11064193 -0.13301298
000370 3e ef 01 bd ae 16 a1 3a c6 eb 03 be eb e6 1b 3e
       -0.0317223 0.0012290084 -0.12882909 0.15224807
000380 d9 2d 72 3d 14 ca 14 3d 30 b7 1c be 6c 30 0e 3e
       0.059125755 0.03632553 -0.15304255 0.13885659
000390 48 3a a8 bd 3e fd cd 3d 01 10 48 3d 0f 8c 9f bc
       -0.08214241 0.10058068 0.048843388 -0.019475965
0003a0 7e 27 c2 3d fa 47 e7 3d 13 b5 88 bd cc 5c 2c 3e
       0.09480189 0.11293025 -0.06675162 0.16832274
0003b0 71 d0 ee bd bf 11 4f 3d 90 92 1a be 3f a5 f6 3c
       -0.11660851 0.050554033 -0.15094972 0.030108092
0003c0 cc 17 6a bd 7c b2 50 3e 12 9e 0a 3e 8b 43 02 3e
       -0.0571516 0.20380586 0.13536862 0.12721078
0003d0 d2 8e 23 be 8b cf 08 3e b2 4b 93 3d a7 86 8c bc
       -0.1597245 0.13360421 0.07192172 -0.017154051
0003e0 98 43 2a 3d 59 bf 7f 3d b2 79 8e bd 7d 42 df 3d
       0.04156837 0.062438343 -0.06956805 0.109013535
0003f0 24 08 07 be 19 37 de 3c 7a 3a 2f 3e aa 24 39 bd
       -0.13186699 0.027125882 0.17112151 -0.04520098

model.fc.10.bias f4 [16]
000000 3b 12 3e 3c 0b 46 18 3e 37 79 01 3e 1d 38 eb bd
       0.011601026 0.1487047 0.12643896 -0.11485312
000010 4a 33 e5 3d 32 b6 33 bb 5b c0 93 bd e6 be c6 3d
       0.11191423 -0.002742183 -0.07214423 0.0970438
000020 38 2b fc bd 40 b3 24 3e 9d a9 c2 bd 55 56 f2 3b
       -0.12312931 0.16084003 -0.095050074 0.0073955455
000030 de 99 58 ba 95 ca 2a 3e 43 33 69 bd 20 34 19 be
       -0.0008262674 0.16678841 -0.056933653 -0.1496129

model.fc.11.weight f4 [16]
000000 e9 8a 73 3f d7 6b 74 3f ed 4c 85 3f b5 4f 7f 3f
       0.95133835 0.9547705 1.0414101 0.99731
000010 09 de 83 3f 76 dd 80 3f 08 d3 86 3f 91 d0 7c 3f
       1.0302135 1.0067585 1.0533152 0.9875575
000020 a8 75 83 3f 18 5f 72 3f 41 3c 72 3f 46 88 80 3f
       1.0270281 0.9467635 0.9462319 1.0041587
000030 7f e2 74 3f 89 62 76 3f 18 23 83 3f 99 b2 80 3f
       0.95658106 0.962441 1.0245085 1.0054504

model.fc.11.bias f4 [16]
000000 7c 16 55 bd 1d d1 1a bd 67 fe 28 3d 84 a1 3e 3b
       -0.052023396 -0.037797082 0.041258242 0.002908797
000010 ae 81 98 3c 8a 01 55 bb ce c5 61 3d 91 80 7b bc
       0.018616524 -0.0032502138 0.055120282 -0.015350477
000020 24 c2 ca 3c 22 d4 47 bd bb c4 45 bd e9 8a fe 3c
       0.024750777 -0.04878629 -0.04828332 0.031072097
000030 63 cb b7 bc ec 6f 20 bd 78 f6 25 3d ec da b8 3c
       -0.02243585 -0.039169237 0.040518254 0.022565328

model.fc.11.running_mean f4 [16]
000000 0c ac 43 be 2b 4b 51 3e 81 55 9b bd 49 7e 50 be
       -0.191086 0.2043883 -0.07584668 -0.20360674
000010 21 0a 4e 3d bc 70 75 bb ad d7 ba be 61 2a 90 3e
       0.05030263 -0.0037451228 -0.36492673 0.28157333
000020 56 63 19 be 58 7a 96 3e b6 f5 c4 bd 38 62 96 bc
       -0.149793 0.29390216 -0.09617178 -0.018357381
000030 bb 70 7a 3c 59 7b 25 bc 5c 6a ae bc e2 c9 ef be
       0.015285666 -0.010100209 -0.02129095 -0.46833712

model.fc.11.running_var f4 [16]
000000 1f 1c 45 3e 75 f4 61 3e 4d cc c7 3e 0f 4b ec 3d
       0.19249009 0.22065909 0.39023057 0.11537754
000010 7b 71 ac 3e 10 f3 78 3e f0 5d 01 3f 05 39 87 3e
       0.3368033 0.24311471 0.5053396 0.2641069
000020 43 e2 d6 3e 45 29 de 3d 91 0b 9b 3e 48 98 54 3e
       0.419695 0.10847715 0.30282262 0.20761216
000030 bb dd 8c 3e 4d ea 9a 3e f3 e8 08 3f 1c 6b 0f 3e
       0.27512917 0.30256882 0.5348045 0.14005703
