MultiClassdiabet/checkpoints/bodyP-epoch=04-val_f1=0.94.ckpt (torch, 724348 bytes, 68 tensors)

model.fc.0.weight f4 [128, 363]
-0.013707664 0.006603794 -0.025340695 0.03004721 0.03626738 -0.03844036 0.03875156 0.015566827
0.043875188 0.0056032594 0.022282071 -0.009619748 0.03803236 0.003503085 -0.02713092 0.009133193
-0.027009416 -0.010705066 -0.023087561 0.03310942 -0.042900715 -0.026461056 -0.01879953 -0.032496396
0.0027457257 -0.060507413 0.044242542 -0.05136249 0.044570275 0.012951622 -0.01942366 0.02840044
0.008345371 0.042142045 -5.1370298e-05 -0.01752283 0.0094837 -0.011352173 0.029709801 0.046049867
0.029420802 -0.023702342 0.023075677 0.0063723344 0.02055467 -0.029658653 -0.047665987 -0.02244683
-0.04209379 0.033054177 0.0068769376 0.013259263 0.010327072 -0.009150749 0.035156354 -0.04587658
0.0032421532 -0.04190707 0.020161133 -0.014431206 0.013954506 -0.014278098 0.036992565 -0.035170525
-0.03658826 -0.035308696 0.040867265 0.022729615 0.056350037 -0.042214956 -0.047549557 -0.03585325
-0.03473379 0.025189178 0.017725015 0.04183089 -0.030107273 -0.03797981 0.025423907 -0.025459947
0.029207312 -0.016691502 0.02717862 -0.045317944 -0.028255213 0.014299919 0.009608101 -0.015649937
0.028854787 0.032344162 -0.04061252 -0.03123724 0.045428775 -0.021160478 -0.020765094 -0.052902993
-0.032080017 0.010751323 -0.011711747 -0.041412465 -0.0036564015 -0.039953254 -0.050245564 -0.03251218
-0.04938698 -0.036841612 0.049135648 0.0072684623 0.012857354 -0.05171398 -0.037973054 -0.019867357
0.005835024 -0.0484264 -0.025114015 -0.036034238 -0.0038500465 -0.025021875 -0.007233095 -0.038893104
-0.039233197 -0.03380795 -0.020940011 -0.045812648 0.041604508 -0.0126414765 0.04299472 0.013809897
-0.050211318 0.032423623 -0.01794682 -0.02332922 -0.046983484 -0.0537305 0.013543551 -0.0127602955
0.018414713 -0.044528157 0.037666593 -0.04051043 -0.009817728 0.009080165 0.024811845 0.0383741
0.04596947 -0.04447584 0.0057678907 -0.026128484 -0.012066708 -0.037040025 0.050674316 -0.041364238
0.023873078 0.017962087 0.016207706 -0.03376897 0.045556 0.006919547 0.008163696 -0.043034527
0.02061585 -0.009344785 -0.025614956 0.037952982 0.008001951 -0.034970373 -0.026096856 0.0013460622
0.02663456 -0.016045712 -0.039420653 -0.025333641 -0.0475084 0.012957458 0.032298647 -0.05545548
0.00423745 0.026398227 0.0034670583 -0.016173435 0.030240808 0.024904937 0.015649823 -0.016211374
-0.018198587 -0.0003538313 -0.0138842845 -0.021882134 0.038657658 0.050448872 -0.005887966 -0.011637514
0.0055723675 -0.0038664266 0.01545715 0.0126500605 -0.04995323 -0.023061184 0.044299994 0.02031941
-0.0064748228 -0.032195136 -0.03539498 -0.045122802 -0.015188283 0.017327163 0.032984123 0.023818348
-0.051204205 -0.03289076 -0.012529142 0.052527297 0.011051848 -0.014880941 0.020821378 -0.027499417
-0.039669678 0.031594522 -0.027818512 -0.016387526 -0.0567671 0.02951762 0.038381666 0.014610612
-0.032847803 -0.04801707 -0.04423169 0.037191123 0.019618206 0.041252542 0.023437247 0.009810406
-0.0051639383 -0.034212194 -0.03757351 -0.04829988 0.022880966 -0.018718004 -0.009691848 -0.027524443
-0.010466838 -0.03824674 -0.035794687 0.016640056 -0.021036949 0.02970227 -0.021659786 -0.037421647
-0.0076132407 -0.027451178 -0.017428985 -0.058500536 0.021615123 -0.04431508 0.02028887 0.016668538
00000000: 1c96 60bc a464 d83b 4a97 cfbc 9125 f63c
00000010: 1b8d 143d a473 1dbd f5b9 1e3d 010c 7f3c
00000020: 78b6 333d 8c9b b73b e488 b63c 269c 1dbc
00000030: d2c7 1b3d 0494 653b aa41 debc 63a3 153c
00000040: da42 ddbc 4d64 2fbc 2022 bdbc be9d 073d
00000050: a9b8 2fbd dbc4 d8bc 7901 9abc f11a 05bd
00000060: a2f1 333b 9fd6 77bd ab37 353d 7961 52bd
00000070: 528f 363d 0a33 543c 5e1e 9fbc 0aa8 e83c
00000080: 06bb 083c 239d 2c3d 7076 57b8 0a8c 8fbc
00000090: 8561 1b3c 77fe 39bc f861 f33c c99e 3c3d
000000a0: e503 f13c 6a2b c2bc 3409 bd3c 04cf d03b
000000b0: 4462 a83c b4f6 f2bc 693d 43bd 6ae2 b7bc
000000c0: 8a6a 2cbd d163 073d ef57 e13b 613d 593c
000000d0: e132 293c 06ed 15bc 1c00 103d 15e9 3bbd
000000e0: 4e7a 543b bfa6 2bbd f628 a53c dd70 6cbc
000000f0: 71a1 643c afee 69bc 8485 173d f80e 10bd
00000100: 92dd 15bd da9f 10bd 6f64 273d 7533 ba3c
00000110: 4ccf 663d 97e9 2cbd 53c3 42bd dcda 12bd
00000120: 0545 0ebd 8959 ce3c 0d34 913c de56 2b3d
00000130: 87a3 f6bc b890 1bbd cc45 d03c 6191 d0bc
00000140: 2c44 ef3c 9ebc 88bc b3a5 de3c 4f9f 39bd
00000150: 7a77 e7bc 354a 6a3c 4c6b 1d3c 4c34 80bc
00000160: e060 ec3c 507b 043d 5059 26bd 3ee5 ffbc
00000170: 8613 3a3d bd58 adbc 8f1b aabc cfb0 58bd
00000180: 5666 03bd 5126 303c a1e2 3fbc 1ea0 29bd
00000190: 3da0 6fbb 06a6 23bd 4bce 4dbd 7e2b 05bd
000001a0: 004a 4abd 3be7 16bd 7642 493d 482c ee3b
000001b0: a7a7 523c 0ad2 53bd a289 1bbd dec0 a2bc
000001c0: bb33 bf3b c35a 46bd e8bb cdbc a398 13bd
000001d0: 1051 7cbb adfa ccbc 9903 edbb 604e 1fbd
000001e0: fdb2 20bd 347a 0abd 638a abbc 0ba6 3bbd
000001f0: 7d69 2a3d 321e 4fbc 3b1b 303d e842 623c
00000200: 62aa 4dbd a2ce 043d 3605 93bc ec1c bfbc
00000210: c171 40bd 8314 5cbd c5e5 5d3c 8f10 51bc
00000220: 74da 963c 2863 36bd 4948 1a3d 44ee 25bd
00000230: 89da 20bc f9c4 143c 3642 cb3c 292e 1d3d
00000240: 7c4a 3c3d 4c2c 36bd 9300 bd3b 670b d6bc
00000250: 71b3 45bc 48b7 17bd df8f 4f3d 8c6d 29bd
00000260: 7991 c33c 3a25 933c 06c6 843c 5551 0abd
00000270: ee98 3a3d 5ebd e23b 06c1 053c f944 30bd
00000280: 92e2 a83c de1a 19bc 75d6 d1bc 9674 1b3d
00000290: 9d1a 033c 183d 0fbd 13c9 d5bc 5a6e b03a
000002a0: b930 da3c 4c72 83bc 8d77 21bd 7f88 cfbc
000002b0: 2b98 42bd 854b 543c 964b 043d 4925 63bd
000002c0: 4fda 8a3b 1841 d83c 9637 633b 277e 84bc
000002d0: 92bb f73c 7005 cc3c 0f34 803c b7cd 84bc
000002e0: 3415 95bc 6f82 b9b9 e97a 63bc 2942 b3bc
000002f0: 7e57 1e3d 7aa3 4e3d d7ef c0bb 46ab 3ebc
00000300: 6898 b63b e063 7dbb fc3f 7d3c 3342 4f3c
00000310: c29b 4cbd cfea bcbc e973 353d e474 a63c
00000320: c02a d4bb 0cdf 03bd 54fa 10bd b0d2 38bd
00000330: 47d8 78bc b2f1 8d3c 5c1a 073d b21e c33c
00000340: 80bb 51bd 76b8 06bd 0847 4dbc dd26 573d
00000350: cf12 353c 31cf 73bc 9891 aa3c 7546 e1bc
00000360: ac7c 22bd 4269 013d a6e3 e3bc 223f 86bc
00000370: 9e84 68bd f0ce f13c 1836 1d3d 5961 6f3c
00000380: 6b8b 06bd 8cad 44bd 4a2c 35bd b855 183d
00000390: 5cb6 a03c 6df8 283d 78ff bf3c d3bb 203c
000003a0: 4136 a9bb 1622 0cbd aee6 19bd 18d6 45bd
000003b0: dd70 bb3c 8056 99bc 8fca 1ebc f17a e1bc
000003c0: 1a7d 2bbc 9da8 1cbd 739d 12bd ba50 883c
000003d0: ae55 acbc 2d52 f33c dd6f b1bc 7147 19bd
000003e0: 7e78 f9bb 4be1 e0bc 3bc7 8ebc 429e 6fbd
000003f0: 3312 b13c bb83 35bd d834 a63c 758c 883c

model.fc.0.bias f4 [128]
0.040272854 0.033022232 -0.0516279 -0.038809832 -0.014319072 -0.028041508 0.011978725 -0.015732525
0.04829481 0.010822683 -0.046412192 0.04593783 -0.007947515 0.00023609799 -0.049165092 0.00400803
-0.0629383 0.03956213 0.002714812 -0.0028790974 -0.0135762915 -0.010743015 0.038872976 0.023049243
0.020710923 -0.02483794 0.023248512 -0.004292181 0.016052855 0.035109535 0.024898257 -0.002124591
0.027090468 -0.01009904 0.042894833 -0.056125607 -0.049385913 0.059716355 0.039668825 -0.009503319
0.041616447 -0.0023847087 -0.026496453 -0.028565226 -0.006742275 0.018539514 0.018751385 0.013300718
0.032724146 0.036205396 0.027553882 -0.032748148 -0.015264503 -0.05732232 0.001812927 -0.05527443
-0.027032549 -0.02505328 -0.03483209 -0.022825602 0.02409828 -0.013926358 -0.034425512 0.0418505
-0.010527855 0.0030983945 -0.019688683 -0.015998602 -0.007982677 0.006564437 -0.003894107 -0.02381795
0.026965626 -0.029978504 0.04403704 0.03445675 -0.034128614 0.032373287 -0.039356757 0.0075787017
0.032668483 -0.047686733 0.011866653 -0.020384707 -0.05141869 -0.019523956 0.057312876 -0.04571466
-0.0011509643 0.0026195906 -0.017254211 -0.026303241 0.035116065 0.005619113 -0.03319082 0.05842073
-0.027262056 -0.005810714 0.009971257 -0.038861763 0.041393604 0.03205268 0.0140267555 0.017477809
0.0048789536 -0.019043433 0.009544745 0.012186759 0.0336679 0.040955957 -0.036187146 0.042661842
-0.04398046 0.008046785 0.016344119 -0.02293864 -0.037872303 -0.016875839 -0.05208748 -0.04434511
0.03098099 -0.037170522 -0.021385271 -0.013858903 0.02032919 0.043978777 0.03625737 0.049021825
00000000: 26f5 243d 5242 073d c777 53bd 0ff7 1ebd
00000010: 8a9a 6abc 4eb7 e5bc 6a42 443c 7fe1 80bc
00000020: c7d0 453d 9f51 313c b61a 3ebd 4e29 3c3d
00000030: 4b36 02bc 1291 7739 5661 49bd cb55 833b
00000040: cce5 80bd e60b 223d fdea 313b 3daf 3cbb
00000050: 186f 5ebc 7903 30bc 4539 1f3d c4d1 bc3c
00000060: f4a9 a93c f078 cbbc aa73 be3c 6da5 8cbb
00000070: 4781 833c 04cf 0f3d 6ef7 cb3c b93c 0bbb
00000080: d4ec dd3c 7276 25bc 7eb2 2f3d f7e3 65bd
00000090: e248 4abd 2399 743d c77b 223d cfb3 1bbc
000000a0: 0276 2a3d c648 1cbb 170f d9bc 9f01 eabc
000000b0: 4dee dcbb 2ee0 973c 819c 993c 41eb 593c
000000c0: c109 063d 1c4c 143d aeb8 e13c ec22 06bd
000000d0: f717 7abc cfca 6abd bc9f ed3a 7167 62bd
000000e0: 5d73 ddbc 893c cdbc 18ac 0ebd c2fc babc
000000f0: c269 c53c 612b 64bc c401 0dbd 6e6b 2b3d
00000100: 067d 2cbc 6f0e 4b3b 294a a1bc 800f 83bc
00000110: c6c9 02bc 7d1a d73b 4634 7fbb dd1d c3bc
00000120: 04e7 dc3c 7b95 f5bc 2f60 343d 8522 0d3d
00000130: 72ca 0bbd da99 043d 8d34 21bd c256 f83b
00000140: 63cf 053d 2a53 43bd 5a6c 423c d4fd a6bc
00000150: 679c 52bd b4f0 9fbc e8c0 6a3d 4c3f 3bbd
00000160: f4db 96ba 70ad 2b3b b458 8dbc e579 d7bc
00000170: ddd5 0f3d 8920 b83b 19f3 07bd 934a 6f3d
00000180: ad54 dfbc cd67 bebb 7c5e 233c 832d 1fbd
00000190: 578c 293d ac49 033d 7ad0 653c 9f2d 8f3c
000001a0: a1df 9f3b f900 9cbc 9061 1c3c f9aa 473c
000001b0: 5ae7 093d 6fc1 273d f938 14bd 2fbe 2e3d
000001c0: db24 34bd aad6 033c 1ae4 853c d1e9 bbbc
000001d0: fd1f 1bbd 333f 8abc ae59 55bd 38a3 35bd
000001e0: d8cb fd3c 1e40 18bd 2a30 afbc 7410 63bc
000001f0: 6789 a63c 1723 343d 9c82 143d 1ccb 483d

model.fc.2.weight f4 [64, 128]
0.05758214 0.05628681 -0.030362936 0.044742323 0.09030197 0.032636326 0.018773288 0.05887423
-0.04985937 -0.080213994 -0.08663198 -0.017302688 -0.05592671 -0.030816585 -0.07176115 -0.051582005
0.07420342 0.065463774 -0.043952104 0.055072635 0.06838512 -0.050139356 0.021899927 -0.083092935
-0.04719576 -0.053891048 0.011856727 0.07168384 0.011496896 0.06515797 0.07939552 -0.069469295
0.06546585 -0.026174057 0.047015566 0.02076763 0.06363095 0.02736002 0.055830378 -0.07057745
-0.052262936 0.033642624 0.08795173 0.041564874 0.0847196 -0.013280343 0.07873675 -0.06326746
-0.056317262 0.030101448 0.0076504364 0.077889375 -0.06840394 -0.04963482 0.061561912 0.060982637
-0.022507016 0.056878794 0.075480044 -0.06929449 0.0071725156 -0.025025602 -0.07846784 0.052391607
-0.0074570077 -0.07514488 0.043844793 0.053030714 -0.00954852 0.009611226 0.025568092 -0.062429957
-0.061773732 0.0791667 0.03276568 0.06324634 0.018226707 -0.073589295 -0.07107252 -0.05813997
-0.06397686 -0.07984071 -0.08559592 0.044983722 -0.072194204 0.012697079 0.087090425 0.0055672694
0.011056278 -0.061568942 0.048003763 -0.026981438 -0.029763998 -0.06968373 0.06708352 0.08201923
0.041863956 0.0340359 0.032157443 -0.041777633 0.060736973 0.029288972 -0.027930131 -0.009465402
-0.012650125 -0.05368004 0.010363131 0.006332706 -0.038445745 0.0426139 -0.024285698 0.013189344
-0.0030086795 0.046816558 -0.02416265 0.06469408 0.06471035 -0.0372542 -0.015378261 -0.04849454
0.02813312 0.010759087 -0.05471531 0.08685562 -0.06205202 0.076430015 0.07382955 0.044297386
-0.07637392 0.07400331 0.055859458 -0.075306594 -0.096766904 0.07523776 -0.07615521 -0.0672783
0.02718257 -0.07071215 0.02282394 0.07865149 -0.028401785 0.050200418 0.025359422 -0.060266323
0.020631162 -0.0024787176 -0.011780009 -0.073110096 0.082287274 0.052603547 0.08265185 -0.07545785
0.025499575 -0.06495483 -0.037334803 -0.06448127 0.014902201 -0.058858447 -0.049757533 -0.04257634
0.031649224 0.02595811 -0.06678746 -0.029452316 -0.051152993 0.019483726 -0.07821154 -0.05377816
0.07575155 -0.09973982 0.022744536 0.009412454 0.030806607 -0.015309134 0.08188659 0.042170968
0.08468496 -0.012509949 0.05863264 -0.02083752 0.053208362 -0.026175871 0.08101171 0.03806738
-0.090375245 0.068585515 0.037131403 -0.02627149 -0.05910205 -0.017438967 -0.03093196 -0.06750182
0.04872381 -0.014002909 -0.05625815 -0.08011773 0.060764328 -0.08113717 0.053132486 -0.024878904
0.047637433 -0.029498389 0.058916792 0.06366142 0.04846802 0.018667135 0.04914824 0.07718032
-0.06646574 -0.012975186 0.07272908 -0.0886306 -0.0029059844 0.0029986468 -0.082921 -0.05982358
0.042017173 -0.019026397 -0.07308857 0.082840465 0.039550602 0.069028035 -0.047413893 -0.033037867
0.02560432 -0.093958296 0.017131563 -0.009914351 0.04612141 -0.049693376 -0.031894974 0.0748666
-0.033003204 -0.031977385 0.041853577 0.039795984 0.02117485 0.03925717 -0.027063726 -0.075392835
-0.024069538 -0.014048037 0.03821277 -0.048948273 -0.011292481 0.05393688 -0.009871021 -0.010745058
-0.052414536 -0.0066313385 -0.011872934 0.051975872 -0.074444026 -0.06402035 -0.007819049 -0.08816754
00000000: 40db 6b3d 008d 663d b1bb f8bc ba43 373d
00000010: 3df0 b83d abad 053d 70ca 993c 1b26 713d
00000020: 5739 4cbd 3c47 a4bd 1c6c b1bd 5ebe 8dbc
00000030: 6813 65bd 1073 fcbc 83f7 92bd a747 53bd
00000040: f6f7 973d df11 863d 1f07 34bd d893 613d
00000050: 7f0d 8c3d ed5e 4dbd 7a67 b33c a12c aabd
00000060: 5750 41bd dcbc 5cbd b842 423c face 923d
00000070: 7a5d 3c3c 8b71 853d 1e9a a23d eb45 8ebd
00000080: f612 863d fa6a d6bc 6593 403d e020 aa3c
00000090: f250 823d 1f22 e03c 65ae 643d e98a 90bd
000000a0: a911 56bd d9cc 093d 0920 b43d ee3f 2a3d
000000b0: 7881 ad3d cc95 59bc bc40 a13d 5f92 81bd
000000c0: eeac 66bd 5097 f63c 83b0 fa3b 7784 9f3d
000000d0: 5d17 8cbd e24d 4bbd 5828 7c3d eec8 793d
000000e0: a260 b8bc bdf9 683d 4895 9a3d 45ea 8dbd
000000f0: 6c07 eb3b 7e02 cdbc bfb3 a0bd 9598 563d
00000100: ea59 f4bb 8fe5 99bd 9996 333d bc36 593d
00000110: 6571 1cbc 6778 1d3c 2d74 d13c 8eb6 7fbd
00000120: 7406 7dbd 2722 a23d 4e35 063d 4c87 813d
00000130: 2d50 953c fcb5 96bd 788e 91bd 2d24 6ebd
00000140: 4d06 83bd 8783 a3bd ea4c afbd da40 383d
00000150: 8eda 93bd 6907 503c 775c b23d a46d b63b
00000160: 6425 353c b72f 7cbd 989f 443d 2d08 ddbc
00000170: a1d3 f3bc 58b6 8ebd 1663 893d b3f9 a73d
00000180: 8a79 2b3d 3a69 0b3d 86b7 033d 061f 2bbd
00000190: 55c7 783d 6def ef3c bbcd e4bc c614 1bbc
000001a0: 7842 4fbc 9adf 5bbd 1fca 293c 9782 cf3b
000001b0: 4979 1dbd ea8b 2e3d cdf2 c6bc 1e18 583c
000001c0: 442d 45bb b8c2 3f3d c0f0 c5bc 547e 843d
000001d0: dc86 843d dc97 18bd 1af5 7bbc 36a2 46bd
000001e0: 6e77 e63c e246 303c 291d 60bd 5ce1 b13d
000001f0: 422a 7ebd 5787 9c3d f233 973d 2d71 353d
00000200: ee69 9cbd 0c8f 973d e3cc 643d 583a 9abd
00000210: ba2d c6bd 4116 9a3d 43f7 9bbd 35c9 89bd
00000220: fbad de3c 88d1 90bd 45f9 ba3c 0814 a13d
00000230: dcaa e8bc f49e 4d3d 90be cf3c d2d9 76bd
00000240: af02 a93c fb71 22bb f000 41bc bfba 95bd
00000250: 3b86 a83d d176 573d 6045 a93d a589 9abd
00000260: 7ce4 d03c 0a07 85bd 61ec 18bd c20e 84bd
00000270: 5c28 743c 8e15 71bd 8ece 4bbd 8764 2ebd
00000280: 9ea2 013d 1aa6 d43c ddc7 88bd fc45 f1bc
00000290: cd85 51bd 569c 9f3c 5f2d a0bd 7d46 5cbd
000002a0: a123 9b3d 6444 ccbd c052 ba3c b236 1a3c
000002b0: 235e fc3c 29d3 7abc 28b4 a73d 77bb 2c3d
000002c0: 4f6f ad3d 87f6 4cbc c728 703d 72b3 aabc
000002d0: 03f1 593d c86e d6bc 78e9 a53d 8bec 1b3d
000002e0: a816 b9bd 9076 8c3d 1917 183d 4f37 d7bc
000002f0: fe14 72bd 2adc 8ebc 0665 fdbc 653e 8abd
00000300: 9e92 473d 756c 65bc f26e 66bd c414 a4bd
00000310: 04e4 783d 3f2b a6bd 73a1 593d d8ce cbbc
00000320: 781f 433d 9ba6 f1bc bc52 713d eb60 823d
00000330: 6786 463d d2eb 983c aa4f 493d b710 9e3d
00000340: 311f 88bd e095 54bc fcf2 943d f683 b5bd
00000350: 5472 3ebb f284 443b 7cd2 a9bd 9209 75bd
00000360: 331a 2c3d 3fdd 9bbc 76af 95bd 43a8 a93d
00000370: d0ff 213d 925e 8d3d 1235 42bd b752 07bd
00000380: 27c0 d13c 356d c0bd 7e57 8c3c cd6f 22bc
00000390: cee9 3c3d 488b 4bbd 4ea4 02bd a953 993d
000003a0: 5e2e 07bd b8fa 02bd a86e 2b3d 1d01 233d
000003b0: e176 ad3c 20cc 203d bfb4 ddbc 8f67 9abd
000003c0: 7b2d c5bc bd29 66bc fe84 1c3d fc7d 48bd
000003d0: 1904 39bc ebec 5c3d 10ba 21bc 0a0c 30bc
000003e0: a0b0 56bd b34b d9bb b286 42bc a7e4 543d
000003f0: 1c76 98bd 1a1d 83bd 781b 00bc 2f91 b4bd

model.fc.2.bias f4 [64]
0.051532373 -0.07003246 -0.07141143 0.038825057 0.05238932 -0.0835283 -0.019219546 0.032031786
-0.02936231 0.060038462 -0.007999594 0.033000566 -0.018259352 0.01604084 0.056481093 0.005261589
0.07675974 -0.030900957 -0.06951205 0.035857126 0.027637016 0.07430904 -0.07923587 -0.0058535505
-0.08317241 0.06202609 -0.032043464 -0.015231899 0.08310648 0.046275638 -0.07062431 0.014404308
0.015792148 -0.06137443 0.07354691 -0.016388789 -0.06925376 -0.0040481556 0.08676502 0.08437514
0.011385256 0.05038068 -0.017573116 -0.054989528 0.06998775 -0.032612942 -0.024211828 -0.060962718
0.06385971 0.08666249 -0.06398647 0.020286186 0.08953245 0.021600816 0.012083649 0.085095644
-0.057577334 0.019825464 -0.079850815 -0.072364256 -0.020646881 0.041480694 0.073381215 -0.026471805
00000000: 9c13 533d 2e6d 8fbd 2840 92bd 0607 1f3d
00000010: 2f96 563d e310 abbd 4f72 9dbc c333 033d
00000020: 3a89 f0bc e4ea 753d bb10 03bc 9a2b 073d
00000030: a394 95bc 1468 833c b858 673d 6869 ac3b
00000040: 3634 9d3d 0124 fdbc 555c 8ebd ecde 123d
00000050: 0667 e23c 572f 983d 6a46 a2bd 24cf bfbb
00000060: 4c56 aabd 120f 7e3d 0240 03bd 378f 79bc
00000070: bb33 aa3d 868b 3d3d 7aa3 90bd 0c00 6c3c
00000080: 895e 813c c163 7bbd c39f 963d c841 86bc
00000090: ead4 8dbd 64a6 84bb dcb1 b13d e0cc ac3d
000000a0: 3a89 3a3c f95b 4e3d 7ff5 8fbc b33c 61bd
000000b0: bd55 8f3d 2695 05bd e257 c6bc 0bb4 79bd
000000c0: e1c8 823d 1b7c b13d 570b 83bd 372f a63c
000000d0: ca5c b73d 32f4 b03c 7ffa 453c a046 ae3d
000000e0: 36d6 6bbd 0369 a23c d388 a3bd b633 94bd
000000f0: a623 a9bc a9e7 293d e448 963d 66db d8bc

model.fc.3.weight f4 [64]
1.0053378 0.98579365 0.99443465 0.9962011 0.9869248 1.0065107 1.0086762 0.9988804
1.0117562 0.99238825 0.99211967 0.9916852 1.0129372 1.0015458 0.998614 1.0062939
0.9948738 1.0082028 0.99228793 0.9989605 0.997497 0.99811435 1.0057236 1.0048376
0.99104834 1.0020263 0.9889291 0.98578346 1.0012892 0.9967913 0.9896786 0.99651396
0.99395794 0.9917279 1.0076883 0.996835 1.0058725 1.0108703 1.0117195 1.0040942
0.99761856 0.9823111 0.99279886 0.99842906 1.004931 1.0003582 1.0038391 1.0149888
0.9912835 0.98668 0.99630934 1.0250671 1.0160426 1.0019366 0.99346286 1.0000948
0.99287015 0.9927578 0.9929968 0.99332863 1.0044006 1.0120658 1.0041791 1.0112123
00000000: e9ae 803f f95c 7c3f 4593 7e3f 0907 7f3f
00000010: 1ba7 7c3f 58d5 803f 4d1c 813f a0b6 7f3f
00000020: 3a81 813f 280d 7e3f 8efb 7d3f 15df 7d3f
00000030: eda7 813f a732 803f 2ba5 7f3f 3dce 803f
00000040: 0db0 7e3f ca0c 813f 9506 7e3f e0bb 7f3f
00000050: f75b 7f3f 6c84 7f3f 8dbb 803f 859e 803f
00000060: 58b5 7d3f 6642 803f 752a 7d3f 4e5c 7c3f
00000070: 3f2a 803f b72d 7f3f 945b 7d3f 8a1b 7f3f
00000080: 0774 7e3f e1e1 7d3f eefb 803f 9430 7f3f
00000090: 6ec0 803f 3364 813f 0680 813f 2986 803f
000000a0: ee63 7f3f be78 7b3f 1128 7e3f 0c99 7f3f
000000b0: 94a1 803f bd0b 803f cd7d 803f 27eb 813f
000000c0: c1c4 7d3f 0f97 7c3f 210e 7f3f 6635 833f
000000d0: af0d 823f 753f 803f 9553 7e3f 1b03 803f
000000e0: bd2c 7e3f 6025 7e3f 0a35 7e3f c94a 7e3f
000000f0: 3390 803f 5f8b 813f f188 803f 686f 813f

model.fc.3.bias f4 [64]
0.0027866259 -0.014001711 -0.001802435 0.0013856613 -0.013738843 0.007359879 0.012815549 -0.00431092
0.012753194 -0.009779285 -0.0077128187 -0.003961331 0.017538134 0.0056634834 -0.0042125857 0.010919913
-0.0017695007 -0.0035596031 -0.0067462334 -0.0032793093 0.0018720506 -0.002166178 0.006274294 0.0037357113
-0.0073909317 0.00608841 -0.0056217276 -0.000835089 -0.0063291937 0.008583548 -0.0031974362 -0.0024674193
-0.0029652494 -0.006986585 0.008436679 -0.0063177194 0.012761698 0.009588821 0.015131643 0.0028046493
-0.013734549 -0.008749572 -0.012367247 -0.003224986 0.0025924842 0.0017368916 0.0063811336 0.012390319
-0.008152045 0.0018480192 -0.004316442 0.019917492 0.010992352 -0.007399445 -0.008919193 -0.0020266774
0.008591585 -0.004619463 -0.0019658944 -0.0001897785 -0.0025811507 0.009641991 -0.001552975 0.007077477
00000000: d39f 363b 6f67 65bc af3f ecba 149f b53a
00000010: e218 61bc 242b f13b 4ff8 513c 9e42 8dbb
00000020: c6f2 503c 4b39 20bc d0bb fcbb 0ece 81bb
00000030: 22ac 8f3c be94 b93b bb09 8abb 6fe9 323c
00000040: 97ee e7ba 3b48 69bb 820f ddbb aee9 56bb
00000050: 985f f53a 70f6 0dbb 9898 cd3b d6d2 743b
00000060: a12f f2bb 4981 c73b 7836 b8bb e0e9 5aba
00000070: 2065 cfbb 02a2 0c3c 148c 51bb 6db4 21bb
00000080: a154 42bb b9ef e4bb ff39 0a3c df04 cfbb
00000090: 7116 513c 6e1a 1d3c b6ea 773c 35ce 373b
000000a0: e006 61bc 5d5a 0fbc fe9f 4abc 495a 53bb
000000b0: abe6 293b 69a8 e33a d418 d13b c400 4b3c
000000c0: 2890 05bc 3c39 f23a f170 8dbb 022a a33c
000000d0: 4419 343c 0b77 f2bb cf21 12bc 01d2 04bb
000000e0: b8c3 0c3c dd5e 97bb 3cd6 00bb 47ff 46b9
000000f0: 8628 29bb 71f9 1d3c 328d cbba 2eea e73b

model.fc.3.running_mean f4 [64]
0.19627598 -0.2770484 0.059122797 0.0111438455 -0.20358825 -0.27335954 -0.24909124 -0.17673172
-0.053854544 -0.19545487 -0.045219585 -0.14146392 0.052243933 0.16628134 0.16962954 0.23686428
0.009065164 0.014713926 -0.23428725 0.12289266 -0.29151663 0.43200338 -0.2354582 -0.1323202
0.019676689 -0.042716358 -0.2820062 -0.032969862 -0.094969295 0.116478324 -0.39847776 0.22512455
-0.24151379 0.044934213 0.119400166 -0.32511643 -0.008350336 0.18390588 -0.10414728 0.41361713
0.22652379 0.23131487 -0.09679549 0.076350614 0.044968005 -0.48535338 -0.05451062 0.0340257
0.2228359 -0.026532723 -0.025087658 0.08861862 0.06306475 0.39047095 -0.2666337 0.053923212
-0.11942169 0.47408602 -0.25517026 0.19903144 -0.123396784 -0.03726666 0.13818885 -0.1355442
00000000: 92fc 483e 4ad9 8dbe bf2a 723d ad94 363c
00000010: 7079 50be c8f5 8bbe c611 7fbe 29f9 34be
00000020: 9596 5cbd 5225 48be 2c38 39bd ebdb 10be
00000030: bcfd 553d a845 2a3e 5eb3 2d3e 8d8c 723e
00000040: 0e86 143c ae12 713c ffe8 6fbe 26af fb3d
00000050: ab41 95be 8c2f dd3e f41b 71be f27e 07be
00000060: 0231 a13c 59f7 2ebd 1e63 90be 680b 07bd
00000070: 437f c2bd 308c ee3d 4705 ccbe 0d87 663e
00000080: 644f 77be f00c 383d 1388 f43d a975 a6be
00000090: d9cf 08bc d351 3c3e 2b4b d5bd a0c5 d33e
000000a0: daf5 673e cedd 6c3e b73c c6bd b65d 9c3d
000000b0: 5f30 383d 3d80 f8be 8746 5fbd 885e 0b3d
000000c0: 182f 643e 275b d9bc a284 cdbc ae7d b53d
000000d0: 1728 813d cfeb c73e 3684 88be 96de 5c3d
000000e0: 5c93 f4bd 67bb f23e ada5 82be e6ce 4b3e
000000f0: 74b7 fcbd eda4 18bd 6181 0d3e 19cc 0abe

model.fc.3.running_var f4 [64]
0.5602282 0.2907308 0.48529807 0.19174284 0.5007752 0.18613136 0.6658982 0.25183553
0.47462186 0.40005565 0.19401665 0.28505597 0.867483 0.82710916 0.46139044 0.41263884
0.6182584 0.26789975 0.39133427 1.2824875 0.17262812 0.28673404 0.28799084 0.2436609
0.28906053 0.44628343 0.2636543 0.1926522 0.09964113 0.3318748 0.22939928 0.20161504
0.15074569 0.5278679 0.27367482 0.28297633 0.4384667 0.3338232 0.22175217 0.29089755
0.8408183 0.2553577 0.5356228 0.8192309 0.54855466 0.3020615 0.33429906 0.43215948
0.38358423 1.2414094 0.13602567 0.24062268 0.22301291 0.6037916 0.32034296 0.5563676
0.36296096 0.21516772 0.4564037 0.16140568 0.21258107 0.14018822 0.26766533 0.19309269
00000000: 1e6b 0f3f abda 943e fd78 f83e 3c58 443e
00000010: ce32 003f 3899 3e3e 4e78 2a3f 96f0 803e
00000020: a301 f33e 18d4 cc3e 4dac 463e dbf2 913e
00000030: 5e13 5e3f 6dbd 533f 5e3b ec3e 6645 d33e
00000040: 2f46 1e3f 282a 893e f75c c83e 8d28 a43f
00000050: 6dc5 303e cece 923e 8973 933e 3e82 793e
00000060: beff 933e 437f e43e b2fd 863e 9e46 453e
00000070: a610 cc3d 7eeb a93e a5e7 6a3e 2c74 4e3e
00000080: 145d 1a3e 5a22 073f 1b1f 8c3e 46e2 903e
00000090: b57e e03e e0ea aa3e 0013 633e 86f0 943e
000000a0: de3f 573f 3fbe 823e 931e 093f 1eb9 513f
000000b0: 146e 0c3f cea7 9a3e 3f29 ab3e 0244 dd3e
000000c0: 2765 c43e 81e6 9e3f 504a 0b3e cb65 763e
000000d0: 7f5d 643e 1692 1a3f fe03 a43e 1b6e 0e3f
000000e0: 05d6 b93e ed54 5c3e bfad e93e 8847 253e
000000f0: daae 593e 808d 0f3e 6e0b 893e 17ba 453e

model.fc.6.weight f4 [32, 64]
-0.05450088 -0.12707043 -0.012272441 -0.0980823 0.11422098 -0.09070063 -0.06866427 0.11542103
-0.107530035 -0.05623648 -0.027605757 0.10211474 -0.13139139 -0.06182151 -0.012908992 -0.052688833
-0.103691645 0.0006520551 0.057310957 0.09611922 0.05976177 0.021453505 -0.06985643 -0.09141154
-0.10557943 -0.0896031 0.085533775 -0.00504051 0.0073998375 -0.08435696 0.11177904 0.082417786
0.07326009 0.06897123 0.090291016 0.11543729 0.11179889 -0.034345374 0.045669217 0.066007525
-0.12517303 -0.07726954 0.04681394 -0.1262169 -0.042729102 0.10879097 -0.031262293 -0.085505955
-0.1223959 0.07531559 0.033207864 0.014937544 -0.0344197 -0.08740534 0.07206797 -0.09230927
-0.060316313 -0.037169166 0.11205757 0.058947835 -0.095971115 -0.101912655 -0.074910805 -0.08141892
0.05723869 -0.043348964 -0.028491376 0.117178924 -0.011422387 0.084533066 -0.09590173 0.042467665
-0.00703548 -0.04769707 -0.096589476 -0.025448333 -0.047276232 -0.09316012 -0.09520275 0.06550929
0.026384402 0.109347746 -0.07856198 -0.111122064 -0.095964454 -0.048150398 0.059665117 -0.10583248
0.06304615 -0.06786191 -0.01498969 0.068572626 0.045213915 -0.04704366 0.069522135 -0.11372484
-0.019792633 0.07351996 0.010275751 0.033271767 -0.118761346 0.018422125 -0.0037557103 0.11540097
0.017250778 0.004228876 0.007381891 -0.03708581 -0.0066931318 0.05727042 -0.009474844 0.09952774
0.0001203241 -0.08908921 -0.062679835 -0.023250883 -0.10648612 -0.05667609 0.07059792 0.074553624
0.035857942 -0.0061104842 0.06793297 0.10993187 -0.022582015 0.07264703 -0.020639138 0.03578025
-0.084372215 0.030786924 -0.027752463 -0.011804887 -0.040145006 0.100715466 0.013856916 0.026340207
0.07046666 0.084300414 0.0705169 0.020617334 -0.032275163 0.04668949 -0.10079696 -0.011171615
-0.07607332 0.089671984 -0.060766254 -0.0033980599 0.085403316 0.054036546 -0.030201055 0.027353743
-0.08310591 0.08731151 -0.071510226 -0.12504046 -0.07192363 -0.10016696 -0.09224991 -0.064673685
-0.03719064 0.049761944 0.054079868 0.09463804 0.044674553 -0.09883148 0.060741004 -0.024773894
0.034671262 -0.065069355 -0.04681096 -0.033019546 0.062397562 -0.01311285 -0.037647784 0.00913102
-0.008687238 0.071048185 0.11224126 0.07487597 0.06973962 0.10133422 0.07675779 0.06955171
0.025439741 -0.025918743 -0.0479896 0.018630512 -0.08536638 0.051315807 0.0025976223 0.0072143083
-0.07899239 0.039288096 -0.1127684 0.037997037 -0.014010261 0.108805016 -0.08243942 -0.06694972
0.07007016 0.09988387 -0.04943151 -0.12841478 -0.12500826 -0.10163071 0.022281233 -0.10147533
-0.024118805 -0.01664276 0.032257553 -0.078621574 -0.028738692 -0.060196675 -0.112103656 0.0653137
-0.1068844 -0.028430132 -0.091914326 0.061300863 0.021951169 0.11844541 0.04337313 -0.055325214
-0.0925073 -0.0009821084 -0.011401871 -0.036108214 0.10643016 0.040662516 -0.06520049 -0.07193355
0.05562924 -0.073625565 0.109359786 0.08269416 0.04926154 -0.08673948 0.1032362 0.07520662
0.0072113243 -0.010523784 -0.1224099 0.002541204 0.11209215 0.062309027 0.056095235 -0.021029124
0.0318004 0.060118817 -0.07975463 -0.04461903 -0.08496195 -0.032094993 -0.11617474 -0.09507968
00000000: 513c 5fbd c01e 02be 5912 49bc 5fdf c8bd
00000010: b0ec e93d 40c1 b9bd da9f 8cbd dc61 ec3d
00000020: b538 dcbd 3958 66bd 7825 e2bc 8821 d13d
00000030: 778b 06be 8d38 7dbd 3d80 53bc 3fd0 57bd
00000040: 495c d4bd adee 2a3a e5be 6a3d 27da c43d
00000050: c2c8 743d 43bf af3c e310 8fbd f935 bbbd
00000060: 073a d8bd d581 b7bd 552c af3d dd2a a5bb
00000070: 567a f23b 58c3 acbd 69ec e43d a8ca a83d
00000080: 6309 963d ca40 8d3d 7fea b83d 636a ec3d
00000090: d1f6 e43d bcad 0cbd a50f 3b3d f42e 873d
000000a0: 5c2d 00be 7e3f 9ebd f9bf 3f3d 013f 01be
000000b0: b604 2fbd cdcd de3d e40c 00bd bf1d afbd
000000c0: b4aa fabd 0f3f 9a3d f804 083d 9abc 743c
000000d0: acfb 0cbd 9201 b3bd 5f98 933d a40c bdbd
000000e0: 3d0e 77bd b23e 18bd 707e e53d 4973 713d
000000f0: 818c c4bd 95b7 d0bd d66a 99bd f6be a6bd
00000100: 1e73 6a3d af8e 31bd bf66 e9bc 81fb ef3d
00000110: f724 3bbc ac1f ad3d 2068 c4bd 93f2 2d3d
00000120: e289 e6bb 015e 43bd b4d0 c5bd 0679 d0bc
00000130: b9a4 41bd bcca bebd a9f9 c2bd bc29 863d
00000140: 1a24 d83c b6f1 df3d 1ae5 a0bd f793 e3bd
00000150: 0389 c4bd 5a39 45bd 6963 743d b3be d8bd
00000160: 571e 813d 2ffb 8abd 5197 75bc ce6f 8c3d
00000170: 3a32 393d dab0 40bd 9f61 8e3d 92e8 e8bd
00000180: 2924 a2bc a291 963d a05b 283c fa47 083d
00000190: 2639 f3bd ffe9 963c 5d22 76bb 5857 ec3d
000001a0: 8151 8d3c 6292 8a3b cae3 f13b 4ae7 17bd
000001b0: 0f52 dbbb 6394 6a3d 603c 1bbc 33d5 cb3d
000001c0: 8256 fc38 6774 b6bd 495e 80bd a378 bebc
000001d0: 6515 dabd 3025 68bd a495 903d 92af 983d
000001e0: c7df 123d 753a c8bb 7120 8b3d f623 e13d
000001f0: ebfd b8bc f7c7 943d 6913 a9bc 508e 123d
00000200: 57cb acbd dc34 fc3c 2259 e3bc 4969 41bc
00000210: 176f 24bd e943 ce3d 1e08 633c 6bc7 d73c
00000220: d350 903d b2a5 ac3d 2a6b 903d afe5 a83c
00000230: f632 04bd 7b3d 3f3d a36e cebd 2609 37bc
00000240: 54cc 9bbd f2a5 b73d 09e6 78bd fcb1 5ebb
00000250: efe7 ae3d 6d55 5d3d 3468 f7bc f514 e03c
00000260: 6e33 aabd 61d0 b23d f473 92bd 9b0a 00be
00000270: b24c 93bd 5624 cdbd 85ed bcbd a373 84bd
00000280: 3655 18bd 2ed3 4b3d da82 5d3d 97d1 c13d
00000290: aafc 363d 2968 cabd 8fcb 783d 9ff2 cabc
000002a0: 7403 0e3d 1543 85bd d9bc 3fbd 813f 07bd
000002b0: 9694 7f3d 47d7 56bc 9034 1abd 469a 153c
000002c0: eb54 0ebc b681 913d bfde e53d 9358 993d
000002d0: a5d3 8e3d 5188 cf3d 3033 9d3d 2071 8e3d
000002e0: 0167 d03c 8b53 d4bc be90 44bd 049f 983c
000002f0: 92d4 aebd 8630 523d df3c 2a3b 0166 ec3b
00000300: c3c6 a1bd 8eec 203d 1ef3 e6bd c8a2 1b3d
00000310: 4b8b 65bc 2ad5 de3d 00d6 a8bd ef1c 89bd
00000320: f280 8f3d ea8f cc3d b278 4abd 2a7f 03be
00000330: 2a02 00be c323 d0bd 2287 b63c 4cd2 cfbd
00000340: cd94 c5bc 6656 88bc 7f20 043d 5904 a1bd
00000350: 686d ebbc ca90 76bd 9a96 e5bd 30c3 853d
00000360: 35e6 dabd 4fe6 e8bc 943d bcbd 9d16 7b3d
00000370: f0d2 b33c 8293 f23d 06a8 313d b19c 62bd
00000380: 7874 bdbd 17ba 80ba eace 3abc 35e6 13bd
00000390: 0ef8 d93d bd8d 263d d687 85bd e651 93bd
000003a0: 7cdb 633d 00c9 96bd 06f8 df3d 8e5b a93d
000003b0: 78c6 493d 78a4 b1bd 806d d33d ee05 9a3d
000003c0: f94c ec3b f36b 2cbc 0bb2 fabd 548a 263b
000003d0: 9290 e53d c037 7f3d 1ec4 653d 4545 acbc
000003e0: 2341 023d 263f 763d 6556 a3bd 72c2 36bd
000003f0: 8800 aebd 0a76 03bd 06ed edbd 23b9 c2bd

model.fc.6.bias f4 [32]
0.005110198 0.06353392 0.044656154 0.10384709 -0.08943472 -0.07149424 -0.05106582 0.104533195
-0.08830007 0.08794614 -0.010642818 0.07390609 -0.119072534 0.019267015 0.07251418 -0.035660308
-0.060270183 -0.117452644 0.06115444 0.01614363 0.122199155 -0.09995277 0.090744995 -0.01712423
-0.08272406 -0.08768138 0.103183135 0.0697225 0.1246667 0.0112642385 0.06419088 0.01985117
00000000: 7373 a73b 121e 823d 5fe9 363d c8ad d43d
00000010: 8d29 b7bd 926b 92bd 652a 51bd 8015 d63d
00000020: abd6 b4bd 1b1d b43d 375f 2ebc 135c 973d
00000030: 4ddc f3bd dcd5 9d3c 5082 943d 8b10 12bd
00000040: dedd 76bd 038b f0bd 147d 7a3d a53f 843c
00000050: 8d43 fa3d 0ab4 ccbd 83d8 b93d 1d48 8cbc
00000060: 3b6b a9bd 4c92 b3bd ae51 d33d acca 8e3d
00000070: 4151 ff3d a48d 383c 8276 833d ec9e a23c

model.fc.7.weight f4 [32]
0.9962334 1.0070945 1.0051817 1.0126826 1.003324 0.9881182 1.0059805 0.98818076
0.9794528 0.99696666 1.0186617 1.0048716 0.9871249 1.0120145 0.992218 1.003756
1.004779 1.0073757 0.9992512 1.001163 0.9912163 0.9781679 0.982014 1.0105613
0.9924546 1.0118996 0.99803334 1.0082349 0.99209744 1.0158509 0.9971168 0.98402077
00000000: 2709 7f3f 79e8 803f cba9 803f 959f 813f
00000010: ec6c 803f 50f5 7c3f f8c3 803f 6af9 7c3f
00000020: 6bbd 7a3f 3539 7f3f 8263 823f a29f 803f
00000030: 38b4 7c3f b189 813f 0002 7e3f 147b 803f
00000040: 999c 803f b0f1 803f edce 7f3f 1c26 803f
00000050: 5ac0 7d3f 3669 7a3f 4565 7b3f 135a 813f
00000060: 8111 7e3f ed85 813f 1d7f 7f3f d70d 813f
00000070: 19fa 7d3f 6707 823f 0c43 7f3f c9e8 7b3f

model.fc.7.bias f4 [32]
-0.003939565 0.010499501 0.0059690755 0.015795691 0.012616458 -0.010338626 0.00081773225 -0.0011987139
-0.008749702 -0.009206744 0.022550814 0.0044563566 -0.008778973 0.010856215 -0.0017261321 0.0041028135
0.0037451268 0.017486937 0.0047616092 0.00085158355 -0.0015730152 -0.017150538 -0.010305459 0.017765315
-0.009425789 0.0128953215 -0.0024650963 0.011566189 -0.0067381375 0.01519564 -0.0027299684 0.0009116178
00000000: 7717 81bb 1906 2c3c 3c98 c33b f765 813c
00000010: 43b5 4e3c 5763 29bc 155d 563a 2a1e 9dba
00000020: e95a 0fbc e2d7 16bc 7cbc b83c a106 923b
00000030: aed5 0fbc 44de 313c 623f e2ba e570 863b
00000040: cd70 753b c440 8f3c 4607 9c3b ce3c 5f3a
00000050: a22d ceba 497f 8cbc 3ad8 28bc 9188 913c
00000060: a06e 1abc e646 533c 748d 21bb 1d80 3d3c
00000070: 98cb dcbb 22f7 783c 45e9 32bb a3f9 6e3a

model.fc.7.running_mean f4 [32]
-0.18475212 0.036049996 0.12155696 -0.08172191 -0.057362802 0.20910114 -0.07377308 0.1796687
-0.018666156 0.0405539 -0.1328996 -0.088362604 -0.43325907 0.06615983 -0.05993477 -0.102163665
-0.10477495 0.06558611 0.16817161 0.13675322 -0.061779946 -0.21029167 -0.07093185 -0.041523118
-0.1688181 -0.09248219 0.14138408 0.07712514 0.17264913 -0.14100376 -0.028672108 -0.25772068
00000000: a92f 3dbe 29a9 133d dbf2 f83d d15d a7bd
00000010: 42f5 6abd 9c1e 563e 5716 97bd 12fb 373e
00000020: c4e9 98bc d91b 263d d516 08be 74f7 b4bd
00000030: 22d4 ddbe ce7e 873d 297e 75bd 2f3b d1bd
00000040: 4094 d6bd 0352 863d 2e35 2c3e 0909 0c3e
00000050: f80c 7dbd b356 57be b844 91bd 2514 2abd
00000060: a7de 2cbe 4d67 bdbd fdc6 103e c9f3 9d3d
00000070: efca 303e 4a63 10be c5e1 eabc f7f3 83be

model.fc.7.running_var f4 [32]
0.48136356 0.28791988 0.29203698 0.31863883 0.28329885 0.20310159 0.2524162 0.2663524
0.2482843 0.2847695 0.50527734 0.2383564 0.19987144 0.22500654 0.24735372 0.35206857
0.35393575 0.2573366 0.21001953 0.25110576 0.279319 0.38912866 0.1731968 0.29515383
0.31222603 0.31173694 0.16326015 0.26549214 0.2914762 0.4048261 0.25427756 0.22935008
00000000: 4975 f63e 3c6a 933e df85 953e a124 a33e
00000010: 8c0c 913e ddf9 4f3e b23c 813e 575f 883e
00000020: 3d3e 7e3e 4fcd 913e db59 013f b313 743e
00000030: 19ab 4c3e 1d68 663e 4b4a 7d3e 5542 b43e
00000040: 1137 b53e 9fc1 833e 5c0f 573e ef90 803e
00000050: e602 8f3e df3b c73e 805a 313e 671e 973e
00000060: 17dc 9f3e fc9b 9f3e ab2d 273e 96ee 873e
00000070: 5e3c 953e 5e45 cf3e ab30 823e bfda 6a3e

model.fc.10.weight f4 [16, 32]
-0.1440277 0.016071303 0.1170879 0.08529445 0.06689789 -0.010248996 0.04393005 0.06720712
-0.1023058 -0.043151382 0.1450621 -0.06974443 0.1120001 0.06465447 0.090217605 -0.15659867
-0.12840573 -0.10898785 -0.17186512 0.09242142 -0.16832748 0.019370459 0.12950067 0.025707476
0.10951403 0.04124608 -0.16400689 -0.04771836 0.05040312 -0.02125839 -0.13672866 -0.107342884
0.12834899 -0.16019881 -0.05819407 0.03438047 0.026473943 -0.12726122 0.1408453 0.06216519
-1.129575e-05 -0.15620105 0.017529462 -0.11172399 0.0546632 0.15879649 0.15513271 0.01313417
-0.10673457 0.0076289256 0.1303518 -0.11754136 -0.07507776 0.1798222 0.09516671 0.10362873
-0.014444812 0.12514915 0.06837343 0.16250892 0.010803876 -0.070545696 0.1496408 0.069576554
-0.07927005 0.02012139 -0.06552051 -0.1115199 0.14852287 0.049639147 0.10591994 -0.15443304
-0.17065682 -0.06292193 0.16994528 0.1445139 0.10750942 -0.17153697 0.06205524 0.17156462
0.14004712 -0.04433212 -0.030282307 0.123798795 -0.08798373 0.056070037 -0.08911707 0.07187777
0.12210799 0.06973518 -0.008959435 -0.08919515 -0.05035252 0.0032440799 0.1859573 0.13272056
0.077253886 0.04474237 -0.1371377 -0.12332016 -0.10502336 0.097173214 0.06278961 -0.1317742
0.050436065 -0.1571096 -0.15963566 -0.101306506 -0.049635492 0.032629233 0.18744934 0.120566525
0.08965997 -0.05999443 0.046116915 -0.048014678 0.04689548 -0.12286524 0.14109296 -0.025369108
0.15453705 -0.11550989 0.08175743 0.07721757 0.15309508 -0.18448603 0.03312836 -0.015036818
0.030981276 -0.01619691 -0.028882537 -0.16896115 0.03424089 0.0041008065 -0.10337868 0.10036732
0.094039455 0.17910425 -0.09625014 -0.09594153 -0.16063671 -0.116121046 0.16955575 0.009308114
-0.041252673 0.00954008 0.094997495 -0.0936301 -0.11305704 0.06021149 -0.0004144918 0.10930505
-0.0881331 -0.09836705 -0.05603822 -0.098475404 -0.090391 -0.0066724457 0.10336578 -0.14310318
-0.02147582 -0.042968206 -0.11142387 -0.02284332 -0.06183254 0.05430166 -0.16670726 -0.113433406
0.07559792 -0.08799424 0.16837423 0.15495265 -0.05886029 0.10088897 0.15277404 -0.017588008
0.16293734 -0.049513478 0.10813278 0.08394715 0.13030852 0.14371991 0.029295376 -0.09813097
-0.12767924 -0.12374661 -0.09597736 -0.10307057 -0.02903184 -0.05027854 0.088776596 0.16095348
-0.029984336 -0.008735349 0.16307725 0.14341934 0.13535614 -0.17280747 -0.05666315 0.023835773
0.115680136 -0.014229574 0.09599407 0.09040342 0.100890085 -0.15803514 -0.16542628 0.042819872
0.14885315 -0.10551632 0.13771659 -0.06446045 -0.033400748 0.12568793 -0.17648563 -0.02889528
-0.10224066 0.02805709 0.026368067 -0.14938958 0.14642628 -0.0075972285 -0.16878726 -0.07639493
0.0139475195 -0.13312316 -0.025498081 0.1319309 -0.05912148 0.12764452 0.005323816 -0.013411797
0.024006873 -0.0631899 -0.033935424 0.17718232 -0.1262281 -0.039554834 -0.056486696 0.13614307
0.058860563 0.010002669 -0.053236473 -0.09227124 0.15040644 -0.050035775 0.06665322 0.019409271
0.042843994 0.08105114 0.07143047 -0.068356805 -0.013929076 0.04385633 0.05509834 -0.0040018684
00000000: ff7b 13be f7a7 833c c8cb ef3d dbae ae3d
00000010: c301 893d 68eb 27bc ffef 333d e3a3 893d
00000020: b485 d1bd 81bf 30bd 298b 143e 2bd6 8ebd
00000030: 4f60 e53d 9069 843d 02c4 b83d 675b 20be
00000040: cb7c 03be 0635 dfbd 69fd 2fbe 7147 bd3d
00000050: 0a5e 2cbe ccae 9e3c d39b 043e 7c98 d23c
00000060: e448 e03d a6f1 283d 6cf1 27be 5474 43bd
00000070: 8173 4e3d 1326 aebc 9902 0cbe 96d6 dbbd
00000080: eb6d 033e 280b 24be e85c 6ebd 89d2 0c3d
00000090: e2df d83c c450 02be c039 103e eda0 7e3d
000000a0: e082 3db7 2bf3 1fbe f299 8f3c 8ccf e4bd
000000b0: 85e6 5f3d 8c9b 223e 1cdb 1e3e b430 573c
000000c0: a797 dabd 11fc f93b f17a 053e 86b9 f0bd
000000d0: 5ec2 99bd 5023 383e c4e6 c23d 4d3b d43d
000000e0: efa9 6cbc 1927 003e 5e07 8c3d bd68 263e
000000f0: be02 313c 437a 90bd 703b 193e 277e 8e3d
00000100: 5658 a2bd 9dd5 a43c 9e2f 86bd 8c64 e4bd
00000110: 6116 183e 6b52 4b3d 8eec d83d b223 1ebe
00000120: a9c0 2ebe 36dd 80bd 2306 2e3e 74fb 133e
00000130: e62d dc3d 63a7 2fbe a32d 7e3d a3ae 2f3e
00000140: 8368 0f3e 9995 35bd 9a12 f8bc 398a fd3d
00000150: d030 b4bd b2a9 653d 0383 b6bd a734 933d
00000160: c113 fa3d 51d1 8e3d 98ca 12bc f2ab b6bd
00000170: 723e 4ebd a19a 543b 976b 3e3e e6e7 073e
00000180: 4937 9e3d c643 373d d36d 0cbe 488f fcbd
00000190: 7d16 d7bd c002 c73d d797 803d d1ef 06be
000001a0: 0c96 4e3d 57e1 20be 8877 23be c979 cfbd
000001b0: 964e 4bbd 3ba6 053d b8f2 3f3e 95eb f63d
000001c0: a59f b73d b8bc 75bd 17e5 3c3d 0aab 44bd
000001d0: 7a15 403d c5a0 fbbd ac7a 103e e0d2 cfbc
000001e0: f63e 1e3e 7390 ecbd 7170 a73d 3f24 9e3d
000001f0: f5c4 1c3e e8e9 3cbe 9ab1 073d fc5c 76bc
00000200: 72cc fd3c 62af 84bc 129b ecbc 2704 2dbe
00000210: 2d40 0c3d 0f60 863b 34b8 d3bd 628d cd3d
00000220: c297 c03d 1b67 373e cb1e c5bd fe7c c4bd
00000230: f37d 24be dfd0 edbd 06a0 2d3e 0f81 183c
00000240: 90f8 28bd ff4d 1c3c 0c8e c23d 23c1 bfbd
00000250: 738a e7bd 53a0 763d 2650 d9b9 53db df3d
00000260: 207f b4bd aa74 c9bd 5588 65bd 79ad c9bd
00000270: eb1e b9bd 88a4 dabb 70b1 d33d a489 12be
00000280: 0fee afbc 6eff 2fbd 3332 e4bd ea21 bbbc
00000290: 1e44 7dbd 6b6b 5e3d 4fb5 2abe c64f e8bd
000002a0: 15d3 9a3d 5336 b4bd 4b6a 2c3e e8ab 1e3e
000002b0: 7d17 71bd e09e ce3d cc70 1c3e ba14 90bc
000002c0: 0cd9 263e a5ce 4abd b874 dd3d 7cec ab3d
000002d0: 996f 053e 502b 133e dbfc ef3c e4f8 c8bd
000002e0: 59be 02be dd6e fdbd c78f c4bd aa16 d3bd
000002f0: 2ed4 edbc dff0 4dbd 81d0 b53d fdd0 243e
00000300: b6a1 f5bc b61e 0fbc b9fd 263e 85dc 123e
00000310: cd9a 0a3e 71f4 30be 9f17 68bd 3d43 c33c
00000320: b5e9 ec3d 2923 69bc 8a98 c43d 6e25 b93d
00000330: 769f ce3d f7d3 21be 8265 29be e463 2f3d
00000340: f66c 183e f118 d8bd 9405 0d3e d703 84bd
00000350: 39cf 08bd 56b4 003e a6b8 34be cbb5 ecbc
00000360: 8d63 d1bd fbd7 e53c d801 d83c 95f9 18be
00000370: c5f0 153e 2cf2 f8bb 91d6 2cbe f274 9cbd
00000380: 2384 643c 7051 08be 5ae1 d0bc e518 073e
00000390: 5d29 72bd 3fb5 023e 6873 ae3b 27bd 5bbc
000003a0: 10aa c43c b569 81bd dfff 0abd 486f 353e
000003b0: f041 01be 4004 22bd 985e 67bd 1769 0b3e
000003c0: c617 713d 3ce2 233c 7d0e 5abd b4f8 bcbd
000003d0: 2504 1a3e 50f2 4cbd 7c81 883d 3100 9f3c
000003e0: 2f7d 2f3d 24fe a53d 234a 923d a7fe 8bbd
000003f0: c736 64bc b2a2 333d ccae 613d 1b22 83bb

model.fc.10.bias f4 [16]
-0.021738311 0.14190353 0.025054928 0.0077728513 -0.073373064 -0.16159657 -0.16299137 -0.07067546
0.018584654 -0.025385866 0.060779076 -0.085091755 -0.028482694 -0.16104068 0.09420412 0.077078514
00000000: 8b14 b2bc 294f 113e fe3f cd3c 67b3 fe3b
00000010: 9e44 96bd 9279 25be 36e7 26be 4cbe 90bd
00000020: d83e 983c 05f6 cfbc 7bf3 783d 9644 aebd
00000030: 8a54 e9bc d9e7 24be 17ee c03d 57db 9d3d

model.fc.11.weight f4 [16]
0.9921539 0.97856945 1.013591 0.9896387 1.0115982 0.9882953 1.0007184 0.98983747
0.97213143 1.0201979 1.0180935 0.9810854 1.0193272 0.9838384 1.0111549 0.9844368
00000000: ccfd 7d3f 8783 7a3f 5abd 813f f658 7d3f
00000010: 0d7c 813f ec00 7d3f 8a17 803f fd65 7d3f
00000020: 9bdd 783f d895 823f e350 823f 6a28 7b3f
00000030: 5079 823f d5dc 7b3f 866d 813f 0d04 7c3f

model.fc.11.bias f4 [16]
-0.009334214 -0.02399707 0.010562188 -0.00222895 0.009249152 -0.0074204765 0.012168856 -0.0022363637
-0.016192377 0.0159431 0.02193246 -0.010643346 0.029317116 -0.007532528 0.003911783 0.008117115
00000000: 88ee 18bc 8195 c4bc 070d 2d3c 9313 12bb
00000010: c189 173c 7827 f3bb e25f 473c f58f 12bb
00000020: e0a5 84bc 1b9b 823c b4ab b33c 6e61 2ebc
00000030: 732a f03c 6dd3 f6bb 6a2e 803b a6fd 043c

model.fc.11.running_mean f4 [16]
-0.103204414 0.3417034 0.17551394 -0.011052736 -0.2214491 -0.07848304 -0.13179682 0.034146003
0.01731256 0.013281409 0.26306182 -0.1836694 0.2237374 -0.12334742 -0.12565498 0.22821943
00000000: d65c d3bd bff3 ae3e edb9 333e 8916 35bc
00000010: 8ec3 62be b7bb a0bd bff5 06be aedc 0b3d
00000020: 12d3 8d3c 449a 593c 0ab0 863e d513 3cbe
00000030: 6b1b 653e 929d fcbd b3ab 00be 5bb2 693e

model.fc.11.running_var f4 [16]
0.35988134 0.16100393 0.2903834 0.14673866 0.26945215 0.2286354 0.29330635 0.39243984
0.16012366 0.34776083 0.3547015 0.22713321 0.39965007 0.14709163 0.168014 0.32625368
00000000: 5e42 b83e 37de 243e 22ad 943e a942 163e
00000010: a2f5 893e 661f 6a3e 402c 963e e0ed c83e
00000020: 75f7 233e b50d b23e 6f9b b53e 9c95 683e
00000030: ef9e cc3e 309f 163e dd0b 2c3e b90a a73e

model.fc.14.weight f4 [8, 16]
0.078138135 -0.20090432 0.115117654 -0.21389423 0.13085411 0.11431196 0.038233683 0.25295785
-0.23598255 0.06974887 0.07936396 0.041799568 -0.19879006 -0.04363883 -0.22363977 0.1198163
-0.17758062 0.0754963 -0.19282411 0.07965545 -0.1909491 0.06603064 -0.01712211 0.19782145
0.18457022 0.037562147 0.12621126 0.042253837 -0.15550712 0.0672169 -0.10566127 -0.005507673
0.027192723 0.08672725 0.21774566 0.029869605 0.08784043 0.23784532 0.24187647 0.043595
-0.20222284 -0.081549115 0.21093805 -0.10156739 -0.09752884 0.20253997 0.22224729 0.009285449
-0.060895473 -0.15295373 0.2166499 -0.16631745 0.034195833 0.1672069 -0.012795607 0.074937984
0.006902802 -0.13664377 -0.22208042 0.17035624 0.16414718 -0.09333878 -0.035551067 0.0080264835
-0.004595133 -0.007745311 0.06204966 -0.048764642 -0.124830924 0.22134455 -0.115330055 -0.032837313
0.018402465 0.14075765 -0.14977019 0.0080814995 0.01862272 0.08393353 0.20747598 -0.2198518
-0.21609904 -0.19388258 -0.10581676 -0.07490767 -0.024309477 -0.039351508 0.24816763 0.2304252
0.08231373 0.05049588 -0.03230201 -0.18866716 -0.026483178 -0.024237411 -0.13604474 -0.24261424
-0.172099 0.23472546 0.26474905 0.1577178 0.19667602 0.16032521 0.26928708 0.09739595
0.045369435 0.14912826 -0.06297502 0.13744843 0.088060126 0.18890278 -0.08330475 -0.08220919
0.081186675 -0.2160514 0.133294 -0.21675587 -0.24183744 -0.15342101 -0.02239353 -0.15165633
-0.07467169 -0.11605852 0.2502318 0.10267034 -0.23726493 -0.14128585 0.09090597 -0.2438582
00000000: e306 a03d ddb9 4dbe cec2 eb3d 1707 5bbe
00000010: 9ffe 053e 641c ea3d ec9a 1c3d b183 813e
00000020: 69a5 71be 7fd8 8e3d 9289 a23d 0636 2b3d
00000030: 9f8f 4bbe a1be 32bd d301 65be 4062 f53d
00000040: b2d7 35be ce9d 9a3d af73 45be 6622 a33d
00000050: 2988 43be 123b 873d ab43 8cbc b591 4a3e
00000060: faff 3c3e c4da 193d 863d 013e 5c12 2d3d
00000070: 423d 1fbe 04a9 893d f064 d8bd b679 b4bb
00000080: 46c3 de3c 0e9e b13d b8f8 5e3e 1ab1 f43c
00000090: afe5 b33d b98d 733e 77ae 773e ac90 323d
000000a0: 8113 4fbe 3903 a7bd 2500 583e 9002 d0bd
000000b0: 33bd c7bd a366 4f3e cb94 633e ff21 183c
000000c0: 886d 79bd e79f 1cbe 79d9 5d3e 1f4f 2abe
000000d0: ee10 0c3d 4938 2b3e aaa4 51bc 1679 993d
000000e0: e630 e23b 58ec 0bbe 0d69 63be de71 2e3e
000000f0: 3316 283e 6728 bfbd ff9d 11bd 8381 033c
00000100: c592 96bb 61cc fdbb c927 7e3d 6fbd 47bd
00000110: 5ba7 ffbd 25a8 623e 2a32 ecbd 6b80 06bd
00000120: c4c0 963c c622 103e 5b5d 19be 4468 043c
00000130: ad8e 983c 58e5 ab3d 9574 543e d520 61be
00000140: 1149 5dbe 2889 46be 75b6 d8bd 3169 99bd
00000150: ab24 c7bc 0c2f 21bd a81f 7e3e 95f4 6b3e
00000160: 1a94 a83d c5d4 4e3d 1d4f 04bd f731 41be
00000170: 40f3 d8bc 898d c6bc 504f 0bbe de6f 78be
00000180: b83a 30be df5b 703e 308d 873e c680 213e
00000190: 7065 493e 4b2c 243e ffdf 893e 8777 c73d
000001a0: 4dd5 393d 14b5 183e 0cf9 80bd 48bf 0c3e
000001b0: de58 b43d bb6f 413e ae9b aabd 4b5d a8bd
000001c0: 3345 a63d 943c 5dbe 397e 083e 40f5 5dbe
000001d0: 3ca4 77be 661a 1dbe a372 b7bc cc4b 1bbe
000001e0: 79ed 98bd 17b0 edbd 621e 803e d444 d23d
000001f0: 94f5 72be 3dad 10be e92c ba3d f7b5 79be

model.fc.14.bias f4 [8]
-0.18233319 0.23097849 0.12154772 0.19146438 0.12580107 -0.23217045 0.014150954 0.08386816
00000000: 8db5 3abe a085 6c3e 03ee f83d 3d0f 443e
00000010: ffd1 003e 17be 6dbe 67d9 673c 12c3 ab3d

model.fc.15.weight f4 [8]
1.0311239 0.971841 0.99921787 0.9709474 1.0262887 0.97428566 0.9760841 1.011093
00000000: defb 833f 92ca 783f becc 7f3f 0290 783f
00000010: 6e5d 833f c96a 793f a6e0 793f 7f6b 813f

model.fc.15.bias f4 [8]
0.031891286 -0.030141236 -0.017599596 -0.031432725 -0.00054281834 -0.029649485 -0.028790137 0.0010628095
00000000: 70a0 023d c1ea f6bc 072d 90bc 9abf 00bd
00000010: ec4b 0eba 7ae3 f2bc 4bd9 ebbc f84d 8b3a

model.fc.15.running_mean f4 [8]
-0.1914141 0.22085501 0.39145228 0.19082403 0.122309685 -0.37671632 0.37650043 -0.18504079
00000000: 0f02 44be d127 623e 6f6c c83e 6067 433e
00000010: 807d fa3d f6e0 c0be aac4 c03e 557b 3dbe

model.fc.15.running_var f4 [8]
0.19876312 0.16638762 0.4175658 0.1691202 0.16742668 0.29101065 0.32709333 0.35577568
00000000: 8f88 4b3e 8461 2a3e 2fcb d53e d92d 2d3e
00000010: e671 2b3e 59ff 943e c778 a73e 3b28 b63e

model.fc.18.weight f4 [3, 8]
0.090965904 -0.061045345 0.20042905 -0.024241386 0.26098186 -0.054423787 -0.21257901 0.22612925
-0.24954773 0.25344115 0.19080952 0.27591357 0.14021637 0.10371213 -0.2077818 0.037644092
-0.052233014 -0.18916523 -0.064340584 0.0940548 -0.08003307 -0.17872947 -0.2515304 -0.043993462
00000000: 554c ba3d af0a 7abd 463d 4d3e df95 c6bc
00000010: 6a9f 853e 7aeb 5ebd 50ae 59be 6d8e 673e
00000020: 7189 7fbe 0ac3 813e 9263 433e 8b44 8d3e
00000030: e194 0f3e 0667 d43d c1c4 54be b130 1a3d
00000040: 49f2 55bd 88b4 41be ffc4 83bd ce9f c03d
00000050: 61e8 a3bd dc04 37be 98c8 80be 7d32 34bd

model.fc.18.bias f4 [3]
0.20225765 0.224843 0.15055932
00000000: a11c 4f3e 3e3d 663e 392c 1a3e
