MultiClassdiabet/checkpoints/bodyP-epoch=08-val_f1=0.96.ckpt (torch, 285052 bytes, 68 tensors)

model.fc.0.weight f4 [128, 77]
00000000: 0115 f5bc ae25 893c 8d4e 87bd 5f32 783d
00000010: 27e1 ea3d 42f5 a8bd cb75 bd3d ef81 c13c
00000020: 7f0d b73d c869 043c 3566 803d 3a64 acbc
00000030: 1668 aa3d 5174 113c f71a 74bd ac9c ce3c
00000040: 77eb 6ebd b3d5 9abc 1286 4dbd 8252 913d
00000050: 7081 c3bd 906a 67bd 0846 1dbd 1e2a a1bd
00000060: dae6 823b fa54 dabd 533d cd3d 880e d6bd
00000070: d821 b43d 6eef a83c 77f5 34bd 3a63 903d
00000080: 7e21 e93b 423a aa3d 8dd6 1e3c 9665 39bd
00000090: deae a83c 30be 23bd 6c72 2b3d 0038 bd3d
000000a0: b452 733d 899f 65bd e383 923d 90e8 373c
000000b0: c2df 4f3d 4182 92bd 08a5 edbd 8d7a 54bd
000000c0: a1e1 b2bd e4b6 dc3d 81db 1a3d bd77 3f3d
000000d0: 0424 403d 12de ca3b d531 b93d 9776 8bbd
000000e0: cdc7 073c 91bb a7bd 4dfa 183d c9a8 0fbd
000000f0: 2f4a 043d 6c66 a4bc 58b5 b33d a699 92bd
00000100: 36ed 8dbd 4a42 99bd ab69 c93d eb2f 213d
00000110: 39ef e83d 640e c6bd 3a55 dcbd b950 abbd
00000120: 2fc3 9ebd 64be 563d 13b5 093d 05a2 b93d
00000130: 760a 51bd a425 93bd 2fec 983d 1c46 46bd
00000140: 7a9c 833d 3ddb dfbc 40f7 883d 3497 a4bd
00000150: 2d18 6ebd d554 143d e331 c93c cf1c aabc
00000160: 48e3 963d 1748 aa3d e2ce a0bd 91b6 64bd
00000170: 203a dd3d 7186 04bd 34f2 0fbd 2858 dbbd
00000180: 080c 6bbd 7004 043d 7d21 22bc 4f25 8cbd
00000190: d85a 933b 8c6d a2bd 4aca bbbd 059d 5ebd
000001a0: 3407 b7bd 0f6c 8dbd 0a04 f53d 05e6 c53c
000001b0: 2933 3e3d bd56 debd f96f a1bd 057b 27bd
000001c0: 03ae 8b3c c43c bfbd 29e8 4fbd 0da6 8bbd
000001d0: b3da afb9 8c3f 2cbd dcc6 50bc 6f83 aabd
000001e0: d768 a6bd db72 84bd f269 2dbd fd9e bbbd
000001f0: ad8e bd3d 387d d1bc 79f3 c73d 3974 1f3d
00000200: eb4b bbbd 779f a43d d386 f4bc 38ec 2cbd
00000210: 7c9f bfbd 55b8 e3bd 1522 293d 4028 c7bc
00000220: ae2a 433d 7d2b bcbd 00e4 b43d f18e 9abd
00000230: 706a 65bc c699 003d b770 823d c7a0 cd3d
00000240: 3d24 d23d 8b6f b7bd d2ee e63c 6372 43bd
00000250: cf6a 3dbc 75d1 acbd 1792 db3d 75dc a7bd
00000260: f4be 7d3d b7dc 453d c89a 1e3d a277 79bd
00000270: b861 d33d 46f0 c03c d7d9 493b 03cb ddbd
00000280: 44b2 203d e6ee c3bb 2b0f 93bd a07e c93d
00000290: 69bb 0f3c 9514 7bbd 8557 66bd 914b 26bb
000002a0: b8e3 843d 70d3 fbbc f453 7cbd 446c 17bd
000002b0: c7b8 adbd 13b9 343d 5503 bf3d d860 dabd
000002c0: 202d de3c 4ac1 733d e6c0 983c cb36 46bd
000002d0: 8abd 613d 1969 623d 8979 663d 46d8 29bd
000002e0: 79cb e0bc e01c dd3b b804 a7bc 591b 0abd
000002f0: 7d52 863d 8d4c c13d 0a6d 88bc 2b5f aebc
00000300: e8bc b9bb b7cb 06bc 55cb c03c db57 f93c
00000310: 8908 e4bd 142d 4abd 5732 b13d 87b9 3b3d
00000320: eb8f 8abc bfd9 97bd 74ce 9ebd 5aa7 e8bd
00000330: 0c81 42bd a784 ce3c 32fa 8d3d a572 063d
00000340: c54f dcbd 1f24 aebd 380a d3bc b29b d23d
00000350: 9945 b53c 76dd 44bd 47c5 3a3d 0c02 63bd
00000360: 8f69 aabd ac0e ac3d 37de 8fbd d096 d4bc
00000370: 328d 00be 9b99 af3d 0a51 993d e6c4 453d
00000380: 114f 9ebd 801a 07be 7aac d0bd 7195 773d
00000390: e062 633d e2b2 b93d 815f 303d cc8d 063d
000003a0: 78e7 103c f6f1 b7bd 3903 d3bd e216 cfbd
000003b0: b9f1 383d 2eaa 51bd 4de4 adbc 2a39 7ebd
000003c0: 9d1e 92bc db90 82bd 1d29 90bd 3137 283d
000003d0: 52d4 03bd cdf3 963d ad0c 05bd e6ba 9dbd
000003e0: e25f 66bc 705d 4cbd 02c8 e0bc 60a7 d0bd
000003f0: 4dc6 8b3d 56fe 8dbd 6025 6f3d 752f 5f3d
-0.029917242 0.0167416 -0.06606779 0.060594913 0.11468726 -0.08249904 0.09250983 0.023621527
0.08938121 0.008081861 0.062694944 -0.021043885 0.08320634 0.00887783 -0.05959603 0.025221191
-0.058330026 -0.018900728 -0.050176688 0.07095815 -0.095461726 -0.05649811 -0.038396865 -0.07869361
0.003994805 -0.10660739 0.10021462 -0.1045199 0.08795518 0.020621981 -0.044179406 0.07050176
0.0071145883 0.08311893 0.009694708 -0.045262896 0.020591196 -0.0399763 0.041857168 0.09239197
0.059405044 -0.056060348 0.07154062 0.011224881 0.0507505 -0.0715375 -0.11603743 -0.051874686
-0.087344415 0.10777071 0.03780699 0.04674505 0.046909347 0.0061910236 0.09042708 -0.068097286
0.008287382 -0.08190072 0.03734808 -0.035073075 0.03229731 -0.02006837 0.08774823 -0.07158212
-0.0693001 -0.07483347 0.09834608 0.03935234 0.11373753 -0.096707135 -0.10758443 -0.08365006
-0.07752072 0.052427664 0.03361995 0.09064106 -0.051035367 -0.07184914 0.074669234 -0.048406705
0.0642633 -0.02732622 0.06687784 -0.08036652 -0.058128525 0.036213715 0.02455992 -0.02076569
0.07367569 0.08314531 -0.0785196 -0.05583817 0.10802102 -0.032354776 -0.035143092 -0.10710174
-0.05738452 0.032230794 -0.00989568 -0.068430535 0.0044969134 -0.07931051 -0.09169443 -0.054348964
-0.08936921 -0.06905376 0.11963661 0.024157533 0.04643551 -0.10856388 -0.07882685 -0.040888805
0.017050749 -0.09337762 -0.050758515 -0.06818781 -0.00033541545 -0.04205279 -0.012742724 -0.0832585
-0.08125465 -0.064672194 -0.042337365 -0.09161184 0.09255729 -0.025572404 0.097632356 0.038929198
-0.091453396 0.08038228 -0.029849445 -0.042217463 -0.09356591 -0.11119143 0.04129227 -0.024311185
0.047648124 -0.09187982 0.0883255 -0.07546795 -0.014002427 0.03139665 0.06369155 0.100404315
0.10260818 -0.08956822 0.02819005 -0.04771651 -0.01156111 -0.08438388 0.10721224 -0.08196346
0.061949685 0.048306193 0.03872183 -0.060905106 0.10321373 0.023552071 0.0030800009 -0.10829737
0.039232507 -0.0059794066 -0.071806274 0.09838605 0.008772709 -0.061298925 -0.05623581 -0.002537463
0.064887464 -0.03074047 -0.0616035 -0.036968485 -0.08482509 0.044121813 0.093268074 -0.10663003
0.027121127 0.059510507 0.018646669 -0.0483921 0.0551124 0.05527601 0.05626825 -0.04146602
-0.027440773 0.006747827 -0.020387992 -0.033717487 0.06558702 0.09438429 -0.016653556 -0.021285614
-0.0056682713 -0.00822728 0.023534456 0.0304374 -0.111344405 -0.049359396 0.0865218 0.04583123
-0.016914329 -0.07414579 -0.077542216 -0.11360045 -0.04748635 0.025209738 0.069324866 0.032824177
-0.10757402 -0.08502983 -0.025761709 0.10283603 0.022127913 -0.048062764 0.045598295 -0.055421874
-0.08320915 0.08401236 -0.07024806 -0.02595082 -0.12553862 0.0857422 0.0748616 0.04828348
-0.077299245 -0.13193703 -0.10189147 0.060445253 0.055514216 0.09067322 0.04305983 0.03285007
0.008844249 -0.08981697 -0.10303349 -0.101117864 0.0451524 -0.051187687 -0.021227026 -0.062066235
-0.017836863 -0.06375285 -0.07039092 0.04106826 -0.032184906 0.0737072 -0.03248279 -0.07701664
-0.014060946 -0.049893796 -0.027439121 -0.10188174 0.06824932 -0.06933276 0.058385253 0.054488618

model.fc.0.bias f4 [128]
00000000: 06fb e83b d95e ddbd 56bc e43c 3f19 edbd
00000010: 2192 a6bd 6982 903d 88b3 b63d f69c 20bd
00000020: c1bf 8ebd 6a2c 953d 70de d5bd 67c6 b13d
00000030: 2215 ad3d 5073 063d 92f7 cd3c d407 1a3d
00000040: c080 afbd 712e 4fbd 7ca7 963d c4a8 d73d
00000050: f04a eabb b424 183d b5b0 e4bd f87b 9c3d
00000060: 6d78 a8bd 62fe 5dbd 873e e53d b665 00bd
00000070: 385c 8cbd 4780 613b 53c5 923d 8490 d23d
00000080: 5aeb d1ba c44b a73d 7395 883d bdc6 b3bc
00000090: 0ba7 97bd b3e9 453c 1e7b 22bd d584 533d
000000a0: 121a acbd 442b 90bd c0aa 98bd 0285 a9bd
000000b0: 752a a73d 49b2 cebd dbbf 87bb d815 a0bd
000000c0: 7c5f 3ebd 6f5c 5dbc 7d74 813d 33cd 9c3d
000000d0: 17b5 21bd 3b23 f43b c011 31bb d9c5 ca3d
000000e0: 17bd 363d a9a1 f2bc 59c8 983d 6960 b8bd
000000f0: 0871 8e3d 01bf 9a3d 8461 85bd c101 6c3d
00000100: f22d 343d b924 d5bd e87e 383d 2350 a03d
00000110: aa00 a33c 70c6 1bbc 0743 37bd 8384 a2bd
00000120: 2abd 013d 4e30 dbbd 1888 bebd bc6c 11bd
00000130: f0db e6bd c715 ee3d b179 07bd 2735 48bd
00000140: 11f1 013d be26 1f3d 8c28 b93d 7fc6 1abd
00000150: aa0e 60ba 25e5 adbd 4500 b9bd 12f7 59bd
00000160: b757 f63b f009 24bd 20ea 11bd 91e5 443d
00000170: fb14 983c 0eda ab3d 9bf9 5a3d 61ce 793d
00000180: 3f63 88bd 4b46 603d ae86 cdbd 52c4 553d
00000190: 9836 bdbd cf91 293d 8650 debd d0fd 7fbc
000001a0: 540b 763d b2e7 89bd 4b4b a63d 4825 15bd
000001b0: a1b6 d03d e77b cf3d e597 9ebd c706 fdbc
000001c0: 080f c9bb 2fc3 21bd 0387 0c3d 887e e4bd
000001d0: 3234 97bd 21a3 92bc e13c e9bd 4865 f8bd
000001e0: a02c 153d 8251 c7bd f036 963d ab4b 9dbd
000001f0: c93a 0d3b 249f 863d e75f fbbd ae46 ddbd
0.0071100025 -0.108091064 0.027921837 -0.11577081 -0.081333406 0.07056124 0.089209616 -0.03921219
-0.06970168 0.07283862 -0.10442817 0.0868042 0.084512964 0.032824814 0.025142465 0.03760512
-0.08569479 -0.0505814 0.07356164 0.10530236 -0.0071500465 0.037144378 -0.11166517 0.07640833
-0.082260944 -0.054197676 0.11193567 -0.031347 -0.06853527 0.0034408735 0.07166543 0.102814704
-0.0016015575 0.08168748 0.0666913 -0.021945352 -0.07404908 0.012079644 -0.039668195 0.05164035
-0.0840341 -0.07039502 -0.07454443 -0.08277322 0.08162395 -0.10092599 -0.004142744 -0.07816666
-0.04647778 -0.013510807 0.063210465 0.07656326 -0.03947934 0.007450489 -0.0027018636 0.09901018
0.044613924 -0.029618101 0.07460088 -0.09002764 0.06955153 0.07555962 -0.0651274 0.05761886
0.04398913 -0.10407395 0.045042902 0.07827785 0.019897778 -0.00950776 -0.044741657 -0.07935431
0.03167454 -0.10702573 -0.093033016 -0.035504088 -0.112724185 0.116252474 -0.03307504 -0.048878815
0.03172404 0.038855307 0.09040937 -0.037786957 -0.0008547107 -0.084909715 -0.090332545 -0.05321414
0.0075177806 -0.04004854 -0.03562367 0.048070494 0.018564692 0.083912 0.0534607 0.060987834
-0.06659555 0.054754537 -0.10035454 0.05218918 -0.092389286 0.04139882 -0.108552024 -0.015624478
0.060069397 -0.067336455 0.0811983 -0.036412507 0.10191084 0.10131054 -0.07743815 -0.03088702
-0.006135825 -0.039492782 0.034308445 -0.111569464 -0.07383002 -0.017900052 -0.11388565 -0.12128693
0.03641951 -0.09732343 0.07334697 -0.07680448 0.0021549931 0.065733224 -0.12274151 -0.10804497

model.fc.2.weight f4 [64, 128]
00000000: 2a25 613c cff8 07bd a9f3 2c3d 6d4f e43c
00000010: 390a b13c 9a7a 223d eb80 ab3d c22f 463c
00000020: 6925 873d 37ec 71bd 30d7 8b3d 53a2 2cbc
00000030: b840 5b3d e977 9bbd 70b9 6cbd 0968 88bd
00000040: 9161 533d ddb7 e9bb f2c2 9fbd 8bcd c83d
00000050: 3c1c ce3c da92 b53d 26e7 253c 8808 873c
00000060: 9b01 663d 4c37 8dbd 75c0 b43d f114 43bd
00000070: cdd1 6b3c cdf5 82bd afd6 59bd ff62 743d
00000080: 1575 6abc 1465 87bc 671a 683d ed2a b43d
00000090: f06c a8bd ab28 1dbb f80d 6f3c ab29 a83d
000000a0: 3d47 ffbc 2684 aabc 5532 56bd 6aa0 843c
000000b0: 9156 b83c 0d96 b4bc 919e 8ebc b5c8 8bbd
000000c0: 1452 16bd 02b9 c2bc be43 eb3c e22d 263d
000000d0: 0101 403d c99b 92bd 638c 17bc d0a2 a1bc
000000e0: 4f98 c53d a5dc 5c3d ae4f a3bd f244 62bd
000000f0: 86ec 88bd c8aa c3bc 5480 8dbd d65c 043d
00000100: 47dd 1ebd 1f68 37bd 450f bb3b 7e48 13bd
00000110: 199c 793d 0a70 a33d 80d0 b2bd 0eb1 403d
00000120: e93c 083c aafb 783d 2d5f 13bd 7960 9ebb
00000130: a214 c6bb 4ea7 d53c 2794 503d 7553 213d
00000140: 2d5e 843b ba44 85bd e81c 85bd 664a 2abd
00000150: 7033 a6bd 0c0c aa3d c0dc fdbc b4d1 4dbd
00000160: d39e 2bbd 0c72 283d fc34 83bd a0b0 8fbd
00000170: 4555 8bbd 986d 193c 9f8d 4abc acaa cebd
00000180: 1deb 7cbd d299 94bd 4644 a43c 628a 2f3d
00000190: b91f 163c 0095 a4bc 2b42 46bd 3cc5 c53c
000001a0: 06f7 b6bc c8a4 75bc ae7d 87bc df9e d13a
000001b0: 7dc4 c63c c2e1 7f3d a95e a83d 05a4 b4bc
000001c0: 2266 683b 0ead 51bd 3c34 9ebd 71ed 993d
000001d0: d311 a93c ad4b 4abd 217a 1b3d 5abd 273d
000001e0: 3981 103d b305 193d ea22 783a 000c 66bd
000001f0: 966c 9dbd 6b18 a53d 269e 6c3d bd69 81bd
00000200: e189 943d 8c35 bdbd a551 813d 90ad 323d
00000210: a138 3d3d aa44 ed3c 4964 49bd 3725 59bd
00000220: 47fb ad3c a0f1 ff3c 234f a13d 3f03 4f3c
00000230: 10f6 fe3c 57fb 79bd cc5a 4dbc b476 873d
00000240: b4e4 213c 022b ab3d 47b7 b3bd 96de 61bd
00000250: 96b7 f83c af60 2dbc bd3b 85bd f633 e73c
00000260: 294d e9b8 4a54 393c c2e1 033c 8804 5fbd
00000270: 366a 9cbd 1f84 a9bd 2310 8a3d 3769 1bbd
00000280: 855c ae3d 1c44 73bc 0ec9 663c 4f48 c43d
00000290: 5858 2abd 0d7f 9bbd 74c0 e93b c057 64bd
000002a0: 8f73 473d 62c0 1f3d c06d 843d 1128 78bc
000002b0: 4ea5 8ebd 1f2f a9bd 8d4a 84bd 25c1 9f3d
000002c0: 10a7 a9bc 387e 85bb 6a06 fbbc 4932 24bd
000002d0: ac87 a73d ebbe fbbc 4de4 02bd ee9a b23d
000002e0: ec36 273d 3782 1d3d 7f71 7b3d 554f 85bd
000002f0: 11b8 123d e2ac ccbc 89d5 1e3c 83cc 313d
00000300: 24c3 c1bc 023f c33d 00f6 263c ac7a 5e3d
00000310: f406 8c3c 1197 98bd 6544 78bd d958 87bd
00000320: 5f0d 823c ee88 78bd 3070 8fbd f34b b33b
00000330: 050d 83bd 0670 85bd 9c6c 84bd 8a50 f83c
00000340: fc2f 963d 4804 d53c 87b6 52bd fa90 983d
00000350: fde1 b63d 65ff 6abc 016b 813d 3604 e23c
00000360: ad36 63bd 31c8 c6bc 5e5d 82bd d4fc 113d
00000370: 6327 353d 096b c4bd f963 c3bc a629 f539
00000380: ddd1 a53d ecd5 19bd 4b08 273c 6b28 953a
00000390: 061a 60bd 19ec 4dbd fff7 c8bc 65b2 02bd
000003a0: bf1c 14bd a17f 923c 3fc9 9cba 8f14 f1bc
000003b0: 33e3 813d 344c 523d b9de adbc 4f34 46bc
000003c0: 7d97 b6bd 4338 90bd c435 9a39 52b2 7ebc
000003d0: 60dd f63c 8aa1 efbc c19b dbbc 15e4 c53c
000003e0: c3ca c33d 3b84 853d 953f 6ebd d2c8 e13a
000003f0: fe3b 62bc 1754 c0bb 91ee 1f3d 6214 e5bc
0.013741771 -0.033196267 0.04222456 0.027869904 0.02161132 0.039667703 0.083741985 0.012096347
0.06598932 -0.059063163 0.06828153 -0.010536748 0.053528517 -0.075912304 -0.057794034 -0.06660468
0.05160672 -0.007132514 -0.07800855 0.09804829 0.025159948 0.088659 0.010125911 0.01648356
0.056153875 -0.06895313 0.08825771 -0.047627393 0.014393282 -0.06394539 -0.053183254 0.059664723
-0.014310141 -0.01652769 0.056665804 0.0879725 -0.08223903 -0.0023980539 0.014590733 0.082110725
-0.031161899 -0.020814966 -0.052294094 0.016189773 0.022502216 -0.022044206 -0.017409595 -0.06825391
-0.03669937 -0.02376986 0.028718825 0.0405711 0.046875957 -0.0715862 -0.009249779 -0.019730955
0.09648191 0.05392136 -0.07974182 -0.055241533 -0.06685738 -0.023885146 -0.06909242 0.032315098
-0.038785245 -0.044777032 0.0057086074 -0.035957806 0.060939882 0.07980354 -0.087311745 0.047043853
0.008315303 0.06078688 -0.03597944 -0.004833278 -0.00604494 0.026080754 0.05092254 0.03938623
0.004039547 -0.06507249 -0.06499654 -0.041574858 -0.0811528 0.08303079 -0.03098905 -0.050248817
-0.041899513 0.04112439 -0.0640659 -0.070161104 -0.06803373 0.009364508 -0.012362867 -0.10091147
-0.06174766 -0.072559014 0.020052087 0.04285658 0.009162837 -0.02009058 -0.048402946 0.0241419
-0.022334587 -0.0149929 -0.016539421 0.0015992782 0.024263615 0.06247116 0.0822118 -0.022050867
0.0035461267 -0.05119043 -0.07724807 0.075159915 0.020638382 -0.049388576 0.037958268 0.040952064
0.035279486 0.03735895 0.0009465652 -0.056163788 -0.07686727 0.08061298 0.05776801 -0.06318996
0.07252861 -0.09238729 0.063144006 0.043622553 0.046196584 0.028963406 -0.049167905 -0.053014006
0.021237982 0.031243145 0.07876422 0.012635051 0.031123191 -0.061030712 -0.012533855 0.06614438
0.009881187 0.083578125 -0.08775192 -0.055143915 0.030360978 -0.010582133 -0.06505535 0.02822302
-0.00011124678 0.0113116 0.00804943 -0.05444768 -0.07637446 -0.08277153 0.06741359 -0.037942138
0.085137405 -0.0148477815 0.014086021 0.09584104 -0.041588157 -0.075925924 0.007133538 -0.055747747
0.04869419 0.03900183 0.06466246 -0.015146271 -0.06965123 -0.08260941 -0.06459532 0.07800511
-0.020709544 -0.0040738843 -0.030642707 -0.04008702 0.08180174 -0.030730685 -0.031956006 0.08720957
0.040823862 0.03845426 0.061387535 -0.06509272 0.03582007 -0.02498478 0.009694465 0.04340793
-0.02365262 0.09533502 0.010190487 0.054316208 0.01709316 -0.07450689 -0.0606121 -0.06608743
0.015875516 -0.06067746 -0.0700382 0.0054717003 -0.06398968 -0.065155074 -0.06466028 0.030311842
0.07333371 0.026003018 -0.051443603 0.07449527 0.089298226 -0.014343117 0.063192375 0.027589899
-0.055472065 -0.02426538 -0.06365465 0.035641506 0.044227015 -0.09590728 -0.023851382 0.00046761072
0.08096669 -0.037557527 0.010194848 0.0011379843 -0.054712318 -0.05027399 -0.024532316 -0.03190841
-0.036160227 0.017883124 -0.0011961831 -0.029428748 0.06342163 0.051342204 -0.021224367 -0.012097432
-0.08915613 -0.07041981 0.00029413227 -0.015545445 0.030134857 -0.029251833 -0.026807668 0.02415661
0.09560158 0.065193616 -0.058166105 0.0017225987 -0.013808249 -0.0058693993 0.039045874 -0.02796382

model.fc.2.bias f4 [64]
00000000: 23e2 723d 581d 8d3d 10a8 64bd fdf4 82bd
00000010: a800 893d a8c0 ad3d ebc3 403d 06f9 fa3c
00000020: f82c 9abc a400 f53c 7009 2dbd 7b7f 00bc
00000030: 476e ab3d c45f 67bd a01c 94bd 3943 b3bb
00000040: 83aa 3e3d 55ba adbd c7de 5c3d 6187 133b
00000050: 016b 323c 091a 4e3d a6a0 313d 04b7 16bb
00000060: 94b7 aebd 022f 9b3d 06dd e3bc 0d89 53bd
00000070: f749 073d 76f3 693d 3372 1b3c 12e1 52bd
00000080: d1e3 a6bd 789f 1e3d 8c53 f13c 7883 5d3d
00000090: 735e b93d 1cbd 4cbd 19df ff3c f9ae b43d
000000a0: 1716 c0bb 30fb 0ebd a58b 8fbd 6d4d 8f3b
000000b0: dd28 3dbd cf7f 81bd cc30 a7bd 852a 133d
000000c0: c42b 3abc 789c 1c3d c03d 413d 3061 babd
000000d0: 9e38 04bd bb6f a33d a453 16bc e29e 6d3d
000000e0: c6bf 94bd 176f 9e3d 61b7 173d 9252 79bd
000000f0: 40bb ac3c 44e3 583d e16b 463d 6182 863c
0.059297692 0.068903625 -0.05582434 -0.06394384 0.06689578 0.08484012 0.047061842 0.030636322
-0.01882027 0.029907532 -0.04224533 -0.007842894 0.08370643 -0.056487814 -0.07232022 -0.00547066
0.04654933 -0.08482806 0.053923395 0.0022511112 0.0108897695 0.050317798 0.043366097 -0.002299727
-0.085311085 0.075773254 -0.027815353 -0.051644374 0.033029523 0.057116948 0.009487676 -0.051484175
-0.08148921 0.0387263 0.029458784 0.054080456 0.09051218 -0.049985036 0.031234311 0.08822436
-0.0058620083 -0.03490752 -0.07009057 0.0043732435 -0.04618155 -0.06323206 -0.08163604 0.03592922
-0.011362974 0.038235158 0.04717803 -0.09100568 -0.032280557 0.07980295 -0.009175215 0.05801285
-0.072631404 0.077360325 0.037040118 -0.06086976 0.021085382 0.052951112 0.048442725 0.016419591

model.fc.3.weight f4 [64]
00000000: b354 7d3f 11fa 7d3f a2ed 7f3f 8cc0 823f
00000010: 343f 803f e539 7e3f 2f3a 823f 0a8e 7f3f
00000020: a954 7f3f 8004 813f ddb9 803f 1667 823f
00000030: e4c0 803f 9db3 7d3f 9f22 7e3f ac43 813f
00000040: 0f7f 7e3f d297 803f 9f6f 7d3f 1c10 813f
00000050: 3ce3 7b3f 9bbe 7a3f df87 803f 8692 803f
00000060: 7929 813f 7e07 7f3f b70c 7e3f 8550 7f3f
00000070: 04f5 7a3f dd7c 7f3f 6d1c 813f 2f10 803f
00000080: 7e67 7f3f 1511 823f 9e8e 7c3f 75a6 813f
00000090: f5bf 7f3f 1d24 823f 0c74 7b3f a239 7d3f
000000a0: 4982 7f3f 40ab 7e3f af83 7f3f 37fb 7d3f
000000b0: f262 813f 656b 7e3f 8ebd 7f3f deaf 7c3f
000000c0: fa22 7d3f 56f3 7d3f 3668 7d3f 6418 7b3f
000000d0: e9cf 803f 4329 803f b48f 7f3f 1140 833f
000000e0: 95f4 7d3f 6ab7 823f ca02 803f 7837 7e3f
000000f0: 9056 803f 975d 813f 648f 7e3f 7164 7e3f
0.98957366 0.99209696 0.99971974 1.0215011 1.0019288 0.9930709 1.0174006 0.9982611
0.99738556 1.0079498 1.0056721 1.0187709 1.0058866 0.99102193 0.9927158 1.0098777
0.99412626 1.0046332 0.98998445 1.0083041 0.9839361 0.9794709 1.0041465 1.0044715
1.0090781 0.9962081 0.9923815 0.9973224 0.98030114 0.997999 1.00868 1.0004939
0.9976729 1.0161463 0.98655117 1.0128924 0.9990228 1.0167271 0.9822395 0.98916066
0.99808174 0.99480057 0.9981031 0.9921145 1.0108321 0.9938262 0.9989861 0.9870585
0.98881495 0.99199426 0.9898714 0.9808409 1.0063449 1.0012592 0.9982865 1.0253927
0.9920133 1.0212224 1.0000851 0.9930339 1.0026417 1.0106686 0.99437547 0.9937201

model.fc.3.bias f4 [64]
00000000: 3614 6dbb cbf9 32bb 15d7 34bc 85c7 c13c
00000010: 7f0f 9a3b 7e78 4bbc 0741 c73c c6f8 5cbc
00000020: a8f4 8abb b336 27bb 8ab6 673b a560 6f3c
00000030: b8c8 0abc 2776 3bbc 80b1 82bb a170 593c
00000040: 722f 4abc d24d 053c eccd d2bb 4d99 183c
00000050: e487 06bc 2ac7 76bc b7e3 a1bb 13d3 863b
00000060: bd2d d33b 548a d9bb 5120 ed3a 7318 6b3b
00000070: ae9c 30bc 4015 26b7 7330 37bb 4a1f 823a
00000080: 007c 053b 348a 2e3c f18e 1abb 55f0 623c
00000090: 089b 883b 10e0 423c d3dd 71bc d4ce 80bb
000000a0: dd84 19bb c5ab 75bb bb09 cfbb 834d 1dbc
000000b0: 2429 d93b 7375 84bb ce2c 0e3b 8d19 23bc
000000c0: 1def 1fbb 4d15 11bc 99c7 07bc 6f6c adbc
000000d0: 7b20 203c 2249 bfba ade8 32bb 005c eb3c
000000e0: 8203 1bbc a569 3d3c 85aa 8b3b 212a 693b
000000f0: e25c 44bb e999 453b 305d 9cbb 6d9c ebbb
-0.0036175377 -0.0027309533 -0.011037608 0.023654709 0.0047015543 -0.012418864 0.024323 -0.013487047
-0.004240591 -0.002551478 0.0035356604 0.014610444 -0.008470707 -0.011441744 -0.003988445 0.013271482
-0.012340413 0.00813623 -0.006433239 0.0093138935 -0.00821111 -0.015062133 -0.004940476 0.0041145175
0.0064446614 -0.0066388045 0.0018091296 0.0035872727 -0.010779543 -9.899319e-06 -0.0027952462 0.0009927538
0.00203681 0.010653067 -0.0023583735 0.013851245 0.004168872 0.011894241 -0.01476236 -0.003930906
-0.002342514 -0.0037486416 -0.0063182986 -0.009601 0.006627219 -0.0040423214 0.0021694186 -0.009954822
-0.0024403997 -0.008855176 -0.008287334 -0.02116987 0.009773369 -0.0014593939 -0.002729933 0.028730392
-0.009461286 0.011560832 0.004262271 0.003557809 -0.002996259 0.0030151552 -0.004771851 -0.0071902783

model.fc.3.running_mean f4 [64]
00000000: f069 d33c f97e 783c 96c5 8abd a5e1 1cbe
00000010: caf0 1c3d fca2 203e 566c 5d3c 1b1f 843c
00000020: 4e17 30bb a5ef 6abd 5b79 74bd e0fa 4cbc
00000030: ef91 2c3e 0378 bebd c50f f0bd 3f60 21bd
00000040: 8d64 f33c 939e 21be a2fe 093e 80fe 5e3d
00000050: 4eef 82bd 2c3b af3d 3b4e f93c dc78 8e3d
00000060: a0d8 12be e723 27bd 6a5c d2bd a95b ddbc
00000070: a368 10bb 2848 903d bb35 2f3d 6801 45bc
00000080: 3409 6d3d ea85 343e 603d 5a3c 5245 aebd
00000090: aa08 ac3d edc4 42be 36d2 223c 7851 123e
000000a0: 8fc4 25bc fac7 4e3d 7895 24be 02e7 1f3e
000000b0: bd15 01be 3fea a3bd 5b09 91bd c3f1 103e
000000c0: 505e aabd 1e6d 1e3d 8997 d83d 6379 a8bd
000000d0: 3e81 8dbc c426 e73c fb6f 0cbd 9c38 293e
000000e0: cb0f c2bd c7c3 6b3c f250 02be 0847 49bd
000000f0: 260e 11bd e3c3 663d 0a75 283d 465a 733d
0.02580735 0.015166991 -0.06775968 -0.15320452 0.03831557 0.15687174 0.013514599 0.016128113
-0.002686936 -0.05735745 -0.059686046 -0.012510985 0.16852544 -0.09300234 -0.11721758 -0.039398428
0.029711032 -0.15783148 0.13476041 0.05444193 -0.063933 0.08556208 0.030432811 0.06956646
-0.14340448 -0.040805724 -0.10271533 -0.027021246 -0.0022035025 0.07045013 0.04277585 -0.012024261
0.057870105 0.17629209 0.013320297 -0.085093156 0.0840009 -0.19020434 0.0099378135 0.1428889
-0.010117664 0.05048368 -0.16072643 0.15615466 -0.12605949 -0.08003663 -0.070818625 0.14154725
-0.0831877 0.03867828 0.10575778 -0.08226278 -0.017273542 0.028216727 -0.03428648 0.16525501
-0.094756685 0.014389939 -0.1272619 -0.049140006 -0.035413884 0.056339156 0.041127242 0.059412263

model.fc.3.running_var f4 [64]
00000000: ffd9 863d 9af2 2b3e a05c 0e3e 19b3 eb3d
00000010: 95d7 953d d071 233d 4e3c 843e 40d2 ee3d
00000020: 6f35 033e bf33 343e 76e7 7d3d ef5d e33d
00000030: 66f8 413d 2db1 d43d a1bd 6b3d ec62 a03d
00000040: e4ae b63d 2908 553d 1e57 0d3e ac7f e43d
00000050: 7d6f f03d 8652 3e3d 0f61 543e 1687 c23d
00000060: b7d7 223e 4f06 553d e2bd f03c 1488 f13d
00000070: 08d5 913d 8aec d73c ea7f 183d d09d 683d
00000080: 71d4 6c3d 6135 8d3e a088 673e 9668 723d
00000090: 058e 183e c534 b13d eea7 903d 812b ab3d
000000a0: f0a9 153e 5e92 d03d 46ae 8a3d fa82 b23d
000000b0: c679 a83d 6f35 ad3d e65d b53d e748 0b3e
000000c0: 6e84 023e ee1e bc3d cf4a 273e ec46 ac3d
000000d0: d530 d33d cf48 973d a455 7c3d 0a2a a83d
000000e0: ac22 ca3d da23 ac3d f594 ef3d d994 883d
000000f0: 74dc 8d3d bbdb 973d 642c 5c3d 5ef9 a33d
0.06584548 0.16791764 0.13902521 0.115087695 0.0731651 0.039903462 0.2582726 0.11661196
0.12813352 0.17597865 0.061988316 0.11101901 0.04735603 0.10385356 0.05755389 0.07831368
0.089200765 0.052009735 0.13802764 0.11157164 0.11740015 0.04646542 0.2074015 0.09498422
0.15902601 0.05200797 0.029387418 0.11793533 0.071207106 0.026357908 0.037231363 0.056791127
0.057819787 0.27579787 0.22610712 0.059181772 0.14897926 0.08652643 0.0706328 0.08357907
0.14615607 0.10184167 0.06771521 0.08716388 0.082263514 0.08457457 0.088558 0.13602029
0.1274583 0.09185587 0.16337131 0.08411965 0.10312048 0.07386934 0.06160511 0.08211143
0.098698944 0.08405276 0.11698333 0.066690154 0.06926814 0.07414957 0.05375327 0.080065474

model.fc.6.weight f4 [32, 64]
00000000: 413c 42bd 1c99 ddbc 4ed1 a5bd 8c64 0f3e
00000010: a649 f43c 232f 8b3c 64b9 d2bd 362a a1bd
00000020: 353a feba 23fe bb3d 1f04 ca3d e99d 37bd
00000030: 388c 693d 223f f9bc 7861 e5bc 7e8a 123e
00000040: 1474 5b3c ca37 043e 7d99 c7bd 726d e73c
00000050: b331 08bd d29b c43d 3640 ac3d 588c 363d
00000060: 3b06 323d 3862 a4bd 774c a2bc 55ff a43d
00000070: 83f4 73bd b658 4d3b 0bac 693d 4e92 dbbd
00000080: df8f 90bd c59c a5bd 8c10 0abe 0c00 6fbd
00000090: faef 223c 971e dc3c e124 923d f7f8 e73c
000000a0: 1543 5bbd f397 c5bd 82bd ce3d 52ad ee3c
000000b0: 6c8b 943d 5619 d9bd 2e5d bebd ed4b 983c
000000c0: 25f5 b13d 93aa f8bd 8713 48bd 3242 bbbd
000000d0: 3097 133d fecc c13c 10c0 24bd b772 c53d
000000e0: 8d1a bcbd d390 993a 601e adbd e680 92bc
000000f0: 5a5b abbc 61de cbbc 2e37 0f3e b325 c7bd
00000100: 8410 37bd 3f0c 7cbc c204 4ebd 84ff b73d
00000110: 7044 403d 1bf5 d03d 72cb e73d e749 46bc
00000120: 4351 a83d dfec c1bc 7b63 a53d 4772 2c3d
00000130: d617 6d3d 6962 2d3d 3928 7cbd 7dcd ba3d
00000140: 62e9 d23d 0005 35bd 51b1 2ebd fdf7 ebbd
00000150: 12c2 763d 2191 c3bd 8acf f1bd a1c2 bb3d
00000160: ff72 523d bcaf e43d e837 e9bd e66d 8ebd
00000170: 8d61 09bd a272 c33d 5cff cbbd 9acf cbbd
00000180: 517b 3dbd ad3d 91bd 8828 f13d eb2b 643d
00000190: e5aa 97bd e7c5 28bd dbdd 1fbc 4c7b a3bd
000001a0: 93cb d9bd 0bac d73d 75b5 a5bd 825f 8a3d
000001b0: 752b fbbc bcd1 adbd 2989 31bd 4692 87bd
000001c0: d1ab 84bd 5c3a 93bd adff 923a 0827 88bd
000001d0: 3ae2 eb3d 60a2 01be 1352 d9bc c111 8b3d
000001e0: 902f acbd f1ba 31bd e886 aabd 2507 0bbe
000001f0: 9a8c a63d 5f5d 483d 9e97 68bb 066b d43d
00000200: acc8 a3bb 14ba eabd cc81 edbd d9d9 a4bb
00000210: d40c a8bd 9fdb 043e b22c 4cbb 9131 d13d
00000220: 093a 69bc 8c4e 89bd 1b7b 02be 67b0 f03d
00000230: a41f dcbd 7af4 c53d 4538 64bd 1df2 d3bd
00000240: 50ad 08bd 2e0e 453d 9f81 b23d 2ba0 e3bd
00000250: 1e5d c9bd 49be d43c 18fb 563d b55d bcbd
00000260: 72dd 8c3d 8485 89bc 2afa d2bd e678 813d
00000270: 2839 c5bd cc83 553c 4861 cfbc 2618 66bd
00000280: a143 1dbd d8b8 edbd 8978 d93d d636 b4bd
00000290: 9c0d ba3d 88fb 6f3c e5eb 7dbc 9330 73bc
000002a0: d4aa 88bd 84f6 07bd e1b3 d03d fb0a 72bd
000002b0: ce9b 833d 6c09 cdbd c747 6ebd a9cb 973d
000002c0: e708 5f3d 8a63 e7bd d7a8 ccbd f695 933d
000002d0: c5ee 85bb 4816 e13d 55ce 0abe a357 903c
000002e0: 13b2 f0bd 2fcd 253d e8dd b7bc a1c5 dfbc
000002f0: ab11 113c fc40 e63c 61c2 babd 10d1 87bd
00000300: 0b7e 6f3d 8c8b 96bd 06fa 933c 6b47 7cbc
00000310: c7d9 bf3d b1b9 05bd 632e b93d 1552 373c
00000320: 490e abbd d961 823c 9bc3 9abd 9733 403d
00000330: 1e5b 6cbd 6f3c 863c 7007 14bc fdb4 0dbd
00000340: be9a c9bd 8d0c 1cbd ad38 cc3d ac70 7d3d
00000350: 9091 6abd bd85 dc3c 90b4 aa3c 9366 a33d
00000360: d2a0 983d f72e 74bd 0c04 fbbc cbd9 ed3d
00000370: 7e43 81ba 316b 6ebd 8398 8cbd 4110 8dbd
00000380: 41e8 e3bd ac04 b6bd f28f 0f3e 7aa9 c9ba
00000390: cc94 b13d bbae e8bd fa67 803d 979f 2f3d
000003a0: d1bd 04be dfb3 e3bc 2986 023d 33ec cdbd
000003b0: f0d6 4a3d 07de 6c3d cf65 d4bd 934a 1ebd
000003c0: 33ed b03d c00d c7ba 22ed 96bd 24be 393d
000003d0: b66b bebd 292f 0b3d 3626 82bd 68bb 4a3d
000003e0: 617a 8cbd 1646 05bd a6c3 90bd 7794 913d
000003f0: b84d e0bd 986c a63d e31a 743d 4c0a bcbd
-0.047420744 -0.027050547 -0.08096562 0.140032 0.029820275 0.01699025 -0.10289267 -0.07869379
-0.0019396009 0.09179332 0.09864067 -0.04482833 0.05701849 -0.030425612 -0.028000578 0.14310643
0.013394374 0.12911907 -0.097460724 0.02825043 -0.033250522 0.09600033 0.08410685 0.044567436
0.043462973 -0.08026546 -0.019811852 0.08056513 -0.059559356 0.0031333393 0.05704884 -0.10721265
-0.07058691 -0.08086542 -0.13482875 -0.058349654 0.00994491 0.026870055 0.0713594 0.028316958
-0.05353077 -0.09648123 0.100947395 0.02913538 0.07253155 -0.106005356 -0.09295116 0.018590892
0.08689336 -0.121419095 -0.048846748 -0.09143485 0.036032856 0.023657318 -0.040222228 0.09641021
-0.09184752 0.0011716135 -0.08453059 -0.01788373 -0.020917583 -0.024886312 0.13985893 -0.097239874
-0.044693485 -0.015383779 -0.050297506 0.089842826 0.046940267 0.10203 0.11318101 -0.012102581
0.082186244 -0.02367252 0.08075615 0.04210117 0.05788406 0.04233018 -0.061561797 0.09121225
0.102984205 -0.04419422 -0.04264957 -0.115219094 0.060243674 -0.095491655 -0.11807163 0.09167982
0.0513792 0.11166331 -0.113876164 -0.06954555 -0.033540297 0.09543349 -0.09960815 -0.09951706
-0.04626018 -0.07091842 0.11775309 0.055705946 -0.074056424 -0.04120436 -0.009757484 -0.079825014
-0.10634532 0.105308615 -0.08091251 0.06756498 -0.03066037 -0.08487269 -0.043343697 -0.06619696
-0.06478084 -0.071888655 0.0011215113 -0.066480696 0.11517759 -0.12659597 -0.026528394 0.06790496
-0.08407509 -0.04339117 -0.083265126 -0.13576944 0.08132286 0.04891717 -0.0035490762 0.103719756
-0.004998287 -0.11461273 -0.115970224 -0.0050308523 -0.08205572 0.12974404 -0.003115457 0.10214532
-0.014235028 -0.06704435 -0.12742274 0.11752396 -0.107482225 0.09665771 -0.055717725 -0.10348914
-0.03336841 0.048109226 0.087161295 -0.11114534 -0.09832214 0.025969641 0.052485555 -0.09197561
0.06878175 -0.016787298 -0.10301621 0.06321888 -0.09630042 0.013031911 -0.025314942 -0.056175373
-0.038394574 -0.11607522 0.106186934 -0.087995216 0.09084627 0.014647372 -0.015498136 -0.014843124
-0.06673208 -0.03319408 0.10190559 -0.059092503 0.06426202 -0.10011563 -0.05817392 0.07411892
0.05445185 -0.112982824 -0.09993141 0.07206337 -0.0040873014 0.10990578 -0.13555272 0.017619913
-0.11752715 0.04047888 -0.02244468 -0.027315916 0.00885431 0.028107159 -0.09119106 -0.066316724
0.058469813 -0.07350835 0.018063556 -0.015397887 0.093677096 -0.032647792 0.09042051 0.0111890035
-0.08352334 0.015915798 -0.0755684 0.0469242 -0.057704084 0.016386239 -0.009034976 -0.034596432
-0.09843968 -0.038097907 0.099717475 0.06187503 -0.057267725 0.02691924 0.020838052 0.07978549
0.07452549 -0.0596151 -0.030641578 0.11613806 -0.0009862033 -0.058207694 -0.06865027 -0.06887866
-0.11128283 -0.0888761 0.14019755 -0.0015385591 0.08670959 -0.11361452 0.06269832 0.042876806
-0.12963034 -0.02779573 0.031866226 -0.10054817 0.049521387 0.05782893 -0.10370981 -0.03864534
0.08638992 -0.0015186593 -0.07369448 0.045347348 -0.09297888 0.033980522 -0.063549444 0.04949513
-0.068592794 -0.032537542 -0.07068567 0.071083955 -0.10952324 0.08126181 0.059595954 -0.091816515

model.fc.6.bias f4 [32]
00000000: 81e2 413d 3c3c ecbc cea4 dd3d 1b58 9a3d
00000010: 7f00 f73c 244e 1ebd d546 96bd ba2a e83d
00000020: 4934 6a3a af34 88bc 3d8f bd39 ac7e 83bd
00000030: abf3 663d 178f f33c e855 bf3c b796 b1bc
00000040: a7c8 2b3d daf8 e03d d91e 863d 89ab e83d
00000050: 9ffb 163d c994 863d 8f2a 27bd 9743 b1bd
00000060: 577b 873d a431 8a3c def0 b6bb 35ee 923c
00000070: bd19 553d 89d0 20bb 9f7b 663d b67c f13d
0.04733515 -0.028837316 0.108224496 0.07536336 0.030151604 -0.03864874 -0.07337729 0.113362744
0.00089341827 -0.016626684 0.0003615561 -0.06420645 0.056384724 0.029731316 0.023356393 -0.021678312
0.041939404 0.10984965 0.065488525 0.11360843 0.03686106 0.06571347 -0.04081207 -0.0865547
0.06615322 0.016869374 -0.005582913 0.017935852 0.0520265 -0.002453836 0.056270238 0.11791365

model.fc.7.weight f4 [32]
00000000: 3381 823f c99a 803f 0024 7e3f b0b0 7b3f
00000010: 9797 843f e6d9 813f 32d4 823f c198 813f
00000020: 3a0c 7d3f 9eae 7f3f 5ec1 833f af98 7d3f
00000030: dd9f 7e3f 7540 7a3f 3418 813f f8df 7e3f
00000040: 6767 773f 9151 7f3f 9919 7f3f ef00 813f
00000050: 2de1 813f 441f 7b3f 0027 823f 81cb 7d3f
00000060: 7d05 813f 5726 7f3f 74e2 7d3f 92a7 7b3f
00000070: 4a19 7d3f 3042 823f ab3d 813f a8f3 7b3f
1.0195678 1.0047237 0.9927368 0.9831648 1.0358762 1.0144622 1.0221007 1.0124742
0.9884678 0.9987582 1.0293386 0.990611 0.9946268 0.97754604 1.0085511 0.995605
0.96642154 0.99733835 0.99648434 1.007841 1.0146843 0.9809458 1.0168152 0.9913865
1.00798 0.99667877 0.99173665 0.98302567 0.98866713 1.0176449 1.0096945 0.98418665

model.fc.7.bias f4 [32]
00000000: fd01 a53c efba 4f3c 11c2 f53a 116a 93bc
00000010: 2c68 e83c 2597 b93c bdce 4b3c 9238 ae3c
00000020: 0409 63bc 9a77 183a a3a1 ad3c 8f68 a0bb
00000030: e697 02bb 356d 86bc d5b2 353c b939 c5bb
00000040: ab32 03bd 3b91 913a 82c4 00bc a4f9 ca3b
00000050: 4bb6 a0bb ae18 62bc 4675 0e3c 1347 8cbb
00000060: f76f 0f3c 21ec c93a 23b9 57bb 1dbc 2cbc
00000070: 9a10 ab3a 6f67 af3c 2177 b63c 0f34 d9bb
0.02014255 0.012678846 0.0018749853 -0.017994912 0.028369986 0.02265508 0.012439427 0.02126721
-0.01385713 0.0005816162 0.021195238 -0.004895277 -0.0019926964 -0.016409496 0.01109 -0.006018844
-0.032030743 0.0011105904 -0.007859351 0.0061943103 -0.0049045435 -0.013799829 0.008694952 -0.0042809336
0.008754722 0.0015405455 -0.0032916747 -0.010542897 0.0013051212 0.021411626 0.022273602 -0.0066285203

model.fc.7.running_mean f4 [32]
00000000: 2dad 01bb b8a0 e7bd 888c 0bbe 532c e0bc
00000010: 9868 2cbe e561 393e ee0b 4fbe 4879 843c
00000020: 7f22 90be 583f 15be 1134 1abe 823e 233e
00000030: c01a b3bd dac6 9abd 79e6 cbbc 4c22 b5bd
00000040: 8919 3a3d fd55 9a3d eca1 10be 597b 4d3e
00000050: 804d ab3d ae11 0f3d 059c 97bd 6f5e e9bd
00000060: 749d f3bd d416 133e b449 1d3e 9a27 fdbc
00000070: a974 893d 0f25 77be a7d3 91bd dc9e df3d
-0.0019787059 -0.113099515 -0.13627827 -0.027364885 -0.16836774 0.1810375 -0.20219395 0.016171113
-0.28151318 -0.14574945 -0.15058924 0.15941814 -0.087453365 -0.07557459 -0.024890171 -0.08844432
0.04543451 0.07535932 -0.14124268 0.20066585 0.08364391 0.03492897 -0.07402805 -0.11394965
-0.11895266 0.14364177 0.15360147 -0.030902673 0.06711704 -0.2413523 -0.071204476 0.10918972

model.fc.7.running_var f4 [32]
00000000: a1f8 723e b147 a83e 1fe9 4d3f ebf3 843e
00000010: d1c3 2a3f ff4e cf3e 4e09 ed3e 623d 9e3e
00000020: 195e 753f faa7 173f d070 af3e f3de af3e
00000030: 9edc a73e 5f5f 493e 16a9 be3e 1706 c73e
00000040: 5487 703e 61f6 cb3e fcfd 803e 8e3e c63e
00000050: 8c4d 733e 44f7 8a3e 81e0 ae3e 19e9 493e
00000060: c822 a53e eb36 6f3e fdee 7d3e 2008 0f3e
00000070: f69e 9c3e 6480 5c3f 059e 053f 7ded 483e
0.23727657 0.32867196 0.8043384 0.25967345 0.6670504 0.40489957 0.4629616 0.30906206
0.95846707 0.59240687 0.34265757 0.34349784 0.32785505 0.19665287 0.37238377 0.38871834
0.23489124 0.3983641 0.25193775 0.387196 0.2376005 0.27141774 0.34155658 0.19717826
0.32253098 0.23360793 0.24798198 0.13967943 0.30590028 0.8613341 0.52194244 0.19621845

model.fc.10.weight f4 [16, 32]
00000000: f09b 06bd b91e 03bd 4066 89bd 3c1a d53d
00000010: 8447 3abd 5785 8a3c cf8c b8bd 6ccf a33d
00000020: 197f e1bd 76d4 943b 6cbb 02be 1c3d 30be
00000030: ea3a 743c 76da 403d f42b 12be f363 f0bd
00000040: bbf6 d03d 017f aebc 14b7 dd3d 1a5e f2bd
00000050: a774 fbbc b814 ab3d 0716 30be b4c4 1a3d
00000060: 4602 06be cf0c a9bd b57c 233d ed20 e93d
00000070: 4c30 efbd d0b5 0e3d aa2f b1ba 1ede d6bd
00000080: 1a5c 5cbd 20e1 c43c e000 70bd d549 97bd
00000090: dc0f 2f3e 6707 07be 9737 1a3b 52fa 113e
000000a0: 80a0 31bd 0e0c 19be ca7a debd 3984 1fbe
000000b0: 4ef0 f13d 503a 99bd 6eac 423d 9f51 8e3d
000000c0: 42c7 76bd c896 9e3d 6d3f 1f3e f04c e6bc
000000d0: 71e4 a13d ffde b7bd 7b25 e93d f192 2ebe
000000e0: ed19 7cbd bd40 4d3c cbef fbbd f7f6 03be
000000f0: 23cd a93d 0369 01be 46d8 d03c 1777 163e
00000100: b077 23be 486c 3e3e 959c 113e 9715 1bbd
00000110: 7ff1 8a3d a614 7abd ba80 9cbd 5338 cb3d
00000120: 7b7a 393d f43c 283d 5473 103e 5cf4 15bd
00000130: 0877 a0bc 29d6 1fbe de4a 36be e6f4 f7bd
00000140: fa73 01be dc14 023e 9d5f 93bd def4 23bd
00000150: 6688 0d3e c1bd 88bd ca4f 43bc b71e 19be
00000160: 3d05 eb3d 7861 22be 125c e43d 2932 a1bc
00000170: 0fad aabd 0687 b0bc 7d56 f2bd b21a 82bd
00000180: b827 113e 4a79 093e 30fa c33d 2380 67bd
00000190: 4ada 51bd 99eb 923d 43c0 39be b7f2 36be
000001a0: 7d28 2bbe 45c6 333e 5442 ad3d 118f 96bd
000001b0: 385c 80bd 11e0 4b3d 1bcc 8b3d 6ce3 993c
000001c0: 4eb8 9c3d fe37 963c f5d8 6fbd fe5e 673d
000001d0: 057a ef3d 79f4 f1bc 217b 423d 0ffb 24be
000001e0: 3d39 22be e25d 2bbe 2575 463d cd14 bcbd
000001f0: ca8c 923d a4e7 263c b7ce 8c3d ebbe 0fbe
00000200: 8488 383e 14b9 1ebe 0f7f 9ebd c239 2abc
00000210: a05f b53c 5f1d 8fbc 7ab3 42be a815 08be
00000220: cd64 cbbd cca4 183e f84e 753d 46de ce3d
00000230: d0d3 87bd 9c64 d93d 1057 71bd a17b 743d
00000240: 59ab 8b3d 4b55 263e 8ad2 4f3d d08a 44bc
00000250: 4b50 033e 0838 053e 63fb f3bd 1c1c 8abd
00000260: 706e 123e 0c29 51bd 2b59 8cbd 0296 8bbc
00000270: 3aeb be3d 1143 2dbe 9e25 ba3d 58d8 933b
00000280: 6fd9 783d 6017 08be 5aab fbbb 93a3 053e
00000290: 5cfa 95bd c5c1 cbbb 2d76 093d c5d2 c1bd
000002a0: f270 313e 6437 3dbe 613a dbba 8750 34bd
000002b0: 981b 163e 0345 c33d 4044 22be 3c4f 31bd
000002c0: 7990 0c3e 359b 143b ff14 cb3d a8e1 1ebe
000002d0: e22c 44bd 24c1 30be 274a 14be f82f 07be
000002e0: 4a59 23bd a0ac 3c3b 9927 39be 2418 9abd
000002f0: d735 41bc 4f66 343e ff10 41bd bba8 e0bd
00000300: baa6 c73c d6d3 943c a338 833b c8c1 2fbd
00000310: be06 7cbc d38b 0a3e 74cf 14be 4dcd 963d
00000320: acf8 cbbd ecb7 483d a712 acbd 822d 0fbe
00000330: bf20 983d 971e fc3c d0f3 973d 680c 52bd
00000340: 567c 153d 5623 013e 1e98 0f3e 602b d13d
00000350: 417d 4ebd 2122 acbd 0491 093c 138d 05be
00000360: 2db2 2dbd 3199 3a3c dfa2 283d c558 e3bc
00000370: 17ad a03d 5a93 27be c273 313d e103 e5bd
00000380: 553e 0fbe eda9 1a3d 984d 303e 483a c33c
00000390: 237b ad3d ebca 25bd f90d 173d d774 ec3c
000003a0: 505d 5cbd 21c3 fa3d 416f 0fbe 1c50 853d
000003b0: 6ecf fc3d efa3 c3bd 102e 133e fac8 303d
000003c0: ad19 023e 475b a23d 5064 d5bd 05d3 b53d
000003d0: f9e5 2f3e 4fd5 d83d 9977 2c3d a639 093d
000003e0: 84a8 f93b c188 3d3e 6df4 8ebd 33e6 343d
000003f0: 2326 eebc cee8 383e ff57 023e 84eb f7bd
-0.032863557 -0.03201172 -0.06708956 0.104053944 -0.04547836 0.016909285 -0.09011232 0.07998547
-0.1101057 0.004541929 -0.12766808 -0.17210811 0.014906624 0.04708334 -0.1427458 -0.11737814
0.1020331 -0.021300795 0.10825935 -0.11834355 -0.030695273 0.08353561 -0.17195903 0.037785247
-0.13086805 -0.08254396 0.03991385 0.11383233 -0.11679134 0.03484136 -0.0013518233 -0.10491584
-0.053798772 0.02403313 -0.058594584 -0.07387129 0.17095894 -0.13186418 0.002353167 0.14255646
-0.043365955 -0.14946005 -0.10863264 -0.15577783 0.118134126 -0.07481825 0.047527723 0.06949162
-0.06024862 0.07743603 0.15551539 -0.028112859 0.079049 -0.0897808 0.11384102 -0.17048241
-0.061548162 0.012527642 -0.12301596 -0.12887178 0.0829108 -0.12637715 0.025493752 0.14693867
-0.15963626 0.18595994 0.14219888 -0.037862387 0.06784343 -0.061054848 -0.0764174 0.09922852
0.045282822 0.041073754 0.14106494 -0.036609992 -0.019588009 -0.1560904 -0.17801997 -0.121072575
-0.12641898 0.1270327 -0.07195971 -0.040028445 0.13821563 -0.06676818 -0.011920879 -0.14953123
0.114756085 -0.15857494 0.111503735 -0.019677239 -0.083337896 -0.02154876 -0.118329026 -0.06352748
0.14175308 0.13425174 0.09569204 -0.056518685 -0.051233567 0.07173843 -0.18139748 -0.17866026
-0.16714664 0.17556103 0.08459917 -0.073515065 -0.06267589 0.049774233 0.068260394 0.018785201
0.07652341 0.018337246 -0.058556516 0.056487076 0.11693195 -0.029535519 0.047480706 -0.16111396
-0.15842147 -0.16735032 0.04845156 -0.09183655 0.0715576 0.010187063 0.06875365 -0.14037673
0.18020827 -0.15500289 -0.07739078 -0.010389747 0.022140324 -0.01747006 -0.19013777 -0.13289511
-0.099313356 0.14906615 0.059889764 0.10100989 -0.06632197 0.10614893 -0.05892092 0.059688214
0.06819791 0.16243474 0.050737895 -0.011995986 0.12823598 0.13009655 -0.119131826 -0.06743643
0.14299941 -0.051064536 -0.06852945 -0.017039303 0.0932221 -0.16920115 0.09089206 0.004511874
0.060754236 -0.13290167 -0.007680339 0.1305068 -0.07323143 -0.0062181675 0.033559967 -0.09464029
0.17328241 -0.18478161 -0.0016725772 -0.04402211 0.14658964 0.09534647 -0.15846348 -0.043288454
0.13726987 0.0022675518 0.09916114 -0.15515769 -0.047894366 -0.17261177 -0.14481412 -0.13201892
-0.039880075 0.0028789416 -0.18081512 -0.07524136 -0.011792622 0.17617153 -0.04713535 -0.10969683
0.024371494 0.018167417 0.0040045544 -0.042909414 -0.015382467 0.13529901 -0.14532262 0.07363377
-0.0995954 0.049003527 -0.08401995 -0.13982204 0.07428121 0.030776305 0.074195504 -0.051281363
0.03649553 0.12611136 0.14022872 0.10213351 -0.05041242 -0.08404947 0.008396391 -0.13042097
-0.04240625 0.011389063 0.04117095 -0.02775229 0.07845514 -0.16364804 0.043323286 -0.111823805
-0.13988622 0.03775971 0.172171 0.023831502 0.08470752 -0.04047672 0.03687856 0.028864307
-0.053799927 0.12244249 -0.14007284 0.0650942 0.123442516 -0.09552752 0.1437304 0.043160416
0.12705107 0.07927566 -0.10419524 0.088781394 0.17177571 0.105875604 0.042106245 0.033502243
0.0076189656 0.18509199 -0.06980214 0.044164848 -0.02907092 0.18057558 0.1272888 -0.12105468

model.fc.10.bias f4 [16]
00000000: e368 19be ff9d 6d3c 6ace e2bd 862b 98bd
00000010: 59ce 2d3e bea4 71bd 1b8c ad3d 803e e13d
00000020: 6b02 023e c028 113e 6dc6 dd3d be08 a13c
00000030: 7a62 1a3e 901f 2e3e 7ef3 fcbd a476 1d3d
-0.14981417 0.014503001 -0.110745266 -0.074301764 0.16973247 -0.058995 0.084739886 0.10998249
0.12696235 0.14175701 0.10828862 0.019657489 0.15076628 0.17004228 -0.1235113 0.038443223

model.fc.11.weight f4 [16]
00000000: 9514 7e3f e19e 783f 0905 793f aa03 7a3f
00000010: e0c1 833f dfb4 7c3f 3b13 7b3f a5c7 793f
00000020: 2319 7a3f c2b6 843f e1e3 7d3f c9f1 763f
00000030: 70b2 813f 8ed5 863f 28ef 793f 0b95 7d3f
0.99250156 0.9711743 0.9727331 0.9766184 1.0293541 0.9871349 0.9807622 0.9757026
0.97694606 1.0368273 0.9917584 0.96462685 1.013258 1.0533922 0.9763055 0.99055547

model.fc.11.bias f4 [16]
00000000: 2e9f c23c ac60 efbc 376a 8cbc 8cfc 1cbc
00000010: 96de 293d 79a9 16bc 8b55 72bc 2e39 9cbc
00000020: b4fa bebc a10b 343d 1979 e43c a1fd a2bc
00000030: 767e f13b d239 393d 22e6 d6bb 18ce 673b
0.023757543 -0.029220901 -0.017140491 -0.009581696 0.04147204 -0.009195679 -0.014790903 -0.019070234
-0.023312904 0.043956403 0.027889775 -0.01989633 0.0073698116 0.045221157 -0.0065581957 0.0035370644

model.fc.11.running_mean f4 [16]
00000000: 0207 c0be c8d2 70bd 228a 5cbe 876c 10be
00000010: 8eda 483e 02c3 7ebe 0b54 403d 5aae da3e
00000020: fa8c 8a3c 50ba ed3d ac3f c13c b080 6c3c
00000030: 8f8c 8d3d 2871 953e edf5 cf3c 3641 88be
-0.37505347 -0.058794767 -0.21537068 -0.141039 0.19614622 -0.24879077 0.04695515 0.42711145
0.016912926 0.11607802 0.023589931 0.014434978 0.06911575 0.29187894 0.025385821 -0.26612252

model.fc.11.running_var f4 [16]
00000000: 5c76 823e 3d5f 773e 3805 d93e 5415 903e
00000010: 3ba5 ce3e ba3f 833e d0ac aa3d ec68 8f3e
00000020: 182f 3a3e 8182 c83e e84e da3e c58f 863e
00000030: a9c9 4b3e 4b93 f43e 5783 033e 08b6 af3e
0.25480926 0.24157424 0.42386794 0.28141272 0.40360436 0.25634557 0.083337426 0.28009737
0.18182027 0.39162067 0.42638326 0.26281562 0.19901146 0.47768626 0.12843071 0.34318566

model.fc.14.weight f4 [8, 16]
00000000: 11b9 413e 415e 07be 89fa 063e 2dca e63d
00000010: 3e79 f2bc aaee 35bd 5a70 6abd 59cc 613e
00000020: 6e64 22be fe69 0d3e 6d2e 22be 6502 4d3e
00000030: 7cc4 76bd f89b c93d 1234 063e 3190 19bd
00000040: ff5f b6bc 97ce 663e 05ac 803e 86c6 d03d
00000050: 2c24 a4bc 9b54 c43c f3c3 22be 82b0 283e
00000060: be70 d63d 6c62 5f3e ef4c 21be b4ca b63d
00000070: 8d54 853d 7e0e 26bd 0a8c 22bd 0f43 3c3d
00000080: d67d 81bd 149b 813e fee7 49be fef6 3fbd
00000090: 41f5 05be e393 473e 4462 c5bd cdb6 5cbd
000000a0: 90a6 503e b21f 47be b976 b1bd fe89 6f3e
000000b0: 5aeb 423e c383 57bd a63b 3fbd 8122 e3bd
000000c0: 9f9e 9c3c 91f7 053d 6343 023e b5bd 103e
000000d0: 812c 253e b964 97bd 5550 16be 2f01 e73d
000000e0: 8669 9bbc ff61 55be f252 6c3d 3e69 4c3e
000000f0: d8dd 82bd e0a5 82be 4148 133e cbe7 3e3e
00000100: e8f7 2cbe b0ce 5bbe 92f9 42be 29b9 fc3d
00000110: 1f6c 90bd f244 7dbe 7c5b 1a3c fe45 f8bd
00000120: 2ccf 73bd dd4f 08be 599a 4abd a5d1 23be
00000130: 10f2 8abd c547 39be a92a a8bc 8fe7 12be
00000140: a471 c33c fc97 1f3e 4875 b5bd e82d 0bbd
00000150: 7eb6 4fbd 49c7 b0bd 894b 2bbe 8fa4 bb3d
00000160: d6f2 07bd 01d7 323d 5bce a7bd 803c 10be
00000170: 7dd4 9cbd 9008 2f3e 8f64 223e c6e6 d6bd
00000180: 495d d53d 2391 0fbe f214 10bd 1e86 4abe
00000190: bb7a 39bc 1f74 343d 0e57 1f3e 58ae 7f3d
000001a0: a139 003e d805 a8bd abe9 863e f3e3 5abe
000001b0: 85e2 75bd 84da a0bd 05e0 2b3e 1487 8e3d
000001c0: f393 863e 74d8 09be c948 c93d 92ae 6dbe
000001d0: f159 5d3d 4896 b0bd ef20 debd e8f1 bd3c
000001e0: 8d05 143d 4b73 883e 8c13 303e 8b65 373d
000001f0: a4a4 ee3d 3967 983d 9ec8 31bd b55b 31be
0.18918253 -0.13219549 0.13181509 0.11269031 -0.029598828 -0.04441706 -0.057236053 0.22050609
-0.15858623 0.13809964 -0.15838023 0.20020445 -0.060245976 0.09844202 0.13105801 -0.037491027
-0.022262571 0.22539745 0.2513124 0.10194115 -0.02003678 0.023966124 -0.15895061 0.16473582
0.104707226 0.21814889 -0.15752004 0.08925381 0.065102674 -0.040541165 -0.039684333 0.04596239
-0.063228294 0.25313628 -0.19717404 -0.04686641 -0.13081838 0.19490008 -0.09637883 -0.05388527
0.20376039 -0.19445685 -0.08665223 0.23392484 0.19035092 -0.052615892 -0.046687745 -0.110905655
0.019118605 0.0327068 0.12721018 0.14134867 0.16130258 -0.07392258 -0.14679082 0.11279523
-0.018971216 -0.20838164 0.05769629 0.19962022 -0.063899696 -0.25517178 0.14383031 0.1864311
-0.16891444 -0.21465564 -0.19040516 0.12340004 -0.070518725 -0.24733332 0.009421226 -0.12122725
-0.059523746 -0.13311715 -0.049463604 -0.15997942 -0.06784451 -0.18093784 -0.020528154 -0.14346145
0.023857899 0.15585321 -0.0886026 -0.033979326 -0.050711147 -0.086317606 -0.16728033 0.091622464
-0.03319057 0.043662075 -0.08193656 -0.14085579 -0.076577164 0.1709311 0.15858673 -0.10493235
0.10418183 -0.14020209 -0.035176225 -0.19777724 -0.011320765 0.044056054 0.15560552 0.062422127
0.12521984 -0.082042396 0.2635015 -0.21376018 -0.06003048 -0.078541785 0.16784675 0.06959358
0.2628475 -0.13461477 0.09828336 -0.23211125 0.054040853 -0.08622414 -0.10846125 0.023186639
0.036138106 0.26650462 0.17194957 0.044774573 0.116524965 0.07441563 -0.043404214 -0.1732014

model.fc.14.bias f4 [8]
00000000: 1f3e 48be 10a9 b63c a2d4 c4bd b068 673e
00000010: 46b8 e1bd 74fa 893d 7334 f6bd 0d1b 7a3e
-0.19554947 0.022297412 -0.09610869 0.22598529 -0.110214755 0.06737223 -0.12021723 0.24424382

model.fc.15.weight f4 [8]
00000000: 43e5 843f 9673 7f3f 38fb 793f a241 873f
00000010: 1a22 883f d827 883f 697b 803f d62f 763f
1.0382465 0.99785745 0.97648954 1.0566905 1.0635407 1.0637159 1.0037662 0.9616674

model.fc.15.bias f4 [8]
00000000: 4c18 cb3c 342c eabc e0a9 36bd fcfa 7c3d
00000010: bdeb 7b3d e124 733d 87c6 373c a0ee 3ebd
0.02479186 -0.02858553 -0.0445956 0.061762795 0.061504114 0.059361342 0.011216766 -0.04661429

model.fc.15.running_mean f4 [8]
00000000: 70ed 75bd 172d 6d3e d850 f9bd 7f73 a13e
00000010: 7d8e 0abf aa6a 3e3c 34ec b0bd d21e bd3e
-0.06004089 0.23161732 -0.12173623 0.3153343 -0.5412367 0.01162211 -0.08638802 0.36937577

model.fc.15.running_var f4 [8]
00000000: 7215 623e 76f6 a73e b87b 7c3e 3c59 463e
00000010: 8fc0 b93e 7729 b53d 729a 353e 1ab8 903e
0.22078493 0.32805222 0.2465657 0.19369978 0.36279723 0.088457994 0.17734697 0.28265458

model.fc.18.weight f4 [3, 8]
00000000: 9500 493e 905e 753e ab00 023e 33cd d8bd
00000010: c19b 39be db6a f3bd 2c66 aebe b4d9 7dbb
00000020: c6b0 4bbe fbe8 8e3e f5b9 a63e e672 87be
00000030: 6674 f9bc 4e25 afbe f21a fd3d 859f 633e
00000040: d324 64be 13c9 93be 4012 c3bd 1847 b03e
00000050: 12f7 9f3e ded2 47be 7c7f 9f3d c39c 9abe
0.19629128 0.23961854 0.12695567 -0.10586014 -0.18125822 -0.118856154 -0.34062326 -0.0038734498
-0.19891652 0.27912125 0.3256375 -0.26454848 -0.03045101 -0.3420815 0.12358655 0.2222882
-0.22279672 -0.28864345 -0.09524965 0.3442924 0.31243187 -0.19514033 0.077879876 -0.30197725

model.fc.18.bias f4 [3]
00000000: f3e5 a53e 23a4 ca3d be2a b4bd
0.32402 0.09894588 -0.08797215
