globalcaffesyntetic/checkpoints_Strees_level/bodyP-epoch=53-val_loss=0.00.ckpt (torch, 229820 bytes, 68 tensors)

model.fc.0.weight f4 [128, 41]
0	0xbdb08a75	-0.086201586
1	0x3d60e206	0.054903053
2	0xbcc16dbb	-0.023611894
3	0xbc8fe84f	-0.017566828
4	0xbc034c60	-0.008013815
5	0x3de2ed0c	0.11080369
6	0x3d08c10f	0.03338724
7	0x3c9436ad	0.018092478
8	0xbe0776b9	-0.13228883
9	0xbd7a8f20	-0.06117165
10	0xbcb396fc	-0.02192258
11	0xbd41dfe3	-0.047332656
12	0x3b97fedd	0.0046385364
13	0x3c241b92	0.010016339
14	0x3d0e76de	0.03478133
15	0xbdb3e1bd	-0.087832905
16	0x3d3e0026	0.04638686
17	0xbdb08ad6	-0.08620231
18	0x3d90285c	0.07038948
19	0xbdecdb60	-0.1156528
20	0xbdb166ec	-0.08662209
21	0x3dbe7f04	0.0930157
22	0x3caed7bb	0.021343103
23	0x3d3c689d	0.045998204
24	0xbb3ac28c	-0.0028497307
25	0x3c9449b3	0.018101549
26	0x3d84a6c5	0.06477121
27	0x3e01a9e2	0.12662461
28	0xbd447f3b	-0.0479729
29	0xbcb1b51f	-0.02169281
30	0xbd80dc14	-0.062919766
31	0xbcbacac3	-0.022801762
32	0x3e22dde4	0.15904957
33	0x3e43b7dd	0.19113107
34	0x3e12c71f	0.14333771
35	0xbe710f47	-0.23540984
36	0x3d9d9ee9	0.07696325
37	0xbdf8a75d	-0.12141297
38	0xbd4571de	-0.048204295
39	0xbd0af804	-0.033927932
40	0x3e0082ca	0.12549892
41	0xbbd0d41d	-0.006372942
42	0xbd9000e3	-0.07031419
43	0x3d4c79e7	0.049920943
44	0xbc6e8d53	-0.0145600615
45	0x3d3aade1	0.04557598
46	0x3d57a725	0.052649636
47	0x3c77796f	0.015104636
48	0xbd3fce9c	-0.046827897
49	0xbce97a49	-0.028500693
50	0x3be25eab	0.006908258
51	0x3e1433a5	0.14472826
52	0xbd33fd0f	-0.043942507
53	0xbde6bc2f	-0.11266362
54	0x3b857da5	0.004073816
55	0x3dc93ea7	0.09826403
56	0xbd460263	-0.04834212
57	0xbdb20f13	-0.086942814
58	0xbc3935c0	-0.011304319
59	0x3db3cb62	0.087790266
60	0x3d82adf1	0.06380833
61	0x3d75365c	0.059866294
62	0x3d1de79c	0.038550958
63	0x3da0cb29	0.0785125
64	0x3cb6c500	0.022310734
65	0xbcb6794d	-0.022274638
66	0xbce8033e	-0.028321858
67	0x3cd47b5c	0.025937729
68	0xbdc35e02	-0.09539415
69	0x3d06d108	0.03291419
70	0x3b22f5c3	0.0024865724
71	0xbe132d72	-0.14372805
72	0x3d932ca2	0.071862474
73	0x3e16c5e3	0.14723925
74	0xbe918209	-0.2841952
75	0x3dd87203	0.10568621
76	0xbdbafc9f	-0.09130215
77	0xbc8910cd	-0.016731644
78	0xbd726abb	-0.059183817
79	0x3cc88e59	0.02448194
80	0x3c239efb	0.009986634
81	0xbd3bf06d	-0.045883585
82	0x3dd52a7b	0.10408493
83	0xbde0be78	-0.10973829
84	0xbcfb22cf	-0.030656246
85	0x3deb1d69	0.11480219
86	0xbbafafce	-0.0053615337
87	0x3dae3338	0.08505863
88	0xbe3739d0	-0.17893147
89	0x3d1930e6	0.03740015
90	0x3d9c18c8	0.07621914
91	0xbb0825f4	-0.0020774575
92	0xbd83812c	-0.06421122
93	0x3d7f242a	0.062290348
94	0x3d87fa4d	0.06639538
95	0xbdc8c29f	-0.09802746
96	0x3d42ace5	0.047528166
97	0xbd2b4dce	-0.041822247
98	0xbd1189ee	-0.03553193
99	0x3da13be4	0.07872751
100	0x3e19785c	0.1498732
101	0x3d29335d	0.04130875
102	0x3da88852	0.08229126
103	0x3c8ad94a	0.016949315
104	0x3d05b99c	0.032647714
105	0xbe0d464d	-0.13796349
106	0x3d384094	0.04498346
107	0xbe29b688	-0.16573536
108	0x3dbeef98	0.09323043
109	0xbdffaf36	-0.12484591
110	0x3b49a6c5	0.0030769568
111	0x3d36a6bb	0.0445926
112	0x3d1c8ead	0.038222004
113	0x3e08bdc0	0.13353634
114	0x3d1eae6e	0.038740568
115	0x3df3db86	0.11907105
116	0xbe178f37	-0.14800726
117	0xbe709b09	-0.23496641
118	0x3d821b2a	0.063528374
119	0x3e6e170d	0.2325098
120	0xbd257394	-0.040393427
121	0xbe5616bb	-0.20907108
122	0xbc9d428d	-0.019196773
123	0xbccd01cd	-0.025025273
124	0xbdb2581d	-0.087082125
125	0x3d6b4fed	0.05744927
126	0xbe098a20	-0.13431597
127	0x3cfc88a7	0.03082688
128	0xbd80ede3	-0.06295373
129	0xbcf1e64e	-0.029528763
130	0xbbdb37ba	-0.0066899927
131	0xbd8a13ed	-0.06742082
132	0xbddd18b6	-0.10795729
133	0xbd4a5085	-0.049393196
134	0xbce08d34	-0.02741108
135	0xbda396c3	-0.0798774
136	0xbe165bec	-0.14683503
137	0x3d738987	0.05945733
138	0x3d8c7ec8	0.06860119
139	0xbe5f1268	-0.21784365
140	0x3d7461f5	0.05966373
141	0x3e080b57	0.13285576
142	0x3dbbea96	0.09175603
143	0x3cc8e8a3	0.024524992
144	0xbdcde394	-0.10053173
145	0xbd82b4ef	-0.063821666
146	0xbd8b43f9	-0.06800074
147	0xbd92faad	-0.07176719
148	0x3d88e441	0.06684161
149	0xbce475b8	-0.027888164
150	0xbe1e6ea8	-0.154719
151	0xbd57bbc1	-0.05266929
152	0xbe11d93f	-0.14243029
153	0x3da6950a	0.08133896
154	0xbbdd4bb3	-0.006753409
155	0xbdda0adf	-0.10646605
156	0xbd8f0c34	-0.069847494
157	0xbe828690	-0.25493288
158	0x3ec8842a	0.39163333
159	0x3dcf11c9	0.10110814
160	0x3d3526f1	0.04422659
161	0x3e05104d	0.129945
162	0x3d563a91	0.052301947
163	0xbe004af0	-0.12528586
164	0xbca9e4f7	-0.020739062
165	0xbc88ac3f	-0.016683696
166	0xbbc0171f	-0.0058621312
167	0x3cfc413b	0.030792823
168	0xbd08d87e	-0.033409588
169	0xbd08c55b	-0.033391338
170	0x3d970435	0.07373849
171	0xbd7be2bc	-0.061495528
172	0xbded416e	-0.11584745
173	0xbcbb3488	-0.022852197
174	0x3cd60410	0.026124984
175	0x3d55d3e3	0.052204024
176	0xbe605f1a	-0.21911278
177	0xbd0e2961	-0.03470743
178	0x3d0a4bbb	0.03376363
179	0x3d9e65a3	0.077342294
180	0xbc7f4b63	-0.015581938
181	0x3c63991f	0.013891487
182	0xbc0225d1	-0.007943586
183	0x3da9f622	0.08298899
184	0xbd9da9c3	-0.07698395
185	0xbdb08d51	-0.08620704
186	0x3b2ea3d6	0.0026647947
187	0xbda287bb	-0.07936045
188	0xbd5d9a97	-0.054102506
189	0x3e094226	0.1340414
190	0x3db4ba73	0.08824625
191	0xbde396dc	-0.111127585
192	0xbb96fbca	-0.0046076523
193	0x3db09551	0.0862223
194	0x3d9401db	0.072269164
195	0xbe04695e	-0.1293082
196	0x3b5eddd4	0.0034006732
197	0xbf1ad0e6	-0.60475004
198	0x3d90b165	0.07065085
199	0x3df588c0	0.119889736
200	0xbd27846a	-0.040897764
201	0x3dd5efd1	0.10446132
202	0xbda7adf8	-0.08187479
203	0x3c2a9fb9	0.010414057
204	0x3b04bb2d	0.0020253167
205	0x3d2be854	0.041969612
206	0x3db60456	0.08887546
207	0xbda85dea	-0.08221038
208	0x3c1e8f05	0.009677653
209	0xbdad898c	-0.084735006
210	0xbcad6d0d	-0.021170164
211	0xbd66c0cf	-0.05633622
212	0x3c1f716e	0.009731634
213	0x3da65635	0.081219114
214	0xbd23b27d	-0.03996514
215	0xbdc17226	-0.094456
216	0xbc596bd2	-0.013270335
217	0xbd359da9	-0.04433981
218	0xbe093084	-0.13397413
219	0xbd530430	-0.051517665
220	0xbda02f92	-0.07821573
221	0xbdd7d2a8	-0.10538226
222	0xbd2ae4e2	-0.041722186
223	0x3d370647	0.04468372
224	0xbded5365	-0.11588172
225	0x3d3d1f75	0.046172578
226	0xbbbd7e80	-0.0057829022
227	0xbc9ebe0b	-0.019377729
228	0x3d3df540	0.046376467
229	0xbe09a20a	-0.13440719
230	0xbd4ff1bc	-0.050767645
231	0x3d66a490	0.056309283
232	0xbe505803	-0.20346074
233	0x3d317a60	0.043329597
234	0xbd334956	-0.04377111
235	0xbce4be9c	-0.02792292
236	0xbd49daa1	-0.049280766
237	0x3ea436d1	0.32073072
238	0xbeb61fff	-0.35571286
239	0x3e8e9bfa	0.27853376
240	0xbe848681	-0.25883868
241	0x3d6f80a7	0.0584723
242	0xbd090441	-0.033451322
243	0xbaee0c80	-0.0018161684
244	0xbd8e0fdb	-0.06936618
245	0xbc0f4afa	-0.008745903
246	0x3c9a7c75	0.018858174
247	0xbd66df11	-0.056365076
248	0x3dee991a	0.116502956
249	0xbcb2ae5b	-0.021811655
250	0xbd0c764b	-0.0342925
251	0xbda816cb	-0.082074724
252	0xbc2c9815	-0.010534306
253	0xbe02371b	-0.12716334
254	0x3c25bf11	0.010116355
255	0xbe0ead18	-0.13933218

model.fc.0.bias f4 [128]
0	0xbc278c38	-0.010226302
1	0xbe88cfb1	-0.26720956
2	0xbe079fa3	-0.1324449
3	0xbded4920	-0.11586213
4	0x3c3be6dd	0.011468616
5	0x3dc9f83a	0.098617986
6	0xbde6b118	-0.11264247
7	0x3e0b54e2	0.13606599
8	0xbcd84db1	-0.026404234
9	0xbe0cf70a	-0.13766113
10	0x3c90dab2	0.017682407
11	0xbe7cde46	-0.24694166
12	0xbd1cb5a5	-0.038259167
13	0xbdc6bafd	-0.09703634
14	0x3d837459	0.06418676
15	0xbe482246	-0.19544324
16	0xbded42b3	-0.115849875
17	0xbd934054	-0.07190004
18	0xbe39c44b	-0.18141286
19	0x3e043483	0.12910657
20	0x3d725a52	0.059168167
21	0xbe10a86d	-0.1412675
22	0x3e9d83cc	0.30764616
23	0xbc924dc6	-0.01785935
24	0x3cf6c888	0.030124918
25	0xbe99090f	-0.29889724
26	0xbe5a48b5	-0.21316798
27	0x3e62075d	0.22073121
28	0xbd529b3f	-0.051417585
29	0x3ccac9bc	0.024754398
30	0xbc8c1465	-0.017099569
31	0xbd8dcac4	-0.0692344
32	0xbe33e0eb	-0.17566268
33	0xbd554f20	-0.052077413
34	0x3d788cb9	0.06068108
35	0xbdb82599	-0.08991546
36	0x3bf430d8	0.0074521117
37	0xbd59f3d1	-0.053211037
38	0xbe2bf11a	-0.16791192
39	0xbe4c37a2	-0.19943097
40	0xbddb1776	-0.10697834
41	0xbe6777b4	-0.22604257
42	0xbe4ce4f9	-0.20009221
43	0x3d6e4342	0.05816961
44	0xbdee83b1	-0.11646212
45	0xbe796a90	-0.24357057
46	0x3d0d6587	0.034520652
47	0xbe4896fa	-0.19588843
48	0xbd371535	-0.04469796
49	0xbd6e011c	-0.058106527
50	0xbe3e30e6	-0.18573341
51	0x3d51e834	0.051246837
52	0xbc9035f7	-0.017603857
53	0xbd945d67	-0.072443776
54	0x3d8eb93b	0.06968924
55	0x3c96d943	0.018414145
56	0x3d908c18	0.07057971
57	0xbe17fab9	-0.14841737
58	0xbcc6a5cc	-0.02424898
59	0x3cd33f40	0.025786996
60	0xbdb61e11	-0.088924535
61	0xbccc07a9	-0.024905996
62	0x3c5698e8	0.013097979
63	0xbdc0afa0	-0.09408498
64	0x3ce4fe74	0.027953364
65	0xbd548d64	-0.051892653
66	0xbd85238b	-0.0650092
67	0xbe57fcb1	-0.21092488
68	0x3ea04d7d	0.3130912
69	0xbdb23e5d	-0.08703301
70	0xbe034de4	-0.12822682
71	0xbda88cb5	-0.08229963
72	0xbde6dd74	-0.112727076
73	0xbddaffcb	-0.1069332
74	0xbb8aee27	-0.0042398158
75	0x3d9c3b57	0.07628506
76	0x3d3c418c	0.045960948
77	0x3d1f885a	0.038948394
78	0xbe8fba5d	-0.2807187
79	0x3e4851b9	0.19562425
80	0x3bf61e4a	0.007510935
81	0xbdf64e44	-0.12026647
82	0xbce93806	-0.028469097
83	0xbd20711e	-0.039170377
84	0xbd217cb9	-0.039425585
85	0xbe6edd08	-0.23326504
86	0xbc98e58a	-0.01866414
87	0xbda8e756	-0.08247249
88	0x3e0b8528	0.13625014
89	0xbdd5edbc	-0.10445735
90	0xbe368294	-0.17823249
91	0xbe08ba3a	-0.1335229
92	0x3e1da060	0.1539321
93	0x3d9ec8b4	0.07753125
94	0x3ddd8a94	0.10817447
95	0xbe4c4208	-0.19947064
96	0xbdce6520	-0.10077882
97	0xbd2cead0	-0.042216122
98	0xbe1ff859	-0.15622081
99	0xbabb183f	-0.0014274194
100	0x3dfebfdc	0.12438938
101	0x3d8c3159	0.0684535
102	0xbd223217	-0.03959855
103	0xbd08601e	-0.03329479
104	0xbd985b90	-0.07439339
105	0x3da4a161	0.08038593
106	0x3d8e2abd	0.069417454
107	0xbe57b124	-0.21063668
108	0xbd09df9c	-0.033660516
109	0xbcd83451	-0.026392134
110	0xbe35f56d	-0.17769404
111	0xbc1ff58d	-0.009763134
112	0x3e6c18f5	0.23056395
113	0x3ddd2b58	0.10799283
114	0xbdb17393	-0.08664622
115	0xbe6c2bf8	-0.23063648
116	0xbdd8181f	-0.10551476
117	0x3e281216	0.16413149
118	0x3dd94d8e	0.106104955
119	0xbcb0c641	-0.02157891
120	0xbe907ba0	-0.28219318
121	0xbd9bf1f3	-0.076145075
122	0xbe0a2a06	-0.13492593
123	0xbe8838dd	-0.26605883
124	0x3c8ef091	0.017448695
125	0xbd6733c8	-0.056445867
126	0xbde60d5a	-0.11233015
127	0x3e103b24	0.1408506

model.fc.2.weight f4 [64, 128]
0	0xbcb0e8be	-0.021595355
1	0x3d4ed0f9	0.05049226
2	0xbe40dce7	-0.18834268
3	0x3d104398	0.035220712
4	0x3cf42e7e	0.029807325
5	0xbda3c40b	-0.079963766
6	0x3dc3f313	0.09567847
7	0x3ca95fef	0.020675628
8	0x3de6b652	0.112652436
9	0x3db3ff6b	0.087889515
10	0xbc80e448	-0.015733853
11	0xbd9423fa	-0.072334245
12	0x3ca1446e	0.01968595
13	0xbd329801	-0.043601993
14	0xbcf047de	-0.029331144
15	0x3d5a9652	0.053366013
16	0x3dab3023	0.08358791
17	0xbba813a1	-0.005129293
18	0x3c53fb13	0.012938279
19	0x3d858f98	0.06521529
20	0xbc06b3cb	-0.008221577
21	0x3b963a36	0.004584576
22	0xbd65cdbd	-0.05610441
23	0xbd5cdc94	-0.053921297
24	0x3da83e95	0.082150616
25	0xbc246c41	-0.010035575
26	0x3dafbd1f	0.08580994
27	0x3dd3bae0	0.10338378
28	0x3d070961	0.03296793
29	0xbe166772	-0.14687899
30	0xbb3d280a	-0.0028862976
31	0x3e3137b5	0.17306407
32	0x3d7a210e	0.06106668
33	0x3c8f35e9	0.017481761
34	0xbdd2c0a1	-0.10290647
35	0x3c50bb83	0.012740019
36	0xbdb72e6e	-0.08944403
37	0xbd64200a	-0.055694617
38	0xbdf38be2	-0.11891915
39	0xbe167ef3	-0.14696865
40	0x3cc52b1a	0.024068404
41	0x3d8faae0	0.07015014
42	0xbd6b0b66	-0.057383917
43	0x3d7f0f26	0.062270306
44	0xbc3a3af1	-0.011366592
45	0x3c36e64b	0.011163305
46	0xbd8a946f	-0.06766593
47	0xbd72144b	-0.059101384
48	0x3d91d5bf	0.07120847
49	0x3b3440bd	0.0027504407
50	0xbd85bb68	-0.065298855
51	0xbd3e948a	-0.046528377
52	0xbde509c4	-0.11183503
53	0x3d534edd	0.05158888
54	0x3d32c28e	0.043642573
55	0xbd60002f	-0.054687675
56	0x3dab997f	0.083788864
57	0xbae735a7	-0.0017639891
58	0x3d3cf700	0.046133995
59	0x3b484fd9	0.003056517
60	0x3d82efc5	0.06393389
61	0x3cacf437	0.021112544
62	0x3d774b9e	0.06037485
63	0xbd752a0b	-0.05985455
64	0x3cbe010b	0.023193857
65	0x3cedbc9f	0.029020606
66	0x3d923ee5	0.071409024
67	0x3da43ca4	0.08019379
68	0x3c27daaf	0.010245009
69	0xbd818a20	-0.063251734
70	0xbd029753	-0.031882595
71	0x3d8dd96f	0.06926238
72	0x3d1f21a4	0.03885044
73	0xbdc5c1aa	-0.09656079
74	0x3d35205d	0.044220317
75	0x3d10cb93	0.035350394
76	0x3e7dc8be	0.24783608
77	0xbdb8804a	-0.09008844
78	0x3da4b46b	0.080422245
79	0xbd66b300	-0.05632305
80	0xbd24d3a3	-0.040240895
81	0x3d21544b	0.03938703
82	0xbd06ae4f	-0.032881077
83	0x3aa13fcd	0.0012302339
84	0xbd0363d4	-0.032077625
85	0xbba2dbbf	-0.0049700434
86	0x3d958271	0.0730027
87	0xbd8cee27	-0.068813615
88	0xbd025381	-0.031817917
89	0xbd9edc50	-0.07756865
90	0x3e4f178f	0.2022383
91	0x3dc7d9f3	0.097583674
92	0xbc03d059	-0.008045279
93	0x3da858f8	0.082200944
94	0xbc313838	-0.010816626
95	0xbcc2efbd	-0.023795957
96	0xbd1a1d73	-0.03762574
97	0x3d1fccdc	0.03901373
98	0xbe62d184	-0.22150236
99	0x3d63cdcc	0.055616185
100	0xbd0f26f6	-0.034949265
101	0x3d8c99e6	0.06865291
102	0xbdb623c2	-0.08893539
103	0xbbbfb45d	-0.0058503584
104	0x3d3968af	0.04526585
105	0x3ded4ffd	0.11587522
106	0xbe2674c0	-0.16255474
107	0xbd900dca	-0.0703388
108	0x3c279401	0.010228158
109	0x3e5900bf	0.21191691
110	0xbdf00910	-0.117204785
111	0xbc114a39	-0.008867794
112	0xbc4a9b43	-0.012366119
113	0x3d7575e1	0.05992687
114	0x3def2626	0.11677198
115	0xbd20f208	-0.03929332
116	0xbcacb9b5	-0.021084646
117	0x3e1f596a	0.15561453
118	0xbd2aa5e0	-0.041662097
119	0xbd7ad91d	-0.06124221
120	0x3def3a61	0.11681057
121	0x3dcab2af	0.098973624
122	0x3b6e4b90	0.0036360957
123	0x3cab1913	0.02088598
124	0xbd63be9e	-0.05560171
125	0x3ca57bbe	0.020200606
126	0xbd54b576	-0.051930867
127	0xbcbcb6e6	-0.023036432
128	0x3c0181dc	0.007904496
129	0x3d5c651e	0.05380737
130	0xbd9df009	-0.07711799
131	0x3de69975	0.11259738
132	0x3dc61919	0.09672756
133	0x3d696f0b	0.056990664
134	0x3d51cffd	0.051223744
135	0xbe46af80	-0.19402885
136	0x3dc65d9b	0.096858226
137	0xbde17585	-0.11008743
138	0xbd51b117	-0.051194277
139	0x3db5b5a9	0.088725396
140	0x3d6e366f	0.05815738
141	0x3dbd5317	0.09244364
142	0xbdc37d2d	-0.0954536
143	0x3e15f56e	0.14644405
144	0xbce75620	-0.02823931
145	0xbd5dcf4d	-0.054152776
146	0x3d3427f8	0.04398343
147	0x3d75a4e6	0.059971713
148	0xbe3eda6b	-0.18638007
149	0x3d5e7f29	0.054320488
150	0x3c549859	0.012975776
151	0x3d97ede8	0.07418424
152	0x3da8f6ce	0.08250199
153	0xbd53b677	-0.051687684
154	0x3d96ee9d	0.073697306
155	0xbc8f8e98	-0.017524049
156	0x3d2903c6	0.041263364
157	0xbc00118e	-0.007816685
158	0xbb39db30	-0.0028359406
159	0x3d4f8f8f	0.050674018
160	0x3dd262c3	0.102727436
161	0xbc924672	-0.017855857
162	0x3dc52529	0.09626228
163	0xbb852f52	-0.004064479
164	0xbb335b48	-0.002736764
165	0x3cef85b7	0.029238565
166	0xbd1521cb	-0.03640918
167	0x3dca79db	0.09886523
168	0xbd857a9a	-0.06517525
169	0x3d2e28f4	0.042519525
170	0xbd1ff234	-0.039049342
171	0xbe2810f7	-0.16412722
172	0xbcecd8d6	-0.02891199
173	0xbd1d3597	-0.038381185
174	0x3ccb0ba3	0.024785822
175	0xbbd46e7b	-0.006482897
176	0xbe41e938	-0.18936622
177	0x3e1534e7	0.14570962
178	0xbc1dc9c3	-0.009630623
179	0xbceaa9a9	-0.028645353
180	0x3d9a69aa	0.07539685
181	0xbda8a61b	-0.08234807
182	0x3cef15e2	0.02918524
183	0x3ccdd029	0.025123673
184	0x3c042801	0.008066178
185	0xbd5cf067	-0.053940203
186	0x3c65be0e	0.014022363
187	0x3d14122f	0.036150154
188	0x3b467de4	0.003028744
189	0xbbb19337	-0.0054191607
190	0x3bad7eb4	0.005294645
191	0xbd1fc75f	-0.039008494
192	0x3de7370a	0.11289795
193	0x3b9746d5	0.004616598
194	0xbe09a1a1	-0.13440563
195	0xbdcfdbec	-0.10149369
196	0xbd85eb05	-0.06538967
197	0xbd7f2809	-0.06229404
198	0x3d1b64c5	0.0379379
199	0xbbdaf2ac	-0.006681761
200	0xbb958250	-0.0045626536
201	0x3daa3b55	0.08312098
202	0xbbbed243	-0.005823405
203	0xbdc3b8e5	-0.0955675
204	0xbe748ec8	-0.23882592
205	0xbc3ce0e0	-0.011528224
206	0x3cdc86d5	0.026919762
207	0xbdd7b3ea	-0.10532363
208	0x3e6a76fa	0.22896948
209	0xbda2bbed	-0.07946
210	0xbe03690b	-0.1283304
211	0x3dd46f86	0.10372834
212	0x3d9568bb	0.072953664
213	0x3c9ad8f5	0.018902281
214	0xbd0f6684	-0.035009876
215	0x3c3fe685	0.011712675
216	0x3e01d9e5	0.12680776
217	0xbdec88f3	-0.115495585
218	0x3d752855	0.059852917
219	0x3e2f1458	0.17097604
220	0xbd048291	-0.03235108
221	0xbbb8c033	-0.0056381463
222	0xbe50dd2f	-0.20396875
223	0x3de5e028	0.11224395
224	0xbdafb136	-0.08578722
225	0x3d741099	0.05958614
226	0x3cb2b1ae	0.02181324
227	0x3da69758	0.08134335
228	0x3d057518	0.032582372
229	0xbe1cf0b6	-0.15326199
230	0xbcf8a451	-0.03035179
231	0x3d562732	0.052283473
232	0x3db690eb	0.0891436
233	0xbe344877	-0.17605768
234	0x3d6ab347	0.05729988
235	0x3cbc374d	0.022975588
236	0xbd49ee96	-0.0492998
237	0xbd54564b	-0.051840108
238	0x3cb709fa	0.022343624
239	0xbda97d5f	-0.08275866
240	0x3e0e9731	0.13924862
241	0xbdf6ae0e	-0.12044917
242	0xbd81c297	-0.06335943
243	0x3d01f43c	0.03172706
244	0x3abe925b	0.0014539467
245	0xbe3e3942	-0.1857653
246	0xbd5cbd5b	-0.05389152
247	0x3dbd674f	0.0924822
248	0x3d670a46	0.056406282
249	0x3ce6afa5	0.028159926
250	0x3cace083	0.02110315
251	0x3de18583	0.110117935
252	0x3d96ef22	0.0736983
253	0xbba05105	-0.004892471
254	0xbb9e2b2e	-0.0048269248
255	0x3db71f8d	0.08941565

model.fc.2.bias f4 [64]
0	0xbd4ea8cc	-0.050453946
1	0x3d3e4c6f	0.04645961
2	0x3d4b1e2a	0.049589314
3	0x3cf6a128	0.030106142
4	0x3b39de11	0.0028361122
5	0x3c946edd	0.01811927
6	0x3d77a114	0.06045635
7	0x374f7384	1.2365057e-05
8	0xbd55453e	-0.052067988
9	0xbd2929db	-0.041299682
10	0xbcfbbad5	-0.030728737
11	0x395b7bb8	0.00020931556
12	0x3cb94228	0.022614554
13	0xbbe6c1df	-0.007042154
14	0xbd68dbb7	-0.05685016
15	0x3d28fe7e	0.041258328
16	0xbd807695	-0.06272618
17	0x3d513fc4	0.051086202
18	0x3d4dd30a	0.05025009
19	0xbd83f81b	-0.06443807
20	0xbd3ffe1e	-0.046873204
21	0xbd25d59a	-0.04048691
22	0x3d820dd4	0.06350294
23	0x3d48f7d2	0.049064465
24	0x3d682391	0.056674544
25	0x3d3b7b97	0.04577216
26	0xbd37de2d	-0.044889618
27	0x3d66416b	0.05621473
28	0xbd77c9eb	-0.0604953
29	0xbd6d9d5a	-0.05801139
30	0xbd043d88	-0.032285243
31	0xbc479ff0	-0.012184128
32	0x3cc3b56c	0.02389022
33	0x3d57108b	0.05250601
34	0x3d266804	0.04062654
35	0xbd912946	-0.070879504
36	0xbda1d21b	-0.079014026
37	0x3cda5db9	0.026656019
38	0x3cdac17d	0.02670359
39	0x3d071d57	0.032986965
40	0x3bde0280	0.0067752004
41	0xbd9abea4	-0.07555893
42	0xbcbbd0fd	-0.022926802
43	0xbd4e2014	-0.05032356
44	0x3d880356	0.06641261
45	0x3d199eee	0.037505083
46	0x3cfe8fc9	0.031074421
47	0xbcd8ccb9	-0.026464807
48	0xbd95e9f7	-0.07320016
49	0xbd6c3912	-0.057671614
50	0x3cb101e3	0.021607345
51	0x3c00171c	0.00781801
52	0xba5c4fc7	-0.0008404222
53	0x3d37d295	0.04487856
54	0xbb932fea	-0.004491796
55	0x3d26d35e	0.04072892
56	0xbb915c98	-0.004436087
57	0x3d86157a	0.06547065
58	0x3d9cc887	0.07655435
59	0xbce3b744	-0.027797349
60	0xbd2a022e	-0.041505985
61	0xbd6db157	-0.058030453
62	0xbd276c29	-0.040874634
63	0xbc294ba3	-0.010332975

model.fc.3.weight f4 [64]
0	0x3f3b2504	0.73103356
1	0x3f5c91ce	0.8615998
2	0x3f56c834	0.83899236
3	0x3f52cc5f	0.82343096
4	0x3f535b7e	0.8256148
5	0x3f5495c3	0.8304102
6	0x3f69d03d	0.9133337
7	0x3f6a8e78	0.9162364
8	0x3f576860	0.8414364
9	0x3f8674df	1.0504416
10	0x3f7c1987	0.9847645
11	0x3f483bda	0.78216326
12	0x3f86937c	1.0513759
13	0x3f61eed2	0.88255036
14	0x3f497864	0.78699327
15	0x3f494967	0.7862763
16	0x3f514673	0.8174812
17	0x3f6ad480	0.917305
18	0x3f6f43aa	0.9346262
19	0x3f57cc78	0.8429637
20	0x3f73518e	0.9504632
21	0x3f76a224	0.96341157
22	0x3f335572	0.70052254
23	0x3f73e7d1	0.952756
24	0x3f424f18	0.7590194
25	0x3f568c03	0.8380739
26	0x3f56db63	0.8392851
27	0x3f5ce86f	0.86292166
28	0x3f3fcff1	0.7492667
29	0x3f549b15	0.83049136
30	0x3f62dea3	0.88620967
31	0x3f812070	1.0088024
32	0x3f4ff3f3	0.8123161
33	0x3f4434d7	0.7664313
34	0x3f55d3dc	0.83526397
35	0x3f5d652e	0.8648251
36	0x3f6fab6f	0.9362096
37	0x3f582991	0.84438425
38	0x3f4c6101	0.79835516
39	0x3f6dd5c7	0.92904323
40	0x3f65e19f	0.89797395
41	0x3f7c4f0e	0.9855813
42	0x3f36c378	0.7139201
43	0x3f7e8397	0.9941954
44	0x3f42d53e	0.7610663
45	0x3f481431	0.7815581
46	0x3f51c91e	0.81947505
47	0x3f339c52	0.701604
48	0x3f741d4d	0.9535721
49	0x3f678156	0.90431726
50	0x3f707245	0.9392436
51	0x3f69b621	0.9129353
52	0x3f4e52f7	0.80595344
53	0x3f646d7f	0.8922958
54	0x3f35753c	0.7088201
55	0x3f6ae30f	0.91752714
56	0x3f6f549c	0.9348848
57	0x3f4a9df9	0.791473
58	0x3f47a1eb	0.7798144
59	0x3f6e5254	0.9309437
60	0x3f5d05be	0.86336887
61	0x3f35eb48	0.71062136
62	0x3f76cb97	0.96404403
63	0x3f471221	0.7776204

model.fc.3.bias f4 [64]
0	0xbda206d8	-0.079114616
1	0xbdbff2c0	-0.09372473
2	0xbdfeea76	-0.124470636
3	0xbae197dd	-0.0017211396
4	0x3d0f359b	0.03496323
5	0xbd5e797d	-0.05431508
6	0x3e340331	0.17579342
7	0xbda94156	-0.08264415
8	0xbd91649d	-0.070992686
9	0xbe0444a6	-0.12916812
10	0xbe3fd515	-0.18733628
11	0xbe1463df	-0.14491223
12	0xbdcb0eed	-0.09914956
13	0xbe06e4f9	-0.13173284
14	0xbd5b713c	-0.053574786
15	0xbd398b09	-0.04529861
16	0x3d0ec6d7	0.034857597
17	0xbe227a1f	-0.15866898
18	0xbcd58fa2	-0.026069466
19	0xbdded1b6	-0.10879843
20	0xbdf0ba14	-0.117542416
21	0xbda08845	-0.07838491
22	0xbd90b579	-0.07065863
23	0xbd95c6f2	-0.073133364
24	0xbdf37155	-0.11886851
25	0xbcc8fb35	-0.024533847
26	0x3c3d4360	0.011551708
27	0x3dba04a6	0.09082918
28	0xbe09c2e4	-0.13453251
29	0xbc7260af	-0.014793559
30	0xbe3d0a1e	-0.1846089
31	0xbe6e8ca2	-0.23295835
32	0xbd8370a4	-0.06417969
33	0xbdf65ce8	-0.12029439
34	0xbe3ade42	-0.18248847
35	0xbe4d1324	-0.20026833
36	0x3c028757	0.007966838
37	0x3d5942f3	0.053042363
38	0xbdab5ce9	-0.083673306
39	0xbe0bd054	-0.1365369
40	0xbe05296b	-0.13004081
41	0xbde7bab8	-0.11314911
42	0xbdf0f84f	-0.11766111
43	0xbe63a037	-0.22229086
44	0x3d0906d6	0.033453785
45	0xbdfc8a4e	-0.12331067
46	0xbd7d9ae1	-0.061915282
47	0xbe2a8c3f	-0.16655062
48	0xbe78555a	-0.24251309
49	0xbc163e4e	-0.009170128
50	0xbe5a37fb	-0.21310417
51	0xbde57f88	-0.11205965
52	0x3c157042	0.009121003
53	0xbe27f97a	-0.16403762
54	0xbd671ad8	-0.056422085
55	0x3d0fdf2b	0.03512494
56	0xbe0e23d4	-0.13880855
57	0xbd28b249	-0.04118565
58	0xbe214fef	-0.15753148
59	0x3e050737	0.12991033
60	0x3cae9daa	0.021315414
61	0xbdbe6284	-0.09296134
62	0xbd15163e	-0.036398165
63	0xbde53b9f	-0.111930124

model.fc.3.running_mean f4 [64]
0	0x3d94114c	0.072298616
1	0xbe60afd6	-0.21942076
2	0xbd9f1c0a	-0.0776902
3	0xbca4d94d	-0.020123148
4	0xbe90149b	-0.2814072
5	0xbe101a28	-0.14072478
6	0xbe9b5a60	-0.30342388
7	0x3e4f45bf	0.2024145
8	0xbe04499c	-0.12918705
9	0x3d3446f0	0.044012964
10	0x3e266bcb	0.16252057
11	0xbd94bf7c	-0.07263085
12	0x3e1c0acc	0.15238494
13	0x3df782fd	0.12085531
14	0xbe42856d	-0.1899621
15	0x3dbf61c1	0.09344817
16	0xbe95e75b	-0.29278073
17	0x3e1b4024	0.15161186
18	0xbde19f9d	-0.11016772
19	0xbe74f152	-0.23920181
20	0x3e859d2b	0.26096472
21	0x3d6361c4	0.05551316
22	0xbe999c92	-0.30002266
23	0x3eb8eec6	0.3611967
24	0xbcc74cd7	-0.024328632
25	0xbde5e0fd	-0.11224554
26	0xbe98f0d6	-0.29871243
27	0x3dda3d48	0.1065622
28	0x3c9e8d8f	0.01935461
29	0xbdf8ffff	-0.121582024
30	0x3da443b5	0.080207266
31	0x3da8dd1f	0.082453005
32	0xbe5fc4ad	-0.2185237
33	0x3cdf0f25	0.027228901
34	0x3e4fe0ae	0.20300552
35	0xbdd4a472	-0.10382928
36	0xbe79d316	-0.24396929
37	0xbd287f71	-0.041137163
38	0xbe3fbf5a	-0.18725339
39	0x3e09ccdc	0.13457054
40	0x3e612c0f	0.21989463
41	0x3e18cc06	0.14921579
42	0x3e0cdd9c	0.13756412
43	0x3dfd4166	0.123659894
44	0xbda0789d	-0.07835505
45	0x3e407ecc	0.18798369
46	0x3e7f3916	0.2492412
47	0xbdffe140	-0.12494135
48	0x3c9b79f4	0.01897905
49	0xbe2fdd64	-0.17174298
50	0x3e1cbbba	0.15305987
51	0xbe3d83db	-0.1850733
52	0xbe092af5	-0.13395293
53	0x3e79c5e3	0.24391894
54	0x3d9e3b08	0.07726103
55	0x3dbc6e1e	0.09200691
56	0xbdf49610	-0.11942685
57	0xbe118f6e	-0.1421487
58	0x3ef207be	0.47271532
59	0xbe453958	-0.19260156
60	0xbe3bc169	-0.18335499
61	0xbe92baa7	-0.2865803
62	0xbebc6e2d	-0.36802807
63	0xbe677fe2	-0.22607377

model.fc.3.running_var f4 [64]
0	0x3ea2c088	0.31787515
1	0x3f34fc05	0.7069705
2	0x3f93396c	1.1501899
3	0x3f66de07	0.90182537
4	0x3f6e2af8	0.93034315
5	0x3f43726b	0.7634646
6	0x3f99b68f	1.2008837
7	0x3fafb671	1.3727552
8	0x3f23506a	0.6379458
9	0x3fd0b0ee	1.6303995
10	0x3fdfb012	1.7475607
11	0x3f1ebebb	0.6200978
12	0x3fc9d952	1.5769446
13	0x3fb4ab74	1.4114823
14	0x3f584245	0.8447612
15	0x3ee916e7	0.45525286
16	0x3f983262	1.1890376
17	0x3fa95b60	1.323101
18	0x3f625efc	0.88426185
19	0x3f1c5ec8	0.61082125
20	0x3fcf43db	1.6192583
21	0x3f088626	0.53329694
22	0x3f637eb8	0.8886523
23	0x3fd58d83	1.6683811
24	0x3f5117e0	0.81677055
25	0x3f369965	0.7132781
26	0x3ee753ca	0.45181113
27	0x3f0f6d83	0.56026477
28	0x3f254440	0.64557266
29	0x3f1258de	0.5716685
30	0x3f9f751b	1.2457613
31	0x3fcfdca5	1.623921
32	0x3f262cb2	0.6491195
33	0x3f21900f	0.6311044
34	0x3f71ba7e	0.9442519
35	0x3f6f1480	0.93390656
36	0x3f0907ec	0.5352771
37	0x3f5c69d1	0.86098963
38	0x3f30f24b	0.6911971
39	0x3f14b2c7	0.5808529
40	0x3f363920	0.71180916
41	0x3f15bcdb	0.58491296
42	0x3ebad5c7	0.36491224
43	0x3fd68d3f	1.6761855
44	0x3f69fbf4	0.91400075
45	0x3f137dda	0.5761391
46	0x3ed2c93c	0.41169155
47	0x3f0fdf35	0.5619996
48	0x3fbb7a0a	1.4646618
49	0x3f44c858	0.768682
50	0x3fa1324b	1.2593473
51	0x3f1dce1e	0.61642635
52	0x3f336577	0.700767
53	0x3f7fc805	0.9991458
54	0x3ecd6839	0.40118578
55	0x3f0825e9	0.53182846
56	0x3f12dfe0	0.57372856
57	0x3f23c597	0.63973373
58	0x3f3c0488	0.73444414
59	0x3f825668	1.0182619
60	0x3f6c0494	0.92194486
61	0x3f5a9371	0.8538123
62	0x3ea215ab	0.31657156
63	0x3f4f0c37	0.80878013

model.fc.6.weight f4 [32, 64]
0	0x3d0c7391	0.0342899
1	0xbe32a24e	-0.17444727
2	0x3d941ba3	0.07231834
3	0x3c327885	0.010892992
4	0x3d54a19d	0.05191194
5	0x3c038002	0.008026125
6	0xbcd258be	-0.025677081
7	0x3dfa518d	0.12222586
8	0x3d5f5c0c	0.054531142
9	0x3dfee585	0.12446121
10	0x3e2322b3	0.15931205
11	0x3d868cef	0.0656985
12	0x3d7fa25e	0.062410705
13	0xbd64451a	-0.055729963
14	0xbcd8bb0f	-0.026456384
15	0xbd7a2b3d	-0.06107639
16	0xbde1c5e1	-0.110240705
17	0x3d2e8b42	0.042613275
18	0xbd9ed542	-0.077555194
19	0xbe1969f6	-0.14981827
20	0x3e0b50f8	0.13605106
21	0x3e3faf8e	0.18719313
22	0xbd199019	-0.037490938
23	0x3c841ca0	0.01612693
24	0x3cad7b62	0.021176998
25	0xbd906173	-0.07049837
26	0xbe32ea20	-0.17472124
27	0x3de1b011	0.1101991
28	0xbcfe6ee4	-0.031058736
29	0xbd1bae43	-0.038007986
30	0x3d273fd8	0.04083237
31	0xbc0e6f58	-0.008693539
32	0x3d67dabb	0.056605082
33	0x3d1f3638	0.038870066
34	0x3ded7ff6	0.11596672
35	0x3da538fd	0.0806751
36	0xbda9c49f	-0.082894556
37	0x3dce5338	0.100744665
38	0x3c0a7e61	0.008452983
39	0x3d18bdef	0.03729051
40	0x3e172adb	0.14762442
41	0x3dcd9736	0.10038607
42	0x3e12ab38	0.14323127
43	0x3d2ae5b0	0.041722953
44	0xbc996fcb	-0.018730065
45	0x3d9b8df3	0.07595434
46	0x3de2aabf	0.110677235
47	0x3d7488bd	0.059700716
48	0x3e052ecd	0.13006134
49	0x3cf7552c	0.03019198
50	0x3c6e6eeb	0.014552812
51	0xbe03ed7b	-0.1288356
52	0xbddd634f	-0.10809957
53	0xbc6e1586	-0.014531499
54	0x3d8e011c	0.06933805
55	0x3def7109	0.116914816
56	0xbe15fce7	-0.14647256
57	0xbe01ab78	-0.12663066
58	0x3e19536e	0.14973232
59	0xbd95f4d2	-0.073220864
60	0xbb7c779f	-0.0038523448
61	0xbd24fb9b	-0.040279012
62	0xbddb1d58	-0.10698956
63	0xbe19da6c	-0.15024728
64	0x3d60b212	0.05485732
65	0x3a960a71	0.0011447204
66	0xbe13644b	-0.14393727
67	0xbe57716f	-0.21039365
68	0xbda181ca	-0.078860834
69	0xbe169ec8	-0.14709008
70	0xbe2e70d4	-0.17035228
71	0x3de1d97c	0.1102781
72	0xbd1db59a	-0.038503267
73	0x3df0a402	0.11750032
74	0x3dad979c	0.08476183
75	0xbdbb8dab	-0.091578804
76	0x3e5c003c	0.21484464
77	0x3db5677d	0.088576294
78	0xbe196796	-0.14980921
79	0xbd2b75b3	-0.041860294
80	0xbe238141	-0.15967275
81	0x3e12f2a2	0.1435037
82	0xbad5572b	-0.0016276588
83	0xbd231945	-0.03981902
84	0x3e05bffc	0.13061517
85	0x3dc3560e	0.09537898
86	0xbd432bbe	-0.047649138
87	0x3d8c2ca9	0.06844456
88	0xbd0a8d78	-0.03382632
89	0x3da65622	0.08121897
90	0xbdaf4450	-0.085579515
91	0xbd9448fe	-0.07240485
92	0xbd3d8ebb	-0.046278697
93	0xbcc08aeb	-0.023503741
94	0x3e087101	0.13324358
95	0x3e4c9aad	0.19980879
96	0xbe1a4495	-0.15065224
97	0xbd82b278	-0.063816965
98	0x3a67035d	0.0008812452
99	0x3d86d88d	0.065842725
100	0x3b22276c	0.0024742736
101	0xbe417ca5	-0.18895204
102	0xbd74c85b	-0.059761386
103	0x3d9d0d8a	0.07668598
104	0xbd98e58b	-0.07465657
105	0xbdf7017b	-0.12060829
106	0xbd6adafd	-0.05733775
107	0x3df24511	0.118295796
108	0xbdad0047	-0.084473185
109	0xbdd72c35	-0.10506479
110	0x3c8d178f	0.017223148
111	0xbd4cb186	-0.049973987
112	0x3dc4b8ce	0.09605561
113	0xbe4b0448	-0.19825852
114	0x3e60deb1	0.2195995
115	0x3cb14ac4	0.021642096
116	0xbe1d51b7	-0.15363203
117	0x3dfea265	0.12433318
118	0x3d56231a	0.05227957
119	0xbdbd23da	-0.09235354
120	0x3d51c17b	0.051209908
121	0xbdbbccfc	-0.09169957
122	0x3da2f31a	0.07956524
123	0xbdb5f53e	-0.08884667
124	0xbe4ffdaf	-0.20311616
125	0x3cc0f63a	0.02355491
126	0x3cf6499a	0.030064393
127	0xbe0b5ca1	-0.13609554
128	0x3dcd8b07	0.10036283
129	0xbdcc879d	-0.09986804
130	0x3d7ff6c4	0.062491193
131	0xbd96ea18	-0.073688686
132	0xbd10b20e	-0.035326056
133	0x3c7e3354	0.015515167
134	0xbdc60eec	-0.09670815
135	0x3e143f45	0.1447726
136	0xbda0da20	-0.07854104
137	0x3d6e069e	0.05811178
138	0x3c35ab2b	0.011088173
139	0x3d976419	0.07392139
140	0x3e2195cf	0.15779804
141	0x3ce0575a	0.027385402
142	0xbd1dfd5b	-0.038571697
143	0x3dca650b	0.09882554
144	0x3cfb8160	0.03070134
145	0x3d7940e4	0.0608529
146	0xbe6abd56	-0.22923788
147	0xbe12ff79	-0.14355268
148	0xbb982e84	-0.004644217
149	0xbc7b3e23	-0.015334639
150	0xbd7485f3	-0.059698056
151	0x3d7966ef	0.06088918
152	0x3d76afe6	0.060226344
153	0xbe186b57	-0.14884697
154	0x3cc591ef	0.024117438
155	0x3d60fe25	0.05492987
156	0x3d12c1db	0.035829406
157	0x3e0cf96d	0.13767023
158	0xbdc822b6	-0.097722456
159	0x3bd99acb	0.006640767
160	0xbcb441b5	-0.022003988
161	0x3c3c43f0	0.011490807
162	0x3db14888	0.08656412
163	0x3dac9a89	0.08427913
164	0xbe1e37a2	-0.1545091
165	0x3c6ac556	0.014329275
166	0xbcb22d9f	-0.02175027
167	0x3e3a093d	0.18167587
168	0x3e048809	0.12942518
169	0x3dd1aff5	0.10238639
170	0x3dde4559	0.10853071
171	0x3e1dbc66	0.154039
172	0xbcac29c8	-0.021016017
173	0xbd0d2034	-0.03445454
174	0x3cc1276d	0.02357837
175	0xbc92fffe	-0.017944332
176	0xbd2c72aa	-0.04210154
177	0xbd128398	-0.03577003
178	0x3d90e2a3	0.070744775
179	0xbdaec7ca	-0.085342005
180	0xbd9287dd	-0.0715482
181	0xbdf3ea31	-0.11909903
182	0x3dc34569	0.09534723
183	0x3dc94c75	0.09829036
184	0xbe034723	-0.12820105
185	0x3dbe375e	0.09287904
186	0x3d31686f	0.043312486
187	0x3c918d45	0.017767558
188	0x3cfd87fc	0.030948631
189	0x3dae03bc	0.08496806
190	0xbe34e24a	-0.17664447
191	0xbc945b08	-0.018109813
192	0x3c4301ef	0.0119023165
193	0x3dadb307	0.084814124
194	0x3d10136c	0.035174772
195	0x3d255ef9	0.040373776
196	0xbda640e0	-0.08117843
197	0xbc965f82	-0.018356089
198	0xbd75d26a	-0.06001512
199	0xbe32b613	-0.17452268
200	0x3d9d9e60	0.07696223
201	0xbe420242	-0.18946174
202	0xbe7a1ef8	-0.24425876
203	0x3ce20ba2	0.027593438
204	0xbe8d0e2f	-0.27549884
205	0xbe0ab2bd	-0.13544746
206	0x3da64730	0.08119047
207	0x3d552532	0.052037425
208	0x3c540905	0.012941604
209	0xbe7652a1	-0.24054958
210	0x3d96ea9f	0.07368969
211	0xbce317cf	-0.027721314
212	0xbde54b83	-0.11196043
213	0xbda16bee	-0.07881914
214	0xbd7b9c57	-0.061428394
215	0xbe6e7ee9	-0.232906
216	0x3d82aadd	0.06380246
217	0x3c80085e	0.01562899
218	0x3cec3105	0.028831968
219	0xbe15b1de	-0.14618632
220	0xbcc83c6f	-0.02444288
221	0x3d3bcbe9	0.04584876
222	0xbdf93282	-0.12167837
223	0xbe81b0d6	-0.25330228
224	0xbd1d8f27	-0.0384666
225	0x3df43bee	0.11925493
226	0x3c848ee6	0.01618142
227	0xbc868150	-0.016419083
228	0xbc9aeae9	-0.018910842
229	0xbbb1508d	-0.0054112137
230	0xbcce895d	-0.025211984
231	0xbdc8b387	-0.09799867
232	0xbca5de3e	-0.020247575
233	0xbd87f024	-0.066376
234	0xbd8b5753	-0.06803765
235	0xbe22c7cb	-0.15896527
236	0xbda85745	-0.0821977
237	0xbcc54090	-0.024078637
238	0x3ccbb5d7	0.024866981
239	0x3dae78c7	0.0851913
240	0xbe44e380	-0.1922741
241	0x3dcf060c	0.10108575
242	0xbe364451	-0.17799498
243	0x3e01c663	0.12673335
244	0x3d0a2aa1	0.03373206
245	0xbd8f6dd5	-0.07003371
246	0xbc1c18ea	-0.009527424
247	0x3d66c43f	0.0563395
248	0xbc827ac8	-0.015927687
249	0xbd4c9497	-0.049946394
250	0xbe0b14b0	-0.1358211
251	0x3e31e2ce	0.17371675
252	0x3d96d3fd	0.07364652
253	0x3da3aeec	0.07992348
254	0x3d6aaa87	0.057291534
255	0xbc22e2bd	-0.009941754

model.fc.6.bias f4 [32]
0	0x3cb856c6	0.022502314
1	0x3dce045f	0.100594275
2	0xbdbfe5ec	-0.09370026
3	0x3dafa60b	0.08576592
4	0xbca404a9	-0.020021753
5	0xbacabea2	-0.001546819
6	0xbda7c757	-0.08192318
7	0xbd696ac4	-0.056986585
8	0x3d94dc4d	0.072685815
9	0x3d995db8	0.074885786
10	0x3d28b52a	0.041188397
11	0xbca41db1	-0.02003369
12	0x3d333f17	0.04376134
13	0x3d876d0a	0.066125944
14	0x3d727279	0.0591912
15	0x3dcfa3a3	0.10138633
16	0x3da8ceb1	0.08242548
17	0xbd88e731	-0.06684721
18	0x3d68c362	0.056826957
19	0x3db2e66c	0.08735356
20	0x3d79ec7f	0.061016556
21	0xbc24849d	-0.010041383
22	0x3ce68729	0.028140621
23	0xbdd3f6d4	-0.10349813
24	0x3d4212c1	0.047381166
25	0x3dd4e504	0.10395244
26	0xbd4fa4ae	-0.05069416
27	0x3d95b478	0.07309812
28	0xbdc803af	-0.097663276
29	0x3c20bf8b	0.009811292
30	0x3dd43c16	0.10363023
31	0x3d9c09a8	0.07619029

model.fc.7.weight f4 [32]
0	0x3f8385da	1.0275223
1	0x3f667766	0.9002594
2	0x3f779816	0.9671644
3	0x3f7daf05	0.99095184
4	0x3f6ca1d3	0.92434424
5	0x3f91cfdd	1.139156
6	0x3f4dfd55	0.8046468
7	0x3f63f265	0.8904174
8	0x3f4bc6e8	0.7960038
9	0x3f497af6	0.7870325
10	0x3f80b460	1.0055046
11	0x3f843b13	1.0330528
12	0x3f70d3fa	0.9407345
13	0x3f725d2a	0.9467341
14	0x3f5cc6b9	0.86240727
15	0x3f613d62	0.8798429
16	0x3f773521	0.96565443
17	0x3f615cb8	0.880321
18	0x3f827437	1.0191716
19	0x3f467b5f	0.77532
20	0x3f723d33	0.9462463
21	0x3f50f0d4	0.81617475
22	0x3f5ca21e	0.8618487
23	0x3f62d794	0.88610196
24	0x3f5ca908	0.8619542
25	0x3f7dba0d	0.99112016
26	0x3f811bab	1.0086569
27	0x3f4aa898	0.79163504
28	0x3f462efa	0.7741543
29	0x3f699765	0.91246635
30	0x3f444f19	0.76683193
31	0x3f557b10	0.83390903

model.fc.7.bias f4 [32]
0	0xbdfbe1c6	-0.12298922
1	0xbe0d1f4a	-0.13781467
2	0xbd1ea67b	-0.038732987
3	0xbc725a5a	-0.014792049
4	0xbe272e21	-0.1632619
5	0xbd9cd4d4	-0.07657781
6	0xbd2ee690	-0.04270035
7	0xbd42d526	-0.047566555
8	0xbdc10624	-0.09424999
9	0xbd917ece	-0.07104264
10	0x3b6ba7f4	0.0035958262
11	0xbe5de688	-0.21669972
12	0xbe05b426	-0.13057002
13	0xbe7f4359	-0.24928035
14	0xbe472560	-0.19447851
15	0xbdd35d63	-0.103205465
16	0xbe21ac8d	-0.15788479
17	0xbe173afd	-0.14768596
18	0xbd59f75a	-0.05321441
19	0xbe8ba72d	-0.27275982
20	0xbd4f7e72	-0.050657697
21	0xbc92683d	-0.01787197
22	0xbd431114	-0.04762371
23	0xbc41c9b0	-0.011827871
24	0xbdcdaa6f	-0.10042273
25	0x3d1a964e	0.037740998
26	0xbe3e1822	-0.18563893
27	0xbdd3fe19	-0.103512
28	0xbd85302e	-0.0650333
29	0xbd9963f0	-0.07489765
30	0xbdc1b9c3	-0.09459259
31	0xbdc9e62d	-0.09858356

model.fc.7.running_mean f4 [32]
0	0x3deead56	0.11654155
1	0xbe1e99d6	-0.15488371
2	0xbd3a27a2	-0.045447953
3	0xbe5f0c66	-0.21782073
4	0xbdd14282	-0.102177635
5	0xbd3c9cf1	-0.04604811
6	0xbea894f3	-0.3292614
7	0xbeb1f782	-0.34759146
8	0x3e5670d5	0.2094148
9	0xbe2cf0cb	-0.1688873
10	0x3d377eb7	0.04479858
11	0xbcce7829	-0.025203781
12	0x3dc213bd	0.09476421
13	0xbd6dfb1c	-0.058100805
14	0xbdbb301e	-0.09140037
15	0x3de452c8	0.11148602
16	0x3d955bf8	0.07292932
17	0xbdcba8da	-0.09944315
18	0x3c703bb9	0.0146626765
19	0x3e801b41	0.25020793
20	0xbd09eb24	-0.033671513
21	0xbe2b6340	-0.1673708
22	0xbec2f0eb	-0.3807443
23	0xbedd0693	-0.43169078
24	0xbd89e6fa	-0.067335084
25	0x3c1e2b41	0.009653867
26	0x3e051bd1	0.12998892
27	0xbcfda803	-0.030963903
28	0xbe0549e2	-0.13016465
29	0x3d993b00	0.074819565
30	0xbd3671e5	-0.044542212
31	0x3d2c0c8f	0.042004164

model.fc.7.running_var f4 [32]
0	0x401c8048	2.4453297
1	0x4086b9cd	4.2101808
2	0x400bf011	2.1865275
3	0x408ff49c	4.4986095
4	0x3ff85d3e	1.9403455
5	0x40c1c331	6.055077
6	0x40835c09	4.1049848
7	0x4072efd1	3.7958872
8	0x3fbd896f	1.4807566
9	0x405ed992	3.4820294
10	0x40ad6f7e	5.41986
11	0x40b01d72	5.5035944
12	0x3ff021f9	1.8760368
13	0x40842214	4.12916
14	0x4085fa46	4.186801
15	0x3feaac0d	1.8333756
16	0x406cc111	3.6992838
17	0x3fde656d	1.7374703
18	0x3fe56b73	1.7923416
19	0x40455e99	3.0838988
20	0x4046477a	3.0981126
21	0x4067dd77	3.6228921
22	0x402132e6	2.5187316
23	0x404c8c42	3.1960607
24	0x4017f303	2.3742073
25	0x408fdf56	4.4960127
26	0x401cddec	2.451045
27	0x4019f6fb	2.4056995
28	0x3ff52bf9	1.9154044
29	0x40286d64	2.6316767
30	0x4027a89f	2.6196668
31	0x3fc986ab	1.5744222

model.fc.10.weight f4 [16, 32]
0	0x3c961b0f	0.01832345
1	0x3dd7e020	0.10540795
2	0xbcc45b4c	-0.023969315
3	0x3cfc025c	0.030762844
4	0xbe52708e	-0.20550749
5	0x3d162a03	0.03666116
6	0x3d5e9bc0	0.054347754
7	0xbb38cdda	-0.002819887
8	0x3d01aeee	0.031660967
9	0xbde29e92	-0.11065401
10	0x3c4d761e	0.012540368
11	0x3d67e31c	0.056613073
12	0xbe97842e	-0.29593033
13	0x3ad4927d	0.0016217973
14	0x3df38bbd	0.11891887
15	0xbebfd4d5	-0.37467065
16	0x3daf1912	0.08549704
17	0x3dc89b1b	0.09795209
18	0x3c1d9d45	0.0096200155
19	0xbd874108	-0.066042006
20	0xbd8914b3	-0.06693401
21	0xbe2ad0b5	-0.16681178
22	0x3ba16fd8	0.004926663
23	0x3d8577ae	0.06516968
24	0xbe64e2a2	-0.22352079
25	0xbcd553e8	-0.026040986
26	0xbec0b838	-0.37640548
27	0xbe5cf166	-0.21576461
28	0x3d7413eb	0.059589308
29	0xbe84aec0	-0.25914574
30	0xbd02393e	-0.03179287
31	0x3d7217ac	0.059104607
32	0xbce889d8	-0.028386042
33	0xbea18d2b	-0.31553015
34	0x3d3fb86e	0.046806745
35	0x3e06bff2	0.13159159
36	0xb9f039c0	-0.00045819394
37	0xbe6b320c	-0.2296831
38	0xbd1558e4	-0.036461726
39	0xbba48cef	-0.0050216834
40	0x3bd7a766	0.0065812347
41	0xbd61abf8	-0.055095643
42	0xbe76083d	-0.2402658
43	0xbe947e3b	-0.29002556
44	0x3d4d6e5e	0.050154082
45	0xbe1b90da	-0.15191975
46	0xbe3daf1c	-0.1852383
47	0xbc805304	-0.015664585
48	0xbe8cbdf8	-0.27488685
49	0xbdb8689d	-0.090043284
50	0xbc9db691	-0.019252094
51	0xbb9ae939	-0.0047275093
52	0x3d9802d2	0.07422413
53	0x3e0b407f	0.13598822
54	0x3d2eddee	0.042692117
55	0x3dd3a997	0.10335081
56	0x3d52fa34	0.051508144
57	0x3e0634cf	0.13106082
58	0x3d1e0071	0.03857464
59	0x3d24461e	0.04010593
60	0xbd63cbf2	-0.05561442
61	0x3d86089f	0.06544613
62	0xbc16a493	-0.009194511
63	0xbbcc7f9e	-0.006240799
64	0xbe1c7138	-0.15277565
65	0xbdaed069	-0.08535845
66	0xbc0dfe4c	-0.008666586
67	0x3e4c8064	0.19970852
68	0x3d980609	0.07423026
69	0xbeae3a5a	-0.34028894
70	0x3dc2da6e	0.095143184
71	0x3df74ecf	0.120755784
72	0x3cf683dd	0.030092174
73	0x3d97e021	0.07415796
74	0xbe43cbca	-0.19120708
75	0xbe8478b4	-0.2587334
76	0x3ab6f404	0.001395822
77	0xbd888dbc	-0.06667659
78	0xbe69e166	-0.22839889
79	0x3d5a304b	0.053268712
80	0xbe34e7f4	-0.17666608
81	0x3b5f1125	0.0034037319
82	0xbdaa9e1b	-0.083309375
83	0xbdd8bc75	-0.1058282
84	0x3d59ae31	0.053144637
85	0xba98cf25	-0.0011658414
86	0x3d860f74	0.06545916
87	0x3e491163	0.19635539
88	0x3d6b907e	0.057510845
89	0x3d486c64	0.048931494
90	0x3b9dd4e3	0.004816638
91	0xbcd126cf	-0.0255312
92	0x3c123a09	0.0089249695
93	0x3d29491e	0.041329496
94	0x3deed043	0.116608165
95	0xbcc0144a	-0.023447175
96	0xbe2e24fb	-0.17006294
97	0x3dc7c36d	0.097540714
98	0xbec71d3b	-0.3888949
99	0x3d98fb36	0.0746979
100	0x3e2eb380	0.17060661
101	0xbdbf10d7	-0.09329384
102	0xbc892eb8	-0.01674591
103	0xbd12c9b0	-0.035836875
104	0x3d75f3a0	0.060046792
105	0xbbdc38d2	-0.0067206407
106	0xbd345b20	-0.044032216
107	0x3dcd9456	0.100380585
108	0x3de5a59e	0.112132296
109	0x3debf840	0.11521959
110	0x3d8b6594	0.06806484
111	0x3da35643	0.079754375
112	0x3e0391f5	0.12848647
113	0xbe80672a	-0.25078708
114	0xbeb19d79	-0.34690455
115	0x3d9f123f	0.07767152
116	0x3dc33a63	0.09532621
117	0xbcb934a2	-0.022608105
118	0x3e35becb	0.17748563
119	0xbd5e68a7	-0.054299023
120	0x3debd291	0.11514772
121	0x3d497e46	0.04919269
122	0x3e23ed08	0.16008389
123	0x3e1430fa	0.14471808
124	0xbe3102ab	-0.17286174
125	0x3d9d1b41	0.07671214
126	0xbcd0c05a	-0.025482345
127	0xbe611f27	-0.2198454
128	0xbd95c099	-0.07312126
129	0xbe0a1a13	-0.13486509
130	0x3da6b87b	0.081406556
131	0x3d3337c6	0.04375436
132	0xbe208177	-0.15674387
133	0xbe885f12	-0.26635033
134	0x3dc1228f	0.0943042
135	0x3dab1716	0.08354013
136	0x3c0fd27d	0.008778212
137	0x3d563073	0.0522923
138	0xbe3bbebe	-0.18334481
139	0xbe54ea2d	-0.20792456
140	0x3e0d2dcd	0.13787003
141	0xbe0cb266	-0.13739929
142	0xbe81756a	-0.25284892
143	0x3d865b51	0.06560386
144	0xbe6c31b7	-0.2306584
145	0xbdf3ef02	-0.119108215
146	0xbd8e0fc2	-0.06936599
147	0xbd9a33b9	-0.075293966
148	0x3defe4c1	0.11713553
149	0x3d7b0197	0.061280813
150	0x3db8366a	0.08994754
151	0x3de22813	0.110428
152	0x3cc3a32a	0.023881514
153	0x3ab08fde	0.001347061
154	0x3d2c31ec	0.042039797
155	0xbdaa707b	-0.08322235
156	0x3ceefbb5	0.029172758
157	0x3da16552	0.078806534
158	0x39bd8719	0.00036149545
159	0xbe01f8c4	-0.12692553
160	0xbd440152	-0.04785282
161	0x3e26a9e9	0.16275753
162	0xbcfc8502	-0.030825142
163	0xbe90fb49	-0.28316715
164	0x3d1014b1	0.035175983
165	0xbd193232	-0.037401386
166	0xbe87aa52	-0.26497132
167	0xbe39e293	-0.18152837
168	0x3e07bee7	0.13256417
169	0xbd9ec3db	-0.077522
170	0x3c871089	0.016487377
171	0x3d8c527e	0.06851672
172	0x3ca63235	0.020287612
173	0x3e2854fa	0.16438666
174	0x3dca5877	0.098801546
175	0x3cdc4534	0.026888467
176	0x3d975e2d	0.073910095
177	0xbc83a982	-0.016072039
178	0xbd3a257e	-0.04544591
179	0x3e3ab8f2	0.18234614
180	0xbdfde1f1	-0.123966105
181	0xbe4e28c5	-0.2013274
182	0xbe919bfb	-0.28439316
183	0xbe933d98	-0.2875793
184	0x3d9096b0	0.07059991
185	0xbe6f4ee0	-0.23369932
186	0x3da25dd0	0.079280496
187	0x3cf33a56	0.029690903
188	0xbb96afe8	-0.0045986064
189	0x3d3f2aa7	0.046671536
190	0xbe2aff29	-0.16698898
191	0x3d1df070	0.038559377
192	0x3d424b3a	0.047435023
193	0x3d76f789	0.06029466
194	0x3d4c5e8d	0.04989486
195	0x3c03e5aa	0.008050362
196	0xbe9fc919	-0.31208113
197	0x3d22abbd	0.039714564
198	0xbe1a91ab	-0.1509463
199	0x3d8defde	0.06930517
200	0xbe164439	-0.14674462
201	0x3c1c7324	0.009548936
202	0x3c4532f8	0.012036078
203	0x3dc6b5b7	0.09702628
204	0xbe9602ad	-0.29298916
205	0x3c878790	0.016544133
206	0x3b87e9ae	0.00414773
207	0xbeb107af	-0.34576175
208	0x3b990f41	0.004671008
209	0x3ced8ad7	0.028996868
210	0x3cace916	0.021107238
211	0xbc347537	-0.011014274
212	0x3c8e1a2e	0.017346468
213	0x3d12acca	0.035809316
214	0xbd0cec30	-0.034404933
215	0xbdda20b7	-0.10650771
216	0xbea8af56	-0.3294627
217	0xbcf7cf80	-0.03025031
218	0xbe93cf3c	-0.28869045
219	0xbe1d27fb	-0.15347283
220	0x3c4edcc5	0.012625878
221	0xbea8c81e	-0.32965177
222	0x3cbca64e	0.023028519
223	0x3d43cdfe	0.04780387
224	0xbdadd4f0	-0.0848788
225	0xbe628fae	-0.22125122
226	0xbd5990e7	-0.053116705
227	0x3d42d831	0.047569457
228	0xbd21d8a5	-0.03951325
229	0xbea66a69	-0.3250306
230	0x3e0145eb	0.12624328
231	0x3e1b9491	0.15193392
232	0xbe0724c8	-0.13197625
233	0x3d94af9b	0.072600566
234	0xbe798337	-0.2436646
235	0xbe862124	-0.2619716
236	0x3d2181bd	0.03943037
237	0xbe0afe9f	-0.13573693
238	0xbe7296ba	-0.2369031
239	0xbd3cf71d	-0.046134103
240	0xbe2863f2	-0.16444376
241	0xbd3c3d2f	-0.045956787
242	0xbe450d17	-0.19243275
243	0xbd3ff6f5	-0.046866376
244	0xbb337a18	-0.0027386006
245	0x3ddc08b1	0.10743845
246	0x3e3e846a	0.186052
247	0x3e45c032	0.19311598
248	0x3de214d7	0.11039131
249	0x3c58a348	0.013222523
250	0xbcfd1ebc	-0.030898444
251	0x3daa38e5	0.08311633
252	0x3d4929f8	0.04911229
253	0x3cd16f16	0.025565665
254	0xbd69d5b3	-0.057088565
255	0x3cb2f49a	0.02184515

model.fc.10.bias f4 [16]
0	0x3b5da0f4	0.003381786
1	0x3ddb19bb	0.10698267
2	0xbcad12a3	-0.02112705
3	0x3c0e9626	0.00870279
4	0x3d9ec5be	0.0775256
5	0x3d075d32	0.033047862
6	0xbdb6fdc4	-0.08935121
7	0xbe0147dd	-0.1262507
8	0x3dbdc7ab	0.09266599
9	0x3cec2126	0.0288244
10	0xbcd25750	-0.0256764
11	0xbdc21b96	-0.09477918
12	0x3e07e424	0.13270622
13	0x3dee11da	0.11624499
14	0xbccb76f2	-0.024836991
15	0x3d748515	0.05969723

model.fc.11.weight f4 [16]
0	0x3f490ffb	0.7854001
1	0x3f4b3565	0.7937835
2	0x3f306c59	0.68915325
3	0x3f44439b	0.7666566
4	0x3f3c58ce	0.73573005
5	0x3f640074	0.8906319
6	0x3f357763	0.70885295
7	0x3f47a4cf	0.7798585
8	0x3f4bb500	0.7957306
9	0x3f4f01f3	0.8086235
10	0x3f35fd10	0.7108927
11	0x3f3ffc22	0.749941
12	0x3f35f30f	0.71074003
13	0x3f5791f1	0.84207064
14	0x3f5845a6	0.84481275
15	0x3f3b20a4	0.7309668

model.fc.11.bias f4 [16]
0	0xbe3a4bd9	-0.18192996
1	0xbdc586c2	-0.09644844
2	0xbd20fcd1	-0.039303605
3	0xbc087c20	-0.008330375
4	0xbe0e38b3	-0.13888817
5	0xbefa27a6	-0.48858374
6	0xbe07c4eb	-0.13258712
7	0xbdc5574b	-0.096357904
8	0xbe2c5ff2	-0.16833475
9	0xbd6461cd	-0.055757333
10	0xbdd8c841	-0.105850704
11	0xbeca19dd	-0.39472857
12	0xbe0975fd	-0.13423915
13	0xbe132be4	-0.14372212
14	0xbe88b54e	-0.26700824
15	0xbda69972	-0.08134736

model.fc.11.running_mean f4 [16]
0	0xbe10b796	-0.14132532
1	0xbd486fc7	-0.048934724
2	0xbdcfbb75	-0.101431765
3	0xbda5e71c	-0.08100721
4	0xbd601159	-0.054704044
5	0xbe90e9fa	-0.2830351
6	0xbe8782b2	-0.264669
7	0xbe9dd26e	-0.30824608
8	0x3d68a4d0	0.056797802
9	0xbdb241fb	-0.08703991
10	0xbe163e67	-0.14672242
11	0xbe587692	-0.21138981
12	0xbb735bb4	-0.0037133517
13	0x3d59cbb8	0.053172797
14	0xbe2ff586	-0.17183504
15	0x3d1f805e	0.03894078

model.fc.11.running_var f4 [16]
0	0x3fc5d3d4	1.545527
1	0x4006ee1b	2.1082828
2	0x400e78dd	2.226127
3	0x400486c0	2.0707245
4	0x3ff04e63	1.8773922
5	0x3fa1a8f5	1.2629687
6	0x3fe31227	1.7739915
7	0x40290403	2.6408699
8	0x3fad939f	1.3560675
9	0x3fe25a10	1.7683735
10	0x401f086d	2.4848893
11	0x3fcb62f0	1.5889568
12	0x4012ca53	2.293599
13	0x3fcc9466	1.5982788
14	0x3f938d5f	1.1527518
15	0x3fcbd9ef	1.5925883

model.fc.14.weight f4 [8, 16]
0	0xbd0161fc	-0.031587586
1	0x3e38e915	0.18057664
2	0x3e0c59be	0.13706109
3	0xbd22cb5b	-0.039744716
4	0x3e728830	0.23684764
5	0xbe8fff7d	-0.2812461
6	0xbd651b19	-0.055934045
7	0x3e2a00ba	0.1660184
8	0xbcc7d39b	-0.024392894
9	0x3d8f7eb8	0.070065916
10	0x3e8d3a85	0.2758371
11	0xbdcb1659	-0.09916372
12	0x3e6ff2c5	0.23432453
13	0x3e7e4dc4	0.24834353
14	0xbd9a6e96	-0.07540624
15	0x3e6bae6a	0.23015752
16	0x3ee479ea	0.44624263
17	0xbd3b66b5	-0.045752246
18	0xbd4ef4d0	-0.05052644
19	0xbd472920	-0.048623204
20	0xbcffadb3	-0.031210756
21	0xbc807bf0	-0.015684098
22	0x3ebb2ad1	0.36556104
23	0xbd161994	-0.036645487
24	0xbd57e64c	-0.052709863
25	0xbd1629be	-0.036660902
26	0xbd7e2f4e	-0.062056832
27	0xbc7322ce	-0.014839841
28	0xbccbfd3e	-0.024901029
29	0xbd40d72d	-0.047080208
30	0x3ecae3a6	0.39626807
31	0xbd49b4c6	-0.049244665
32	0xbd0a75d3	-0.033803772
33	0x3e42345a	0.18965283
34	0x3e09d8ba	0.13461581
35	0x3bc91816	0.0061369045
36	0x3e5be8e8	0.21475565
37	0xbe2692f0	-0.1626699
38	0xbd81d109	-0.063386984
39	0x3e6ad39b	0.22932284
40	0xbcd60cf5	-0.026129225
41	0xbc9b7d0c	-0.018980525
42	0x3e3c5d9d	0.18395086
43	0xbd8a4f6b	-0.06753429
44	0x3e3afa4e	0.18259546
45	0x3e6a0c98	0.22856367
46	0xbd62981f	-0.055320855
47	0x3e3e3227	0.18573819
48	0xbdccb84e	-0.09996091
49	0x3d146153	0.036225628
50	0x3ddd4c50	0.10805571
51	0x3eacfa5c	0.3378476
52	0x3d4ae699	0.04953632
53	0x3d1d0ac5	0.03834035
54	0xbe506f30	-0.20354915
55	0x3d0d31dc	0.034471378
56	0x3ec4370d	0.3832325
57	0x3eb4ae51	0.35289243
58	0x3db716fc	0.08939931
59	0x3da2cc14	0.07949081
60	0x3cb8597a	0.022503603
61	0x3c379033	0.011203813
62	0xbdaa3b34	-0.08312073
63	0x3c85d56c	0.016337119
64	0xbe2020ed	-0.1563756
65	0xbb9deaa2	-0.00481923
66	0xbd432f7a	-0.0476527
67	0x3e97950c	0.296059
68	0x3d6fe229	0.058565293
69	0x3d0cebed	0.034404684
70	0xbe8a5f64	-0.27025902
71	0x3b913c41	0.0044322317
72	0x3eaae5c0	0.3337841
73	0x3e8464d2	0.2585817
74	0xbcfa79a5	-0.030575583
75	0x3d427e21	0.047483567
76	0xbd58fdb2	-0.052976318
77	0xbd008a9e	-0.031382196
78	0xbdbfb837	-0.09361308
79	0xbd198d39	-0.037488196
80	0xbcd7c74f	-0.026340155
81	0x3e91dee1	0.28490356
82	0x3e4508f0	0.1924169
83	0x3d193f63	0.037413966
84	0x3e4b5091	0.19854952
85	0xbe28ef3c	-0.1649751
86	0xbcb3ef5d	-0.021964723
87	0x3e84bfa4	0.2592746
88	0x3d559a0b	0.05214886
89	0xbd362026	-0.044464253
90	0x3ea2bbe4	0.31783974
91	0xbdd073ea	-0.10178359
92	0x3ea2eec7	0.31822798
93	0x3ea12ee5	0.3148109
94	0xbe1380a9	-0.14404549
95	0x3e0edac5	0.13950641
96	0xbd2922cc	-0.04129295
97	0x3e4e5237	0.2014855
98	0x3e7e738e	0.24848768
99	0xbccfa259	-0.025345968
100	0x3e91f952	0.2851053
101	0xbe8b2195	-0.2717406
102	0xbd871d4c	-0.06597385
103	0x3e6ad470	0.22932601
104	0xbde2db51	-0.110769875
105	0xbd114176	-0.03546282
106	0x3e5d442f	0.21608041
107	0xbe506f20	-0.20354891
108	0x3e018a3d	0.1265039
109	0x3e85db31	0.26143792
110	0xbc75924e	-0.014988495
111	0x3e6dc761	0.23220588
112	0xbd01a608	-0.03165248
113	0x3e825709	0.25457028
114	0x3e51c45c	0.20485061
115	0xbc2fce39	-0.01073032
116	0x3e68b251	0.22724272
117	0xbea0522f	-0.313127
118	0xbb8d3430	-0.0043091998
119	0x3e710342	0.23536399
120	0xbde63ab5	-0.11241666
121	0xbcdd26fc	-0.026996128
122	0x3dd776df	0.1052072
123	0xbe26b049	-0.16278185
124	0x3e255927	0.1614729
125	0x3e80dd06	0.25168628
126	0xbc17f8ab	-0.009275596
127	0x3e4e211c	0.20129818

model.fc.14.bias f4 [8]
0	0x3e5ad9a9	0.21372093
1	0x3e0fc1aa	0.1403872
2	0x3e0b62bf	0.13611887
3	0xbd768b24	-0.06019129
4	0xbd1ae820	-0.037819028
5	0x3e06ecbf	0.13176249
6	0xbc88d8a8	-0.016704872
7	0x3d68ab55	0.05680402

model.fc.15.weight f4 [8]
0	0x3fe0c332	1.7559569
1	0x3fb98568	1.4493837
2	0x3fdd4f32	1.7289793
3	0x3f9e1b42	1.2352068
4	0x3f964f17	1.1742886
5	0x3fcd2b60	1.6028862
6	0x400f3d00	2.2380981
7	0x40149162	2.3213735

model.fc.15.bias f4 [8]
0	0x3f7cc562	0.9873868
1	0xbdaa3a9a	-0.083119586
2	0x3f8068cb	1.003198
3	0x3ec83e4f	0.39110038
4	0xbe48b15e	-0.1959891
5	0x3f7e4c75	0.99335414
6	0x3f8208b4	1.0158906
7	0x3f71a0e8	0.9438615

model.fc.15.running_mean f4 [8]
0	0x3ec2adff	0.38023373
1	0x3e062e9e	0.1310372
2	0x3e90773b	0.28215966
3	0x3d8ce169	0.06878931
4	0x3c6bac9a	0.014384413
5	0x3ea70cc6	0.32626933
6	0x3e1e86cd	0.1548111
7	0x3e61c340	0.22047138

model.fc.15.running_var f4 [8]
0	0x3ee1546b	0.44009718
1	0x3e9eb18e	0.30994838
2	0x3e95e938	0.29279494
3	0x3eb392f3	0.3507305
4	0x3e87cf34	0.2652527
5	0x3ef97a37	0.48726055
6	0x3f083fcd	0.5322235
7	0x3eefcb1e	0.46834654

model.fc.18.weight f4 [3, 8]
0	0x3fd25ed4	1.6435189
1	0xbf2722fc	-0.65287757
2	0x3fdc2d39	1.7201301
3	0x3e51ab49	0.20475496
4	0xbe4714e9	-0.1944157
5	0x3ff30144	1.8984761
6	0x3fb6222a	1.4229176
7	0x3fcfe358	1.6241255
8	0xbfa1c9c9	-1.2639705
9	0x3fd87833	1.6911682
10	0xbf9d9d9b	-1.2313722
11	0xc087fb03	-4.249391
12	0xc05de876	-3.4673133
13	0xbf7673ec	-0.9627063
14	0xbfb40529	-1.4064075
15	0xbfbde464	-1.4835324
16	0xbf82d4b2	-1.022116
17	0xc041a015	-3.0253956
18	0xbf8d80d7	-1.1054944
19	0x3fa12a84	1.25911
20	0x3fbf7c75	1.4959856
21	0xbf8e6627	-1.1124924
22	0xbf5aa16a	-0.8540255
23	0xbf236646	-0.6382793

model.fc.18.bias f4 [3]
0	0xbf0aac30	-0.5416899
1	0x3edf9de2	0.43675143
2	0xbeb9c24c	-0.3628105
