parkinson telemonitoring/checkpoints/parkinson-epoch=34-val_loss=24.47.ckpt (torch, 821088 bytes, 76 tensors)

model.model.0.weight f4 [256, 20]
-0.12842792 0.18474692 0.15152156 0.2837024 -0.08348281 0.22654292 0.10230537 0.17245059
-0.16828516 0.013566217 -0.0597428 0.270306 0.032254796 0.021935184 -0.06326206 0.1347224
0.09337235 -0.0062336153 0.116163895 0.2043432 -0.025497625 0.22952527 0.13185605 0.1766747
-0.0547487 -0.023516124 0.09904596 0.10160069 0.09787862 0.07379641 -0.013849434 0.02037374
-0.17369506 0.1724443 0.15405627 -0.17718731 0.30834994 0.068926916 -0.16794206 0.16993526
0.07766564 0.11159612 0.118687995 0.13428739 0.09814287 0.12517413 -0.028997634 0.2157
0.10114796 0.07796948 -0.16345975 -0.17010781 -0.09879462 0.1667849 0.20875481 -0.17636015
0.36473647 0.16923688 -0.25556093 -0.0056992676 0.2663095 0.027030269 0.14670233 -0.31693882
-0.09474114 0.16597056 -0.06315378 0.25691333 0.13373592 0.18719235 -0.12366483 -0.06915276
0.058828156 -0.09226333 -0.10737397 0.12053237 -0.14813161 -0.06830137 -0.006449559 0.035200477
0.049674287 -0.27571854 -0.14253157 0.3798171 -0.07059118 0.043574717 0.17784898 0.34027645
-0.08319978 0.33359933 0.06286099 0.24548796 0.0146510005 0.09007432 -0.30566412 0.35612702
0.0030010566 0.022984218 -0.077898555 0.013806366 0.05349671 0.0006568581 -0.23741311 -0.058771383
-0.12200566 -0.19517569 -0.19014674 -0.1550431 0.07078407 -0.09082505 -0.0635607 0.011141264
-0.008388766 0.092267394 0.1125827 -0.17569172 -0.10037576 -0.27720326 -0.024336876 0.27061826
0.03617578 -0.1810835 0.4041835 0.24856056 0.16130857 6.424845e-06 -0.17129822 0.21307202
-0.15444815 0.044959683 -0.0032511754 0.26413038 0.18959884 0.080790944 0.020380775 -0.14075898
-0.22047535 -0.07010661 -0.34083152 0.18042824 -0.21927765 0.02574178 0.057766408 -0.3458854
0.13405854 -0.014594282 0.09171513 -0.05430079 0.10067752 0.007487744 -0.025817575 0.15281674
0.00032381061 0.037488185 0.17139289 0.19366527 -0.06941709 -0.12423078 0.10907291 -0.37100628
-0.049308196 0.044604797 0.28154036 -0.100488394 -0.18147992 -0.036218796 -0.038795996 -0.089386545
-0.12668976 -0.23646677 0.029729022 0.3333391 0.09199947 -0.13015114 -0.087302625 0.21876135
0.24477045 0.07798057 -0.19773294 0.16728924 -0.23377916 0.11538772 -0.0431848 0.04769218
-0.11575634 -0.058278043 -0.09428314 0.056044612 -0.050634723 0.13238798 -0.15595107 0.13413604
0.05707394 -0.00024051953 -0.27891386 0.18792012 -0.319908 -0.30439463 -0.35544032 0.23041435
-0.14923397 0.20743456 0.2045327 -0.13563997 -0.07383061 -0.083353944 -0.0064801928 -0.22338991
0.11796938 -0.3808403 -0.4340886 0.06268549 -0.40411723 0.114671536 -0.0016868173 0.14480905
-0.044276617 -0.09206959 -0.12534682 0.117326744 -0.3857043 -0.22952747 0.05671178 -0.060940083
0.05651311 -0.16998419 0.24508817 -0.061304215 0.127449 -0.21057029 -0.3039343 0.26965216
-0.15406059 -0.02528435 -0.19832042 -0.12723057 -0.016339622 0.065464295 0.17249762 -0.15085027
0.3959874 -0.05918915 -0.06379738 0.3017552 0.07635109 0.010523928 0.006063851 0.058191925
-0.055059228 -0.05306867 -0.012976881 0.06917555 0.11897809 -0.23848398 0.02021948 -0.19165082
00000000: 9c82 03be 4c2e 3d3e 7828 1b3e 7141 913e
00000010: 09f9 aabd defa 673e 7a85 d13d e396 303e
00000020: f252 2cbe d744 5e3c deb4 74bd 8c65 8a3e
00000030: 9b1d 043d 6ab1 b33c 8a8f 81bd abf4 093e
00000040: 013a bf3d 5b43 ccbb 56e7 ed3d 583f 513e
00000050: 65e0 d0bc ac08 6b3e 4605 073e 36ea 343e
00000060: 2c40 60bd e3a4 c0bc 9cd8 ca3d 0614 d03d
00000070: 9674 c83d 9222 973d bde8 62bc d4e6 a63c
00000080: 1edd 31be 3d95 303e edc0 1d3e 9770 35be
00000090: 0be0 9d3e 8e29 8d3d 01f9 2bbe 8203 2e3e
000000a0: 2a0f 9f3d 828c e43d b112 f33d a282 093e
000000b0: 21ff c83d a62d 003e 728c edbc 76e0 5c3e
000000c0: a926 cf3d 76ae 9f3d fe61 27be be30 2ebe
000000d0: d554 cabd a9c9 2a3e d2c3 553e c197 34be
000000e0: bdbe ba3e 6f4c 2d3e e2d8 82be ecc0 babb
000000f0: b859 883e 956e dd3c 2339 163e ce45 a2be
00000100: a507 c2bd 30f4 293e c556 81bd 258a 833e
00000110: 12f2 083e 5aaf 3f3e fd43 fdbd f69f 8dbd
00000120: cbf5 703d 8ff4 bcbd e2e6 dbbd add9 f63d
00000130: d0af 17be 97e1 8bbd d256 d3bb 602e 103d
00000140: 4477 4b3d fb2a 8dbe ccf3 11be 6377 c23e
00000150: 1c92 90bd 677b 323d 0b1e 363e b738 ae3e
00000160: a564 aabd 88cd aa3e 43bd 803d 3261 7b3e
00000170: c00a 703c e378 b83d 0280 9cbe 4856 b63e
00000180: 60ad 443b 6649 bc3c 4789 9fbd 1934 623c
00000190: 5e1f 5b3d 0031 2c3a 6c1c 73be 43ba 70bd
000001a0: 1ade f9bd 23dc 47be d4b5 42be 9ec3 1ebe
000001b0: 3df7 903d 7c02 babd 1d2c 82bd d989 363c
000001c0: 0971 09bc b0f6 bc3d c291 e63d 88e8 33be
000001d0: ce91 cdbd 96ed 8dbe 215e c7bc 7a8e 8a3e
000001e0: 0e2d 143d f46d 39be 24f1 ce3e a986 7e3e
000001f0: 132e 253e 0095 d736 cd68 2fbe 8d2f 5a3e
00000200: a827 1ebe a527 383d ac11 55bb 193c 873e
00000210: 3326 423e b975 a53d 95f5 a63c 1f23 10be
00000220: 4ac4 61be 0e94 8fbd 7881 aebe 2ec2 383e
00000230: 528a 60be 6de0 d23c 789c 6c3d e417 b1be
00000240: a446 093e db1c 6fbc 24d5 bb3d 816a 5ebd
00000250: 0430 ce3d c05b f53b 617f d3bc fe7b 1c3e
00000260: 20c5 a939 368d 193d 9e81 2f3e 3050 463e
00000270: 8c2a 8ebd b56c febd 9e61 df3d 89f4 bdbe
00000280: 64f7 49bd 85b3 363d 0f26 903e dccc cdbd
00000290: dfd5 39be 295a 14bd 8de8 1ebd 4b10 b7bd
000002a0: f6ba 01be 5824 72be 478a f33c 6cab aa3e
000002b0: 386a bc3d 5746 05be b8cb b2bd fa02 603e
000002c0: 1ba5 7a3e 47b4 9f3d 817a 4abe df4d 2b3e
000002d0: ce63 6fbe 6650 ec3d 8be2 30bd e058 433d
000002e0: a911 edbd f5b4 6ebd 8517 c1bd 098f 653d
000002f0: 5b66 4fbd b790 073e a3b1 1fbe f55a 093e
00000300: 5dc6 693d f833 7cb9 cccd 8ebe 226e 403e
00000310: fbca a3be 9dd9 9bbe 46fc b5be bdf1 6b3e
00000320: cad0 18be ba69 543e 0571 513e 34e5 0abe
00000330: 8134 97bd 79b5 aabd cc57 d4bb 53c0 64be
00000340: ee99 f13d 80fd c2be dc40 debe 4061 803d
00000350: 74e8 cebe e9d8 ea3d 3218 ddba d348 143e
00000360: 665b 35bd fb8e bcbd eb5a 00be 0149 f03d
00000370: 097b c5be 4009 6bbe 9d4a 683d 4f9c 79bd
00000380: 4a7a 673d 5610 2ebe 65f8 7a3e 211a 7bbd
00000390: fe81 023e bd9f 57be 479d 9bbe d90f 8a3e
000003a0: 0fc2 1dbe 2021 cfbc 8214 4bbe bb48 02be
000003b0: acda 85bc 2512 863d 37a3 303e 7e78 1abe
000003c0: dcbe ca3e 5270 72bd 33a8 82bd a87f 9a3e
000003d0: f65d 9c3d 8e6c 2c3c 45b3 c63b a85a 6e3d
000003e0: c985 61bd 895e 59bd fc9c 54bc e9ab 8d3d
000003f0: c9aa f33d 2535 74be 53a3 a53c 1d40 44be

model.model.0.bias f4 [256]
-0.030391783 -0.15895268 -0.18570954 -0.27788013 -0.07363291 0.16301893 -0.47231293 -0.54900783
-0.04346887 -0.43709674 -0.09335587 -0.6989881 -0.54733723 -0.635491 -0.7564608 -0.20295101
0.00059558265 -0.2998835 -0.3633621 -0.030740194 -0.3017625 -0.1693774 -0.39172906 -0.5695898
-0.4319752 -0.3932233 -0.20549579 -0.004910348 -0.23347223 -0.14810528 -0.35959515 0.11314972
-0.104834214 0.009029577 -0.25506648 -0.40543586 -0.41142842 0.14363904 -0.050258625 -0.30137557
-0.31181163 0.008136983 -0.13700823 -0.3642209 -0.50742453 -0.41042072 -0.45664176 -0.4065677
-0.37296262 -0.49402228 -0.48756555 -0.44026265 0.010836203 -0.32837287 -0.28597018 -0.15376775
-0.046757564 -0.22325706 -0.22360153 -0.8256975 -0.4153844 -0.3056489 -0.47690576 -0.06716762
-0.31739035 -0.44105127 -0.35724157 0.23806818 -0.5903324 0.027206177 -0.17364603 -0.27027568
-0.1581026 -0.45834926 0.10397887 -0.24265559 -0.69123596 -0.46712363 -0.057183735 0.075633444
-0.07278757 -0.23924659 -0.042661857 -0.2186341 -0.17703444 -0.18487003 -0.06548247 -0.6173422
0.07515361 -0.3639764 -0.45822737 -0.39197788 -0.37714127 -0.44500715 0.25793475 0.16209212
-0.2582286 0.27705556 -0.4820795 -0.28704074 -0.4279642 -0.17472419 -0.3396565 -0.26170292
-0.29320973 -0.15265952 -0.3431027 -0.49999538 0.28470558 -0.355535 -0.35312396 -0.5501305
-0.39038774 -0.36299574 -0.41390425 -0.26048678 -0.46003222 -0.22302385 -0.37938213 -0.32949755
-0.29492226 0.29944775 -0.12555937 -0.16837 -0.4057312 -0.111589655 -0.20413588 0.040710963
-0.26249552 0.35899043 -0.10977098 0.041176986 -0.1902154 -0.16838647 -0.61079824 -0.21085738
-0.3151933 -0.4194528 0.021039896 -0.13483268 -0.3037885 -0.44909117 -0.027324148 -0.5352074
-0.02460904 -0.31047857 0.21571587 0.10510186 -0.052821115 -0.22292393 -0.4272492 -0.3506974
-0.0721599 -0.09057136 -0.124391705 -0.3880961 0.11804873 0.18316683 -0.03523033 -0.14766811
-0.2461345 -0.26112032 0.07559325 -0.37269664 -0.32883602 -0.3739464 -0.45253453 0.07920772
0.081343636 -0.1677393 -0.45579287 -0.41521612 0.11042011 -0.3268747 -0.68045205 -0.23574112
0.0085698385 0.1249256 0.0248302 0.12170235 -0.1722928 -0.5884794 -0.34639525 -0.4830824
-0.23319657 -0.187974 -0.38513654 -0.03603805 -0.22643526 -0.4992902 -0.25712854 -0.31095633
-0.046917576 -0.29532906 -0.56021565 -0.3249879 -0.10580746 -0.16474575 -0.23949511 -0.41085398
-0.32149452 -0.36397678 -0.3280126 -0.13838464 -0.5600858 -0.12421443 -0.2414337 -0.41200876
-0.48531324 -0.20379524 0.0028722016 -0.23042977 -0.33060977 -0.092271194 -0.29309854 -0.47137427
-0.038404115 -0.23534682 -0.15381786 -0.5701461 -0.31205177 -0.11431083 0.31227794 -0.5566867
-0.26971325 -0.18533382 -0.14275478 -0.46765196 0.009360532 -0.584948 -0.078479074 -0.008600852
-0.2388261 -0.4531229 -0.08849125 -0.47002348 -0.59565026 -0.2237708 0.035482436 -0.32401755
-0.14974129 0.016407987 -0.21179487 -0.087575585 -0.066336416 0.07160219 -0.14522296 -0.31787148
-0.034725383 -0.41314527 -0.35158175 -0.014824097 -0.2688499 0.007048593 -0.13503751 -0.18816204
00000000: 30f8 f8bc 7ec4 22be a42a 3ebe 4e46 8ebe
00000010: dacc 96bd 6fee 263e 00d3 f1be c78b 0cbf
00000020: 6a0c 32bd 25cb dfbe 5d31 bfbd e2f0 32bf
00000030: 4b1e 0cbf 8aaf 22bf 6aa7 41bf 64d2 4fbe
00000040: e020 1c3a 558a 99be 990a babe dcd2 fbbc
00000050: 9d80 9abe 4571 2dbe b690 c8be a3d0 11bf
00000060: da2b ddbe 9054 c9be 7d6d 52be fce6 a0bb
00000070: 5813 6fbe e9a8 17be db1c b8be 0abb e73d
00000080: 52b3 d6bd caf0 133c 1398 82be 4a95 cfbe
00000090: bfa6 d2be 1d16 133e fddb 4dbd e64d 9abe
000000a0: c6a5 9fbe fb50 053c e34b 0cbe 297b babe
000000b0: 93e6 01bf aa22 d2be f3cc e9be a429 d0be
000000c0: f5f4 bebe 7df0 fcbe 31a2 f9be 1b6a e1be
000000d0: 548a 313c 7d20 a8be af6a 92be 4b75 1dbe
000000e0: dc84 3fbd 809d 64be cdf7 64be e960 53bf
000000f0: 44ad d4be 037e 9cbe fe2c f4be 2d8f 89bd
00000100: fd80 a2be 79d1 e1be 5ee8 b6be 25c8 733e
00000110: 0620 17bf 7ddf de3c 44d0 31be 9361 8abe
00000120: a6e5 21be c1ac eabe e0f2 d43d b57a 78be
00000130: d7f4 30bf d42a efbe 7e39 6abd b5e5 9a3d
00000140: a611 95bd 0ffd 74be 33be 2ebd 9ee1 5fbe
00000150: 8448 35be 924e 3dbe ac1b 86bd 230a 1ebf
00000160: 23ea 993d 1d5b babe c79c eabe 53b1 c8be
00000170: a918 c1be fad7 e3be 0610 843e 7afb 253e
00000180: 8a36 84be 3ada 8d3e 20d3 f6be 01f7 92be
00000190: 201e dbbe e6ea 32be 75e7 adbe edfd 85be
000001a0: 961f 96be c752 1cbe 28ab afbe 65ff ffbe
000001b0: eec4 913e af08 b6be aacc b4be 5ad5 0cbf
000001c0: e7e0 c7be 94da b9be 42eb d3be 865e 85be
000001d0: 5889 ebbe 5d60 64be 603e c2be e7b3 a8be
000001e0: 0d00 97be 3751 993e a392 00be 2f69 2cbe
000001f0: 00bc cfbe 1e89 e4bd ff08 51be 8ac0 263d
00000200: d065 86be 98cd b73e 9ccf e0bd 33a9 283d
00000210: d3c7 42be 816d 2cbe 465d 1cbf ffea 57be
00000220: 0461 a1be 84c2 d6be dc5b ac3c 9411 0abe
00000230: 2b8a 9bbe 47ef e5be e4d6 dfbc 5a03 09bf
00000240: e698 c9bc 0cf7 9ebe 9fe4 5c3e a53f d73d
00000250: f45a 58bd 2c46 64be 68c0 dabe 9c8e b3be
00000260: 92c8 93bd 7a7d b9bd 14c1 febd 88b4 c6be
00000270: 88c3 f13d 1690 3b3e ae4d 10bd 4f36 17be
00000280: af0a 7cbe 90b1 85be a2d0 9a3d 18d2 bebe
00000290: 325d a8be e775 bfbe 9bb2 e7be a837 a23d
000002a0: 7e97 a63d dac3 2bbe af5d e9be 3597 d4be
000002b0: f023 e23d 1f5c a7be 1b32 2ebf 1f66 71be
000002c0: 8268 0c3c fed8 ff3d b468 cb3c 153f f93d
000002d0: 866d 30be 96a6 16bf b85a b1be 9456 f7be
000002e0: 15cb 6ebe 427c 40be 9e30 c5be a29c 13bd
000002f0: a5de 67be f7a2 ffbe 5aa6 83be ab35 9fbe
00000300: a52c 40bd 5f35 97be 4b6a 0fbf d064 a6be
00000310: 95b1 d8bd 1cb3 28be 353e 75be 745b d2be
00000320: ee9a a4be 2a5b babe 44f1 a7be b4b4 0dbe
00000330: c861 0fbf 2364 febd 653a 77be d0f2 d2be
00000340: fa7a f8be b3af 50be 8c3b 3c3b c8f5 6bbe
00000350: af45 a9be aef8 bcbd 0311 96be f857 f1be
00000360: a24d 1dbd c2fe 70be 6e82 1dbe 18f5 11bf
00000370: 40c5 9fbe cc1b eabd e5e2 9f3e 0583 0ebf
00000380: db17 8abe 26c8 3dbe 4f2e 12be 1470 efbe
00000390: eb5c 193c 27bf 15bf a3b9 a0bd 97ea 0cbc
000003a0: d48e 74be baff e7be e73a b5bd eba6 f0be
000003b0: 897c 18bf 2c24 65be 0856 113d a1e5 a5be
000003c0: c855 19be 0b6a 863c c1e0 58be d45a b3bd
000003d0: 63db 87bd 2ba4 923d 54b5 14be 0dc0 a2be
000003e0: 343c 0ebd c787 d3be 8602 b4be c5e0 72bc
000003f0: b2a6 89be e2f7 e63b 4647 0abe 8dad 40be

model.model.2.weight f4 [256]
0.7860244 0.8689052 0.9089177 0.7800431 0.8600175 0.6891299 0.87524486 1.0111102
0.99004424 0.9911686 0.7822493 0.95813066 1.0033903 0.97889555 1.2203387 1.0631113
0.8100433 0.9177984 0.8133031 0.98773015 0.9398655 0.84242153 0.85089165 0.8751917
0.9289202 0.9760982 0.9658428 0.98490995 0.9390324 0.78357416 0.8291401 0.8591369
0.9256091 1.0240959 0.8748104 1.0836283 1.1099899 1.0096903 0.963728 1.0123694
0.890099 0.977729 0.9459563 0.89617115 0.88664013 0.9531792 0.97625417 1.0620651
0.88746387 0.90887606 0.89763397 0.8513188 1.039771 0.9458577 0.97518075 1.0122008
0.89780134 0.89674693 0.98909795 1.2050805 0.93739396 0.9016701 0.87742096 0.99093664
0.9910784 0.9300844 0.95487237 0.93319285 1.1178632 0.8899786 0.80165625 0.8899861
1.1051117 0.90764356 0.87041986 0.94790024 1.0695571 0.9679136 0.8895251 0.74221975
1.0545032 1.1079974 0.9530402 1.033741 0.9522852 1.0039093 0.7660938 1.1803181
0.8123387 1.0627867 1.0274953 0.87328947 1.0025593 1.0655801 0.8290885 1.015513
0.94233257 0.9498393 0.9439034 1.0635791 0.9097521 0.91172343 0.9208842 1.0185614
1.0254486 0.74703056 0.9209654 0.9464332 0.80766505 0.9511345 0.98753726 1.0682424
0.9949978 0.92151254 1.0270264 0.9162982 0.9373462 0.776075 1.025678 0.8946122
1.0038047 0.8343294 0.9902293 0.7589234 0.97576493 0.9607125 0.9177188 1.1631203
0.90973055 0.96636814 0.79718286 0.7900361 0.7850626 0.8939612 1.0943702 1.110282
0.8526609 0.92938536 1.084286 1.128288 0.9507719 1.0109767 0.7992288 1.1685205
0.92778164 0.85456586 0.8635179 0.9540257 0.9907964 1.0266232 0.96702194 0.91844785
1.051386 0.9713522 1.1154457 0.9636145 0.91523886 0.87197185 0.94326466 0.98290396
0.95883757 0.8558164 0.7513642 0.88805044 1.0645133 0.9697794 0.9977973 1.0300481
0.91778857 0.8164935 1.0820645 0.96696234 1.0042958 0.921141 1.0430071 1.0720258
0.8398107 0.8310497 0.78910434 1.0017904 1.0493542 0.88498414 0.7679065 1.138711
0.844681 1.0628434 0.86129844 0.88731176 0.9783386 0.89177835 0.8086309 0.7959994
1.0160333 0.93190616 1.107978 0.9393238 0.84978443 0.9261659 0.8987797 0.8949506
1.0233285 0.9473481 0.9759632 0.87740916 1.0571461 1.0559381 0.8044092 0.9932623
1.0821164 0.8637172 0.729548 0.93045187 0.93477815 0.98000556 0.855922 0.94610316
0.9514172 0.92278767 0.7327897 1.1203204 0.9524329 0.9550283 0.9425717 1.116855
1.1744841 0.74352866 0.9849314 0.9547088 1.0491722 1.0912268 0.89284056 0.8379544
0.9412826 0.9267219 0.9873522 0.977839 0.9763501 0.93741435 0.9370243 0.9664393
0.7168079 0.86769485 0.9458279 0.99780107 0.8800075 0.8829067 1.0244788 0.88903016
0.9392123 0.9780312 0.7757113 1.0427696 1.0250642 0.8326851 0.92118615 0.93501157
00000000: e538 493f 9270 5e3f d5ae 683f e8b0 473f
00000010: 1b2a 5c3f d16a 303f 0c10 603f 0f6c 813f
00000020: 8a73 7d3f 3abd 7d3f 7d41 483f 0d48 753f
00000030: 186f 803f e698 7a3f 0f34 9c3f 0814 883f
00000040: ff5e 4f3f d6f4 6a3f a234 503f e2db 7c3f
00000050: 079b 703f f0a8 573f 09d4 593f 900c 603f
00000060: b7cd 6d3f 92e1 793f 7941 773f 0f23 7c3f
00000070: 6d64 703f 5198 483f 8742 543f 65f0 5b3f
00000080: b8f4 6c3f 9315 833f 93f3 5f3f 55b4 8a3f
00000090: 2614 8e3f 883d 813f e1b6 763f 5295 813f
000000a0: 87dd 633f 734c 7a3f 312a 723f 796b 653f
000000b0: d9fa 623f 8d03 743f cbeb 793f c0f1 873f
000000c0: d530 633f 1aac 683f 57cb 653f 07f0 593f
000000d0: 3717 853f bb23 723f 72a5 793f cc8f 813f
000000e0: 4fd6 653f 3591 653f 8635 7d3f 1440 9a3f
000000f0: 0df9 6f3f dad3 663f a99e 603f 06ae 7d3f
00000100: 50b7 7d3f 031a 6e3f 8472 743f bae5 6e3f
00000110: 2416 8f3f a3d5 633f 5839 4d3f 21d6 633f
00000120: 4d74 8d3f 545b 683f d6d3 5e3f 97a9 723f
00000130: 3fe7 883f 30c9 773f ebb7 633f 1d02 3e3f
00000140: f6f9 863f dcd2 8d3f 71fa 733f a051 843f
00000150: f6c8 733f 1a80 803f b91e 443f aa14 973f
00000160: 6ef5 4f3f 6509 883f f784 833f e68f 5f3f
00000170: dd53 803f ee64 883f 253f 543f 54fc 813f
00000180: b53c 713f ab28 733f a7a3 713f 5c23 883f
00000190: 83e5 683f b566 693f 11bf 6b3f 3860 823f
000001a0: e641 833f 653d 3f3f 63c4 6b3f 7249 723f
000001b0: 23c3 4e3f 8d7d 733f 3ecf 7c3f 2bbc 883f
000001c0: 2db8 7e3f 3fe8 6b3f 9a75 833f 8592 6a3f
000001d0: ecf5 6f3f daac 463f 6b49 833f 4e05 653f
000001e0: ac7c 803f 9d96 553f ab7f 7d3f ce48 423f
000001f0: bbcb 793f 41f1 753f 9fef 6a3f 20e1 943f
00000200: 1ae4 683f e763 773f 2d14 4c3f ce3f 4a3f
00000210: ddf9 483f a4da 643f 5314 8c3f b81d 8e3f
00000220: fc47 5a3f 33ec 6d3f e2c9 8a3f be6b 903f
00000230: ca65 733f af67 813f 429a 4c3f 1492 953f
00000240: 1983 6d3f d4c4 5a3f 820f 5d3f 073b 743f
00000250: d5a4 7d3f 6468 833f c08e 773f 661f 6b3f
00000260: d193 863f 8aaa 783f edc6 8e3f 71af 763f
00000270: 184d 6a3f 8c39 5f3f cb79 713f 989f 7b3f
00000280: 6176 753f c916 5b3f 6759 403f 4657 633f
00000290: f941 883f 7643 783f a56f 7f3f 9ed8 833f
000002a0: 31f4 6a3f b805 513f 1781 8a3f d88a 773f
000002b0: c48c 803f e6cf 6b3f 4281 853f 2438 893f
000002c0: d6fd 563f acbf 543f be02 4a3f ab3a 803f
000002d0: 3d51 863f 528e 623f 8595 443f 48c1 913f
000002e0: 043d 583f 410b 883f 0e7e 5c3f dd26 633f
000002f0: 6674 7a3f 964b 643f 6f02 4f3f 9ec6 4b3f
00000300: 610d 823f 6791 6e3f 39d2 8d3f 8677 703f
00000310: 798b 593f 3519 6d3f 6d16 663f 7c1b 653f
00000320: 6efc 823f 6885 723f b9d8 793f e39d 603f
00000330: 9050 873f fb28 873f c3ed 4d3f 7046 7e3f
00000340: ca82 8a3f 921c 5d3f a8c3 3a3f 1832 6e3f
00000350: 9f4d 6f3f a5e1 7a3f b41d 5b3f d133 723f
00000360: 1490 733f d03b 6c3f 1b98 3b3f a966 8f3f
00000370: a4d2 733f bc7c 743f 614c 713f 1bf5 8e3f
00000380: 7f55 963f e557 3e3f 7724 7c3f cc67 743f
00000390: 464b 863f 52ad 8b3f 3391 643f 2e84 563f
000003a0: e5f7 703f a53d 6d3f 1dc3 7c3f a853 7a3f
000003b0: 15f2 793f 63fa 6f3f d3e0 6f3f 9168 773f
000003c0: b980 373f 4021 5e3f c721 723f e46f 7f3f
000003d0: 2c48 613f 2c06 623f 1f22 833f 7b97 633f
000003e0: 3870 703f 4160 7a3f 0495 463f 7979 853f
000003f0: 4e35 833f da2a 553f dbd2 6b3f eb5c 6f3f

model.model.2.bias f4 [256]
-0.09094381 -0.033966918 0.06487864 -0.018501984 -0.056977235 0.14340001 0.21880034 -0.22214401
0.031293243 0.06588953 -0.17683543 -0.23119403 -0.10611362 -0.007099945 -0.15182075 0.023366936
0.27976826 0.42971724 -0.0068012336 -0.08545402 -0.03846183 0.11982164 -0.1961932 0.15871641
0.1799567 0.04330628 -0.10262728 0.12927926 0.02973861 -0.0053111413 -0.11038246 -0.2856198
-0.029244997 -0.09432052 -0.17322674 0.050120942 -0.020223629 0.016460745 -0.058957092 0.08543682
-0.15361008 -0.16517167 0.0816674 0.047065817 0.028297838 -0.32217005 -0.17108227 -0.053635273
-0.16852242 0.09028446 -0.0578113 -0.2973168 0.11947403 0.2376924 0.023366531 -0.21977954
0.071211606 -0.2569814 0.06848147 0.18630372 -0.23171216 -0.11753705 -0.13935529 -0.0007224336
0.112771414 0.09074235 -0.05440192 0.13514538 0.027410187 -0.028988317 -0.24404448 0.041003134
-0.058713887 -0.044764392 0.29943055 -0.12018554 0.005028683 -0.12773894 0.19033544 0.16808882
0.1779599 0.13306116 0.107362606 -0.09339608 -0.032015473 -0.0396979 0.0653518 0.03745925
-0.21758498 0.009071059 -0.105230145 0.035474226 -0.0085621 0.03139369 0.22861053 0.04510654
-0.011412238 0.11091521 0.11749277 -0.12049855 -0.050175596 -0.10313804 0.12808259 -0.16222733
0.18652824 0.26172537 0.11587393 -0.027246704 0.3687195 -0.008903179 -0.15538254 -0.087433
-0.2768202 0.05794511 0.02705661 -0.23615186 -0.03187326 -0.048606403 -0.08583394 -0.04823329
0.22693619 -0.014481861 -0.0056026387 -0.11443535 0.05352736 0.10307416 -0.0865481 0.14783102
-0.17062211 0.13230412 0.11985323 -0.2296818 0.0073998165 -0.050782125 -0.15180446 0.10989923
-0.10635341 -0.03264231 -0.014974036 -0.0853466 -0.063525446 -0.0571572 0.22007397 0.019679705
0.13380219 -0.06438279 0.12294953 0.061816726 0.017083038 0.089642674 0.012764992 -0.027427295
-0.07022856 0.052273624 0.18176968 0.14495328 0.024940155 0.10357835 -0.038592357 -0.003516759
0.24088892 -0.07695917 -0.07419121 -0.028547863 0.019653525 -0.012484844 -0.075525396 -0.120449126
0.23945521 0.028340302 0.034536622 0.18729228 0.12576672 0.048500307 -0.29938325 0.13664088
-0.13052413 0.14788777 0.0177564 0.010039238 -0.06983134 -0.2205205 0.014633217 0.106062576
0.08166794 -0.0485067 0.14748563 -0.20446658 -0.09508067 -0.099221066 0.0314681 -0.26012343
-0.2527747 0.021038435 -0.26646137 -0.08565354 0.016584033 -0.15520477 -0.037136186 -0.07712829
-0.19801119 -0.14086753 -0.05914866 0.12369479 -0.27066407 0.12477648 0.13228326 -0.31436127
-0.10914136 0.25183743 -0.21488546 0.27318546 0.00087824557 0.20100597 0.08508848 0.06937505
0.048746444 -0.042831376 -0.17620298 -0.08791024 0.22363035 -0.070142016 0.07505211 0.15178598
0.11036891 0.28231162 -0.034676477 -0.1639103 0.006574949 -0.10048422 -0.034814496 0.031172311
0.1057867 -0.049741596 0.06676491 0.12007706 -0.23301516 -0.21391422 0.120699935 0.08528653
-0.103552505 0.27056646 -0.05191488 0.044159416 -0.10051871 0.03313987 0.15615058 0.06944414
-0.021730551 -0.24571867 -0.07719848 0.04963429 -0.03134272 -0.018338602 0.12749913 0.027448045
00000000: c040 babd e520 0bbd 18df 843d 7991 97bc
00000010: f660 69bd 74d7 123e 320d 603e b879 63be
00000020: 582d 003d 17f1 863d 5914 35be 21be 6cbe
00000030: 1952 d9bd a8a6 e8bb e676 1bbe 046c bf3c
00000040: c93d 8f3e e603 dc3e e2dc debb 8402 afbd
00000050: 278a 1dbd 0c65 f53d dfe6 48be 8e86 223e
00000060: 9246 383e ed61 313d 402e d2bd c861 043e
00000070: 639e f33c 1509 aebb 3310 e2bd c23c 92be
00000080: 3493 efbc 1e2b c1bd 5a62 31be 9e4b 4d3d
00000090: 06ac a5bc afd8 863c fe7c 71bd 80f9 ae3d
000000a0: f64b 1dbe c322 29be 3d41 a73d 16c8 403d
000000b0: ded0 e73c 79f3 a4be 3130 2fbe a9b0 5bbd
000000c0: 2491 2cbe 0fe7 b83d 8bcb 6cbd e839 98be
000000d0: cdae f43d a365 733e 2b6b bf3c e30d 61be
000000e0: 64d7 913d 1193 83be 0340 8c3d 67c6 3e3e
000000f0: f445 6dbe 44b7 f0bd 27b3 0ebe b361 3dba
00000100: b3f4 e63d 20d7 b93d 8cd4 5ebd 8d63 0a3e
00000110: 548b e03c e878 edbc cce6 79be e7f2 273d
00000120: f97d 70bd de5a 37bd f64e 993e d623 f6bd
00000130: a7c7 a43b ffcd 02be 4be7 423e 7a1f 2c3e
00000140: 1f3b 363e 2f41 083e ede0 db3d 7246 bfbd
00000150: a822 03bd 449a 22bd 2ad7 853d df6e 193d
00000160: 99ce 5ebe c79e 143c e782 d7bd 6c4d 113d
00000170: 0d48 0cbc ab96 003d e118 6a3e a3c1 383d
00000180: 65fa 3abc 8327 e33d 0da0 f03d f2c7 f6bd
00000190: ed84 4dbd 093a d3bd 1528 033e ec1e 26be
000001a0: 4201 3f3e de00 863e 504f ed3d 7b34 dfbc
000001b0: cdc8 bc3e a4de 11bc 9a1c 1fbe 1310 b3bd
000001c0: 61bb 8dbe da57 6d3d d3a5 dd3c cbd1 71be
000001d0: 898d 02bd 8217 47bd b4c9 afbd 4590 45bd
000001e0: f661 683e 5445 6dbc 5796 b7bb 155d eabd
000001f0: 813f 5b3d 8c18 d33d 2140 b1bd 0461 173e
00000200: 90b7 2ebe bb7a 073e 9c75 f53d b531 6bbe
00000210: 297a f23b eb00 50bd a172 1bbe d912 e13d
00000220: d1cf d9bd f1b3 05bd a955 75bc 33ca aebd
00000230: a119 82bd ab1d 6abd 125b 613e 5537 a13c
00000240: 7103 093e 20db 83bd f7cc fb3d 8933 7d3d
00000250: baf1 8b3c 9496 b73d 4224 513c 35af e0bc
00000260: fed3 8fbd de1c 563d d521 3a3e a26e 143e
00000270: 4c4f cc3c e320 d43d 0513 1ebd 6d79 66bb
00000280: 96ab 763e c59c 9dbd 90f1 97bd 35dd e9bc
00000290: 6e00 a13c 3b8d 4cbc 0fad 9abd 08ae f6bd
000002a0: bf33 753e ec29 e83c 4676 0d3d 8cc9 3f3e
000002b0: fec8 003e 42a8 463d c348 99be 96eb 0b3e
000002c0: 1ea8 05be e46f 173e df75 913c 9e7b 243c
000002d0: bc03 8fbd 20d0 61be 29c0 6f3c 5637 d93d
000002e0: 8541 a73d f6ae 46bd 7906 173e b05f 51be
000002f0: a8b9 c2bd 6a34 cbbd b2e4 003d e62e 85be
00000300: af6b 81be cc58 ac3c a06d 88be 206b afbd
00000310: 3ddb 873c 00ee 1ebe 1d1c 18bd 70f5 9dbd
00000320: 72c3 4abe 943f 10be de45 72bd b253 fd3d
00000330: 7b94 8abe d08a ff3d 4375 073e f6f3 a0be
00000340: 8185 dfbd d6f0 803e ef0a 5cbe f7de 8b3e
00000350: 103a 663a 82d4 4d3e de42 ae3d 8214 8e3d
00000360: 5aaa 473d f46f 2fbd 8e6e 34be 490a b4bd
00000370: 5bff 643e 9ea6 8fbd ecb4 993d c96d 1b3e
00000380: 1809 e23d 268b 903e ec08 0ebd 1ad8 27be
00000390: ab72 d73b acca cdbd a599 0ebd 135d ff3c
000003a0: b3a6 d83d d8bd 4bbd 0bbc 883d f6ea f53d
000003b0: 879b 6ebe 540c 5bbe 8731 f73d b4aa ae3d
000003c0: 5613 d4bd b087 8a3e b2a4 54bd 81e0 343d
000003d0: c1dc cdbd acbd 073d f0e5 1f3e bb38 8e3d
000003e0: 4504 b2bc ad9d 7bbe 3d1a 9ebd 534d 4b3d
000003f0: 3961 00bd d63a 96bc 228f 023e b9da e03c

model.model.2.running_mean f4 [256]
0.33918002 0.002273504 -0.03094555 -0.05111984 0.55045503 0.5515426 -0.050192587 -0.2196101
-0.0050415816 -0.15210284 0.32415545 -0.18369009 -0.17933258 -0.21061087 -0.2594563 -0.040183183
0.045967825 -0.13598335 -0.10228524 0.105205916 -0.12450276 -0.07816958 0.038493067 -0.030414058
-0.0580367 -0.14096355 -0.108213484 0.040483676 0.040242553 -0.019598566 0.01535777 0.16531116
-0.014427794 0.0245796 0.007299955 -0.16649523 -0.10892256 0.19111465 0.09111012 -0.14988829
-0.06568002 -0.021416638 -0.0760056 -0.18345775 -0.16748413 -0.14057755 -0.1420619 -0.1721375
-0.09303905 -0.12436789 -0.14925589 -0.054325122 0.16452461 -0.15114932 -0.07140835 0.082801014
0.023024892 -0.011076887 -0.10725662 -0.26133093 -0.07881105 -0.15900415 -0.13747402 0.0097348625
-0.050445862 -0.20442738 -0.12179333 0.18578924 -0.1875948 0.14483109 -0.0011147577 -0.08603719
-0.07533334 -0.20246407 0.10090108 -0.07149343 -0.21690968 -0.13217083 0.118548155 0.11093349
0.11417428 0.012477929 -0.0054941364 -0.024136316 -0.015833698 -0.031132068 0.2552183 -0.22615647
0.07479245 -0.07970458 -0.20549406 0.040222958 -0.18954125 -0.15618585 0.3248684 0.13758466
-0.105700165 0.14791265 -0.15995345 -0.16279674 -0.093988515 -0.015175128 -0.07417706 -0.066881366
-0.13688563 0.2312545 -0.0151446685 -0.07050923 0.273627 -0.06100049 -0.09135508 -0.08030261
-0.15727478 -0.0837469 -0.082053736 0.22950971 -0.13840142 0.055482484 -0.096333966 -0.09663125
-0.1297749 0.35432625 -0.0775842 0.040264945 -0.10487301 -0.03681144 -0.014241472 0.10886586
0.015286238 0.26233375 0.045040622 0.04093569 -0.021676883 -0.05401916 -0.14077674 -0.12788223
-0.097123526 -0.11674058 0.116000086 -0.06978571 -0.110703096 -0.17156684 -0.008479802 -0.22252461
0.011550024 -0.1629854 0.22726303 0.014187575 0.017648937 -0.02187109 -0.16313562 -0.12069804
-0.06026942 -0.099841386 0.0021229163 -0.05951804 0.21582446 0.21931168 -0.039447777 -0.096370086
-0.08923031 0.12849408 0.14508249 -0.16710679 -0.108984135 -0.10277183 -0.11289944 0.035601657
0.10442864 0.050429605 -0.099256575 -0.13762584 0.23932739 -0.09604125 -0.16653612 -0.13207065
0.20325379 0.21997748 0.07114571 0.20644245 0.017132752 -0.19929309 0.1221319 -0.22298284
-0.07430356 -0.081273295 -0.12582912 0.106500685 -0.03832767 -0.067693815 0.09934348 -0.043809526
0.10248137 -0.06574548 -0.176273 -0.14607005 -0.033941023 0.059134796 0.03314636 -0.053797055
-0.019066358 -0.18998514 -0.1221359 0.08830617 -0.22130762 -0.011358681 0.014427159 -0.146924
-0.08999497 -0.059915155 -0.035547074 -0.13833733 0.13686328 0.11427531 -0.006119113 -0.13234486
-0.0023052678 -0.009530261 -0.028097581 -0.1991544 -0.12789996 0.1204566 0.26601666 -0.21467808
-0.11522711 -0.0022508714 -0.09776771 -0.20555733 0.14362194 -0.16390893 -0.03198763 0.08005741
0.025114179 -0.13961324 -0.021331752 -0.20245218 -0.08639833 0.0028222457 0.020489283 -0.11077975
0.029643679 -0.013323402 0.019337002 0.09417956 0.029000225 0.045572195 -0.098577484 -0.10198474
0.09296776 -0.124025896 -0.16540483 -0.011328798 -0.030673306 0.029307116 -0.027287554 -0.062545754
00000000: 01a9 ad3e 11ff 143b 8681 fdbc 0a63 51bd
00000010: 9fea 0c3f e531 0d3f be96 4dbd 78e1 60be
00000020: da33 a5bb d9c0 1bbe b4f7 a53e 4119 3cbe
00000030: f6a2 37be 60aa 57be 75d7 84be 1f97 24bd
00000040: c248 3c3d 383f 0bbe ed7a d1bd 3376 d73d
00000050: 4efb febd 5f17 a0bd e8aa 1d3d e726 f9bc
00000060: e4b7 6dbd c058 10be 089f ddbd 36d2 253d
00000070: 60d5 243d 2c8d a0bc 289f 7b3c 5447 293e
00000080: 8e62 6cbc 285b c93c 7634 ef3b ba7d 2abe
00000090: cb12 dfbd 8fb3 433e f197 ba3d 517c 19be
000000a0: 3f83 86bd f271 afbc d3a8 9bbd 59dc 3bbe
000000b0: f680 2bbe 90f3 0fbe ad78 11be d044 30be
000000c0: 428b bebd 98b4 febd 89d6 18be 0584 5ebd
000000d0: 2479 283e e3c6 1abe 8a3e 92bd 9493 a93d
000000e0: b39e bc3c d57b 35bc 5ca9 dbbd 2bcd 85be
000000f0: b067 a1bd fcd1 22be fdc5 0cbe f97e 1f3c
00000100: 52a0 4ebd 6955 51be c86e f9bd 893f 3e3e
00000110: da18 40be 9a4e 143e 101d 92ba 4434 b0bd
00000120: 5e48 9abd be52 4fbe 3aa5 ce3d 266b 92bd
00000130: 921d 5ebe ca57 07be 60c9 f23d 1931 e33d
00000140: 34d4 e93d 3a70 4c3c 2808 b4bb 86b9 c5bc
00000150: acb5 81bc ae08 ffbc f9ab 823e 9095 67be
00000160: c92c 993d 283c a3bd 096d 52be d4c0 243d
00000170: 1a17 42be 2fef 1fbe 2755 a63e fee2 0c3e
00000180: 5479 d8bd 6a76 173e d6ca 23be 30b4 26be
00000190: 0d7d c0bd 1aa1 78bc 24ea 97bd 19f9 88bd
000001a0: bf2b 0cbe fbcd 6c3e 5821 78bc 2567 90bd
000001b0: d718 8c3e a6db 79bd 5f18 bbbd b275 a4bd
000001c0: a40c 21be 7f83 abbd ca0b a8bd 9804 6b3e
000001d0: 1ab9 0dbe 9a41 633d be4a c5bd 9be6 c5bd
000001e0: b6e3 04be 406a b53e 77e4 9ebd dbec 243d
000001f0: a9c7 d6bd 98c7 16bd 1055 69bc 10f5 de3d
00000200: 2173 7a3c 9c50 863e 847c 383d 2fac 273d
00000210: b893 b1bc 3243 5dbd c727 10be 8ff3 02be
00000220: b3e8 c6bd af15 efbd 7491 ed3d cfeb 8ebd
00000230: 4eb8 e2bd 38af 2fbe deee 0abc 7edd 63be
00000240: 503c 3d3c a5e5 26be a4b7 683e 0173 683c
00000250: 8194 903c 002b b3bc 060d 27be 8930 f7bd
00000260: 11dd 76bd a479 ccbd a020 0b3b 30c9 73bd
00000270: 1601 5d3e 3e93 603e fe93 21bd ae5d c5bd
00000280: 61be b6bd f493 033e 8190 143e 0b1e 2bbe
00000290: 1333 dfbd 0a7a d2bd d237 e7bd 0bd3 113d
000002a0: afde d53d 468f 4e3d 0847 cbbd caed 0cbe
000002b0: 3d12 753e 46b1 c4bd 7288 2abe 873d 07be
000002c0: c321 503e c741 613e d8b4 913d a665 533e
000002d0: fc59 8c3c 7d13 4cbe 4a20 fa3d 9d55 64be
000002e0: 772c 98bd 9d72 a6bd 59d9 00be 081d da3d
000002f0: 7afd 1cbd 0ea3 8abd 9874 cb3d 9e71 33bd
00000300: c1e1 d13d 91a5 86bd e980 34be 6393 15be
00000310: be05 0bbd 5437 723d 7ac4 073d 4d5a 5cbd
00000320: 0d31 9cbc 778b 42be 6322 fabd ded9 b43d
00000330: 779e 62be c319 3abc e45f 6c3c 3f73 16be
00000340: 484f b8bd 9869 75bd cf99 11bd 4da8 0dbe
00000350: e325 0c3e 2c09 ea3d d782 c8bb 6985 07be
00000360: fa13 17bb d024 1cbc e62c e6bc 22ef 4bbe
00000370: 35f8 02be f3b1 f63d 5633 883e 92d4 5bbe
00000380: 31fc ebbd 5b83 13bb 703a c8bd 9f7d 52be
00000390: a111 133e bed7 27be 7605 03bd 24f5 a33d
000003a0: 40bc cd3c c6f6 0ebe edbf aebc a04f 4fbe
000003b0: 9cf1 b0bd 6df5 383b 24d9 a73c 7ee0 e2bd
000003c0: 4dd7 f23c 664a 5abc a268 9e3c 37e1 c03d
000003d0: e191 ed3c e9a9 3a3d fee2 c9bd 60dd d0bd
000003e0: e265 be3d 4a01 febd e25f 29be 6c9c 39bc
000003f0: 9646 fbbc 7a15 f03c 268a dfbc fd17 80bd

model.model.2.running_var f4 [256]
0.53662676 0.11571656 0.12673399 0.07348276 1.2767451 0.9567218 0.20204668 0.0065012113
0.062263712 0.051902268 0.5911334 0.03015069 0.023674957 0.016117405 0.0037211014 0.046850286
0.0893876 0.03854261 0.036121067 0.07067669 0.061058067 0.05840453 0.194614 0.15682043
0.053098243 0.028617958 0.026927387 0.11745092 0.07311165 0.062245466 0.18547246 0.08280453
0.08432327 0.08535687 0.20616174 0.027011327 0.025656877 0.05516251 0.07958264 0.046723403
0.04508884 0.052752238 0.020077769 0.015881013 0.025791671 0.026306868 0.01276705 0.013141649
0.0399155 0.027907565 0.054039236 0.1367236 0.096819356 0.038145006 0.054558408 0.07394486
0.11084472 0.09649578 0.060577363 0.0044487 0.05652251 0.014851184 0.04454263 0.1193264
0.037019566 0.008279373 0.03236726 0.08161421 0.020473307 0.028392978 0.15445836 0.051105313
0.016255703 0.008921091 0.102492906 0.0860241 0.015977675 0.040786296 0.3025143 0.15613411
0.094231255 0.089987576 0.037713505 0.046595946 0.04710643 0.040260036 0.5190218 0.0094184205
0.113851 0.03540344 0.013085559 0.2031673 0.010553509 0.030336268 0.10446831 0.0899819
0.052486934 0.081395395 0.056976035 0.022218747 0.08406945 0.11334189 0.051482458 0.028026098
0.017771974 0.43484375 0.108596765 0.06076608 0.08312952 0.09513247 0.028381756 0.10590741
0.016714001 0.060246296 0.059843715 0.46989942 0.028111588 0.12966359 0.11837934 0.06374834
0.040348753 0.14152475 0.04803638 0.1280152 0.059930176 0.033121917 0.079629004 0.040751874
0.13394375 0.0919166 0.12530668 0.042803306 0.086338215 0.08449479 0.06498309 0.028671542
0.03536067 0.035541844 0.06974406 0.011023872 0.04447395 0.031046456 0.073678255 0.0077506895
0.040802106 0.027881125 0.098189004 0.01713691 0.06217987 0.07078117 0.026754215 0.03776553
0.05570686 0.019520435 0.07110554 0.05374386 0.14228518 0.09304278 0.05986604 0.015914856
0.055328973 0.27663428 0.13888045 0.023985254 0.023192374 0.047104716 0.07359513 0.07673227
0.0725487 0.09322413 0.04744855 0.055252988 0.04069616 0.026609441 0.035770576 0.0611135
0.15286787 0.08861456 0.11830029 0.08143336 0.06374292 0.01738271 0.31688663 0.00560863
0.063394636 0.051746286 0.030696334 0.07174654 0.057338104 0.12207992 0.21992601 0.05754959
0.07188265 0.048503153 0.015564909 0.029952947 0.043338835 0.08024201 0.16637272 0.10165636
0.05810528 0.012240951 0.05861274 0.1389586 0.014512148 0.05026728 0.06292762 0.008924381
0.036260758 0.08480345 0.055677745 0.04252964 0.3287129 0.10344845 0.118011825 0.086170174
0.1065828 0.092923254 0.08092388 0.018511822 0.022034373 0.22159998 0.18393837 0.022160502
0.043751262 0.13957275 0.026967635 0.013659156 0.039501607 0.028950585 0.05147184 0.080669045
0.07854368 0.05250368 0.036065407 0.010129818 0.0800347 0.06945453 0.056001574 0.019479642
0.06015763 0.019647159 0.06511604 0.09632764 0.081351906 0.054644242 0.038603887 0.037465557
0.09065598 0.041258253 0.014316057 0.017300535 0.04682867 0.06357808 0.07502822 0.054997236
00000000: 5f60 093f cefc ec3d 8ec6 013e 217e 963d
00000010: 626c a33f b8eb 743f 53e5 4e3e 1d08 d53b
00000020: 3c08 7f3d 7997 543d 8554 173f 94fe f63c
00000030: fcf1 c13c a608 843c b9dd 733b 16e6 3f3d
00000040: d910 b73d dbde 1d3d aff3 133d f1be 903d
00000050: 0618 7a3d 9739 6f3d e448 473e 8995 203e
00000060: 8b7d 593d 3570 ea3c d396 dc3c 1c8a f03d
00000070: 90bb 953d 1af5 7e3d 7eec 3d3e 6c95 a93d
00000080: aeb1 ac3d 95cf ae3d 101c 533e dc46 dd3c
00000090: 5f2e d23c 16f2 613d 39fc a23d 0a61 3f3d
000000a0: 13af 383d bb12 583d 227a a43c e618 823c
000000b0: 0e49 d33c 8081 d73c e42c 513c 1250 573c
000000c0: 6f7e 233d 689e e43c 3f58 5d3d 4501 0c3e
000000d0: 3a49 c63d f03d 1c3d a378 5f3d 6770 973d
000000e0: 8e02 e33d 949f c53d f81f 783d 67c6 913b
000000f0: 2684 673d 6152 733c 5572 363d 6661 f43d
00000100: d4a1 173d 35a6 073c 8893 043d 5a25 a73d
00000110: a3b7 a73c 6498 e83c 552a 1e3e ce53 513d
00000120: ae2a 853c c529 123c cde7 d13d 672d b03d
00000130: 9de3 823c 880f 273d 28e3 9a3e 9fe1 1f3e
00000140: 51fc c03d 684b b83d 7a79 1a3d 64db 3e3d
00000150: acf2 403d b5e7 243d 9dde 043f b84f 1a3c
00000160: b72a e93d 3303 113d d064 563c 170b 503e
00000170: a0e8 2c3c c483 f83c 7bf3 d53d 6e48 b83d
00000180: 8afc 563d a1b2 a63d b45f 693d 1704 b63c
00000190: 9b2c ac3d cb1f e83d 45df 523d fd96 e53c
000001a0: 8896 913c d7a3 de3e fb67 de3d dae5 783d
000001b0: cf3f aa3d d0d4 c23d db80 e83c fce5 d83d
000001c0: cdeb 883c d2c4 763d af1e 753d a896 f03e
000001d0: 464a e63c 88c6 043e de70 f23d 7d8e 823d
000001e0: bc44 253d ddeb 103e ccc1 443d 6b16 033e
000001f0: 5879 753d d9aa 073d 8814 a33d 70eb 263d
00000200: 8d28 093e c53e bc3d 6550 003e 8552 2f3d
00000210: 17d2 b03d 9b0b ad3d db15 853d 95e0 ea3c
00000220: 5ad6 103d 5394 113d f9d5 8e3d 789d 343c
00000230: 512a 363d 2355 fe3c a0e4 963d 7ff9 fd3b
00000240: 1c20 273d f566 e43c 5117 c93d b562 8c3c
00000250: 52b0 7e3d b8f5 903d a82b db3c 07b0 1a3d
00000260: e02c 643d 52e9 9f3c c89f 913d 8622 5c3d
00000270: 35b3 113e 378d be3d 1836 753d df5f 823c
00000280: a2a0 623d 02a3 8d3e ad36 0e3e b97c c43c
00000290: effd bd3c e0f0 403d 0bb9 963d cf25 9d3d
000002a0: 6a94 943d 4bec be3d 6959 423d f550 623d
000002b0: 04b1 263d 0bfc d93c 2b84 123d 2652 7a3d
000002c0: 6589 1c3e 8d7b b53d 6c47 f23d 89c6 a63d
000002d0: a68b 823d 2f66 8e3c f73e a23e 99c8 b73b
000002e0: 0cd5 813d eaf3 533d e176 fb3c daef 923d
000002f0: 5cdb 6a3d 0905 fa3d 4934 613e 1eb9 6b3d
00000300: 3637 933d 3eab 463d f603 7f3c e25f f53c
00000310: 1084 313d ec55 a43d 9c5d 2a3e 3631 d03d
00000320: cdff 6d3d 458e 483c ea13 703d 2a4b 0e3e
00000330: 5cc4 6d3c 10e5 4d3d 32e0 803d 9137 123c
00000340: 2986 143d 6ead ad3d 590e 643d 8f33 2e3d
00000350: 0f4d a83e c8dc d33d 2fb0 f13d fd79 b03d
00000360: 1548 da3d 8c4e be3d 6bbb a53d 1ba6 973c
00000370: 6e81 b43c 1beb 623e 575a 3c3e f189 b53c
00000380: 8634 333d 29ec 0e3e 3beb dc3c a7ca 5f3c
00000390: 70cc 213d c729 ed3c 23d4 523d d035 a53d
000003a0: 82db a03d 190e 573d 52b9 133d 89f7 253c
000003b0: 3ce9 a33d 2d3e 8e3d e861 653d c593 9f3c
000003c0: d967 763d 14f3 a03c 8f5b 853d 6d47 c53d
000003d0: d49b a63d a4d2 5f3d 1c1f 1e3d 7c75 193d
000003e0: d8a9 b93d 6afe 283d e58d 6a3c dab9 8d3c
000003f0: 6bcf 3f3d 3935 823d 65a8 993d c844 613d

model.model.4.weight f4 [128, 256]
-0.014683237 -0.02333059 0.036803957 -0.09212348 0.038395707 -0.16185674 -0.058786977 -0.15445526
0.03091784 -0.03136751 -0.15304315 -0.10032221 0.014871486 -0.010027937 0.0891751 0.06580427
0.046858735 -0.10504599 0.012580255 0.015699385 0.032159716 0.14591086 -0.020631 -0.04899266
0.014366444 0.05881101 0.046526097 -0.03692695 -0.11298713 0.082755394 -0.0761438 0.13035221
-0.065053865 0.014375395 0.09350977 -0.0117994845 -0.10588913 -0.020240359 -0.064654596 -0.14776118
0.012413294 -0.018468779 -0.11502185 0.038502783 0.042515595 0.025903601 0.031514883 0.11522832
-0.03998758 -0.03675462 0.020811135 -0.041119706 0.07421482 -0.029938923 -0.08447932 0.13225298
0.022869088 0.061497524 0.17351831 -0.17564143 0.11317782 0.040606584 -0.02465097 0.010182941
-0.08167602 -0.1162023 -0.007133664 0.056951247 0.02685281 0.050855435 -0.100784525 -0.00071226223
-0.11395406 0.09899657 -0.09622183 0.051278427 0.10227421 0.1257097 -0.2393346 -0.09778481
-0.06388919 -0.030892598 0.03445926 0.12713316 -0.024295598 0.0038536885 -0.06796974 -0.058822356
0.010426844 -0.0373913 -0.025917705 0.12101777 -0.055116974 -0.036268827 -0.07007941 -0.13620164
0.18556182 0.012483557 -0.046242613 -0.13526885 -0.053982157 0.019001853 -0.021645114 0.04801966
-0.05942251 -0.14838354 -0.037467122 -0.05797301 -0.056812342 -0.08777384 0.06535292 0.063251086
0.091214344 0.14006063 -0.020020837 0.11394707 0.022603594 0.12637171 -0.029095713 0.044496577
0.05921655 0.0021870923 -0.09261081 0.08882577 0.099703126 0.06442655 -0.11737168 -0.07477073
-0.0532517 -0.050053436 -0.039377756 -0.030400004 0.0063410397 -0.064721674 0.044114724 0.0022530942
-0.0130739985 -0.058446452 -0.023332357 0.121741615 -0.1217009 -0.025097404 -0.016930839 -0.05661795
-0.07363837 -0.09792632 -0.08761957 0.06202645 -0.115282185 0.014466611 -0.014807035 -0.024404475
0.087258756 0.124586105 0.013702485 -0.17827164 -0.042575542 0.013242415 -0.05427876 0.040437326
-0.035291657 0.025589207 0.16158646 0.04031812 0.0026982324 0.0077096075 -0.016724542 -0.044046413
0.03435639 -0.042990312 -0.08293386 -0.14742471 -0.07977048 0.071360596 0.08999675 -0.032033037
0.09378312 -0.17837782 -0.070261285 -0.073172934 0.0042504715 -0.06186194 -0.029609445 -0.13419406
0.0005084666 -0.087089576 0.01996196 -0.0068780077 0.018880367 0.04971712 -0.0047631483 0.06185737
-0.0072639487 -0.097820155 -0.070867434 -0.0146830985 0.13823847 0.047158875 -0.2816529 -0.0021024542
-0.07103729 -0.02474197 0.102588095 -0.015727084 0.06271251 -0.05554263 -0.03206574 -0.0018820928
-0.15758719 -0.12965702 -0.00537694 -0.13682276 -0.1209745 0.0021074743 -0.112912714 -0.05405103
-0.032101396 0.15422587 -0.022127401 0.013411478 0.009017308 0.09513407 -0.019837884 -0.14972338
-0.14588988 -0.1943388 -0.06635723 0.105528936 -0.024147138 0.013132868 0.06250874 0.016003039
-0.13302459 -0.03871431 -0.048080098 -0.09072838 -0.009513121 -0.05735678 0.035485014 0.059077304
0.023367248 0.08008595 -0.07054175 0.06269597 -0.046597123 0.029279744 -0.0728869 0.09985125
-0.051877663 0.11060957 -0.0108884815 0.011935056 0.055606645 -0.027330479 -0.02789885 0.07883879
00000000: f691 70bc cb1f bfbc bfbf 163d 3cab bcbd
00000010: d144 1d3d c6bd 25be 9dca 70bd 8529 1ebe
00000020: 6947 fd3c 387b 00bd 58b7 1cbe bb75 cdbd
00000030: 89a7 733c 374c 24bc 6fa1 b63d 64c4 863d
00000040: f2ee 3f3d 5a22 d7bd 6a1d 4e3c ff9b 803c
00000050: e8b9 033d a869 153e 5802 a9bc 87ac 48bd
00000060: 3c61 6b3c d0e3 703d 2692 3e3d b740 17bd
00000070: cc65 e7bd a97b a93d 48f1 9bbd 0d7b 053e
00000080: f63a 85bd c786 6b3c 0d82 bf3d a052 41bc
00000090: 66dc d8bd 1ccf a5bc a169 84bd b54e 17be
000000a0: 2161 4b3c d64b 97bc 9390 ebbd 18b5 1d3d
000000b0: d524 2e3d ca33 d43c c015 013d d3fc eb3d
000000c0: 04ca 23bd 038c 16bd 1d7c aa3c 236d 28bd
000000d0: f1fd 973d 7942 f5bc 7e03 adbd 536d 073e
000000e0: f457 bb3c d4e4 7b3d c9ae 313e 59db 33be
000000f0: c6c9 e73d 1753 263d d5f0 c9bc 5ad6 263c
00000100: c245 a7bd 79fb edbd 83c1 e9bb b645 693d
00000110: 6dfa db3c ca4d 503d 1e68 cebd 1cb7 3aba
00000120: bf60 e9bd b7be ca3d f30f c5bd 5409 523d
00000130: 2475 d13d 0bba 003e 2114 75be 6743 c8bd
00000140: 56d8 82bd 7912 fdbc 2725 0d3d 322f 023e
00000150: 9007 c7bc 2a8e 7c3b b833 8bbd b6ef 70bd
00000160: 5ad5 2a3c 9f27 19bd 5e51 d4bc 2ad8 f73d
00000170: 56c2 61bd 9f8e 14bd cb85 8fbd 7178 0bbe
00000180: eb03 3e3e d587 4c3c e568 3dbd eb83 0abe
00000190: 651c 5dbd c6a9 9b3c 1851 b1bc 43b0 443d
000001a0: 0565 73bd dbf1 17be 2077 19bd 1b75 6dbd
000001b0: 0fb4 68bd c5c2 b3bd c0d7 853d c989 813d
000001c0: 96ce ba3d 0e6c 0f3e bd02 a4bc 155d e93d
000001d0: 2c2b b93c 9667 013e 225a eebc 0b42 363d
000001e0: 0e8d 723d 5255 0f3b bdaa bdbd 49ea b53d
000001f0: 2731 cc3d 11f2 833d 9060 f0bd 6621 99bd
00000200: 741e 5abd d504 4dbd 924a 21bd 6e09 f9bc
00000210: 7fc8 cf3b cc8c 84bd a4b1 343d a6a8 133b
00000220: 5334 56bc 8c65 6fbd 8023 bfbc ab53 f93d
00000230: 523e f9bd 1299 cdbc 8bb2 8abc 39e8 67bd
00000240: b7cf 96bd 988d c8bd e471 b3bd 720f 7e3d
00000250: 1119 ecbd 5d05 6d3c 3599 72bc e5eb c7bc
00000260: b8b4 b23d 0027 ff3d 6380 603c d78c 36be
00000270: b163 2ebd b7f6 583c 6853 5ebd 9ca1 253d
00000280: fc8d 10bd 75a0 d13c ec76 253e 9d24 253d
00000290: d4d4 303b e0a0 fc3b e801 89bc 036a 34bd
000002a0: 49b9 0c3d 9c16 30bd 3ad9 a9bd 81f6 16be
000002b0: b55e a3bd 8125 923d 3750 b83d 1335 03bd
000002c0: 5d11 c03d ada8 36be 26e5 8fbd b1db 95bd
000002d0: 8a47 8b3b f262 7dbd 828f f2bc 2b6a 09be
000002e0: 9e4a 053a 055c b2bd 4487 a33c e960 e1bb
000002f0: 00ab 9a3c 2ea4 4b3d 2f14 9cbb 275e 7d3d
00000300: 6b06 eebb ef55 c8bd f222 91bd 6191 70bc
00000310: 638e 0d3e aa29 413d cf34 90be 54c9 09bb
00000320: 007c 91bd acaf cabc b519 d23d 16d6 80bc
00000330: 6b6f 803d ab80 63bd 5e57 03bd 8eb0 f6ba
00000340: 895e 21be cfc4 04be 0b31 b0bb 441b 0cbe
00000350: 7bc1 f7bd 8d1d 0a3b c83e e7bd 9d64 5dbd
00000360: c17c 03bd 63ed 1d3e 8644 b5bc d1bb 5b3c
00000370: 55bd 133c a7d5 c23d 0f83 a2bc 1651 19be
00000380: 2864 15be c000 47be 4de6 87bd 8e1f d83d
00000390: 38d0 c5bc 3e2b 573c 9504 803d ce18 833c
000003a0: 9937 08be e592 1ebd a3ef 44bd cdcf b9bd
000003b0: ecdc 1bbc f1ee 6abd bc58 113d 0bfb 713d
000003c0: ac6c bf3c 1a04 a43d 3178 90bd bf66 803d
000003d0: a0dc 3ebd 13dc ef3c ba45 95bd d07e cc3d
000003e0: ac7d 54bd 4587 e23d 9a65 32bc 418b 433c
000003f0: cbc3 633d 2be4 dfbc 218c e4bc 3b76 a13d

model.model.4.bias f4 [128]
-0.26928774 -0.3501898 -0.15030032 0.044548143 -0.24718596 -0.08789334 -0.28629687 -0.14092202
-0.18599522 -0.08867017 -0.28856325 -0.076824 -0.04591402 -0.08380929 -0.20188224 -0.25439024
-0.23658867 -0.20820142 -0.12065142 -0.10220475 0.036787223 -0.33718 -0.12575175 -0.3359253
-0.09091248 -0.4957252 -0.1971281 0.084411345 -0.4310193 -0.11830128 -0.28613317 -0.074289314
-0.067699805 -0.09442862 0.007783824 -0.064809084 -0.07247363 -0.012119751 -0.29865676 -0.0008703029
-0.30511552 -0.25560197 -0.062353138 -0.04834179 -0.12814388 -0.2186804 -0.08088743 -0.13303453
-0.28314885 -0.09565697 -0.13097946 -0.18135966 0.0073675774 -0.31110618 -0.110010795 -0.056979418
-0.06096378 0.016324017 -0.11437002 -0.27123594 -0.23438768 -0.15804775 -0.1369637 0.027828252
-0.20483494 -0.14059722 -0.18118016 -0.21818085 -0.1992042 -0.13926086 -0.24056873 -0.18324134
-0.19440612 -0.23108321 -0.27312633 -0.092228875 -0.012736176 -0.3716289 -0.057876803 -0.10877707
-0.18431632 -0.10686319 -0.31102005 -0.14441162 -0.32098106 -0.10373259 -0.025276758 -0.03828736
-0.05155257 -0.14861707 -0.19447607 -0.4130944 -0.08386369 -0.16370155 -0.093686305 -0.35135916
-0.23146427 -0.04040101 -0.07698719 0.01981024 -0.063209474 -0.4018091 -0.23990355 -0.09369423
-0.37390116 -0.17987466 -0.31635016 -0.16328965 0.07469246 -0.28712022 -0.34101447 -0.46726602
-0.26119685 -0.1363438 -0.2490405 -0.106163226 -0.08880804 -0.15231323 -0.16377252 -0.053323865
-0.21785034 -0.14985736 -0.055493854 -0.1454217 -0.3531579 -0.1861764 -0.2365467 -0.3441536
00000000: 15e0 89be 144c b3be 54e8 19be 1d78 363d
00000010: 511e 7dbe 6c01 b4bd 8195 92be dd4d 10be
00000020: 8875 3ebe b598 b5bd 90be 93be e755 9dbd
00000030: 5710 3cbd 34a4 abbd 38ba 4ebe 703f 82be
00000040: 4d44 72be c132 55be 1718 f7bd b950 d1bd
00000050: 33ae 163d dba2 acbe 11c5 00be 67fe abbe
00000060: 5330 babd b2cf fdbe f3db 49be dbdf ac3d
00000070: 90ae dcbe f147 f2bd 0c80 92be ff24 98bd
00000080: 32a6 8abd cb63 c1bd 730f ff3b a0ba 84bd
00000090: 0e6d 94bd ec91 46bc 8ae9 98be 0a25 64ba
000000a0: 1a38 9cbe 43de 82be 0166 7fbd 0a02 46bd
000000b0: 2638 03be c1ed 5fbe 4fa8 a5bd 343a 08be
000000c0: e3f8 90be cde7 c3bd 7b1f 06be 59b6 39be
000000d0: b86b f13b 4f49 9fbe 574d e1bd 4063 69bd
000000e0: 28b5 79bd f2b9 853c d43a eabd 70df 8abe
000000f0: 5303 70be 45d7 21be 3640 0cbe 13f8 e33c
00000100: 40c0 51be b8f8 0fbe 4b87 39be cd6a 5fbe
00000110: 30fc 4bbe 669a 0ebe a657 76be 9ea3 3bbe
00000120: 6612 47be 14a1 6cbe 37d7 8bbe 7ee2 bcbd
00000130: 65ab 50bc 2546 bebe 3a10 6dbd 83c6 debd
00000140: 6bbd 3cbe 17db dabd 053e 9fbe a4e0 13be
00000150: a157 a4be c171 d4bd 3411 cfbc 35d3 1cbd
00000160: ca28 53bd 132f 18be bc24 47be 1c81 d3be
00000170: bac0 abbd 61a1 27be 9bde bfbd 59e5 b3be
00000180: f804 6dbe 887b 25bd 76ab 9dbd 1649 a23c
00000190: f873 81bd ecb9 cdbe 47a9 75be c3e2 bfbd
000001a0: f96f bfbe 1031 38be a6f8 a1be 6735 27be
000001b0: 5cf8 983d 6c01 93be 7399 aebe 7e3d efbe
000001c0: 98bb 85be b69d 0bbe 7904 7fbe 1b6c d9bd
000001d0: fde0 b5bd 00f8 1bbe fcb3 27be 206a 5abd
000001e0: 2914 5fbe 3574 19be 864d 63bd 6de9 14be
000001f0: 1dd1 b4be 07a5 3ebe 4c39 72be e734 b0be

model.model.6.weight f4 [128]
1.0130597 0.97660244 0.794402 0.946715 0.92232895 0.9760124 1.0047439 0.9055905
1.0413809 0.9258739 1.0017148 0.9297564 0.97311103 0.99094164 1.0005907 0.955663
1.0608815 0.9709319 0.9370243 1.0204073 0.9929277 1.0082176 0.8741938 0.95198846
0.8141523 1.0867491 1.0147666 0.8958178 0.9714067 0.98288393 1.038161 1.0893255
1.051813 0.84232026 0.9416619 0.95751894 0.9480114 0.9464745 1.0130459 0.910414
1.0593117 1.0799803 0.9007086 0.9704986 0.93060184 0.9002001 0.90302205 0.906502
0.96666574 0.9764647 0.96616626 0.8931277 0.9307046 1.0223486 0.9529077 1.1271065
1.0598576 0.9599437 1.0558462 1.0609754 0.88314193 0.93941385 0.9736434 0.9181348
0.98276937 1.0964066 1.0053575 1.017451 1.0465802 0.86805516 1.0348165 0.94238704
0.93059754 1.044089 0.9566897 1.0073237 1.0214242 0.93566525 0.8843003 1.1110814
1.1107817 0.8423218 0.87039554 0.95031387 1.0112867 0.83757615 0.85845774 0.9777793
0.9814839 1.0727172 0.9624898 0.98070467 0.9994795 0.9312681 0.96679777 1.0059998
1.0072148 0.8996442 0.87786204 0.99345654 0.88721055 1.012879 1.0656241 0.9852195
0.97290605 0.9725427 0.99481577 0.9860971 0.91417533 0.90666527 0.95903534 1.0703348
0.91402096 0.9654847 0.92544764 0.92702705 0.9299488 0.83582044 0.96154547 0.9300384
0.93550444 0.9597273 0.9707859 0.9370682 0.97179604 0.94992214 0.96809113 0.9624214
00000000: f1ab 813f 9e02 7a3f ee5d 4b3f ea5b 723f
00000010: c01d 6c3f f3db 793f 739b 803f c7d4 673f
00000020: f84b 853f 1206 6d3f 3138 803f 8404 6e3f
00000030: ce1d 793f 5aae 7d3f 5b13 803f 55a6 743f
00000040: f7ca 873f fe8e 783f d3e0 6f3f b59c 823f
00000050: 8230 7e3f 460d 813f 2acb 5f3f 84b5 733f
00000060: 496c 503f 981a 8b3f dfe3 813f 5154 653f
00000070: 1cae 783f 489e 7b3f 76e2 843f 056f 8b3f
00000080: cfa1 863f 4da2 573f c110 713f f61f 753f
00000090: e0b0 723f 274c 723f 7dab 813f e410 693f
000000a0: 8797 873f cb3c 8a3f d794 663f 9972 783f
000000b0: ec3b 6e3f 8473 663f 742c 673f 8410 683f
000000c0: 6877 773f 97f9 793f ac56 773f 04a4 643f
000000d0: a842 6e3f 52dc 823f c2f1 733f 0745 903f
000000e0: 6aa9 873f dfbe 753f f825 873f 0bce 873f
000000f0: 9715 623f 6d7d 703f b240 793f e20a 6b3f
00000100: c696 7b3f 0d57 8c3f 8eaf 803f d63b 823f
00000110: 57f6 853f dd38 5e3f de74 843f 4740 713f
00000120: a43b 6e3f b5a4 853f 9ee9 743f fcef 803f
00000130: 07be 823f c287 6f3f 8161 623f ea37 8e3f
00000140: 182e 8e3f 67a2 573f 3ed2 5e3f c547 733f
00000150: d871 813f 646b 563f e3c3 5b3f bf4f 7a3f
00000160: 8742 7b3f cc4e 893f bb65 763f 760f 7b3f
00000170: e3dd 7f3f 9667 6e3f 0f80 773f 9ac4 803f
00000180: 6aec 803f 154f 663f 91bb 603f 2b53 7e3f
00000190: 3b20 633f 05a6 813f 5f66 883f 5837 7c3f
000001a0: 5f10 793f 8ff8 783f 3fac 7e3f dc70 7c3f
000001b0: 6507 6a3f 371b 683f 5783 753f bb00 893f
000001c0: 47fd 693f 012a 773f 23ea 6c3f a551 6d3f
000001d0: 2011 6e3f 54f8 553f d827 763f ff16 6e3f
000001e0: 387d 6f3f b0b0 753f 6d85 783f b4e3 6f3f
000001f0: a0c7 783f 192e 733f d2d4 773f 4061 763f
