parkinson telemonitoring/checkpoints/parkinson-epoch=109-val_loss=16.18.ckpt (torch, 821088 bytes, 76 tensors)

model.model.0.weight f4 [256, 20]
00000000: 74a2 2cbf 9280 c83a 18af d03b 892a 473d
00000010: bfdc 1b3d 7dac e33d be9b d23d 0d42 c2bc
00000020: e43d 8b3e 5b11 40be 1b0b 503d 71b8 9bbd
00000030: 080a c43d e7c7 e83d a684 383e 1c1a dcbd
00000040: ef46 f4bd 6c04 17bd 52cd cb3d 4236 03bf
00000050: ebe9 82be 46c0 b8bd 3ad7 533e d093 7fbe
00000060: 12ec cfb9 7b33 123e 01c0 b03c 8e54 343e
00000070: 3491 9dbd 2a29 4abd 0b75 ccbd 3286 363e
00000080: d4f2 8e3c dd70 97be a18c 21bd aa84 193c
00000090: 5927 063f ffac 533e 94e4 3abe 04ff 16bd
000000a0: 77b8 bdbd 3425 b63e 1a72 7ebe c0f0 aa3e
000000b0: 0d79 133e 7506 5bbd e9b5 063d 1647 90bc
000000c0: 0f40 b2be c0eb c53d 4f1a 8fbe 222f 7abd
000000d0: 4f54 83bd ed38 743e a6c7 e2bd 3410 673e
000000e0: 6fc1 debe c6c1 2dbe 7292 bcbe c72d 5cbe
000000f0: 24b9 a63d 5943 b7bc f2e2 90be e896 803e
00000100: 0eff 933e 790a 3bbe e832 583e d152 fe3c
00000110: 68aa 6cbe 8f0d a7bd 2d53 2dbd c5cc 60bd
00000120: 211c f13d 5010 4ebe 14ec 7cbe c039 233e
00000130: 12f6 2f3e 7a3f 36be 6d1f 3e3e 23f8 32be
00000140: 1948 53be a15e acbd e302 5a3e 58a1 253e
00000150: 60b3 58be 7be7 4cbe 786e 68be 217a 6abd
00000160: 18cf 093e 1b14 c63d 2343 2fbe 86ae 403c
00000170: 639a 25bd a02d 293d 9940 123e 5c7d 6fbd
00000180: ea6e 0bbe 50d1 ea3d d1dd 953e 7902 d1bd
00000190: ccbc 4ebe e326 81bd 5684 84be 74d8 0ebf
000001a0: c6a3 10be 4f86 b3bc b1e3 1ebe c9f5 23be
000001b0: 3532 473c c1b2 28be b4de 6bbe 15cf 2a3d
000001c0: e7bd 84be 32aa f7bd 12a3 4c3e 9cdd 813e
000001d0: c725 b1be b4cf 90be 5414 d93c adb1 2a3e
000001e0: 0b60 70be 547f 053e ec58 4c3b 129c 8fbe
000001f0: ec02 ad3d 2635 e73d 8922 1d3e 9bcf 143d
00000200: 96bc ee3d e43a 90be 7b65 34be 95d6 e63b
00000210: 6cfb b5bd 975a 113e c98e 6dbd 263e c33e
00000220: 0418 76be c0b9 803d 7379 63be 8281 51bc
00000230: 685d 903c 9c35 c93d 1b64 c73d b636 82bd
00000240: a5bb 9cbe 04cb c03a e14b 83be de61 863e
00000250: fd23 0a3e 14ec 2d3e 8da5 a4b9 6489 90be
00000260: 3452 483e 2524 403e ed59 17be 3f83 a23e
00000270: 3b78 e63e df81 2abe 749c 10bf 2016 9cbe
00000280: 0488 333e 6c91 c93d 43c3 693e 94e1 99bd
00000290: d62a 83be 5a7b 25bd 36f2 ddbd 282b 423d
000002a0: 316f d6bd f152 17bd 45f7 8fbe b08b 333e
000002b0: 9539 223e 05af 373e 773d bd3d 132f 073e
000002c0: ec5a 983e 90c9 8bbe 4573 1dbd 5219 623e
000002d0: 519a 8fbb 2679 48bd 06cf d8be e13d 313e
000002e0: 805c 13bd 381c b1bc b9dc 2e3e 3675 8fbb
000002f0: 1961 3f3e 97b3 433d 8d36 85be aa2c f7bd
00000300: 041b 01bb ba74 2c3e 4af4 8c3e 47ba 333c
00000310: 0dcc ed3d 57ed 033e 1a21 5c3e d76c 10be
00000320: ac23 9c3e 9302 d4bd 9d2b 03be c3fe be3d
00000330: 5858 3dbd 9706 b7bd 7857 c8bc 9b98 393e
00000340: 95ca c03d d660 1e3d 30a5 b23d 11c1 a2be
00000350: e9a9 80be df55 753e ad0e ff3d ad9f 01be
00000360: d246 43bd 3ed7 9d3c d5c8 713e d92c 75be
00000370: 2fbe d63e e04f 52be 0628 923b 6348 41bd
00000380: d1cc 2c3e ff0c e5bd da1d 84bd db43 e1bd
00000390: d436 57bd a384 6c3e 10db 42be 0b11 0f3e
000003a0: 0367 6d3e fd97 46be 7f39 11be adc8 a9be
000003b0: 5f45 a7be 29cf 443e a9c8 0d3e 30ad ff3c
000003c0: d081 a23c 91b8 5bbe e03c 9bbd 3083 93bd
000003d0: ada8 98be 0b03 183e 7c0c 4ebe 7881 d53c
000003e0: 2143 73bd f66a d23d 54ba 423e d334 033e
000003f0: a1ab 0e3e d400 8ebb b1f4 dc3d 81dd c3bd
-0.67435384 0.0015297106 0.006368529 0.04862455 0.038052317 0.11116884 0.10283612 -0.023713136
0.27195656 -0.1875662 0.05079184 -0.07603539 0.09572226 0.11366253 0.18019351 -0.107471675
-0.11927592 -0.03686945 0.09951271 -0.51254666 -0.2556909 -0.09021048 0.20687571 -0.2495873
-0.00039658003 0.1427745 0.02157593 0.1761038 -0.07693711 -0.049355663 -0.09983262 0.17824629
0.017449774 -0.29578295 -0.039440755 0.0093700085 0.5240379 0.20671462 -0.18251258 -0.036864296
-0.092636995 0.3557526 -0.24848214 0.33386803 0.14401646 -0.053472955 0.032888327 -0.017612021
-0.34814498 0.09664106 -0.2794976 -0.061080106 -0.06412565 0.2384984 -0.11073236 0.22564775
-0.43506953 -0.1696845 -0.3683048 -0.21501838 0.081407815 -0.022370981 -0.28298146 0.25115132
0.2890553 -0.18265714 0.21113169 0.03104535 -0.2311188 -0.08156883 -0.04231565 -0.054882783
0.11772943 -0.2012341 -0.24699432 0.15939999 0.17183712 -0.17797652 0.18566675 -0.17477469
-0.20632972 -0.084164865 0.21290164 0.16174829 -0.21162176 -0.20010178 -0.2269839 -0.057245377
0.13457906 0.096718036 -0.17115454 0.01176036 -0.040430438 0.041303277 0.14282455 -0.05846916
-0.13616529 0.114657044 0.29270795 -0.1020555 -0.20189208 -0.06306245 -0.25882214 -0.5579903
-0.14124975 -0.02191463 -0.15516545 -0.16011728 0.012157966 -0.16474439 -0.23034173 0.041701395
-0.25926134 -0.12093009 0.19984081 0.25364387 -0.34599134 -0.28283465 0.026498951 0.1666934
-0.23474137 0.13036853 0.0031180931 -0.2804876 0.08447823 0.11289434 0.15345205 0.0363308
0.11657064 -0.2816993 -0.17616837 0.007044623 -0.088858455 0.14194714 -0.0579975 0.38133353
-0.24032599 0.06285429 -0.22214298 -0.012787225 0.017622665 0.09824678 0.097358905 -0.063580915
-0.3061191 0.0014708941 -0.2564383 0.26246542 0.13490291 0.16984588 -0.00031403863 -0.2822982
0.19562608 0.18763788 -0.14780398 0.31740758 0.45013604 -0.16651104 -0.5648873 -0.3048563
0.17532355 0.0984219 0.22828393 -0.07513729 -0.2561862 -0.04040084 -0.10837214 0.04740444
-0.10470427 -0.036944333 -0.2811834 0.17533755 0.15842278 0.17937858 0.09240239 0.13201551
0.29756868 -0.27302217 -0.038440008 0.22079971 -0.0043824096 -0.04894366 -0.42345446 0.17308761
-0.035976887 -0.021619901 0.17076387 -0.0043779863 0.18689384 0.047778692 -0.2601818 -0.12069066
-0.001969994 0.16841403 0.27530128 0.010969705 0.11611185 0.12883507 0.21497002 -0.14104019
0.30495965 -0.103520535 -0.12809606 0.09325936 -0.04622683 -0.08936804 -0.02445577 0.1812462
0.094136395 0.03866657 0.08722913 -0.31787923 -0.2512963 0.23958538 0.12453971 -0.12658568
-0.04767496 0.019267675 0.23611768 -0.2394289 0.41941974 -0.20538282 0.0044603376 -0.047188174
0.16875006 -0.111841194 -0.06451006 -0.109992705 -0.052542523 0.23097472 -0.19028878 0.13971345
0.23183827 -0.19393916 -0.1418209 -0.33160916 -0.32670113 0.1921965 0.13846077 0.031210512
0.01983729 -0.21457125 -0.0757997 -0.072027564 -0.2981619 0.14844911 -0.2012195 0.026062712
-0.05939019 0.102743074 0.19016391 0.1281312 0.13932659 -0.004333595 0.10788859 -0.09563733

model.model.0.bias f4 [256]
00000000: bc54 fdbe b944 00bf fbf0 25bf 0700 f4be
00000010: 30bd 253e 8756 a6bd 7943 e4be c8c4 5fbf
00000020: 2cc0 0cbf 1d3d 13be 4409 b63d 4dd3 c2be
00000030: 36e1 34bc a6f3 54bf c396 77be 0312 c4be
00000040: 1417 7abf 7a34 b9be f796 84bf dd2e 4bbf
00000050: de61 cdbe 9e04 43bf 104d d4bd d3cd 56be
00000060: 13f9 3ebf ccdf f3bd f2d9 1bbf c8c4 1fbf
00000070: 42d8 8fbe ec11 48bf bd14 19bf 5f46 06bf
00000080: bc7a 18bf 9828 02bf 22e9 46bf f541 6dbe
00000090: 0947 45bf 0f1b 68bf 1127 86be 1679 79bf
000000a0: d5ff 63bf b9a0 76bf 2ae5 9abe b1d7 81be
000000b0: 1a58 f2be ccfb bcbe 3772 1fbf 0dc1 21bf
000000c0: da1a 05bf 7e44 90be 616e 35bf c341 0dbf
000000d0: 8753 62be f0f0 b9be 40a1 25bf 031b 2ebf
000000e0: c377 79bf 0d44 0fbf 0730 3dbf 4d3c 16bf
000000f0: 04d9 25bf 90ee 2ebf 2463 d7be 5255 6ebf
00000100: 785a cdbe 398f ae3c b91a 6dbc 4767 6dbf
00000110: b771 0bbf 7045 4ebf 5f23 243e ff61 23be
00000120: e6c2 ccbe c5d3 54bf 2b68 76be dffd 7fbf
00000130: 3ffe 00bf cba6 0dbe 3d7c 6cbe 6e50 cebd
00000140: d49d 91be 0cc8 02bf fde1 84bf 651b f0be
00000150: ba6a 983c 420c 46bf 8412 17bf 85b0 c3be
00000160: faef 87be 4199 16bf 8c6c 33bf 411c 69be
00000170: 4c54 3abe 8a5a 42bf cb25 05bf 761b 93bd
00000180: 09d1 96be 7ac1 a1be eaed 70bf 4298 cfbe
00000190: d079 a4be 879b 92be db0e 55bf 182e 98be
000001a0: cd2b 053f da16 1abf 0fe5 acbe 0aca 38be
000001b0: 16fa b0be ea37 63bf 9831 2dbf 72e2 e0be
000001c0: d656 49be 8c07 35bd ac22 43bf 6347 80bf
000001d0: e946 32bf d4cb f6be 41af 1ebf ab58 ba3d
000001e0: ba35 7dbe b78f 14bd da0b cfbe 9fc1 fc3e
000001f0: 8800 d8be a6af 5bbe 20db 85be 888b 8abe
00000200: 912d 8cbf 8d3e 0fbf 028a 34bf bca6 10bf
00000210: 6369 5dbf 8027 b5be 8689 18bf e876 debe
00000220: 8a46 05bf 74fc 62be cc1d dcbe be4d 42bf
00000230: b756 b73d a8be 67bf 6832 65bf 351d dbbe
00000240: 101d 2bbf 88db d9bd 18e5 44bf 70b7 04be
00000250: b11e 98be f3eb b5be f54a a3be a25d 7bbe
00000260: ccbe 22bc e7c2 55bf ddce 3cbf 9fd5 46bf
00000270: 8ae3 a3be 1973 babd 0556 c23d 2db5 76be
00000280: 4310 b6be 838f 5abf dc51 7abf e3ed 1ebf
00000290: fcff 19be 0ff6 33bf 1f72 acbe 9477 e6be
000002a0: 3509 2fbf b81d 8cbe 9864 babe fa0a c7be
000002b0: 24a3 babe 458d 50bf e969 c9bd d32b 2dbe
000002c0: 0b0e 8abf 673a bfbe 33f0 88bf a050 2fbf
000002d0: 4aa5 2cbf 0bb5 2fbf 0f35 59bf 650e 60bf
000002e0: a6d0 0cbf 4394 6ebf 243e 36bf 3149 28be
000002f0: c6d8 b6be 3542 57be 40e6 693e ffdb 23bf
00000300: c0a7 cebe fe2d c2bd 90c0 4cbf 09de 22bf
00000310: 00c3 57bd 8af7 dabd 37f3 65bf 2bc8 04bf
00000320: cd82 6cbf 3869 4dbf 5b6b 3bbf e23c 23bd
00000330: 129e 68bb fe95 69bf 81dd 57bf b360 58bd
00000340: 30f4 3cbf 6ba8 5fbf 1903 72bf d8cd 53bf
00000350: d430 01be 4168 28bf da44 85bf 3af2 46be
00000360: 3e31 38bf 71d2 d1be a155 dcbe e754 c2be
00000370: 1fba 69be 675b 07bf 6601 9dbe 5293 58be
00000380: f34e 52bc dc5a 1dbf a82b ffbe fe91 8cbe
00000390: 0d24 22bf c2f3 4fbf f6d6 08bf b1d8 d7be
000003a0: 9f15 13be 9faa f4be 99a3 d7bd f63d 30bf
000003b0: eaff 683d c3b3 31bf 612f 48bf 5ff9 9fbe
000003c0: c6e9 9dbc 6b12 b2be 5036 20bf 1d5a 1dbf
000003d0: 354e de3e e6da 8fbe daa6 69bf 08c3 f8be
000003e0: b63c f5be 5e33 c2be 19df 943e 1994 9bbe
000003f0: faf6 a4be 14b2 a1bd cd9c e9be d2fe 8ebe
-0.4947871 -0.5010486 -0.6482083 -0.4765627 0.1618545 -0.081219725 -0.44582728 -0.8740964
-0.5498073 -0.14378782 0.08888486 -0.38051835 -0.011040023 -0.8318428 -0.24178605 -0.38294992
-0.97691464 -0.3617285 -1.0358571 -0.7936838 -0.4011373 -0.7617892 -0.10366261 -0.20976953
-0.7459881 -0.1190792 -0.60879433 -0.6240964 -0.2809468 -0.78152347 -0.5979727 -0.5245113
-0.5956228 -0.5084319 -0.7769948 -0.23169692 -0.77061516 -0.9066629 -0.2620168 -0.9745039
-0.89062244 -0.96338993 -0.30252963 -0.25359872 -0.4733284 -0.36910856 -0.62283653 -0.631852
-0.519941 -0.28177255 -0.7087155 -0.5517847 -0.22102176 -0.36316633 -0.6469917 -0.68009967
-0.97448367 -0.5596321 -0.7390141 -0.5868576 -0.64784265 -0.6833277 -0.42067826 -0.9309894
-0.40108085 0.021308528 -0.014471703 -0.92735714 -0.5447039 -0.80574703 0.16029118 -0.15955351
-0.39992446 -0.83135635 -0.24063174 -0.9999675 -0.5038795 -0.13833158 -0.23094268 -0.100739345
-0.28440726 -0.510865 -1.0381466 -0.468959 0.018605579 -0.77362454 -0.5901263 -0.3822061
-0.26550275 -0.58827597 -0.70087504 -0.22764684 -0.18196219 -0.759194 -0.5201079 -0.07182972
-0.29456356 -0.31592923 -0.9411303 -0.4054585 -0.32124186 -0.28634283 -0.8322579 -0.29722667
0.5201996 -0.6019112 -0.33768508 -0.18045822 -0.345658 -0.88757193 -0.676538 -0.43922764
-0.19662032 -0.04419665 -0.7622478 -1.0021785 -0.6963945 -0.48202384 -0.61986166 0.09098943
-0.24727526 -0.03626987 -0.4043873 0.4936647 -0.42187905 -0.21453723 -0.26143742 -0.2705958
-1.0951406 -0.5595482 -0.70523083 -0.56504416 -0.8648893 -0.353817 -0.59584844 -0.43450093
-0.5206076 -0.22166616 -0.42991483 -0.75899875 0.089520864 -0.90525293 -0.8953004 -0.4279572
-0.6684122 -0.106375754 -0.7691207 -0.12960601 -0.29710916 -0.35531577 -0.31893125 -0.24547437
-0.009933185 -0.8350052 -0.7375315 -0.7766971 -0.32009536 -0.091039844 0.09489063 -0.2409255
-0.35559282 -0.8537523 -0.9778116 -0.62081736 -0.15039057 -0.7029733 -0.33680817 -0.45013106
-0.68373424 -0.27366424 -0.36404872 -0.38875562 -0.3645259 -0.8146556 -0.09834654 -0.16911249
-1.0785536 -0.37349245 -1.0698303 -0.684824 -0.6743971 -0.68635625 -0.84846586 -0.87521964
-0.5500587 -0.9319498 -0.7118857 -0.1643417 -0.3571226 -0.2102135 0.2284174 -0.6400756
-0.40362358 -0.094814286 -0.7998133 -0.6362005 -0.0526762 -0.106917456 -0.8982424 -0.5186793
-0.92387086 -0.80238676 -0.73210686 -0.039852984 -0.0035494608 -0.91244495 -0.84322363 -0.052826595
-0.738101 -0.8736636 -0.94535977 -0.8273597 -0.12616283 -0.6578408 -1.0411637 -0.1942834
-0.7195014 -0.40980867 -0.4303408 -0.379554 -0.22824906 -0.52873844 -0.3066513 -0.21149948
-0.012836206 -0.61466765 -0.49837995 -0.27455133 -0.6333626 -0.8123132 -0.53453004 -0.4215751
-0.14363717 -0.47786424 -0.10529251 -0.68844545 0.056884684 -0.6941492 -0.78197294 -0.31244943
-0.01927651 -0.34779677 -0.62582874 -0.61465627 0.43419042 -0.28096694 -0.9127022 -0.48586297
-0.4789788 -0.37929815 0.2907646 -0.30386427 -0.32219678 -0.07895294 -0.45627442 -0.27928787

model.model.2.weight f4 [256]
00000000: 9ee0 5f3f 7cb9 5e3f 7154 493f d5f1 3a3f
00000010: 7d4b a13e 8c78 013f 0642 363f c434 643f
00000020: 2699 693f 40a5 433f 1312 f43e ee3b 383f
00000030: bc00 003f f938 4a3f e9ea 2d3f ac01 633f
00000040: 25e1 3f3f 3560 343f c6d2 6d3f cd59 693f
00000050: e0bf 543f 706f 683f ebe7 0d3f 9d11 513f
00000060: 1011 433f 2b8e 823f f309 583f 9a21 573f
00000070: 2433 483f 47fb 733f 6404 233f 5fa2 363f
00000080: 15bd 633f 8180 533f a870 8b3f 1a7e 323f
00000090: 57a1 5d3f 0090 893f aead 4e3f ac6a b93f
000000a0: c351 863f 150a 5d3f 642d 293f b09d 353f
000000b0: 6f23 9d3f 77ea 383f 8dd5 653f c9d4 343f
000000c0: 7607 5a3f 746d 283f b96a 653f 1d3d 5b3f
000000d0: 9179 083f 11a5 283f a924 553f 7b65 533f
000000e0: e381 683f c700 6c3f f839 733f 9809 683f
000000f0: 853d 4e3f 4e5c 8a3f 716c 263f 3cc1 823f
00000100: 1292 133f c58a 3d3f 660d e63e da34 653f
00000110: ecda 363f 1b89 7a3f 4f4d 123f 7b44 403f
00000120: 1ba0 323f 564c 903f c814 4f3f 7d47 953f
00000130: 0a7b 393f 2863 843f 0d07 253f df47 103f
00000140: 9f60 3f3f 7ffa 363f 8a2b a73f 443d 243f
00000150: f3d0 153f c0c1 7f3f f536 473f 3f40 333f
00000160: f22f 2c3f 3ccc 583f b3d0 3a3f 042b 0d3f
00000170: 970d 203f 2502 813f b8d1 6a3f 5038 373f
00000180: d644 3a3f f370 733f 3e3d 603f b126 453f
00000190: 5004 873f 264d 363f 122c 603f b67c 383f
000001a0: 83c1 4e3f dda2 843f d16c 513f 61f1 1a3f
000001b0: 4964 1c3f f8ce 733f 16ff 493f 0e49 103f
000001c0: 0a70 f43e 287b 0d3f b73e 6f3f 45ac 283f
000001d0: 3b83 5b3f c5cc 263f caab 0b3f 5d57 0a3f
000001e0: 7a5f 563f dd23 133f e037 423f 3773 363f
000001f0: 4ef6 323f 04d6 333f 5214 3c3f 421e f93e
00000200: 3b81 af3f 65b6 4f3f a7d4 513f 3b42 513f
00000210: 8e69 553f 14fb 613f bcb5 243f 1915 473f
00000220: 6e9f 1e3f d307 263f 475f 473f a4d2 6a3f
00000230: 077b 0f3f 3008 6d3f 73c0 723f c3db 2e3f
00000240: 207b 413f 2fc8 463f 4800 6c3f 7f08 4e3f
00000250: 8c8d 5c3f e0bd 463f 4c3f 843f e335 313f
00000260: b845 433f 8edd 753f d0d7 4a3f b021 a03f
00000270: 8c76 2c3f aee0 263f 5d36 463f e9a8 2e3f
00000280: 8e47 353f 03c5 873f 3cde 913f eb21 463f
00000290: 1642 4d3f 3e2e 2b3f c0f0 6c3f 0332 483f
000002a0: 6fbe 213f 7a06 2f3f e2df 713f 04ac 473f
000002b0: 9c47 423f 6445 4d3f f7b9 343f 94f1 5f3f
000002c0: 0868 af3f 771c 573f a945 493f a6ec 6c3f
000002d0: 8e7b 793f 4757 4b3f f2cc 513f 3ed8 883f
000002e0: 0ae8 643f 3eb1 713f 4a54 303f 5c73 253f
000002f0: 2f98 3b3f dec0 233f 3f89 263f 2b69 2f3f
00000300: de57 5c3f 6887 4a3f 4e19 713f 427c 4c3f
00000310: a42f 313f b591 513f a769 943f bd18 203f
00000320: 88e5 4e3f 32f5 7e3f 67a9 473f f8b3 0a3f
00000330: d9aa c83e 6e45 833f adc5 8c3f 3200 2a3f
00000340: 19a3 4e3f c15d 793f 68d4 853f 85de 5c3f
00000350: 5656 623f 05ba 4e3f d92c 7d3f c25a 343f
00000360: 9e75 613f b069 1d3f 9f3f 563f 93d1 463f
00000370: 470b 613f 6199 693f f20b 273f 2c98 6a3f
00000380: 64e2 353f d61a 0d3f e69e 6a3f 29e3 063f
00000390: 3c14 653f cf43 3f3f 4973 123f 43a2 523f
000003a0: ab63 3e3f cf2f 533f 2059 463f 9ed2 6a3f
000003b0: d6b5 643f 9df1 573f 7835 873f 5637 283f
000003c0: c726 153f 062f 4e3f 5536 473f 6051 4f3f
000003d0: 056e 483f 8e79 283f ec72 0e3f 949a 4a3f
000003e0: 289d 473f dafe 333f a961 453f 2797 403f
000003f0: 2690 593f f4d1 3c3f 9949 213f 2788 493f
0.87452114 0.87001777 0.7864447 0.73025256 0.31502905 0.50574565 0.71194494 0.89143014
0.9124931 0.76424026 0.4767004 0.71966445 0.5000112 0.78993183 0.6793657 0.88674426
0.7495292 0.704593 0.9289974 0.9115265 0.8310528 0.9079504 0.55432004 0.816675
0.7619791 1.0199636 0.8439018 0.84035647 0.78203034 0.95305294 0.63678575 0.7134151
0.8896039 0.82617956 1.0893755 0.69723666 0.8657431 1.074707 0.80733764 1.4485679
1.0493702 0.8634351 0.66084886 0.7094374 1.2276438 0.72232765 0.8977898 0.70637184
0.85167634 0.6579201 0.8961597 0.85640126 0.53310496 0.6587687 0.83259064 0.8257672
0.9082319 0.92188686 0.9501033 0.9063964 0.8056262 1.0809419 0.6500922 1.021522
0.5764476 0.7403987 0.44932097 0.8953377 0.714278 0.97865456 0.57149214 0.7510449
0.6977555 1.1273296 0.80891085 1.1662441 0.7245337 1.034276 0.64463884 0.56359667
0.7475681 0.71475977 1.3060162 0.64155984 0.58521956 0.99905014 0.7781823 0.70019907
0.6726066 0.84686637 0.729747 0.5514376 0.62520736 1.007878 0.91726255 0.715703
0.72761285 0.9509422 0.8759345 0.77012163 1.0548191 0.7121147 0.87567246 0.72065294
0.80764025 1.0362202 0.81806666 0.60524565 0.61090523 0.95237684 0.78904855 0.5636147
0.4774173 0.55266047 0.9345507 0.6588786 0.85747117 0.65156204 0.54559004 0.54039556
0.83739436 0.574766 0.7586651 0.71269554 0.6990708 0.70248437 0.73468506 0.48655897
1.3711313 0.81137687 0.81965107 0.81741685 0.8336419 0.8827374 0.64339805 0.7776657
0.6196202 0.6485569 0.77879757 0.9172766 0.560471 0.9259062 0.94824904 0.6830408
0.755785 0.77649206 0.9218793 0.80481714 0.86153483 0.77633476 1.0331817 0.6922285
0.7627826 0.9604119 0.79235554 1.2510281 0.6736839 0.65186584 0.774267 0.68226486
0.7081231 1.0606998 1.1395946 0.77395505 0.80178964 0.66867435 0.92554855 0.7820131
0.63181204 0.6836926 0.94482243 0.7799685 0.7589052 0.80184007 0.7059626 0.87477994
1.3703623 0.8402781 0.7862192 0.92548597 0.97454154 0.7943005 0.81953347 1.0690992
0.89416564 0.94411075 0.68878615 0.6462915 0.7327909 0.63966167 0.6505317 0.6851985
0.86071575 0.79112864 0.94179237 0.798771 0.6921332 0.81862956 1.1594743 0.6253775
0.80818987 0.9959289 0.7799286 0.5418086 0.39192846 1.0255563 1.0997826 0.6640655
0.8071762 0.9740868 1.0455446 0.8627704 0.8841299 0.80752593 0.9889656 0.70450985
0.88070095 0.6148939 0.8369083 0.77663535 0.8790783 0.9124966 0.652526 0.91638446
0.7104857 0.55119073 0.9164871 0.5269037 0.89484 0.7471284 0.5720716 0.8227884
0.7437083 0.82494825 0.77479744 0.91727626 0.8933996 0.8435305 1.0563192 0.65709436
0.58262295 0.805405 0.7781728 0.80983543 0.78292876 0.6581048 0.55644107 0.7914212
0.77974176 0.7031075 0.7710214 0.7523064 0.8498558 0.73757863 0.63002926 0.78723377

model.model.2.bias f4 [256]
00000000: 2ac7 bc3d 250b cd3c deba ce3e 22c1 20be
00000010: eced 9dbd 729f 8dbd 5fcc e03c 514d 783c
00000020: c629 4cbd 4f68 85be 1291 a7be 6a53 22be
00000030: 20cb a63e 9cc5 7d3e acc3 58be 094e 6e3d
00000040: 3fc7 32be 330b d93d 96bb 24be ddc8 b33d
00000050: 22a1 fb3e 46e3 a73c 8333 f5bd ed42 5c3e
00000060: 1414 4e3e f982 d23e 9dae 9d3d b19b 333e
00000070: 7b3c f43e 3c47 7d3e 01ef 34be e8b5 1cbe
00000080: 3c0d 2c3e c379 823d d789 2a3e 1f3a ef3e
00000090: 62aa cc3d 7452 6b3d 1354 cfbc ab94 823e
000000a0: b545 3dbd e18d 163e 695b 13be b1f6 2fbd
000000b0: 132d 013e 1d83 3ebd 66ac b13d 8087 cd3d
000000c0: 7b0c d9bd 511b c93d 3cff 893e 8f69 b13e
000000d0: 4bea 57be 438c 0bbd c3d2 9e3d 94a0 f4bd
000000e0: befb d93d 2e0a b93d bd03 c33e 0a89 543e
000000f0: e5db 153d 1cf5 9abd 1ebb 9b3e 42b4 6f3e
00000100: eca2 7fbe cc33 0a3e ffee cebd a13b 7fbd
00000110: 9f0b b63e c1f7 e43e b627 0b3e 3e52 193e
00000120: a143 96bd 9aab 9e3e 7323 023e 7e40 9b3e
00000130: 0a7c 333d 1c9b bfbc 8fbe 05be 6edc 3e3e
00000140: 771e 5d3e c3e2 8e3d 86c8 213e e5a6 5ebe
00000150: 5937 5e3e fe2c 833d bdc1 6a3b cd82 23be
00000160: 8beb 223e 9215 62bd 3879 433e 5bb6 c9bd
00000170: 8ebe 5b3d 05dd b73e f39b ad3e 9c7d 643d
00000180: a5d6 1bbe 6435 513e 7e21 7d3e d88d 0dbf
00000190: 466a 0a3e 5e05 773e c6f0 4c3e d91e 3ebe
000001a0: eb1c 8f3e 0288 7a3e 3de9 81bd b406 293e
000001b0: 76bb 973d d506 55bd a8a8 aabc b63b b9be
000001c0: e13b adbe 86ad 43be fab2 133e 0305 36be
000001d0: 6d4b 043d 519f 71be d2a8 b0be 97bb 1dbe
000001e0: c637 a8ba 179d fc3e c627 ab3e bf01 c53e
000001f0: f209 0e3e 669a 15be ed0c b43e d317 0c3f
00000200: 627c d13e 1f0c d43e a9b3 6ebe 7913 eb3d
00000210: ffff f5bd d84b a93e 01c7 243e 18c0 a13e
00000220: c3d4 c5bd d364 a63b f6ee ac3d fcc3 913d
00000230: cad6 cb3e 33d0 2b3e fd99 353d 6566 863e
00000240: dfdb 483e 6405 27be 9652 dabd 0feb 703e
00000250: da8f 1f3e d108 c33d 0a14 6b3e abb9 23be
00000260: 3824 393d 99c6 593e faaf 7d3e 66f6 973c
00000270: 026f f33d 16a6 83be 11ff cebc 7309 fc3b
00000280: 6884 11be 4cb6 4f3e e230 5bbe 91bd 923e
00000290: 8cea 253d 6f20 8c3d e866 c03e 665f 26be
000002a0: 8fff a3be ac02 e1bd 19c3 c13d adc4 8e3d
000002b0: 63df 6f3e 4bd8 613e 11bb cdbe a02d 363e
000002c0: 5930 383e 8b32 c83d 5c71 2ebe 5770 5d3e
000002d0: e2b5 a93e 39e0 dcbd 8cab 9f3e f1a5 ecbd
000002e0: 0e3a 0cbd ee1a 33be c2af 093d d33a 4bbd
000002f0: cc68 4a3e 7c11 a83e 53d3 aa3e 35e3 45be
00000300: 7bd0 24be e2dd bb3d 11f7 29be a162 253d
00000310: 3174 903e 07db 52be 5cea 6a3d eacc a1bc
00000320: f9db b6bd 56ec c83e e584 0a3e 1588 89be
00000330: 41b5 c3be 7225 8d3a 12f7 913c 1ab1 c0bd
00000340: ccd7 153e c64c 3b3e 286c 433e 3dd6 08be
00000350: 8ae3 013e 4b2e 54be f956 8b3e 0921 dabe
00000360: f5ee 2e3e 7f3c 523d 3cf3 4a3d ce39 58be
00000370: 0b1f b53d 1865 47bd fba8 1ebe e0d9 a13e
00000380: 0286 3bbe 53f1 b5be 95b1 963e 2a98 91bd
00000390: 4f0c 133e 444d 92be 13ee 06be 9a5c 7abe
000003a0: b51a cbbd 3e40 2abd 69f8 313e e6af d4bd
000003b0: f240 583e 4b3b 0c3e 7b51 96bc e8ab 5fbe
000003c0: ad76 bcbd 9084 243d a510 cf3d 053a 3b3c
000003d0: 2a6d f63d 2c2b 10be c756 25be efff 503e
000003e0: 08c8 193f 583c 4ebb 9251 893e 28f3 cabe
000003f0: 4d06 243d d078 93bd c5bc bfbe 8ff8 a13d
0.09217675 0.025029728 0.40376943 -0.15698674 -0.077113956 -0.069151774 0.027441202 0.015155152
-0.049844526 -0.26056144 -0.32727867 -0.15852132 0.32576847 0.24782413 -0.21168393 0.05817989
-0.17458819 0.10597839 -0.16087183 0.08778546 0.49146372 0.020494115 -0.11972716 0.21509905
0.20124847 0.4111555 0.076993205 0.1753986 0.47702393 0.24734205 -0.17669298 -0.15303767
0.16801924 0.063708805 0.16654144 0.4672403 0.099934354 0.05745168 -0.025308644 0.2550405
-0.046209056 0.1470256 -0.14390339 -0.042959873 0.1261485 -0.046511758 0.086754605 0.1003561
-0.105980836 0.09819663 0.2695254 0.34650847 -0.2108547 -0.03406931 0.07755043 -0.1194469
0.10643719 0.09035145 0.3808879 0.20755401 0.03658666 -0.07566282 0.30416197 0.23408607
-0.24964494 0.13496321 -0.10104179 -0.062312726 0.3555574 0.4472027 0.13589367 0.14972779
-0.07337118 0.30990297 0.12708835 0.3032264 0.043819465 -0.023389392 -0.13060974 0.18638775
0.21593653 0.06976845 0.1579915 -0.21743353 0.21700801 0.06405066 0.0035821043 -0.15967865
0.15910165 -0.055196352 0.1908921 -0.09849235 0.053648524 0.35910812 0.33908042 0.055783853
-0.15218599 0.20430523 0.24719808 -0.5529456 0.13517103 0.24123141 0.20013723 -0.18566455
0.2795175 0.24465945 -0.06343315 0.16506463 0.07408802 -0.05200847 -0.020832375 -0.36178368
-0.33834746 -0.19109163 0.14423743 -0.1777535 0.032298494 -0.2359593 -0.345038 -0.15403591
-0.0012834005 0.493386 0.33428782 0.38477895 0.13870981 -0.1460968 0.35166112 0.5472385
0.4091521 0.41415498 -0.23310722 0.114783235 -0.12011718 0.33065677 0.16091539 0.31591868
-0.09659722 0.005077937 0.08444016 0.07117459 0.3981231 0.1677864 0.044336308 0.26249996
0.19615124 -0.1631065 -0.10660283 0.23527168 0.15582219 0.09523166 0.22956863 -0.15988795
0.045200557 0.21267165 0.24774161 0.01855011 0.118864074 -0.2571265 -0.02526811 0.007691556
-0.14210665 0.20284384 -0.21405366 0.28660253 0.040506884 0.06842124 0.3757851 -0.16247329
-0.32030913 -0.10986838 0.0946104 0.06971107 0.23425059 0.22055165 -0.40181783 0.17790842
0.17987193 0.09775265 -0.1703543 0.21624885 0.33146578 -0.107849546 0.31185567 -0.11555088
-0.034235053 -0.17490742 0.03361488 -0.049616646 0.1976654 0.3282584 0.33364353 -0.19324954
-0.16095154 0.0917318 -0.16598155 0.040377263 0.28213647 -0.20591365 0.05735241 -0.019751031
-0.08928675 0.3924281 0.13527258 -0.26861635 -0.38224223 0.0010768606 0.017818008 -0.094087794
0.14633101 0.18291005 0.19084227 -0.13362975 0.12684456 -0.20720784 0.27214792 -0.4260333
0.17083342 0.051327225 0.049548373 -0.211158 0.088438116 -0.048680395 -0.15494148 0.31611538
-0.18312839 -0.35535678 0.2943236 -0.07109101 0.14360164 -0.28574574 -0.13176756 -0.24449387
-0.09917203 -0.041565172 0.17379917 -0.103851125 0.21118525 0.13694493 -0.0183494 -0.21842921
-0.09202323 0.040165484 0.101105966 0.011427407 0.1203254 -0.14078969 -0.16146384 0.20410131
0.6007085 -0.0031469073 0.26820046 -0.39638638 0.04004507 -0.072007775 -0.37448707 0.07908737

model.model.2.running_mean f4 [256]
00000000: 3aa0 f6bd cf26 e6bd 0eb4 4ebe 7d38 16be
00000010: ed4a 983e b2e8 433f f68f 30be c54e 7bbe
00000020: 1d55 40be 9885 99b9 71eb 283e c096 ac3b
00000030: 0cc4 6c3d bac8 53be ea2b bebd b191 31bd
00000040: b6f1 66be 3730 55bd 91c2 88be 4238 83be
00000050: c39d dbbd 54f0 60be cda0 b63e 91c0 da3c
00000060: 054c 85be 7d01 1a3e 2dc9 72be fa72 46be
00000070: d5b9 fabd 552e 45be 593d 08be 1cd9 07be
00000080: f7a9 f7bd 8a56 eabd 0991 74be c807 97bd
00000090: c6b0 6cbe d621 13be 68f3 92bd cd9e 80be
000000a0: a1a5 84be 0e46 7dbe a669 1dbe fb85 bebd
000000b0: a65a 573d e58c 09be b06d 35be 0cf9 35be
000000c0: 5c38 c5bd 093b c6bd eeb4 50be 249e 55be
000000d0: 7ea8 82bc bdd8 b7bd a2e6 37be f744 46be
000000e0: d3d5 81be 187b 6dbe 114e 89be f6ad 14be
000000f0: 2d90 79be b85c 85be 6f48 04be 8481 93be
00000100: dc79 36be 5bea d53d a9c8 9f3d 8cbf 77be
00000110: c4d9 13be 5740 80be 010b ce3d 4c91 a7bc
00000120: 3989 a9bd f5c9 7cbe 540d d43b f25f 7cbe
00000130: 5bdc 2bbe a7c3 393e ec36 bbbc 9843 a63d
00000140: cab4 103c 245f c9bd 993e 8dbe 05f4 bbbd
00000150: 573c a33e 4f8d 8abe 8932 60be dce1 173d
00000160: cd79 003c 2431 e2bd 4daf 65be 0a7a 4f3d
00000170: 4b2d a3bd 6800 72be d258 1abe ea3f 72bd
00000180: a454 b8bd 57d4 e3bc 5a69 89be d3cc f9bc
00000190: 5bab 3f3e 8a2b 97bd 9937 41be a479 1cbd
000001a0: 99bb c23e 557d fa3c 2826 523a 869f 703a
000001b0: 2330 c2bd 6bd1 85be 4424 2cbe 36d7 a43e
000001c0: 73c0 eb3d 72d5 253e 5754 75be 9e28 87be
000001d0: ccd1 41be c796 d03d eb5d e1bd 8266 443e
000001e0: 104e 99bd aaf2 033d e727 52be 4aa7 f33e
000001f0: 88f0 b5bd 81eb 13bd 297c 04be d042 dabd
00000200: 9665 2bbe 7089 49be 91a3 5cbe 2213 fbbd
00000210: 3cb6 90be 2bb1 a7bd b4a7 83be d1ff 18be
00000220: c6a4 49be 57d3 5cbd cf2c 41bd c1dc 57be
00000230: 535f 643d 0f4b 88be a609 83be b27d 6fbd
00000240: 2260 71be 4a9c 2a3e ff54 82be 9418 c93c
00000250: 1c96 dcbd a68e 3cbc 10ce 4b3d e4f2 133e
00000260: 00ff 5239 54b4 5ebe 5cc1 6bbe d043 87be
00000270: 3407 80bd dda9 963d 5c13 1e3e 99db d6bc
00000280: 36ae 583e 49dd 88be 3ca6 83be 8c95 26be
00000290: c781 06bd dfd1 79be ce35 75bc 5222 97bd
000002a0: 7b32 51be 6059 04bd 3b0d 68bd 6421 30be
000002b0: 679d d9bd d2d3 84be c8bb 3a3e b170 873c
000002c0: f28f 86be 731d 4c3c 437a 90be b933 80be
000002d0: 4657 3fbe a7a5 edbd 435e 6cbe 98cb 7cbe
000002e0: ed55 e7bd 44f5 81be baaf 44be 2f91 eb3c
000002f0: 42e3 3abe 2c66 9dbd c090 a63d 7991 78be
00000300: 3b00 e8bd 4a1f 953d ac95 52be 28da 47be
00000310: cd8a 223d 424a 2f3d 56e3 8abe 01c1 0cbe
00000320: 299e 85be 27d0 7bbe 3a8c 31be a72f d53d
00000330: b89e 943e 7c90 8fbe abd4 54be 5426 2f3e
00000340: 43c9 82be f17d 8abe 878b 89be 58da fbbd
00000350: f4d5 353a 872f 3fbe c6f8 8ebe d01f c83d
00000360: 9e9e 7ebe 0aa0 ddbd 1061 44ba 6429 8bbc
00000370: d226 f2bd 365f 5fbe a549 083d 72c4 233e
00000380: 297d 0f3d 73ee 30be aef9 0ebe bfe5 47bd
00000390: 74d0 3cbe 54b8 84be c063 4dbe 453f f7bd
000003a0: efad 0ebd 18e6 0fbe 31d8 213d df30 bcbd
000003b0: 3073 1e3e a28f 76be d2ef 92be d65f b1bd
000003c0: e355 7bbc 29db 903b bbcb 59be a373 18bd
000003d0: d1f0 b83e 5525 cd3e e52b 37be 2872 0abe
000003e0: b685 33be b054 97bc 0fda 883e d8de 81bd
000003f0: 8c1f 1cbd f23e 353d caf5 52bd ce0a c6bd
-0.120422795 -0.11237871 -0.20185873 -0.14669986 0.29744664 0.7652694 -0.17242417 -0.24541767
-0.18782468 -0.0002928197 0.16496064 0.0052669942 0.057804152 -0.2068204 -0.0928572 -0.043351833
-0.22553143 -0.052047934 -0.26710942 -0.2562886 -0.1072345 -0.21966678 0.35669556 0.026703151
-0.2603456 0.1503963 -0.23709555 -0.19379798 -0.12242476 -0.19255956 -0.13304652 -0.13266414
-0.12092965 -0.11442287 -0.23883452 -0.07374531 -0.23114309 -0.14368376 -0.07175332 -0.25121155
-0.25907615 -0.24733755 -0.15372333 -0.093028985 0.052576683 -0.13432653 -0.17717624 -0.17770785
-0.0962989 -0.09679229 -0.20381519 -0.20861107 -0.015949484 -0.089768864 -0.17959073 -0.19362246
-0.25358447 -0.23191488 -0.26817372 -0.14519486 -0.24371405 -0.260473 -0.12918256 -0.2880975
-0.17819923 0.104450904 0.07801945 -0.24194163 -0.1443854 -0.25049087 0.100606926 -0.020455025
-0.08278126 -0.24686415 0.0064713154 -0.24645975 -0.16783278 0.18141042 -0.022853337 0.08118361
0.008832166 -0.098326 -0.2758682 -0.091774024 0.31881973 -0.27060935 -0.21894278 0.03708063
0.00784154 -0.11044529 -0.22430153 0.050653495 -0.07967623 -0.23632967 -0.15072945 -0.059142984
-0.09000519 -0.027811212 -0.2683819 -0.030493176 0.1871771 -0.07381351 -0.18868865 -0.038201943
0.3803375 0.030577341 0.000801655 0.0009179044 -0.094818376 -0.26136336 -0.16810709 0.32195443
0.11511316 0.16194704 -0.23957954 -0.26398176 -0.18927687 0.101850085 -0.110042416 0.19179729
-0.07485592 0.032213844 -0.20523034 0.4758857 -0.08883768 -0.036113266 -0.12937988 -0.10657275
-0.1673797 -0.19681334 -0.2154677 -0.12259509 -0.28264034 -0.08188089 -0.25713885 -0.14941336
-0.19691762 -0.053912487 -0.047161873 -0.21080305 0.05575497 -0.26619765 -0.255933 -0.05846948
-0.23571828 0.16661182 -0.25455472 0.024547853 -0.107708186 -0.011508619 0.049757063 0.14448124
0.00020122156 -0.21748477 -0.2302298 -0.26418924 -0.06251374 0.073566176 0.15437073 -0.02622776
0.21160206 -0.26731327 -0.25712764 -0.16267985 -0.03283861 -0.24396466 -0.014966441 -0.07379593
-0.20429413 -0.032311797 -0.056653243 -0.17200238 -0.10625725 -0.25942856 0.18235695 0.016533228
-0.26281697 0.012458193 -0.28218278 -0.2503946 -0.18685636 -0.11603861 -0.23082833 -0.2468704
-0.11295686 -0.25382435 -0.1920766 0.028755752 -0.18250754 -0.07685503 0.081330776 -0.24274243
-0.11328169 0.072813585 -0.20564908 -0.19516814 0.039683152 0.042795427 -0.2712657 -0.137455
-0.2609723 -0.24591123 -0.17338648 0.104094796 0.29027343 -0.2803992 -0.20784251 0.17104465
-0.25544176 -0.2704921 -0.26864263 -0.12297505 0.00069364836 -0.18670474 -0.27924174 0.09771693
-0.24865195 -0.10821541 -0.000749127 -0.01698751 -0.11823811 -0.21813664 0.033273358 0.15992907
0.03503147 -0.17278461 -0.13962433 -0.048803087 -0.18438894 -0.2592188 -0.20057583 -0.120726146
-0.034833845 -0.14052618 0.039512817 -0.09189009 0.15473628 -0.24078229 -0.28698593 -0.086608574
-0.015340301 0.004420657 -0.21269123 -0.037219655 0.36121228 0.40067545 -0.17887838 -0.1352011
-0.17531475 -0.018473 0.26728866 -0.06341332 -0.038116023 0.044249482 -0.051503934 -0.096700296

model.model.2.running_var f4 [256]
00000000: be6d 923d fa03 8c3d 6d7c fe3c c5ca bf3c
00000010: 0d7b 0f3e 0230 e73f 2979 213d 17d1 353c
00000020: dca2 853c 5588 fe3c de10 db3d fb0a e53d
00000030: a20e 383e 3821 d43c b5fe 0e3d 67a8 c93d
00000040: a9ec 573c 40dc 863d 6142 9f3b 251c 0f3c
00000050: c063 c53d eda3 573c 6e4c 383f 55ea d93d
00000060: 7644 8b3b aca7 6c3e dfd3 0d3c 10a4 0d3d
00000070: 4c65 8a3d 4f79 113d 325a a53d 6697 103d
00000080: cc13 643d 9f83 c43d 35ad ef3b be58 523d
00000090: 4f04 6f3c 3b8e 963d 3faf 863c 0ef6 063c
000000a0: 131a 7c3b 81bc 393c 2f11 f93c 740f 803d
000000b0: f96a b23e cb11 3e3d c843 0a3d 7008 403d
000000c0: 0fe2 c23d d0ef c23d 4a79 c73c 6f75 8e3c
000000d0: 35b0 cd3d aa07 c93d 7780 093d ba89 733c
000000e0: 14cb bd3b 1865 b63b 9cc9 993b 6039 523d
000000f0: fee6 5a3c f6d2 f43a 467e b53d 81cc 5a3a
00000100: a585 153d e15b f53c 7602 483e aa5b 303c
00000110: 91c1 953d ac4a 423c a9f3 db3d 9fff 693d
00000120: 590c 7a3d 9eab 163c 1f72 883d a9bf e93b
00000130: 9d60 353d 577a fe3e 238a bb3d 76ee 0f3e
00000140: d80a 183e 4610 6d3d 4699 c03a ed86 1b3d
00000150: c5c7 0a3f 7c72 823b ac5d 723c a670 443e
00000160: 6ee2 db3d 15cd c03d e4af 643c 6b2f 203e
00000170: 5e71 803d 603f 623c d94e 5f3d 3564 e53c
00000180: f6fb 953d c6da c23d 2451 603b 17c9 a53d
00000190: 2db1 043f 90f6 6d3d 58b0 323d d9ce 663d
000001a0: b93a 903d f6ac 523e 3464 113e 58cc e73d
000001b0: 39ae 5d3d 5b4c 503b 17c1 093d 9aa7 4f3f
000001c0: 1780 8c3e 439e 093e 53ea 4d3c b0ff bb3b
000001d0: 6d60 c43c 8bc3 9f3e 26f0 ac3d 2d97 4d3e
000001e0: 3192 b63c b60a a93d 540c fc3b f8b6 533d
000001f0: 3d55 a63d 5982 8a3d 2826 453d 7b3e 923d
00000200: 12b4 863d 2bdd 0d3d b351 813c 7e21 953d
00000210: c746 b33a e3a3 6b3d 1fbf c83b f7a6 293d
00000220: 5e2e d73c d3a4 393d 09ac b23d 37ea 953c
00000230: 9929 1b3e f8a5 793b 6497 d73b 90b6 cf3d
00000240: 8eb4 393c 7fe6 b13e b32e a23b 83d6 d83d
00000250: 2c0c ce3c 3750 0c3e 38f5 203e 0a63 9f3e
00000260: f83c 303d e2f2 973c 7daf 3a3c d78d 103b
00000270: 9a73 b53d c030 c33d 0adb 4a3d 9c01 d53d
00000280: 35a2 f93e 3923 a03b 27da 873b b503 5b3d
00000290: 623d 463d a415 0f3c 10a7 083e 693b 353d
000002a0: c53f c03c 7766 8c3d 0dfa ad3d 7f32 2e3d
000002b0: 3ccb a53d ae71 b13b 2d12 293e 892f 293e
000002c0: 9a73 5b3b 7c50 183e 9937 d93a 4584 0c3c
000002d0: f853 503d ffab bc3d c03e 9a3c 4914 b83b
000002e0: cec8 843d c9dc c63b 25e9 be3c 373c 963d
000002f0: bdf6 573c c778 b53c 6d0b d73c 982f 023c
00000300: 6a05 823d 786b 063d 37d0 be3c e559 883c
00000310: 93c3 b43d 06ab 9b3d 46af 113b 0dc4 303d
00000320: 037e 453b e9f0 4a3c d98a 3e3d 40e3 be3d
00000330: 4b37 113f 2ec5 963a 9a57 c63c edcc 2c3e
00000340: 0d75 cd3b 73a1 2b3b 59ce 6e3b d30a a83d
00000350: 2d53 893d bf2a c73c 5e9f 9a3a fc52 b03d
00000360: 2004 1a3c 1470 813d 9a31 373e 8d66 763d
00000370: fb2a 243d 46f0 c43b 7959 163e dce1 b33e
00000380: 05ef 283d 09f6 c43c a301 bb3d b235 2e3e
00000390: f72b 093d e9f3 de3b 1d56 b73c b1a2 0b3d
000003a0: a842 743d 6b2f 3b3d 2b6f 0a3e 85dd bb3d
000003b0: 6db5 2a3d 44a6 803c 795e 483a 1fd3 593d
000003c0: 284f b03d 7fa8 f63d 72a2 713c b1bc 073e
000003d0: c988 3e3d 9515 723f 7fba 043d 2d74 4a3d
000003e0: 3cb7 363d 79fc d03d b98e bf3c d40c 063d
000003f0: 1c3e d03d 91ca 663d 3d1e c23d a0dc d43c
0.07149838 0.06836696 0.03106519 0.023412118 0.14011784 1.8061526 0.039422188 0.011097214
0.016313009 0.031070868 0.106965765 0.11183735 0.17974332 0.025894746 0.034910876 0.09846573
0.013178983 0.06584978 0.004860208 0.0087347375 0.096381664 0.013161642 0.7199162 0.106403984
0.0042501045 0.23110837 0.008656471 0.03458029 0.06757602 0.03551608 0.08073844 0.035300635
0.055682942 0.09595417 0.007314349 0.051354162 0.01458843 0.07351347 0.016440986 0.008237375
0.003846769 0.011336447 0.030403702 0.062529474 0.3484724 0.046403687 0.033756047 0.046883047
0.095157735 0.09518397 0.024349827 0.017389981 0.100433744 0.09815915 0.03356978 0.01486438
0.005792031 0.0055662505 0.004693223 0.05132425 0.013360737 0.0018678594 0.08861975 0.00083465135
0.036504406 0.029951038 0.19532189 0.010764042 0.073123105 0.0118586235 0.10739834 0.057128545
0.061046932 0.00919619 0.06662392 0.0071334434 0.04428159 0.49702713 0.09157207 0.1405581
0.14847887 0.057876848 0.0014694117 0.037970472 0.54211074 0.0039809328 0.014792841 0.19183597
0.107365474 0.09414116 0.013957951 0.15643089 0.06271623 0.013809055 0.054518554 0.028001884
0.07323448 0.09514384 0.003422805 0.080949955 0.5183285 0.05809647 0.043625206 0.05634961
0.070424505 0.20573792 0.1419838 0.11318272 0.05412123 0.0031783793 0.03363141 0.81115115
0.27441475 0.13439278 0.012568074 0.0057372674 0.02397176 0.31203875 0.08444242 0.200772
0.022286506 0.08253996 0.0076918993 0.051688164 0.08121727 0.06763143 0.04813209 0.071408235
0.065773144 0.03463475 0.015786028 0.07281779 0.001367771 0.05752934 0.006126299 0.041418996
0.026267227 0.045323204 0.08724219 0.018300159 0.15152587 0.003809331 0.0065793265 0.10142243
0.0113345515 0.34746167 0.0049494146 0.1058779 0.025152288 0.13702475 0.15718544 0.31130248
0.043026894 0.018548433 0.011394379 0.00220572 0.0885994 0.09530783 0.0495253 0.104006976
0.48756567 0.0048870114 0.004145879 0.053470332 0.048398383 0.008733187 0.1334498 0.04424611
0.023467908 0.06855481 0.08494959 0.042528626 0.080954045 0.005415163 0.1651084 0.1652204
0.0033485652 0.14874452 0.0016572356 0.008576457 0.05086133 0.09212493 0.01882875 0.0056176526
0.06483613 0.0060688 0.023304531 0.07335704 0.013181386 0.022152318 0.026250565 0.007945918
0.06348689 0.032817334 0.023292644 0.016644428 0.08826365 0.076009795 0.0022229715 0.04315572
0.0030134923 0.012386539 0.046519134 0.09320688 0.56724995 0.0011502856 0.024211694 0.16875048
0.006270057 0.002618876 0.003643891 0.082051896 0.06705318 0.024312375 0.0011796763 0.08609578
0.009400398 0.06320205 0.17890015 0.060156394 0.040080052 0.006010088 0.14682569 0.35133255
0.04124357 0.0240431 0.091311716 0.1701267 0.033489194 0.0068039787 0.02237993 0.0340907
0.05963388 0.04569952 0.1351897 0.09173111 0.041676927 0.015704282 0.0007643472 0.053179856
0.08608848 0.12043857 0.014748203 0.13255574 0.046517167 0.9456418 0.03240442 0.0494272
0.04460834 0.10204405 0.023383485 0.032727078 0.101680964 0.056345526 0.09478424 0.025984108

model.model.4.weight f4 [128, 256]
00000000: 2e72 47be 51b9 0abe 7da4 cabd edb1 493e
00000010: d870 e8bd 39ca 0fbe 0c8c 50bc 58ea 61bd
00000020: 282e 0cbe 0db7 2f3d 2d18 a53d 72b6 293c
00000030: 5c31 dabd 6fc1 3c3c 8eab 0a3e dd53 90be
00000040: 922c d73d 2a27 a33c 2958 c83d 10a8 273d
00000050: e8c9 d7be c332 8dbc 2633 643e 594e 02be
00000060: c25b 8fbd a193 3ebe 6464 2dbd 9ec4 4ebe
00000070: 8365 83be eade 1bbe 285b 033e 60d2 41bd
00000080: 4f35 34be 9501 cabb 7434 07be 7c6a c9bd
00000090: a7e1 403d ea4d 883d d641 d8bb ab6a 8dbe
000000a0: 3c45 b0bd 6aa4 2abe 76e3 b43c 9a40 ad3d
000000b0: 14ee 05bd ded8 a53c 68d4 d8bd 70c6 13be
000000c0: 4832 133e 96fd 67be 37b3 47be b44c fdb8
000000d0: e0eb 84bc efd2 993d a448 96bc 90c7 6d3d
000000e0: e605 c7bd 6be2 48be 549d 57b9 7bcd fbbd
000000f0: d5fc bfbd 256e 063e fbcf 97bd 37d0 00bd
00000100: d31a e13d 0d96 de3c e644 3b3d 14bb 0cbd
00000110: 96cf d7be d186 7abe f68e 543d 30f8 433d
00000120: d456 383d 4fea d8bd cd30 183b 12a6 37be
00000130: 75d8 d4bd bf6b 42bb 0c12 d4bd e25c bbbc
00000140: ffd5 30be 4408 14be aa5a 15be fdd5 0fbc
00000150: ac27 2fbe b9f3 25be fdd8 a9bd 2f3e 963d
00000160: c914 14be 35fb e6bd bb69 df3d c9bf e3bd
00000170: 9d5c 533d 30a7 46be f1d6 55bd 9ab2 86bd
00000180: 9441 b43d 5bcc adbd c7c2 81be 1216 f13c
00000190: a192 babc 7014 78bd 4983 d1bd 3178 533d
000001a0: 049e 6cbc a0be 51be e684 f4bd c1da 45be
000001b0: 4700 8bbb 676e 02be b128 e8bd 5a12 d83d
000001c0: 4fb7 333e df94 843d d90d ad3c 2e65 313d
000001d0: cd91 05bd 0dc2 90bc fca8 b53b 5068 af3d
000001e0: cf4f c63c 52c2 44bc 5b49 d53b 2948 403d
000001f0: 3f28 2a3d ce53 853c 9c48 33bd 276f 52bd
00000200: 8d35 94be 77ee 29be bbf1 213e 8946 06be
00000210: b385 27be ad04 17bd 4fd8 7d3d 6414 11be
00000220: 832c 903d 9786 21bd 2ff5 ee3d f70f 7abd
00000230: 171e b23b 43ad c63d 274f 95bd 9764 32be
00000240: ccb0 1abe 4888 ee3c bd6b 813d 49e2 0abe
00000250: 45f8 b5bd 9943 72bd 8bc9 65be c801 5fbd
00000260: 1ace 883c a2b7 5dbe ed8f 20be c4b4 583e
00000270: 46eb a7bb d292 263e 8c4a 0d3d 773e 34be
00000280: 9f2b 993d 7bed 2cbe d7d2 6fbc 1abb 73be
00000290: c67b 0f3c 5f7d 75bd 2211 57be 1e0a 9f39
000002a0: bd2e 093d c51b b8bd 52cc 4dbe 419c c43d
000002b0: 11e3 9ebe 1028 8c3d 0f38 203e d0dc e0bc
000002c0: b8c4 e9bd 24d8 c2bd 426e 1d3d 63a2 533d
000002d0: 9458 423c 87d7 52bb 22fb b0be 052d 88bd
000002e0: b8b4 49be f458 483d babd 1e3d 7294 2bbd
000002f0: 3773 e6bd 3820 cd3c 4d1e c33d fcb6 d53b
00000300: edbd c03d ef8a 183d e202 9f3d 5fc3 86bd
00000310: 4acc 02bd 0ba5 0b3e 522f 33be 7dda 75bd
00000320: bf63 1a3e ebca 88be 8772 443d 061f 13bd
00000330: 4694 be3c 9634 233d 9e56 f23d b237 a8bd
00000340: 57b1 f6bc 2e65 d5bc b3c4 bebd dd45 fc3c
00000350: fc2f 593d 7010 0dbd 745d 8bbd 10ee 623e
00000360: e9a6 943d e0db 43bd 34fc 7abc 9296 5c3d
00000370: 8827 973c b34f 723d b051 273d 4230 aebc
00000380: c481 863d 2d15 b03d ece7 04be 701d 42bd
00000390: 4d84 4abe 42a8 0a3e a363 2bbe e757 d43d
000003a0: 0875 40bc 04e8 2fbe 6d5a a4bd e12a 78be
000003b0: 3382 9439 94b0 143e 1c92 fe3d 68e5 123e
000003c0: 2e4f babd 466c 5bbd 9054 413b 9ea8 16be
000003d0: 4e64 ec3d c91d acbd ffb1 d3b9 8d13 d8bd
000003e0: 4f95 22be 8cfa cdbd 6ef0 83be c4b6 253e
000003f0: 88dd 4dbe 6860 513d 124b cebc e7ad 193e
-0.1947715 -0.13547255 -0.09894655 0.1969678 -0.11349648 -0.14041986 -0.012728702 -0.05515513
-0.13689482 0.04289918 0.08061252 0.01035844 -0.10653946 0.011520728 0.13542005 -0.28188983
0.10506548 0.019916136 0.0978244 0.04093176 -0.4214623 -0.01723612 0.22285137 -0.127252
-0.06999923 -0.18611003 -0.042332068 -0.20192191 -0.25663385 -0.15221754 0.12827742 -0.04731977
-0.1759846 -0.0061647394 -0.13203603 -0.098347634 0.0470902 0.06655486 -0.006599645 -0.27620444
-0.086069554 -0.16664281 0.022081118 0.084595874 -0.032697752 0.020245012 -0.10587388 -0.14431167
0.1437465 -0.22655329 -0.19501959 -0.00012078267 -0.016225755 0.075109355 -0.018345185 0.058051646
-0.09717922 -0.19617622 -0.00020562607 -0.12295052 -0.09374396 0.13127954 -0.07412716 -0.03144857
0.109914444 0.02717116 0.045720004 -0.0343581 -0.42150563 -0.24465491 0.05189415 0.047844112
0.04500468 -0.10591566 0.0023222447 -0.17934445 -0.103928484 -0.0029666272 -0.10355005 -0.022871438
-0.17269133 -0.14456278 -0.14585367 -0.008779046 -0.17104977 -0.16206254 -0.0829334 0.07336079
-0.14461054 -0.11278383 0.10908838 -0.111205645 0.051601995 -0.19399714 -0.052206937 -0.06577034
0.088015705 -0.08486243 -0.25343916 0.02942947 -0.022774996 -0.060566366 -0.10230119 0.051628295
-0.014441971 -0.20482874 -0.11939411 -0.19321729 -0.0042419764 -0.12737428 -0.11335886 0.10550375
0.17550395 0.064737074 0.021124767 0.043309383 -0.03260975 -0.017670656 0.005543826 0.08564818
0.024207978 -0.01200922 0.006508989 0.046943817 0.041542288 0.016275313 -0.043770418 -0.051375534
-0.28947106 -0.16594873 0.15814869 -0.13112845 -0.16359596 -0.036869694 0.061973866 -0.14167935
0.0703974 -0.039434996 0.11667859 -0.06105038 0.005435716 0.09701016 -0.07290488 -0.17421184
-0.15106505 0.029117718 0.063193776 -0.13562883 -0.08885244 -0.059146497 -0.22440164 -0.054445058
0.01669984 -0.21652082 -0.15679903 0.21162707 -0.0051244823 0.16266945 0.03449492 -0.17601953
0.07479023 -0.16887467 -0.0146376705 -0.23801842 0.008757537 -0.059934016 -0.2100263 0.0003033438
0.03349184 -0.089896716 -0.20097473 0.096001156 -0.31032613 0.06843579 0.15646385 -0.027449042
-0.11414474 -0.09513882 0.03843523 0.051668536 0.011861939 -0.0032171921 -0.345666 -0.06649212
-0.19697845 0.048912957 0.038755156 -0.041889615 -0.11252444 0.025039777 0.09527264 0.0065220576
0.094112255 0.037241872 0.07764222 -0.06580233 -0.031933106 0.13637178 -0.1749852 -0.06002282
0.15077113 -0.26717314 0.047960784 -0.035918258 0.023264062 0.03984507 0.11832927 -0.08213748
-0.03011386 -0.026049223 -0.09314861 0.030795032 0.053024277 -0.034439504 -0.06804934 0.22161126
0.07258398 -0.04781711 -0.015318919 0.053854533 0.018451467 0.05915804 0.040849388 -0.021263245
0.065677196 0.08597789 -0.12979096 -0.047391355 -0.19777031 0.13540748 -0.16737227 0.103683285
-0.011746652 -0.1717835 -0.0802506 -0.24235107 0.00028325766 0.14520484 0.12430212 0.14345324
-0.090971336 -0.053570054 0.0029499866 -0.1471276 0.11542569 -0.084041186 -0.00040377674 -0.10550604
-0.15877269 -0.10057554 -0.2576937 0.16183001 -0.20104039 0.05111733 -0.02518228 0.15007745

model.model.4.bias f4 [128]
00000000: 9839 a9be dbc4 27be e1bf 62be 705f 93be
00000010: 71f3 a5be 8275 c5be c286 04bf 1955 59be
00000020: e1fd dabe 0b4f 81be 7897 03be 1f19 9dbe
00000030: 9fc7 833d c959 9ebe f49f c2bd 42fe 10be
00000040: 860f a0be 197e 18bf 6df4 f7bd 75a1 95bd
00000050: 0058 d4bd bdb9 c3be 3306 2cbf 8bc4 64be
00000060: 4187 51be bccd ccbe 9cc7 7cbe ed03 5cbe
00000070: 7a6a 01bf 36bb 24be 97d3 8dbd 95b5 aebe
00000080: 5e45 c1be f629 c7be 405c 36be 9356 a3be
00000090: ef07 a3be f844 a1be e294 c8be 1914 a1be
000000a0: 7381 9bbe 4a63 aebe ef0c dfbe 5451 51be
000000b0: 522f b8be e21b 17be dc49 aabe 1de1 b1be
000000c0: 2a31 adbd 5968 5fbe decf 96be 6c06 a0be
000000d0: 556f 1dbe f016 adbd 6b85 53be 244b c3be
000000e0: 23bc a6be 2443 debe b537 afbe 4e62 b4be
000000f0: a1df e0bd 2216 a6be a7f2 0dbf 3d00 bcbd
00000100: 97fc 50be 9c88 d5be 5234 02be 8366 b8be
00000110: 1aa0 cdbc 0bfc 79be 9b70 09bf 9838 5bbe
00000120: a4fb 80be 89b0 b8be 4f85 0dbf b54b 98be
00000130: f1f0 81be 5cae 49be 64ed 88be aa22 1abe
00000140: 2ceb e8be 69c3 21bf eeba 94be 24cf 6abe
00000150: 8df9 b5be 410f 82be 9431 ddbe a8df d5be
00000160: a2d3 05bf ecba a6bc 7ac1 8dbe a2f3 54be
00000170: 1080 ddbe 53b9 8abe 510e 68be 7c74 0bbf
00000180: 1e2f 9ebe 43ee f1be 5ea0 b2be 0523 8fbe
00000190: 506e d1be e865 b1be c1c1 72be 0dcd 5abe
000001a0: 3466 a4be d8be e8be b2df cbbe 242c 5abe
000001b0: 0a89 24be 4352 91be 6d94 6ebe 552f cfbe
000001c0: ec70 f7be 0141 c4be c06c cdbe f0f6 d3be
000001d0: 216f 26be 3707 cbbe 3219 c5be 9f5b dfbe
000001e0: e349 e1be b0ab 49be 35ec 33be e1ce 18be
000001f0: eebf 19bf db33 2fbe 5c18 64be a630 9cbe
-0.33051753 -0.16383688 -0.22143508 -0.2878375 -0.32412294 -0.38566214 -0.51768124 -0.21223868
-0.4277182 -0.25255617 -0.1285075 -0.30683228 0.06434559 -0.30927876 -0.09503165 -0.14159492
-0.31261843 -0.5956741 -0.121071674 -0.07306186 -0.10368347 -0.38227645 -0.6719696 -0.223406
-0.20461752 -0.40000713 -0.2468552 -0.21485873 -0.50553095 -0.1608704 -0.06925123 -0.3412291
-0.37748235 -0.388992 -0.17808628 -0.31901988 -0.3184199 -0.3149793 -0.3917609 -0.31460646
-0.303722 -0.34060127 -0.43564555 -0.2044118 -0.35973603 -0.1475673 -0.33259475 -0.3474206
-0.08456643 -0.21817149 -0.29455465 -0.312549 -0.15374501 -0.084516406 -0.20656364 -0.38143265
-0.32565412 -0.434106 -0.3422219 -0.3523125 -0.10980154 -0.3243876 -0.55448383 -0.09179733
-0.20408855 -0.41705787 -0.12715271 -0.3601571 -0.025100756 -0.24412553 -0.5368745 -0.21408308
-0.25191987 -0.36072186 -0.5528154 -0.2974526 -0.25379136 -0.19695419 -0.26743615 -0.15052286
-0.45491922 -0.631888 -0.29048866 -0.2293058 -0.35541955 -0.25402263 -0.43201888 -0.417722
-0.5227605 -0.020352803 -0.27686673 -0.20796064 -0.43261766 -0.27094516 -0.22661711 -0.54474616
-0.30895323 -0.47252092 -0.34887975 -0.27956405 -0.40904474 -0.3464806 -0.23706724 -0.21367283
-0.32109225 -0.45458102 -0.39819103 -0.21305901 -0.16067901 -0.28383073 -0.23298807 -0.404658
-0.4832834 -0.38330844 -0.40122032 -0.41399336 -0.1625333 -0.39653942 -0.38495785 -0.4362459
-0.44001684 -0.196944 -0.17570575 -0.14922668 -0.60058486 -0.17109625 -0.22274917 -0.30505866

model.model.6.weight f4 [128]
00000000: 3fd1 703f c22c 593f 0db8 653f 704c 3b3f
00000010: b535 6b3f d753 603f 463f 753f 8ea2 633f
00000020: 66aa 663f 4743 6b3f 9441 373f d2b1 473f
00000030: 9df3 683f ef12 793f 0b63 5b3f 6565 5b3f
00000040: 7a6f 4a3f b015 853f f6eb 613f 24c4 5f3f
00000050: 0208 313f 51d9 7b3f ad8f 763f 9c0d 453f
00000060: 4108 5a3f 548d 443f 01f2 5f3f 2aca 663f
00000070: c66c 6a3f 2c8f 3a3f ff54 803f 115c 4e3f
00000080: a5cd 553f 1e65 6e3f f1ac 5b3f d900 693f
00000090: 2271 773f c2ce 573f 42da 5b3f d75b 4a3f
000000a0: 8677 683f 8b95 7a3f 64e3 613f 5634 563f
000000b0: b6fd 563f d476 633f 4230 4f3f 92db 493f
000000c0: c8de 6c3f 36c0 363f ba02 4b3f 3713 5e3f
000000d0: ac95 653f c297 4b3f 35eb 6e3f 993d 4f3f
000000e0: 1c88 523f 1828 383f bb67 433f fa6e 483f
000000f0: 110f 5a3f 9b16 583f 708e 8f3f 1fe3 4e3f
00000100: c0b9 603f ed47 613f 4b18 793f f415 743f
00000110: 0a5d 643f 6afe 743f 5732 563f c251 663f
00000120: afb7 703f d29d 4c3f 3578 693f 7431 8b3f
00000130: 4b99 6b3f 5fef 5f3f 3dac 643f 9380 763f
00000140: ed69 6b3f c576 793f 19b8 4a3f 6c78 5c3f
00000150: 0984 5b3f c00e 7d3f 2390 4d3f 07a8 483f
00000160: 3374 5f3f 9253 483f 47c7 6f3f e25b 533f
00000170: bd65 813f a647 5c3f 97e3 4d3f 045b 673f
00000180: 7c7e 603f 0ad4 493f 183c 6c3f c41c 713f
00000190: 1ede 4f3f 7231 4a3f dbb7 6f3f 0ea8 543f
000001a0: 2a50 513f ca92 743f 14fb 753f 8389 4e3f
000001b0: f769 553f d201 543f 60e9 463f 60e1 7d3f
000001c0: 5f5d 763f de2b 603f 70c5 6d3f cd18 553f
000001d0: f9cd 523f 051e 4d3f 528b 503f 5f31 573f
000001e0: 1c70 5f3f 0a7e 6f3f f3eb 513f 9fe5 5e3f
000001f0: 7e38 393f 0034 433f dbde 403f c0bd 623f
0.94069284 0.8483392 0.89733964 0.7316351 0.91878825 0.8762793 0.9579967 0.88919914
0.9010376 0.9189953 0.7158444 0.7800571 0.90996724 0.97294515 0.85698 0.8570159
0.7907635 1.0397243 0.8825067 0.8740866 0.69152844 0.98378474 0.9631298 0.7697389
0.85168844 0.7677815 0.87478644 0.9015223 0.91572225 0.7287471 1.0025939 0.8060923
0.83516914 0.9312304 0.8581076 0.9101692 0.96657 0.8429986 0.8587991 0.79046386
0.9080738 0.97884434 0.88237596 0.8367361 0.8398088 0.8885319 0.8093301 0.7885066
0.9252744 0.7138704 0.79301035 0.8674807 0.89681506 0.7952844 0.9332765 0.80953366
0.82238936 0.7193618 0.76330155 0.78294337 0.8517924 0.84409493 1.1215343 0.8081531
0.8778343 0.88000375 0.97302693 0.95346 0.89204466 0.95700705 0.8367056 0.899685
0.9403028 0.79928315 0.91199046 1.0874467 0.9203078 0.87474626 0.89325315 0.9628994
0.91958505 0.9744685 0.7918716 0.8612125 0.85748345 0.9885063 0.8029806 0.7838139
0.8728668 0.7825252 0.9366345 0.8256208 1.0109173 0.86046827 0.804254 0.90373254
0.87693 0.7883917 0.92279196 0.9418452 0.811983 0.789817 0.93639916 0.8306893
0.81762946 0.9553648 0.9608624 0.80678576 0.83364815 0.8281528 0.7769985 0.9917202
0.96236223 0.87566936 0.9287939 0.8324097 0.8234554 0.8012393 0.81462586 0.8405971
0.8728044 0.93551695 0.82000655 0.87069124 0.72351825 0.7625122 0.7534005 0.88570786
