parkinson telemonitoring/checkpoints/parkinson-epoch=297-val_loss=6.29.ckpt (torch, 623520 bytes, 76 tensors)

model.model.0.weight f4 [128, 80]
000000 97 3c 12 3f 01 f7 88 bd b9 b9 10 be 5a 4f 0b be
       0.571237 -0.06687737 -0.14133348 -0.13604489
000010 7a d9 dd bc 2e 28 41 3e 26 e3 08 be 6e 36 32 3e
       -0.02708124 0.18862984 -0.133679 0.17403576
000020 76 e3 80 3d c4 e5 03 3e 3c 08 e2 3d cb 32 eb bb
       0.06293385 0.12880617 0.11036727 -0.007177686
000030 aa 82 25 3e 25 ca 1a be ce 1a 8e 3e 71 84 8f be
       0.16163126 -0.15116175 0.27754825 -0.28030732
000040 08 c5 5b bc ac 31 97 be f6 46 f6 bd 27 fa 75 3d
       -0.013413675 -0.29530084 -0.120252535 0.060053017
000050 6e 4b 05 be 40 8b d3 3b ac 27 e4 bd 61 58 30 3c
       -0.13017055 0.006455809 -0.11140379 0.010763259
000060 80 99 79 3d 1c 88 57 3d 1e ac 4e bd cc 4d 9e bc
       0.060937405 0.05262004 -0.050457112 -0.019324206
000070 e8 77 07 3e 39 03 58 3e 7c ef 33 be d8 54 15 be
       0.13229334 0.2109498 -0.17571825 -0.14583147
000080 3f bd 02 be a7 6b 17 bd 70 75 62 be 0d b1 f5 3b
       -0.12767504 -0.0369679 -0.22115111 0.0074979127
000090 00 19 5e 3d e6 7f 52 bd b9 d6 2c 3e 5f 35 65 bd
       0.05422306 -0.051391505 0.16878785 -0.0559591
0000a0 11 c5 22 3e 45 07 17 3e 12 cd 56 3e ec 9c 0c 3e
       0.15895487 0.14748867 0.20976666 0.13731736
0000b0 1e ff 05 3d 3a 9e 55 be e8 40 20 3e c5 7f 05 bd
       0.032714 -0.2086114 0.1564976 -0.032592554
0000c0 09 88 23 be 9e 0b 98 3d f8 07 8c be 9c a6 0f bc
       -0.15969862 0.07424091 -0.2734983 -0.00876775
0000d0 6e ee db 3d 9b a9 d1 bd d9 35 4b 3c 45 e6 83 be
       0.10738836 -0.10237428 0.012402975 -0.2576162
0000e0 07 80 17 3e 1a c3 15 3d 0b 47 f1 3d 71 4c 1c 3d
       0.14794932 0.036563016 0.117811285 0.038158838
0000f0 68 80 d3 3c ac d1 fd 3d 34 29 e9 3b cc 3c 47 3e
       0.025818065 0.12393507 0.0071155075 0.19456786
000100 bd 0f 8d 3c f2 57 7f 3e 04 19 65 bd 11 e3 48 bc
       0.017219419 0.24935892 -0.05593206 -0.012261168
000110 1f 97 62 3e 2d 1e 7d 3d 7f 65 0c be 49 61 34 be
       0.2212796 0.061796356 -0.13710593 -0.17615236
000120 f8 5c 72 3b 7e 03 82 3d 13 ee a4 bd 66 8f 0e 3d
       0.0036981683 0.06348322 -0.080532216 0.034804724
000130 fc b0 21 bb 4b 6c 9c be b3 03 a6 be 03 93 19 3e
       -0.0024672141 -0.3055137 -0.32424697 0.14997487
000140 c9 18 1a 3f d6 43 40 3d dd 0c 16 be 16 0e 95 3d
       0.6019407 0.046939693 -0.14653344 0.07278077
000150 95 7f ea 3d 5c c3 7f 3d 75 88 2e bd 73 cf 2f 3d
       0.114501156 0.06244217 -0.042610604 0.04292245
000160 dd 35 b6 bd 4c c3 d3 bd d8 21 fd bd 3a 20 0e 3d
       -0.08896992 -0.10339984 -0.12359971 0.034698702
000170 8c 55 45 bd fc 4b 35 be a6 08 05 ba 1e 00 b8 bd
       -0.048177287 -0.17704767 -0.0005074836 -0.08984397
000180 5d d4 3c be 8b 89 a3 3d 9f 0d 99 bf d0 68 0e 3d
       -0.18440385 0.079852186 -1.1957282 0.034767926
000190 d3 84 02 3f ec 9b e9 bc f9 75 24 3d 16 89 fb bc
       0.50983924 -0.028516732 0.04015157 -0.030705016
0001a0 c0 bf 5e be 82 fc bb bc 2d 48 27 be c0 16 f2 bd
       -0.21752834 -0.022947554 -0.16336127 -0.118207455
0001b0 9b 20 b8 3d f3 b4 04 bd 26 4c 33 be 6e 4c fe bd
       0.08990594 -0.03239913 -0.17509517 -0.124169216
0001c0 41 66 db bc 58 fb 59 3d 92 48 8e 3e e5 15 d5 bc
       -0.026782157 0.053218216 0.27789742 -0.026011417
0001d0 b2 21 83 3d 4a 05 47 bc 3c 58 e4 3c c7 10 50 bd
       0.06402911 -0.012147257 0.027874105 -0.05079725
0001e0 d1 6c bc bc 5d 75 14 bd 47 91 46 3e 8f a6 fc 3d
       -0.023001106 -0.03624474 0.19391356 0.12336456
0001f0 8a 98 19 be b7 bb 9e 3d 1a fb 55 3e a8 20 f7 3c
       -0.14999595 0.077506475 0.20896569 0.030166939
000200 c8 ca 53 3d 76 29 9c bd a8 5c 14 be 6a 37 2d 3d
       0.05170706 -0.076250955 -0.1448847 0.042289175
000210 bb af b5 bc 7b 37 3a bd 33 7b b0 3b e8 4e 20 be
       -0.022178521 -0.045463067 0.0053857802 -0.156551
000220 e2 7a e0 bc cd 20 9c 3b 4d a2 1c 3d 86 03 13 bd
       -0.027402345 0.0047646523 0.03824072 -0.035892032
000230 e4 83 ba 3c 08 fa c1 bd 51 72 22 be 90 25 1e 3d
       0.022767968 -0.09471518 -0.15863921 0.03861004
000240 d4 cf ff bd 8c ef 33 bd 3a ac ed bc c1 11 1d bd
       -0.12490812 -0.04392962 -0.029012788 -0.03834701
000250 86 b6 fa 3c 0e 63 19 bd 61 b9 50 3d 8f b3 20 be
       0.030604612 -0.03744798 0.05095804 -0.15693496
000260 75 d9 d2 3d bc a2 da 3c 84 57 01 3e 2c f8 81 bb
       0.10295383 0.026688926 0.12631041 -0.003966352
000270 dd 27 e0 3d c8 71 ce bb ac 97 1c 3d b9 64 1f bd
       0.10945103 -0.006300185 0.038230583 -0.038914416
000280 b4 23 18 be 35 ec 2e 3d e5 af 56 bd 7c 6e ae 3d
       -0.1485737 0.042705733 -0.05241384 0.08517167
000290 13 35 0f bd d9 4c de 3d 2e 05 87 bd 07 18 85 3d
       -0.034962725 0.10854501 -0.06592785 0.064987235
0002a0 a8 06 1d 3e a2 23 c6 3c 6c 2e 42 3e f1 a8 85 3c
       0.1533457 0.024186913 0.18963021 0.01631591
0002b0 14 83 2e 3d 07 c8 9b bd 5c 78 4c 3e d5 36 3c be
       0.042605475 -0.076065116 0.19967788 -0.18380292
0002c0 c1 6f 8d 3e b3 0e eb bd bc 27 81 bf 73 68 a3 bd
       0.27624324 -0.11477413 -1.0090251 -0.079789065
0002d0 bf 27 58 be 98 20 2f bc 4a c3 83 bd 3f 2d c1 3d
       -0.21108912 -0.010688923 -0.06433733 0.09432458
0002e0 aa 4e c1 bd a5 a7 75 3e 37 82 6a be b4 5b 80 3d
       -0.09438832 0.23989733 -0.22901236 0.06267491
0002f0 48 ee ca 37 95 39 41 be c0 cc 86 bc 6b 83 4b bd
       2.4191235e-05 -0.18869622 -0.016455054 -0.049685877
000300 6c 7b d1 bd 14 63 92 3c 34 c5 92 bd c6 ee 8b bd
       -0.10228619 0.01786951 -0.0716652 -0.06832652
000310 4e 9d a8 bd f9 cd 5e bd 3d 7b e1 bd df 6d 28 be
       -0.082331285 -0.05439565 -0.11009834 -0.16448162
000320 6f 3f ef bc 38 71 52 bd ae dc 2d bd e5 0e 70 bc
       -0.029205052 -0.051377505 -0.042446785 -0.014651989
000330 1d 17 a2 bd e1 15 b7 bd de 53 e9 3d 43 cc 33 be
       -0.07914565 -0.0893972 0.113929495 -0.17558388
000340 ec 1a 43 bd 09 53 60 3e 23 5b 04 bb e1 db 8e 3b
       -0.047633097 0.21906675 -0.0020195923 0.0043597077
000350 e5 28 da 3c 5b d0 83 bd df 24 e2 3d cd e7 a0 3b
       0.026630828 -0.06436225 0.11042189 0.0049104453
000360 b8 40 29 3d 83 2c 14 bc 8a a1 e5 bb 94 59 2a bd
       0.041321486 -0.009043816 -0.0070077823 -0.041589335
000370 90 80 d8 3d 1f 5d 30 bd 7e eb c7 3d 29 7f 3d bd
       0.10571396 -0.043057557 0.097617134 -0.046263848
000380 7c d0 25 3c ca 2d 52 3d bc 89 89 bb cf a4 62 3d
       0.010120507 0.0513132 -0.0041973274 0.055332955
000390 fc e3 b0 3d 45 5f 37 3e f5 be 55 3d f0 88 5b bd
       0.086372346 0.17907436 0.052184064 -0.05359739
0003a0 c3 1d 7b 3e 80 d4 b3 bd 50 10 34 3d 61 e2 cc 3d
       0.24523072 -0.087807655 0.04396087 0.10004116
0003b0 c3 f1 f0 bc e2 08 ad 3e 49 f7 87 3e ad bc 7d bf
       -0.029412156 0.3379584 0.2655585 -0.9911602
0003c0 77 b9 63 3f b0 bc ce 3e fa eb e4 3d 08 86 a1 be
       0.8895487 0.40378332 0.111778215 -0.3154757
0003d0 c4 dd 31 bd 59 cf 32 bd 5f c7 8d b9 44 82 18 3d
       -0.043424383 -0.043654773 -0.0002704216 0.037233606
0003e0 80 90 a9 3d 13 f1 27 bd 05 67 d9 3d 9f 54 2d 3e
       0.08279514 -0.04100139 0.106153525 0.16926812
0003f0 3e 8e 05 3d d6 8b d5 bc 7f f6 df bb 6e ae 99 3e
       0.032606356 -0.026067656 -0.0068348045 0.30015892

model.model.0.bias f4 [128]
000000 d2 cd b4 be 23 98 fc bd d2 b2 89 be 20 aa 9c be
       -0.35313278 -0.12333705 -0.26894242 -0.30598545
000010 2e d7 67 3d b9 e4 75 3e ab 76 c8 bd 1a b1 69 be
       0.056601696 0.24013032 -0.09788259 -0.22821465
000020 ff fc 8b be ee 93 9d be 07 07 9f 3c 53 57 9d be
       -0.27341458 -0.30776924 0.01941253 -0.30730686
000030 ee 68 a6 be 4d 69 81 ba 6f e8 94 be d4 b7 91 be
       -0.3250193 -0.0009873301 -0.29083583 -0.28460562
000040 47 62 8f be e5 54 92 bd 01 d2 a7 be 3a 7f 74 be
       -0.28004667 -0.071450986 -0.32777408 -0.23876658
000050 89 6f 85 be 53 d6 42 be bb 0a 9c bd 23 91 9a bd
       -0.26061657 -0.1902707 -0.07619234 -0.07547214
000060 e8 fc bc 3d d7 1d 61 be 1a 86 8d be a1 24 a5 be
       0.092279255 -0.21984039 -0.27641374 -0.32254508
000070 96 56 18 be 0d f4 b8 be b8 a2 08 be 58 fb e1 3d
       -0.1487678 -0.36123696 -0.13343322 0.11034268
000080 c4 0f c6 3d 07 57 88 be 02 35 91 be aa 12 bb bd
       0.09670976 -0.26628897 -0.28360754 -0.09134419
000090 92 0d 51 be 3c 30 a0 be e6 b8 31 3e 78 de 0a be
       -0.20415333 -0.312868 0.1735569 -0.13561428
0000a0 a1 8b eb be b4 2b f0 3e 61 9b d0 be e8 e2 a3 be
       -0.46004966 0.46908343 -0.40743545 -0.32009053
0000b0 89 a2 35 bd 71 96 f2 be ac 66 5c be db 1e de be
       -0.04434446 -0.47380403 -0.21523541 -0.43382916
0000c0 91 66 23 3d 39 f5 9a 3d c4 34 c3 be 5e e4 19 3c
       0.039892737 0.07566304 -0.38126194 0.009392826
0000d0 e5 f9 95 3e 03 eb d1 bd b7 54 f6 3d e1 1e 30 bd
       0.29292217 -0.10249903 0.12027877 -0.0429982
0000e0 e9 cf b4 3b 6e 9b a0 be 34 17 63 3e 97 9b 08 be
       0.005517949 -0.31368583 0.2217682 -0.13340603
0000f0 db d8 9d be 8b 35 9a be e2 3b 83 be c6 47 44 be
       -0.3082951 -0.30118975 -0.25631624 -0.19168004
000100 3b bd 0b 3e bd e9 60 be c2 7a fd 3e 11 f9 54 be
       0.13646404 -0.21964164 0.4950772 -0.20798136
000110 26 34 bd 3d f2 15 e9 3d ad 40 7b be 80 e1 f8 bd
       0.09238462 0.11381139 -0.2453639 -0.12152386
000120 70 3e ce 3d 57 61 90 be 4d 4a b4 be 3e c6 71 be
       0.10070503 -0.28199264 -0.35212937 -0.2361078
000130 9e cf db be 38 3e e9 bd 2d 2b 75 be 60 97 a1 be
       -0.42931837 -0.113888204 -0.23942252 -0.31560802
000140 36 62 1e bf bd 00 63 be f6 f7 1b be 5a c8 5f be
       -0.6186861 -0.2216825 -0.15231308 -0.21853772
000150 d6 13 a2 be 2f 0d 29 be ea 02 07 be 47 2b 07 bf
       -0.3165576 -0.16508935 -0.13184705 -0.5280041
000160 93 08 85 3e 65 6e 94 3d 86 95 df be 0e e1 d5 bd
       0.25983104 0.072476186 -0.43668765 -0.104433164
000170 bb 02 32 bb a4 6a 8b 3e e8 f9 63 be a1 37 d8 3e
       -0.0027162272 0.27229798 -0.222633 0.4222994
000180 4b a6 cd bc 68 ca 95 3d 9d f9 8c be 29 a6 2e be
       -0.025103709 0.073139966 -0.2753419 -0.17055573
000190 f4 3c ae be bc e7 27 be 6d fb 9d 3e 51 ef 85 3c
       -0.3403088 -0.16396993 0.30855885 0.016349467
0001a0 8b 7e 7c be ba e2 84 be 37 11 af bd 13 ba 3d be
       -0.24657647 -0.2595423 -0.08548205 -0.18528013
0001b0 d3 ae 15 3e fa 0f 5e be ac 56 a5 be 5a 92 b5 3d
       0.14617471 -0.21685782 -0.32292688 0.08865805
0001c0 61 89 44 be 9a 65 c6 3d ca 35 b1 be 68 f9 85 3e
       -0.19193031 0.09687348 -0.3461135 0.26166844
0001d0 c3 d5 fe be 97 02 ed ba 76 a5 e1 3e 8f 5e 89 3e
       -0.49772462 -0.0018082437 0.4407155 0.26829955
0001e0 07 17 03 3e f9 c9 e5 bd 0d 42 1a be 06 c6 5f 3d
       0.12801753 -0.11220164 -0.15064259 0.05463221
0001f0 67 5b 47 be 73 49 cc be 17 fc bd bd 52 22 8c 3e
       -0.19468461 -0.39899787 -0.09276598 0.27369934

model.model.2.weight f4 [128]
000000 ca a7 4e 3f 28 a6 6c 3f 09 1e 7a 3f b9 e2 41 3f
       0.80724776 0.92441034 0.9770208 0.75736576
000010 f0 e9 5f 3f 39 67 80 3f 63 f2 2f 3f f3 0f 49 3f
       0.87466335 1.0031501 0.6872923 0.7853996
000020 b0 d1 84 3f 4c 6b 3a 3f 16 26 6e 3f c4 f7 56 3f
       1.0376492 0.7281997 0.93026865 0.8397181
000030 93 89 52 3f 51 26 63 3f 45 a0 54 3f 72 bb 3c 3f
       0.8224117 0.8873034 0.8305705 0.7372352
000040 e3 9b 5b 3f fd c5 52 3f 62 9d 65 3f e8 f3 67 3f
       0.8578474 0.82333356 0.8969327 0.90606546
000050 d6 77 44 3f a1 40 67 3f 1e 4d 39 3f 42 6e 5e 3f
       0.76745355 0.9033299 0.72383296 0.8688699
000060 1c 12 67 3f 3c 53 70 3f 82 df 74 3f b3 95 82 3f
       0.9026201 0.93877006 0.95653546 1.0201935
000070 3d 3c 6d 3f 58 e8 5a 3f 58 ec 4e 3f c8 bd 5f 3f
       0.9267004 0.8551078 0.8082938 0.8739896
000080 f1 3b 70 3f d1 44 46 3f a4 5d 41 3f 29 80 64 3f
       0.93841463 0.77448756 0.7553351 0.89258057
000090 de ab 46 3f 72 8c 37 3f 8e 52 47 3f 10 fa 6d 3f
       0.77606 0.7169868 0.77860343 0.9295969
0000a0 b4 0b 3b 3f 2a 9a 70 3f a6 cd 62 3f 26 5e 61 3f
       0.7306473 0.93985236 0.88595045 0.88034284
0000b0 05 7d 4d 3f 32 f6 4e 3f 9a 50 67 3f a3 99 48 3f
       0.8026889 0.80844414 0.90357363 0.7835943
0000c0 35 27 70 3f 02 bb 60 3f 03 4e 54 3f 88 3e 52 3f
       0.93809825 0.8778535 0.82931536 0.82126665
0000d0 ca 5a 3e 3f 32 bc 45 3f 84 99 54 3f 7e 8a 89 3f
       0.74357283 0.7724029 0.83046746 1.074539
0000e0 99 d3 64 3f da 8a 55 3f 3d b3 34 3f 85 f9 2e 3f
       0.8938537 0.83414996 0.70585996 0.68349487
0000f0 f2 d5 59 3f 00 3a 5d 3f a8 ef 5f 3f f1 aa 40 3f
       0.8509208 0.86416626 0.8747506 0.75260836
000100 3a d7 5c 3f 26 8c 94 3f a8 0e 63 3f 8b db 6e 3f
       0.8626591 1.160527 0.8869424 0.93303746
000110 dd 9c 60 3f b1 0e 59 3f ec 19 3f 3f b5 8e 60 3f
       0.87739354 0.8478804 0.7464893 0.87717754
000120 84 1f 59 3f c9 ce 68 3f 9e 92 7b 3f 66 dc 64 3f
       0.84813714 0.9094053 0.98270595 0.893988
000130 23 d8 49 3f 05 f8 16 3f 13 c1 70 3f 79 a5 43 3f
       0.78845423 0.589722 0.9404461 0.76424366
000140 ce fd 62 3f 2d 4c 39 3f 20 30 66 3f 83 c8 65 3f
       0.88668525 0.7238186 0.8991718 0.8975908
000150 cd fa 4e 3f b1 68 8e 3f 35 0d 64 3f 20 cc 66 3f
       0.8085144 1.1125699 0.8908265 0.9015522
000160 4d e4 7d 3f 43 07 5f 3f 61 d3 78 3f e5 7e 7b 3f
       0.99176484 0.87120456 0.9719754 0.982405
000170 58 d3 57 3f 43 7c 4f 3f 26 47 63 3f 28 72 76 3f
       0.8430686 0.81048983 0.8878044 0.9626794
000180 8f 02 72 3f a3 c7 4f 3f 94 26 51 3f 6f d7 7a 3f
       0.94535154 0.81163996 0.8169949 0.97984976
000190 e9 62 7b 3f 14 b3 5f 3f 6f f7 69 3f e6 4d 5b 3f
       0.981978 0.87382627 0.9139318 0.8566574
0001a0 fe ff 58 3f 8a 5e 60 3f 9f 9c 55 3f 85 85 59 3f
       0.84765613 0.87644255 0.8344211 0.8496936
0001b0 a3 e6 3c 3f 84 68 50 3f a4 d1 66 3f e3 36 60 3f
       0.73789424 0.8140948 0.90163636 0.8758375
0001c0 ed d6 91 3f 32 76 6a 3f 48 90 4b 3f 0f 85 5c 3f
       1.1393715 0.915866 0.7951703 0.8614053
0001d0 e3 fe 6e 3f 80 b0 73 3f cc 30 35 3f b8 b2 69 3f
       0.93357676 0.9519119 0.70777583 0.9128833
0001e0 4e 24 48 3f 1c b1 62 3f ca f1 56 3f b9 c4 55 3f
       0.78180397 0.885515 0.8396269 0.835033
0001f0 51 61 59 3f 74 29 54 3f e3 06 8e 3f 49 46 59 3f
       0.8491412 0.8287575 1.1095852 0.8487287

model.model.2.bias f4 [128]
000000 81 2c ec 3d 15 5e 4d 3e 31 06 47 3e 7b 6a 82 3e
       0.11531926 0.2005542 0.19435956 0.25471863
000010 33 a4 a3 3e 15 eb a3 3e da 13 1a 3e 7b cb a9 3d
       0.31961212 0.3201529 0.15046635 0.08290764
000020 4a ba 0e 3d e2 ff db 3d fb 5a 65 3e c9 cd 62 3e
       0.034845628 0.10742165 0.22397988 0.22148813
000030 da 53 51 bb 7c d5 64 3e a3 00 30 3d a0 b5 08 3c
       -0.0031940849 0.22347063 0.042969357 0.008344084
000040 6d d2 d1 3d 9f 00 4c 3e fb 6b 61 3e f2 6f c1 bc
       0.10245214 0.19922112 0.22013848 -0.02361295
000050 b7 8e 1f 3e d1 f5 83 bc ee 07 23 3e 2a ba d4 3d
       0.15581785 -0.016108425 0.15920994 0.103870705
000060 1b 02 4e 3e 07 b1 86 bc 42 ac 9a 3e 52 0c 94 ba
       0.2011799 -0.016441835 0.30209547 -0.0011295176
000070 aa dc 28 3e 2b ad 81 3e 20 e6 44 3e af d5 65 3e
       0.16490427 0.2532743 0.1922841 0.22444795
000080 a3 97 a6 3e 6a c7 0f 3e 8a a3 3c 3d 45 a8 62 bd
       0.32537565 0.14040914 0.0460544 -0.055336256
000090 69 55 28 3e d6 39 64 3d c8 79 24 bc 41 3f 0a 3e
       0.16438831 0.05571922 -0.010038801 0.13500692
0000a0 5e 36 aa bb fa b1 dc 3e 99 b4 45 bd 96 bd 4c 3e
       -0.0051944694 0.43104535 -0.048267934 0.19994196
0000b0 f5 1d 53 be b6 85 43 3e 09 74 52 bc c4 6f 67 3e
       -0.20616896 0.19093975 -0.012845048 0.22601229
0000c0 16 5e 2f 3e 6e a2 03 3e 4d 31 2c 3e 4d fe 07 3e
       0.17125735 0.12854931 0.16815682 0.13280602
0000d0 9f 2f 95 3e 95 d2 6e 3c 5e 2e d3 3e 09 c6 05 3e
       0.29137895 0.014576574 0.41246313 0.13063826
0000e0 4f 78 11 3e 64 19 db 3c e9 88 4e 3e f8 12 b3 3d
       0.1420605 0.026745506 0.20169415 0.087438524
0000f0 3b 73 bd bd 6e 2f 5c 3e 72 53 2d 3e 16 42 d8 bc
       -0.09250494 0.21502468 0.16926363 -0.0263987
000100 53 f5 91 3e 60 bd af 3e e4 b2 ad 3e b5 fc b6 3d
       0.2850748 0.3432417 0.33925545 0.08934919
000110 0d fe 93 3e 02 ea 6b 3d 87 3d f1 bd 00 5d 81 3b
       0.28904763 0.057596214 -0.117793135 0.003947854
000120 87 12 24 3e 78 67 3a 3e 83 f1 af 3e 11 86 93 3e
       0.16022693 0.18203533 0.34363946 0.28813222
000130 4b 54 e3 bc 12 75 a5 3d 28 21 14 bd 0e e8 ca 3d
       -0.027750155 0.0807897 -0.036164433 0.09907542
000140 3a 30 09 3e f8 55 81 3e 4a b4 00 3e 74 55 21 3e
       0.13397303 0.252609 0.12568775 0.15755254
000150 94 d6 dd 3d 48 d2 f6 bd 5d 65 13 be 06 3d 39 3d
       0.10831943 -0.12051827 -0.14394136 0.045224212
000160 3a 24 cb 3e ed 01 63 3e 11 ad 25 3e a0 20 a1 bd
       0.39676076 0.22168703 0.16179301 -0.07867551
000170 5f 9c 11 3e d9 fe 86 3e 25 81 99 3d a6 ae 63 3e
       0.14219807 0.26366308 0.074953355 0.22234592
000180 d8 6b 3d 3e d6 7a 48 3e 37 41 07 3e 35 8c 98 3e
       0.1849817 0.19578108 0.13208471 0.2979447
000190 f3 84 20 3e c4 91 15 bd af 31 44 3e 08 e1 8b 3e
       0.15675716 -0.036515966 0.19159578 0.27320123
0001a0 57 94 c6 3c ba d5 3e bd bc 83 08 3e 7f ee 83 3d
       0.024240656 -0.046590544 0.13331503 0.06441974
0001b0 de 29 6b 3e 2e e9 82 3e b2 fa 00 3e d7 94 a6 3e
       0.2296519 0.25568527 0.12595633 0.3253543
0001c0 cd 60 40 3d dc 7b 8b 3e 33 d1 f0 bc 09 6b 7d 3e
       0.046967316 0.27242935 -0.029396629 0.24747862
0001d0 b6 db 21 3e cc 70 bd 3e de 35 37 3e 6c 37 c4 3e
       0.1580647 0.3700012 0.17891642 0.38323534
0001e0 0d 0e 05 3e 58 ee c1 3e 6c b3 19 3d 8e 05 9a 3e
       0.12993641 0.37877154 0.037524626 0.30082363
0001f0 50 be 45 3e d6 01 1f 3d c1 7a 1b 3e 3c 21 9c 3e
       0.1931088 0.03882011 0.15183546 0.30494106

model.model.2.running_mean f4 [128]
000000 5b 56 11 be 5e 93 a3 bd 92 ef dc 3b 10 33 71 3e
       -0.14193098 -0.079870924 0.006742426 0.23554635
000010 a0 8d f7 bd dd 3e a3 bd 78 66 2a be d8 4a 98 bc
       -0.1208756 -0.079709746 -0.16640651 -0.018590376
000020 dc f7 3d be d0 a6 8a 3e 3a 3c eb bd 86 c4 d2 bd
       -0.18551582 0.27080393 -0.11486097 -0.1029139
000030 7f bc 65 3e 5f 1b 19 be 35 c8 43 bd a1 3e 3e be
       0.22435187 -0.14951847 -0.047798354 -0.18578579
000040 86 73 11 be db d1 3c be 36 fc a5 3e 85 e2 12 3d
       -0.14204225 -0.18439429 0.32418984 0.035860557
000050 bd 34 98 3e 42 8e bf 3c 76 1a ca 3c ad 0c 52 3e
       0.29727736 0.023383263 0.02467082 0.20512648
000060 83 22 31 3f 39 cb 41 be b1 00 c8 3d 0e 08 4b be
       0.69193286 -0.1892518 0.09765757 -0.19827291
000070 d1 13 19 bc 9d 89 1a be b0 96 56 3e 81 6f 01 3f
       -0.0093431035 -0.15091558 0.2095592 0.50560766
000080 eb 35 af 3e ee ef 72 3e 5f 36 bd 3c 5c 1d fd 3c
       0.34220824 0.23724338 0.023097215 0.030897789
000090 03 69 fe bd e2 a6 3c bd a6 46 bf 3e 18 b9 b3 bd
       -0.12422373 -0.04605759 0.37358588 -0.08775538
0000a0 0c 53 d3 bd ce 16 9a bd 9d 33 27 be a6 61 bf bd
       -0.10318574 -0.07523881 -0.16328283 -0.09344797
0000b0 6b f8 8a 3e 7c ee 22 3e d1 a7 15 3e 4e 87 77 3e
       0.27142653 0.15911287 0.14614798 0.24172708
0000c0 27 dd 9b 3e 59 8d 18 3f 3b 31 0d be 81 af 78 3e
       0.30442163 0.5959068 -0.13788311 0.242857
0000d0 3c 7f 9b bd ff ad 07 be ce fd ac 3f 13 5f 17 3d
       -0.075926274 -0.13249968 1.3514955 0.036955904
0000e0 67 13 53 3e 92 e8 0c 3e d5 60 d9 3d a3 35 3c be
       0.2061287 0.13760594 0.10614172 -0.18379836
0000f0 80 07 56 be b3 d0 d2 bd a4 c9 ab bc 30 8a 24 be
       -0.20901299 -0.102937125 -0.020970173 -0.1606834
000100 bc a8 a4 3d 45 16 40 3f e3 d3 b1 3e e4 b8 85 bd
       0.08039996 0.7503398 0.3473197 -0.06529406
000110 b8 46 49 be d1 07 65 3f 26 94 3d 3e 3d e1 14 be
       -0.19655883 0.8946505 0.18513545 -0.14539047
000120 69 05 36 3e fd 37 7a bd 00 98 5e 3f b9 be 28 3e
       0.17775501 -0.06108855 0.86950684 0.16479005
000130 34 48 43 be 4b bc 0c be d1 b9 06 3f 80 e0 31 be
       -0.19070512 -0.13743703 0.52627283 -0.17370796
000140 a5 01 bc 3c ed dd bb bd 8d 2b d3 3c 10 31 c8 3e
       0.022950003 -0.09173188 0.025777603 0.39099932
000150 48 81 0e 3e ec 20 33 be 1f 10 10 bd 34 c4 44 3d
       0.13916504 -0.17493027 -0.035171624 0.048038676
000160 fb 33 13 3e 43 ad 15 3d 8e 2c 46 bd 29 40 fc bd
       0.14375298 0.03654219 -0.048382334 -0.12316925
000170 6b 10 45 3e 39 0a 97 3e ec 6f a4 3e 60 2b f3 3f
       0.19244544 0.29499987 0.3211664 1.8997612
000180 80 f0 ed 3e 62 46 a4 3c 6f 04 11 be b9 96 3a be
       0.4647255 0.020053092 -0.14161848 -0.18221559
000190 99 1d 38 be 40 36 54 bd 1f 81 19 3e 3b 63 ff 3d
       -0.1798004 -0.05180955 0.14990662 0.124700986
0001a0 b1 d8 58 3d bd 84 fd 3d 13 db f2 bd d7 db b1 bd
       0.052941028 0.123788334 -0.11858191 -0.08684509
0001b0 62 ca 95 3c 1d 91 07 be 28 8f fa 3d 28 10 a6 bd
       0.01828498 -0.1323895 0.12234336 -0.0810855
0001c0 2c 0b 36 be b4 eb 2f bd 4c 45 b6 3c e9 df 47 3d
       -0.17777699 -0.042949393 0.02224984 0.04879752
0001d0 ac c0 bc bc 12 a5 24 3f 51 45 ed 3d d4 bd b0 bd
       -0.023041092 0.6431438 0.11585487 -0.08629957
0001e0 0d e3 09 bd b2 a6 ef 3d 5d 9f 55 be 12 a6 f4 3e
       -0.033663798 0.117017165 -0.20861574 0.47782952
0001f0 2c 26 4d 3e 75 09 51 be f4 4a 1e be 93 98 3c 3e
       0.20034093 -0.20413764 -0.1545828 0.18417577

model.model.2.running_var f4 [128]
000000 0c e1 89 3d e5 7c b3 3d eb b6 87 3e cb fb 21 3f
       0.067323774 0.08764056 0.26506743 0.6327483
000010 7b a3 45 3d f0 46 8d 3d b2 a8 02 3d 8c 9c 16 3e
       0.04825161 0.06898296 0.03189916 0.14708155
000020 fd f3 0c 3c 49 09 48 3f d5 6b 16 3d 6d fa ce 3d
       0.008603093 0.7813917 0.03672393 0.10106359
000030 89 00 08 3f 2e d5 1f 3d bd 27 12 3e 53 1e a7 3c
       0.53125817 0.039021663 0.14272971 0.020400202
000040 d1 b3 40 3d 7d c5 a7 3c 2b 72 82 3f ad e3 68 3e
       0.047046486 0.020479912 1.0191091 0.22743101
000050 8f 52 29 3f ec 2b 8a 3e 54 1d 99 3e 70 06 fe 3e
       0.661416 0.26986635 0.29905188 0.49614286
000060 d1 69 8c 3f 37 4b 29 3c 5d bb 04 3f 4a 87 35 3c
       1.0969793 0.010332874 0.51848394 0.011079619
000070 5a 1a 4a 3e b0 b8 5b 3d 78 50 07 3f 08 4e 80 3f
       0.19736615 0.05364293 0.5285716 1.0023813
000080 ba 46 67 3f 9b a8 ba 3e 57 71 8b 3e 48 e6 bb 3e
       0.90342295 0.3645676 0.2723491 0.36699128
000090 0b eb ae 3d b8 57 7b 3e ca e1 d9 3e 55 94 d4 3d
       0.08540925 0.24545181 0.42555076 0.103798546
0000a0 0f 78 07 3e 1c 6f 33 3d fe 43 ac 3c 1a 5e e7 3d
       0.13229392 0.043807134 0.021028515 0.11297245
0000b0 24 17 d7 3e 45 e6 2f 3f 56 20 3e 3e 8d 12 7d 3f
       0.42009842 0.6871074 0.18567023 0.9885643
0000c0 c6 60 68 3f 35 8f 79 3f e4 6f be 3c 70 4b ce 3e
       0.90772665 0.9748414 0.023246713 0.4029193
0000d0 1b db 38 3d d0 1d 58 3d e5 6f 67 40 eb 06 bd 3e
       0.04513083 0.052762806 3.6162045 0.3691934
0000e0 9b 7a e8 3e 05 59 06 3f 94 7d 29 3e 56 90 78 3c
       0.4540604 0.52479583 0.1655181 0.015171131
0000f0 c3 d4 79 3c e6 c1 a4 3d 2b f1 f2 3d 23 97 fd 3c
       0.01524848 0.08044796 0.118624054 0.030955857
000100 0d 03 90 3e 38 f1 5e 40 ee 8f c1 3e 44 04 92 3d
       0.28127328 3.4834728 0.37805122 0.0712972
000110 1b eb 6e 3c 30 f6 fb 3f 04 d6 e5 3e 59 e0 25 3d
       0.014582421 1.9684505 0.44889843 0.040497158
000120 ae c7 96 3e 56 70 2c 3e 21 27 88 40 e6 57 2d 3f
       0.2944922 0.16839728 4.2547765 0.6771225
000130 e5 cd bb 3c e0 53 33 3d 3f df 06 3f 0b 2f 4e 3d
       0.022925327 0.04378116 0.52684397 0.050337832
000140 a5 3f a6 3e c9 ee 39 3d 08 74 b1 3e d0 c4 16 3f
       0.32470432 0.04539374 0.34658837 0.5889406
000150 95 26 29 3f 6f de 42 3c 2d ef e5 3d d9 6c 46 3e
       0.66074497 0.011893853 0.1122726 0.1937746
000160 dd 4a 57 3e 99 f4 25 3e b2 f0 26 3e d5 8b 0e 3d
       0.21024652 0.16206588 0.16302755 0.034801323
000170 02 59 f7 3e 24 1f c6 3e 1e 83 f9 3e 08 05 7d 40
       0.48310095 0.38695633 0.48732847 3.953432
000180 09 57 54 3f c1 82 e2 3d 1e a9 7f 3d 93 5d 1d 3d
       0.82945305 0.110600956 0.062417142 0.038419317
000190 a6 bb 6b 3c fb 3b 2e 3e b7 0a 7a 3e 16 da f9 3e
       0.014388001 0.17015068 0.2441815 0.487992
0001a0 63 c9 95 3e 27 91 a3 3e 6f d1 4c 3d f3 70 a8 3d
       0.29255208 0.3194668 0.05000442 0.08224668
0001b0 c3 35 1c 3e 55 c5 81 3d c7 64 07 3f 55 8c cf 3d
       0.15254883 0.06336466 0.5288815 0.10134188
0001c0 76 99 6b 3c a5 20 b4 3d a5 51 aa 3e 37 1e 35 3e
       0.01437985 0.08795289 0.33265415 0.17687307
0001d0 73 10 73 3e b4 fe a4 3f 06 49 2a 3e 26 e7 a5 3d
       0.23736744 1.2890229 0.16629419 0.08100729
0001e0 5b 6b e6 3d af fc d7 3e df 85 68 3c 3a 0e 0e 3f
       0.11250945 0.4218497 0.014192074 0.5549046
0001f0 0f 02 b6 3e a4 1d 4b 3c 54 7a 03 3c b6 83 6f 3e
       0.35548446 0.012397204 0.008024771 0.23390087

model.model.4.weight f4 [128, 128]
000000 09 4f 29 be 3b cb d6 bc 90 8a 06 be 52 23 8e bd
       -0.16534056 -0.026219955 -0.13138795 -0.069403306
000010 27 16 41 bd 02 62 4f bd 0f 85 f1 bc ed 54 48 3d
       -0.047140267 -0.050630577 -0.029482393 0.048909117
000020 5f 70 5c be da 9b 29 be 15 89 43 3d 30 cd c5 be
       -0.21527241 -0.16563359 0.047738153 -0.38633108
000030 1e e9 43 3d fa 8c bc bd 9e 28 53 3e 36 b2 77 3d
       0.04782974 -0.09206577 0.20620963 0.06047269
000040 0c 74 5c 3a b6 fe 7d 3a ae 9f d8 bc c2 b4 0a be
       0.00084096263 0.0009689139 -0.026443329 -0.13545516
000050 8f 47 a5 bc 6e 52 b5 bd 5a fa 0a bf bb 69 6a 3d
       -0.020175723 -0.08853613 -0.54288256 0.05722974
000060 da d7 fc 3d 54 84 51 3e 3f 98 46 be 90 45 9a 3d
       0.12345858 0.20460635 -0.19394015 0.07532799
000070 d3 dd f0 3a 8d fa 5e bd 7b 22 93 bd db c9 14 3d
       0.0018376656 -0.054438163 -0.07184311 0.036325317
000080 4b 19 7c 3d 93 ba 0b be 46 4c e6 bd 9a 13 69 3e
       0.06154756 -0.13645391 -0.11245017 0.22761384
000090 23 ce ef bc cb 1d e3 be 01 c8 6e 3a e4 ae 12 3e
       -0.029273098 -0.44358668 0.00091087824 0.14324528
0000a0 36 87 41 3d 02 f0 36 bd cd 0b a7 bd 4c ac 05 bd
       0.047248088 -0.044662483 -0.08156548 -0.03263502
0000b0 7f 1a 8c 3d 8d 46 3c be 26 00 e2 bc 43 04 44 bc
       0.06840991 -0.18386288 -0.027587961 -0.011963907
0000c0 d9 fe fe 3c 65 06 e3 bd 83 fe 57 bd 33 7e 64 be
       0.03112738 -0.11085204 -0.052732956 -0.22313766
0000d0 fe 84 31 bd 33 d5 8d be 61 f2 a5 bd e0 d9 38 be
       -0.04333972 -0.2770172 -0.08102871 -0.18051863
0000e0 bd 8f bd bd 8b 6b 21 be c3 66 1b bd 57 59 df bd
       -0.092559315 -0.1576368 -0.037939798 -0.10905712
0000f0 ed 14 97 bc 5a 0c b5 bd 45 72 c1 bc e8 bb f5 bd
       -0.018442595 -0.088402465 -0.023614058 -0.11998731
000100 ea 94 b0 bd 0f fc ca bc ca 14 c5 be 8d 50 8e 3b
       -0.08622153 -0.024778394 -0.38492423 0.0043430985
000110 32 0f bc 3d 40 db 22 3e d3 98 9c bd d3 6c e6 bd
       0.09182586 0.1590395 -0.076463364 -0.11251225
000120 97 10 e8 3c 0e 58 70 3d 74 e4 93 bd 0d 60 54 be
       0.028328223 0.058677725 -0.07221308 -0.20739765
000130 e0 49 f3 3d bc 18 5d 3d c3 1b 8f 3d 52 2f ce bd
       0.11879325 0.053978667 0.06987717 -0.100676194
000140 23 2f f3 be 3f 1d 5c 3d 91 7c cb 3d e8 6d 5c be
       -0.474969 0.05373883 0.099358685 -0.21526301
000150 95 47 10 bd 9f 89 c0 3d 3b ea e2 bd 11 d5 04 bd
       -0.035224516 0.09401249 -0.11079832 -0.03242976
000160 3e d7 0c bd 89 da 80 bd f3 96 30 bc 96 d6 23 3e
       -0.03438496 -0.06291682 -0.010778177 0.15999827
000170 ae f8 87 3e cc 2b 30 be d0 56 18 3e fe f9 2d 3e
       0.26556915 -0.17204207 0.14876866 0.16989896
000180 d3 8e 98 be e7 1b d1 bd 77 81 36 3e 80 17 33 bd
       -0.29796466 -0.102104 0.17822824 -0.043723583
000190 c1 79 7a bd 9e 4f 98 3c 7a a1 56 bd 48 c6 f1 b7
       -0.06115127 0.018592652 -0.05240009 -2.882177e-05
0001a0 f8 50 d6 3d 86 47 87 be 3c 1a 4a be 1f 86 93 3b
       0.10464662 -0.26421756 -0.1973657 0.0045020725
0001b0 68 7a 98 be d0 11 56 be 1b 75 db bd ae 51 91 3d
       -0.2978089 -0.20905232 -0.107156955 0.07095657
0001c0 7c 29 fa 3d 40 28 aa 3d 6b 85 0c 3d f3 31 f8 bd
       0.12214944 0.08308458 0.034306925 -0.12118902
0001d0 ee dd a3 bc 86 4e eb 3d 23 c8 9d bd 0d 68 ca be
       -0.020003285 0.114895865 -0.07704189 -0.3953251
0001e0 1f c1 05 3e 44 90 ae bc c8 67 0b 3e 1a a9 66 be
       0.13061951 -0.021309026 0.13613808 -0.22525445
0001f0 9e b6 04 bf 3b 14 df 3c 84 9a 5f be 2b 24 fa bd
       -0.5184115 0.027231326 -0.21836287 -0.1221393
000200 5c 97 02 3e d2 45 f9 bd 56 5f a9 bd 88 be df 3c
       0.12753052 -0.1217152 -0.08270137 0.027312532
000210 99 66 9a be 80 74 50 bc 1c 37 0d 3e a4 ba 02 3c
       -0.301564 -0.012723088 0.13790554 0.007979069
000220 5f 7c 23 3e c0 fa ed bc de de e2 bd c6 6f 87 be
       0.15965413 -0.029050231 -0.11077665 -0.26452464
000230 00 49 84 bc 6e 41 00 be 82 a0 16 3e 5c c9 73 3d
       -0.01614809 -0.1252496 0.14709666 0.059518203
000240 22 93 33 be 1c 2b 81 bc ca 8a fb 3c f2 17 80 3d
       -0.17536595 -0.015767626 0.030705828 0.06254567
000250 e1 95 25 bc a6 3a 0b 3d 9f fc 2b 3d 8f 33 c9 ba
       -0.010106535 0.03399148 0.041988965 -0.0015350449
000260 85 1e ae ba b9 45 d2 3d 91 01 76 bd 1e 11 24 3e
       -0.0013284242 0.10267205 -0.060060088 0.16022155
000270 fc 4e 8e bd cb eb 92 3d d3 5a 75 3e 7d 55 05 3e
       -0.06948659 0.0717388 0.23960428 0.13020892
000280 6d 32 21 bd de 1d 17 bd 3c 83 a1 bd 88 84 a0 3d
       -0.03935473 -0.036893718 -0.07886359 0.07837778
000290 84 f2 ff 3d 57 9b d2 3d bf 04 92 bd 16 4e cc bd
       0.12497428 0.10283535 -0.071298115 -0.09975831
0002a0 56 65 3e 3d 05 0f 06 be 91 d9 23 3e 58 81 fb bd
       0.04648336 -0.13091667 0.16000964 -0.1228053
0002b0 ce 78 74 3c b9 c7 97 3e ff ad cd bd 99 38 8d 3c
       0.01492138 0.29644564 -0.10042953 0.017238902
0002c0 80 e6 24 3e 4a 44 0d be db 43 9c 3d 19 be 6b bd
       0.16103554 -0.13795581 0.0763013 -0.057554338
0002d0 0b 3c e6 bd 84 3c 93 ba e8 e8 54 be 05 83 67 3e
       -0.11241921 -0.0011233245 -0.20791972 0.22608574
0002e0 0a c6 8d be dd 4f b3 3d 44 aa 7d be 6b 24 c4 3e
       -0.27690154 0.08755467 -0.24771982 0.38309035
0002f0 06 4d 77 bd 06 95 3a be 9a 72 60 be ad 1b 13 3d
       -0.06037619 -0.1822091 -0.21918717 0.035915066
000300 5b 22 0f bd a9 9a d1 3d 5b 04 91 be c9 5c 6d 3e
       -0.034944873 0.10234577 -0.28323635 0.23179926
000310 84 ba 87 3d 57 e8 4d 3e ce 70 b0 3d c5 18 f4 bd
       0.06627372 0.20108162 0.08615266 -0.11918787
000320 ac 9e 96 be f4 9a 86 3d 5d 07 4b bd d4 ae db 3c
       -0.29417932 0.06572524 -0.04956757 0.026816763
000330 96 4d c1 3c f3 d5 01 3d 18 bc d0 bd 2a 1f 3f bd
       0.023596566 0.03169818 -0.10192126 -0.04666058
000340 fe 24 65 3d a6 a5 32 3e b6 a0 8c bc 17 35 5e 3e
       0.05594348 0.17446002 -0.017166477 0.2169994
000350 61 52 19 3d d1 88 d9 3c 5d 4f b2 3d 4e 1b 57 be
       0.03743208 0.026554497 0.087065436 -0.2100651
000360 dd f9 e0 bd 01 8a 62 bd e2 5a 5b be e7 ce 4f be
       -0.10985158 -0.055307392 -0.21421388 -0.2029377
000370 34 a1 08 3e bd 21 91 bc 7c f4 2e be fd 08 9b 3d
       0.13342744 -0.017716283 -0.17085451 0.07570074
000380 e5 a8 e5 bc 50 af 59 be 7f 3e d0 3c e7 2f f6 3b
       -0.028034637 -0.21258283 0.025420425 0.0075130346
000390 13 9d 68 3e 0d 5d 6f 3b 1f 03 3a be 3a 38 b6 3c
       0.22716169 0.0036523968 -0.18165253 0.022243608
0003a0 2f b8 55 3d 35 be bd bd 6b 09 85 be 18 51 49 be
       0.052177604 -0.09264795 -0.25983748 -0.19659841
0003b0 53 70 08 be 9b ed c0 3d d2 9d 1a 3d 86 7b df bd
       -0.13324098 0.0942032 0.037748165 -0.10912232
0003c0 76 9f 25 be 07 de 9b be 65 1e 17 3e a9 64 78 ba
       -0.16174111 -0.3044283 0.14757688 -0.0009475449
0003d0 ab da ee be 9b 9f 1e bd 9c ff 8b be c7 63 88 3d
       -0.46651205 -0.03872643 -0.27343452 0.06659656
0003e0 e3 a4 2b 3d cc 99 ed ba a2 53 83 bc 31 d1 02 3e
       0.041905295 -0.00181275 -0.01603109 0.12775113
0003f0 34 19 ed 3d 61 c3 8f 3e 88 32 48 3e 68 0d 4b 3d
       0.11577073 0.2807875 0.19550526 0.049573332

model.model.4.bias f4 [128]
000000 ae 13 84 be 29 62 48 bf 60 8b 00 bf c5 de d7 be
       -0.25796264 -0.7827478 -0.5021267 -0.42162147
000010 01 26 64 be 8c 14 13 bf 84 6d 0d bf 1f 15 ce be
       -0.22280122 -0.5745323 -0.5524523 -0.4025049
000020 06 f1 0c bf eb 85 ae be a9 c6 ed be 95 8f 0d bf
       -0.5505527 -0.34086546 -0.46440628 -0.55297214
000030 58 1c 04 bf ba b3 b6 be 72 2d 3d bf 63 87 41 bf
       -0.5160575 -0.35683995 -0.7389747 -0.7559721
000040 7e 84 f4 be 3b 21 46 bf 40 6c ff be 5f 56 e1 be
       -0.47757334 -0.77394456 -0.49887276 -0.44011208
000050 75 a0 cd be ad 49 10 bf 86 05 a2 bd 54 06 fe be
       -0.40161481 -0.5636242 -0.0791121 -0.49614203
000060 fc 30 4b be 58 77 ef be be c6 c3 be e3 ab da be
       -0.19842905 -0.4677074 -0.38237566 -0.42709264
000070 e4 e5 24 bf 87 50 99 be 05 f9 0a bf 7e d2 12 bf
       -0.64413285 -0.2994425 -0.54286224 -0.57352436
000080 53 13 ef be 4a 4e f8 be 02 3b f4 bd 25 45 23 bf
       -0.4669443 -0.4849723 -0.11925317 -0.6377738
000090 71 bb d2 be 87 52 0b bf 7e c1 ea be 3d 1b 0a bf
       -0.4115863 -0.544228 -0.45850748 -0.5394781
0000a0 7d a6 0a bf 4c 97 02 bf f2 a6 c0 be dc 26 0b bf
       -0.5416029 -0.5101211 -0.3762737 -0.5435617
0000b0 28 a7 3d bf c0 24 12 bf 9e db ab be 9d 9e a9 be
       -0.74083185 -0.57087326 -0.33565992 -0.33128825
0000c0 c7 4c 0c bf 5b 19 52 be 0d a5 14 bf 1f 2b bf be
       -0.5480465 -0.20517485 -0.5806435 -0.37337586
0000d0 0b 9d fd be 23 08 14 bf 39 af f2 be e8 cd f1 be
       -0.49533877 -0.57824916 -0.4739931 -0.47227407
0000e0 0e 0a 14 bf 28 eb 1c bf 86 64 7f be ff 5c 32 bf
       -0.5782784 -0.6129632 -0.2494069 -0.6967315
0000f0 ed 38 f5 bd c6 a2 10 bf 37 f7 18 bf 37 80 d4 be
       -0.11973748 -0.5649837 -0.5975222 -0.4150407
000100 05 74 53 bf b4 ba 7e be a7 06 0f bf 51 35 f3 be
       -0.82598907 -0.24875909 -0.55869526 -0.47501615
000110 bd cf ba be a3 fe f8 be bb 0e 00 bf f5 50 b4 bc
       -0.36486617 -0.48631772 -0.50022477 -0.02201126
000120 ad 36 0c be 74 48 f8 be 40 bf fd be d7 26 15 bf
       -0.13692732 -0.48492777 -0.49559975 -0.5826239
000130 26 c2 d2 be b2 ea d7 be 75 4e 1d be 44 e1 73 be
       -0.41163749 -0.42171246 -0.1536196 -0.23816401
000140 7f 24 d6 be e4 c0 0f bf 58 a4 97 be ca 1c 2d bf
       -0.4182472 -0.561537 -0.29617572 -0.67622054
000150 09 50 f7 be df 62 ca be d1 03 ac be 88 30 c2 be
       -0.4830325 -0.39528558 -0.33596662 -0.3792765
000160 5f 43 28 bf 0d c1 13 bf 7f a0 db be 0f 68 31 bf
       -0.657278 -0.5771645 -0.42895886 -0.69299406
000170 dc 0e 4b be 1d 4a 15 bf 8e 85 e2 be 2c d6 29 bf
       -0.19829887 -0.5831621 -0.4424252 -0.66342425
000180 da e6 a4 be b2 61 4e bf 9c a9 05 bf 37 33 bf be
       -0.32207376 -0.8061782 -0.5221193 -0.3734376
000190 90 ce 71 be bb 68 6e be cf 94 d4 be f4 09 1b bf
       -0.23613954 -0.23282139 -0.41519782 -0.6056206
0001a0 b4 8c 1b bf 62 d7 a1 be 2b 19 33 bf cf 6a 17 bf
       -0.6076157 -0.31609637 -0.6996028 -0.5914735
0001b0 0a 63 89 be c6 d4 0c bf 25 a7 08 be bd 6e 0e bf
       -0.26833373 -0.55012167 -0.1334501 -0.55637723
0001c0 77 48 a5 be 95 ea b6 be 10 16 53 bf 3d eb 93 be
       -0.3228185 -0.35725847 -0.8245554 -0.2889041
0001d0 a9 93 d6 be 34 fa eb be 0e 98 df be 8e 80 f6 be
       -0.4190953 -0.46089327 -0.43670696 -0.48144954
0001e0 a7 46 29 be 0f 37 d7 be ca 22 95 be 9d c0 1b bf
       -0.16530858 -0.42034194 -0.29128104 -0.6084078
0001f0 8f 57 1c bf b7 95 a8 be af cc 20 bf b1 01 67 bf
       -0.61071104 -0.32926723 -0.6281232 -0.90236956

model.model.6.weight f4 [128]
000000 b7 08 6a 3f ae 2c 68 3f 96 2c 52 3f e0 66 36 3f
       0.9141955 0.90693176 0.8209928 0.71250725
000010 69 7e 70 3f 51 3e 50 3f 2d 30 66 3f 80 21 72 3f
       0.93942887 0.8134509 0.8991726 0.94582367
000020 9b 6c 58 3f 55 87 5a 3f 7e de 75 3f 05 6e 59 3f
       0.8454072 0.8536275 0.9604262 0.849335
000030 a7 b0 6e 3f a1 cb 73 3f 1a f0 6e 3f ff 7e 58 3f
       0.932383 0.9523259 0.93335116 0.8456878
000040 e7 dc 3b 3f db 37 87 3f 97 3b 49 3f 12 76 65 3f
       0.73383945 1.0563921 0.7860655 0.89633286
000050 96 43 4b 3f 8d c5 4b 3f e5 13 5f 3f 53 85 75 3f
       0.794 0.79598314 0.8713973 0.9590656
000060 e5 b2 6b 3f 82 00 53 3f 9b 24 6e 3f 19 a3 81 3f
       0.92069846 0.8242265 0.93024606 1.0127898
000070 1f 6c 8a 3f 96 59 42 3f f0 d0 6c 3f 76 3a 72 3f
       1.0814246 0.7591795 0.92506313 0.94620454
000080 8e 78 3e 3f ee 84 78 3f 72 98 60 3f d3 50 6a 3f
       0.744027 0.97077835 0.87732613 0.9152958
000090 32 a2 50 3f c4 8a 62 3f c7 d3 41 3f ab ea 8d 3f
       0.8149749 0.8849299 0.7571377 1.108724
0000a0 b0 7b 38 3f 1c f9 5d 3f 77 75 1d 3f 99 92 5f 3f
       0.7206373 0.86708236 0.6150736 0.87333065
0000b0 0c dd 6f 3f 17 59 78 3f c6 ca 46 3f 69 0b 66 3f
       0.93696666 0.9701094 0.7765316 0.8986116
0000c0 6b 93 52 3f f9 a0 57 3f 34 ee 56 3f 50 1a 46 3f
       0.8225619 0.8423 0.8395722 0.773839
0000d0 10 28 6b 3f 4a 96 6b 3f bd 48 61 3f 26 29 5b 3f
       0.91858006 0.920262 0.88001615 0.8560966
0000e0 e7 4e 3c 3f 3d 09 59 3f 8d 66 61 3f a9 49 65 3f
       0.73557895 0.8477972 0.88047105 0.8956552
0000f0 05 9a 4f 3f 3d 0c 61 3f ad f1 64 3f 7e 9d 46 3f
       0.8109439 0.879093 0.8943127 0.77584064
000100 fa b1 70 3f 42 c1 5b 3f af c4 63 3f ff a2 62 3f
       0.9402157 0.85841763 0.8897199 0.8852996
000110 ba 17 43 3f 19 79 67 3f 8f f6 65 3f be ce 34 3f
       0.7620808 0.90419155 0.89829344 0.70627964
000120 f6 05 3a 3f 58 d0 4d 3f d3 a6 6e 3f 3a cc 82 3f
       0.72665346 0.8039603 0.93223304 1.0218575
000130 e4 3b 5e 3f 1a d7 68 3f 5b 44 49 3f 92 75 60 3f
       0.86810136 0.9095322 0.7861993 0.876794
000140 be ad 80 3f 4b 96 6e 3f f3 cf 58 3f 5c 63 77 3f
       1.0053022 0.9319808 0.84692305 0.96635985
000150 ab 8f 4a 3f 73 7e 2a 3f 02 9c 2d 3f fb e5 66 3f
       0.7912547 0.66599196 0.67816174 0.9019467
000160 96 af 53 3f 48 33 58 3f 9c b1 79 3f f0 10 54 3f
       0.826898 0.8445325 0.97536635 0.82838345
000170 63 79 6a 3f 02 e6 3e 3f 92 4f 59 3f fa 7e 67 3f
       0.9159147 0.74569714 0.8488704 0.90428126
000180 fd 9b 6b 3f 3b 5a 55 3f 55 e4 47 3f 92 ce 43 3f
       0.92034894 0.83340806 0.7808278 0.76487076
000190 2a 3d 6a 3f a7 38 71 3f 4e c8 4f 3f 10 24 3e 3f
       0.9149958 0.9422707 0.81165016 0.74273777
0001a0 8d 2c 6d 3f bb 58 6f 3f b3 93 6e 3f 9b 8b 4d 3f
       0.92646104 0.93494767 0.9319412 0.80291146
0001b0 df f2 41 3f 18 39 58 3f 9e 4b 61 3f a9 db 52 3f
       0.75761217 0.8446212 0.8800601 0.82366425
0001c0 e7 2a 61 3f f4 28 5b 3f 33 9a 8d 3f 7e ed 48 3f
       0.8795609 0.85609365 1.1062683 0.78487384
0001d0 a4 9b 48 3f 5c b4 39 3f 9b e7 62 3f 46 c5 8a 3f
       0.7836249 0.7254083 0.8863465 1.0841453
0001e0 d5 61 36 3f 4c b6 7b 3f dc cd 5e 3f 51 c7 63 3f
       0.7124303 0.9832504 0.87032866 0.8897601
0001f0 7f 19 76 3f 43 e9 6b 3f f2 10 5b 3f 18 69 4d 3f
       0.96132654 0.92152804 0.8557273 0.80238485

model.model.6.bias f4 [128]
000000 fa e4 f5 3d 89 02 75 3e 80 20 64 3e a1 b8 f7 3d
       0.120065644 0.23926748 0.22278023 0.12095762
000010 e6 b1 d5 bc fc 44 4c 3d 1b 3e b9 3e 81 06 ce 3e
       -0.026085805 0.049870476 0.36180195 0.40239337
000020 e9 e3 67 3e b2 50 18 3e 4c 6a 25 3e f1 36 a3 3d
       0.22645535 0.14874533 0.1615383 0.079694636
000030 d4 0e a5 3e 8c b2 9c 3e 35 d9 aa 3e 6e 34 68 3e
       0.32237875 0.3060497 0.3336884 0.2267625
000040 3f cc 0a bd 24 24 43 3e fd 0b 69 3d 0f 0d 8f 3e
       -0.03388619 0.19056755 0.0568962 0.2793965
000050 ab 3e bc 3d 3f f4 21 3c 86 4d e8 3e ce 5f f7 3d
       0.091916405 0.009884893 0.45371646 0.1207882
000060 18 4a c4 3e 85 41 87 3e 09 8d d5 3e de 72 ec 3e
       0.3833778 0.26417175 0.41709164 0.46181387
000070 05 c4 bc 3e 37 21 34 3e 0c a6 fc 3e 78 35 12 3e
       0.368683 0.17590795 0.49345434 0.14278209
000080 14 dc 87 3e 12 ad 92 3e 18 55 b7 3d 2f 89 e9 3d
       0.26535094 0.28647667 0.08951777 0.11403119
000090 b9 49 8d 3d 4f c3 72 3e 2b b1 26 3e 61 6e ee 3e
       0.06898827 0.23707317 0.16278522 0.46568587
0000a0 ff 8a a1 3e 17 94 6b 3e f4 05 e5 be e6 bf ad 3e
       0.31551358 0.2300571 -0.44731104 0.3393547
0000b0 b7 e2 16 3e 76 00 32 3d 4c 29 95 bd ec 71 eb 3d
       0.14734922 0.04345747 -0.072832674 0.11496338
0000c0 63 4d ba 3e 75 f6 a9 3e eb 0e 0f 3e 45 f1 1a 3e
       0.36387166 0.33195844 0.13970535 0.151311
0000d0 1c a5 25 3d e1 e0 b0 3d 3e cc 3f 3e 2b 8c df 3e
       0.040440664 0.08636642 0.18730256 0.43661627
0000e0 a6 70 e9 3d 96 28 9b 3e 55 3e 9f 3e 1b 63 ad 3e
       0.11398439 0.30304402 0.31102243 0.33864674
0000f0 d8 30 31 3e 78 20 ca 3e c4 ac 0a 3e 94 23 78 3d
       0.17303789 0.39477897 0.13542467 0.060580805
000100 4b 03 c2 3e 01 c7 b1 3e 9f 8e 44 3e 3f 0d 9f 3e
       0.37893137 0.3472214 0.1919503 0.31064793
000110 a7 fa 90 3e c3 d3 6f 3e 80 cc cb 3e 0c c5 f1 3d
       0.28316233 0.23420624 0.3980446 0.11805162
000120 4f 71 77 3e ce 19 31 3d 74 89 87 3e 36 fa 30 3e
       0.24164318 0.0432375 0.26472056 0.17282948
000130 bf eb 32 3e ec cd 2f bd 66 12 6e 3d 0b d5 f2 3c
       0.17472742 -0.04292099 0.058123015 0.029642602
000140 66 68 61 3e 44 ce 97 3e f9 71 63 3e 7c 27 e8 3e
       0.22012481 0.29649556 0.22211446 0.45342624
000150 ed 5a b6 3e b2 54 a1 bd 34 f7 95 bd f4 b6 63 3e
       0.35616246 -0.078774825 -0.07322541 0.2223776
000160 47 bd 8d 3e d7 93 dd 3d ad 7a 9e 3e eb b5 1e 3e
       0.2768347 0.10819214 0.3095297 0.15499084
000170 e6 1c d6 3e 31 d4 e8 be d0 3d f2 3d 44 4b bd 3e
       0.41818923 -0.4547439 0.11828196 0.36971486
000180 9e ae d1 3e e9 a9 10 3e b0 f8 1f be e0 dd bf 3d
       0.40953535 0.14127316 -0.1562221 0.09368491
000190 11 5d 65 3e 55 63 92 3e 69 1f 41 bc 9b 81 4c 3e
       0.22398783 0.2859141 -0.011787274 0.19971316
0001a0 7e e7 55 3e 2b b0 85 3e 66 80 51 3e 54 d8 92 3e
       0.20889089 0.26110968 0.20459136 0.2868067
0001b0 54 de 5d 3e 15 4f 8a 3c 61 c9 97 3e d0 0c 86 3e
       0.21666843 0.016883412 0.29645827 0.2618165
0001c0 f5 1c 9f 3e b1 22 97 3e 95 b1 2b 3e 30 c2 b0 3d
       0.3107678 0.29518655 0.16766961 0.08630788
0001d0 21 bf 7c 3e f9 00 3e 3e 9e 99 ba bb 3c 35 08 3d
       0.24682285 0.18555059 -0.005694582 0.033253893
0001e0 de 7d 78 bd f9 18 e5 3e 37 05 ae 3e 6b 04 a4 3e
       -0.06066691 0.44745615 0.33988354 0.3203462
0001f0 78 5d b0 3e f3 70 ae 3d 2d e7 66 3e 02 12 46 3e
       0.3444631 0.08517637 0.22549124 0.19342807

model.model.6.running_mean f4 [128]
000000 ca d5 a8 3e d4 00 ee 3e 52 4b 07 3f 76 61 73 3e
       0.32975608 0.46485007 0.52849305 0.23767647
000010 b2 53 d2 3e a1 85 b0 3d bd 13 a4 3e 0d 93 2d 3f
       0.4107948 0.08619238 0.3204631 0.67802507
000020 d8 d1 db 3e ad 58 06 3f 03 96 5a 3f a7 a0 c9 3e
       0.42933536 0.5247906 0.8538515 0.3938038
000030 7e 55 39 3f 4e d1 4e 3f d2 81 ca 3e 92 19 a9 3e
       0.72396076 0.80788124 0.3955217 0.3302732
000040 48 5a d5 3d 10 7b ba 3e a2 5d 1a 3e 0c b6 eb 3e
       0.104176104 0.36422014 0.1507478 0.46037328
000050 21 67 91 3e 62 d8 56 3f 18 4d 36 3f f2 21 2f 3f
       0.28398994 0.83923924 0.71211386 0.6841117
000060 00 a5 69 3f d8 01 16 3f de 7a 10 3f 1b e6 0d 3f
       0.91267395 0.58596563 0.5643748 0.5542924
000070 aa 88 97 3e 75 fa e1 3e 12 44 53 3f 82 4b b9 3e
       0.29596454 0.44136396 0.8252574 0.3619042
000080 86 1b 2e 3e a1 db 40 3f 72 5b 23 3f 22 b5 f7 3e
       0.17002687 0.7533513 0.6381141 0.4838038
000090 c8 75 e4 3e 30 14 e7 3e 03 ea d7 3e df 18 13 3f
       0.4462111 0.4513259 0.42170724 0.57459825
0000a0 96 d7 b9 3e c2 51 15 3f 0c 16 18 3f 39 a3 4c 3f
       0.36297292 0.5832788 0.5940864 0.7993656
0000b0 6f 56 80 3e 40 b3 eb 3e 87 a5 d7 3e 71 22 f3 3e
       0.25065944 0.46035194 0.42118475 0.47487214
0000c0 f9 e1 d4 3e 4f 12 12 3f 19 da 08 3f 66 c6 7a 3e
       0.41578653 0.57059187 0.5345779 0.24489745
0000d0 31 51 be 3e 8a 16 8a 3f f0 d9 80 3e 19 06 25 3f
       0.3717132 1.0788128 0.25166273 0.6446243
0000e0 d0 69 c0 3e b7 7a 45 3e fa a5 22 3f 71 68 ca 3e
       0.3758073 0.19285093 0.6353451 0.39532807
0000f0 e4 d3 f0 3e ce 37 ea 3e ee 08 a8 3e d0 1b 47 3e
       0.4703666 0.457457 0.32819313 0.19444203
000100 32 68 3e 3f 9c a5 69 3f f3 8c a1 3e e0 24 94 3e
       0.7437774 0.91268325 0.31552848 0.28934383
000110 89 f7 31 3f 75 2a 0c 3f 6d 01 72 3f bf e6 5b 3f
       0.69518334 0.54752284 0.94533426 0.85898966
000120 d4 c3 a6 3e f3 ca 86 3e ec 0a a3 3e 8c 35 da 3e
       0.3257128 0.26326713 0.3184427 0.42618978
000130 e5 38 31 3f 8a 27 6a 3f 4d 85 54 3f c8 99 38 3f
       0.6922744 0.9146658 0.830159 0.7210965
000140 c7 8d 04 3f 59 96 e4 3e e8 1b 58 3f 3d 65 5a 3f
       0.51778835 0.44645956 0.8441758 0.8531073
000150 a0 2a be 3e b6 3a 0f 3f 44 68 d5 3e 9c 2b 04 3f
       0.37141895 0.5594896 0.4168111 0.5162904
000160 2f 29 12 3f cf 50 69 3e 58 bf 89 3e 49 2c ed 3e
       0.5709409 0.22784732 0.26903796 0.4632285
000170 0a 45 64 3f 17 e9 97 3e 0f 49 82 3e 7a eb 67 3f
       0.89167845 0.2967002 0.25446364 0.90593684
000180 52 7c 35 3f bb f9 bc 3e a3 07 84 3e 5a 61 d0 3e
       0.7089282 0.3690928 0.25787076 0.40699273
000190 b0 0b b4 3f e8 45 3a 3f 4e 1b 4c 3f 19 6c 07 3f
       1.4066067 0.7276292 0.79729164 0.5289932
0001a0 c1 44 d7 3e ce 49 57 3f a9 0d 98 3e 90 54 f2 3e
       0.42044643 0.8409699 0.29697922 0.4733014
0001b0 7f 3d 41 3f 86 cc 9e 3e bc 43 1b 3f 19 30 52 3f
       0.7548446 0.31015414 0.6065023 0.8210464
0001c0 88 fe d9 3e c8 5a 1f 3f 7d ea 45 3e 3b 92 cb 3e
       0.42577004 0.62247896 0.19327731 0.39760002
0001d0 22 28 49 3f 98 1b 6a 3e f4 e4 6e 3e 63 45 e4 3e
       0.7857686 0.22862089 0.23329526 0.44584188
0001e0 a7 46 42 3f d8 cb 37 3f 14 e1 34 3f 95 8c 67 3f
       0.75889057 0.71795416 0.7065594 0.90448886
0001f0 59 af 14 3f 85 a7 11 3f c0 c7 3e 3e d6 66 c5 3d
       0.5808006 0.5689624 0.18630886 0.09638755

model.model.6.running_var f4 [128]
000000 5f c5 85 3f d0 d7 e6 3f be a5 c1 3f f8 79 80 3f
       1.0450858 1.8034611 1.5128706 1.0037222
000010 3c e6 8d 3f 78 71 06 3f 46 12 9d 3f 8b 8b 12 40
       1.1085887 0.5251689 1.2271202 2.289767
000020 79 db aa 3f b5 d7 a3 3f e4 db 1e 40 c2 bb a7 3f
       1.3348228 1.2800204 2.482171 1.3104174
000030 fa 45 07 40 95 1e 21 40 a1 88 a4 3f 7e 6c 81 3f
       2.113646 2.5174916 1.2854196 1.0111234
000040 8e f9 13 3f d6 5b 54 3f 90 37 0e 3f 0e 1a b4 3f
       0.57802665 0.8295263 0.5555353 1.4070451
000050 34 c9 67 3f 22 ef 41 40 31 81 0c 40 7b df 43 40
       0.90541387 3.0302205 2.1953852 3.0605152
000060 e2 4b 3d 40 82 76 08 40 ce f6 e0 3f b1 c8 d7 3f
       2.9577565 2.1322331 1.7575319 1.6858121
000070 42 10 37 3f 7e 83 94 3f 8e 78 5a 40 6a 3f b3 3f
       0.7150918 1.1602628 3.413608 1.4003727
000080 91 fd 6e 3f ae 29 24 40 e8 31 c7 3f 2f 04 e1 3f
       0.9335566 2.565044 1.5562105 1.7579402
000090 64 19 e2 3f 13 5e c7 3f 2d 0b a3 3f 51 30 c8 3f
       1.7663999 1.5575584 1.2737786 1.5639745
0000a0 6c e7 9b 3f 29 69 cd 3f 72 e6 e9 3f 61 c0 2b 40
       1.2179999 1.6047717 1.8273451 2.6836169
0000b0 fd aa 69 3f a6 71 c2 3f d0 6e 97 3f 28 88 a7 3f
       0.9127653 1.5190933 1.1830692 1.3088427
0000c0 72 b7 b1 3f 6d f0 c3 3f a5 b9 db 3f 15 53 7c 3f
       1.3884108 1.5307747 1.7166029 0.98564273
0000d0 27 d6 94 3f b0 6b 7d 40 1a e5 46 3f 94 de 03 40
       1.1627854 3.9596977 0.7769333 2.06046
0000e0 1b b0 92 3f 42 cc 31 3f 94 7c d0 3f be f1 bd 3f
       1.1459993 0.694523 1.6288018 1.4839399
0000f0 d4 3f a8 3f 94 74 d9 3f 64 eb 8e 3f ac f3 0d 3f
       1.3144479 1.6988702 1.1165586 0.5544994
000100 0b 8e 33 40 b2 66 1f 40 f0 f0 8e 3f 8d 85 6d 3f
       2.8055446 2.490643 1.1167278 0.9278191
000110 82 fc f4 3f 65 2d d7 3f 30 78 63 40 5c f4 02 40
       1.9139559 1.6810728 3.5542107 2.0461645
000120 64 8c 5e 3f 12 99 56 3f 24 de 89 3f fe 53 cc 3f
       0.8693297 0.83827317 1.0770917 1.5963132
000130 f8 fb 04 40 0e 15 35 40 99 34 45 40 ca 2f 0f 40
       2.077879 2.82941 3.0813353 2.2372918
000140 cb 0c da 3f 22 81 a8 3f 96 9d 53 40 5e f2 82 40
       1.7035154 1.3164408 3.3064933 4.092086
000150 87 6c 8c 3f 5a 8f cf 3f bf 3f a0 3f 7b de d6 3f
       1.097062 1.6215622 1.2519454 1.6786646
000160 cd fb fa 3f ac f1 37 3f 9c cb 37 3f df 89 9f 3f
       1.9608094 0.71853137 0.7179506 1.246395
000170 33 6c 3d 40 53 24 74 3f 39 bf 5a 3f 91 82 30 40
       2.959729 0.95367926 0.8544803 2.7579691
000180 07 40 fd 3f 76 a9 ae 3f 0a f1 82 3f de d3 9e 3f
       1.9785165 1.3645465 1.0229809 1.2408407
000190 0a 5d 9d 40 cb a0 08 40 5e eb 1a 40 23 a1 cd 3f
       4.9176073 2.134814 2.4206157 1.60648
0001a0 05 f9 b1 3f 64 34 47 40 7c 6c b1 3f 49 f7 ac 3f
       1.390412 3.1125727 1.3861232 1.3512965
0001b0 00 f9 06 40 91 9c 80 3f 48 39 d6 3f f2 09 35 40
       2.1089478 1.004778 1.6736231 2.828732
0001c0 31 ac c0 3f 7e 0c 11 40 90 01 27 3f 19 18 9a 3f
       1.5052549 2.2663875 0.6523676 1.2038604
0001d0 6c 76 1e 40 8b 7d 2c 3f 86 9e 61 3f 4a 8f a6 3f
       2.475978 0.67379063 0.8813251 1.3012478
0001e0 b4 92 f3 3f 73 f3 1d 40 ba b9 cf 3f 1e 9c 41 40
       1.9029145 2.467984 1.6228554 3.0251536
0001f0 14 1d c5 3f e1 7f e2 3f 06 22 14 3f 1b 97 ff 3e
       1.5399499 1.7695276 0.57864416 0.49919972
