parkinson telemonitoring/checkpoints/parkinson-epoch=124-val_loss=9.64.ckpt (torch, 623520 bytes, 76 tensors)

model.model.0.weight f4 [128, 80]
00000000: 330d 6f3d 29df 1fbe 3b70 40bc eabb 35be
00000010: c975 b1bd fdfc aabd f895 1fbd 94ea 5e3c
00000020: 16e6 72bd 47ea 9b3d 9581 6fbd 9188 4d3e
00000030: b9aa c33d 6686 613d d5b9 993d 4d28 473d
00000040: 811d 973e 4090 c93d c900 e93d 8c72 b03e
00000050: f19a 84be a956 82bd 130f f43d 74b3 27bd
00000060: 71c6 183c 37f0 fb3d 1cee 0cbe 7405 3d3d
00000070: acc0 2dbd afc4 32be a318 46bd 1cc6 28bd
00000080: f8ec 03be ef88 9bbd 9b94 b4bc 8a88 993d
00000090: 0f20 4dbd 2548 6abd 726b a43d ec8e 76bd
000000a0: d5e4 f53c a744 0d3d 71a6 d33d bb75 aa3d
000000b0: 4c57 2cbe 7f56 513e df65 9d3d 5cbb 14bd
000000c0: 4f19 9cbd 8992 dd3d 1305 883c d9ac 88bd
000000d0: 0225 64bd e47d 33bd 774b 083e 11ea 09bd
000000e0: 9877 233e ff49 63ba f8ea 9d3b 90f3 37be
000000f0: c789 823d d9a4 bf3d e313 fc3d 3c92 b43c
00000100: f457 b4bc 4f0c 6c3d 50bd 9b3c a314 4a3c
00000110: 2f78 e23c 9a46 423b e96e 113e 90b7 093d
00000120: 3187 94bd 7c0e b5bd f3fd 56bd 8043 d2bb
00000130: 5c5f 6ebd 7254 ce3d 117d be3e f756 3abf
00000140: 70ac 813d 43c5 dabd 82f7 f1bc 2264 503d
00000150: db40 383c ba05 85bd 9a40 19bd 3e75 603d
00000160: ba3c 9f3d 092f 5abd 3110 29bd ac2d 7e3c
00000170: 0c7f 4b3d 0520 d63d cba1 d53e a687 893c
00000180: 280b 62be 46f2 45be 6b40 84be a353 1bbd
00000190: 11ba 95bd 55e4 37be 0f67 fcbd 2108 483c
000001a0: 99b9 2e3d 63bd 393e f8cd 45be d983 26bd
000001b0: 7a19 8c3d 3ffe 2c3e 912f 603d afe5 abbd
000001c0: 3c52 cdbc 6dcf 243e d1ba 993d 12f4 853b
000001d0: fc4f 8f3d bd7e 99bd 891f dabc 1d4e 4cbe
000001e0: 9a1a ea3c 8205 af3d eae8 2ebe 85a9 9d3d
000001f0: 2441 77bd acee 1abc b781 a6bd 58a7 893d
00000200: 9fab 203d deb6 db3d fa49 59be a5ae d33d
00000210: 8a6e fb3d a315 15bd a56a 943c e06f 8bbe
00000220: 5310 e2bc ad74 7f3d bd1c 9e3d 9eae 2d3d
00000230: e46c b2bd 8319 b43b b40b d2bc 3409 523d
00000240: 225e 243e 7ef8 f13d 9796 e2bc 833c a0bd
00000250: b6a1 b13c 4802 98bd 3c04 b2bd 98ed cabd
00000260: 742f 933d d1c5 4c3e 6456 d7bb 0225 d73d
00000270: a93c d7ba 3a57 85be 05f9 66be a95a 483e
00000280: 1f26 b0bd 04ec 8d3e 5ff9 1b3d 5d9c 5bbe
00000290: f0de f3bc 0664 253e 41bf 303d 2c0d 243d
000002a0: 5b03 133e 45b2 64bd 432d 7e3d 852e 1bbb
000002b0: abb2 43bd 2a7d 54be cb19 583c dd9f e63c
000002c0: 9b1f 5d3d 40a2 4a3d 2867 d13d 8f39 313e
000002d0: 7bc0 f2be 1633 d43d c8e6 223e de01 073e
000002e0: 5d07 0f3e 1fdf 39be a1c3 cb39 d1e5 aa3d
000002f0: bd7d a13e 4147 91be 4414 e53c b55a 8d3c
00000300: 45cd 983d d040 1fbc a85c 10be 7875 35bd
00000310: be70 54bd 1dfc ec3c e525 92bd 558c 4b3d
00000320: b92a 35be f881 42be b28d a43d 5c91 6fbe
00000330: 4d31 b23c c0c7 103d 0e9a c2bd c047 edbd
00000340: edec 2abb 9ee1 803d cf58 41bc 2ef2 fabc
00000350: 6598 94bc e7f8 9cbd 985f 103d 5f1b 82bc
00000360: 7316 bcbd 5ec4 81bd 88e4 9abd 52be e4bd
00000370: 83a1 09bd 72a5 ab3c 3d2f ca3c 3f41 a6bc
00000380: 8e59 863d d2a6 debb e9cf 973b e09c 503c
00000390: 18fe 123d 55be 19bd a9df 943e fd88 7b3d
000003a0: 2312 06bd bb1d 083e 2af2 21be 8db9 a2bd
000003b0: bec6 91bd b0e7 4dbd 72f0 573d 740e d6be
000003c0: 0844 223e fb5a e03d 20de 2bbd a799 0ebe
000003d0: 8446 eebd 5b66 39be 1e7d b6bd 5581 83bc
000003e0: 9911 81bb b6be f6bd 4a56 edba 7d56 d23d
000003f0: c231 febd 561b 163e c721 833c a0b7 34bd
0.058362197 -0.15612473 -0.011745508 -0.17747465 -0.08665044 -0.08349035 -0.03896138 0.0136057325
-0.05930146 0.07613044 -0.05847319 0.20071627 0.09554047 0.055059813 0.07506148 0.04862242
0.29514697 0.09841967 0.11377103 0.34462392 -0.2589946 -0.06364185 0.11916938 -0.040942624
0.009324656 0.12301677 -0.13762707 0.04614778 -0.042420074 -0.17457841 -0.04836334 -0.041204557
-0.12883365 -0.075944774 -0.022043517 0.07496746 -0.0500794 -0.05719771 0.08028306 -0.060194895
0.030016342 0.0344893 0.103344806 0.083232366 -0.16830176 0.20443152 0.07685446 -0.036311492
-0.07622015 0.10818965 0.016603982 -0.06673593 -0.055699356 -0.04382123 0.13310038 -0.03367049
0.1596359 -0.0008670389 0.00481927 -0.17964005 0.06373935 0.09357614 0.123084806 0.022042386
-0.022014596 0.057628926 0.01901117 0.012334022 0.027645199 0.0029644133 0.14202465 0.033622324
-0.07252348 -0.08840653 -0.05248828 -0.006416738 -0.05819641 0.100747004 0.37204793 -0.7278895
0.06331718 -0.10682156 -0.029536966 0.050876744 0.0112459315 -0.06495233 -0.037415124 0.05479931
0.077752545 -0.053267512 -0.041275207 0.015513819 0.04968171 0.10455326 0.41725 0.016788315
-0.22074568 -0.19330701 -0.25830397 -0.03792156 -0.0731088 -0.17958196 -0.12324344 0.012208969
0.04265747 0.18138652 -0.19316852 -0.040653083 0.06840797 0.16893862 0.054732863 -0.08393418
-0.025063626 0.16094752 0.075063355 0.0040879333 0.06997678 -0.074948765 -0.026626365 -0.19951673
0.028577138 0.085459724 -0.17081037 0.07698349 -0.060364857 -0.009456318 -0.0813021 0.067213714
0.03922617 0.107282385 -0.21219626 0.10336045 0.12276943 -0.036397588 0.018117258 -0.2723379
-0.027595675 0.06236713 0.07720325 0.042402856 -0.087121755 0.0054962053 -0.025640346 0.051278308
0.16051534 0.11814974 -0.027659697 -0.07824042 0.021683555 -0.0742231 -0.08692214 -0.09908599
0.07186785 0.19997336 -0.006571578 0.105051056 -0.0016421276 -0.2604311 -0.22555931 0.19565834
-0.08601021 0.27719128 0.038079616 -0.21446367 -0.02976939 0.16151437 0.043151144 0.040051624
0.14356749 -0.055834074 0.062054884 -0.002367885 -0.047777813 -0.20750871 0.013189743 0.0281524
0.05398522 0.04947114 0.102247536 0.17307113 -0.47412476 0.10361306 0.15908349 0.13184306
0.13967653 -0.1815152 0.00038864932 0.08344615 0.31541243 -0.28374675 0.027963765 0.017255167
0.07461027 -0.009720042 -0.14097846 -0.04430148 -0.05186533 0.02892881 -0.07136134 0.049694378
-0.17692079 -0.18994892 0.08034839 -0.23395294 0.021752024 0.035346746 -0.0950204 -0.11585951
-0.002608116 0.06293033 -0.011800959 -0.030633058 -0.018139074 -0.07664662 0.035247415 -0.015882192
-0.09183969 -0.06336282 -0.0756312 -0.11169113 -0.033601295 0.020952914 0.024680728 -0.020294784
0.0656005 -0.006794789 0.004632939 0.012732714 0.035886854 -0.03753503 0.2907689 0.06140994
-0.03273214 0.13292591 -0.15815035 -0.07945547 -0.07117985 -0.050269783 0.05271954 -0.41807902
0.15846264 0.10954853 -0.04195988 -0.13925801 -0.116345435 -0.18105452 -0.08910583 -0.016052881
-0.0039388654 -0.12048094 -0.0018107381 0.102704026 -0.12411834 0.14658865 0.016007317 -0.04412043

model.model.0.bias f4 [128]
00000000: 3020 05bf 5670 4c3d f042 a7be 2840 57be
00000010: 7469 49be 72b9 30be 3b0b 62be 1ea9 9bbd
00000020: 92b2 923e f58d e73d 06c1 50be 0c10 3cbe
00000030: 2e1d fcbd e2cc 11be 2f09 29be 783a bcbd
00000040: 610f e93d 402b 7c3e 3fb1 64be a224 2cbe
00000050: cb33 abbe 35fd 84be 93bb c03d 60ec 343e
00000060: 9195 6d3e 33e1 afbe 5767 5ebe b470 8b3e
00000070: 154c 1ebe d66b a93e 82fa 013e 26ad 13be
00000080: 22f9 793c aa3c 00bc da16 babe 6d82 3ebe
00000090: f725 39be 8c1b 98be f22b 27be 69ed b4be
000000a0: 9f7f 3ebd ab81 bf3e b7c5 073d 0dc6 303e
000000b0: 0b68 35be 1590 153e d08e 80be f11f 0abc
000000c0: 0e8f 0d3e 5bae 57be a554 88bd 8154 0cbe
000000d0: bb58 bbbd 847d 263e 6ce5 8ebe 90d8 e1bd
000000e0: 22cf 8abe 24f6 023e 5598 a03e e505 0a3e
000000f0: 30b5 d0be 83b6 13bf 0f33 bfbd 2c5f 473c
00000100: 4dce dbbe cfbc 53be 6c80 f83c 5c87 2bbe
00000110: 41c8 6bbe aff9 e1be 0c35 db3c 1b5d c83d
00000120: 3e84 5dbe 64ec f0bd 7674 2fbe 9bff e43d
00000130: 132f 8e3e d85e 9ebd 356a 86be 8556 81be
00000140: 9ab6 83bd 9b40 a4be 3151 c7bb d6ab 4ebe
00000150: ecb7 8ebe 8ea7 e7be fb6a 9b3d d6af 44be
00000160: 83d3 87be e81d f33c 38f4 52be dc87 2e3d
00000170: 202f f7be a4a6 aebd 1d3d ac3e 604a 68be
00000180: 977e d7bb 4b7e 19bd 302e a9be ec2e 5ebe
00000190: 52c6 9cbe 5290 28be 577b 71be 4cc2 70be
000001a0: 4b7c 55bd 1f02 38be 1d66 abbe 023f f1be
000001b0: 62b1 c03e c13e 95be b1aa fbbe 39c9 a3bd
000001c0: 5a29 b03e 5221 953e 54f7 eabd ded2 6cbe
000001d0: 224d febd 8339 59bd 9051 90bd 3193 f9bc
000001e0: 34ba 26be a87e 99be 0eb6 96be fc33 adbe
000001f0: a4cf c3bd 7c5b 0e3e e837 b5bc 5a7f 76be
-0.5200224 0.04991182 -0.32668257 -0.21020567 -0.19669133 -0.17258242 -0.22074597 -0.07600616
0.28651863 0.11306373 -0.20386133 -0.18365496 -0.12310253 -0.14238313 -0.1650741 -0.091908395
0.113798864 0.24625874 -0.22333239 -0.1681085 -0.33437952 -0.25974432 0.09410777 0.17668295
0.23201586 -0.343515 -0.21719109 0.27234423 -0.1545871 0.33090085 0.12693217 -0.1442152
0.015257152 -0.007826963 -0.3634556 -0.18604441 -0.18080889 -0.29708517 -0.16325358 -0.3533738
-0.046508428 0.37403616 0.03314754 0.1726305 -0.1771547 0.14605744 -0.25108957 -0.008430467
0.13824102 -0.21062605 -0.0665677 -0.1370411 -0.09147783 0.16258818 -0.2790941 -0.11027634
-0.27111155 0.12789208 0.3136622 0.13478811 -0.40763235 -0.57700366 -0.093359105 0.012168687
-0.42930833 -0.20677494 0.030334674 -0.16750854 -0.2302561 -0.44135806 0.026758693 0.097833835
-0.21632478 -0.11763838 -0.1713427 0.111815654 0.2777029 -0.07732934 -0.26252905 -0.25261322
-0.06431313 -0.3208054 -0.006082677 -0.20182738 -0.27874696 -0.45245022 0.07588764 -0.19207701
-0.26528558 0.029677346 -0.20600975 0.042610034 -0.4827814 -0.08527878 0.33640376 -0.22684622
-0.00657637 -0.037473958 -0.3304305 -0.21697587 -0.30620056 -0.16461304 -0.23582207 -0.23511618
-0.052120488 -0.17969559 -0.33476344 -0.47118384 0.37635332 -0.2914944 -0.49153665 -0.079973646
0.3440655 0.29126984 -0.11472955 -0.23127314 -0.12417056 -0.053033363 -0.07046807 -0.030465694
-0.16281968 -0.29979444 -0.29435772 -0.33828723 -0.09561089 0.13902086 -0.022121385 -0.24072018

model.model.2.weight f4 [128]
00000000: 15d6 883f 800c 5e3f 1570 763f 46ac 6a3f
00000010: 60c6 573f 6fd9 7c3f eaff 7b3f 1985 703f
00000020: b03e 733f 60f4 843f 0962 873f bc34 733f
00000030: 7f81 703f 9972 883f 4f42 7a3f b406 673f
00000040: 7642 523f 1b2e 633f 6289 763f 75c1 7b3f
00000050: 5c2c 533f 590f 8e3f 3ec2 833f b041 813f
00000060: 014f 743f 0877 913f 7c12 753f f910 5a3f
00000070: 4a38 923f 2e6e 8e3f 156e 583f be2e 5f3f
00000080: 3500 813f 4a56 5c3f a58f 773f 4f09 603f
00000090: 3ce6 703f d62d 7b3f 52ad 703f 2563 6a3f
000000a0: 4f7a 733f 2205 7d3f da8b 523f f20f 713f
000000b0: d4cc 743f 60ab 663f 2163 6c3f 6bbf 4f3f
000000c0: bded 793f eaab 713f 87ec 693f cc89 843f
000000d0: 9fb5 873f 8fb3 843f 4701 6a3f 6a4b 7c3f
000000e0: 4543 753f dda9 553f d5bc 7b3f e48b 5f3f
000000f0: 8594 813f 1e29 683f 9353 8f3f 7557 7a3f
00000100: 2f97 7e3f 9d3e 923f 7973 793f a7b4 823f
00000110: 5444 6f3f ee5d 5b3f 9025 8b3f 35ac 7c3f
00000120: 98d6 7c3f 9125 663f 91d8 693f 48a5 653f
00000130: 50a5 763f 4751 743f 443c 863f 5052 7b3f
00000140: 5442 833f 1d1b 5d3f 240e 783f 8191 5a3f
00000150: bbc1 773f eb76 963f 6eeb 773f fbc8 733f
00000160: 6b78 773f a1dd 6e3f 1ff6 853f 5f42 6e3f
00000170: 3a41 6f3f 6dce 713f d847 6d3f 963e 813f
00000180: 6635 653f eeed 723f 7f7b 763f 42ce 873f
00000190: dce6 833f 511f 523f 9bae 893f 13f0 683f
000001a0: 6a0a 5f3f 9bcf 7a3f bed2 673f 4c69 6f3f
000001b0: b763 693f 4ead 733f 449d 7d3f 1a1f 6e3f
000001c0: 369f 6f3f d6f8 763f 3181 823f e2e3 7f3f
000001d0: d339 723f bfe7 603f e9b8 643f ed82 613f
000001e0: b55f 813f 86d2 4f3f 5857 893f 7cac 833f
000001f0: 9572 833f 63ad 533f 9432 7b3f e875 813f
1.0690333 0.86737823 0.96264774 0.9166912 0.8428707 0.9876928 0.9843737 0.9395309
0.9501753 1.0387077 1.0576793 0.9500234 0.93947595 1.0659972 0.9775743 0.90244603
0.8213266 0.88742226 0.9630338 0.98342067 0.8248956 1.1098434 1.0293653 1.0098171
0.9543305 1.136445 0.9573133 0.8518215 1.1423428 1.1127374 0.8454297 0.871807
1.0078188 0.86069167 0.9670356 0.87514204 0.9410131 0.98116815 0.94014466 0.9155753
0.95108503 0.9883596 0.82244647 0.94164956 0.9562504 0.9010525 0.9233876 0.81151456
0.97628385 0.94402945 0.9137654 1.0354552 1.0602301 1.0367297 0.914082 0.9855257
0.9580577 0.83462316 0.9833501 0.8732283 1.012345 0.9068774 1.119738 0.977897
0.9944944 1.1425358 0.9744182 1.0211381 0.93463635 0.856902 1.0870838 0.9870027
0.98764944 0.8990107 0.9134608 0.89705324 0.96345997 0.9543652 1.0487142 0.98172474
1.0254617 0.86369497 0.96896577 0.8537827 0.96779984 1.1755041 0.9684361 0.95228547
0.9666812 0.9330693 1.0465735 0.93070024 0.934589 0.94455606 0.9268775 1.0097225
0.89534605 0.948943 0.9628219 1.060982 1.0304828 0.82079035 1.075641 0.90991324
0.87125266 0.9797303 0.9055594 0.93520045 0.9116778 0.95186317 0.99068093 0.9301621
0.9360231 0.96473444 1.0195676 0.99957097 0.9461948 0.87853616 0.8934465 0.880904
1.0107332 0.8118061 1.072978 1.0287013 1.0269343 0.8268644 0.9812405 1.0114107

model.model.2.bias f4 [128]
00000000: d0c3 b9bd 29de 323e 59cc 853c 0968 233e
00000010: 335e ee3d 6afc 303e 90c5 533c 42c9 9abc
00000020: a60b 3d3e a9d5 b93d 98d1 513e b158 b1bc
00000030: ece6 52bd e881 123e 25fc eb3d 4cd9 543c
00000040: 9c3b 563d b02d 893e 6ba0 3abd a4f4 2e3e
00000050: f5ce 503d e111 03be 38cc 603e bccf 503e
00000060: 64e2 c43e 6577 1bbe ad8e 703e a893 4fbb
00000070: 616b a43e 7a24 3f3e 81ee 323e 80ca 253e
00000080: 7003 373d e7aa 873e d94c ce3c cfde 843d
00000090: dc5d 863e d5d0 c13d f696 ab3d 5be7 743e
000000a0: f49c 273e a632 b43e e935 15bd a393 6c3e
000000b0: c14f 1bbd 359f ac3e 2436 f83d dd32 9a3e
000000c0: 13c0 193e 75c6 57bd c2ed 1d3e dd40 fe3d
000000d0: 5fd6 973e 43a5 603e d323 123e 83a5 643e
000000e0: a73b 9d3e 1b4a 323e af8d 763e 39b2 923d
000000f0: a422 323d dc38 12be 066d 333e c090 893e
00000100: ea83 5abe 1a09 bdbd 7cec 1c3e a856 813e
00000110: adee cb3d 9d00 8dbc a147 3c3e 49f5 ec3d
00000120: 97fe 193e 6bc1 7f3e b630 913e 98e3 b13e
00000130: 77e2 513d 70c7 433e da9a 433d f003 afbd
00000140: 9318 cd3c 9d85 8dbe 5a2a af3d 848e e7bd
00000150: 6948 39be 7977 4d3d 2672 47bd cd42 b03d
00000160: 2574 ef3d bc3a 203e a155 8c3e f4f5 863d
00000170: df93 e13b d512 1f3d 0c9c 963e 1a7e f03d
00000180: a3d7 88bc 04fd 71bd 459d f1bd bd49 51bb
00000190: 414b 003d 8165 6ebe ddfc 873d c685 02bd
000001a0: 4bcf 2abd dcab 653e 39b0 17be 0020 10be
000001b0: 617a 783e 89eb 73bd 1997 27bd f019 0b3e
000001c0: 883f 243e 35e4 a13e f232 bf3d 2d09 693e
000001d0: 25ff d23d 96f8 c33d fe78 ae3d ce01 cf3e
000001e0: 74ff 19be 4817 27bd 9896 0c3e 70fc 8f3b
000001f0: 38a4 823e 3bdf 8ebc 986d 453d cee1 a73d
-0.090705514 0.1746756 0.016332792 0.15957655 0.11639061 0.17283788 0.012925521 -0.018894795
0.18461475 0.090739556 0.2049011 -0.021648737 -0.051489756 0.14307368 0.11522702 0.012991261
0.05230294 0.2679267 -0.045563143 0.1708551 0.05097862 -0.12799789 0.21952903 0.20391744
0.38453972 -0.15182264 0.23491926 -0.0031673703 0.32113174 0.18666258 0.17473795 0.16190529
0.044681013 0.26497576 0.025183128 0.0648781 0.26243484 0.0946366 0.08378403 0.2391638
0.16368467 0.35194892 -0.036428366 0.23103194 -0.037917856 0.33715215 0.121197015 0.3011693
0.15014677 -0.052679498 0.15422729 0.124147154 0.2965574 0.21938042 0.14271478 0.22328763
0.30709574 0.17411081 0.24077486 0.071628995 0.043490067 -0.14279503 0.17522058 0.26868248
-0.21339384 -0.092302516 0.15324587 0.25261426 0.09957633 -0.017212206 0.183867 0.11570222
0.15038525 0.24976127 0.28357476 0.34743953 0.051241364 0.19119048 0.0477551 -0.08545673
0.025036132 -0.27641 0.08553 -0.113064796 -0.18094029 0.050162766 -0.048692845 0.08606491
0.11692075 0.15647405 0.2740908 0.065898806 0.0068840827 0.03883632 0.2941593 0.11742802
-0.016704386 -0.059079185 -0.11797575 -0.003193482 0.031321768 -0.23280908 0.06640027 -0.031865858
-0.041701596 0.2242884 -0.14813317 -0.14074707 0.24265434 -0.059550796 -0.040915582 0.13584113
0.1603986 0.3161942 0.09335889 0.22757407 0.10302571 0.095688984 0.08519171 0.40431064
-0.15038854 -0.040793687 0.13729322 0.0043941066 0.25515914 -0.017440429 0.04820022 0.08197366

model.model.2.running_mean f4 [128]
00000000: ca87 0f3e 8da5 b63c 2173 05be ca4e 483e
00000010: 1732 5c3e 5d52 5fbe 70d8 4d3e d605 f8bd
00000020: 92ae 9dbb 48f9 d53e 58d6 403d 38dd 54be
00000030: f2dd e53d 7bb9 793e d646 cd3d ff83 8d3e
00000040: ec7b 5a3e 4af7 a33e 7778 263d 1d02 653d
00000050: 54c2 3bbe 2a95 1abe b0da 00bd 5393 adbd
00000060: db1d cabd a8cb 62be 6c68 3bbe 6266 393f
00000070: 6a4a 513e 769e 9cbd 5ec2 013f 7c13 3bbd
00000080: 7e3a 00be 0923 7a3e c1a7 77bd e861 313d
00000090: 9c30 183f 9e61 54be a4db ec3d 9be2 263d
000000a0: fb62 86bb 6a5e 9d3e 48bf 263f 54ae 333e
000000b0: ecfc 46be 9ea7 aebd 1423 36be c1b0 273e
000000c0: 7522 99bd f63a b33c 322e 573e b54f 2dbe
000000d0: 32cf 283f 90a6 b33e 28b5 18be 1af4 49be
000000e0: ff1e 1cbe f0fd d93c 3f01 b23e 9e87 993e
000000f0: f575 64be 6f03 dbbd 03ff 17be c2e4 b33e
00000100: 7f4d 53be 024c 63be b49e 26bc 5420 f3bd
00000110: c68e f33d c3ce 4fbd 3dcd e5bd 019f 1a3e
00000120: 3a21 303e 58e2 433c d355 a63e 0287 323e
00000130: 7873 2d3f 345f 893e 427c 3bbe e8e2 52be
00000140: 14a1 3ebe 0a47 9ebd b647 15be 8980 853d
00000150: 4d3d 13be 82fa 58be e39b 423d 5b26 28be
00000160: ff87 2cbe 17f4 52bd 013f f0bd a937 403c
00000170: ed67 f7bd 52fd 52be f8ee d53e deb2 46be
00000180: c1a4 6d3e 53b6 41bd fab0 61be 8547 5fbe
00000190: 31a5 81bd 2045 0c3e 791b 64be 3a17 26be
000001a0: cd82 8c3d 968f c43d 2570 f6bc e2ce 07bc
000001b0: a174 213d f447 53be 1e52 12be 72b4 85bd
000001c0: bd7f 323f c2ac 383d d90e 2fbe 1e96 62be
000001d0: 4c9c 753d 0fd1 f4bd 0f1c 62bd 42e9 12be
000001e0: 7bda 43be e684 22be 4cac 8abd 678f 1fbe
000001f0: 1935 403e c626 173f 1576 b93e 2ccf 113e
0.14016643 0.022295738 -0.130322 0.19561306 0.21503483 -0.21808763 0.20102096 -0.12110488
-0.00481207 0.4179175 0.047079414 -0.20787513 0.11223973 0.24387161 0.100232765 0.27639768
0.21336335 0.32024604 0.040642228 0.05591022 -0.18335849 -0.15095964 -0.031458557 -0.084753655
-0.09868976 -0.22148001 -0.18301553 0.7242185 0.20438543 -0.076474115 0.50687206 -0.04567288
-0.12522313 0.24427427 -0.060462717 0.04330626 0.5944917 -0.20740363 0.115653306 0.04074345
-0.004101155 0.30736095 0.6513562 0.1754697 -0.1943242 -0.08528064 -0.17786819 0.1637602
-0.07477275 0.0218787 0.21013716 -0.16924937 0.65941155 0.35088015 -0.14912856 -0.19722024
-0.15246199 0.026610345 0.34766576 0.2998628 -0.22310622 -0.10694014 -0.14843373 0.35135466
-0.20635031 -0.22196963 -0.010169674 -0.118714005 0.11892466 -0.050734293 -0.11220787 0.15099718
0.17200175 0.01195582 0.32487354 0.17434314 0.67754316 0.26830447 -0.1830912 -0.2059437
-0.18616134 -0.077283934 -0.14578137 0.06518657 -0.14378853 -0.21189311 0.047511946 -0.16420881
-0.16848753 -0.051502313 -0.11730767 0.01173202 -0.12080369 -0.20604447 0.4178388 -0.1940417
0.2320738 -0.04729302 -0.22040167 -0.21804626 -0.06330336 0.13698244 -0.22276105 -0.16219798
0.06860886 0.09597699 -0.030082772 -0.008289071 0.039417867 -0.20632917 -0.14289138 -0.06528558
0.69726163 0.04508663 -0.17095508 -0.22127578 0.05996351 -0.11953937 -0.05520254 -0.14346793
-0.19126312 -0.15871009 -0.06771144 -0.15582047 0.18770255 0.5904354 0.36222902 0.14239186

model.model.2.running_var f4 [128]
00000000: 6dc1 913e 15a9 873e 20a4 7c3d bc17 073f
00000010: 7292 073f 883b 4e3c bab4 2e3f 1e2a f93c
00000020: a751 a53d 19e6 ec3e fb6f ff3e 44f1 2e3c
00000030: 2b7e a13e efba 173f 08d1 2b3e b2c8 833e
00000040: 57f6 e03e c5db 953e 5522 a03e 9283 b93e
00000050: 92ed 1a3d bd5b ee3c eeb7 a63d b4c3 053d
00000060: 0e46 0c3d a54a 043c 7a1d 013d 980e 803f
00000070: 473d 7b3f a592 653d 5930 373f 2e15 183e
00000080: f212 653d 08eb 0b3f e87e ba3d 9f8f 863e
00000090: 48fb f93e e1dc 813c 7752 b33e 67e6 563e
000000a0: 9d67 263e 3c14 ce3e c9db 273f 482d c63e
000000b0: ce94 8e3c 68aa 2d3d 03e4 073d 3998 aa3e
000000c0: cd22 4f3d 30e9 113e 7a0f e23e 3b41 013d
000000d0: efb4 db3f 7a39 0c3f 7c86 413d 573c 9d3c
000000e0: 90ad 193d 6ab9 e53d d922 c33e ccb1 e23e
000000f0: 15e7 323c db64 dc3d db84 473d 88df 363f
00000100: 2835 f43c 2fce 053c 391f bb3d a78f a93d
00000110: 012c 793e 462a 293e 5165 4d3d 1b43 503e
00000120: 3675 083f c2cc 4e3e 2a6f 7b3f e1ba c63e
00000130: 8023 1a3f 1e3e 983e ddcd 063d 1296 5b3c
00000140: 589d 173d f8a3 c13d e124 153d c81b 9d3e
00000150: 8c74 183d a2dc 223c 897f 0c3e 6fbc e43c
00000160: 81e5 fc3c a9ec a83d 79e8 073e 6110 063e
00000170: d8d3 ef3d 2c17 693c c2d8 c43e 3ced 643c
00000180: 953b a73e 4514 ec3d dfef 173c 562e 1c3c
00000190: 5390 103e 0758 033f fdc8 053c aced 303d
000001a0: 944d 823e 2cc0 903e 7be8 5a3e 7e93 473e
000001b0: 5b67 b33d 3db9 4d3c dfd0 133d 9e3b b03d
000001c0: 5fb6 323f 4d66 9e3d 48ff d63c deae 123c
000001d0: 1b8c 853e b2f2 263d fd4f e93d 5904 5e3d
000001e0: c7a9 8a3c e4e9 623d 0bce 583e 1dd7 bb3c
000001f0: 5c71 cc3e 3afe 1f3f d07d 763f 0700 9d3e
0.28467885 0.26496187 0.06167996 0.5277059 0.5295783 0.012587436 0.68244517 0.03041559
0.080722146 0.462693 0.49890122 0.010677639 0.3154157 0.59269613 0.16778958 0.25739056
0.43937942 0.29269233 0.31276193 0.36233193 0.03782422 0.029096479 0.081405506 0.03265734
0.034246497 0.008074437 0.03152225 1.0004454 0.98140377 0.056048054 0.7155815 0.1485183
0.05592627 0.54655504 0.09106237 0.2628145 0.48824525 0.015852394 0.35023853 0.20986329
0.16250463 0.40249813 0.6556974 0.38706422 0.01740494 0.04239884 0.033176433 0.33319262
0.050570298 0.1424911 0.44152433 0.03155635 1.7164592 0.547752 0.047247395 0.019193811
0.037519038 0.112170056 0.38112524 0.44276273 0.010919352 0.10761424 0.048710685 0.7143483
0.029810503 0.008166834 0.091368146 0.08279353 0.24333192 0.16520032 0.05014545 0.20338099
0.5330385 0.20195296 0.982165 0.38814452 0.6021042 0.29734892 0.03291117 0.013402479
0.03701529 0.09455103 0.036412124 0.30685258 0.037220523 0.009940298 0.13720526 0.027921883
0.030871155 0.08248264 0.13272275 0.13092186 0.11710328 0.014226716 0.38446623 0.013972577
0.32662645 0.115273036 0.009273498 0.009532532 0.14117555 0.51306194 0.008165595 0.04319541
0.25449812 0.28271616 0.21377747 0.19489858 0.08759948 0.012556371 0.036087867 0.08605121
0.69809526 0.07734356 0.026244774 0.008952824 0.26083454 0.040758796 0.1139221 0.054203365
0.01692666 0.055398837 0.21172349 0.022929722 0.39930236 0.62497294 0.96285725 0.30664083

model.model.4.weight f4 [128, 128]
00000000: e389 f13d 8ad5 e03d 2f1d 963d 5df6 333d
00000010: e71c 023d 13c4 0b3d 0947 1dbe 8aeb 423c
00000020: 2d2d 10bd 1c73 cbbb d6e9 613e b985 ed3d
00000030: 4fd4 363e 6eb6 fdbd 5b5b 99bd c06e b6bd
00000040: cf52 a73d b17e 4b3e d57e 6e3c e7d7 a23d
00000050: 9883 e63d 4424 a83d 04bd 6a3d a7a7 fdbd
00000060: 6ca6 dfbc 9abf 333d d53d 89be 6769 483d
00000070: e572 993d 2592 123e a048 003e 7b87 573e
00000080: 1623 323e 124f 87bd c694 6bbd c09b 4d3d
00000090: e4b8 1dbe f194 aa3b 5a40 4d3d fbe6 23bd
000000a0: 4b40 adbd b188 9c3d c62b a7bc 7df3 a6bd
000000b0: 5933 423d 60d6 b5bd 9e32 76bc 5a99 7cbc
000000c0: 4c0a fabc 7039 0dbc 3fe9 bebd 51c6 683d
000000d0: a964 11be 5377 ffbd 3697 d53d f425 81bd
000000e0: 01bd 9a3c 9134 063e e4b9 0f3e 02fe b73d
000000f0: 7cbe 77bd 88d5 37be 5b82 063e 24dd f93d
00000100: f16f ae3d dccd a7bc d65e 9fbc a3ab a9bd
00000110: 5345 fbbc 901f d8bd 87e8 8c3d 597b f03d
00000120: a7ea cf3c f657 043d ed2b d13c e027 9abd
00000130: d5da 20be c06b a4bd 92af 343e ef19 5e3d
00000140: 337e 603e e1ae 25bd f2d9 9bbd 8e4b 3c3c
00000150: 05c5 93be 7d72 173e e919 5cbd a0ee b63d
00000160: e68f 19be b1cb dc3d 9d09 713c 8ba1 d6bd
00000170: 820d 32be 56ca 0cbe 08ed 84bc 5c97 c53d
00000180: aa81 9cbd 6897 7ebe 890f 0f3e a94d 30bd
00000190: 94ff eebd 6759 143d ce8e 53bc dbe7 7d3d
000001a0: e37d 363d e00a edba 0fbb 8ebd 9229 86bc
000001b0: d5a0 3fbd 20f0 d5bc ebf1 5cbe e7e1 1f3d
000001c0: c680 1a3e a348 a3bd c707 b33d e1c2 eabc
000001d0: 8d55 943d ffdb dabc 344e acbc c001 893c
000001e0: e860 5ebd d1cf 973e 4e0c 193e f0b2 393d
000001f0: a7e4 0bbd 4c68 f1bd a6e3 d1bd 326d 7d3c
00000200: d9ad 2c3d a272 b3bd cda1 213d 5a4a 173d
00000210: 4b6a e0bc e3af 82be 604c ff3c 053b 1a3d
00000220: b6d7 cf3d f5f2 993d 62b0 85bc de56 ffbd
00000230: 7fce fbbb 81a5 31be 3aa3 a7be d440 ce3d
00000240: eb62 6dbb 476c 2ebe c0ec 68bc c3ce 91bd
00000250: 4fea aabd c1ee a63c bc32 d23c 05d2 343d
00000260: 1a35 02be dd45 81bd f518 5dbc cc68 a43d
00000270: 3bbf 313d 3130 e83d c301 253d 6bf1 7ebe
00000280: 0b25 183c f9ba fabc 7087 a43c 3d2f 41bd
00000290: cf50 b13b 1ac7 893d acaf 473d a7e4 883c
000002a0: 5438 16bb 3b35 d93c f826 973d 3b77 6abe
000002b0: 5a72 a4bc fd9c 60be 031b 05be 2933 e9bd
000002c0: f43b 71be c818 4e3c 9ef4 87bb a269 d83c
000002d0: bbd1 f23c e2cd babd 9cad 213d eaae 01be
000002e0: 1c94 1dbc e0d9 49be 3da6 13be 1961 f9bd
000002f0: 8ccf f7bd a434 91bb 5829 38be be03 10bd
00000300: 8c40 643d e645 4cbd 272e 89be 712d 1f3d
00000310: ef22 6cbd 3a79 b5bc 6175 c9bd 4d0c 2c3d
00000320: 0deb efbc 9e34 abbd ecb5 a7bd 337a c2bb
00000330: f48b f23d 15c5 243d 3a17 623d 2ad0 9e3d
00000340: 871f 313d cdbe 353e 77b5 c8bc 2015 20be
00000350: 34f2 a7bd 35e5 e93d 0b4f 31be 4330 923d
00000360: 3acf bf3c c237 713c b494 953b 1e8e 12bd
00000370: f93a 883c a8d5 05be a0cd 17bd 2303 8e3b
00000380: d72d 60bd 732b 873d 1a30 31be 1ddf 85bd
00000390: 75fe fd3d f278 193c 1ae7 a13c 0c46 ad3d
000003a0: a678 6bbd 76d1 11be 84db aa3d 6556 b2bd
000003b0: 9046 533b 8fd6 ac3d 8ac3 053d 3b56 8b3d
000003c0: 8faf ca3d 4256 1cbd c53d ff3c 60c4 ddbe
000003d0: b26f 2dbd b136 58be ab65 00bd 8e6d 943d
000003e0: 2de7 0abd fee6 e63d 37db 7cbd 1547 c73d
000003f0: b664 963c 8281 063e 914b 5abc 0309 2dbd
0.11793878 0.10978229 0.07329785 0.043936122 0.031765845 0.034122538 -0.15359129 0.011896977
-0.035199333 -0.0062087905 0.22061858 0.11597771 0.17854427 -0.12388311 -0.07488128 -0.08907843
0.08170091 0.19872548 0.014556606 0.07951336 0.11255568 0.08210042 0.057309166 -0.12385493
-0.027301036 0.043883897 -0.26804987 0.048928645 0.074926175 0.14313562 0.12527704 0.21047775
0.17396197 -0.06606878 -0.05751493 0.050197363 -0.15402561 0.0052057435 0.0501102 -0.040015202
-0.084595285 0.07643259 -0.020406615 -0.081519105 0.04741225 -0.088787794 -0.0150267165 -0.015417421
-0.030522488 -0.008619651 -0.09321832 0.056829754 -0.14198555 -0.12473931 0.10429232 -0.06306067
0.018888952 0.1310599 0.14035755 0.08983995 -0.060484394 -0.1795255 0.13135664 0.12200382
0.08517445 -0.020483904 -0.019454401 -0.0828469 -0.030672705 -0.10552895 0.068802886 0.11742277
0.025380446 0.03231045 0.02553364 -0.07527137 -0.15708478 -0.08028364 0.176451 0.05422395
0.21923141 -0.04044998 -0.07609929 0.011492623 -0.2886125 0.14789768 -0.053735647 0.08932233
-0.14996299 0.107810386 0.014711765 -0.104800306 -0.17387965 -0.1374906 -0.016226307 0.0964801
-0.07641919 -0.24862444 0.1397077 -0.043042812 -0.116698414 0.036218073 -0.012912465 0.061988693
0.04455365 -0.0018084906 -0.06969272 -0.016377244 -0.04678424 -0.026115477 -0.2157666 0.039033797
0.15088186 -0.07972839 0.08741718 -0.028657379 0.0724288 -0.02671623 -0.021033384 0.016724467
-0.054291636 0.2965074 0.149461 0.045336664 -0.034153607 -0.11787471 -0.102484986 0.015467929
0.04215798 -0.08762099 0.039460946 0.03693614 -0.027394434 -0.25524816 0.031164348 0.03765394
0.101485655 0.075170435 -0.016319457 -0.124677405 -0.0076845284 -0.17348291 -0.3274172 0.10070959
-0.003622229 -0.17033492 -0.014216602 -0.07119515 -0.08345472 0.020377519 0.025658958 0.044145603
-0.12715569 -0.063121535 -0.01349472 0.08027801 0.043395262 0.11337317 0.040284883 -0.24896781
0.0092861755 -0.030606734 0.020084113 -0.04716419 0.0054112445 0.06727429 0.048751518 0.016710592
-0.0022921758 0.02651464 0.073804796 -0.22897045 -0.020074058 -0.21934886 -0.12998585 -0.11386711
-0.23558027 0.0125791505 -0.0041490337 0.026417557 0.029641023 -0.091213 0.039472207 -0.1266438
-0.009617832 -0.19712019 -0.14418884 -0.12176723 -0.12100133 -0.004431324 -0.17984521 -0.03515982
0.05572562 -0.049871348 -0.26793024 0.038861696 -0.057650503 -0.022152532 -0.098368414 0.04200392
-0.029286886 -0.08359645 -0.08188996 -0.0059349774 0.118431 0.040227015 0.05519793 0.07754548
0.043242957 0.17748566 -0.024500592 -0.15633059 -0.082004935 0.11420671 -0.17315309 0.071381114
0.023414243 0.014722766 0.004564846 -0.035780065 0.016629683 -0.13069785 -0.037061334 0.00433387
-0.054731216 0.06600084 -0.17303506 -0.06536696 0.124020495 0.0093672145 0.019763518 0.08460626
-0.057488106 -0.1424006 0.083426505 -0.08707885 0.0032238103 0.08439361 0.032657184 0.068035565
0.098967664 -0.0381682 0.031157384 -0.43313885 -0.04234285 -0.21114613 -0.031346958 0.072474584
-0.033911873 0.11274527 -0.061732497 0.09730355 0.01835857 0.13135341 -0.0133236805 -0.042244922

model.model.4.bias f4 [128]
00000000: a7bb a8be d5b0 4dbe 66c6 b2be 96f5 17bf
00000010: 14e8 c2be 96d7 dabe e44a 6cbd a802 a4be
00000020: 4c72 1dbe 841c b8bd 5f41 1ebe 3304 d4be
00000030: 084e cebe c1b1 01be 19c1 e7be cc24 cdbe
00000040: 6665 2ebe e537 43bf 1ceb 9b3c 24f9 ccbe
00000050: 617c dcbe 10c1 bbbe d92f bbbe 21f9 03be
00000060: b119 bebe d9d6 fdbe ce4e 18bf b24a 91be
00000070: afa8 06bf 4a97 47be 47ab b3be 456f 92be
00000080: 2e08 f3be 6556 23bf 5b49 edbd 022d c5be
00000090: 75af 0fbe 2f05 7abe 56e7 6ebc f090 93be
000000a0: 0acc 12bf 4708 abbe 3e3e 04bf 0b9e ccbe
000000b0: 8662 42be 0118 30be a039 8abe 79c5 d3be
000000c0: 0a01 28be 839d 03be 0b2e 8dbe 460e 6abd
000000d0: 056a 1bbe 1b75 6fbe 2fce aabe 3501 bebe
000000e0: abb8 c7be a3a7 84bd 53c4 debe 2659 52be
000000f0: 8302 173e 3f3f c5be adae 80be 81a5 b9be
00000100: b309 76be b412 d6be 814e 95be 8536 3ebe
00000110: 874a 84be 41db 5abe 009c adbe bc19 afbe
00000120: f2d2 15be 8114 88be 6feb ffbe bc75 f0be
00000130: c061 32be e539 a8be 9bff 44be 9fcc 87be
00000140: f9f6 d4be 2bad 66be 36b5 13be ac40 d8be
00000150: bf83 7dbe 53b8 c7be 10f7 bebe 1685 d0be
00000160: 1d2d 84be fd09 64be e423 20bf 1795 71be
00000170: 422e b5be f3c8 ddbe ccb3 99be f432 adbc
00000180: 0905 1abe e315 68be 3a72 58be 131c 4fbe
00000190: fd00 99be d919 56be beb9 e6be 4ca3 93be
000001a0: 4106 35be c63b 40be b7ca 73be a72b 39be
000001b0: adad 67be 94bb 9ebe 9e04 70be 9b15 76be
000001c0: bd03 a4be c1a2 dbbe 223a e9be 17a5 b4be
000001d0: 0971 9dbe 156c 9cbe ad89 2abe 9055 46be
000001e0: c9c0 8abe f0f1 96be 3851 a6be 590f 07be
000001f0: 82ce 60be f0c6 9bbe 673f f6be 462e 40be
-0.32955667 -0.20086987 -0.3491699 -0.5935911 -0.38067687 -0.42742604 -0.05768861 -0.32033277
-0.15375632 -0.08989814 -0.15454625 -0.41409454 -0.40293908 -0.12665464 -0.4526451 -0.40067136
-0.17030868 -0.76257163 0.019033007 -0.4003383 -0.43063644 -0.36670732 -0.36559942 -0.12888004
-0.37128976 -0.49577978 -0.59495246 -0.283773 -0.5260114 -0.19491306 -0.35091612 -0.28600517
-0.47467178 -0.638037 -0.11586257 -0.385109 -0.14031775 -0.2441604 -0.014581522 -0.28821516
-0.5734259 -0.33404753 -0.51657474 -0.39964327 -0.18982896 -0.17196657 -0.2699709 -0.41361597
-0.16406646 -0.12853055 -0.2757419 -0.05714252 -0.15177162 -0.23384516 -0.3336043 -0.37110296
-0.39008078 -0.06477287 -0.43509158 -0.2054182 0.14747052 -0.38524815 -0.25133267 -0.36259082
-0.24027137 -0.41811144 -0.29161456 -0.18575485 -0.2583811 -0.21372701 -0.3390808 -0.3419932
-0.1463125 -0.26578143 -0.4998431 -0.46964824 -0.17420101 -0.3285667 -0.19238131 -0.265233
-0.41594675 -0.22526996 -0.14424595 -0.4223684 -0.24757288 -0.39007816 -0.3729787 -0.40726537
-0.2581567 -0.22269435 -0.62554765 -0.2359203 -0.35386854 -0.43317375 -0.30019987 -0.02114246
-0.15040983 -0.22664599 -0.21137324 -0.20225553 -0.29883566 -0.20908298 -0.45063585 -0.28835523
-0.17678167 -0.18772802 -0.23807798 -0.18083058 -0.22624846 -0.31002486 -0.23439261 -0.2403168
-0.32034102 -0.4289761 -0.45552164 -0.35282204 -0.307503 -0.3055121 -0.16654082 -0.19368577
-0.27100208 -0.2948146 -0.3248384 -0.13189448 -0.21953776 -0.30425215 -0.48095247 -0.18767652

model.model.6.weight f4 [128]
00000000: 21c7 7b3f 9d6f 4d3f 2e5f 703f ed57 843f
00000010: 7ae8 823f 0f3a 813f 9d82 743f 3598 8a3f
00000020: 9b27 4f3f 69a9 5e3f 25ec 713f 13ff 823f
00000030: 68c6 833f 0620 5a3f 8ad9 793f 09fc 8b3f
00000040: 57ba 7f3f 9c61 8d3f ab29 7e3f 4004 6b3f
00000050: 8353 703f d8a4 823f 2e2d 7d3f 669e 883f
00000060: 47aa 683f 0df5 883f 6fcc 8a3f de30 8a3f
00000070: dc37 563f 5847 7c3f 6356 8b3f d08d 5f3f
00000080: a4b9 813f 16bd 833f f98a 793f 28d9 6c3f
00000090: fb1f 683f 62f1 5e3f 7c7a 6c3f 6d8d 7d3f
000000a0: d39c 993f ec85 683f 4afc 883f 1f73 893f
000000b0: 2d6b 513f 9d2d 643f ce72 7c3f 7627 5b3f
000000c0: c2ab 663f 7350 833f 7c25 783f 0674 5e3f
000000d0: 42c9 873f 21a1 643f 33d1 783f 2aa2 783f
000000e0: 5cbd 513f 7ce1 853f 37f1 613f 5338 8c3f
000000f0: e289 763f 84f4 603f 20c2 7b3f d726 603f
00000100: 2488 813f 5508 853f cd53 5c3f 5b9f 843f
00000110: b73c 673f 37e6 673f 4e07 7d3f 5731 8b3f
00000120: caa9 753f b093 5e3f e104 8e3f c591 5d3f
00000130: 8ded 783f d53d 803f ca39 773f efaa 713f
00000140: bc37 663f 28fe 703f 2d2b 843f 501f 893f
00000150: ac1d 763f bd8d 673f 27c7 7d3f 860d 863f
00000160: 1f1e 703f 93a4 893f 1cb9 673f 4755 863f
00000170: 8d9b 553f f186 573f 2df8 6d3f 3964 643f
00000180: bdf5 633f 0b14 613f 624d 7f3f 85b4 4c3f
00000190: ba9e 663f 990f 7c3f dbfc 7e3f 6875 883f
000001a0: 267e 7d3f 3df2 663f b672 713f 965f 5f3f
000001b0: 7d76 7f3f 5bb8 6d3f d355 573f 11e2 633f
000001c0: aa21 813f 9627 6f3f 8a74 783f aac2 733f
000001d0: d2ee 813f f793 683f b764 773f eb12 653f
000001e0: d911 863f f301 683f 2e84 883f 34de 713f
000001f0: 7356 863f 6b6e 7c3f 6820 5d3f 694d 733f
0.9835072 0.80248433 0.9389523 1.0339333 1.0227196 1.0095843 0.955118 1.08277
0.8091981 0.8697725 0.9450095 1.0234092 1.0294924 0.85205114 0.97597563 1.093629
0.9989371 1.1045413 0.9928233 0.9180336 0.9387743 1.0206556 0.98897064 1.0673339
0.9088482 1.0699784 1.0843638 1.0796163 0.83678985 0.9854636 1.0885738 0.87325764
1.0134778 1.029208 0.9747768 0.92518854 0.906738 0.8708707 0.92374396 0.99043924
1.2000984 0.9082935 1.0701993 1.0738257 0.8180416 0.891321 0.9861268 0.8560709
0.9010583 1.0258926 0.96932197 0.8689579 1.0608294 0.89308363 0.9719421 0.9712244
0.81929564 1.0459437 0.8825869 1.0954689 0.9630414 0.878731 0.98343086 0.87559265
1.0119672 1.0393168 0.8606537 1.0361131 0.9032702 0.90585655 0.9883927 1.0874432
0.959622 0.86944103 1.1095239 0.8655055 0.97237474 1.001887 0.96572554 0.9440145
0.89928794 0.9413781 1.0325676 1.0712681 0.96139026 0.9045065 0.9913201 1.0472877
0.9379596 1.0753349 0.9051683 1.0494775 0.83440477 0.8419028 0.9295681 0.8921543
0.8904684 0.8792121 0.9972745 0.7996295 0.9008595 0.984613 0.99604577 1.066083
0.9902061 0.90213376 0.9431566 0.8725523 0.99790174 0.9285943 0.8411533 0.89016825
1.0088398 0.9341978 0.97052824 0.9521891 1.0151007 0.90850776 0.96638054 0.8948199
1.0474197 0.90627974 1.0665338 0.9447968 1.0495132 0.98605984 0.86377573 0.95039994

model.model.6.bias f4 [128]
00000000: dd6c 883e e07c a3be 8277 823e 008c e03e
00000010: 01e5 1c3e e28c 873e 2ba4 b83e a8bf 713e
00000020: bad3 913e f3c5 83be 1a28 4a3e 6e14 bb3c
00000030: b7be 483e 8c88 553d 80f3 633e 7d93 f63e
00000040: 474b 313e 5689 dabc d43d 463e 6feb 9d3e
00000050: bd85 a83e 5cf1 febd 58d7 a53b cb27 d93e
00000060: 0d53 723e 544f bf3e 0875 803d 0676 803e
00000070: 559e f9be b29b 8e3d e1bb 9f3e bbc0 983e
00000080: 7f91 573e 1eb5 cd3c 093d 293e ec63 103e
00000090: 9da4 a33d 60a3 073d 92d8 88be d79d d13d
000000a0: fe10 cc3d 5347 76bd bc29 543d dfcd 293e
000000b0: e88a 80bd c7be 603d 6e17 dabd 4795 64bd
000000c0: 9f99 823e 1208 833e df81 a73e ff7e ff3d
000000d0: 4085 e53d 3680 fabd aee7 053c 18e1 9a3e
000000e0: 96e5 0ebe 3bec b33d bf61 9bbe 1e46 eb3e
000000f0: 2e19 e33d 9e2f 0b3e 1f6b 1c3e 6af9 7abd
00000100: c620 9a3e 317e cf3d ab63 8b3e 3ce8 a33e
00000110: 6c91 e63e dbd3 603e 381e 103e cb3c 343e
00000120: 5424 963e 5900 273e a8fe a03e 8712 6abe
00000130: 5fa6 1e3e 7012 5a3e 5f79 933e f73b 59bd
00000140: 479e f6b9 96c2 153e 821d 703e 05da 263d
00000150: 3f22 4c3e 27d0 af3e 5546 fc3d 8c59 2d3e
00000160: 7052 343e ad7d 543e 7805 92be f8fd 623e
00000170: 9ad2 a0bd 41fd 3ebe 89ba 19be 818f 223e
00000180: f219 813e 382a 5f3d 7dcc 89bd ae76 763d
00000190: 08eb df3c 47ae 9f3e 21d5 5a3e 54eb 1c3e
000001a0: ac22 7d3e 7acd eb3c e0a2 783e d27e 743e
000001b0: 1312 103c bf69 bbbe f455 903d b858 e83b
000001c0: b3ea c63d dc8e 7cbe 4841 e7bd 9f37 343e
000001d0: 183b 983e 2339 693e abf1 503e d89b d23e
000001e0: 592e cc3d 66cb 22bd c36d 043e d59e 223e
000001f0: 9972 ba3e ba3a f3bd 167f ff3d c049 a83e
0.26645556 -0.3193121 0.25481802 0.43856812 0.15321733 0.26474673 0.3606275 0.23608267
0.28481847 -0.2573696 0.1974186 0.02283689 0.19604002 0.052132174 0.22260857 0.481594
0.17313872 -0.026676815 0.19359523 0.30843684 0.32914534 -0.124483794 0.0050610714 0.42413172
0.23664494 0.3736521 0.06272322 0.25090045 -0.4875361 0.0696329 0.31198028 0.29834542
0.21051596 0.025110777 0.1652719 0.14100617 0.07990382 0.03311479 -0.2672773 0.10235184
0.099641785 -0.060126614 0.051797614 0.1658244 -0.06276494 0.05486944 -0.10649 -0.055806424
0.2550783 0.25592095 0.3271627 0.124753945 0.11207056 -0.122314855 0.0081729125 0.30249858
-0.13954768 0.08785292 -0.30348012 0.45951933 0.11088787 0.13592383 0.15275238 -0.061273016
0.3010313 0.10131491 0.27224478 0.32013118 0.45032823 0.21955816 0.14074028 0.17601316
0.2932459 0.16308726 0.31444287 -0.2285863 0.15493153 0.21296096 0.28803536 -0.053035703
-0.00047038702 0.1462501 0.23448756 0.040735263 0.19934939 0.34338495 0.12318102 0.1692869
0.17609572 0.20751067 -0.28519797 0.22167194 -0.07852669 -0.18651296 -0.15012564 0.15875055
0.25215107 0.054483622 -0.06728456 0.060171776 0.027333751 0.3118765 0.21370365 0.15324146
0.24720258 0.028784502 0.24280882 0.23876503 0.008793372 -0.36604115 0.07047644 0.007090654
0.09712734 -0.24663872 -0.11291748 0.17599343 0.29732585 0.22775702 0.20404689 0.41134524
0.099697776 -0.039744757 0.12932496 0.15880902 0.36415556 -0.118764356 0.124754116 0.32868767

model.model.6.running_mean f4 [128]
00000000: 7911 fd3e ddd1 d83e c662 433f 4a3c b33e
00000010: 544c e53e 152e d03e b187 1f3f f410 af3e
00000020: 1978 0e3f cf3c e03e 783a bc3e 701d 3d3f
00000030: 32f7 bd3e b567 013f 445d ec3e 2d8e 3e3f
00000040: 1fd6 dd3e 39c4 713e b20a 393f 0d2b 8d3e
00000050: 9c9e 173f 207a d03e b57e c13e 0035 7e3f
00000060: 7853 a93e 2aa3 a03e 3869 013e f32a f83e
00000070: b57d 683e cdd6 9f3e 38b8 2f3f 89e6 2d3f
00000080: 9b77 0c3f 1fc3 533e 9537 5b3f 4cd8 243f
00000090: 4c03 153f 65d1 263f a98e 463f 16e7 d83e
000000a0: fafd 163f d4ff 0a3f 0f25 ab3e fb41 733e
000000b0: d0aa 093f f402 ea3e 1f07 aa3e 31b2 8c3e
000000c0: 87f0 cd3e 2712 ea3e f530 bf3e a452 583f
000000d0: c206 043f 845e 2c3f 3f19 a03e 05f1 d93e
000000e0: a060 7e3e 1502 583f 1355 783e 1ad5 d83e
000000f0: 02d9 233f 3dac ed3e 5c06 1b3f 1129 b43e
00000100: b562 133f c1b4 eb3e 5944 b73e 6823 7f3f
00000110: 2a32 fd3e fe6d f83e 3b3c c63e 1d8d a03e
00000120: ec11 493f cac8 853e 0eaa 0e3f a34d 4e3e
00000130: e3e3 903e aeac b13e a109 2d3f b03d ee3e
00000140: 4f66 373e eb31 083f e4f9 383f 170b 8a3e
00000150: 0baa d73e 3f5c d83e 980e 293e ee40 903e
00000160: 7577 213f b353 793f 1145 d73d 16eb db3e
00000170: 1e52 7d3e 0735 b93e 145c ec3e 652b d23e
00000180: 6116 0a3f afef 0f3f e5c6 b63e e2cb 0c3f
00000190: 3353 8b3e 8c02 043f 0d4a 973e 76d4 ec3e
000001a0: 9017 013f 3b06 bf3e 9bca 903e d089 7b3e
000001b0: 58c9 0d3f 7e66 a73e a436 cb3e 4961 143f
000001c0: b302 a73e 892b da3e fd9d e13e ab75 cc3e
000001d0: 9231 203f e8aa 8d3e e6c9 7b3e 766d 1f3f
000001e0: 8ead af3e 9077 923e a65a 3b3f 0791 b43e
000001f0: 329e 463f 7742 063f b207 e73e d020 a43e
0.49427393 0.42347613 0.7632259 0.35006934 0.44784796 0.40660158 0.62316424 0.34192622
0.55652004 0.43796393 0.36763358 0.73873043 0.37102658 0.5054887 0.46164906 0.74435693
0.43327424 0.23610009 0.72281945 0.27571908 0.59226394 0.40718174 0.37791982 0.9929962
0.33071494 0.31374484 0.12637794 0.48470268 0.22704203 0.31218567 0.6864047 0.67929894
0.54870003 0.20679902 0.85631686 0.6439254 0.58208156 0.6516326 0.7756143 0.42363805
0.5898129 0.5429661 0.3342671 0.23755638 0.53776264 0.45705378 0.33208558 0.274797
0.4022257 0.45716974 0.3734204 0.845011 0.5157281 0.6733172 0.3126926 0.42566696
0.24841547 0.84378177 0.24251203 0.42350084 0.64003 0.4642047 0.6055658 0.3518758
0.5757249 0.46036342 0.35794333 0.996634 0.49452335 0.48521417 0.38717827 0.3135766
0.7854297 0.26129752 0.5572823 0.20146804 0.28298864 0.34702057 0.6759282 0.4653144
0.17910121 0.5320117 0.722563 0.26961586 0.4212192 0.42257878 0.16509473 0.28174537
0.630729 0.9739334 0.1051122 0.42952794 0.24738356 0.3617327 0.46164 0.41048732
0.539404 0.56225103 0.3569862 0.549986 0.27211913 0.51566386 0.29548684 0.46255845
0.5042658 0.3730944 0.28279576 0.2456429 0.5538535 0.32695383 0.39690125 0.57960945
0.32619247 0.4261134 0.44065848 0.39933524 0.6257564 0.27669454 0.24588737 0.622764
0.343121 0.28606844 0.73185194 0.35266897 0.77585137 0.5244517 0.4512306 0.32056284

model.model.6.running_var f4 [128]
00000000: 6f59 d43f c30d 9c3f 9951 3a40 3b78 ba3f
00000010: b875 9b3f 1178 a03f 6285 ad3f 9ebb 643f
00000020: 347a be3f 55e3 8c3f 1762 8d3f 837f 0440
00000030: 1fc0 a43f 2300 ae3f 82a0 b43f 58b7 3d40
00000040: b6c1 993f f7a0 313f c8b7 0940 7484 423f
00000050: f946 1440 8d16 973f 5b1c 9b3f 7e64 2840
00000060: a786 743f 6fc4 673f d677 053f e676 8a3f
00000070: 7470 493f 8aa7 883f 2197 db3f 7668 2c40
00000080: 42a6 e53f 7039 1e3f 6e21 3040 bbc6 0540
00000090: edbe e63f 09eb d23f 117e 0440 76bf 693f
000000a0: dcb9 b63f 9b4e 983f efbb 863f 4822 593f
000000b0: 9c62 bc3f fcf2 b13f ea49 683f 7165 433f
000000c0: aa74 8d3f c6ce b03f ce45 803f d3d2 1840
000000d0: 1ddb a23f f507 c73f 7807 6a3f 5468 983f
000000e0: c389 4f3f 6e12 1d40 7e7d 273f 3aaf 943f
000000f0: 480a d83f 32ae ba3f e878 d03f e1bd 573f
00000100: 665e ed3f 55c9 c73f 92a1 753f d7fd 6640
00000110: 3be8 ca3f c689 a03f b72a a93f 9f24 643f
00000120: 1a13 f53f 7ceb 473f 17b4 1040 5e22 2f3f
00000130: eb73 4f3f 1b0a 813f 2f81 bb3f a357 9b3f
00000140: 5a71 f23e 33bc 943f 05b0 f23f 0450 663f
00000150: 75f6 933f 38eb ce3f 2326 3e3f b757 4b3f
00000160: 8423 c23f 3206 5940 822f 043f 4126 aa3f
00000170: 6d4d 553f d323 9c3f a674 8c3f 8d14 9c3f
00000180: 1567 863f 80c4 cf3f ca51 783f f085 983f
00000190: 4473 273f fc39 a73f 2d25 4a3f f083 9a3f
000001a0: 6827 953f 2d7b 943f f6a9 7b3f 06dd 313f
000001b0: d398 eb3f 9968 893f 926d 913f 988f d63f
000001c0: b34b 893f 2298 883f 2e6d c03f fc02 703f
000001d0: 00dd 0340 ed3c 6c3f d5f2 7b3f 5eb2 0640
000001e0: d005 7f3f b6b0 493f 6573 f23f f3f5 413f
000001f0: 245e 3140 aa3a 9a3f 8443 0640 1ffc 7e3f
1.6589793 1.21917 2.9112303 1.4567941 1.21453 1.2536641 1.355633 0.8934878
1.4881043 1.1006876 1.104556 2.0702827 1.2871131 1.3593792 1.4111483 2.9643154
1.2012241 0.6938624 2.151842 0.7598336 2.3168318 1.1803757 1.2118028 2.6311336
0.95517963 0.9053411 0.5213598 1.0817535 0.78687215 1.0676129 1.7155496 2.6938758
1.7941363 0.6180639 2.7520404 2.0902545 1.8027016 1.6477977 2.0701945 0.9130777
1.427547 1.1898988 1.0526103 0.84817934 1.4717593 1.3902278 0.90737784 0.7632666
1.1051228 1.3813102 1.0021303 2.3878677 1.2723118 1.5549303 0.91417646 1.1906838
0.8106958 2.4542499 0.6542586 1.1615975 1.6878138 1.458441 1.6286898 0.8427411
1.8544433 1.5608317 0.9594966 3.6092432 1.5852121 1.2542045 1.321616 0.8911838
1.9146454 0.78093696 2.2609918 0.68411815 0.8103625 1.0081209 1.4648799 1.213612
0.47352105 1.1619934 1.8959967 0.89965844 1.1559588 1.6165533 0.7427694 0.7943072
1.5167089 3.3910031 0.5163499 1.3292924 0.8332127 1.2198433 1.0973098 1.2193772
1.0500208 1.6231842 0.969998 1.1915874 0.65410256 1.306457 0.78962976 1.2071514
1.1652651 1.160009 0.98306215 0.6947788 1.8406013 1.0735046 1.1361563 1.6762571
1.0726227 1.0671427 1.5033319 0.93754554 2.0603638 0.92280465 0.9841741 2.1046367
0.99618244 0.78785264 1.8941466 0.75765914 2.771371 1.2049153 2.0978708 0.99603456

model.model.8.weight f4 [128, 128]
00000000: 1f07 723d 80da b2bb 6c4d ed3d 9f1e 063e
00000010: 6555 1dbe 8ac5 793d 8933 103d 6f8a 46be
00000020: 9d5f 453b ebd9 933d 26e5 013e c81c b93c
00000030: 78d0 373d 60bf 0b3e 0cba 9d3d c59b 95bc
00000040: ec97 81bd 2173 24bd 4fa7 363d 0129 4bbc
00000050: 7e91 80bc 4a62 00be 4b5f ac3d ce20 b73d
00000060: b524 7bbe 118c 9a3d 40a5 00be b265 043e
00000070: 2f16 c23d 2dd9 293a 0c61 343e 1430 ce3c
00000080: b9d6 543b 0dd4 63be f46d 6f3c 07ba 103e
00000090: b0c4 95bb 2fbe ca3d 94f0 44bd 9e0f a3bb
000000a0: 4c45 473e 9ac9 6dbd 5142 633d 4468 e8bb
000000b0: bfc1 bcbd 5b66 933d 36fd 18bc fc7f 78bc
000000c0: 7a92 d33d 24b4 16bd 18c4 50bd c356 f03c
000000d0: 7375 48be 0348 a53d 6402 d9bc f0ba 78bd
000000e0: c1a9 243d 2447 033e 522e e83b 2d53 513d
000000f0: 0e7c 673c 49a9 8bbb ba19 4cbe 727e 093e
00000100: 5152 623e 4121 303d bf77 aa3d 7863 f23d
00000110: 0f9c 1abd 77e6 ffbc ca8d 5c3e 3237 e9bd
00000120: bdbb 0cbc 03ca 0cbd bea4 cc3c a1c9 423d
00000130: 9609 9d3d af6a 50be 85e1 493e 64d9 563c
00000140: e794 a4bd 515f 61bd 5f4c 31bd eb3c 1bbe
00000150: 1ed0 20bd b2f0 dc3d 8c0f 94bd 8ae8 f8bc
00000160: 56a5 883e d0ba fc3c 345b cc3b f422 1f3e
00000170: 4e53 5c3b 931a f23d 9d1e d13d 0d6a f43c
00000180: eef2 0abd dc34 163d 34ef 293e 59ce fabc
00000190: 8a32 d4bd 2e71 9d3d 2f02 163e d789 a3bd
000001a0: 2c25 90bd b317 a0bd 3b83 e03d b0a0 afbd
000001b0: b62a 9d3a 4300 4dbd e805 a6bc 7831 5bbc
000001c0: c58c f1bc 64fe 44bb d3d3 093e 042c cf3c
000001d0: 72c7 693d 4ac1 e3bc 7b6c d13d 9da7 f03d
000001e0: 69e8 18be d90e 7b3d 37bb 963d 3162 f3be
000001f0: 805f 283e 9f78 c53d fdf8 c0bd 4adc a03c
00000200: 0a2e 853d e700 81bc 4983 88bd 892d 493d
00000210: caf2 dfbd c8c2 c7bc d762 1ebe d81e 8cbe
00000220: 3089 a73d 873e c33d 0bce 5a3d f59c 5bbb
00000230: 3e25 933d cdd1 203e 269d ab3b ee8e 143e
00000240: ce1a e23d 0eee a4bc 13f3 d13d c023 7a3c
00000250: 42df 28be cf92 5ebd 62fd 85bd 328e a33c
00000260: 1323 cb3c 8853 bebd 4a4c e6bd 68ed 503d
00000270: 4b1e 963d 99eb 58be 5c4a cbbb 32e0 2a3d
00000280: eebf 123d 7f1d d73d 10d8 fd3c 98a9 d439
00000290: ae68 69bc e5ce 02bc 8af0 0ebd b0a6 cebd
000002a0: 6036 a6bc 18d6 f7bd 32ca 25bd f180 50be
000002b0: 6048 0c3e f45f fe3d 0495 febc 4356 30be
000002c0: 4cca 293d 4aa5 2f3c e470 82bd 791b a3bc
000002d0: cb0d 5ebe cfe5 0e3e 7d3f 59be 5f22 3ebe
000002e0: 907b 68be ad5c febb aa08 c3bd 4b1b 88be
000002f0: 34eb 653d 5cdf 55bd 9dbc 273e be94 6b3d
00000300: 762c b33c fddf 4abd dd27 2fbd 3739 0d3e
00000310: 966d 983d 4fde eebc e874 96bd b9bb 68be
00000320: 0d46 a03d 3d3f d9ba 936d fb3d 1802 e4bd
00000330: 10ba 02be ee35 94be 916a 3f3d 123a 6cbb
00000340: 0347 38bc c73c 3b3c c8a1 5b3d fe2e 8bbe
00000350: fba6 6e3d 0f8f 57be 496f febd fa01 983b
00000360: 12cf df3d 76e4 aa3d 8b7f 8a3c c409 4b3e
00000370: fa19 12bd 7bc0 b43d fec8 99be 1f56 ad3d
00000380: fb9a ef3d f734 d03d 12da 5b3b efee 7b3c
00000390: d821 9fbd 2840 cf3d f058 cebd 1e74 4cbd
000003a0: 5aa2 e93d a453 c13d 18cc 39be 2c26 99bd
000003b0: f4b2 f8bd d6a3 ae3d 4c79 803d 6184 b03c
000003c0: e48e 20be ce7f 2a3a 8271 b7bd 00b6 653c
000003d0: 6e2a 123e d9ff 31be a27c 71bd 670f fbbc
000003e0: 87a9 02be 3b6f 613d 0db6 a83d 34db a7bd
000003f0: 3e82 25be ec57 3abe 116e 193d d797 c13c
0.059088822 -0.005458176 0.11587033 0.13097619 -0.15364607 0.060979404 0.035205398 -0.19388746
0.0030116804 0.07219299 0.1268507 0.022596732 0.044876546 0.13647223 0.07701501 -0.018262753
-0.06327805 -0.040148858 0.04459315 -0.012399913 -0.015694376 -0.12537494 0.08416613 0.08941804
-0.24525721 0.07546247 -0.12563038 0.12929419 0.094768874 0.00064792 0.17615145 0.02516941
0.0032476617 -0.2224886 0.014613617 0.14133464 -0.004570566 0.09899556 -0.048080996 -0.004976227
0.19460028 -0.05805359 0.055483166 -0.0070925076 -0.09216642 0.07197257 -0.009337714 -0.015167233
0.103306726 -0.03679289 -0.05096826 0.029338246 -0.19576053 0.08070376 -0.026490398 -0.060725152
0.040200952 0.12820107 0.0070856 0.051104713 0.014128698 -0.0042621237 -0.19931689 0.13427141
0.22101714 0.043000463 0.08323621 0.118353784 -0.037746485 -0.031237824 0.21538463 -0.11387481
-0.008589682 -0.03437234 0.024980899 0.04755557 0.07667844 -0.20353197 0.19714935 0.013113353
-0.08036213 -0.05502254 -0.043285724 -0.15159957 -0.039260976 0.107880965 -0.07229528 -0.03038432
0.2668864 0.030850798 0.006236458 0.15540677 0.003361899 0.11821475 0.10210917 0.029835725
-0.033923082 0.036671504 0.16595155 -0.030615972 -0.10361202 0.07687603 0.1464927 -0.07985275
-0.0703834 -0.0781702 0.1096253 -0.085755706 0.0011990878 -0.050049078 -0.020266488 -0.0133784935
-0.02948607 -0.0030058855 0.13459711 0.025289543 0.05707497 -0.027802128 0.10225769 0.1175072
-0.14932407 0.061293457 0.07359927 -0.47535852 0.1644268 0.09642147 -0.09422491 0.019636292
0.06502922 -0.0157475 -0.06665666 0.04911569 -0.1093498 -0.024384871 -0.15467392 -0.27367282
0.08180463 0.095334105 0.053419154 -0.0033510302 0.07184838 0.15705033 0.0052372394 0.14507648
0.11040269 -0.020133045 0.10251441 0.0152673125 -0.16491416 -0.054339226 -0.065424696 0.019965265
0.024796998 -0.09293276 -0.1124502 0.05100766 0.07329997 -0.21183623 -0.0062039327 0.041717716
0.03582757 0.10503673 0.030986816 0.00040562148 -0.014246149 -0.007983898 -0.034897365 -0.10090387
-0.0202896 -0.12101382 -0.04047603 -0.20361687 0.13699484 0.12420645 -0.031076916 -0.17220406
0.04145269 0.01072056 -0.063691884 -0.01991056 -0.21684949 0.13954853 -0.21215625 -0.18567799
-0.22703385 -0.0077625127 -0.09523137 -0.26583323 0.05613251 -0.052214965 0.16380544 0.0575149
0.021871787 -0.049530018 -0.042762626 0.13791357 0.07442777 -0.02915874 -0.07346517 -0.2272786
0.07825861 -0.0016574633 0.12276759 -0.11133212 -0.1276629 -0.28947395 0.04673249 -0.0036045355
-0.011247399 0.011428065 0.053621083 -0.2718429 0.058264714 -0.21050666 -0.1242357 0.0046389075
0.109281674 0.08344357 0.01690652 0.19827944 -0.035669304 0.08825775 -0.30036157 0.08463692
0.11699482 0.10166352 0.0033546728 0.01537679 -0.07770127 0.10119659 -0.10075557 -0.049915425
0.11407919 0.09439781 -0.18144262 -0.07477984 -0.121435076 0.08527343 0.062731355 0.021547498
-0.15679508 0.000650403 -0.08957197 0.014020443 0.14273998 -0.17382754 -0.05895675 -0.030646993
-0.12759982 0.05503772 0.082378484 -0.081961066 -0.16162965 -0.18197602 0.037458483 0.023631973
