parkinson telemonitoring/checkpoints/parkinson-epoch=122-val_rmse=3.90.ckpt (torch, 821088 bytes, 76 tensors)

model.model.0.weight f4 [256, 20]
000000 ea 97 0d 3e 44 ed 9a 3e d1 7f 5d be 86 e8 16 be
       0.13827482 0.30259144 -0.2163079 -0.14737138
000010 fb fa b9 3d 63 af 1f be 41 7a 64 be ce 30 a5 3d
       0.09081074 -0.15594248 -0.22312261 0.080659494
000020 51 93 12 3e cf c8 37 3e c8 95 9e 3e 60 e6 02 3e
       0.14314009 0.17947696 0.3097365 0.12783194
000030 11 55 4b 3e 33 7d 2a be 71 80 c3 be 7b c2 8c bd
       0.19856669 -0.16649322 -0.3818393 -0.06873032
000040 c4 6f 13 3f fb b5 26 3c 5d c4 2e 3e ba 14 0a bf
       0.57592416 0.010175223 0.17067094 -0.53937876
000050 ca b4 17 3e 00 21 3c 3e 81 c9 03 be a1 a2 e8 bd
       0.1481506 0.18371964 -0.12869836 -0.11359144
000060 d6 0f c6 3e fc be d0 bd 12 38 50 3e 3e c9 70 bd
       0.38683957 -0.101926774 0.20333889 -0.05878567
000070 17 90 88 be 0d ce 5f be b7 19 83 be 6e 81 92 3e
       -0.26672432 -0.21855946 -0.25605556 0.28614372
000080 8b f2 0a bd 8c 65 21 bd 47 63 65 be ae 57 69 3e
       -0.033922713 -0.039403483 -0.22401153 0.22787353
000090 41 40 53 bc a8 45 f3 bd b8 86 ac bd 92 d9 18 bf
       -0.012893737 -0.1187852 -0.08424133 -0.59706986
0000a0 32 fb d3 bd f8 c1 3b bd 6a 96 86 be 2d 64 c6 3e
       -0.10350646 -0.04583928 -0.26286632 0.38748303
0000b0 17 9a 7f 3d 1e 0b fb 3d 99 b2 ac 3d 96 40 28 3d
       0.06240281 0.1225798 0.08432502 0.04107722
0000c0 5c c2 40 be a8 2a c8 3d b4 59 1d be 34 66 84 bc
       -0.18824142 0.09773761 -0.1536625 -0.016162015
0000d0 e1 8a 62 3d 93 dc 8e be cd 18 b5 bd b0 38 70 3e
       0.055308226 -0.2790266 -0.08842621 0.23459125
0000e0 8f 9c 4e 3e e3 41 95 3d 64 05 b7 bd c3 21 20 3e
       0.2017691 0.072879575 -0.08936575 0.15637879
0000f0 c8 a1 2a 3e 42 40 1a 3e 34 47 6d bd 79 4e e9 be
       0.16663277 0.15063575 -0.057929233 -0.45567682
000100 9c 0a ea 3d 1d 0c b7 3b a5 17 74 3e 9e 2d 06 be
       0.11427805 0.005586161 0.23837145 -0.13103339
000110 3c 01 bc 3d 2d ba c7 3d e7 e9 04 be 46 7f 1d 3d
       0.09179923 0.09752307 -0.12979852 0.038451456
000120 8d 2f a8 3c 3c f7 11 be e9 ce 75 be ce 4b 49 be
       0.020530486 -0.14254469 -0.24004711 -0.19657823
000130 50 af b2 be 8c 5b 3d 3d 79 c9 91 3d ec 61 c7 be
       -0.34899378 0.046229884 0.07118506 -0.38941896
000140 27 51 31 3e d3 f3 90 3e 4f de 4a bd 2f b0 1b 3e
       0.17316113 0.28311023 -0.049528416 0.15203927
000150 fc 0f 33 3e 04 cf 65 be 42 57 85 3e 41 fc 61 be
       0.17486566 -0.22442251 0.26043135 -0.22068883
000160 ac 69 30 be e0 4c d5 bd a8 02 55 be 9f 8d 44 be
       -0.1722781 -0.10415053 -0.20801795 -0.19194649
000170 4f d4 a0 bd d3 91 4f 3e 2d ac c1 3c 5d 68 98 3e
       -0.07852995 0.20270471 0.02364167 0.29767123
000180 8a 45 0c bc d6 4c 0c 3e fc e8 6c 3e 0a 6d cf be
       -0.008561501 0.13701186 0.23135751 -0.40512878
000190 46 8a b5 3e 54 23 b9 bd 83 0c b0 bc 89 2b 71 be
       0.35457057 -0.090399414 -0.021490341 -0.23551764
0001a0 00 b0 1a 3e 52 eb e2 3d 40 5c 2f 3e 45 c6 2b 3e
       0.15106201 0.1108004 0.17125034 0.16774853
0001b0 19 60 59 3d 41 b3 e9 bd 75 36 0c be ff 89 ce bd
       0.05307016 -0.11411143 -0.13692649 -0.100849144
0001c0 08 ad db 3d c0 46 1d 3e 03 8d b3 3e 66 e4 a3 bd
       0.107263625 0.1535902 0.3506852 -0.08002548
0001d0 98 ce 91 3e a0 bf 69 be bc a8 ce 3d 85 6d fb 3d
       0.2847793 -0.22827005 0.10090777 0.122767486
0001e0 4f 65 86 be 1e 56 18 3e 31 43 a1 bb 43 78 c7 3e
       -0.26249167 0.14876601 -0.00492134 0.3895894
0001f0 1b 2a d0 bd f4 0d 09 bd be b0 5e be 0c d3 e5 bd
       -0.10164281 -0.033460572 -0.2174711 -0.112218946
000200 e7 d4 77 3d 83 61 1c 3e f7 03 d1 3d a1 c1 53 bd
       0.060505774 0.15271573 0.10205834 -0.05169833
000210 93 ae 9c ba 3d 17 b4 bd d2 52 83 3e 0b 9d 55 be
       -0.0011953883 -0.08793495 0.25649124 -0.20860688
000220 17 ac 84 be 72 37 14 3e 15 20 a6 bd d4 0b 63 be
       -0.25912544 0.14474276 -0.08111588 -0.22172481
000230 20 73 ae 3d 57 c7 a7 3d f0 f6 8d 3e f9 4d 3f be
       0.08518052 0.08192318 0.2772746 -0.18682088
000240 7a ed f4 bc bb ce 82 be 03 6f 52 3e bc 2a 50 3e
       -0.029898394 -0.25548348 0.2055016 0.20328802
000250 2e 44 6d 3c e4 a6 06 bd 94 d1 90 ba 1e 1b 5b 3c
       0.014481587 -0.032874003 -0.0011048787 0.013373164
000260 5e d1 73 3d 0a 58 36 3e 23 2b de 3c ee 79 80 be
       0.05952584 0.17807022 0.027120179 -0.25093025
000270 bf eb 8c be 65 30 e1 3d 41 34 31 be b5 38 25 bf
       -0.2752361 0.10995559 -0.1730509 -0.64539653
000280 04 a3 18 3e 4b 6b 5e bc a7 85 2d bc 6e 11 88 3e
       0.14905936 -0.013575385 -0.010590947 0.26575798
000290 08 3a 19 bd 10 4f 8d be 64 39 10 be cd db 5f be
       -0.03740886 -0.27599382 -0.14084393 -0.21861191
0002a0 ab 22 05 3e 57 e4 ae 3d a1 fd 9c 3d 9f f1 dc bd
       0.13001506 0.08539646 0.076655634 -0.10788273
0002b0 53 0c e6 bd aa bb 63 be a5 e2 e7 be f0 cc 72 3d
       -0.112328194 -0.22239557 -0.45290104 0.059277475
0002c0 25 cb 1f bc 5e 55 02 be 74 ff 20 3d 38 b6 6b be
       -0.009753023 -0.12727877 0.03930612 -0.2301873
0002d0 cb e0 98 3c 33 e4 2a 3e 57 80 6f 3c 7a b1 6d be
       0.018661877 0.16688614 0.014618001 -0.23212233
0002e0 17 1b 3e bd 11 cc 0a bd cb 51 3f 3e f4 7f c2 3d
       -0.046412554 -0.03388602 0.18683545 0.09497061
0002f0 14 81 0d 3d 06 4c c4 bc bb 93 86 3e 54 44 bd bd
       0.034546927 -0.023962032 0.26284584 -0.09241548
000300 16 8d fb bd 53 99 9a bd 78 29 6b bd 2a 27 91 3e
       -0.122827694 -0.075487755 -0.057412595 0.28350192
000310 8a d9 97 be 72 8c ac be 16 6d 8f 3d 6f 19 ed 3d
       -0.29658157 -0.337009 0.07003228 0.11577117
000320 52 a4 ff be 20 ae 3d bd 9f 2e 90 be 7d 56 92 3d
       -0.49930054 -0.046308637 -0.2816057 0.071454026
000330 ce 34 5d be 18 c7 04 3e 4a fc 46 be 07 09 15 3d
       -0.21602175 0.12966573 -0.19432178 0.036385562
000340 ba 0b 1f 3b 0e 7c fb 3d e5 12 df bd 20 f7 06 be
       0.0024268464 0.12279521 -0.10892276 -0.13180208
000350 20 3d 60 3d 33 9e d3 bc 9b ac 79 be 3c 98 17 be
       0.054745793 -0.025832271 -0.2438225 -0.14804167
000360 54 b0 95 3e ed 9d 2d 3e 79 6f 86 3e 6c 27 82 bc
       0.2923609 0.16954775 0.26256922 -0.015887938
000370 73 84 c2 bd 1f d5 2a bd 6c 6c 64 be 03 5d e3 3d
       -0.09497919 -0.041707154 -0.22306985 0.11101725
000380 48 50 c8 3d 54 4a 68 be c0 a2 4f 3e f2 6b 4f bc
       0.097809374 -0.22684604 0.20276928 -0.0126600135
000390 10 2b 96 3e 09 cc 16 be d8 6c 96 be ae 89 2a be
       0.2932973 -0.1472627 -0.29379916 -0.16654083
0003a0 75 f4 b9 bc 28 6d c1 3b 4d 29 74 be 4c 83 4f 3d
       -0.022699574 0.005902905 -0.2384388 0.050662324
0003b0 87 b9 82 be cc 3b ca bc a5 d1 b2 3e b0 59 35 bf
       -0.2553217 -0.024686716 0.3492557 -0.7083998
0003c0 14 a9 da be 74 5c a7 be 00 ce 0d be 8c 3e 76 be
       -0.4270712 -0.32687724 -0.13848114 -0.24047297
0003d0 85 3c d5 3d 31 e9 f5 bd c5 a7 e1 bd da d8 82 3e
       0.10411934 -0.12007368 -0.110183276 0.2555607
0003e0 17 c1 0e 3e d3 44 8d 3e c0 18 c6 3c 16 55 0d 3d
       0.13940845 0.2759157 0.024181724 0.034504972
0003f0 3f 93 6c 3c 87 9d 6e 3e 38 fd 78 3e 5c 2b 51 3e
       0.014439403 0.2330228 0.24315345 0.20426697

model.model.0.bias f4 [256]
000000 3b 4c ca be 78 d1 6b bf 5c dd 6f bc b5 2f ff be
       -0.39511284 -0.921165 -0.0146401785 -0.49841085
000010 de 65 0f bf 4a 36 40 bc c8 72 21 be 38 bd 6b bf
       -0.5601481 -0.0117316935 -0.15766442 -0.920856
000020 d2 da 77 be 43 e6 a0 be 7f a7 a7 be df a4 f4 be
       -0.24204567 -0.31425676 -0.32744977 -0.47782037
000030 c3 75 1d bf 76 2c 24 bf 51 4c 93 be c8 a5 81 3b
       -0.61507815 -0.6413034 -0.28769162 0.0039565302
000040 69 87 e7 be 00 56 74 bf 8d 29 df be 34 7a 10 bf
       -0.45220497 -0.95443726 -0.43586388 -0.5643647
000050 c1 79 4a bf e5 3d ef bd b2 cd e1 be ce 0d 5b bf
       -0.7909203 -0.11681727 -0.44102246 -0.8556794
000060 0f cc 6a bf a8 63 23 bf 9f 82 3e be 31 16 d2 be
       -0.9171762 -0.6382394 -0.18604515 -0.41032556
000070 69 76 c6 be 58 02 11 bf 8e 49 56 bf 9e 50 cb bd
       -0.38762215 -0.566442 -0.83705986 -0.09927486
000080 57 61 34 be ae f6 32 bf 67 e5 63 bf 10 16 42 be
       -0.17615257 -0.69907653 -0.89021915 -0.18953729
000090 39 50 e4 be 5c 42 e4 be cc d7 2d 3c 1d 4c 04 bf
       -0.44592455 -0.44581878 0.010610532 -0.5167864
0000a0 9a b1 02 bf fc e8 58 bf 78 33 17 3e 5f f8 0f bf
       -0.5105225 -0.84730506 0.14765728 -0.5623836
0000b0 5d 78 ee bd ca a4 dc be c4 1b 66 bf e7 88 95 be
       -0.11644051 -0.43094474 -0.89886117 -0.2920601
0000c0 93 d9 7e be 64 ad 17 bf e6 2d 3c bf ec 78 17 bf
       -0.24887685 -0.5924895 -0.73507535 -0.5916889
0000d0 c2 cd 2a bf 15 63 13 bf a5 b0 0c bf 9a 53 eb bd
       -0.6672021 -0.5757306 -0.5495704 -0.11490555
0000e0 d2 31 2b bf 3b 61 48 bf 19 16 91 be b8 ff 9f be
       -0.66872895 -0.7827336 -0.28337172 -0.31249785
0000f0 f9 a8 25 3e 29 c0 3a bf 16 a7 f4 3c fb 8d a5 3d
       0.16177739 -0.72949463 0.029864829 0.08083721
000100 fd 0a 95 be 78 a3 00 be 93 86 08 bf e5 7f 26 bf
       -0.29109946 -0.12562358 -0.53330344 -0.650389
000110 53 61 be bd b9 e0 f8 bd 37 32 77 bf ef 81 66 bf
       -0.09295907 -0.121522374 -0.96560997 -0.9004201
000120 21 85 70 bf d0 af 91 be fa 96 5c bf 8a 61 bf be
       -0.9395314 -0.28454447 -0.8616787 -0.37379104
000130 ca 2d 97 be 40 12 46 bf 17 17 07 bf f1 c2 12 bf
       -0.29527122 -0.773716 -0.5276961 -0.57328707
000140 17 3c c6 be 45 99 70 bf 98 10 c4 3d ae 2d db be
       -0.3871772 -0.9398387 0.095734775 -0.42808288
000150 69 cd be be 53 d0 e1 be dd 58 6a bf 84 50 0c be
       -0.3726609 -0.4410425 -0.91541845 -0.1370259
000160 2f 42 50 be 78 90 38 bf 9b 6c f6 3c d0 39 3b bf
       -0.20337747 -0.7209544 0.030081084 -0.7313509
000170 22 21 af bd 45 4f 25 bd 4c d1 a1 be f5 66 29 bf
       -0.085512415 -0.0403588 -0.31604993 -0.66172725
000180 9e 47 b8 be 6c ba 53 bf 5e 14 cc bd ea a2 1c bf
       -0.3599214 -0.8270633 -0.09964822 -0.6118609
000190 89 ed 66 bf fd 71 22 bf 2d d6 7f be fe 57 03 bf
       -0.902062 -0.6345518 -0.24984045 -0.5130614
0001a0 36 67 fc be a0 18 3c 3e 20 fd 7c 3e d2 c9 38 bf
       -0.49297494 0.18368769 0.24705935 -0.72182953
0001b0 bf 34 55 be 33 80 65 bf 13 6b fa be ce 9e e8 be
       -0.20820902 -0.8964874 -0.48909816 -0.45433658
0001c0 15 54 c7 3a 83 80 0c bf 1d 70 1a bf f6 8d a5 bd
       0.0015207554 -0.54883593 -0.6032732 -0.080837175
0001d0 fe da 63 bf 26 a4 84 bf f5 d5 80 bf 4a b0 c3 be
       -0.8900603 -1.0362594 -1.0065295 -0.38220435
0001e0 df ad 52 bf e4 56 dd 3d 45 f6 5d be 49 6c d5 bd
       -0.82296556 0.10807589 -0.21675976 -0.104210444
0001f0 45 74 86 bd 1b fa 97 be 49 1c fd bd 73 25 81 bf
       -0.065651454 -0.29683003 -0.123589106 -1.0089554
000200 99 5b d1 be 83 c2 0b bd 4c 9b cb be 77 53 66 bf
       -0.40890196 -0.034121048 -0.3976692 -0.8997111
000210 85 0e f3 3c 0d 8e 56 bf 94 33 ac be 6f 43 b9 be
       0.02967001 -0.838105 -0.336331 -0.3618426
000220 a0 f8 1d bf 30 a2 49 bd af 40 19 bf 3c d4 16 bf
       -0.61707497 -0.04922694 -0.59864324 -0.58917594
000230 11 e0 7c be 0e 79 7c bd 00 6d b8 be c4 3e 2b bf
       -0.2469485 -0.061638884 -0.3602066 -0.6689265
000240 73 81 49 bf 4c 89 dc 3d 89 61 63 bf ba 24 b7 be
       -0.7871315 0.10768375 -0.888207 -0.35770208
000250 0a f5 6b bf c7 89 41 bf fd 2e 6d bf ff fb 19 bf
       -0.92170775 -0.75600857 -0.92649823 -0.6015014
000260 ec 9e 7d be e6 b7 fb be 43 70 51 bf 4a 75 54 bf
       -0.24767655 -0.4916374 -0.8181192 -0.8299147
000270 5f d9 2c bf 85 8c c4 bd c0 25 83 bf ce 63 83 bf
       -0.6751918 -0.095971145 -1.0245895 -1.0264833
000280 57 87 3e bf dd fe 00 bf af 56 0d bf 66 fe 4c bf
       -0.7442526 -0.5038889 -0.55210394 -0.8007568
000290 b8 5a ef be ed 37 2a 3d 67 76 08 bf 1e 01 8b 3d
       -0.467489 0.04155724 -0.5330567 0.067873225
0002a0 10 31 7f bf 51 09 02 bf 5d 10 21 bf d3 f1 68 bf
       -0.9968424 -0.50795466 -0.62915593 -0.90993994
0002b0 e8 a2 eb be 44 fa 5b 3d 2b 72 0d bf 92 a6 3d 3e
       -0.46022725 0.05370547 -0.5525233 0.18520573
0002c0 67 2a 13 bf 1d 04 bd be 43 58 4c bf 24 01 a1 be
       -0.57486576 -0.369172 -0.79822177 -0.31446183
0002d0 0c a1 25 be d3 53 82 be 0a d7 36 be 0d f4 33 bf
       -0.16174716 -0.25454578 -0.17855468 -0.70294267
0002e0 45 bb 72 bf a7 3b 1c bf d2 e0 7e be b3 b9 b2 be
       -0.94817 -0.6102852 -0.2489045 -0.34907302
0002f0 07 12 aa be 45 d8 55 bf c5 38 99 be b5 ff 8c bf
       -0.3321688 -0.83533126 -0.29926124 -1.1015536
000300 2e a6 2a bf 83 e2 9c be 42 82 52 bf 70 1e 5a bf
       -0.6665982 -0.30641565 -0.8223001 -0.85202694
000310 20 a1 a7 be 81 78 5d bf 49 8d 66 bf e9 06 09 be
       -0.32740116 -0.86512 -0.90059334 -0.13381542
000320 3c 18 52 bf 6f 7f 31 bf ef 79 ce be 32 08 eb 3c
       -0.8206823 -0.69335073 -0.40327403 0.028690431
000330 e8 38 64 bf 5d 3b 30 bf f2 60 17 bf ad e7 2e be
       -0.8914933 -0.6884058 -0.591323 -0.17080565
000340 47 7f 5b bf 5f 65 42 bf 0d 51 92 be d3 76 8a bf
       -0.85741085 -0.7593593 -0.28577462 -1.0817512
000350 4f 84 1b bf 71 dc 09 bf e9 14 98 be ee 0b 2c bf
       -0.6074876 -0.5385199 -0.29703453 -0.67205703
000360 81 ea 1c bf a5 5c 2e bf ef e9 57 bf 4c db 7f bf
       -0.61295325 -0.68110114 -0.8434133 -0.99943995
000370 d0 78 4b bf 2c 66 ba be 12 9c f2 be af b8 0e 3c
       -0.7948122 -0.36406076 -0.47384697 0.008711024
000380 4c b5 53 bf 2c 70 cd be 81 b3 62 bf 01 82 44 bf
       -0.8269851 -0.40124643 -0.8855515 -0.7676087
000390 51 fc 11 bf 21 b4 10 bf 07 94 26 be e1 83 74 be
       -0.5702563 -0.56524855 -0.16267405 -0.23878433
0003a0 62 b7 1a bf b9 18 3e bf 57 06 db be e9 91 73 bf
       -0.6043607 -0.74256474 -0.42778274 -0.95144516
0003b0 cb b8 46 be a6 f6 cb be eb b2 17 bf b6 ac 81 bf
       -0.1940643 -0.39836615 -0.5925738 -1.0130832
0003c0 20 af 14 bf fc 23 3f bf 7f 17 b5 bd cf 0c 92 be
       -0.5807972 -0.7466428 -0.08842372 -0.28525397
0003d0 43 4f 0d bf ac c3 1d bf b0 0a 2c be 7a d8 1e bf
       -0.5519907 -0.61626697 -0.16800952 -0.6204907
0003e0 0c dc 17 be fa 09 0f be 81 02 1f bf 3c 71 82 bf
       -0.14830035 -0.1396865 -0.62113196 -1.0190806
0003f0 73 b7 47 bf 62 67 81 bf f5 16 53 bf e7 03 ca be
       -0.78014296 -1.0109675 -0.82456905 -0.39456102

model.model.2.weight f4 [256]
000000 cd a9 18 3f 9a 95 63 3f b6 b6 34 3f 07 63 4d 3f
       0.59634095 0.8890015 0.70591295 0.8022923
000010 1a 04 3a 3f a9 5e 51 3f fd 2b 27 3f e7 ae 6c 3f
       0.7266251 0.81785065 0.65301496 0.9245438
000020 69 ba 2a 3f 67 69 07 3f bc 39 28 3f 4c f1 43 3f
       0.6669069 0.52895206 0.65713096 0.76540065
000030 2b f9 2a 3f c2 2f 28 3f e7 3c 33 3f c1 1f e7 3e
       0.6678645 0.6569787 0.70014805 0.45141414
000040 63 06 23 3f a1 1a 89 3f cc 64 33 3f d5 1b 56 3f
       0.6368162 1.0711251 0.7007568 0.8363622
000050 76 70 80 3f a8 fe 5b 3f 27 f0 32 3f 90 64 60 3f
       1.003432 0.8593545 0.69897693 0.87653446
000060 67 0b 85 3f c9 d8 4c 3f e9 e6 2b 3f d0 cd 3c 3f
       1.0394105 0.8001829 0.67149216 0.73751545
000070 8a 38 3c 3f c8 2c 09 3f e0 9e 5c 3f a9 e1 4f 3f
       0.7352377 0.53583956 0.86179924 0.81203705
000080 e3 7c 20 3f 1d 73 68 3f 4b 62 41 3f c6 a8 1b 3f
       0.6269056 0.9080065 0.7554061 0.608044
000090 ae 59 60 3f 78 6c 22 3f e7 7a 25 3f 44 05 1a 3f
       0.8763684 0.6344676 0.6464066 0.60164285
0000a0 e6 84 5e 3f 77 d5 89 3f 63 fc 0b 3f 41 20 42 3f
       0.86921537 1.0768269 0.54681987 0.75830466
0000b0 9d 9a 34 3f 98 81 3c 3f cf e4 98 3f 2b 08 35 3f
       0.7054842 0.73635244 1.1944827 0.7071559
0000c0 3b 88 28 3f 45 a2 39 3f 28 c0 70 3f 7e 9f 56 3f
       0.6583287 0.7251323 0.9404321 0.83837116
0000d0 c4 9e 20 3f 7a 5f 05 3f 40 de 61 3f f0 e8 10 3f
       0.6274226 0.5209881 0.8822975 0.56605434
0000e0 13 84 4e 3f 2f ef 83 3f d8 a5 82 3f 47 0f 5c 3f
       0.8067028 1.0307368 1.0206861 0.8596081
0000f0 18 ad 2a 3f 8d f0 41 3f 01 0b 2a 3f 01 a6 52 3f
       0.6667037 0.75757676 0.6642304 0.8228455
000100 a3 49 2f 3f 3d 5c fd 3e ed 7d 44 3f 9a 85 5e 3f
       0.68471736 0.49484435 0.7675465 0.8692261
000110 3f 7c 3a 3f 98 34 4b 3f 87 9b 6a 3f 3b 84 7a 3f
       0.72845834 0.79377127 0.91643566 0.9785802
000120 2c d2 82 3f 91 f3 4a 3f 27 73 68 3f 92 ec 1d 3f
       1.0220389 0.792779 0.9080071 0.616891
000130 98 11 62 3f dc 8f 39 3f 7a e2 2b 3f 7b 6f 39 3f
       0.88308096 0.72485137 0.6714245 0.7243573
000140 f1 ff 3f 3f 4b ee 90 3f c9 4c 49 3f d0 16 2e 3f
       0.7499991 1.1322721 0.7863279 0.6800356
000150 1f 44 2a 3f 55 f7 2b 3f 01 8a 86 3f 7e 81 47 3f
       0.66510195 0.67174274 1.0510865 0.77931964
000160 df 7b 63 3f bf d1 5e 3f 85 c5 36 3f 86 b3 5f 3f
       0.8886089 0.870388 0.7139514 0.87383306
000170 a5 67 62 3f 07 11 3e 3f 18 67 2a 3f c2 47 61 3f
       0.884394 0.7424473 0.6656356 0.8800012
000180 8b 6e 2a 3f b8 6b 6e 3f 95 54 46 3f 73 65 4e 3f
       0.66574925 0.93133116 0.7747281 0.8062355
000190 8b d8 87 3f a7 b4 46 3f f6 32 23 3f 0e 72 4d 3f
       1.0612959 0.77619404 0.63749635 0.8025216
0001a0 bc 6a 29 3f 26 1e ea 3e 85 21 3a 3f dc b4 7a 3f
       0.6617849 0.45726126 0.72707397 0.9793222
0001b0 73 45 2f 3f 59 5c 7b 3f 46 b7 09 3f 82 2c 1a 3f
       0.68465346 0.98187786 0.5379528 0.60224164
0001c0 fc 2b 53 3f f8 8a 42 3f c2 af 41 3f de 34 3a 3f
       0.8248899 0.759933 0.7565881 0.7273692
0001d0 70 fa 71 3f 42 5b 64 3f d1 e3 8e 3f 1d a7 ee 3e
       0.9452276 0.8920175 1.1163274 0.46611872
0001e0 02 3d 8a 3f 23 d2 48 3f 4d 10 5c 3f e3 cc 2f 3f
       1.0799868 0.78445643 0.85962373 0.6867201
0001f0 f7 f1 13 3f 0b e1 29 3f 67 03 36 3f bf 4c 81 3f
       0.57791084 0.66359013 0.7109894 1.0101546
000200 9e ff 49 3f 72 b1 11 3f a2 1a 35 3f 9d 21 5d 3f
       0.78905666 0.56911385 0.70743763 0.86379415
000210 a2 78 39 3f 4c eb 7e 3f be d7 40 3f f3 0e 5e 3f
       0.72449696 0.99577785 0.75329196 0.8674156
000220 47 83 5e 3f 8b 65 21 3f a2 a6 50 3f 24 57 3d 3f
       0.86919063 0.6304557 0.8150426 0.7396109
000230 40 14 61 3f cd c1 60 3f 3e 40 3a 3f 6d 4a 39 3f
       0.87921524 0.87795717 0.72754276 0.7237919
000240 fc 0e 61 3f 9e 8b 32 3f c4 6e 7e 3f 47 3f 68 3f
       0.8791349 0.6974429 0.99387765 0.90721554
000250 34 3b 90 3f aa e0 66 3f 63 42 82 3f 35 46 28 3f
       1.1268067 0.9018656 1.017651 0.6573213
000260 71 5c 18 3f a9 51 31 3f 1e a0 4b 3f d9 f1 86 3f
       0.59516054 0.6926523 0.79541194 1.0542556
000270 d8 ea 25 3f 08 c5 0b 3f f5 64 78 3f 44 b3 80 3f
       0.6481147 0.5459752 0.9702905 1.0054708
000280 08 3a 6e 3f 28 2d 27 3f d7 b9 17 3f 59 a8 5a 3f
       0.930573 0.6530328 0.59267944 0.8541313
000290 ea 2b 2c 3f 6c 92 40 3f 36 f0 11 3f 4b 3e 27 3f
       0.6725451 0.7522342 0.5700716 0.65329427
0002a0 de 50 72 3f 10 5e 1c 3f 86 40 31 3f ef 56 67 3f
       0.94654644 0.6108103 0.6923908 0.90367025
0002b0 6f 01 36 3f 09 0c 29 3f 37 43 81 3f 33 78 2b 3f
       0.7109594 0.6603399 1.0098637 0.66980284
0002c0 24 3b 4f 3f fe c0 29 3f d5 7f a1 3f fb 64 79 3f
       0.80949616 0.6631011 1.2617136 0.9741971
0002d0 11 89 26 3f ee 8b 5e 3f fc 93 19 3f 90 17 62 3f
       0.65052897 0.86932266 0.5999143 0.88317204
0002e0 93 4c 80 3f 1c 4a 4f 3f cb 9c 2b 3f 55 5a 2c 3f
       1.0023369 0.80972457 0.6703612 0.67325336
0002f0 2c db 4f 3f 09 d4 a8 3f 81 a3 3e 3f c3 af 4f 3f
       0.81193805 1.3189708 0.7446824 0.81127566
000300 db 25 49 3f 77 7f 24 3f d2 9a 5c 3f f1 b0 6d 3f
       0.7857339 0.64256996 0.8617374 0.92848116
000310 2e e8 0e 3f 54 6c 7c 3f 55 e7 9e 3f 7f cd 32 3f
       0.5582303 0.98602796 1.2414347 0.6984481
000320 40 ba 5d 3f aa 07 5c 3f b3 c8 ec 3e b1 ef 35 3f
       0.8661232 0.85949194 0.4624687 0.71068865
000330 3a 60 6e 3f 6f 6e 39 3f 66 04 69 3f 55 00 17 3f
       0.9311558 0.72434133 0.91022336 0.5898488
000340 16 4e 7a 3f 8b 79 98 3f 3c 89 6c 3f 93 92 8b 3f
       0.977754 1.1912092 0.92396903 1.0904106
000350 f7 43 69 3f b3 72 82 3f ef 55 08 3f 3a ee 63 3f
       0.9111933 1.0191253 0.53256124 0.8903538
000360 97 42 3e 3f 3e 0f 50 3f c7 a8 51 3f d8 14 87 3f
       0.7432036 0.8127326 0.8189816 1.0553236
000370 12 87 81 3f a6 d1 3f 3f b3 de 75 3f 97 29 23 3f
       1.0119345 0.74929273 0.9604294 0.63735336
000380 57 10 8d 3f 9f 92 2b 3f ca f7 77 3f 7f 5e 49 3f
       1.1020612 0.670206 0.9686247 0.78659815
000390 63 e0 06 3f dd 63 43 3f b1 f5 0b 3f 06 42 50 3f
       0.52686137 0.76324254 0.5467177 0.81350744
0003a0 2d be 42 3f c7 c6 35 3f b0 2e eb 3e 8d 22 40 3f
       0.76071435 0.71006435 0.45934057 0.7505272
0003b0 24 a6 2a 3f ea 82 44 3f 52 05 2c 3f c1 8b 54 3f
       0.6665976 0.7676226 0.6719562 0.8302575
0003c0 d2 01 1f 3f 90 17 70 3f 6f 2e 92 3f 41 a8 1e 3f
       0.6211215 0.93785954 1.142042 0.61975485
0003d0 52 62 82 3f 71 d6 44 3f 8b 3c 33 3f fd 59 e1 3e
       1.0186255 0.7688971 0.70014256 0.44013968
0003e0 f5 5f 35 3f b5 3f 47 3f 03 43 1b 3f af 32 7e 3f
       0.70849544 0.77831584 0.60649127 0.9929609
0003f0 4c 25 90 3f cf 0f 7d 3f 5c 04 3d 3f 20 65 20 3f
       1.1261382 0.98852247 0.73834777 0.62654305

model.model.2.bias f4 [256]
000000 fe 8f ea bd 87 ef 61 be fb 08 c6 bb 85 97 b5 3d
       -0.114532456 -0.22064029 -0.006043551 0.08866791
000010 4b 92 02 be d2 70 23 3e da fd 19 bd 7f ec 86 3e
       -0.12751119 0.15961006 -0.037595607 0.26352307
000020 9b 4f 04 3e 5d 59 b6 bd a8 05 eb 3c 0b ee 15 be
       0.12920992 -0.089037634 0.02868922 -0.14641587
000030 f3 09 58 bd 9c f3 d1 bc 7d 1b 3d 3d 84 17 ec be
       -0.052743863 -0.025628857 0.046168793 -0.4611169
000040 e0 99 87 be 7e 1d 26 3e a6 27 1b bd 2a 7a ae 3d
       -0.26484585 0.16222188 -0.03787961 0.08519395
000050 94 73 97 3e ce 32 93 3e cc d1 f6 3d 1b 27 c0 bc
       0.29580367 0.28749698 0.12051734 -0.023456147
000060 04 f2 e1 3d e9 fe 53 3e 86 e2 9d 3e 97 65 5c 3e
       0.11032489 0.2070271 0.30836886 0.21523128
000070 7b 9f 74 be 53 e4 31 3e fc df bc 3c cb f8 a1 3e
       -0.23888962 0.17372255 0.023056023 0.31635126
000080 4d cc ee 3c c7 bf a5 bd cc ad 24 3e a8 39 d1 bd
       0.029150153 -0.08093219 0.16081923 -0.10216075
000090 b1 47 cd 3d c3 6e 83 be 36 89 8b be 74 51 0c be
       0.1002344 -0.25670442 -0.2725312 -0.13702947
0000a0 d1 12 85 3e 0b 71 84 3e 68 2a 04 be 46 e0 87 bc
       0.25990918 0.25867495 -0.12906802 -0.016586434
0000b0 84 22 8d 3e a5 a1 e3 3e 45 78 9b 3e 7b 31 92 3e
       0.27565396 0.44459262 0.30365196 0.28553376
0000c0 76 3b 81 3e 3f d6 48 3d 80 3a d9 3e a6 61 c0 3d
       0.25240678 0.049032446 0.42427444 0.09393625
0000d0 15 f9 44 be a0 f9 5c 3c 83 d0 86 be 3f 40 a4 bd
       -0.19235642 0.01348725 -0.26330957 -0.080200665
0000e0 40 f4 d4 bd a8 f6 8b 3d 3b 7f 09 3e 5b 7d 0c bd
       -0.103981495 0.06834155 0.13427441 -0.034299236
0000f0 5f a6 fd 3c 09 06 ff bd 9d 83 dc be f9 36 5f 3d
       0.030963121 -0.12452323 -0.43069163 0.054495785
000100 58 54 06 3e 8a 00 ac bd 93 53 83 3c d8 e3 df bd
       0.13118112 -0.0839854 0.016031062 -0.109321296
000110 d3 ef e3 3e a7 21 d0 3d 95 e0 3f 3d f6 71 87 3e
       0.4451891 0.10162669 0.046845037 0.26454133
000120 b8 52 ca bb 79 43 0f 3d ee 63 c8 bd 7f 87 22 3e
       -0.0061744116 0.034976456 -0.09784685 0.15872
000130 82 a6 1e ba 90 ec d3 bd 39 6b 95 be 31 8b 55 3e
       -0.0006052033 -0.10347855 -0.29183367 0.20853879
000140 23 bc c3 3d 70 00 ad 3d fc 6a 84 3e 58 1c 36 bd
       0.095573686 0.08447349 0.25862873 -0.044460624
000150 45 50 e6 bd 6a 32 43 be 30 e8 bd 3d c2 73 75 bd
       -0.11245779 -0.190622 0.09272802 -0.05992485
000160 94 9b 90 bc 7e 9b 3a be 6d bf 04 3e a3 ba 62 bc
       -0.01765231 -0.18223378 0.12963648 -0.013838443
000170 9f 3c 7b be 6b 7f 73 be 4d 01 08 bd 39 87 2e be
       -0.24534844 -0.23779075 -0.033204366 -0.17043771
000180 8e 81 cb 3c 5b 13 43 3e 66 4b 85 bd 51 cf 91 3d
       0.02484205 0.19050352 -0.06508522 0.071196206
000190 b4 c3 0e 3e 3b 6c 64 3e 39 b8 7b ba 67 0c bb 3d
       0.13941842 0.22306912 -0.00096023415 0.09133225
0001a0 92 6d d9 3d 3f 48 2c 3d bf e8 1a be db 13 57 3e
       0.10616602 0.042061087 -0.15127848 0.21003668
0001b0 51 69 f4 bd fb 91 a4 3e bf 60 c5 3e fc 51 00 be
       -0.1193415 0.32142624 0.38550374 -0.12531275
0001c0 55 b5 94 3e c5 e0 8c bd 69 ac 9d bd bf e7 9d 3e
       0.29044595 -0.06878809 -0.076989 0.3084087
0001d0 fc a9 0f 3e 05 b2 92 bd e9 3d 4b bd 95 7c 2f 3e
       0.14029688 -0.07162861 -0.04961959 0.17137368
0001e0 5f 12 9b 3e 9f 89 3e 3e 2e 78 7d 3e f4 63 86 be
       0.30287454 0.18607186 0.24752876 -0.26248133
0001f0 2f 69 fe 3b 2c db b6 3d e8 80 8b bd 09 2a da 3d
       0.0077640037 0.089285225 -0.06811696 0.10652549
000200 47 81 6b 3e 3b 21 92 3e a5 12 1a 3e 4b 1a cf bb
       0.22998534 0.28540978 0.15046175 -0.006320273
000210 0d 06 61 3d 1d b1 37 3e 86 e8 ab 3e d3 30 8d be
       0.05493741 0.17938657 0.3357584 -0.27576312
000220 95 7d 25 be 74 95 0f 3e 6a 37 d3 3a a5 f9 05 3e
       -0.16161187 0.14021856 0.0016114537 0.13083513
000230 39 88 03 be f4 fd e7 3c ca 76 79 be dd 19 8d bd
       -0.12844934 0.028319336 -0.2436172 -0.06889699
000240 85 f0 64 3e 58 96 59 bd 29 e9 4e 3e 83 f9 bf 3d
       0.22357376 -0.053121895 0.20206131 0.093737625
000250 1f af 65 3e e7 6c 05 3e 5d 21 de 3d 04 94 2d 3c
       0.22430085 0.13029824 0.10846207 0.010594372
000260 44 43 0a 3e dc 59 8f 3d ad 27 87 3e 1e 22 f7 3d
       0.13502222 0.06999561 0.26397458 0.12067054
000270 10 6c 27 3a f3 8a de bc d2 15 2a be b7 2c 46 bd
       0.0006386647 -0.027165866 -0.16609886 -0.048382487
000280 b6 61 14 3e 42 2f a2 3e 4c 43 7e bc cd 9b 44 be
       0.14490399 0.3167668 -0.0155189745 -0.19200058
000290 16 b3 5b be 8f cd 0d 3e 20 b2 34 be 7f 18 7a 3e
       -0.21455035 0.13847946 -0.17646074 0.24423407
0002a0 2d 21 ce bd d1 a8 8d 3e 96 cf 1d be 58 33 db 3d
       -0.100649215 0.2766786 -0.15411219 0.107031524
0002b0 cf a0 f0 bd 38 77 a3 be f0 53 28 3e cd 9d 15 3e
       -0.11749422 -0.31926894 0.1643827 0.14610977
0002c0 d6 dc fe 3e 8d a4 0e 3e 95 dc 9a 3e 68 2d 42 3e
       0.4977786 0.13929959 0.30246416 0.18962634
0002d0 38 54 3d be 69 f2 21 3e e4 b3 21 be 10 f6 d0 3d
       -0.18489158 0.15815128 -0.15791279 0.10203183
0002e0 c4 86 90 be fa bc 84 3e 5e 8c c0 bd ed 35 aa 3e
       -0.28227818 0.25925428 -0.09401773 0.33244267
0002f0 69 4c 9e be 46 1a a3 3e ec 99 9e 3e 6d be fc bd
       -0.3091767 0.31855983 0.30976808 -0.12341008
000300 cf 44 2f bd ac 1e 83 3e c8 08 9c 3e f2 e8 da 3d
       -0.04279023 0.25609338 0.3047545 0.10688962
000310 82 df 8c be a2 88 9c 3e 00 59 aa 3e 5d 65 0d 3e
       -0.27514273 0.30572993 0.33271027 0.13808198
000320 f6 6a c5 3c c6 76 b9 3d 76 82 0d 3f 8b 0f 4d 3e
       0.024098855 0.09055857 0.5527719 0.2002546
000330 47 61 92 3e fc bb 64 bd e2 b7 bc 3d 42 04 71 be
       0.28589842 -0.05584334 0.0921476 -0.2353678
000340 39 c6 b2 3e c2 1b 97 3e 52 fd 88 bd 6d 64 fc bc
       0.34916857 0.29513365 -0.06688942 -0.030809605
000350 c1 a0 c9 bc c1 51 bf 3e 78 12 07 3e 1f ca 66 3d
       -0.024612786 0.3736706 0.13190639 0.0563451
000360 b1 e7 a1 3d 36 17 b2 bd 47 ad d7 3c ce 04 bb 3e
       0.0790552 -0.086958334 0.026327742 0.36527103
000370 d6 de 47 3b cc a6 a0 bc de 9d ed 3d 4c 60 55 3e
       0.003049781 -0.019610785 0.116023764 0.20837516
000380 78 b1 93 bc ba 57 cd bd 0c 83 bc bb 3c a9 5a be
       -0.01802896 -0.10026498 -0.0057529267 -0.2135362
000390 9f 58 01 bf 95 46 d5 3c 44 d0 cc 3e 78 9c 2a 3e
       -0.5052585 0.026034633 0.40002644 0.1666125
0003a0 e3 21 14 bd 87 21 21 be 9f fa 5e 3e 9f 6a 7b bd
       -0.03616513 -0.15735446 0.21775292 -0.06138098
0003b0 4f a8 35 be e6 b2 8a 3d 4a 14 37 be 29 b2 3b be
       -0.17739986 0.067724034 -0.17878833 -0.18329681
0003c0 53 1d 95 3e d5 4b a7 3e b0 35 b2 3d 1e db 9b bd
       0.29123935 0.32675043 0.08701646 -0.07610153
0003d0 c0 87 8f 3d cc 87 7b bd 3e 25 17 be 09 17 4a be
       0.07008314 -0.061408803 -0.147603 -0.1973535
0003e0 dc 7c d5 bd 99 93 ac 3d e8 80 fa 3d 11 99 46 3d
       -0.10424206 0.084265895 0.12231618 0.04848582
0003f0 ff e9 71 3e b9 72 23 3e d4 52 f9 bc 7d 61 81 be
       0.23624419 0.15961732 -0.030435003 -0.2526969

model.model.2.running_mean f4 [256]
000000 fd 6a d8 3d 90 7a 8c be ec 77 40 3d b6 11 2d be
       0.105672814 -0.27437258 0.046989366 -0.16901287
000010 7d df 45 bd e4 ce 0d 3e 1e 78 82 bd c5 0e 90 be
       -0.04830884 0.13848454 -0.06370567 -0.28136268
000020 34 82 bf bd a3 c3 40 bd c9 dd 24 3d b8 ed d5 bd
       -0.09351006 -0.047061574 0.040250573 -0.10445732
000030 f3 0b 02 be 89 55 23 be e8 29 b6 bc 53 8b 24 3f
       -0.12699871 -0.15950598 -0.02223678 0.6427509
000040 69 5f 13 be f8 b3 8b be fc e0 cc bd 09 ba 59 be
       -0.14391865 -0.27285743 -0.1000385 -0.21262373
000050 08 8f 53 be 04 d9 5b 3e 1e 82 1b be b4 86 8b be
       -0.20660031 0.21469504 -0.15186355 -0.27251208
000060 12 a0 81 be 77 9b 2d be b6 71 1b bd 1f b3 fa bc
       -0.25317436 -0.16953836 -0.03795024 -0.03060299
000070 70 02 0c be 05 b8 86 3e 4c 9d 87 be e5 00 8b 3d
       -0.13672805 0.2631227 -0.26487195 0.0678728
000080 e6 3e 90 3c 9b 9b 50 be eb e4 84 be 80 88 5b 3d
       0.017608117 -0.20371859 -0.259559 0.053596973
000090 4e 64 1d be 02 0f 14 be 3e 73 7b bc 88 9c 4d be
       -0.15370294 -0.1445885 -0.0153473 -0.20079243
0000a0 7c 5d 20 be 6c 0c 8a be 75 cb a3 3e c5 15 a1 bd
       -0.15660661 -0.26962602 0.31991163 -0.0786548
0000b0 1d 49 e9 3d 6b fe 2c be 19 19 96 be c6 7c 10 3d
       0.113908984 -0.16893928 -0.29316023 0.035275243
0000c0 20 6a b5 bd 65 31 27 be b1 bd 72 be 18 3f 4c be
       -0.08858132 -0.16327436 -0.23705174 -0.19945943
0000d0 e0 4d 01 be 7b d1 b6 3c a1 89 20 be 3b 8b 98 3c
       -0.12627363 0.022316685 -0.15677501 0.018621078
0000e0 d2 c0 e8 bd 12 be 93 be ec 82 66 3d be 76 1d be
       -0.113649026 -0.2885595 0.0562772 -0.15377328
0000f0 91 7e 70 3e f0 36 a4 bc d1 b1 12 3e 13 1b 1d 3e
       0.23485781 -0.020045727 0.14325644 0.15342359
000100 cc 69 16 be 01 db 3a bc ab 7e a8 bd 95 86 f3 bd
       -0.14688796 -0.011404754 -0.08227285 -0.11890904
000110 e4 14 15 3c 1d 6e f3 bd 27 f3 85 be 13 d6 68 be
       0.009099219 -0.11886237 -0.26162073 -0.22737913
000120 c0 c9 84 be 23 af b4 bd a5 7c 8f be 9b 4d 98 bd
       -0.25935173 -0.08822467 -0.28024784 -0.07436677
000130 f3 b9 0d be 0e b6 83 be fb 34 aa bd 96 de 3f be
       -0.13840465 -0.25724834 -0.083108865 -0.18737254
000140 ed 43 64 3d ff ab 80 be c6 1e 47 3e 50 f7 ab bd
       0.05572884 -0.25131223 0.19445333 -0.083967805
000150 a0 f9 73 bd 03 f1 d6 bd fc f2 84 be 10 e0 8a bd
       -0.059564233 -0.10495188 -0.25966632 -0.06781018
000160 28 83 b1 3d 09 06 56 be ee 77 05 3e 3f 20 77 be
       0.08667594 -0.2090074 0.13034031 -0.24133395
000170 24 4a 13 3d c0 d5 87 3e fc 2b d9 bc 16 1f 75 be
       0.035959378 0.26530266 -0.026510231 -0.2393764
000180 ed 50 f3 bd b5 82 8d be 69 80 46 bd c0 d9 50 be
       -0.1188067 -0.27638784 -0.048462305 -0.20395565
000190 57 89 84 be 01 f4 2f be 19 9f df bd 84 b2 43 be
       -0.25886032 -0.17182924 -0.10919017 -0.19111067
0001a0 26 cf b1 bc 94 f8 9e 3d 54 5e 04 3e 63 be 15 be
       -0.021705221 0.07762256 0.12926608 -0.14623408
0001b0 c1 b9 e5 bc 9d 9c 2f be 89 89 3d be 2e f1 f1 bd
       -0.028042676 -0.17149587 -0.18509497 -0.118135795
0001c0 8f 57 a4 3e 7e df 3a be 46 51 e0 bd c0 66 3a b8
       0.32098052 -0.18249318 -0.10953002 -4.444155e-05
0001d0 7b 99 7e be 64 b2 82 be 85 cc 83 be 5d 0d 13 3d
       -0.24863236 -0.25526726 -0.25741974 0.035901416
0001e0 50 fa 87 be 32 e6 07 3e d2 b8 cf bd 43 1b af 3d
       -0.2655816 0.13271406 -0.101426736 0.08550122
0001f0 18 37 b2 3c 41 8b 21 be c6 f2 2a bd e1 fe 92 be
       0.021754786 -0.15775777 -0.041735433 -0.28710082
000200 00 60 18 be 11 a0 21 3e 4c 9d 23 3b e8 eb 82 be
       -0.14880371 0.15783717 0.0024965582 -0.25570607
000210 6d dc 1d 3e 9e ff 8d bd b8 b9 2e bd 6a 3c 0e be
       0.15416117 -0.06933521 -0.042657584 -0.13890234
000220 9a 9d 60 be f2 cc b4 3d e5 ca 3f be 69 09 04 be
       -0.2193512 0.08828153 -0.18729742 -0.12894215
000230 66 d3 c6 bd 41 f4 37 3e 70 26 6e bd 19 3f 80 be
       -0.0970829 0.17964269 -0.058142126 -0.2504814
000240 31 aa 6e be 62 e6 15 3e 0c 36 81 be fb b2 b7 3c
       -0.2330711 0.14638665 -0.25236547 0.022424212
000250 6f 53 68 be 06 95 81 be 4a fc 77 be 79 81 27 be
       -0.22688077 -0.25309008 -0.24217334 -0.16357984
000260 fd ab 3a 3d a1 d8 c9 bd 01 e4 79 be a3 36 7e be
       0.045574177 -0.09855772 -0.24403383 -0.2482553
000270 e3 2a 4a be cd ba ee 3d ea 9f 82 be 10 38 94 be
       -0.19742922 0.11656723 -0.2551263 -0.28949022
000280 8c 90 5c be 96 dc cc 3d b1 2f 4a be 5f 38 8d be
       -0.21539515 0.10003011 -0.19744755 -0.2758207
000290 23 b5 2c bd dc 04 4e 3e f8 15 d1 bd d2 26 19 3e
       -0.042164933 0.20119041 -0.10209268 0.14956215
0002a0 ee 74 8b be 09 8a 08 be 87 71 36 be ad c5 86 be
       -0.27237648 -0.13333906 -0.17816745 -0.2632269
0002b0 eb 57 3e be 85 e1 1c 3f 1a 1b 96 bc 17 e7 2e 3e
       -0.18588226 0.61281615 -0.01832347 0.17080341
0002c0 3d 27 69 be df 73 40 bd ad 5d 89 bd 08 f2 3a 3d
       -0.22768874 -0.046985503 -0.0670732 0.045640975
0002d0 05 cd 72 3d 9d b0 fd bb cc c1 97 bd 59 0a 4b be
       0.059277553 -0.007742001 -0.07410011 -0.19828166
0002e0 8f 30 90 be 01 60 13 be 10 66 36 3c 8a 35 94 bd
       -0.28162047 -0.14392091 0.011132732 -0.07236774
0002f0 e6 4d 3a bd 31 bb 7d be 20 7b 4c bd e8 82 70 be
       -0.045484446 -0.24778439 -0.04992211 -0.23487437
000300 a2 a2 0d be 70 f6 42 3a c4 29 69 be 99 7f 67 be
       -0.1383157 0.0007437235 -0.22769839 -0.22607268
000310 5e f6 dc bd d9 33 63 be 4f 0c 8b be ab 66 c1 3d
       -0.10789178 -0.22187747 -0.27157828 0.094434105
000320 89 09 6d be 6d cc 75 be f3 e5 c0 bd a0 e3 5b bd
       -0.23148169 -0.24003763 -0.09418859 -0.053683877
000330 72 4a 86 be a2 79 51 be d3 86 10 be 67 68 d8 3d
       -0.26228672 -0.20456555 -0.14113931 0.10566788
000340 e9 f3 4b be 24 2e 7c be 0e 37 79 bd e4 02 91 be
       -0.19917263 -0.24626976 -0.06084352 -0.28322518
000350 7f 31 35 be d9 41 9d bd 06 b8 17 be 9c 3b 34 be
       -0.17694663 -0.07678575 -0.14816293 -0.17600864
000360 f3 a0 fb bd 66 2b 8e be 54 e8 5d be 77 91 81 be
       -0.12286558 -0.27767485 -0.21670657 -0.25306293
000370 b2 65 7a be 1a 6c 0c 3d a8 d6 45 be 74 47 88 3d
       -0.24452856 0.03428278 -0.19320166 0.066542536
000380 18 56 96 be 1f 16 aa bd 22 e3 7a be 77 b3 b9 bd
       -0.2936256 -0.083050005 -0.24500707 -0.09067433
000390 26 20 16 bd d4 5e 19 be 4d 8c 80 3d fc 89 6a bc
       -0.036651753 -0.1497758 0.0627676 -0.014315125
0003a0 20 25 46 be eb 89 c7 bd 92 bc 13 3d e4 2a 05 be
       -0.193501 -0.09743103 0.036068507 -0.13004643
0003b0 07 d3 b1 bc c0 9a 1c be d2 75 63 be e2 1b 8f be
       -0.021707071 -0.15293407 -0.22212914 -0.2795096
0003c0 f9 f5 2f be 03 79 8e be db 96 73 3e a2 a1 6d bd
       -0.17183675 -0.278267 0.23788016 -0.058015473
0003d0 22 0f 7d be ed 13 6e be 76 e7 28 3d fa 5e 27 be
       -0.24712804 -0.23249789 0.041236363 -0.16344824
0003e0 49 0a 4d bd b0 ca 30 3e 49 81 61 bd f7 82 93 be
       -0.050058637 0.17264819 -0.055054937 -0.28810856
0003f0 f4 9b 57 be 5d f2 88 be d1 16 41 be 76 b3 bb bd
       -0.21055585 -0.26747409 -0.1885636 -0.09165089

model.model.2.running_var f4 [256]
000000 44 bf c1 3e 09 40 48 3b 90 a7 bc 3d f8 bf ea 3c
       0.37841237 0.0030555746 0.092116475 0.028655991
000010 0f 51 09 3e 59 19 da 3d d1 53 72 3d dd ae b9 3a
       0.13409828 0.10649366 0.059161965 0.0014166493
000020 d6 f1 f8 3c 9a 66 70 3d 93 24 01 3e 6a 3e 35 3d
       0.030388754 0.0586916 0.12611608 0.044248976
000030 69 1c d1 3d 66 a2 73 3d 43 14 44 3d 8a b0 ba 3f
       0.10210497 0.059481047 0.047870886 1.4585125
000040 4b 2d ad 3d 0d 94 f3 3a 3e 5b 90 3d 77 c0 3f 3c
       0.084559046 0.0018583551 0.07048653 0.011703602
000050 cc 97 b9 3c 16 38 8e 3e 84 2e 5e 3d 49 8f d5 3a
       0.02265539 0.27777165 0.05424358 0.0016293313
000060 6b cf cd 3b d1 a3 0c 3d 53 4f 09 3e f8 e2 02 3e
       0.0062808297 0.034335915 0.13409166 0.12781894
000070 25 a9 a4 3c 4b eb 4d 3f 59 4c 8e 3b 74 80 08 3e
       0.020100186 0.80437154 0.0043425974 0.13330251
000080 61 f5 e6 3d 0a b5 99 3c 3e a1 ff 3b f5 2c 07 3e
       0.11277271 0.018763084 0.007801204 0.13200743
000090 82 5e 41 3d 39 24 48 3d 11 e2 3f 3d 26 50 9b 3c
       0.04720927 0.04886267 0.046846453 0.018959116
0000a0 d8 3f 5b 3d f9 e1 44 3b 6c 80 73 3e d5 da e0 3d
       0.053527683 0.0030041917 0.23779458 0.10979239
0000b0 3e 85 48 3e 5e 77 2f 3d 5a 1a dd 39 9e 7d 3e 3e
       0.19582078 0.042838447 0.00042172038 0.18602607
0000c0 80 4f da 3d 2c 2b d9 3c 1f 00 27 3c 3f df 6c 3d
       0.10659695 0.026509844 0.0101929 0.05783009
0000d0 da ff ae 3d af 14 95 3e 1b 0a f7 3c bb f5 c2 3d
       0.085448936 0.29117343 0.030156186 0.095195256
0000e0 27 b1 85 3d 2f 33 85 3a fd 0b 9a 3e 01 41 41 3c
       0.0652793 0.0010162349 0.3008727 0.011795283
0000f0 a2 5c 00 3e 10 03 5e 3e 27 b3 8b 3d 26 bf a2 3e
       0.12535337 0.21680856 0.0682128 0.3178646
000100 29 3a 5f 3c 00 36 10 3e 3b 2e ff 3d 42 3a a6 3d
       0.013624706 0.140831 0.1245999 0.081165805
000110 53 40 0e 3e 33 11 8e 3c c7 d6 dc 3b 0b 01 e4 3c
       0.13891725 0.017342186 0.0067394706 0.027832529
000120 fd 72 9d 3b 87 34 f0 3c 71 8d 8c 3a 8d a7 9f 3d
       0.0048049674 0.029321922 0.0010723305 0.0779563
000130 b4 a3 68 3c ad b0 a5 3b 3a 63 b4 3d 71 af ce 3c
       0.014199186 0.005056462 0.088079885 0.025230141
000140 58 8f 52 3e 0d a8 b3 3b bc ae ac 3e 1b c6 74 3d
       0.20562494 0.0054826797 0.33727062 0.05975924
000150 cf 4b ce 3d b7 c6 56 3d 28 be b7 3b b7 9f b6 3c
       0.10073053 0.052435603 0.005607385 0.022292955
000160 b1 f0 a5 3e 2b e6 9c 3c 51 3a be 3d e0 d2 4a 3c
       0.32410195 0.019152721 0.09288467 0.012379378
000170 9f 66 25 3c d7 da 40 3e 01 4a 2c 3e 48 7a b4 3b
       0.010095268 0.18833481 0.16825105 0.005507741
000180 75 3e 1c 3d 4b 8c e3 3a 06 f4 c2 3c 0c 52 d3 3c
       0.0381455 0.0017360536 0.023798 0.025795959
000190 15 83 77 3b d4 c2 1a 3d 7c 1d 2a 3d 87 0c 42 3c
       0.003776734 0.03778346 0.041532025 0.011843807
0001a0 75 44 4c 3e bd 40 5f 3d b3 a7 ed 3c fe 29 7f 3d
       0.1994799 0.0545051 0.02901063 0.062295906
0001b0 c8 48 8b 3d 67 3d 7b 3d e3 04 15 3d 29 be 8e 3d
       0.06800991 0.061337855 0.036381613 0.06969864
0001c0 a1 ab 9d 3e ac 94 9c 3c 90 9c 99 3d 48 c3 a6 3c
       0.30795005 0.019113861 0.07500565 0.02035679
0001d0 de 20 fc 3b 86 87 a7 3b 74 e1 8f 3b 46 d4 ab 3e
       0.0076943478 0.005112591 0.00439089 0.3356039
0001e0 23 49 4d 3b d2 85 72 3d ec e8 14 3d e5 71 cb 3d
       0.003132411 0.059209652 0.036354944 0.09933833
0001f0 38 87 d3 3d 50 dc 2f 3d 2f 17 d6 3d 29 23 4d 3a
       0.10328525 0.042934716 0.10453641 0.00078253687
000200 03 45 2e 3d 4d cb 6c 3e e0 1f e8 3d 5e 94 ab 3b
       0.042546283 0.23124428 0.11334205 0.0052361926
000210 1e e6 55 3e dd cf 16 3e 5d 04 33 3e 01 2b 5d 3c
       0.20888564 0.14727731 0.17482133 0.013499022
000220 3d f2 31 3c 51 b7 ac 3d 7f 79 b6 3c c5 c5 af 3d
       0.010860977 0.08433402 0.02227473 0.085826434
000230 f1 04 83 3c 6c e3 86 3e f1 53 25 3d eb c1 b8 3b
       0.015993567 0.26345384 0.040363256 0.005638351
000240 f4 c2 32 3d 44 65 e1 3c 9e 4b a6 3b 92 77 6c 3e
       0.043642953 0.027514108 0.0050749322 0.23092487
000250 62 ac 8a 3c a2 bc c9 3b 64 b5 c3 3b 43 0e 2f 3d
       0.016927902 0.00615652 0.005972551 0.04273821
000260 5c 30 4e 3e f6 4f 94 3d 56 1f 07 3c a6 ad 46 3c
       0.20135635 0.07241814 0.008247217 0.012126362
000270 c0 0e aa 3c 2a a9 1b 3e a9 6a bc 3b ff 7e 4e 3a
       0.020758986 0.1520125 0.0057500196 0.00078772
000280 4f 08 ad 3c b0 45 b3 3e ca d8 37 3d fc 07 f0 3a
       0.021122126 0.35014105 0.04488448 0.0018312926
000290 94 d6 20 3e 9a 4b b1 3e 1c 87 94 3d f6 d2 dd 3d
       0.15706855 0.34627992 0.072523326 0.10831253
0002a0 a3 a4 71 3b 29 15 a7 3d 18 cd a1 3c b0 81 67 3b
       0.0036871813 0.08158333 0.019751117 0.0035325103
0002b0 63 69 d4 3c d9 13 9f 3f 23 3a 0e 3e 32 d8 e8 3d
       0.025929159 1.2427932 0.13889365 0.11369361
0002c0 ba e5 f4 3c 0f 41 9b 3d 4f 98 2c 3e 5e 43 33 3e
       0.029894698 0.07580768 0.16854976 0.17506167
0002d0 1a f4 e2 3d 78 e6 20 3e 49 b3 98 3d 80 38 45 3d
       0.11081715 0.15712917 0.07456071 0.048149586
0002e0 9c 0b 9a 3a 71 2c 97 3d 8d b0 cb 3d 80 e2 f7 3d
       0.0011752727 0.073815234 0.09945784 0.12103748
0002f0 54 2f 81 3d 46 ec 12 3c bb 37 32 3d 7b 33 68 3c
       0.06307855 0.008967465 0.04351018 0.01417243
000300 b6 7e 77 3d 3b 55 e0 3d c1 c5 41 3c 90 d0 29 3c
       0.060423575 0.109537564 0.011826933 0.010364667
000310 9e c9 8e 3d c5 5f 8b 3c 55 56 22 3b fa bc 10 3e
       0.06972049 0.01701344 0.0024770696 0.14134589
000320 af e7 8a 3c e1 3f 4f 3c 3c 12 b2 3d 4d e7 16 3d
       0.016956178 0.012649507 0.08694884 0.03684168
000330 da d5 95 3b 32 9b 57 3c da 0e 74 3d e8 0c 4a 3e
       0.0045726122 0.01315956 0.059584476 0.19731486
000340 b4 1d 06 3d 72 88 79 3b 0b 99 dd 3d d3 9a 99 3a
       0.03274317 0.0038075713 0.10820206 0.0011719115
000350 40 db 1b 3d b2 79 b9 3d 57 f5 12 3d 17 b0 66 3d
       0.03805089 0.09056415 0.035878506 0.056320276
000360 80 2e 80 3d b5 dd 52 3b 6c 53 45 3d 7a ff b4 3b
       0.06258869 0.0032175605 0.04817526 0.0055236192
000370 90 0a ab 3b fb 3c 30 3e 9c 99 08 3c 00 71 d8 3d
       0.005219765 0.17210762 0.008337405 0.10568428
000380 ea 28 c2 39 ec 49 b1 3d 82 85 12 3c fc 46 b8 3d
       0.00037033047 0.086566776 0.008942964 0.08997914
000390 f6 13 f4 3d 16 2f 09 3d b2 e4 1e 3e b7 b7 11 3e
       0.1191787 0.03349217 0.15516928 0.14230238
0003a0 ed 62 c2 3c 85 d4 c4 3d 4d 59 92 3e 5f cb 79 3d
       0.023728812 0.096108474 0.28583756 0.060984965
0003b0 33 2a 0e 3d 59 c0 19 3d 9f a8 d6 3c 45 74 8a 3a
       0.034708213 0.037536953 0.026203452 0.0010563215
0003c0 18 6c 51 3d 45 29 c3 3a 59 8b 18 3f 37 f1 32 3d
       0.051128477 0.0014889619 0.5958763 0.04368707
0003d0 db 2d 55 3b 68 e2 32 3c e5 28 cb 3d f7 29 69 3d
       0.0032528553 0.010918237 0.099199094 0.056924786
0003e0 d2 f2 fa 3c 0d d1 98 3e 96 5f 00 3e a3 50 55 3a
       0.030633364 0.29846993 0.12536463 0.0008137321
0003f0 bc 46 ab 3c 4a 82 89 3b be cc 0e 3d 35 a7 a7 3d
       0.020907752 0.00419644 0.034863226 0.08186189

model.model.4.weight f4 [128, 256]
000000 83 ef 01 bd d7 a6 6c bd b4 e4 8a bb ed a4 11 bc
       -0.031722557 -0.0577763 -0.0042386893 -0.008889419
000010 5f 57 7c 3c 67 30 1d 3e b5 f3 2f bc fe b4 ba 3d
       0.01540169 0.15350495 -0.010739257 0.09116553
000020 6f 51 20 3e 3a 64 6f be 71 e8 df 3c 6e e0 a4 bd
       0.15656064 -0.23378077 0.027332516 -0.08050619
000030 4a c7 2a bd 33 28 1c 3e b8 3e 5e 3d e1 eb ab 3d
       -0.041693963 0.1524971 0.054259032 0.083946
000040 15 61 59 3e 91 bc dd bd a6 e7 3f 3d 08 ee 29 3e
       0.2122844 -0.10826982 0.046851777 0.16594708
000050 c4 34 25 3e 6c 79 ee 3d c2 77 a4 bb f7 32 95 3d
       0.1613341 0.11644253 -0.005019159 0.072851114
000060 85 e0 24 bd 22 02 8a ba 1b d0 c8 bc 93 4a 6a 3d
       -0.04025318 -0.00105292 -0.024513295 0.057200026
000070 f2 4e 50 3e 8d df 41 3e aa d8 1d 3e f4 9d 47 b9
       0.20342615 0.18932934 0.15414682 -0.00019036961
000080 9a c0 92 be 15 bb 90 3d 13 da c1 bd ba 28 86 be
       -0.28662568 0.07066933 -0.094654225 -0.26202947
000090 af 91 24 3e 3d 0e 02 be 6e 97 10 3d 4f c5 83 bd
       0.16071199 -0.12700744 0.035300665 -0.06434118
0000a0 4a 0c 55 be 46 e4 02 3e 89 75 c6 3d 15 de 96 3d
       -0.20805469 0.12782392 0.09690387 0.073665775
0000b0 d0 f1 07 bd 4b 9c 1c be fc fd 9e 3c 76 73 c0 3d
       -0.033189595 -0.15293996 0.019408219 0.093970224
0000c0 fa d3 2f 3d 4d 75 16 3d 93 c7 97 3d 8f 1b 84 3c
       0.042926766 0.03673296 0.07411113 0.016126422
0000d0 ec 7e b5 3d 87 bc 99 bc 82 00 2f 3e 1c a3 33 3c
       0.08862099 -0.018766655 0.17090037 0.010964181
0000e0 da 1c aa be f7 ff 15 be e7 cd 91 bd 35 c8 cc bb
       -0.33225137 -0.14648424 -0.07119351 -0.0062494525
0000f0 b7 8c 76 3d 15 2b 0e 3d b1 00 d4 bd 73 3f 1a be
       0.06019279 0.034709055 -0.103516944 -0.15063266
000100 bc f2 7d bd fc 4d 93 bd f0 af 8d 3d 1f 40 0c 3d
       -0.061999068 -0.07192609 0.06918323 0.03424084
000110 4a c1 08 bc c0 ee 3d be 16 28 a2 bd 13 ca 26 be
       -0.008346865 -0.18548107 -0.07917802 -0.16288023
000120 ad 39 69 3d 18 5a 28 be 33 0f 0d 3d a2 10 89 3d
       0.05693977 -0.16440618 0.034438323 0.066926256
000130 b6 ed 81 3d 63 0d f1 bd 33 e2 60 3e 51 4d c9 3d
       0.06344168 -0.117701314 0.21961288 0.098292
000140 2c 71 d9 3d 7d fa 32 3e e0 a7 8b bb d5 dc 74 be
       0.10617289 0.17478366 -0.0042619556 -0.23912366
000150 d0 b1 28 3e d1 03 02 be c5 1f 57 bd a2 e0 87 be
       0.1647408 -0.12696768 -0.052520532 -0.2653857
000160 93 05 6b bd 69 1d 73 3e ef 3c ce bc de 90 f5 3d
       -0.057378363 0.23741688 -0.02517554 0.11990522
000170 aa 9a fb 3c 32 10 e2 bc 91 a6 41 bc 9d 4b 40 3e
       0.030713398 -0.027595613 -0.011819498 0.18778844
000180 f9 1f 6d 3d e3 8c 81 bd b3 42 41 3e 17 be ae 3d
       0.05789182 -0.063257 0.188731 0.085323505
000190 c2 81 a4 3d 94 69 13 3d 65 82 b2 3c 8b cc be bd
       0.08032562 0.03598936 0.021790693 -0.09316357
0001a0 fa e8 46 bd 0d 9c d8 bc c0 ce 0a be a9 5f 8e be
       -0.048562028 -0.026441598 -0.13555431 -0.27807358
0001b0 a5 46 08 3e 4b 87 8b bd 9c 69 77 3d 98 48 fb 3d
       0.13308199 -0.068129145 0.06040345 0.122697055
0001c0 33 df 0a 3e 44 c0 99 bd 7c 7e c4 3d 82 53 35 be
       0.13561706 -0.07507375 0.095944375 -0.17707637
0001d0 bb 06 32 bd 8c 71 2a be b9 42 37 3d 66 32 3d 3e
       -0.04346345 -0.16644877 0.044741366 0.18476257
0001e0 7d ae cd bc 4e c0 cb 3c 19 69 f1 3d 8f 0c 69 3d
       -0.025107617 0.024871971 0.11787624 0.056896742
0001f0 69 fd 54 bd f5 a5 03 3d ea 5e 15 be dd 7a dd bd
       -0.051999483 0.03214069 -0.14586988 -0.1081445
000200 f9 55 27 be ea 13 d6 bd 1f fe 79 3d a3 8d 1e bd
       -0.1634139 -0.10453017 0.061033364 -0.038709294
000210 a3 54 17 3c e4 04 96 3d 7b a8 e9 bd ac b6 44 3e
       0.009236488 0.073251516 -0.11409088 0.19210309
000220 3d 38 97 bd da e1 2e 3d 3b a5 af 3d a0 8d a4 bc
       -0.073837735 0.042695858 0.08576437 -0.020087063
000230 36 d9 85 bd 9f 7d 55 3b d1 dd 2e 3e 59 16 c8 bc
       -0.0653557 0.0032576097 0.17076804 -0.024424719
000240 98 5c 71 3d 9d 8e 03 bd a1 fa 53 be b0 a8 10 3e
       0.058926195 -0.03211843 -0.20701076 0.14126849
000250 21 89 92 3c 3a c4 ba be 37 f2 85 3e 76 69 93 3d
       0.017887654 -0.36477834 0.26161358 0.071978495
000260 56 1e 9e be dd b3 28 be 63 b2 84 bd 6d ef ff 3a
       -0.3088252 -0.16474862 -0.06479337 0.001952631
000270 20 2d 81 3e 54 66 ad 3d e2 d6 41 bd fa 49 b0 bd
       0.2522974 0.08466783 -0.04732407 -0.0860786
000280 31 b8 84 be 58 97 d0 be 2f 4e aa bb 32 54 a6 3d
       -0.25921777 -0.40740466 -0.0051973085 0.08121528
000290 cd f2 c4 3d f7 c5 e8 bd 1d c4 0e 3e 3f d2 0e 3d
       0.09616623 -0.11365884 0.13941999 0.034868475
0002a0 d5 2e 17 3e a2 98 18 be 86 c9 22 be 5e 6f f8 3c
       0.14763959 -0.14901975 -0.15897188 0.030326542
0002b0 8f 56 e4 bc a1 cb 97 ba 33 22 b0 bd 6e fa 32 be
       -0.027873306 -0.0011581072 -0.08600273 -0.17478344
0002c0 83 2d a8 be 3d c8 72 3c 56 f1 16 be dd b8 43 3e
       -0.32847223 0.014818248 -0.147405 0.19113488
0002d0 49 31 0f 3e 12 9f 8d bd 4b 15 0c 3e 9a 2a 00 3e
       0.13983645 -0.06915106 0.13679998 0.12516251
0002e0 b1 22 8a bc 48 58 0e ba b6 4e a1 3c 6f 42 1d be
       -0.016862245 -0.0005430025 0.019690853 -0.15357374
0002f0 5e cf cd 3c 36 6a 41 be d0 e5 b0 3d 66 a4 ff bd
       0.025123294 -0.18888173 0.08637583 -0.124825284
000300 24 84 dc bd f7 1e 13 3e d2 0d 23 3d 3b 93 22 be
       -0.10767391 0.14367281 0.039808102 -0.15876476
000310 be 26 52 3c 38 ae fb bd d3 2c 75 3d 40 04 ea 3d
       0.01282662 -0.12289089 0.0598572 0.11426592
000320 d7 dc 33 3e 06 92 79 3e 04 f8 73 3c 6b 68 0e be
       0.17564712 0.2437211 0.0148906745 -0.1390702
000330 50 e3 0d be 6a e3 24 3e 13 9c 33 be 4d 3f 18 3e
       -0.13856244 0.16102377 -0.17540006 0.14867897
000340 4a ad 44 be 19 78 06 be 91 15 23 bd 39 75 d9 3c
       -0.1920673 -0.13131751 -0.03981549 0.026545154
000350 b5 b8 0e be b1 02 5f be d0 6a 51 bd 9d ef 2d be
       -0.13937648 -0.2177837 -0.051127255 -0.16985936
000360 5c 68 60 bd a5 65 19 bd 83 0c 44 3d 3a 21 47 bc
       -0.054787025 -0.03745045 0.047863495 -0.012153918
000370 04 dd 09 3e 1f fb 31 3d 7a 18 b0 bd 9f 1b 11 3e
       0.13463217 0.04345238 -0.085984185 0.14170693
000380 a5 81 5e 3d ae 05 9e 3c b8 1f e1 bd 53 2c 39 bd
       0.054322857 0.019289818 -0.10992378 -0.045208286
000390 3f 38 21 3e 62 a4 8a bd f3 1c ca bd 2d df 21 bb
       0.15744112 -0.06769635 -0.09868803 -0.0024699674
0003a0 54 0e 05 3e d8 3f 59 3d ab a3 c9 3d f2 c0 44 bd
       0.12993747 0.0530394 0.0984567 -0.04803557
0003b0 e7 f3 83 3d 83 22 1d be f2 d5 31 3d 1b 7f 3f bd
       0.06443005 -0.15345196 0.043416925 -0.046752077
0003c0 35 fb 84 bd 30 cc 1a be 0f 34 27 3d 15 b9 b6 3d
       -0.064932264 -0.15116954 0.04082113 0.0892202
0003d0 c3 00 74 3c 61 6b e6 bc 5a b1 11 3d 2a 6c ae bd
       0.01489276 -0.028127374 0.035569526 -0.085167244
0003e0 62 22 52 3d 9a 4f 6f 3d cb 89 2d 3e 0c a8 a1 bd
       0.05130232 0.058425523 0.16947095 -0.078933805
0003f0 50 a1 46 be 08 6f b6 3d 6b 38 fa bd 8d c9 a4 3b
       -0.19397473 0.08907896 -0.12217792 0.0050289095
