parkinson telemonitoring/checkpoints/parkinson-epoch=22-val_loss=27.75.ckpt (torch, 821088 bytes, 76 tensors)

model.model.0.weight f4 [256, 20]
000000 fa 2f 92 be f8 3f e4 3d 43 90 17 be e8 5e 02 3e
       -0.28552228 0.111450136 -0.14801125 0.12731516
000010 a7 aa 9d 3d df 96 2e bd a4 be 63 3d 7e cc d1 3d
       0.07698565 -0.04262435 0.05560173 0.10244082
000020 05 b3 56 3e 74 fc 15 3b 21 ba 37 3d ef a2 1a be
       0.20966728 0.002288607 0.04485524 -0.15101217
000030 cb d5 c5 bd bf df 9d bb 49 af 01 bd 1b c0 74 3e
       -0.096599184 -0.0048179324 -0.031661306 0.23901407
000040 75 7d 12 bd f8 00 83 3e 71 89 e2 bd ef b3 66 be
       -0.035764176 0.25586677 -0.11061371 -0.22529577
000050 12 6d 60 be 87 2b 1d be e5 48 f7 bd 31 78 07 3d
       -0.21916607 -0.15348636 -0.120744504 0.033073608
000060 68 82 14 3e a8 c7 00 3e 89 8e 23 be 13 41 fc bc
       0.14502871 0.12576163 -0.15972342 -0.030792749
000070 05 aa 2d 3e 07 8d 07 be 34 a3 d6 bd bb da f2 3d
       0.16959389 -0.13237391 -0.10480347 0.11858126
000080 6c 0a 8b bd 23 7f 26 be 70 ce 42 3d 23 53 99 bd
       -0.06789097 -0.16259436 0.047560155 -0.0748656
000090 62 4b fe 3d 21 cc 66 3e 53 d2 04 3c 4a ac 33 3d
       0.12416722 0.22538806 0.008106786 0.04386548
0000a0 a8 e5 0f 3e 07 c9 c4 bc cc 35 3b 3d 78 f9 69 be
       0.1405245 -0.024021639 0.0457056 -0.22849071
0000b0 d3 bc 82 3d 4a 97 1c 3e e5 84 d1 3c 40 17 0c 3e
       0.063836716 0.15292087 0.025576064 0.13680744
0000c0 f0 46 08 bd e2 fb fb 3d ab 00 0e 3e 7f e1 ac 3d
       -0.033270776 0.12303902 0.13867442 0.084414475
0000d0 f9 38 61 be b4 e5 49 be a0 13 1a 3e 86 0b c0 3d
       -0.2199439 -0.19716531 0.15046549 0.09377198
0000e0 82 64 72 be 42 88 a5 3d 5a ec 58 be 2d 52 a0 ba
       -0.23671153 0.0808263 -0.21183911 -0.0012231522
0000f0 82 ce 6d 3e 96 a3 8a 3c a0 3b ef 3c 39 8e 58 bd
       0.23223308 0.016923707 0.029203236 -0.05287001
000100 ef bd 74 3e d8 67 6e be 28 31 0e 3e 25 dc 0a bd
       0.23900579 -0.23281801 0.13885939 -0.033901352
000110 ea b2 19 be ad 5c 3b 3b ef 77 f6 bd 2d 29 34 bc
       -0.15009657 0.0028589175 -0.12034594 -0.010996145
000120 12 e0 24 3e f1 01 2a be 9b a0 e0 3d 5d 36 0f 3e
       0.16101101 -0.16602303 0.10968133 0.13985582
000130 65 8d 29 3d f3 bb bb 3d d2 12 b9 3d 50 4a 9b be
       0.04139461 0.09166708 0.09036793 -0.30330133
000140 8c cb 8f be 12 9f 29 bc 64 7a a1 bd 60 6f 80 3e
       -0.2808498 -0.010352867 -0.07884672 0.25084972
000150 75 d6 b1 bd b2 99 42 3e 6f 03 52 3d 26 37 17 bd
       -0.086834826 0.19003943 0.051272806 -0.036917828
000160 aa 72 20 be d3 77 0a bc 03 97 ce bc 8b 73 4f 3e
       -0.15668741 -0.00845142 -0.025218492 0.2025892
000170 3e 27 25 3e 03 c3 46 be 1d d5 23 3e 2c 38 9c bd
       0.16128251 -0.19410329 0.15999265 -0.076279014
000180 d2 ea 33 be f2 89 69 3d 71 2c a5 3d 24 be bc be
       -0.17570046 0.05701632 0.08065117 -0.36863816
000190 e2 73 e7 bc ff 0a 8a bd 82 9d ec 3d 35 ee 91 3e
       -0.0282535 -0.067403786 0.1155348 0.2850205
0001a0 bf 50 27 be 3f 07 80 3d f1 b9 59 bd 5f 6b ef bd
       -0.16339396 0.06251382 -0.053155843 -0.11690401
0001b0 f7 fc 0d bc 90 99 cd bb 12 ef 07 be 09 16 bf 3d
       -0.008666269 -0.0062744096 -0.13274792 0.09330375
0001c0 ad ca cb bd 52 a1 a5 bd 7c bb 2d be 27 33 99 3d
       -0.09950767 -0.0808741 -0.16966051 0.0748046
0001d0 6d 7c 43 be 95 83 db bd 5f ec 5c 3e c7 f1 dc be
       -0.19090433 -0.10718457 0.21574543 -0.4315321
0001e0 b5 e0 82 be 0d 01 02 3d 44 94 fb 3c f7 96 61 3e
       -0.25562063 0.031739283 0.030710347 0.22030245
0001f0 e9 44 8c 3d da 86 30 3e 14 79 45 be e8 72 36 be
       0.06849081 0.17238942 -0.19284469 -0.17817271
000200 9c 07 a2 3d f5 ed 77 be a3 8b 0d 3e a5 b0 01 3e
       0.079116076 -0.24211867 0.13822798 0.12665041
000210 f2 ec 9a bc c2 35 2b be bb 56 69 be 2e 73 e9 3c
       -0.018911812 -0.16719726 -0.22786991 0.028497305
000220 81 67 62 be 75 de 1b be 84 7f 11 3e 49 9c 86 bd
       -0.22109796 -0.1522158 0.142088 -0.06572778
000230 57 f9 7f 3e dc fc 79 bd e9 91 19 be 5c 16 85 be
       0.2499746 -0.06103216 -0.14997067 -0.2599362
000240 f0 c0 28 3e 18 f9 9b bd 35 f9 e7 3d f0 3d 11 3e
       0.1647985 -0.0761587 0.11326829 0.14183784
000250 b9 ff a0 bd d0 a7 07 3d 48 3f 7e bd 59 3d 3b 3e
       -0.07861275 0.033119023 -0.06207207 0.18285121
000260 6c b6 80 be 0b 53 3e 3d 61 b3 51 be 01 41 2f be
       -0.25139177 0.046465915 -0.20478584 -0.17114641
000270 ed 60 00 3e 22 06 71 3d 7f f9 10 3c b6 e0 d9 3d
       0.12536974 0.05884374 0.008848547 0.10638563
000280 89 93 17 3e 20 71 06 3d 12 13 14 3e 1e 23 85 be
       0.14802374 0.03282273 0.144604 -0.26003355
000290 80 41 14 bd 3e 61 a3 bd e2 6a 05 be 31 3e d8 3d
       -0.03619528 -0.07977532 -0.13029054 0.10558737
0002a0 34 ba 80 bd d4 8d 54 3e 01 25 6c 3b 7d c4 2b be
       -0.062855154 0.20757228 0.0036032798 -0.16774173
0002b0 9e c1 02 3d 19 c6 5c 3e 1a a9 3f be 67 0f 10 3e
       0.03192293 0.21559943 -0.18716851 0.14068376
0002c0 d5 f2 77 bc bc 4b 80 be df 60 d7 be 03 55 82 bd
       -0.015133579 -0.2505778 -0.42066094 -0.06363871
0002d0 1e 8b b5 3b 94 41 8d 3d 7f 8b 0c 3e 07 3c 90 3d
       0.0055402657 0.06897274 0.13725089 0.07042699
0002e0 e3 c8 f5 3c a9 15 d7 bd f5 93 08 be 59 95 33 be
       0.030003017 -0.10502178 -0.13337691 -0.1753744
0002f0 13 0c d4 3b 73 d1 21 be 42 51 44 be dd 08 98 3d
       0.006471166 -0.15802555 -0.19171622 0.074235655
000300 b2 91 b6 3c e3 ed da 3c 0c 93 89 3e ca d6 56 be
       0.02228627 0.026724761 0.2687 -0.20980373
000310 3d 10 8f 3e f3 95 0d 3d 9b 86 a3 bd d7 3e 68 be
       0.27942076 0.03456683 -0.07984658 -0.22680221
000320 5f f1 60 3e f2 05 f0 3d 03 b9 84 3d b3 41 8c 3d
       0.21967076 0.11719884 0.06480601 0.06848469
000330 b0 6f 4f 3e 17 00 e1 3d b1 7c df bd 7b 4a 4f 3e
       0.20257449 0.10986345 -0.10912455 0.20243256
000340 7f 43 15 be 7c d5 05 bc 27 56 5e be 19 0c b3 3d
       -0.14576529 -0.008168574 -0.21712552 0.08742542
000350 0c c9 0d be e5 c3 31 be a9 9a 90 3d 43 9b 4a 3d
       -0.13846225 -0.17359884 0.07060749 0.049464475
000360 ba cd aa bd e3 9d c2 3d 46 85 fe 3d a8 b7 fd 3c
       -0.083400205 0.09502771 0.12427764 0.030971363
000370 7b d2 7b be f0 a0 8b 3b 67 e1 09 3d c1 51 20 be
       -0.2459201 0.0042611286 0.033662226 -0.15656187
000380 0d 95 d7 bd 8f 7b fb bd cb 5e 83 3e 38 d6 8b 3d
       -0.10526476 -0.12279426 0.2565826 0.06827968
000390 d0 68 4f 3d 58 23 11 be ad ad dc bc ce 40 9b bc
       0.050637066 -0.14173639 -0.026938284 -0.0189518
0003a0 88 53 16 be b5 cd 25 be 85 eb 48 bd e7 89 68 3e
       -0.14680302 -0.16191752 -0.049052734 0.22708856
0003b0 f1 eb e0 3a 9e 7d 12 3e 86 df 29 be 16 c1 6b be
       0.001716016 0.14305732 -0.16589174 -0.23022875
0003c0 2b 94 17 be 1a cb 1e bc 13 a5 b5 3d 3e 43 ab bd
       -0.14802615 -0.009691978 0.08869376 -0.08362435
0003d0 02 93 91 3b f2 be 8f 3d 7e 68 6a be ff d5 01 be
       0.0044425735 0.07018842 -0.22891423 -0.1267929
0003e0 1a 63 c6 bb 3f 06 64 3d 40 09 44 3e e5 66 b9 bd
       -0.0060542943 0.05567002 0.19144154 -0.09052829
0003f0 6e 33 8b 3d 97 05 81 3d 4d ea d6 3d a6 a7 7d 3e
       0.06796919 0.06299894 0.10493908 0.24770984

model.model.0.bias f4 [256]
000000 dc 46 2e 3d 9f 15 35 3e 21 92 95 3e 5e a1 9a bd
       0.042548046 0.17684029 0.2921305 -0.075503096
000010 2c f9 d2 be c9 ac a0 be 62 6e 33 3c 49 77 6d bc
       -0.41205728 -0.31381825 0.01095161 -0.014493772
000020 4a 0e 9b be 11 67 c1 bd c7 29 6a be 17 25 2b be
       -0.3028434 -0.094434865 -0.228675 -0.16713367
000030 58 94 ee bc fd 83 7b be 60 94 4b be 66 76 80 be
       -0.02912347 -0.24562068 -0.1988082 -0.2509033
000040 e6 f0 a8 be 4a 3a bb be fa c1 8c be 36 22 aa bd
       -0.3299629 -0.3656791 -0.27491742 -0.083073065
000050 d7 ae f5 bc 72 33 9e bd fb cc e7 bd 03 b2 c2 bd
       -0.029990597 -0.07724656 -0.11318394 -0.09506609
000060 26 7c f1 3c e7 c4 2e 3c 2b a7 96 bb fb 59 08 3d
       0.029478144 0.010667062 -0.0045975647 0.033288937
000070 ba 91 09 be 48 98 fd 3d 61 18 73 bc 6b 73 c1 ba
       -0.13434497 0.12382561 -0.014837355 -0.0014759129
000080 ea 67 54 be 64 10 4e be f4 e5 7f bc 93 bb 5d be
       -0.20742765 -0.2012344 -0.01561879 -0.21653585
000090 35 f5 76 bd ae 5d da bd 5f 4a 53 be 25 d0 d8 3d
       -0.06029244 -0.10662399 -0.20633839 0.105865754
0000a0 5c 1a 8b be fc 30 28 3e 2d 8a d5 be b6 f3 37 3d
       -0.27168548 0.16424936 -0.41706982 0.044910155
0000b0 36 aa 90 bd 3c bf 47 be c5 65 20 be 6d ab 92 bd
       -0.07063715 -0.19506544 -0.15663822 -0.07161603
0000c0 2d 67 b3 be 9d 45 aa bc 9d 31 2f be 56 4a b9 3d
       -0.35039654 -0.020785147 -0.1710877 0.090473816
0000d0 c6 01 f2 bd 27 d4 33 3e c6 3b 36 be 71 c8 f8 bd
       -0.118167445 0.17561398 -0.1779624 -0.12147606
0000e0 8e b2 17 bc fa ec 57 be 59 c5 47 be 80 20 9c be
       -0.009258879 -0.21086493 -0.19508876 -0.30493546
0000f0 0f a7 a4 be ca 5f 9b bc 4c bc 21 3e c2 40 49 bd
       -0.32158706 -0.018966574 0.15794486 -0.049134023
000100 57 61 2a be 32 6a 76 be 5e 5b 58 bc ae 1b 88 bd
       -0.16638695 -0.24063948 -0.013205377 -0.066459045
000110 4c c8 aa bd 2d 18 a1 be 64 c9 b8 be 9f 8d 03 bf
       -0.08338985 -0.31463757 -0.3609115 -0.5138797
000120 30 74 f6 bd 3f fd b6 bd 6d af 35 be 81 6a 6d be
       -0.1203388 -0.089350216 -0.17742701 -0.2318516
000130 7f a5 8d be bf 93 b2 be 9e 98 9d 3c 0a 7e d5 be
       -0.27665326 -0.34878346 0.019237813 -0.41697723
000140 1a fa 1d 3c 8d 05 3d be 5e fa 6b 3e 8c a5 9c be
       0.009642148 -0.18459149 0.23044726 -0.30595052
000150 64 a4 26 be 55 72 dc be 63 82 b1 be d7 96 94 bb
       -0.16273648 -0.43055978 -0.3466979 -0.004534583
000160 9b 1c 6d be ae ba 85 3d b6 15 c2 be d3 e3 02 3e
       -0.23155443 0.06529747 -0.3790719 0.1278222
000170 07 a8 99 be a7 64 5f be e0 48 3d bd 3d c2 1b 3c
       -0.30011007 -0.2181574 -0.046212077 0.009506759
000180 35 1a 47 be 2a 52 24 be 86 19 2e 3d bc 1f c9 be
       -0.19443591 -0.16046968 0.04250481 -0.39282024
000190 67 0c bf be b6 1d 5f 3e 2b e3 5e 3d 79 d8 3a 3d
       -0.3731415 0.21788678 0.054415863 0.0456166
0001a0 c1 00 58 be d4 fa 37 be 38 20 6e be 10 00 2e be
       -0.21094038 -0.17966777 -0.23254478 -0.16992211
0001b0 af 86 e6 bd 41 83 99 bd 36 65 42 be f1 27 6e 3d
       -0.112561576 -0.07495738 -0.18983921 0.05814356
0001c0 28 43 fd be 86 3e 9e be bc d8 b6 3e e1 ce d5 be
       -0.494653 -0.30907077 0.3571223 -0.417594
0001d0 f9 15 f6 be ab 1f d3 be e7 e6 c8 be bc c3 2a be
       -0.4806364 -0.41235098 -0.39238665 -0.16676229
0001e0 d8 f8 85 be 5f 4e 71 be 67 21 80 3d e4 13 c8 be
       -0.26166415 -0.23565052 0.06256371 -0.39077675
0001f0 db 74 d2 bc e4 97 12 3e 48 18 08 3e 2e 31 ef 3d
       -0.025690487 0.14315754 0.13290513 0.11679302
000200 ed 31 76 3d 2a 35 86 be bc 84 4b 3d b8 fd ad 3b
       0.060106207 -0.26212436 0.049687132 0.0053097866
000210 4b dc 98 be 60 8b 49 bd 77 e4 53 bd 3f dd b4 be
       -0.2985557 -0.049205184 -0.051731553 -0.35325047
000220 7d 90 92 bd 71 8b 4e be 7f 72 d5 be 33 1d b1 bc
       -0.07156465 -0.2017038 -0.41688916 -0.021620369
000230 49 5e cf bd 2a ae 33 bd 4b 8c 0b be 1f 8c 3b be
       -0.10125405 -0.043867268 -0.13627736 -0.1831517
000240 c5 11 53 bd ff 86 99 bd 09 11 8d 3c 86 62 a9 be
       -0.05153062 -0.074964516 0.017220037 -0.3308298
000250 1f 68 a9 be 00 9a 6a be 6c cf 96 3b 9f 35 18 be
       -0.3308725 -0.22910309 0.0046023633 -0.14864205
000260 6b 6f f5 3d 72 0d 65 be 92 df 50 3b 71 03 11 3e
       0.11984142 -0.2236841 0.003187154 0.14161469
000270 a4 43 00 3e 31 27 98 3d 8e 69 98 be a8 2a d0 bd
       0.12525803 0.0742935 -0.29768032 -0.10164386
000280 56 ad 87 bd bd 05 2f 3e 38 62 b3 be 52 42 a7 3d
       -0.06624858 0.17092033 -0.35035872 0.081669465
000290 37 51 48 be d4 b6 d4 3d e2 bd d9 3c c0 51 e2 3d
       -0.19562231 0.10386434 0.026579801 0.11050749
0002a0 a7 d1 de 3d 6f f5 dc 3b 24 0c 77 be 8d b3 45 be
       0.10879832 0.006743125 -0.24125725 -0.19306774
0002b0 95 7a e2 bd 8c c4 d9 bd 5f 60 28 bd 1b 87 f0 be
       -0.11058537 -0.106331915 -0.04110753 -0.46978077
0002c0 e9 a6 d5 be 5a 50 15 bf d4 5f d8 be e9 ea a8 be
       -0.41728905 -0.5832573 -0.4226061 -0.32991722
0002d0 78 36 85 bd f7 d4 91 bd c6 e9 17 be 48 f5 a5 bd
       -0.0650453 -0.07120698 -0.14835271 -0.08103424
0002e0 4d ee d4 3d 24 4d 10 be 3a b6 30 be 21 52 28 bd
       0.10397015 -0.14091927 -0.17257014 -0.04109395
0002f0 10 b4 34 3e 77 38 78 be 3a 5b 87 be 7e a2 a9 bd
       0.17646813 -0.2424029 -0.26436788 -0.08282946
000300 01 e7 9b be 85 9a f9 be c9 73 40 be 13 de b3 be
       -0.3044968 -0.48750702 -0.18794169 -0.35130367
000310 3d 4a d2 bd 9a a1 0b be e9 de 4b be b2 5b 7d 3c
       -0.10268066 -0.13635865 -0.19909252 0.015463756
000320 90 0f ca bd 8f dc aa be db 37 64 be 8e a3 dd bd
       -0.098662496 -0.33371398 -0.22286932 -0.10822211
000330 a5 f6 2a be 2d a1 57 be 24 cf 9e bd 4e 1a 60 be
       -0.1669565 -0.21057577 -0.07754353 -0.21885034
000340 97 2d 86 be 3d 22 38 be 74 a1 00 be 1d 66 93 be
       -0.26206657 -0.17981811 -0.1256159 -0.28788844
000350 2a 9c ad bc d3 cd 3a be f0 76 eb bd 29 1b c7 be
       -0.021192629 -0.18242578 -0.11497295 -0.3888791
000360 62 19 a2 3d f2 e5 e3 3b b4 e8 f3 be dc 02 03 bf
       0.07914998 0.006954902 -0.47638476 -0.5117624
000370 4e 0b 19 3e 91 29 8b be f4 80 a8 be e6 90 bc 3d
       0.14945719 -0.2718015 -0.32910883 0.09207325
000380 9e 49 2e be 17 e4 83 bd 67 d6 9c be 4b 18 5d be
       -0.1702027 -0.06439989 -0.30632326 -0.21591298
000390 97 b6 27 3e 3d a9 d8 be 3f 0e 24 3d 4e 19 39 be
       0.16378246 -0.4231662 0.04005265 -0.18076059
0003a0 bb 18 de be 7e e9 de be 1f d8 9f be 28 92 e7 3d
       -0.43378243 -0.43537515 -0.31219575 0.11307174
0003b0 07 6f f0 bd 35 97 1a be b2 29 d0 be 8d 62 e4 3d
       -0.11739927 -0.15096743 -0.4065681 0.111516096
0003c0 af 57 55 3e 2f e9 70 bd 3b 77 89 bd 2c d7 33 be
       0.2083423 -0.05881613 -0.067121945 -0.1756255
0003d0 64 2b c1 be 94 0c 6f 3d d7 90 86 3d f7 13 10 bd
       -0.37728417 0.058361605 0.06570595 -0.03517529
0003e0 0f 35 cf 3d 9e 88 70 be 72 28 5a be 74 e0 c4 bd
       0.10117542 -0.23489615 -0.21304491 -0.096131235
0003f0 f8 b7 82 be 56 b0 1d 3d 51 69 38 bd 3a 36 1d be
       -0.25530982 0.038498245 -0.045022313 -0.15352717

model.model.2.weight f4 [256]
000000 39 5c 6b 3f b0 b5 70 3f 52 98 67 3f 1a b8 80 3f
       0.91937596 0.94027233 0.904668 1.0056183
000010 84 51 9b 3f c8 9f 85 3f fd aa 92 3f 1c 69 71 3f
       1.2134252 1.0439386 1.1458431 0.9430101
000020 c2 47 8b 3f 59 23 6e 3f 4f 56 6b 3f e7 51 66 3f
       1.0881274 0.93022686 0.9192857 0.89968723
000030 87 b2 64 3f 2b 03 78 3f c6 c4 5a 3f 69 71 89 3f
       0.8933491 0.96879834 0.854565 1.0737735
000040 bb 0c 75 3f e8 8b 84 3f 9a 88 86 3f 64 31 87 3f
       0.9572255 1.0355196 1.0510437 1.0561948
000050 1f 56 74 3f dc 65 7e 3f ae fb 73 3f 5c cd 6a 3f
       0.9544391 0.99374175 0.9530591 0.91719604
000060 ed 71 64 3f 51 45 6b 3f 3e 3b 7f 3f 58 e6 87 3f
       0.89236337 0.91902643 0.9969977 1.061717
000070 c9 2e 88 3f 28 6f 62 3f dc 9d 7c 3f 1c dd 75 3f
       1.0639278 0.8845086 0.98678374 0.9604051
000080 1e b7 89 3f 3e 0d 80 3f b6 07 84 3f e2 6a 7c 3f
       1.0759008 1.0004041 1.0314853 0.9860059
000090 0a 44 89 3f b9 ca 7e 3f 54 31 78 3f 4a 4a 76 3f
       1.0723889 0.9952808 0.9695027 0.96207106
0000a0 f2 0e 6a 3f 69 49 67 3f 8f d1 62 3f 1b 11 78 3f
       0.91429055 0.9034639 0.8860101 0.969011
0000b0 45 d1 5c 3f 11 7c 82 3f ff 50 69 3f 38 3f 81 3f
       0.8625682 1.0194112 0.91139215 1.0097418
0000c0 1a bb 6a 3f f8 9c 76 3f 04 61 72 3f 15 a2 7b 3f
       0.91691744 0.96333265 0.94679284 0.9829419
0000d0 91 23 76 3f 7d 60 8b 3f dd 4b 83 3f fd 7f 68 3f
       0.9614802 1.0888821 1.0257527 0.90820295
0000e0 df e1 56 3f 6e 35 73 3f 88 23 86 3f c8 39 86 3f
       0.839384 0.950034 1.0479593 1.0486383
0000f0 0d 3c 6e 3f c3 e5 64 3f 92 e3 84 3f 7c 08 69 3f
       0.9306038 0.8941309 1.0381949 0.9102857
000100 55 db 62 3f 6a 8f 70 3f 2b 85 5d 3f 91 0d 83 3f
       0.88615924 0.9396883 0.86531323 1.0238515
000110 c6 bd 6d 3f 29 3b 7b 3f 3c 73 8d 3f b8 cc 88 3f
       0.92867696 0.98137146 1.1050792 1.0687475
000120 e1 80 8d 3f b4 5c 62 3f 18 e6 89 3f fa 39 67 3f
       1.1054956 0.88422704 1.0773344 0.9032284
000130 d5 b3 81 3f 9d ef 6c 3f a4 60 6e 3f 9f f1 70 3f
       1.0133005 0.9255312 0.9311621 0.94118685
000140 f2 b6 6e 3f c6 38 7c 3f 8a 51 87 3f ad 4d 6b 3f
       0.932479 0.9852413 1.0571759 0.919154
000150 cc cd 61 3f 3f 8a 83 3f 6f 48 89 3f 15 3f 80 3f
       0.88204646 1.0276564 1.072523 1.0019251
000160 0a 96 67 3f ca c8 77 3f 40 6a 72 3f af 46 56 3f
       0.90463316 0.96790755 0.94693375 0.83701605
000170 79 0b 87 3f 77 d5 73 3f 7f 0c 64 3f 0f ee 6f 3f
       1.0550376 0.95247597 0.8908157 0.93722624
000180 ef ad 67 3f 26 d6 64 3f 7d a4 5e 3f 35 b7 85 3f
       0.90499777 0.89389265 0.8696974 1.0446535
000190 f9 39 69 3f 80 05 8f 3f 1a d1 63 3f a1 5a 7b 3f
       0.91104084 1.1173553 0.8899094 0.98185164
0001a0 61 35 8a 3f 19 32 7b 3f ab 90 6f 3f 21 e7 6c 3f
       1.079754 0.9812332 0.9358012 0.92540175
0001b0 90 25 60 3f ac fc 88 3f c1 cf 5b 3f 41 25 78 3f
       0.87557316 1.0702109 0.8586388 0.96931845
0001c0 dc 72 6a 3f 75 25 82 3f a2 5b 84 3f 0e 67 8f 3f
       0.9158151 1.0167681 1.0340464 1.1203325
0001d0 21 1d 86 3f 9e 3c 84 3f e8 9b 82 3f e3 16 68 3f
       1.047764 1.0330999 1.0203829 0.9065992
0001e0 1e ee 87 3f 52 01 89 3f 50 12 84 3f 3b b5 71 3f
       1.0619543 1.0703528 1.0318089 0.9441716
0001f0 05 31 83 3f 15 d1 5e 3f f5 af 80 3f 46 ec 75 3f
       1.0249335 0.87037784 1.0053698 0.9606365
000200 37 31 85 3f 88 a4 64 3f 4b 1f 7b 3f d4 5e 53 3f
       1.0405644 0.89313555 0.98094624 0.8256657
000210 7a fc 7c 3f 38 d4 89 3f 61 36 76 3f 6a 88 77 3f
       0.9882275 1.0767889 0.96176726 0.96692526
000220 f6 02 7a 3f 7e c7 69 3f 2b 02 78 3f 5f 5c 7c 3f
       0.9766077 0.91320026 0.9687831 0.9857845
000230 53 b0 5a 3f 15 3c 56 3f f7 7b 79 3f 74 3c 6a 3f
       0.854253 0.8368543 0.9745478 0.91498494
000240 81 38 71 3f 98 c2 54 3f e8 b0 85 3f e6 b4 8d 3f
       0.94226843 0.83109426 1.0444613 1.1070831
000250 f2 1d 7b 3f b6 9a 7e 3f 23 02 5e 3f f6 45 84 3f
       0.9809257 0.9945482 0.8672201 1.033385
000260 93 93 73 3f 79 d1 7f 3f 44 8d 66 3f f9 77 65 3f
       0.95147055 0.99929005 0.90059304 0.8963619
000270 ba c3 55 3f ec ac 7a 3f d9 b8 50 3f 35 c7 6e 3f
       0.8350178 0.9792011 0.81532055 0.93272716
000280 5a 64 67 3f 51 20 7c 3f 93 65 71 3f 30 30 72 3f
       0.903875 0.9848681 0.94295615 0.9460478
000290 38 31 5a 3f ee 37 67 3f 98 0f 7a 3f 58 5c 7d 3f
       0.8523135 0.90319717 0.97680044 0.9896903
0002a0 f2 15 80 3f 11 6c 6f 3f e0 45 5b 3f 9e 1c 66 3f
       1.0006697 0.9352427 0.85653496 0.89887416
0002b0 0e a3 6f 3f 86 95 7d 3f ce e0 89 3f 67 96 84 3f
       0.93608177 0.9905628 1.077173 1.0358399
0002c0 b5 0c 90 3f 7c c9 8a 3f 03 3a 6f 3f 12 b6 71 3f
       1.1253878 1.0842738 0.93447894 0.9441844
0002d0 17 3a 6b 3f b7 d8 5d 3f 04 bc 6c 3f 36 55 68 3f
       0.91885513 0.86658806 0.9247439 0.9075502
0002e0 a0 b3 83 3f 88 0e 81 3f 51 8c 7b 3f cd f1 78 3f
       1.0289192 1.008256 0.9826098 0.9724396
0002f0 e1 3a 72 3f e4 c3 90 3f 1a 3f 7b 3f 42 1d 77 3f
       0.9462109 1.1309781 0.9814316 0.9652902
000300 08 30 8b 3f f9 e5 71 3f 7f 0b 76 3f 72 d4 81 3f
       1.0874033 0.94491535 0.9611129 1.0142958
000310 b4 d0 6c 3f 76 9b 6f 3f 43 6a 6f 3f 2c 28 85 3f
       0.92505956 0.9359659 0.9352152 1.0402884
000320 e2 df 88 3f 66 ec 66 3f 82 29 7f 3f f7 90 84 3f
       1.0693324 0.90204465 0.9967271 1.035674
000330 dd ea 79 3f c4 33 73 3f 0f 50 5c 3f 1c c7 75 3f
       0.97624 0.95000863 0.8605966 0.9600694
000340 1e 7b 78 3f a3 ae 86 3f 4e 2a 79 3f 1e 10 83 3f
       0.9706286 1.0522045 0.97330177 1.0239294
000350 73 39 63 3f f1 72 84 3f e6 ce 7f 3f c7 18 8c 3f
       0.88759536 1.0347577 0.99925077 1.0945061
000360 b6 8d 7d 3f 15 1a 80 3f 5f 0b 8c 3f f9 80 62 3f
       0.9904436 1.000796 1.094097 0.88478047
000370 45 0a 7a 3f f4 f6 6c 3f e6 5a 79 3f 79 50 85 3f
       0.9767192 0.9256432 0.97404325 1.0415183
000380 67 93 75 3f 9a 81 80 3f 06 14 6e 3f e7 b0 79 3f
       0.95928043 1.0039551 0.92999303 0.97535557
000390 99 2d 6a 3f 82 89 5c 3f 31 39 4f 3f 3c a2 90 3f
       0.91475827 0.8614732 0.8094664 1.129951
0003a0 b5 8e 86 3f f6 47 69 3f ff b9 8f 3f 29 7c 80 3f
       1.0512301 0.9112543 1.1228637 1.0037891
0003b0 7b 16 6d 3f 06 3f 7f 3f fe d2 63 3f 77 89 7f 3f
       0.9261243 0.9970554 0.88993824 0.9981913
0003c0 7c 0a 68 3f e1 53 69 3f 99 0d 81 3f 02 96 6a 3f
       0.90641 0.91143614 1.0082275 0.91635144
0003d0 b3 fa 82 3f 50 eb 62 3f 32 31 4f 3f e9 14 82 3f
       1.0232757 0.8864031 0.8093444 1.0162631
0003e0 1a 46 6e 3f 93 59 81 3f 34 1f 82 3f b3 d9 72 3f
       0.93075716 1.0105461 1.0165772 0.9486343
0003f0 e9 2d 5f 3f f7 1d 75 3f 80 f8 82 3f 21 f4 77 3f
       0.8717943 0.9574885 1.0232086 0.96856886

model.model.2.bias f4 [256]
000000 d4 d6 56 3c cc 7e e3 3d 3a f4 56 bd 2c c4 d9 bd
       0.013112742 0.11108169 -0.052479006 -0.1063312
000010 d0 f8 74 3d 62 0e ed 3d ec dc 1c 3e 2e 2b f0 bd
       0.0598076 0.11575009 0.1531865 -0.11726986
000020 b0 37 15 bd 7f c9 7c bd 70 88 d7 bd 1e 53 06 be
       -0.03643006 -0.0617156 -0.1052407 -0.13117644
000030 e5 c1 af 3b 0c f2 27 bd d8 c8 b3 bd 3f f6 b3 3d
       0.00536369 -0.04100232 -0.08778542 0.08787202
000040 04 c1 ff bc 3d 61 84 bd 08 81 7c bd 5b 19 e1 3d
       -0.031219967 -0.06463859 -0.06164649 0.10991164
000050 5e 9d ef bd 8d 38 cb bb bc cf 0a bd c2 a1 03 be
       -0.11699937 -0.0062018097 -0.033889517 -0.12854674
000060 e7 2e ad bd b6 8e 8a be 3f 2b da 3d 55 db dc bd
       -0.084562115 -0.27062005 0.1065278 -0.10784022
000070 fb fe 7a 3d ba e6 5d bc e3 83 b0 3c fe 7c 3a bd
       0.061278325 -0.013543779 0.021547263 -0.045529358
000080 13 6c 69 3d 2d 98 ff bd 72 23 ac bd 77 59 05 bb
       0.056987833 -0.12480197 -0.08405198 -0.0020347515
000090 83 e2 a6 bc 2f 0c 96 3d 0d 06 c6 3d ee aa c6 3d
       -0.020371681 0.073265426 0.09669123 0.09700571
0000a0 58 c7 13 be 83 95 56 3a 8e d8 60 be 26 9d 15 3e
       -0.14431512 0.0008185731 -0.21957609 0.14610729
0000b0 0c a1 a2 bd 23 5b a9 bd da cc 31 be 7d a0 69 b9
       -0.079408735 -0.08269336 -0.17363301 -0.00022280398
0000c0 40 2e fd bd c4 ce 1d be 7a bc d0 bd ff ab 78 bc
       -0.12362337 -0.15410906 -0.10192199 -0.015177726
0000d0 24 b9 4d be f7 67 ab bd cb 85 21 be dc 7e 10 bd
       -0.20090157 -0.08369439 -0.15773694 -0.035277233
0000e0 20 f7 03 3d e8 4d cf bd b8 cd 78 bd 54 4f 0a 3d
       0.0322181 -0.10122281 -0.060743064 0.03376706
0000f0 5d 5d 44 bd 9b 5e 71 3c 23 c8 d1 bd 22 7c e2 3d
       -0.0479406 0.014732028 -0.10243251 0.11058833
000100 ef 51 11 bd a6 cb 89 bd ff 0f 10 3e 88 8f 28 bd
       -0.03547853 -0.06728296 0.14068602 -0.041152507
000110 34 24 68 bb e2 bd 67 3d 9f 5d 5f be f7 19 e2 bd
       -0.003542197 0.05657757 -0.21813057 -0.11040109
000120 94 cb c4 3b 50 e1 60 be c7 40 92 bd 3c d0 72 be
       0.0060057137 -0.2196095 -0.071412615 -0.23712248
000130 29 24 95 bd e8 4f 21 bd 81 f5 82 3d 20 b3 2f bd
       -0.072822876 -0.039382845 0.063944824 -0.042895436
000140 f6 c0 e6 bd 26 b0 54 bd e8 18 33 bd 72 35 02 3e
       -0.11267273 -0.0519258 -0.043724924 0.127157
000150 52 49 35 3c dd 06 b8 3c 27 07 36 3e 2a 11 83 3d
       0.011064844 0.02246421 0.17776166 0.06399758
000160 23 ad eb bd 29 4c 68 3d b1 26 08 be da 0d 8d 3d
       -0.115076326 0.056713257 -0.1329601 0.068874076
000170 06 04 0b be f4 91 df 3c 13 f3 eb 3c db 26 0a 3d
       -0.13575754 0.027291276 0.02880243 0.03372846
000180 b0 f0 48 bd ea 34 08 bc a3 3d 20 be 99 a5 98 bd
       -0.049057662 -0.008313397 -0.15648513 -0.0745346
000190 55 a5 7b be 4a 98 24 be 03 f4 59 bd 0b c1 fb 3c
       -0.24574788 -0.16073719 -0.053211223 0.030731698
0001a0 2f 9a 0a 3c b3 f5 b5 bd c2 e1 b2 3d f9 bc 43 be
       0.008459612 -0.08884754 0.08734466 -0.19115056
0001b0 a7 fb 0e 3d 33 14 be 3c fb 2c 18 be 80 5b 35 3e
       0.034907963 0.023202991 -0.14860909 0.17710686
0001c0 4a 40 c7 39 61 2f f3 bc 82 c2 8b bd c7 a6 a6 bd
       0.00038004137 -0.029685678 -0.06824209 -0.08137279
0001d0 2c 05 22 bd 0e 57 12 be a0 e5 ba 3d 6b fa bf bd
       -0.039555714 -0.14291021 0.09125829 -0.09373935
0001e0 e8 38 37 be dc 63 64 bd 14 e0 91 bd e7 19 a0 bd
       -0.17892802 -0.055759296 -0.07122818 -0.078174405
0001f0 9d 38 47 3d 37 69 1d 3e 90 e3 a7 3d 7e 75 40 be
       0.048637975 0.15372168 0.08197701 -0.1879482
000200 03 43 f3 3d 98 64 06 be 82 74 16 be 20 fd 42 be
       0.11878016 -0.13124311 -0.14692882 -0.19041872
000210 13 f7 ea bd dd 25 a4 bd 31 16 a3 bc 89 fe cf bd
       -0.11472907 -0.08015034 -0.019908043 -0.101559706
000220 d7 ac 89 3d 04 80 49 bc 1d e1 6b 3c 5b 8e 40 3e
       0.0672242 -0.012298588 0.014396933 0.18804304
000230 e6 d9 1e be e4 a6 a2 bd 18 64 15 be 24 e1 5e bd
       -0.15512809 -0.07941988 -0.14588964 -0.05441393
000240 ad 73 05 3d 74 1f cc bd 23 e7 5a bb af a2 8f 3d
       0.03258102 -0.09966937 -0.0033401928 0.07013451
000250 36 b5 01 be f7 4b 6c 3d a2 07 c0 bc 45 73 96 bd
       -0.12666783 0.057689633 -0.02344114 -0.07346205
000260 4d 68 1a 3e 8a f9 46 be 64 36 c0 bd 32 79 48 3e
       0.1507885 -0.19431129 -0.09385374 0.19577482
000270 b4 c3 ce 3d ff d0 4a bd 68 c1 b0 bd da 6c e1 bd
       0.10095921 -0.04951572 -0.08630639 -0.1100709
000280 b4 56 fa bc 9b 98 aa 3c 8a f8 3d be d4 8b 34 bd
       -0.030558921 0.020824721 -0.18551841 -0.044078663
000290 59 3f 44 3d 18 6b 57 3d c9 b6 13 be cf 64 3f 3d
       0.047911976 0.052592367 -0.14425196 0.046726998
0002a0 f3 5b 8c 3d 71 69 b7 3d 53 29 3c be 32 94 5c bd
       0.068534754 0.08955658 -0.18375139 -0.053852268
0002b0 70 4c e5 bc 12 3e f3 3c a7 d9 15 bd 3d 23 fa 3a
       -0.02799055 0.029692683 -0.036584523 0.0019083988
0002c0 eb 3a b9 bd 8e b0 69 be 85 2a bb 3c 97 41 ee bd
       -0.09044441 -0.22821257 0.022847423 -0.11633604
0002d0 27 3c 29 be 9d de 54 bd a9 e6 c6 3d 72 64 c4 bd
       -0.16526853 -0.051970113 0.09711964 -0.09589471
0002e0 39 66 e1 3d c2 74 e5 3b c9 ec 97 3d dc 09 60 3e
       0.110058255 0.007002444 0.0741821 0.21878761
0002f0 96 f3 56 3e 07 8a 82 3d fe e6 a5 bd 4d 93 0f 3e
       0.20991358 0.06373983 -0.08100699 0.14021035
000300 a0 e6 d4 bc 46 1b e1 bd 37 65 60 be f1 24 22 bd
       -0.025988877 -0.1099153 -0.2191361 -0.03958601
000310 07 bb 50 3e 89 e7 7f 3b df 6a d4 3d c2 fb cd bd
       0.20383845 0.0039047918 0.103719465 -0.100577846
000320 9d d2 60 3d 65 c2 71 bc ed 42 23 3e df dc 52 bc
       0.054888356 -0.01475582 0.15943499 -0.012870043
000330 df bb ca bd f1 5e 74 bd 05 54 9e 3c e1 50 2d bd
       -0.09899115 -0.059660856 0.019327173 -0.04231346
000340 20 d2 28 be 89 0b 23 bd 7e c6 53 3d 7f c3 13 be
       -0.16486406 -0.039805923 0.05170297 -0.14430045
000350 7d 33 ef bd 28 4a f8 bc 4f 58 a7 3d 28 58 a6 bd
       -0.116797425 -0.030308798 0.081711404 -0.08122283
000360 8f ca 5c 3a b4 e7 49 bb e6 7a d8 3c f2 af d6 bd
       0.00084225176 -0.0030808272 0.02642579 -0.10482778
000370 8f 19 8c 3d 8c 19 8a bd b2 47 11 bd dd 8e 9c 3c
       0.068408124 -0.06743154 -0.035468765 0.019111091
000380 31 7e 5f bd 20 19 b5 bd d5 50 54 be 1f 93 16 bd
       -0.054563705 -0.08842683 -0.2073396 -0.0367614
000390 0a e3 cd 3d 7a 90 49 be d3 d8 0d bd 19 5c 87 bd
       0.1005307 -0.1968402 -0.034630608 -0.06609363
0003a0 4b 68 c0 bd db 2b f5 bc 00 e1 ae 3d c2 a7 f5 bc
       -0.09394892 -0.029928138 0.08539009 -0.02998722
0003b0 ab 1b 7f be 36 be c7 bd 42 69 d3 bd 52 fd 60 3d
       -0.24912898 -0.09753077 -0.10322811 0.054929085
0003c0 06 9b ca bd 7f 6c 3b 3d de fc 67 3d af 4c a5 bd
       -0.098928496 0.045757767 0.056637637 -0.08071267
0003d0 8c 3e c6 bc 84 05 c9 3a e8 89 e4 3c 00 c1 e4 bd
       -0.024199747 0.0015336727 0.02789779 -0.11169624
0003e0 b8 5b 04 3e 4b 72 d9 bd e7 5b 58 bc 0a 00 09 3c
       0.12925613 -0.10617503 -0.013205505 0.008361826
0003f0 21 9c f5 bd 53 ca e9 bd 78 b6 15 be 7d bd 11 be
       -0.1199267 -0.114155434 -0.14620388 -0.1423244

model.model.2.running_mean f4 [256]
000000 a8 cf 5b 3d ee 83 29 3e ba f3 06 3e f0 06 e5 bc
       0.053664833 0.16554233 0.13178912 -0.02795741
000010 36 5b 31 be c3 ca b0 bd 12 78 bb 3d bc c2 43 3d
       -0.1731995 -0.08632424 0.09153761 0.047793135
000020 c6 9d 49 be 2b e1 9e 3c cf ca 0f bd 30 60 07 be
       -0.19689092 0.019394478 -0.035105523 -0.13220286
000030 70 ae 8e bd 09 07 87 bd 07 c5 dc bd 02 1e fc bd
       -0.06966865 -0.06593139 -0.107797675 -0.12310411
000040 b3 bd 39 bd b5 d0 c2 bd 8a 36 71 bd a5 e9 1e 3d
       -0.045346927 -0.09512464 -0.058889903 0.03879704
000050 51 f2 e8 3d 7c 2c af bc 77 c7 2f bd ee ce a3 3b
       0.11374343 -0.021383516 -0.042914834 0.004999033
000060 d9 83 1f 3d c9 3f 1c 3e 83 df 11 3e 8e ee 9a 3d
       0.0389441 0.15258707 0.14245419 0.07565032
000070 1c 2a 52 3c 98 50 ac 3e 09 1a 61 bd 25 14 cc 3d
       0.0128274225 0.33655238 -0.05495647 0.0996478
000080 44 da 3d bd a6 88 be bd 5a 24 ec bc cf 05 67 bd
       -0.046350732 -0.09303407 -0.028825928 -0.056402024
000090 2f 54 47 bd cb 0a 4d bc ce 01 13 bd 1a dc 5a 3d
       -0.048664268 -0.01251478 -0.035890393 0.05343256
0000a0 09 96 8e bb ed 36 ad 3d 14 8f 42 bc 6d 0c 06 3e
       -0.0043513817 0.08457742 -0.011874933 0.13090678
0000b0 90 cc 28 3c 66 b5 12 bd 02 2b 33 3c 7c 96 22 3b
       0.010302678 -0.035817526 0.010935547 0.0024808934
0000c0 3c 8b f2 bd 40 a0 8f 3d 7e 28 d6 bc 3f f7 f4 3c
       -0.11842963 0.07012987 -0.026142355 0.029903052
0000d0 a9 dd a5 3d e2 36 9f 3d 7f 83 a6 bd 0e 05 bb 3d
       0.08098919 0.0777414 -0.0813055 0.091318235
0000e0 00 c0 ff 3c ad 6d a9 bd 30 3b 1b bc b6 ec 32 be
       0.031219482 -0.08272872 -0.009474561 -0.1747311
0000f0 f4 c7 a6 bc 3b da cc 3d 36 3d 84 3d f8 ee 22 bd
       -0.020359017 0.10002562 0.064569876 -0.03977868
000100 44 e6 19 3d d3 d2 d4 bd 16 1b ca 3d e6 e5 20 3d
       0.037573114 -0.10391774 0.098684475 0.03928175
000110 51 be 87 3d b1 cb 19 be e1 72 a4 bd ae 7d 2c be
       0.06628097 -0.15019108 -0.08029724 -0.16844818
000120 6e f2 43 3c 2e 10 b7 bd 15 cd 81 bd 11 16 a5 3e
       0.011959655 -0.08938633 -0.063379444 0.32243398
000130 c6 b7 19 bd 2d 1c 0d be 98 a0 19 3e 8c e8 33 bd
       -0.037528776 -0.1378028 0.15002668 -0.043922946
000140 b8 db 08 3e 55 4e c4 bd 3c 09 50 3e 7d 65 82 bb
       0.13365066 -0.09585253 0.20316023 -0.0039793835
000150 54 8b 38 3d 9d 10 13 be 9d d9 1b be 62 41 76 3c
       0.04505475 -0.14361806 -0.15219732 0.015030237
000160 1d cb 8d bd c2 43 83 3e 6a e2 a2 bd ca 28 46 3e
       -0.069235064 0.25637633 -0.07953341 0.19351497
000170 48 4f a4 bd 7a 2c 5f bc 9d f2 31 bd e7 8d 0b 3e
       -0.08022934 -0.013621444 -0.043444265 0.1362835
000180 91 f4 3e 3d 8e ce 41 bc 90 2f e4 3d 3b fe bc bd
       0.046619955 -0.011829032 0.11141884 -0.09228178
000190 a3 a3 51 bd ae 7e f8 3d 8b be 25 3d 12 63 53 3e
       -0.051181447 0.12133537 0.04046492 0.20643261
0001a0 d0 a5 79 bd 96 d8 d7 3c 58 de ab bc cc 0b 84 bd
       -0.060949147 0.026348393 -0.020980045 -0.064475626
0001b0 d3 8b 25 3e ad e1 54 3d 50 4c 2a 3c 9d d0 cd bc
       0.1616662 0.051973034 0.010394171 -0.025123889
0001c0 d5 2f 5b be ed 13 e1 bd 24 23 cc 3e 49 de f4 bd
       -0.21404965 -0.10990129 0.3987056 -0.1195646
0001d0 23 47 36 be a6 f0 fa bd d0 d7 cf bd da 48 3a 3e
       -0.17800574 -0.12252931 -0.10148585 0.18191853
0001e0 34 3b 4b bd 64 c1 09 bd 4a 01 27 3e b4 3e d9 bd
       -0.049617007 -0.033631697 0.16309085 -0.10607663
0001f0 4e a5 c9 3b b4 5b 1b 3e 01 88 13 3d f7 04 39 3e
       0.006153739 0.151717 0.036018375 0.180683
000200 8a ed 5d 3d 9e cd fb bd b1 64 e7 3c 7b a8 90 3d
       0.054181613 -0.12295078 0.028246256 0.07063385
000210 5b 6b c4 bd 4d 62 e5 bc a3 cb 4e 3d 8d c4 1f be
       -0.09590789 -0.028000975 0.05048717 -0.15602322
000220 b1 de 33 bc 3c f1 c6 bd 20 69 e6 bd 3a 07 4e bc
       -0.010978387 -0.097139806 -0.1125052 -0.012574965
000230 0c e7 4b bd 36 0f a3 3e 06 b7 e4 3d b0 ec 1f 3d
       -0.04978089 0.31847543 0.111677215 0.039044082
000240 9a 36 f2 3d 5d 57 0e 3e b8 1d b7 3b 72 6e 07 be
       0.11826821 0.13900514 0.0055882595 -0.13225725
000250 f2 ba 24 be bf ba 96 bd 96 55 19 3e ea 79 1a bd
       -0.16086939 -0.07359838 0.14974055 -0.037713923
000260 ae a1 28 3e 90 d2 b4 bd 24 4f 6a 3d 54 c0 8f 3d
       0.16467926 -0.08829224 0.05720438 0.070191056
000270 15 30 e7 3d b5 42 68 3e 79 a0 6f 3e 62 3a 91 3c
       0.11288468 0.22681697 0.23401059 0.017728034
000280 8e db ee 3d 96 16 92 3e 69 c0 1b be 3d 83 30 3e
       0.116629705 0.28532857 -0.15210117 0.17237563
000290 bb 62 c6 3d 58 40 00 3e 75 12 2e 3d 1a 40 03 3e
       0.096868 0.12524545 0.04249807 0.12817422
0002a0 5a 52 d4 bc 4b 77 49 3c 6f 28 91 bd fe 91 b7 3e
       -0.025918175 0.012296508 -0.0708779 0.3585357
0002b0 0f 7c 8d 3b 7a ea f1 3b 35 4c 23 3d 1d e8 e7 bd
       0.0043177675 0.007382688 0.0398676 -0.11323569
0002c0 4f ce 0c be ea a6 4a be 57 8e 3c be 3d 55 c3 3d
       -0.13750575 -0.19790235 -0.18413673 0.09537742
0002d0 8e 26 07 3e 02 18 a2 bc d2 7a aa bc 3e ec a1 3c
       0.13198301 -0.019786838 -0.020810518 0.01976597
0002e0 a6 4b f5 3d e5 de 2f bd e7 58 fc 3c 9a 78 45 bc
       0.119773194 -0.04293718 0.03080411 -0.012052679
0002f0 b4 3c 9c 3e 7e fc 86 bd 30 46 97 bd cf 74 a8 bd
       0.30515063 -0.06591128 -0.07386434 -0.082254045
000300 8d b0 23 be f9 53 ef bd 70 3c 3c bd 70 52 a7 bd
       -0.15985318 -0.116859384 -0.045956075 -0.081700206
000310 dc 84 7f 3d 70 c9 a4 ba 37 bd 67 3d 21 03 4e 3d
       0.062382564 -0.001257224 0.056576934 0.050295953
000320 23 13 95 3d 27 41 2f bd c3 35 14 be 9f 61 98 bd
       0.07279041 -0.042786743 -0.14473633 -0.07440495
000330 1b 04 e8 bd 26 97 29 3c a1 fd c0 bc 34 db cf bd
       -0.11328908 0.010350978 -0.02355844 -0.101492316
000340 01 fa 12 bd ad ce 7a 3d 37 5a 1d bd 2e fb 33 bc
       -0.035882954 0.061232258 -0.038416114 -0.010985179
000350 5d 6d 62 3e 97 95 fc bc 04 4f 27 3d 37 3b 48 be
       0.22112031 -0.030833049 0.04084684 -0.19553839
000360 41 d5 ea 3c ad 50 d4 3d 3e 12 21 be 0d 68 19 be
       0.02866614 0.1036695 -0.15729615 -0.14981098
000370 68 11 c3 3d c9 15 ab bd c2 1d 11 be f2 6b 92 3e
       0.09524804 -0.083537646 -0.14171508 0.2859798
000380 f1 8f 84 bd fa f2 b6 3b c4 9f 80 bd ba a3 03 be
       -0.06472767 0.0055831643 -0.06280473 -0.12855425
000390 dd 22 1d 3e 6a 9d 22 be b1 99 83 3e 4a 1c d9 bc
       0.1534533 -0.15880361 0.25703195 -0.026502747
0003a0 8c 54 d9 3b d9 70 36 3d 22 df 81 bd 52 d8 26 3e
       0.006632393 0.044541214 -0.06341387 0.16293457
0003b0 2e 5f c0 3d 89 16 18 3d a7 03 cd bd 66 03 83 3d
       0.09393154 0.037130866 -0.10010462 0.063971326
0003c0 5b 06 90 3e dc 5d de bc c4 ff 81 3d a9 e2 77 bd
       0.2812985 -0.027144365 0.063476115 -0.060518894
0003d0 5f a8 d5 bd 69 26 c8 3d 94 dd 2a 3f 0a 84 63 bc
       -0.10432505 0.09772951 0.6674435 -0.013886461
0003e0 a2 f2 18 3d 88 7e 27 bc 06 9f 74 bd 16 1e 1a 3d
       0.037340768 -0.0102230385 -0.05972197 0.03762635
0003f0 ad ea 1a bd b2 09 09 3e 8e 5f 93 3d fb eb 46 3d
       -0.03782146 0.13382605 0.0719596 0.048564892

model.model.2.running_var f4 [256]
000000 60 4b 0b 3e f6 a3 91 3d 34 19 6d 3d 26 4b da 3c
       0.13602972 0.07111351 0.057885364 0.026647162
000010 8d 95 61 3c c5 68 22 3d 76 17 56 3d dc 80 34 3d
       0.013768566 0.039650697 0.052268468 0.044068202
000020 66 b5 ce 3c e1 ea f1 3d a9 a4 07 3d 16 fa d0 3c
       0.025232982 0.11812378 0.033116017 0.025509875
000030 69 1c 05 3d f4 80 3f 3d 4f 4b 3b 3c b3 e0 3d 3d
       0.032497797 0.04675384 0.011431529 0.046356868
000040 f5 fe 8c 3d b4 16 f7 3c 51 77 32 3d ec 85 db 3c
       0.06884567 0.030162193 0.04357082 0.026797257
000050 21 5f 0c 3e 14 7f 74 3d 48 57 67 3d e1 a2 90 3d
       0.13708164 0.059691504 0.056479722 0.07062317
000060 4e 1c 74 3d 94 a1 10 3e fc 22 ab 3d 9f cf 47 3d
       0.059597306 0.14124137 0.08356282 0.048781987
000070 c5 c4 00 3e bd fc 1c 3f 75 41 19 3d e2 94 bf 3d
       0.12575062 0.6132315 0.03741594 0.09354569
000080 b0 45 68 3d ee 12 24 3d 22 68 14 3d 3c cb 16 3d
       0.056707084 0.040057115 0.03623212 0.036814913
000090 db 7d 49 3d 1f 5a be 3d f6 11 c3 3d 02 e9 b6 3c
       0.04919229 0.09294533 0.0952491 0.022327904
0000a0 0c ef 17 3e fb 74 5f 3d 51 e2 ff 3d 25 e3 da 3d
       0.14837283 0.05455492 0.12494338 0.10687856
0000b0 9e d7 e9 3d 59 0b f5 3c fc 88 52 3d bb 07 eb 3c
       0.11418079 0.029912638 0.05140017 0.02869021
0000c0 86 85 00 3d fe de a1 3d 4c a4 72 3d 93 8d 9a 3d
       0.031377338 0.079038605 0.059238717 0.075465344
0000d0 2b a7 2b 3e 34 1d 98 3d 2d d0 0b 3d 9a 36 77 3e
       0.16762988 0.07427445 0.03413408 0.24141923
0000e0 45 83 be 3d 7b 9c 57 3d d4 8f d9 3d 79 37 af 3c
       0.093023814 0.052639466 0.10623136 0.021388756
0000f0 7c a3 33 3e 3b 65 31 3e fc 4e 7c 3d 5d bd 69 3d
       0.17542833 0.17323773 0.061598763 0.057065357
000100 08 3b be 3d 68 7b 98 3c 7c 33 c1 3d d3 79 84 3d
       0.09288603 0.018613532 0.09433648 0.064685486
000110 cb 77 54 3d 46 9e 8d 3c 72 da b9 3d 1e de f0 3c
       0.051872056 0.017287385 0.09074868 0.029402789
000120 d4 a1 11 3d 67 71 3b 3d bf d2 cd 3c 84 1e 20 3f
       0.035554722 0.045762446 0.025124906 0.62546563
000130 5d 55 33 3d 8b 4a 32 3d aa 4e 39 3e d1 fa 00 3e
       0.04378258 0.04352812 0.18096414 0.12595679
000140 99 f1 94 3d d4 a8 27 3d 26 cd c7 3d ba d4 71 3d
       0.072726436 0.04093249 0.09755926 0.059040762
000150 00 49 cf 3d 9c 2f a3 3c 11 22 46 3d 55 ff 32 3d
       0.101213455 0.019920163 0.048372332 0.043700535
000160 f3 c3 0c 3d 81 b4 ad 3d 2f b3 0b 3d ec 42 c9 3d
       0.03436656 0.08481694 0.03410643 0.098272175
000170 f9 87 52 3c 72 27 64 3d 57 25 31 3d 00 21 64 3d
       0.012849801 0.05570168 0.0432485 0.055695534
000180 82 d4 ed 3d c1 d2 5c 3d c9 2b ca 3d e8 a6 3e 3d
       0.11612798 0.053911928 0.098716326 0.046545893
000190 7e f3 38 3e 96 1a c4 3c 74 c0 84 3d 68 a0 e7 3d
       0.18061635 0.023938458 0.0648202 0.11309892
0001a0 bc 2a 54 3d b8 04 6f 3d 1d c3 85 3d 36 33 b6 3d
       0.051798567 0.05835411 0.065313555 0.088964865
0001b0 54 6b e4 3e 90 2a b1 3d c3 23 18 3e 5d 08 f4 3c
       0.44613135 0.08650696 0.14857392 0.029789144
0001c0 d0 ef 81 3c 39 7d 61 3d 01 1a f3 3d 2c a8 a4 3c
       0.015861422 0.055051062 0.11870194 0.020099722
0001d0 0c 00 ad 3c 37 33 d5 3c 4e 44 88 3d a1 5f a3 3e
       0.021118186 0.026025398 0.06653653 0.31908897
0001e0 66 91 7d 3d 6b f0 5b 3d 1d 84 8b 3d bd 17 55 3d
       0.06190624 0.053696077 0.06812308 0.05202459
0001f0 75 d1 74 3d 8f 6f 9f 3d 10 4f 3c 3d 4e 07 06 3e
       0.059770066 0.0778495 0.045973837 0.13088724
000200 d8 8f 76 3d 71 2f a0 3d 67 e1 9c 3d f7 5d 1f 3d
       0.060195774 0.07821549 0.076601796 0.03890797
000210 9e cb 2b 3d 12 5b 68 3d f9 a1 5b 3d 11 20 f8 3c
       0.04194223 0.056727476 0.053621266 0.030288728
000220 cc 3c 55 3d 06 af cb 3c 1c de 87 3d 56 aa c4 3c
       0.052059934 0.024863731 0.06634161 0.024007004
000230 12 d6 85 3d e2 2a 05 3f 9d db 20 3e 7c 85 15 3e
       0.06534971 0.5201856 0.15708776 0.14601701
000240 36 a0 c8 3d bd b6 54 3e 3e 36 ab 3c e2 49 d9 3c
       0.09796183 0.20772834 0.020899888 0.026524488
000250 4b 3d 83 3c 34 3e 8d 3d 85 31 87 3d ac 63 e9 3c
       0.016020438 0.0689663 0.06601242 0.02848991
000260 43 67 48 3d cb 9f 7f 3d 26 ca 5c 3d 66 50 89 3d
       0.048926603 0.06240825 0.05390372 0.06704788
000270 15 f4 4b 3e 75 bc 4d 3d 9a 94 1f 3f d9 51 cd 3d
       0.19917329 0.050228555 0.62336123 0.10025377
000280 77 17 6a 3e c7 21 91 3d e1 5e 3b 3d 5b 43 d0 3d
       0.22860514 0.07086521 0.04574478 0.10169097
000290 ae 84 14 3e 9c 4e e0 3d 2a 02 52 3d df 9d 38 3d
       0.14503738 0.109524935 0.051271595 0.045072433
0002a0 67 ee d0 3c 2c cb 89 3d 78 bf d0 3d 7f 20 1d 3f
       0.025504304 0.06728205 0.1019277 0.6137771
0002b0 51 36 7f 3d a9 85 69 3d 3d f1 7d 3d c0 fd 93 3d
       0.06230766 0.057012234 0.06199764 0.07226133
0002c0 fb 5e 0b 3d 7b 79 a7 3c 05 44 01 3d 5b a9 89 3e
       0.034026127 0.020443669 0.03155901 0.2688702
0002d0 cd 16 50 3d 92 a1 7c 3d 58 84 bf 3c 91 d7 b9 3d
       0.050802995 0.061677523 0.023378536 0.09074319
0002e0 d6 9c 09 3e 3c 97 a2 3d 8f a8 23 3e cb 01 ab 3d
       0.13438734 0.07939002 0.15982269 0.08349951
0002f0 6a 91 41 3e ed 72 49 3d e7 38 9e 3d 04 65 b4 3c
       0.18903127 0.049181867 0.07725697 0.022020824
000300 08 1b ca 3c 09 0d 80 3d 10 30 57 3d 86 5d 83 3d
       0.024671093 0.06252486 0.05253607 0.064143226
000310 f2 2e 10 3e 16 60 a9 3d 6a a3 a9 3d 47 c6 92 3d
       0.14080408 0.0827028 0.08283122 0.07166725
000320 57 63 7c 3d d9 b7 b0 3d d0 7d 7b 3c 55 20 ed 3c
       0.061618175 0.08628816 0.01534982 0.028946081
000330 10 f5 35 3d 1b 6c ee 3d 3d 61 82 3d 29 b5 70 3c
       0.044423163 0.11641713 0.06366203 0.014691629
000340 16 db 48 3d 65 7f 70 3d d9 06 91 3d e9 a7 72 3d
       0.04903706 0.058715243 0.07081384 0.059242163
000350 a5 62 f2 3e ab f3 67 3d 8f 53 bc 3d fa 1c 5d 3c
       0.47340885 0.056628864 0.09195625 0.013495678
000360 a9 bd 57 3d 15 86 88 3d 92 29 94 3c f0 10 54 3d
       0.05267111 0.06666199 0.018086229 0.051773965
000370 0e dd 90 3d db 62 73 3d ce 45 ae 3c ed b2 22 3e
       0.07073413 0.059420448 0.02127352 0.15888567
000380 0c 47 28 3d 7b 25 5b 3d 98 a6 4d 3d 70 17 28 3d
       0.04108338 0.05350254 0.050207704 0.041037977
000390 96 c9 93 3d 52 8d 0b 3d 0f c3 79 3e 4c b0 33 3d
       0.07216184 0.03407032 0.24390815 0.0438693
0003a0 fd 53 10 3e ef 66 7e 3e 1e b4 05 3d 90 a3 90 3d
       0.14094539 0.24843954 0.032642476 0.07062447
0003b0 01 82 ca 3d b0 e4 7b 3d b2 39 a1 3d ec 54 d4 3c
       0.098880775 0.06149739 0.07872333 0.0259194
0003c0 55 fc a1 3d df c3 aa 3d fb 17 5a 3d 8d 19 f7 3c
       0.07909457 0.08338141 0.053245526 0.03016355
0003d0 53 51 b1 3c 1d 30 a0 3d 06 aa c0 3f ca 53 3f 3d
       0.021645224 0.07821677 1.5051887 0.046710767
0003e0 48 0d 9d 3d 58 4d c6 3d 28 7c 5f 3d 85 d8 71 3d
       0.07668549 0.09682721 0.054561764 0.05904438
0003f0 ee 0d d6 3c b7 53 22 3d 81 f3 30 3d 1c c6 ad 3d
       0.026129689 0.039630618 0.043200973 0.08485052

model.model.4.weight f4 [128, 256]
000000 22 05 c4 bc b8 12 4d 3d 7b 39 19 3d a6 b5 11 3d
       -0.023928229 0.05006668 0.037408333 0.035573624
000010 b2 8d ad 3c b8 8f 1b 3e ad b0 a4 3d d7 68 ed 3c
       0.02118573 0.15191543 0.08041511 0.028980656
000020 09 4b 73 bd ed 0c 5d bc ba 74 c2 3d 9f cd 83 3d
       -0.05939773 -0.013491851 0.0949492 0.064357035
000030 88 73 16 bd 90 8f 69 3b 57 27 54 bd 16 9f 7b 3c
       -0.036731273 0.0035638548 -0.05179533 0.015357753
000040 97 3e 8e bd ed d9 c0 bb 3b 8d 9b bc 96 af 38 3d
       -0.06945532 -0.005885354 -0.018988242 0.045089327
000050 ba af 06 bd 74 6c 2a bc 9e 16 0a bd 1e 9f ca 3c
       -0.03288243 -0.010401834 -0.033712976 0.024734076
000060 d5 fe 07 bd 48 c5 1e 3c cf c4 a2 3d 1e 65 7b bc
       -0.03320201 0.00969059 0.079476945 -0.015343932
000070 ad 4b 07 3d d7 76 55 bd b1 f6 78 bd ff 14 15 3d
       0.033031154 -0.052115288 -0.06078214 0.036396977
000080 a2 cf 99 3c e0 d7 16 3e 5c 93 84 bc 5a c5 b3 3c
       0.018775765 0.14730787 -0.016183548 0.02194469
000090 36 91 a5 3d ed f3 57 3d 78 a1 3a bd 00 d5 1d 3c
       0.080843374 0.05272286 -0.045564145 0.009633303
0000a0 b2 21 fc 3b 29 25 ce bd 55 79 e2 bc 34 50 8f bd
       0.0076944465 -0.100656815 -0.027645746 -0.069977194
0000b0 ad c6 03 3d 35 6f 67 bd bb b4 9a 3c 8a 1b 81 bd
       0.032171894 -0.05650254 0.018885007 -0.06304081
0000c0 00 c1 91 bd ca b6 d0 3d 1c 8a bc bd fa 25 9a 3d
       -0.0711689 0.10191114 -0.0920603 0.07526775
0000d0 4b ba 60 3c eb 0b de 3c a6 2c c9 3c 2d 6e 97 bc
       0.013716291 0.027105292 0.024557423 -0.018485153
0000e0 4c f4 3e bd d9 a2 50 3d 42 69 8b 3b 74 6d 3f 3d
       -0.0466197 0.050936554 0.004254491 0.046735242
0000f0 47 d9 b0 3b 75 17 0a 3d 61 2e 6e 3c ec 76 66 3b
       0.005396995 0.033713777 0.014537425 0.0035166098
000100 3f 10 b8 bc 25 4d 9b bc 38 9c 30 bb 59 c1 b6 3d
       -0.022468684 -0.018957684 -0.0026948582 0.08923597
000110 54 c8 94 bd 14 72 e1 bd d3 8f 80 3d 57 c9 89 bc
       -0.07264772 -0.11008087 0.06277432 -0.01681964
000120 ad 9d 81 bc ce a8 0e 3e e5 cf 75 3c 19 2b 85 3d
       -0.015822256 0.13931581 0.015003179 0.06502361
000130 32 91 05 bd e0 89 42 bc 28 35 19 3d db 09 04 3d
       -0.032609172 -0.011873692 0.03740421 0.03223596
000140 92 6b 91 3d ab 48 04 bb e1 5e bb bb 0b d4 9b ba
       0.071005955 -0.0020184915 -0.0057180976 -0.0011888755
000150 88 fa a3 3c e4 2c 3a bd 94 8c 5a 3c 5d eb 88 bd
       0.020016924 -0.045452967 0.0133391805 -0.06685517
000160 9a 2a e1 3d 57 b3 3f 3c e4 98 bf bd 9b 9f 21 3d
       0.10994454 0.011700473 -0.093553334 0.039458852
000170 79 80 55 3d 73 36 47 bd 83 c1 1c bd e3 ed fd 3c
       0.052124474 -0.04863591 -0.038270485 0.030997222
000180 d0 50 c7 3d 16 26 7e 3c 1a 9a ee 3d 3c 6a 8d bd
       0.09732211 0.01551201 0.11650486 -0.06905028
000190 ac a9 3d bc 76 ef 41 bd 1d 64 7f 3d f4 91 bc 3d
       -0.011576097 -0.04734751 0.062351335 0.09207526
0001a0 0b bb d9 bd 33 e4 f6 bc 11 dd b5 bd 4d be 2c 3d
       -0.10631379 -0.03013811 -0.08880056 0.042173672
0001b0 66 ea f8 bd f7 94 9d bc 39 72 b0 3b e7 53 e1 3c
       -0.12154083 -0.019236071 0.00538471 0.027505828
0001c0 ca 03 22 3d b7 33 bf bc 93 4b 2a 3d 6d 88 08 3d
       0.039554395 -0.02334009 0.04157598 0.03333323
0001d0 98 a8 42 3d 30 f3 cd bd 06 d0 36 3d 9e 9d 0e be
       0.047524065 -0.1005615 0.04463198 -0.13927314
0001e0 e7 49 0f 3d b6 1e 97 3c 44 e2 53 bc 3f 39 86 3d
       0.03498259 0.018447261 -0.012932364 0.065538876
0001f0 a2 a9 2d 3c e1 51 ea bb 2e 30 65 3a 97 5f bf 3c
       0.010599526 -0.007150874 0.0008742836 0.02336101
000200 6e c3 32 be 20 8f 12 bc 6d 40 c1 bb c3 cc da bc
       -0.17457363 -0.0089452565 -0.0058975727 -0.026708966
000210 b2 0e 00 3e 91 4b 3a bd 5a 97 f4 bc 5e 77 27 3c
       0.12505606 -0.045482222 -0.029857326 0.01022133
000220 1f 78 e4 bd d0 34 ee bc c0 4e e9 3b 93 9f 0d bd
       -0.11155724 -0.029077917 0.0071199834 -0.03457601
000230 84 8a 2c bd 7b 09 13 3d 52 57 81 bd e8 64 d5 3c
       -0.042124286 0.035897713 -0.06315483 0.026049092
000240 d0 6f 6f bc 62 cf df 3d 5a 90 b5 3d a3 0d 48 3d
       -0.0146140605 0.10928227 0.088654235 0.04884113
000250 49 0c fc 3d c2 cc 96 bd a0 be f3 bb 99 ca e6 3d
       0.12307031 -0.07363273 -0.0074384958 0.11269111
000260 f9 30 2d 3c 78 a7 4e 3d f9 d0 1d 3e 8f 0e a3 bd
       0.010570758 0.05045268 0.15411748 -0.07961761
000270 f0 89 06 3d 50 cd 59 bd dc 8e b9 bc 54 34 27 bd
       0.03284639 -0.053174317 -0.022651128 -0.04082139
000280 44 c2 66 bc 34 1d e5 3d 85 6d 45 bd 17 fe f4 3d
       -0.0140844025 0.11187211 -0.04820015 0.11962526
000290 b7 a7 64 3d fc 60 07 3d a0 f2 e6 bc b2 28 94 3d
       0.055824008 0.033051476 -0.028191864 0.072343245
0002a0 44 12 d9 bc 2a c1 79 3d a1 6f 45 3d e2 72 4c 3b
       -0.026497968 0.06097523 0.04820216 0.0031196405
0002b0 cf 79 8b bd 5b 1a a2 bd a1 6b 02 3d 07 bf 47 bd
       -0.068103425 -0.07915183 0.031840924 -0.048766162
0002c0 5d 31 51 3c 51 87 8a 3d 4a 56 e3 bc 55 13 ae 3c
       0.012768117 0.06764091 -0.027751107 0.021249453
0002d0 97 1c 13 3b ad 00 41 bd c5 d2 12 bd 93 86 b6 3c
       0.002244746 -0.047119785 -0.035845537 0.022280967
0002e0 53 f9 07 3d ac ea 97 3d d9 65 bb 3d 4d 8f 62 bd
       0.03319676 0.07417807 0.09150285 -0.055312444
0002f0 2d 62 ac bd 0b 6e e1 3c 52 82 8f 3c a5 fc 03 3d
       -0.08417163 0.027518293 0.017518196 0.032223362
000300 b3 87 06 3d 7e 7d a4 bc cb 9e d8 3d 50 e7 11 3e
       0.032844257 -0.02007937 0.10577162 0.14248395
000310 db f1 f1 3c 5c 61 27 3c 51 eb 02 bd b9 13 3c 3c
       0.029534271 0.010216083 -0.031962696 0.011479312
000320 5d 1f 64 3d 84 27 f1 3c af 66 a5 bd ec 2a ca 3a
       0.055693973 0.029437788 -0.08076226 0.0015424169
000330 38 41 4c bc 66 96 88 3b 05 64 44 3d f4 ee 93 3c
       -0.012466721 0.0041683195 0.04794695 0.018058278
000340 1e 76 05 3d 28 96 ac bc 97 c7 08 be 57 af 15 be
       0.03258335 -0.021067694 -0.13357387 -0.14617668
000350 ec 2c 41 bc 4d b8 bd 3c b4 f9 bb bd 56 a2 92 3d
       -0.011790495 0.02315917 -0.091784865 0.071598694
000360 16 bd 7b bd 03 97 a4 3d c6 8a 4d 3c d9 e3 1c 3d
       -0.061459623 0.08036616 0.012545293 0.03830323
000370 88 68 af b8 0c e8 67 3c 15 07 95 bd 23 f5 7d 3d
       -8.364121e-05 0.014154445 -0.072767414 0.06200136
000380 ef 03 ce 3c 02 5c 84 3c c8 35 d3 3d c5 3f bd bd
       0.02514836 0.016157154 0.10312992 -0.09240679
000390 36 8d 31 bd 98 de 36 bc 95 5a b1 bd c9 1a 66 3d
       -0.04334756 -0.011161469 -0.08659855 0.056177888
0003a0 f4 1c bd bb f0 ee 25 bc 5d 43 54 bd c9 f9 31 3d
       -0.0057712737 -0.010127768 -0.051822055 0.043451104
0003b0 43 5e 88 3d 04 b7 e5 3c be 08 38 bd 25 63 4a 3c
       0.06658604 0.02804137 -0.044930212 0.012352739
0003c0 73 08 9f bd 8a 9e 06 bd b1 f1 44 bd cb 04 96 3b
       -0.077652834 -0.03286604 -0.048082057 0.004578208
0003d0 36 e4 6e 3d d9 4c 4d ba c6 a7 46 bc e2 82 8e 3d
       0.058323108 -0.00078315806 -0.012124961 0.06958558
0003e0 bd 7e 36 3b 91 c9 8d 3d b1 45 82 3c b9 13 2c 3d
       0.0027846538 0.06923211 0.015902372 0.042010996
0003f0 a4 d7 47 bd 32 18 64 bd b3 3b 31 3e a3 05 e8 3c
       -0.048789635 -0.055687137 0.1730793 0.028323
