parkinson telemonitoring/checkpoints/parkinson-epoch=123-val_loss=15.41.ckpt (torch, 821088 bytes, 76 tensors)

model.model.0.weight f4 [256, 20]
0	0x3e88cfbe	0.26720995
1	0x3e139223	0.14411215
2	0xbe8a41dc	-0.27003372
3	0xbeddadf2	-0.43296772
4	0x3dc30da3	0.095240854
5	0x3e010f3e	0.1260347
6	0x3e3109ef	0.17288946
7	0xbe2d0cdb	-0.16899435
8	0xbd8233ce	-0.06357537
9	0xbcadcb68	-0.021215156
10	0x3e7e6af5	0.24845488
11	0x3bbd7542	0.0057818005
12	0xbd17bd61	-0.03704584
13	0x3e3a7231	0.18207623
14	0xbe89ce09	-0.26915005
15	0xbdb2bd68	-0.087275326
16	0xbe25bcab	-0.16185252
17	0x3d673d9c	0.05645524
18	0xbda69d3b	-0.08135458
19	0xbd5b64dd	-0.053562988
20	0xbf001de3	-0.50045604
21	0xbd789c6c	-0.06069605
22	0xbdffca65	-0.124897756
23	0x3e6eb085	0.23309524
24	0x3d4cca90	0.049997866
25	0xbe22e0ab	-0.15906017
26	0x3dc5c1d8	0.096561134
27	0x3b61827c	0.003441005
28	0xbdca4e16	-0.09878175
29	0xbd6cce48	-0.057813913
30	0xbd1037ac	-0.035209343
31	0x3dc0e452	0.09418549
32	0x3d564f76	0.052321874
33	0xbd218b77	-0.039439645
34	0xbe944135	-0.28956
35	0x3c931bfc	0.01795768
36	0xbe226a79	-0.15860929
37	0x3e63ef19	0.22259177
38	0x3e4e307e	0.20135686
39	0xbddfba9d	-0.109242655
40	0x3fd84996	1.6897457
41	0xbca5c3b2	-0.020234916
42	0xbddb86d4	-0.10719076
43	0xbeb72e7b	-0.3577765
44	0x3e126d0e	0.14299414
45	0xbda704cc	-0.08155212
46	0x3e54ed41	0.2079363
47	0x3ce938fb	0.028469553
48	0xbbcfb4d6	-0.006338696
49	0x3dec85e8	0.11548978
50	0xbdb2bfb3	-0.0872797
51	0x3e564f52	0.20928696
52	0x3c8971c2	0.016777877
53	0x3d73e22b	0.059541862
54	0x3e30530b	0.17219178
55	0xbdcf0457	-0.1010825
56	0x3e3d7087	0.18499957
57	0x3d80eb2f	0.06294858
58	0xbe613ee2	-0.21996644
59	0xbe0ab0f9	-0.13544072
60	0xbdc80318	-0.09766215
61	0x3d57bd35	0.052670676
62	0x3d444bc6	0.047923826
63	0xbed284e8	-0.41117024
64	0x3dbe1c0a	0.09282692
65	0x3e165068	0.1467911
66	0xbd88dd65	-0.06682853
67	0x3e6d73b1	0.23188664
68	0x3e522460	0.20521688
69	0xbe15b32f	-0.14619134
70	0xbe1361ee	-0.14392826
71	0x3e4f71d6	0.20258269
72	0xbe5cea70	-0.21573806
73	0x3d4b16a1	0.049582127
74	0x3e958d85	0.29209533
75	0x3bc43a4e	0.005988396
76	0x3e41aebb	0.1891431
77	0xbdcc670d	-0.09980593
78	0x3e877ed8	0.26463962
79	0xbd56ea26	-0.052469395
80	0xbea07af3	-0.31343803
81	0x3e44f92d	0.19235678
82	0x3e973a80	0.2953682
83	0xbddc4a3b	-0.10756346
84	0xbc7c93df	-0.015416115
85	0x3d8b2aee	0.067952976
86	0xbce78141	-0.028259875
87	0xbda958ad	-0.08268867
88	0x3de01e2d	0.109432556
89	0x3e3058e3	0.17221408
90	0x3d0176d5	0.031607468
91	0xbdad483f	-0.084610455
92	0xbe0d2839	-0.13784875
93	0xbe86dfd1	-0.26342633
94	0x3eefeed8	0.4686191
95	0xbd84dcb4	-0.06487408
96	0xbdeaf052	-0.11471619
97	0x3e5d526f	0.21613477
98	0xbe004fb2	-0.12530401
99	0x3d86204f	0.06549131
100	0x3f83cbc6	1.0296562
101	0xbe5d0651	-0.21584441
102	0xbce7a43d	-0.028276557
103	0xbe827174	-0.25477183
104	0x3dced9a8	0.101001084
105	0x3df460c6	0.119325206
106	0xbd02fa04	-0.031976715
107	0x3dce9042	0.10086109
108	0x3e2aca27	0.16678677
109	0x3d8ad03b	0.06777998
110	0xbe0910de	-0.1338534
111	0xbe0ee5bc	-0.13954824
112	0x3d90121c	0.07034704
113	0xbd823fa9	-0.063597985
114	0x3d1546a2	0.036444314
115	0xbeb0725e	-0.34462255
116	0x3d0a55b7	0.03377315
117	0x3db6ee82	0.089322105
118	0xbe9a42fb	-0.30129227
119	0x3e5e349a	0.21699753
120	0x3eba49cb	0.36384425
121	0x3e45a985	0.19302948
122	0x3e84240d	0.25808755
123	0x3cbb5852	0.022869263
124	0xbdf5bbec	-0.11998734
125	0x3d62d7e1	0.05538166
126	0xbc388a26	-0.011263406
127	0x3c5a1f28	0.013313092
128	0xbe9b7b99	-0.30367735
129	0xbd1020cd	-0.03518753
130	0xbe1e7834	-0.15475541
131	0x3da41577	0.080119066
132	0xbdf834b1	-0.12119425
133	0x3e1a58a1	0.15072872
134	0x3eba04a8	0.36331677
135	0xbe091b6c	-0.13389367
136	0x3dd265d3	0.10273328
137	0xbc4ff2d6	-0.012692174
138	0xbe8e4238	-0.27784896
139	0x3eb18ed7	0.3467929
140	0x3d8ce413	0.06879439
141	0x3ded6e9b	0.11593362
142	0x3e678d95	0.22612603
143	0xbe5f6d1d	-0.21818967
144	0xbe1586de	-0.14602229
145	0x3e230650	0.15920377
146	0xbc7d3dc9	-0.015456625
147	0x3b9779d0	0.0046226755
148	0x3e01b155	0.12665303
149	0xbc25b5db	-0.0101141585
150	0x3e278172	0.16357973
151	0xbe013a09	-0.12619795
152	0xbdbeb379	-0.093115754
153	0x3e6579cd	0.22409745
154	0x3e3cb4c2	0.18428329
155	0xbc960bff	-0.018316267
156	0x3e276afa	0.16349402
157	0xbe52c53a	-0.20583048
158	0xbe7b6b00	-0.24552536
159	0x3eb1b637	0.3470933
160	0xbf5e44c9	-0.8682371
161	0xbda4f5f8	-0.08054727
162	0x3d25c6e3	0.040472876
163	0xbd92dff5	-0.07171623
164	0x3e49fb23	0.19724707
165	0xbd2e663d	-0.04257797
166	0xbdd299b2	-0.10283221
167	0xbd8fb3d4	-0.07016721
168	0x3e447c05	0.19187935
169	0xbd38f253	-0.045152973
170	0xbd23ff28	-0.040038258
171	0xbe652c54	-0.22380191
172	0x3d88336e	0.066504344
173	0x3da05075	0.07827846
174	0x3e14bdd9	0.14525546
175	0x3d78b861	0.060722712
176	0x3e1a61dd	0.15076394
177	0xbe3aa85b	-0.18228285
178	0x3e8df55f	0.27726266
179	0xbe804235	-0.25050512
180	0x3e00f58c	0.12593669
181	0xbd6889ea	-0.05677215
182	0xbed017b4	-0.40643084
183	0x3eb0664d	0.3445305
184	0xbaf7bd7b	-0.0018901074
185	0xbe21271b	-0.15737574
186	0x3dc5745f	0.09641337
187	0xbd5ec666	-0.054388426
188	0xbde8c900	-0.11366463
189	0x3e8db4df	0.27677056
190	0xbd1915a9	-0.037374172
191	0xbe72b140	-0.23700428
192	0x3e26cbea	0.16288725
193	0x3d0d760c	0.034536406
194	0x3e0c6eb9	0.13714112
195	0x3dff7eb9	0.12475342
196	0x3e3f9709	0.18709959
197	0x3d74ad12	0.059735365
198	0xbe1af37e	-0.15131947
199	0xbe6326b9	-0.2218274
200	0x3ebbe85c	0.36700714
201	0x3b9137ce	0.0044317013
202	0xbe1323de	-0.14369151
203	0x3e7ab3e0	0.2448268
204	0xbd922ff4	-0.071380526
205	0xbe89ad33	-0.26889953
206	0xbd9f708e	-0.0778514
207	0x3dbbef20	0.09176469
208	0xbd65d1ab	-0.056108158
209	0x3df02675	0.11726085
210	0x3ce70453	0.028200304
211	0x3bcbc40b	0.0062184385
212	0xbe2d637c	-0.16932482
213	0x3e504226	0.20337734
214	0xbec6bc1f	-0.388154
215	0xbe000447	-0.12501632
216	0x3e55b19a	0.20868531
217	0xbd850fbb	-0.06497141
218	0xbeee5f66	-0.46557158
219	0xbf0c6a7b	-0.54849976
220	0x3e34804d	0.17627068
221	0xbe253614	-0.1613391
222	0xbdf5527c	-0.11978623
223	0xbc7030cb	-0.014660071
224	0xbdaf0549	-0.0854593
225	0xbed0e68c	-0.40800893
226	0xbc91dc4b	-0.01780524
227	0xbda20480	-0.079110146
228	0x3ddf0738	0.10890049
229	0xbe03c837	-0.12869345
230	0xbec5a294	-0.386006
231	0x3e17e5a7	0.14833699
232	0xbe4bac06	-0.1988984
233	0xbd41422e	-0.047182254
234	0xbe5c6779	-0.21523847
235	0x3d15d16e	0.03657668
236	0x3ec29023	0.38000593
237	0xbdeea5ac	-0.11652693
238	0x3dc26cf4	0.094934374
239	0xbe39de85	-0.1815129
240	0x3e779dbb	0.24181263
241	0xbd39b7ee	-0.045341425
242	0xbe9548bc	-0.29157054
243	0x3ebf86d9	0.37407568
244	0x3d4f0ced	0.050549436
245	0x3ea0e992	0.314282
246	0x3cf220f1	0.029556723
247	0x3dcb59ea	0.09929259
248	0x3dabe0aa	0.08392461
249	0xbe36eee5	-0.17864569
250	0xbe37eb31	-0.17960812
251	0xbe17488d	-0.1477377
252	0x3d5bec89	0.053692374
253	0xbe06eb4e	-0.13175699
254	0xbeeb0162	-0.45899493
255	0x3e95728b	0.29188952

model.model.0.bias f4 [256]
0	0xbe99e0b8	-0.3005426
1	0xbe031c60	-0.12803793
2	0xbf2e8f82	-0.68187726
3	0xbf20919e	-0.62722194
4	0xbf1867dd	-0.5953348
5	0xbe3a6ac8	-0.18204796
6	0xbf1029c6	-0.5631374
7	0x3d7688b9	0.060188983
8	0xbec39532	-0.38199764
9	0xbf22c62d	-0.6358364
10	0xbf53db77	-0.8275675
11	0xbf28a01c	-0.6586931
12	0xbe03c41a	-0.12867776
13	0xbf716189	-0.9428945
14	0xbf192a08	-0.5982976
15	0xbef8c6cc	-0.4858917
16	0xbec693a0	-0.38784504
17	0xbf78ad48	-0.97139406
18	0xbf57f355	-0.8435567
19	0xbf5bb76a	-0.8582674
20	0xbedd7dad	-0.43259946
21	0xbe6344cc	-0.22194213
22	0xbef753da	-0.4830616
23	0xbf3ac071	-0.7294989
24	0xbeef4780	-0.46734238
25	0xbf5998d0	-0.849988
26	0xbf45d3e4	-0.77276444
27	0xbf247228	-0.6423669
28	0x3d98382f	0.07432591
29	0xbe92451a	-0.28568345
30	0x3e4481b1	0.19190098
31	0xbe613da3	-0.21996169
32	0xbf5da6d1	-0.86582667
33	0x3e2b4f15	0.16729386
34	0xbf1bcecb	-0.60862416
35	0xbf23016b	-0.6367404
36	0xbf42383f	-0.75867075
37	0xbf650055	-0.8945363
38	0xbf56dcba	-0.8393055
39	0xbf7cf17b	-0.9880597
40	0xbd4b71e3	-0.049669158
41	0xbf16aba2	-0.5885564
42	0xbf653a72	-0.89542305
43	0xbf007d8f	-0.5019159
44	0xbf1d7793	-0.6151058
45	0xbe7a2bb7	-0.24430738
46	0xbf455f78	-0.770988
47	0xbf2d9e1c	-0.6781938
48	0xbe7c6c24	-0.24650627
49	0xbe5f24e0	-0.2179141
50	0xbe9a0d51	-0.30088285
51	0xbf450bee	-0.7697133
52	0xbec7d85f	-0.39032266
53	0xbd189ec0	-0.03726077
54	0xbe57e82d	-0.21084662
55	0xbf4f7356	-0.81035364
56	0xbf2d369e	-0.67661464
57	0xbe2e1495	-0.17000039
58	0xbf6f305f	-0.93433183
59	0x3e59cb96	0.21269068
60	0xbecec559	-0.4038494
61	0xbf6829cd	-0.9068878
62	0xbee8f959	-0.45502737
63	0xbef9b8ae	-0.48773712
64	0x3d21fa9b	0.039545637
65	0xbeeb5637	-0.45964214
66	0xbcf30519	-0.029665517
67	0xbe35c05e	-0.17749164
68	0xbf2e6cf9	-0.6813503
69	0xbf140d41	-0.57832724
70	0xbe2d9ebc	-0.16955084
71	0xbf6c1374	-0.92217183
72	0xbec20a79	-0.37898615
73	0xbdc6b320	-0.09702134
74	0xbede5601	-0.4342499
75	0xbf50f037	-0.8161654
76	0xbf81d3e1	-1.0142785
77	0xbe0d1376	-0.13776955
78	0xbefc8d82	-0.49326712
79	0x3ea9583f	0.3307514
80	0xbdba064c	-0.09083232
81	0xbf2edc6c	-0.6830509
82	0xbf0192a7	-0.506144
83	0x3e28cf52	0.16485336
84	0x3d34bb2e	0.04412382
85	0xbdb19ccb	-0.08672484
86	0xbef7e054	-0.48413336
87	0xbf2230b7	-0.6335558
88	0xbeb52b71	-0.35384706
89	0xbf55129f	-0.8323154
90	0xbec04f61	-0.3756056
91	0xbf26eab7	-0.65201896
92	0xbf24a437	-0.6431307
93	0xbf5c6be9	-0.8610216
94	0xbe8ce9d5	-0.2752215
95	0xbe5d4154	-0.21606952
96	0xbebf9ca4	-0.37424195
97	0xbf88c0fe	-1.0683897
98	0xbf44fc7b	-0.76947755
99	0xbf06af69	-0.52611405
100	0xbe9a7527	-0.30167505
101	0xbf934c8d	-1.1507736
102	0xbf5999d0	-0.85000324
103	0xbe552cef	-0.20817922
104	0xbf63a036	-0.8891634
105	0xbf6bf28d	-0.9216698
106	0xbf2e92d1	-0.68192774
107	0xbdb422ee	-0.08795725
108	0x3b795ae8	0.003804857
109	0xbeba67d0	-0.36407328
110	0xbee081cc	-0.43849027
111	0xbf4a7e03	-0.7909853
112	0xbf090d3d	-0.53535825
113	0xbf033194	-0.51247525
114	0xbf4b3a87	-0.7938618
115	0xbea9acfc	-0.3313979
116	0xbf1ec842	-0.6202432
117	0xbf32a23d	-0.69778806
118	0xbf819d52	-1.0126135
119	0xbf66ae9d	-0.9011019
120	0xbf56af09	-0.8386083
121	0xbdba651e	-0.09101318
122	0xbed0d0e8	-0.40784383
123	0xbf0acf6a	-0.5422274
124	0xbe8719ea	-0.26386958
125	0xbf55c56b	-0.8350436
126	0xbcbb3b86	-0.022855531
127	0xbe17c305	-0.14820488
128	0xbf08caa0	-0.5343418
129	0xbdb3565e	-0.087567076
130	0xbf079b6a	-0.5297152
131	0xbe939761	-0.2882643
132	0xbe4ce60d	-0.20009632
133	0xbf6a7918	-0.91591024
134	0xbf6c62c7	-0.9233822
135	0xbe40f692	-0.18844059
136	0xbed01b32	-0.40645748
137	0xbead6d39	-0.33872393
138	0xbf3296fe	-0.69761646
139	0xbeec5414	-0.46157897
140	0xbeedc6f6	-0.46440858
141	0xbf0bf690	-0.546731
142	0xbf3dd1cb	-0.74148244
143	0xbebf22c0	-0.373312
144	0xbef60b8a	-0.4805568
145	0xbf09a464	-0.53766465
146	0xbf2ccfed	-0.6750477
147	0x3dc12e82	0.09432699
148	0x3d6239b7	0.055230822
149	0xbe3d1c4b	-0.18467824
150	0xbe00f1c5	-0.12592228
151	0xbf78233b	-0.9692876
152	0xbf558061	-0.83399016
153	0xbf010908	-0.50404406
154	0xbc65906c	-0.014011484
155	0x3e2cbb18	0.16868246
156	0xbed2c411	-0.41165212
157	0xbf30b42d	-0.69024926
158	0xbf50e6a2	-0.8160192
159	0x3b32e302	0.0027295952
160	0xbdd091ff	-0.101840965
161	0xbf7afc82	-0.98041546
162	0xbef1f3a3	-0.47256193
163	0xbed0c903	-0.4077836
164	0xbea842d4	-0.32863486
165	0xbf2ef879	-0.6834789
166	0xbe944b86	-0.2896387
167	0xbf151d54	-0.58247876
168	0xbea8c490	-0.32962465
169	0x3d62c4a5	0.055363316
170	0xbebd6a5f	-0.36995217
171	0xbe870194	-0.26368392
172	0xbf84b207	-1.036683
173	0xbf688d9d	-0.90841085
174	0xbed5cfd3	-0.4176012
175	0xbf068d50	-0.52559376
176	0xbf7bf2ff	-0.9841766
177	0xbd9c9aca	-0.07646711
178	0xbf21bbe9	-0.63177353
179	0xbf63e8fc	-0.8902738
180	0xbf2e199f	-0.68007845
181	0xbf8a3291	-1.0796682
182	0xbe6720da	-0.22571126
183	0xbf34c2bc	-0.7060964
184	0xbefba988	-0.4915278
185	0x3c506fcc	0.012721967
186	0xbd49d848	-0.049278527
187	0xbe5bbba2	-0.21458295
188	0xbe3e8ebb	-0.18609135
189	0xbf21b424	-0.631655
190	0xbf75d1da	-0.96023333
191	0xbedb6642	-0.42851454
192	0xbe5e6843	-0.2171946
193	0xbecd5e34	-0.40110934
194	0xbeb66356	-0.35622662
195	0xbf586c0e	-0.8453988
196	0x3eb86c48	0.36020112
197	0xbe9a2158	-0.30103564
198	0xbd7147fd	-0.058906544
199	0xbe68113b	-0.22662823
200	0xbf2b7e2a	-0.66989386
201	0xbf18564f	-0.59506696
202	0xbf640ac9	-0.89078957
203	0xbf6991ee	-0.91238296
204	0xbd257fff	-0.04040527
205	0xbeee1df7	-0.46507236
206	0xbe1e8576	-0.15480599
207	0xbeca747b	-0.39541993
208	0xbe8d1a11	-0.2755895
209	0xbf24aaeb	-0.643233
210	0xbf091ce1	-0.5355969
211	0xbe9294e9	-0.28629234
212	0xbf016683	-0.50547045
213	0xbf6c7901	-0.9237214
214	0xbed23448	-0.41055512
215	0xbf268771	-0.6505042
216	0xbf03a628	-0.5142541
217	0xbf15bfa6	-0.5849556
218	0xbf850916	-1.0393398
219	0xbf0ab769	-0.5418611
220	0xbd92a666	-0.07160644
221	0xbea40bf7	-0.32040378
222	0xbe95ba45	-0.29243675
223	0xbf48e67d	-0.784767
224	0xbf1d155c	-0.61360717
225	0x3d1d515c	0.03840767
226	0xbf1a0cfc	-0.6017606
227	0xbf52df2f	-0.823718
228	0xbe061255	-0.1309293
229	0xbe68c07b	-0.22729675
230	0xbf3f0c15	-0.7462781
231	0xbf03c882	-0.51477826
232	0xbf48e78e	-0.78478324
233	0xbf657a46	-0.896397
234	0xbf0b881c	-0.5450456
235	0xbf5f825e	-0.873083
236	0xbf130fac	-0.5744579
237	0xbf82c9a7	-1.021779
238	0xbf4aea43	-0.79263705
239	0xbd68abb2	-0.056804366
240	0xbea68d38	-0.32529616
241	0xbeb73d90	-0.35789156
242	0xbf321422	-0.6956197
243	0xbf5ae5a7	-0.8550667
244	0xbf577d0f	-0.841752
245	0xbf34e4c8	-0.7066159
246	0xbeafb033	-0.34314117
247	0xbf233303	-0.6374971
248	0xbd18d721	-0.037314538
249	0xbce4b15d	-0.027916605
250	0xbb886f1c	-0.004163636
251	0xbf7f1c8a	-0.9965292
252	0xbf72e97e	-0.9488753
253	0xbe924670	-0.28569365
254	0xbf374a79	-0.7159801
255	0xbf63095f	-0.88686174

model.model.2.weight f4 [256]
0	0x3f50cdb5	0.81563884
1	0x3f40a33e	0.7524909
2	0x3f9b483d	1.213142
3	0x3f614bb2	0.88006127
4	0x3f1fb019	0.6237808
5	0x3f77fdf7	0.96871895
6	0x3f0f2f50	0.5593157
7	0x3f4bdec3	0.7963678
8	0x3f529dc7	0.82272
9	0x3f74a111	0.9555827
10	0x3f9cec68	1.2259645
11	0x3f10b04b	0.56519
12	0x3f2c9904	0.67420983
13	0x3f8e1824	1.1101117
14	0x3f31e934	0.69496465
15	0x3f004f90	0.501214
16	0x3f33d11d	0.70240957
17	0x3f7bdfa4	0.98388124
18	0x3f7f0e5f	0.99631304
19	0x3f2eba63	0.68253154
20	0x3f2743c0	0.65337753
21	0x3f5417fe	0.8284911
22	0x3f47b0eb	0.7800433
23	0x3f6cfbf7	0.9257197
24	0x3f43e90d	0.7652748
25	0x3f6e5c6b	0.9310977
26	0x3f71d52d	0.94465905
27	0x3f343ff1	0.70410067
28	0x3f03d6be	0.51499546
29	0x3f2e80bb	0.6816518
30	0x3f2c5278	0.6731334
31	0x3f4e9277	0.8069224
32	0x3f7bc1ed	0.9834278
33	0x3f2c6192	0.6733638
34	0x3f596f8a	0.8493582
35	0x3f4200f1	0.75782686
36	0x3f81647c	1.010879
37	0x3f81fe5d	1.015575
38	0x3f5965eb	0.8492114
39	0x3f6fd6b7	0.93687004
40	0x3f32d151	0.6985064
41	0x3f294764	0.6612456
42	0x3f53726c	0.8259647
43	0x3f2dcfa4	0.6789496
44	0x3f6a58d2	0.9154178
45	0x3f60eec3	0.8786432
46	0x3f21a03c	0.63135123
47	0x3f595f21	0.8491078
48	0x3f19c761	0.60069853
49	0x3f11a5d9	0.5689369
50	0x3f261a75	0.6488412
51	0x3f439644	0.7640116
52	0x3f2b4c2e	0.66913116
53	0x3f16b4c9	0.58869606
54	0x3f14ead6	0.5817083
55	0x3f613aa2	0.8798009
56	0x3f5c294b	0.8600051
57	0x3efe1670	0.49626493
58	0x3f6de3bc	0.9292562
59	0x3f1e8d09	0.6193395
60	0x3f38a116	0.721208
61	0x3f9b8759	1.215068
62	0x3f144d65	0.57930595
63	0x3f88b21c	1.0679355
64	0x3ecac8fc	0.39606464
65	0x3f3f0101	0.74610907
66	0x3f3769ec	0.71646
67	0x3f184ad0	0.59489155
68	0x3f493b62	0.78606236
69	0x3f6cf6de	0.9256419
70	0x3f2792dc	0.65458465
71	0x3f51ff3e	0.82030094
72	0x3f424e05	0.759003
73	0x3f155de1	0.5834637
74	0x3f6bb800	0.92077637
75	0x3f6a411d	0.91505605
76	0x3f809a6e	1.0047128
77	0x3f2a9648	0.6663556
78	0x3f49a346	0.7876476
79	0x3ef2b7ac	0.47405756
80	0x3f21a348	0.6313977
81	0x3f4a4843	0.7901651
82	0x3f369f16	0.71336496
83	0x3f0751b2	0.5285903
84	0x3f2074ca	0.62678206
85	0x3f250c1c	0.644716
86	0x3f676530	0.90388775
87	0x3f586a03	0.8453676
88	0x3f29d112	0.6633464
89	0x3f299ef5	0.66258174
90	0x3f379205	0.71707183
91	0x3f32c990	0.6983881
92	0x3f58cd41	0.8468819
93	0x3f25f55d	0.6482752
94	0x3f3c7a74	0.7362435
95	0x3f28182b	0.6566188
96	0x3f29ab3f	0.66276926
97	0x3f516374	0.8179238
98	0x3f378d61	0.717001
99	0x3f1bd4be	0.60871494
100	0x3f27ac46	0.65497243
101	0x3fbfa1e5	1.4971281
102	0x3f8c5c04	1.0965581
103	0x3f3291f2	0.69753945
104	0x3f6757bd	0.90368253
105	0x3f34ec20	0.706728
106	0x3f8f1717	1.1178921
107	0x3f763470	0.96173763
108	0x3f0487de	0.51769817
109	0x3f11b771	0.56920534
110	0x3f56c618	0.8389602
111	0x3f4dd94b	0.8040969
112	0x3f551b30	0.8324461
113	0x3f17be80	0.59275055
114	0x3f51a016	0.81884897
115	0x3f556cfe	0.83369434
116	0x3f625944	0.8841746
117	0x3f3de49a	0.74176943
118	0x3f4a77f2	0.7908927
119	0x3f6062ba	0.87650645
120	0x3f61eb71	0.8824988
121	0x3f30d162	0.6906949
122	0x3f7eb622	0.9949666
123	0x3f77cb77	0.9679484
124	0x3f3f1801	0.74646
125	0x3f55dd1e	0.83540523
126	0x3f51490b	0.8175208
127	0x3f1b1143	0.60573214
128	0x3f475ce0	0.7787609
129	0x3f162b12	0.5865947
130	0x3f414137	0.75490135
131	0x3f539097	0.826425
132	0x3f214b43	0.63005465
133	0x3f969c27	1.1766404
134	0x3f7b8e51	0.9826403
135	0x3f4ffd72	0.812461
136	0x3f61cd4b	0.8820388
137	0x3f3d6643	0.73984164
138	0x3f82c1ab	1.0215353
139	0x3f796751	0.97423273
140	0x3f429ced	0.760207
141	0x3f48eb26	0.7848381
142	0x3f707584	0.93929315
143	0x3f4bfe32	0.79684746
144	0x3f3ce0f4	0.7378075
145	0x3f5f68d1	0.8726931
146	0x3f7141f6	0.94241273
147	0x3f3bef05	0.7341159
148	0x3f231a64	0.63712144
149	0x3f0ea3e5	0.55718833
150	0x3f04a443	0.51813143
151	0x3f9212b8	1.1411963
152	0x3f59170c	0.8480079
153	0x3f5f5441	0.87237936
154	0x3f1bfbbe	0.60931003
155	0x3f1961e6	0.59915006
156	0x3f6c5184	0.9231188
157	0x3f3312cf	0.69950575
158	0x3f7a1eed	0.9770344
159	0x3f574eac	0.8410442
160	0x3f1079f2	0.56436074
161	0x3f9f6813	1.2453636
162	0x3f450c9d	0.7697237
163	0x3f1717fa	0.5902096
164	0x3f05f761	0.52330595
165	0x3f36fd07	0.7147984
166	0x3f3830ac	0.7194927
167	0x3f1cd78c	0.612664
168	0x3f65735c	0.8962915
169	0x3f447e19	0.7675491
170	0x3f1a7300	0.60331726
171	0x3f3867af	0.7203321
172	0x3f86dbba	1.0535805
173	0x3f80d4fb	1.0064996
174	0x3f51d23d	0.81961423
175	0x3f5d67f5	0.8648675
176	0x3f7ff887	0.999886
177	0x3f0b9834	0.5452912
178	0x3f42fc65	0.76166373
179	0x3f6287c8	0.88488436
180	0x3f592fb0	0.8483839
181	0x3f974e2c	1.1820731
182	0x3f203f7c	0.6259687
183	0x3f50e4cf	0.81599134
184	0x3f416d27	0.7555718
185	0x3f11be10	0.5693064
186	0x3efc7d3e	0.49314302
187	0x3f321504	0.6956332
188	0x3f204f6f	0.62621206
189	0x3ef5d490	0.48013735
190	0x3f4ffb6b	0.8124301
191	0x3f15d170	0.585227
192	0x3f56c0a3	0.8388769
193	0x3f505a4c	0.8138778
194	0x3f2526f9	0.6451259
195	0x3f866277	1.0498799
196	0x3f18e413	0.59723014
197	0x3f18ce0d	0.5968941
198	0x3f100b8f	0.56267637
199	0x3f533e58	0.82517004
200	0x3f4a301a	0.7897965
201	0x3f6ad3a4	0.9172919
202	0x3f4d03e3	0.80084056
203	0x3f565c52	0.8373462
204	0x3f55e6b7	0.8355517
205	0x3f4003ec	0.75005984
206	0x3f228d6c	0.6349704
207	0x3f4039e6	0.75088346
208	0x3f4a8352	0.7910663
209	0x3f3f0abf	0.7462577
210	0x3f3ea469	0.7446962
211	0x3f48cc9e	0.7843722
212	0x3f430352	0.7617694
213	0x3f852526	1.0401962
214	0x3eedb8c7	0.46430036
215	0x3f4a6617	0.79062027
216	0x3f1f7798	0.6229186
217	0x3f5b1832	0.85583794
218	0x3f3dfc39	0.74212986
219	0x3f44fb3c	0.76945853
220	0x3f3b0fad	0.73070794
221	0x3f55c028	0.8349633
222	0x3f101237	0.56277794
223	0x3fa0636d	1.2530342
224	0x3f35b09f	0.7097263
225	0x3f55fffb	0.8359372
226	0x3f274190	0.65334415
227	0x3f723f2f	0.9462766
228	0x3f669bf2	0.90081704
229	0x3f47f5ee	0.78109634
230	0x3f5592df	0.8342723
231	0x3f599534	0.8499329
232	0x3f45a8ba	0.7721058
233	0x3f6822db	0.90678185
234	0x3f3789c1	0.7169457
235	0x3f864e65	1.0492674
236	0x3f41e9e9	0.75747544
237	0x3f72aa72	0.9479133
238	0x3f87420f	1.0567034
239	0x3f5b8a1f	0.8575763
240	0x3f291e53	0.66061896
241	0x3f2bf708	0.67173815
242	0x3f6dcfd3	0.9289524
243	0x3f84fbb2	1.0389311
244	0x3f2e2f2e	0.6804074
245	0x3f1f65ab	0.6226451
246	0x3eceb1b3	0.4036995
247	0x3f8cb3ca	1.0992367
248	0x3f111eef	0.56687826
249	0x3f11496a	0.56752646
250	0x3f22e37e	0.63628376
251	0x3f3b20cb	0.73096913
252	0x3fa09320	1.2544899
253	0x3f17714a	0.5915724
254	0x3f6926a6	0.910746
255	0x3f82b337	1.0210942

model.model.2.bias f4 [256]
0	0x3d619da6	0.055081986
1	0x3eaedd2f	0.34153125
2	0xbce68bca	-0.028142828
3	0xbe88a096	-0.26685017
4	0x3e8427c1	0.2581158
5	0xbbb6b056	-0.00557522
6	0x3ef11177	0.47083637
7	0x3ebd3a7b	0.3695868
8	0x3e23d357	0.15998589
9	0xbe810acc	-0.2520355
10	0x3e093a08	0.13401043
11	0xbeb4752f	-0.35245654
12	0xbd91351a	-0.070902064
13	0x3e85c358	0.26125598
14	0x3e2add07	0.16685878
15	0xbee4ae20	-0.44664097
16	0x3dd27aa9	0.10277302
17	0x3e9f2b6a	0.3108781
18	0xbde03c60	-0.109490156
19	0xbddc7483	-0.1076441
20	0xbda6aebf	-0.08138799
21	0x3c74552e	0.014912887
22	0x3d285eba	0.041105963
23	0x3e818aae	0.25301117
24	0x3d07ec73	0.03318448
25	0x3eada0b7	0.33911678
26	0x3eb4d274	0.35316813
27	0xbd34abc7	-0.044109132
28	0x3eb0f1c4	0.34559453
29	0x3f00aaba	0.5026051
30	0xbe2ee8fb	-0.17081062
31	0x3d70e20c	0.058809325
32	0x3ec1e02e	0.37866348
33	0xbdcda3a9	-0.10040981
34	0x3db61e39	0.08892483
35	0xbe48140c	-0.19538897
36	0x3e5b97d9	0.21444644
37	0x3d055559	0.032552097
38	0xbda26ed6	-0.079312965
39	0x3e25e4a3	0.16200499
40	0xbe1feafc	-0.15616983
41	0xbe271f19	-0.16320457
42	0x3c2c684a	0.010522911
43	0xbdb3a0ff	-0.08770942
44	0x3d2f6000	0.042816162
45	0xbec50c3e	-0.38485903
46	0x3e2b5cc8	0.16734612
47	0xbb09130d	-0.0020915896
48	0xbe575862	-0.21029809
49	0xbe365384	-0.17805296
50	0xbc66a7b4	-0.0140780695
51	0x3e306559	0.17226161
52	0xbe383c1c	-0.1799168
53	0x3e4233ba	0.18965045
54	0x3ea500a4	0.3222705
55	0x3daa22a6	0.0830739
56	0x3e31afab	0.17352168
57	0x3e932c34	0.28744662
58	0xbd8c9326	-0.06864004
59	0x3dbcfe80	0.092282295
60	0x3e1f1286	0.1553441
61	0x3de6a32a	0.1126159
62	0x3dfc179c	0.12309191
63	0x3dad9cd9	0.08477182
64	0x3c68b208	0.014202602
65	0x3e146186	0.14490327
66	0xbd9d1f9d	-0.076720454
67	0x3d948066	0.072510526
68	0x3e1dec42	0.15422156
69	0x3ecc22df	0.39870355
70	0x3e256873	0.16153125
71	0xbde67276	-0.112523004
72	0x3e3f83dc	0.18702644
73	0x3e65629e	0.224009
74	0x3e6fdcc5	0.2342406
75	0xbe24b6f1	-0.16085412
76	0x3e8e0220	0.27735996
77	0x3ddbd8f5	0.10734741
78	0x3cf8b4ed	0.03035971
79	0x3e2d2936	0.16910252
80	0x3e7f87cc	0.24954146
81	0x3ea65620	0.32487583
82	0xbe4254d8	-0.18977678
83	0x3d02acfa	0.031903245
84	0x3e99f822	0.30072123
85	0x3e007adb	0.12546866
86	0x3dec59a7	0.11540537
87	0x3e527bba	0.2055501
88	0xbe0e4095	-0.13891824
89	0xbda70f9c	-0.08157274
90	0x3e8d8ec1	0.27647975
91	0x3e115da4	0.14195877
92	0xbe8f9511	-0.28043416
93	0x3dc0ed88	0.094203055
94	0x3e217dfa	0.15770712
95	0xbe9270a6	-0.2860157
96	0xbe09eed9	-0.1347002
97	0x3db2a0f0	0.08722103
98	0xbd93c41a	-0.07215138
99	0x3cc842b2	0.024445865
100	0x3e295535	0.1653641
101	0x3eb7e6e9	0.35918358
102	0x3e2dcdc9	0.16973032
103	0x3edea5d9	0.43485907
104	0x3d8e541e	0.06949638
105	0xbec6ff08	-0.38866448
106	0x3d3e9549	0.04652909
107	0x3ee33997	0.44379875
108	0x3e754ce7	0.23955117
109	0xbbd22fe7	-0.006414402
110	0x3e66f466	0.22554168
111	0xbc826d87	-0.015921367
112	0x3e16da43	0.14731698
113	0xbe133e9a	-0.1437935
114	0x3d9042d6	0.07043998
115	0x3dfaf25c	0.12253258
116	0x3dc45cef	0.09588038
117	0x3dee981b	0.116501056
118	0xbe98c743	-0.29839525
119	0xbe4ba9d9	-0.1988901
120	0x3d557e13	0.052122187
121	0x3dd6675d	0.10468934
122	0x3ed76e51	0.42076352
123	0x3e147f54	0.14501697
124	0x3e81fe7d	0.25389472
125	0xbe5064a8	-0.20350897
126	0x3c38879b	0.0112628
127	0x3db3d403	0.087806724
128	0xbe53f027	-0.2069708
129	0xbe313cd9	-0.17308368
130	0xbd86a626	-0.06574659
131	0x3cea5f68	0.028609946
132	0x3dbb1876	0.09135525
133	0x3e56a7ef	0.20962499
134	0xbd9a2436	-0.07526438
135	0x3d600613	0.054693293
136	0xbca69ba4	-0.020337887
137	0xbe5b35e3	-0.21407275
138	0xbe3238d7	-0.17404495
139	0x3ddbc762	0.10731389
140	0xbc99db7f	-0.018781422
141	0x3df3d993	0.11906733
142	0xbdbd6276	-0.092472956
143	0xbe114f2d	-0.1419036
144	0x3e1b202b	0.1514899
145	0x3e11b7c4	0.14230257
146	0xbe92027d	-0.28517523
147	0x3ea3d2a1	0.31996635
148	0xbe657a5c	-0.22409958
149	0xbea438aa	-0.3207448
150	0x3ed617d4	0.41815054
151	0xbdd5bc23	-0.10436275
152	0xbdecb52b	-0.115579925
153	0x3db0a708	0.08625609
154	0xbe9aa335	-0.30202642
155	0xbd4f7243	-0.050646078
156	0x3ebb402a	0.3657239
157	0xbe24e50a	-0.16102996
158	0x3e35f764	0.17770153
159	0x3e8d418b	0.27589068
160	0x3e2eab7a	0.170576
161	0x3ed32094	0.41235793
162	0xbc6967f6	-0.014245978
163	0xbe3fc0d6	-0.18725905
164	0xbdacd7a9	-0.084395714
165	0xbd9dee1e	-0.07711433
166	0xbe0bf636	-0.13668141
167	0x3d8c297a	0.068438485
168	0x3ea7d6fe	0.32781214
169	0x3d504260	0.05084455
170	0xbec93382	-0.3929711
171	0x3e6e578c	0.23275584
172	0x3b7b5d50	0.003835518
173	0x3e90dfa3	0.2829562
174	0x3e9ba3be	0.30398363
175	0xbe456cff	-0.1927986
176	0x3d72c84d	0.059273053
177	0x3c78bcda	0.0151817445
178	0x3ca4c7be	0.020114776
179	0x3d99618e	0.0748931
180	0xbd9330c1	-0.071870334
181	0x3e41a071	0.1890886
182	0xbcfe4432	-0.031038377
183	0x3da9ead6	0.082967445
184	0x3d639efc	0.05557154
185	0x3db0dbf1	0.086357005
186	0x3e559428	0.20857298
187	0xbe4d30ee	-0.20038196
188	0xbe9e819d	-0.30958262
189	0xbe8a483b	-0.27008232
190	0x3db303bb	0.08740946
191	0x3e57db0c	0.21079654
192	0x3dcbfe85	0.09960655
193	0xbbc23e81	-0.005927861
194	0xbe545d83	-0.20738797
195	0xbe8bf162	-0.27332598
196	0x3e0f60b6	0.14001736
197	0xbd5b2e46	-0.053510927
198	0x3d196655	0.037451107
199	0x3e87c5c4	0.2651807
200	0x3d90dbee	0.07073198
201	0x3e527941	0.20554067
202	0xbcf0bfc0	-0.029388309
203	0xbe07cf65	-0.13262708
204	0xbd17cbb9	-0.03705952
205	0xbe732b81	-0.23747064
206	0xbdba226e	-0.09088598
207	0x3e5e2c3c	0.21696562
208	0xbd896c6a	-0.067101315
209	0x3e1962b6	0.14979061
210	0xbdf02029	-0.11724884
211	0x3e00d961	0.12582923
212	0x3e5ec452	0.21754578
213	0x3ea89ff9	0.3293455
214	0xbe13957c	-0.14412493
215	0x3cc797ab	0.024364313
216	0x3dbf1330	0.093298316
217	0xbe758e88	-0.23980153
218	0xbe525bfa	-0.20542899
219	0xbe519132	-0.20465544
220	0xbd2f05be	-0.042730086
221	0xbd91dfc7	-0.0712276
222	0x3ef2faee	0.4745707
223	0x3eedc3c4	0.4643842
224	0xbd12eaa8	-0.035868317
225	0xbe188be5	-0.14897116
226	0xbdc1d189	-0.09463794
227	0x3dd224b5	0.102609076
228	0xbe9182ce	-0.2842011
229	0x3dc3e326	0.095648095
230	0xbe1b6db5	-0.15178569
231	0xbde89e7e	-0.11358355
232	0x3e93ae90	0.28844118
233	0x3eb2b0c7	0.34900495
234	0x3c82e8e3	0.01598019
235	0xbd8b19b4	-0.06792012
236	0xbcc08c56	-0.023504417
237	0x3e3a1bff	0.18174742
238	0xbc88ec8a	-0.016714353
239	0x3e44a6a6	0.19204196
240	0xbd6b6506	-0.05746939
241	0x3e305ff9	0.1722411
242	0x3e6ce170	0.23132873
243	0x3eaa38f4	0.33246577
244	0xbec040b1	-0.37549356
245	0xbe8470ee	-0.2586741
246	0x3e1a8f50	0.15093732
247	0x3da9323d	0.08261535
248	0xbdd8c5f0	-0.105846286
249	0x3ea3b1c3	0.3197156
250	0x3df971a2	0.12179877
251	0xbe3908e6	-0.180698
252	0x3e0d86b5	0.13820918
253	0xbe634ffe	-0.22198483
254	0x3e017bba	0.12644854
255	0x3dab5bdd	0.08367131

model.model.2.running_mean f4 [256]
0	0xbdca85cf	-0.09888803
1	0x3d9ee8d3	0.077592514
2	0x3e4aa255	0.19788487
3	0xbe28ead5	-0.16495831
4	0xbe24aaf8	-0.16080844
5	0x3e1d4b7d	0.15360828
6	0xbdd088dc	-0.10182354
7	0x3d58f910	0.0529719
8	0x3d8e46ec	0.06947121
9	0xbe89179d	-0.26775828
10	0xbe8ef85c	-0.27923858
11	0xbdb6de85	-0.08929161
12	0x3e9ac186	0.30225772
13	0xbe89af4b	-0.2689155
14	0xbe654248	-0.22388566
15	0xbe114ff9	-0.14190663
16	0x3d53608e	0.051605754
17	0xbe819876	-0.2531163
18	0xbe7e1385	-0.24812134
19	0xbe733a3c	-0.23752683
20	0xbd87368d	-0.066022016
21	0xbdb6d3a1	-0.08927084
22	0xbd400b7c	-0.046885952
23	0xbe721d34	-0.23643953
24	0xbdbb23af	-0.091376655
25	0xbe8432d6	-0.25820035
26	0xbe85cc6d	-0.26132527
27	0xbe2bb7cf	-0.16769336
28	0x3de837de	0.11338781
29	0xbd23e76b	-0.04001562
30	0x3e86d30e	0.26332897
31	0x3dcc486c	0.09974751
32	0xbe50ab9e	-0.20377967
33	0x3e67fa8a	0.22654167
34	0xbdc29105	-0.095003165
35	0xbe72a14c	-0.23694342
36	0xbe2d8e62	-0.16948846
37	0xbe8b9d85	-0.27268615
38	0xbe884fa7	-0.2662327
39	0xbe89be24	-0.26902878
40	0x3e1360ef	0.14392446
41	0xbc8b2f4a	-0.016990323
42	0xbdc95ee9	-0.09832556
43	0xbe0f5f40	-0.14001179
44	0xbe4ba4de	-0.1988711
45	0xbd989c4f	-0.074516885
46	0xbe541728	-0.20711958
47	0xbe76d95f	-0.24106358
48	0x3d8b5ad1	0.06804431
49	0x3d0ec10b	0.03485207
50	0xbd34ec8d	-0.044170905
51	0xbe44d281	-0.19220926
52	0xbcbeac36	-0.023275476
53	0x3d2aae45	0.041670103
54	0xbd1fad50	-0.038983643
55	0xbe86e4e1	-0.26346496
56	0xbe731b7e	-0.23740956
57	0x3c5a8119	0.013336443
58	0xbe708f5f	-0.23492192
59	0x3e9dfeda	0.308585
60	0xbe257f5a	-0.16161862
61	0xbe8931bc	-0.26795757
62	0x3dd03669	0.10166628
63	0xbc8901e9	-0.016724544
64	0x3de938fe	0.113878235
65	0xbdf86b45	-0.12129835
66	0x3e1f2bc9	0.15544046
67	0x3e469987	0.19394504
68	0xbe588062	-0.21142724
69	0xbe3a5b88	-0.18198979
70	0xbe000290	-0.12500978
71	0xbe81cd32	-0.25351864
72	0xbd20ad66	-0.039227866
73	0x3dcbd04d	0.099518396
74	0xbe47eda3	-0.19524245
75	0xbe8e75dd	-0.27824298
76	0xbe89684f	-0.26837394
77	0x3b9a9f03	0.0047186627
78	0xbe43b4c5	-0.19111927
79	0x3e8d4e29	0.27598694
80	0x3d82e7b3	0.06391849
81	0xbe62c0e1	-0.2214389
82	0x3d470f74	0.04859872
83	0x3e3edd8c	0.18639201
84	0x3ceb6a32	0.028737161
85	0x3d61e169	0.05514661
86	0xbde265ad	-0.11054549
87	0xbe64f749	-0.22359957
88	0xbd8e5e88	-0.06951624
89	0xbe7ae15d	-0.24500032
90	0xbdbdd653	-0.09269395
91	0xbe511856	-0.2041944
92	0xbe5be12f	-0.2147262
93	0xbe9007c2	-0.2813092
94	0xbdbff147	-0.09372192
95	0x3e142f35	0.14471133
96	0x3d286db2	0.04112024
97	0xbe89346b	-0.26797804
98	0xbe552fe4	-0.2081905
99	0xbe11a13f	-0.14221667
100	0xbc2941ac	-0.010330599
101	0xbe69f7a6	-0.22848377
102	0xbe8bc306	-0.2729723
103	0xbd9cf297	-0.07663458
104	0xbe840858	-0.25787616
105	0xbe86f8cc	-0.26361692
106	0xbe7b2e46	-0.2452937
107	0x3da6b076	0.08139126
108	0xbbb425e8	-0.005497683
109	0xbda345f2	-0.079723254
110	0xbe1aa155	-0.15100606
111	0xbe5e6086	-0.21716508
112	0xbdb53c13	-0.08849349
113	0xbdf5d227	-0.12002974
114	0xbe7deb8b	-0.24796884
115	0xbdc5e36a	-0.096625164
116	0xbe0d89fa	-0.13822165
117	0xbe2acce0	-0.16679716
118	0xbe861cc8	-0.26193833
119	0xbe81d5ba	-0.25358373
120	0xbe63135e	-0.22175357
121	0x3c07add5	0.008281191
122	0xbdaeba8d	-0.085316755
123	0x3d0ca3c1	0.034335855
124	0xbdcbdc18	-0.09954089
125	0xbe819314	-0.25307524
126	0x3e8c70b2	0.2742973
127	0x3d35f0ae	0.044418983
128	0xbe0353f8	-0.12825
129	0x3dd76a2c	0.105182976
130	0xbe0621c7	-0.13098823
131	0xbd0b17bf	-0.033958193
132	0xbbab8528	-0.0052343793
133	0xbe8f7d2a	-0.2802518
134	0xbe75e0b6	-0.24011502
135	0xbe17c034	-0.14819413
136	0xbd2e6dd2	-0.0425852
137	0xbdf2e7c4	-0.11860612
138	0xbe6e3286	-0.2326146
139	0xbe2849ec	-0.16434449
140	0xbdec9c73	-0.11553278
141	0xbda28c02	-0.079368606
142	0xbe8c3c4a	-0.27389747
143	0x3d2c36c4	0.042044416
144	0xbe0d8683	-0.13820843
145	0xbe605c0c	-0.21910113
146	0xbe82224c	-0.2541679
147	0x3dd19fd3	0.10235562
148	0x3e82cb33	0.25545654
149	0x3c7cce19	0.015429997
150	0xbda60de6	-0.0810812
151	0xbe833c76	-0.25632066
152	0xbe3981f4	-0.1811598
153	0xbe2134de	-0.15742823
154	0x3e1f3256	0.15546545
155	0x3e8fb9a9	0.28071335
156	0xbe23c6de	-0.1599383
157	0xbdc09c64	-0.09404829
158	0xbe8be737	-0.2732484
159	0x3e638aa1	0.22220851
160	0x3ecad12a	0.39612705
161	0xbe73f512	-0.23823956
162	0xbe176cbc	-0.14787573
163	0x3e8bfcdc	0.27341354
164	0xbd2bd2e7	-0.04194918
165	0xbe2af209	-0.16693892
166	0xbd3d1251	-0.046160046
167	0xbe4b005d	-0.19824357
168	0x3d22e9ed	0.03977387
169	0x3dbee157	0.09320324
170	0xbd562067	-0.052276995
171	0x3d960694	0.073254734
172	0xbe977676	-0.29582566
173	0xbe7f0d3f	-0.24907397
174	0xbe088841	-0.13333227
175	0xbe2174e2	-0.15767244
176	0xbe903d60	-0.28171825
177	0x3dcf96bd	0.10136173
178	0xbe4e2ae4	-0.20133549
179	0xbe71a4ed	-0.2359807
180	0xbe3ec056	-0.18628058
181	0xbe842429	-0.25808838
182	0xbb31c59a	-0.0027125836
183	0xbdfa8c1f	-0.12233757
184	0xbe084cb9	-0.13310517
185	0x3c9dd12d	0.019264782
186	0x3db5666a	0.088574246
187	0x3db9e508	0.09076887
188	0x3c5cc61c	0.013474967
189	0xbda07df2	-0.07836522
190	0xbe5e651b	-0.21718256
191	0xbd8e46f5	-0.06947128
192	0x3a8f692c	0.0010941378
193	0xbddc1ca7	-0.107476525
194	0xbd6ada66	-0.057337187
195	0xbe8a5934	-0.27021182
196	0x3ebe85d2	0.37211472
197	0xbb673b04	-0.0035282979
198	0x3e1caaf9	0.15299596
199	0x3e4171fe	0.18891141
200	0xbe61504a	-0.22003284
201	0xbe2ebc58	-0.17064035
202	0xbe7e5e2b	-0.2484061
203	0xbe8634fd	-0.26212302
204	0xbd399812	-0.04531104
205	0xbdc531c5	-0.096286334
206	0x3c1182a3	0.008881244
207	0xbd976bf8	-0.0739364
208	0xbd9d8197	-0.07690733
209	0xbe1386ff	-0.14406966
210	0xbda007f0	-0.07814014
211	0xbe0d1fcb	-0.1378166
212	0xbcaa8c54	-0.020818867
213	0xbe63069c	-0.2217049
214	0x3e050539	0.12990274
215	0xbe552724	-0.20815712
216	0xbdc1a022	-0.09454371
217	0xbe41d6de	-0.18929622
218	0xbe8b5816	-0.27215642
219	0xbe156310	-0.1458857
220	0x3dddd460	0.10831523
221	0xbe386494	-0.18007118
222	0xbdec0d13	-0.11525931
223	0xbe8d9ec5	-0.27660194
224	0xbe2cd724	-0.16878945
225	0x3ceda3be	0.029008742
226	0xbe385df5	-0.18004592
227	0xbe870553	-0.2637125
228	0x3e81a098	0.25317836
229	0x3e01e81f	0.12686203
230	0xbe6f8448	-0.23390305
231	0xbe1d87ba	-0.15383807
232	0xbe7478ea	-0.2387425
233	0xbe7a2101	-0.24426652
234	0xbdf045a6	-0.117320344
235	0xbe854a51	-0.2603326
236	0xba9ede60	-0.0012120716
237	0xbe6c41a1	-0.2307191
238	0xbe8c77a8	-0.2743504
239	0x3e865993	0.26240215
240	0xbd6b2745	-0.057410497
241	0xbd2add75	-0.041715104
242	0xbe2dc85b	-0.16970961
243	0xbe70474d	-0.23464699
244	0xbe3bbf2b	-0.18334644
245	0xbe603679	-0.2189578
246	0xbdabd1fa	-0.08389659
247	0x3cbd1615	0.023081819
248	0x3e80d181	0.2515984
249	0xbc49b23a	-0.012310559
250	0x3e4c8876	0.1997393
251	0xbe84ed61	-0.25962356
252	0xbe863e1a	-0.26219255
253	0x3c469e14	0.01212265
254	0xbe47e6be	-0.19521615
255	0xbe942b6d	-0.2893938

model.model.2.running_var f4 [256]
0	0x3d424bd0	0.04743558
1	0x3e1738c1	0.14767744
2	0x3f28cb23	0.6593496
3	0x3ca0dc44	0.01963628
4	0x3d4d9b18	0.050196737
5	0x3ecc7e3a	0.39940053
6	0x3db7970d	0.089643575
7	0x3d8c0b70	0.06838119
8	0x3e4d08fc	0.20022959
9	0x3aec52b4	0.0018030019
10	0x3aa82547	0.0012828492
11	0x3d9d34e9	0.076761074
12	0x3f127908	0.5721593
13	0x3b36ca4b	0.0027891572
14	0x3c136ee4	0.008998606
15	0x3d0632a2	0.03276313
16	0x3ea136d4	0.31487143
17	0x3baf13f7	0.005342956
18	0x3c378f01	0.011203528
19	0x3c56a61d	0.013101128
20	0x3d8698c9	0.0657211
21	0x3c767ccc	0.015044402
22	0x3e04a6d3	0.12954263
23	0x3c315040	0.010822356
24	0x3da434e9	0.08017904
25	0x3ba00d57	0.0048844027
26	0x3b9e1962	0.004824803
27	0x3d9e17da	0.07719393
28	0x3dc0ec5f	0.09420084
29	0x3e2b2643	0.16713814
30	0x3d555038	0.052078456
31	0x3e2cc2c5	0.16871174
32	0x3d07772c	0.033072636
33	0x3e7ee32a	0.24891344
34	0x3dc890d2	0.09793247
35	0x3c049c1d	0.008093861
36	0x3db0aa2b	0.08626207
37	0x3b7b4d11	0.0038345496
38	0x3b743a19	0.0037266074
39	0x3b3e4b2a	0.00290365
40	0x3d89bf1a	0.06725903
41	0x3e596c91	0.21232821
42	0x3e029573	0.12752323
43	0x3d3b115a	0.045670845
44	0x3cc70015	0.024292031
45	0x3c934c6a	0.017980773
46	0x3ccb6dbb	0.024832597
47	0x3b5e8c90	0.0033958293
48	0x3e69b5cf	0.2282326
49	0x3de8f9f3	0.11375799
50	0x3d83dc81	0.06438542
51	0x3d0d313b	0.034470778
52	0x3daebb94	0.085318714
53	0x3de82268	0.113346875
54	0x3db78664	0.0896118
55	0x3afe888c	0.0019419356
56	0x3c3715ee	0.011174662
57	0x3da86b0e	0.08223544
58	0x3c248520	0.010041505
59	0x3e8d7a0f	0.27632186
60	0x3cbab3ad	0.022790754
61	0x3b5638d5	0.0032687683
62	0x3edd89a7	0.43269083
63	0x3e0cfac1	0.1376753
64	0x3e01cf8b	0.12676828
65	0x3d2a9426	0.04164519
66	0x3e0ec5cb	0.1394264
67	0x3ecaed1c	0.39634025
68	0x3d079d4a	0.033108987
69	0x3d09b9b3	0.033624362
70	0x3c7da428	0.015481032
71	0x3bcd2749	0.0062607867
72	0x3db067bd	0.086135365
73	0x3e2191b3	0.15778236
74	0x3c84b0ce	0.016197588
75	0x3acf1c0e	0.0015801208
76	0x3b8e8a2c	0.0043499675
77	0x3dcf44f1	0.101205714
78	0x3cd9ac95	0.026571551
79	0x3e39f0de	0.1815829
80	0x3dfdb8ff	0.12388801
81	0x3cb9bf9e	0.022674378
82	0x3e4418f1	0.1915014
83	0x3dba4a4e	0.09096204
84	0x3de8a5a8	0.113597214
85	0x3da302a3	0.07959487
86	0x3d833cf0	0.06408107
87	0x3c832b86	0.016011965
88	0x3d8945db	0.06702777
89	0x3c422ed0	0.011851981
90	0x3d891846	0.06694083
91	0x3cbe9242	0.0232631
92	0x3c3a048e	0.011353625
93	0x3b184bc0	0.002323851
94	0x3d9965e1	0.07490135
95	0x3e9eb075	0.30994
96	0x3dff04bc	0.12452075
97	0x3b25aa16	0.002527838
98	0x3cdf5baf	0.027265398
99	0x3db42c2e	0.08797489
100	0x3e162d2e	0.14665672
101	0x3cb6093d	0.022221202
102	0x3b2c49f9	0.0026289208
103	0x3d71b669	0.05901185
104	0x3bf5aaa7	0.00749715
105	0x3ba81b27	0.00513019
106	0x3b29a17f	0.0025883613
107	0x3e427dd6	0.18993315
108	0x3cbe0427	0.02319534
109	0x3d5d2126	0.05398669
110	0x3cd5b093	0.026085174
111	0x3c9a5c67	0.018842889
112	0x3de73117	0.1128866
113	0x3db3feae	0.08788811
114	0x3c0e8bc3	0.008700314
115	0x3cacd414	0.02109722
116	0x3d481d86	0.04885628
117	0x3d57e030	0.052704036
118	0x3b9424b9	0.0045209792
119	0x3bc7cf37	0.0060977
120	0x3c9d78b5	0.019222597
121	0x3dc37ad4	0.09544912
122	0x3dc906e9	0.09815771
123	0x3e9f5974	0.31122935
124	0x3df3e146	0.11908202
125	0x3c027791	0.007963077
126	0x3f0e8aa4	0.556803
127	0x3d451bc3	0.04812218
128	0x3d237700	0.03990841
129	0x3ded103b	0.11575361
130	0x3d2531cc	0.040330693
131	0x3e08264e	0.13295862
132	0x3d11a3b7	0.03555652
133	0x3b383daa	0.0028112927
134	0x3c13ffe2	0.009033175
135	0x3c99ce02	0.01877499
136	0x3e11e60a	0.14247909
137	0x3c72103a	0.0147743765
138	0x3bd94ad2	0.0066312337
139	0x3d1ed046	0.038772844
140	0x3d4775e5	0.048696417
141	0x3dd19cb2	0.102349654
142	0x3a8793d8	0.0010343743
143	0x3e739ad6	0.23789534
144	0x3d80c165	0.06286887
145	0x3cad8c98	0.021185204
146	0x3af2f8af	0.0018537248
147	0x3e13228d	0.14368649
148	0x3e7106b9	0.2353772
149	0x3d28b10d	0.041184474
150	0x3d6b4a2e	0.05744379
151	0x3b6c572e	0.0036062705
152	0x3d2676d0	0.040640652
153	0x3d025307	0.031817462
154	0x3e3bdbfe	0.18345639
155	0x3da405cf	0.080089204
156	0x3cdf8ff9	0.027290331
157	0x3e1927e9	0.14956631
158	0x3abc4e05	0.0014366513
159	0x3e65dd61	0.2244773
160	0x3f48f2e0	0.784956
161	0x3c6023ea	0.013680438
162	0x3d194a93	0.037424635
163	0x3f45f878	0.7733226
164	0x3de24c93	0.110497616
165	0x3d6187d5	0.05506118
166	0x3d44560b	0.04793362
167	0x3c207439	0.009793335
168	0x3e209e7f	0.15685461
169	0x3d69a532	0.05704231
170	0x3da20732	0.07911529
171	0x3ea72e64	0.3265258
172	0x398f0d09	0.00027284797
173	0x3bbf2ee8	0.005834449
174	0x3d3401c9	0.043947015
175	0x3ceca438	0.0288869
176	0x3aa846a2	0.0012838433
177	0x3e297f6c	0.16552514
178	0x3d329008	0.04359439
179	0x3c8d3bdc	0.017240457
180	0x3d104c48	0.035228997
181	0x3b8b469f	0.004250362
182	0x3d484aae	0.048899345
183	0x3dd1ae0b	0.10238274
184	0x3d11f35e	0.035632484
185	0x3d1c0ecf	0.03810006
186	0x3e1d5b22	0.15366796
187	0x3dfe9cc9	0.12432248
188	0x3dabda97	0.08391302
189	0x3dfe9bfb	0.12432095
190	0x3ca07780	0.019588232
191	0x3d91c010	0.07116711
192	0x3e17c5bd	0.14821525
193	0x3d3944d7	0.045231666
194	0x3d89088a	0.06691082
195	0x3b296bc4	0.0025851587
196	0x3df10790	0.117690206
197	0x3e2c4873	0.16824512
198	0x3dc54af7	0.09633439
199	0x3e9b5c90	0.30344057
200	0x3c873b33	0.01650772
201	0x3d18302e	0.037155323
202	0x3c4cfbd0	0.012511209
203	0x3bb39b7f	0.005481183
204	0x3c9c6fc1	0.019096257
205	0x3ce299be	0.0276612
206	0x3d9762b9	0.07391877
207	0x3df764c4	0.120797664
208	0x3d28c295	0.041201193
209	0x3d58dd57	0.05294546
210	0x3d8db958	0.06920117
211	0x3cead72d	0.028667057
212	0x3de03b6f	0.10948836
213	0x3cf6ad33	0.030111885
214	0x3efb9ecf	0.491446
215	0x3ccc2289	0.024918811
216	0x3dbf06f8	0.09327501
217	0x3c703c04	0.014662746
218	0x3b0393d4	0.0020077126
219	0x3cfbeedf	0.030753551
220	0x3ddcf531	0.10788954
221	0x3c9db35a	0.01925056
222	0x3d692c09	0.05692676
223	0x3b1002a6	0.0021974235
224	0x3d043d4a	0.032285012
225	0x3d013c3c	0.031551585
226	0x3ce4273c	0.02785074
227	0x3b870b79	0.0041212407
228	0x3ee625b2	0.44950634
229	0x3e54a022	0.20764211
230	0x3c0cb5b2	0.008588241
231	0x3c25f49d	0.010129121
232	0x3c4491db	0.011997665
233	0x3c1386b3	0.009004283
234	0x3d8c176a	0.068404034
235	0x3ba57529	0.005049367
236	0x3e2d3d7f	0.1691799
237	0x3c865235	0.016396621
238	0x3ab644bd	0.0013905984
239	0x3eb13515	0.3461081
240	0x3d5e02d0	0.0542019
241	0x3e093b93	0.13401632
242	0x3d08f409	0.033435855
243	0x3c38c79a	0.0112780575
244	0x3d153dd3	0.036435913
245	0x3c36ca94	0.011156697
246	0x3dae29f5	0.085040964
247	0x3e9e93d0	0.30972147
248	0x3e97de2a	0.29661685
249	0x3d9cad69	0.07650263
250	0x3e4cfbd8	0.20017946
251	0x3c2260e6	0.009910798
252	0x3b696b01	0.0035616758
253	0x3dba5a16	0.09099214
254	0x3cfbe88c	0.030750535
255	0x3a2e4654	0.0006648053

model.model.4.weight f4 [128, 256]
0	0x3d827af3	0.06371107
1	0xbdae1840	-0.08500719
2	0x3e27a132	0.16370085
3	0xbc8cf724	-0.01720769
4	0xbcd3f405	-0.025873194
5	0x3d431456	0.047626816
6	0x3cb58668	0.022158816
7	0xbd6e3b78	-0.058162183
8	0x3dfdd62d	0.123943664
9	0xbd4caae2	-0.049967654
10	0x3dabf384	0.08396056
11	0x3d3e6bb2	0.046489425
12	0x3e824c6e	0.25448936
13	0x3d817d1c	0.06322691
14	0xbdb8b9b1	-0.09019793
15	0xbd2ce9cb	-0.04221515
16	0x3d96a675	0.07355968
17	0xbd2b7883	-0.041862976
18	0x3e4e691f	0.20157288
19	0x3d2cd25b	0.042192798
20	0x3ce4a565	0.027910898
21	0x3d3faf2a	0.04679791
22	0xbd9026c3	-0.07038643
23	0x3d1635c6	0.036672376
24	0x3d54c193	0.05194242
25	0x3da4cd99	0.08047027
26	0x3d7e79ba	0.062127806
27	0x3e1c7de9	0.15282406
28	0x3d280ad4	0.04102595
29	0xbe2d281c	-0.16909832
30	0xbda4b9b1	-0.0804323
31	0x3b6c294b	0.0036035355
32	0x3cfbfa22	0.030758921
33	0x3d7be6b4	0.061499313
34	0x3e0cbe0d	0.13744374
35	0x3dc4961b	0.09598943
36	0x3dd699d7	0.10478561
37	0x3dc0fa62	0.09422757
38	0x3e02462d	0.12722082
39	0x3d04ec70	0.032452047
40	0x3dfb1535	0.12259904
41	0xbd7456b7	-0.05965301
42	0x3dcaaffd	0.09896848
43	0x3df29407	0.1184464
44	0xb77297b8	-1.4459649e-05
45	0x3e23e3d6	0.16004881
46	0x3e1e3435	0.15449603
47	0x3e055875	0.13022025
48	0x3e164d2f	0.1467788
49	0x3deae893	0.11470141
50	0xbd7d7e59	-0.061888073
51	0x3e6ab68d	0.229212
52	0x3d8ad6a4	0.06779221
53	0xbe087deb	-0.13329284
54	0xbdd0aeb9	-0.10189576
55	0xbbabab5e	-0.0052389344
56	0xbdb0f50b	-0.08640488
57	0x3e09f286	0.13471422
58	0x3d822c79	0.06356139
59	0x3d785968	0.06063214
60	0xba445a0b	-0.0007490224
61	0x3dab9081	0.08377171
62	0x3e657728	0.22408736
63	0x3d9fa36c	0.07794842
64	0x3e1535fc	0.14571375
65	0xbd7d0ea7	-0.06178155
66	0x3d7d2982	0.061807163
67	0x3cf36a86	0.02971388
68	0x3d83c860	0.06434703
69	0xbb692d27	-0.0035579891
70	0x3d778049	0.060425077
71	0x3d1aca88	0.037790805
72	0xbc11d355	-0.008900483
73	0xbc052171	-0.008125649
74	0x3e038f5f	0.1284766
75	0x3d5e4d7a	0.054273106
76	0x3e19747b	0.1498584
77	0x3d05920d	0.032609988
78	0xbd1f9c0c	-0.038967177
79	0xbda9ff52	-0.083006516
80	0xbdc8b0ea	-0.09799369
81	0x3dda4176	0.10657017
82	0x3da20c67	0.07912522
83	0x3dbc05b4	0.09180775
84	0xbba36814	-0.0049867723
85	0xbbfb5756	-0.0076703234
86	0x3d5bc7e8	0.053657442
87	0xbe030c43	-0.12797646
88	0x3d9f3ffa	0.077758744
89	0x3da259db	0.07927295
90	0x3d403804	0.04692842
91	0xbe1e89d9	-0.15482272
92	0xbda6c45e	-0.08142923
93	0xbdcc9ef1	-0.09991253
94	0xbb03e3cd	-0.0020124794
95	0x3e803449	0.2503989
96	0xbdc0ab8c	-0.0940772
97	0x3d36e6e2	0.04465378
98	0xbdbce9e8	-0.092243016
99	0x3dd44158	0.10364026
100	0x3da834d8	0.08213204
101	0x3e28c7e8	0.16482508
102	0x3e3e49b0	0.18582797
103	0xbe1bfe69	-0.15233769
104	0xbd0774e5	-0.033070464
105	0x3d8838e1	0.06651474
106	0xbddfca35	-0.1092724
107	0x3bf138d8	0.0073615126
108	0x3c5b8693	0.013398784
109	0xbe495c7d	-0.19664188
110	0xbe4e7eec	-0.20165604
111	0x3dd92bb5	0.106040396
112	0x3bb5040f	0.0055241655
113	0x3d9ccd4c	0.07656345
114	0x3ddc4c06	0.10756688
115	0x3dab7c66	0.083733365
116	0x3b77926a	0.0037776479
117	0x3c8c6a4e	0.017140534
118	0x3e17775b	0.14791624
119	0x3e175094	0.14776832
120	0xbd799c0d	-0.060939837
121	0xbc79d3c2	-0.015248241
122	0x3d7c8ee8	0.061659724
123	0x3dbae546	0.09125762
124	0x3c3e94a6	0.01163212
125	0x3e6d1601	0.23152925
126	0x3df6a74b	0.12043627
127	0x3dd7a8dd	0.10530255
128	0x3e2bf152	0.16791275
129	0x3e5df78b	0.21676461
130	0xbd7e81cf	-0.062135514
131	0xbd90bae7	-0.07066899
132	0x3c6df6a8	0.014524139
133	0xbd8273f3	-0.06369772
134	0xbca29551	-0.01984659
135	0x3e888e56	0.26671094
136	0xbca658f7	-0.020306094
137	0xbd708562	-0.058720954
138	0x3e7b8367	0.24561845
139	0x3d47e240	0.048799753
140	0x3dc41a16	0.09575288
141	0x3e5bc1e7	0.21460687
142	0x3e419094	0.18902808
143	0x3e8f6cc0	0.28012657
144	0x3d72c509	0.05926994
145	0xbd04b960	-0.03240335
146	0x3e6734e2	0.22578767
147	0xbd9a6416	-0.07538621
148	0x3d078027	0.0330812
149	0x3e452816	0.19253573
150	0x3ce7da7b	0.028302422
151	0x3d9306bd	0.071790196
152	0x3de40af0	0.11134899
153	0x3d954640	0.0728879
154	0x3e9d82e0	0.30763912
155	0xbc2caff8	-0.010540001
156	0x3d7cb2c5	0.061693925
157	0x3e4373fa	0.1908721
158	0x3d565cb7	0.052334514
159	0x3d3d19db	0.046167236
160	0xbd11ab43	-0.03556372
161	0xbd7a6c0a	-0.06113819
162	0x3bbac3fc	0.0056996327
163	0x3de48ffe	0.11160277
164	0x3dd1661d	0.10224555
165	0x3c606aec	0.013697367
166	0x3d99fc8d	0.07518873
167	0x3ca69c18	0.020338103
168	0xbd93ba36	-0.07213251
169	0xbe236361	-0.15955879
170	0x3d3d90b1	0.046280567
171	0xbc490874	-0.012270082
172	0xbe5ed724	-0.21761757
173	0xbe6be2a1	-0.23035671
174	0xbc97d4cf	-0.018534092
175	0x3e8f967c	0.28044498
176	0xbdcab5f0	-0.09897983
177	0xbd11af84	-0.035567775
178	0x3e3a1b82	0.18174556
179	0xbda429ee	-0.0801581
180	0x3d968901	0.0735035
181	0x3cac8219	0.02105813
182	0xbd019466	-0.031635664
183	0x3e2f9c02	0.17149356
184	0x3daa51fc	0.083164185
185	0xbe06501a	-0.13116494
186	0x3d895656	0.067059204
187	0x3e1b063b	0.15139095
188	0xbdab6fd1	-0.08370937
189	0x3df867dc	0.121291846
190	0xbb856697	-0.0040710676
191	0x3d0e9bde	0.034816615
192	0x3dcee2b8	0.10101837
193	0xbdfe4c26	-0.12416868
194	0x3cfee1bf	0.031113504
195	0x3ed16730	0.40899038
196	0xbd910ced	-0.070825435
197	0x3c28a6b6	0.010293653
198	0x3d587b07	0.052851703
199	0xbce39407	-0.027780546
200	0x3d716668	0.058935553
201	0x3da1d77f	0.07902431
202	0xbe373bc5	-0.17893894
203	0x3dd00a20	0.10158181
204	0x3e07c04f	0.13256954
205	0xbd2b3556	-0.041798912
206	0x3e10f924	0.1415754
207	0x3e793b6d	0.24339075
208	0x3d000728	0.031256825
209	0xbda772aa	-0.08176167
210	0xbd6e920e	-0.058244757
211	0xbc554abd	-0.013018307
212	0x3e12c68b	0.1433355
213	0xbc9bdeac	-0.019027077
214	0x3e894e33	0.26817474
215	0xbdd02791	-0.10163797
216	0xbe36a891	-0.1783774
217	0xbd64f33f	-0.05589604
218	0x3e4ab714	0.19796401
219	0x3c512cd3	0.012767035
220	0xbcb60639	-0.022219764
221	0x3d17556c	0.0369467
222	0xbe67a618	-0.22621953
223	0x3e01fb5c	0.12693542
224	0x3e334f30	0.17510676
225	0xbdfe3ef9	-0.12414355
226	0x3deaff25	0.11474446
227	0x3d8b5c37	0.06804698
228	0x3d842760	0.06452823
229	0x3c8faea9	0.01753934
230	0x3e8bc48c	0.2729839
231	0xbd401b07	-0.046900775
232	0xbdb688ca	-0.08912809
233	0xbcfb3dea	-0.030669171
234	0x3d503628	0.050832897
235	0x3e9122c6	0.28346843
236	0xbd1e21e5	-0.038606543
237	0xbd83297c	-0.06404397
238	0xbe947557	-0.28995773
239	0xbc337d53	-0.010955173
240	0x3da89a3c	0.08232543
241	0x3cf877a5	0.030330488
242	0xbd0a94b4	-0.03383322
243	0xbe016f02	-0.12640002
244	0x3d957c04	0.07299045
245	0x3e671dce	0.22569963
246	0x3dc74837	0.09730571
247	0x3e613342	0.2199221
248	0xbddd33d6	-0.108009025
249	0xbe0c56ba	-0.13704959
250	0xbcbd8336	-0.023133855
251	0x3e2b5c93	0.16734533
252	0x3de2542b	0.1105121
253	0xbdfb4fdf	-0.122710936
254	0x3d5f758a	0.054555453
255	0x3d21fc1c	0.03954707

model.model.4.bias f4 [128]
0	0xbe8dcd53	-0.27695712
1	0xbe9cdf16	-0.3063895
2	0xbf0a1747	-0.5394177
3	0xbe4536f8	-0.1925925
4	0xbefcdadf	-0.49385735
5	0xbea0ec12	-0.31430107
6	0xbf23cfb6	-0.63988817
7	0xbf198d0b	-0.5998084
8	0xbe1bef85	-0.15228088
9	0xbefc6c7b	-0.49301514
10	0xbeeacea1	-0.4586077
11	0xbf164bff	-0.5870971
12	0x3cff6a4d	0.031178618
13	0xbe817e09	-0.2529147
14	0xbe56107f	-0.2090473
15	0xbebb88eb	-0.36627898
16	0xbeb51e35	-0.3537461
17	0xbeee673a	-0.4656313
18	0xbe8f7498	-0.2801864
19	0xbeb69e6d	-0.35667744
20	0xbedeab10	-0.43489885
21	0xbe80956c	-0.25114
22	0xbe786b6a	-0.24259725
23	0xbee60e92	-0.4493299
24	0xbe92c6a5	-0.2866718
25	0xbf21c45f	-0.63190264
26	0xbf1e54f7	-0.61848396
27	0x3e8af85f	0.27142617
28	0xbe3b9428	-0.18318236
29	0xbed36c19	-0.4129341
30	0xbea9d800	-0.33172607
31	0xbe194db2	-0.14971045
32	0xbeb54131	-0.354013
33	0xbf11734e	-0.56816566
34	0xbedb62b0	-0.4284873
35	0xbf0696ac	-0.5257366
36	0xbe2a52c4	-0.16633135
37	0xbed056d8	-0.40691257
38	0xbe63cbda	-0.22245732
39	0xbea5951d	-0.32340327
40	0xbedc3e28	-0.4301617
41	0xbf5d857f	-0.86531824
42	0xbec7c8f3	-0.390205
43	0xbec1bcab	-0.37839255
44	0xbe2681e3	-0.16260485
45	0xbe45d3c3	-0.19319062
46	0xbe63c3d1	-0.22242667
47	0xbea784e5	-0.32718578
48	0xbf2bc3b5	-0.670955
49	0xbed25597	-0.41080925
50	0xbf00af42	-0.5026742
51	0xbdd35d1b	-0.10320493
52	0xbe76c6f2	-0.24099329
53	0xbef6b020	-0.48181248
54	0xbe251a01	-0.16123201
55	0xbeea495c	-0.45759094
56	0xbe60f87b	-0.21969788
57	0xbef9649f	-0.4870958
58	0xbe45e0f0	-0.19324088
59	0xbea27873	-0.3173252
60	0xbdae5abb	-0.08513399
61	0xbeb58a61	-0.35457137
62	0xbe94c431	-0.29055932
63	0xbe99dbca	-0.30050498
64	0xbe899f02	-0.26879126
65	0xbe994fad	-0.299436
66	0xbebc79ee	-0.36811775
67	0xbeb2eee3	-0.3494788
68	0xbe68de75	-0.2274111
69	0xbec41e54	-0.3830439
70	0xbeb3d50e	-0.35123485
71	0xbebd5757	-0.36980698
72	0xbeb4ceb7	-0.3531396
73	0xbefd43ca	-0.4946578
74	0x3e1fee64	0.15618283
75	0xbeb094dd	-0.34488574
76	0xbeaf0e01	-0.34190372
77	0xbeea5712	-0.45769554
78	0xbf0c6f75	-0.5485757
79	0xbe9f7ae4	-0.31148446
80	0xbe91b74b	-0.28460154
81	0xbe8fac9e	-0.28061384
82	0xbe47e719	-0.1952175
83	0xbe4a0d5f	-0.19731663
84	0xbec52c9b	-0.38510594
85	0xbed76b01	-0.42073825
86	0xbeaabb3b	-0.3334597
87	0xbe4c3747	-0.19942962
88	0xbde17b32	-0.11009826
89	0xbef935c7	-0.4867384
90	0xbea1936b	-0.31557783
91	0xbdea0a09	-0.11427695
92	0xbed8e6b3	-0.4236351
93	0xbecec91c	-0.4038781
94	0xbe706ecf	-0.2347977
95	0xbe498695	-0.19680245
96	0xbea45e12	-0.3210302
97	0xbe9947d7	-0.29937622
98	0xbf167ad1	-0.5878115
99	0xbeacf210	-0.3377843
100	0xbef5eb3f	-0.4803104
101	0xbdf7bd44	-0.120966464
102	0xbde3fe73	-0.11132517
103	0xbe6a40f5	-0.22876342
104	0xbe98baee	-0.29830116
105	0xbec79dfc	-0.3898772
106	0xbe7cda5b	-0.24692671
107	0xbecc0eca	-0.39855033
108	0xbeed4ab4	-0.46346056
109	0xbe700cc6	-0.23442373
110	0xbf08da85	-0.53458434
111	0xbe49cfb1	-0.19708134
112	0xbed36af0	-0.41292524
113	0xbe44c56c	-0.19215935
114	0xbe89bafc	-0.2690047
115	0xbe4f2537	-0.2022904
116	0xbeb898e9	-0.3605416
117	0xbed700ce	-0.419928
118	0xbea834fb	-0.3285292
119	0xbe85d932	-0.2614227
120	0xbe7a0ee7	-0.24419747
121	0xbe47c90f	-0.19510292
122	0xbe71e8f9	-0.23624028
123	0xbe741cbb	-0.23839085
124	0xbd11c891	-0.035591666
125	0xbe852631	-0.260057
126	0xbeb4e996	-0.35334462
127	0xbe8a1b00	-0.26973724
