globalcaffesyntetic/checkpoints_SleepQuality/bodyP-epoch=15-val_loss=0.04.ckpt (torch, 228412 bytes, 68 tensors)

model.fc.0.weight f4 [128, 40]
000000 02 f4 00 be 96 a2 ba 3d 75 c2 0c be 07 f3 29 be
       -0.12593082 0.09113042 -0.13746054 -0.16596614
000010 d9 2e bb bb e7 44 a0 3b e0 d8 11 3d c7 a4 4b 3d
       -0.005712372 0.0048910263 0.03560722 0.04971769
000020 9d 66 22 3d 84 fd 56 bb 22 7c cc bc 64 4a 18 bd
       0.03964864 -0.0032804916 -0.024961535 -0.03718032
000030 de cc 83 3d 0e 7e 34 bc 39 60 7b 3d b8 ab bf bc
       0.0643556 -0.011016382 0.061371062 -0.023397312
000040 8f 70 86 bc f9 f2 72 3c 20 be f9 3c 50 7b a6 bd
       -0.016411094 0.014828437 0.030486166 -0.08128989
000050 0d 6f 5c bd dc c5 44 3d 9a 85 64 bb 3e 99 1d 3d
       -0.053816844 0.048040256 -0.0034869672 0.03847622
000060 47 ce 1d bd 07 d8 41 bd f1 ed 2e 3d 2f ce 45 bc
       -0.0385268 -0.04732516 0.042707387 -0.012073084
000070 96 e6 ef b9 c6 3b 6c be 52 05 04 be dd d9 8f 3d
       -0.00045757432 -0.23069677 -0.12892655 0.07023976
000080 90 d8 b9 3e a0 39 d9 be 01 76 e5 3c 30 ae d6 bd
       0.36298037 -0.42426777 0.02801037 -0.104824424
000090 be 12 a1 bd 58 af 6c bd e6 b4 72 3c fd 1a 7d 3d
       -0.07864903 -0.05778441 0.014813637 0.061793316
0000a0 4f 3e 60 3d 14 45 0e bd 72 bf 93 3c 1f 03 02 be
       0.054746922 -0.034733847 0.018035624 -0.12696503
0000b0 af cc 01 3e 7a f3 92 3d d5 03 45 be 4f ef 7a bd
       0.12675737 0.07175346 -0.19239743 -0.06126338
0000c0 7b 6b d0 bd f8 3f c1 bc dc a3 d4 bd ab d0 9d 3c
       -0.1017675 -0.023590073 -0.10382816 0.01926454
0000d0 08 e7 44 bd c3 d8 4f 3d 11 4e fc 3d c1 bb 24 bc
       -0.04807189 0.05074383 0.123195775 -0.01005453
0000e0 14 44 28 3d d7 ce e8 bd c6 9f 2c 3e 99 fd c8 3b
       0.04108055 -0.113675766 0.16857824 0.006133747
0000f0 96 fa 8d 3c ec 49 c0 3d a2 37 35 3d f2 53 0c be
       0.017331403 0.093890995 0.04424251 -0.13703898
000100 32 09 6b bc b6 7f ef bd df 87 5e 3d 65 16 55 be
       -0.014345454 -0.11694281 0.054328796 -0.20809324
000110 61 6f 29 3e 50 32 ca 3d 6b ba 47 bd 80 db 0a be
       0.16546394 0.098728776 -0.048761766 -0.13560295
000120 3e e5 20 3e 17 df c8 bd 5d b2 af bc 8a a3 e9 3d
       0.15712449 -0.09808176 -0.021447355 0.11408146
000130 f2 67 26 be 9f 09 98 bc 94 d8 b4 bd 07 de 4e be
       -0.1625059 -0.018559275 -0.088303715 -0.20201884
000140 3e 75 79 3c c4 0c a0 3d d8 70 d8 bc 5d 3d 25 be
       0.015225707 0.07814935 -0.026420996 -0.1613669
000150 f9 94 9f 3d c1 b6 7c bd 08 27 52 bc 86 43 95 bd
       0.07792086 -0.061697725 -0.012826689 -0.0728827
000160 ef 67 ab bc 41 ac 10 3e 54 83 2b be 9f c5 02 bd
       -0.020923583 0.1412821 -0.16749316 -0.031926747
000170 b8 09 da bd 87 06 0e be 3d 2f 28 3d 96 75 be bd
       -0.10646385 -0.13869677 0.041060675 -0.092997715
000180 f8 28 df bd 6e 77 5b bd 3c 68 04 3e 47 c6 f3 bd
       -0.10896486 -0.053580694 0.12930387 -0.11903053
000190 51 65 e5 bd f8 70 3c be d0 7a a9 bd 6f fe 99 bd
       -0.11200965 -0.18402469 -0.08275378 -0.075192325
0001a0 8a 33 12 be 5d c2 71 bd b1 a6 5b 3d ad c1 ec 3d
       -0.14277473 -0.05902325 0.053625766 0.11560378
0001b0 14 a2 d5 bc 34 83 ea bd d9 a9 c0 3c df 0d 0e 3d
       -0.026078261 -0.11450806 0.02351849 0.034681197
0001c0 fd b2 c8 be 67 9a 8d 3e cf 29 dc bd e3 3f 1c 3e
       -0.39199057 0.27656862 -0.10750162 0.15258746
0001d0 be ce 9f bc 25 58 18 3d 18 e2 aa bd 54 ae 2a be
       -0.019507762 0.037193436 -0.08343905 -0.16668063
0001e0 d5 4f 6a 3d 78 9f 87 3c 8b 96 52 3b f7 bd 21 be
       0.05720504 0.016555533 0.0032133188 -0.15795122
0001f0 dc 68 ca 3c 52 e4 69 bd f4 21 f6 bc ad 6a 94 3d
       0.024708204 -0.05710251 -0.030045487 0.07246909
000200 a1 19 d1 3c 0e 8f f8 3d 86 fd 9d 3d 57 eb e5 3d
       0.025524916 0.121366605 0.077143714 0.11226528
000210 e3 70 e5 3b 2a 11 7d bd 75 63 e7 bc 47 ae f7 bc
       0.0070019825 -0.061783947 -0.028245667 -0.03023447
000220 8c 10 b9 3d 3c 38 7a 3b 46 15 06 3d 96 35 46 3d
       0.09036359 0.003818049 0.03273513 0.048390947
000230 c6 95 1a be 9c 80 a0 bd db e7 3d 3c 6a 3d 51 3d
       -0.15096197 -0.0783703 0.011590923 0.05108396
000240 88 41 3c be 19 7e 6e 3b a8 ad c5 3d af c9 31 bd
       -0.18384373 0.0036391078 0.09652263 -0.04340523
000250 83 b8 ce 3d 10 3e 4c 3c b9 3e 0e bd a0 c5 f7 3c
       0.100937866 0.012465969 -0.034727786 0.030245602
000260 99 26 ae be 45 93 98 3e 7f 51 69 be b2 83 9b 3d
       -0.34013823 0.29799858 -0.22784995 0.07593478
000270 fd 7f c4 bc 8a 7a a1 3c 71 8f 9d 3d 56 45 58 bc
       -0.02398681 0.019711751 0.07693375 -0.013200125
000280 62 98 b5 bc 9b 94 b5 bd be 61 ff ba d6 0a 50 bd
       -0.022167388 -0.08866235 -0.0019484085 -0.050791584
000290 8f 62 5c bc ce c4 35 bc d6 db 07 bd d9 6b f1 bc
       -0.013451233 -0.011094285 -0.033168636 -0.029470371
0002a0 b9 d5 bb 3d c6 86 7f bd 28 17 b1 bc b2 3b ae bc
       0.09171624 -0.06238439 -0.021617487 -0.0212687
0002b0 7f cf 62 3d 28 a7 41 be 19 03 21 be 77 9d 6b bd
       0.055373665 -0.18911421 -0.15723838 -0.057523217
0002c0 9e 7a fe bd 64 aa c4 bc 7f 9b 6e bd df 2c ce 3c
       -0.12425731 -0.02400703 -0.05825376 0.02516788
0002d0 8d a9 58 bd 9e b0 35 3d 91 85 92 bc 8f ba ce 3d
       -0.05289607 0.04435789 -0.017885955 0.10094177
0002e0 c8 32 f2 bd bf 8a 66 bd 07 78 b9 bd c3 1b a9 3c
       -0.11826092 -0.056284662 -0.090560965 0.02064312
0002f0 6d 77 83 3d b4 19 cb 3d bf 29 96 3d 2e f1 93 3c
       0.06419263 0.09917012 0.07332181 0.01805934
000300 77 b3 ba be 4d 77 6c 3d fb 9b 63 3e 6a 1b d7 bd
       -0.36465046 0.05773096 0.2222747 -0.10503276
000310 01 a3 2f bd 7c 16 1c bd 2c 02 c1 3d 3c 19 a6 bd
       -0.042880062 -0.03810738 0.094242424 -0.08110282
000320 ce 7e f7 3c b1 c4 56 3d 92 dc e9 bc 69 73 a8 bc
       0.030211832 0.052433673 -0.028547559 -0.020562844
000330 64 36 df 3c 35 14 a1 bc 19 e3 ff 3c a8 60 12 3c
       0.027247615 -0.019662956 0.031236218 0.008934177
000340 c1 cf 59 3d d8 82 c7 3d ce 3e 31 3d 77 28 ad 3d
       0.053176645 0.09741753 0.043272786 0.08454984
000350 b0 28 21 be b5 fb b6 bd 09 d1 d4 3d 7f 32 0c be
       -0.15738177 -0.08934728 0.10391433 -0.13691138
000360 b3 a7 7d 3d 81 81 a1 3a 96 8c 24 3d d7 87 80 3b
       0.06192751 0.001232192 0.040173136 0.0039224434
000370 34 14 5b bc 16 05 2d be 95 98 0f bd 72 9a 02 3e
       -0.013371516 -0.16896471 -0.035057623 0.12754229
000380 b3 e4 3e be 8f 86 cd bd e5 ce 2a be 78 65 1e bd
       -0.1864193 -0.10035431 -0.16680487 -0.038670987
000390 cb a9 ed 3d 9a 9a b3 3d f2 04 a7 bd ba 00 c7 bd
       0.11604651 0.08769722 -0.0815524 -0.097169355
0003a0 b6 06 c8 3e fc a7 a7 bc 78 13 b8 be b6 06 c5 3b
       0.3906762 -0.020465843 -0.35952353 0.006012763
0003b0 87 73 00 bd bd 77 30 3d b0 a4 4c 3d 6d 35 9c bb
       -0.031360175 0.04308294 0.049961746 -0.004767111
0003c0 ad c3 3c 3b b8 66 d3 3d cd 9f 55 bd 18 08 89 bb
       0.0028803155 0.103223264 -0.05215435 -0.004181873
0003d0 bc dc 1c 3d e9 06 7d 3d a5 26 e9 bd 63 c2 6c bd
       0.038296446 0.06177417 -0.11384324 -0.05780257
0003e0 87 63 67 3d 57 07 b2 3c f5 fb 2a bd 5a 7b 1b 3e
       0.0564914 0.021732016 -0.04174419 0.15183774
0003f0 b5 1d 84 bc bd 2d 4d bd 4f 8f 93 bd 6a dd 14 bd
       -0.016127447 -0.050092448 -0.07205068 -0.03634397

model.fc.0.bias f4 [128]
000000 4e f8 0e be 2c 83 0b be cc 39 44 3d 40 a0 c6 bd
       -0.13961908 -0.13624257 0.047906682 -0.09698534
000010 58 2a eb bd 26 3a 89 bd 5d 56 a5 bd 4e 3d 35 be
       -0.11482686 -0.06700544 -0.08073113 -0.17699167
000020 88 cc bf bd be a9 f5 bd c2 c0 f0 bd 12 aa 27 bd
       -0.09365183 -0.119952664 -0.11755516 -0.040933676
000030 ae fc 38 bd f9 b6 67 be b8 30 58 be 11 41 4a 3c
       -0.04516285 -0.22628392 -0.21112335 0.012344615
000040 59 d5 68 be 71 58 17 bd 16 26 bd bd d6 44 be bc
       -0.22737636 -0.03694958 -0.0923578 -0.023226183
000050 8f f6 72 bd 63 c6 f1 3c 80 18 57 be 39 84 5e be
       -0.059317168 0.029513543 -0.2100544 -0.21730126
000060 11 46 43 3e 37 7c 8c 3c 0d 7a b9 bd 7f 5d 88 be
       0.19069697 0.017149074 -0.090564825 -0.26633832
000070 27 53 05 bd db e7 d8 bc 64 35 9d bd 7e 79 8a be
       -0.032550003 -0.026477745 -0.07676199 -0.27045816
000080 ad c6 0a be 94 e4 e8 3d b0 2e 4b 3c 19 42 19 be
       -0.13552351 0.11371723 0.012401268 -0.1496662
000090 5a d5 0c be 05 e5 2d bd 3f 00 77 bd 9f f2 45 3d
       -0.13753262 -0.04245474 -0.06030297 0.048327085
0000a0 f9 bd ca 3c 9d fc da bd dc 63 8b 3c 5f 87 40 3c
       0.02474879 -0.106927134 0.01701539 0.011751025
0000b0 4a 3c 4e be 81 0c 40 bd 17 27 94 3d 6c fe e0 3d
       -0.20140186 -0.046886925 0.07234018 0.10986027
0000c0 48 12 03 be 1e a5 16 bd 89 e1 e5 bd da f8 d9 bd
       -0.12799942 -0.03677856 -0.11224658 -0.10643168
0000d0 56 43 a5 3d 55 da b3 3d 00 00 ee bc 97 dd 76 be
       0.08069484 0.08781878 -0.029052734 -0.24107967
0000e0 9c 81 01 be 5d 4f 0c be 3b 56 08 be 22 ba 16 be
       -0.12647098 -0.1370215 -0.13314144 -0.14719442
0000f0 dd 5a f2 bd e7 f1 9f bd c1 bd f7 bd af 8b e2 bc
       -0.11833737 -0.07809811 -0.120967396 -0.027654497
000100 48 cb e3 bd 74 ef fd bb cf 35 11 bd 4f 8c af bd
       -0.11122757 -0.0077494923 -0.035451706 -0.085716836
000110 b6 91 59 be 9a a7 98 be 44 d8 b7 3d 9a 21 48 bd
       -0.2124699 -0.2981537 0.08976796 -0.04886017
000120 53 b8 b3 3c 0d c0 ff 3d 50 60 85 bd 4f 2b eb 3d
       0.021938479 0.12487803 -0.06512511 0.1148287
000130 d7 d0 c2 bd e7 aa 95 be de 05 b7 bd 3a 7c b6 bd
       -0.09512489 -0.2923195 -0.08936666 -0.08910413
000140 51 ce 45 3d 04 ff e4 bd 95 b2 94 3c ec 6c 80 bd
       0.04829246 -0.11181453 0.01815156 -0.06270775
000150 f0 9c 8e 3d 18 7b 40 3d 87 ce 7b 3d 0a ca ee bd
       0.06963527 0.04699239 0.061476257 -0.1165963
000160 53 7b 34 be cb 62 a8 bc 14 65 5d be 2a f0 c5 bc
       -0.1762517 -0.02055492 -0.2162059 -0.02416237
000170 32 08 2b be 69 76 0b 3e e6 95 e4 3d a1 5c ad bd
       -0.16702345 0.13619389 0.11161403 -0.08464933
000180 07 4d f3 bd 6c 7a 5d be 55 ec 74 3d af 2e b4 3c
       -0.11879926 -0.21628731 0.059795696 0.021994917
000190 38 28 e5 bd d5 23 a0 3d 8a 10 08 be 74 e8 28 ba
       -0.11189312 0.078193344 -0.13287559 -0.00064433296
0001a0 f8 ee 31 be 7d c6 62 be 82 11 9f bb be 66 fa 3c
       -0.17376316 -0.2214603 -0.004854382 0.03056657
0001b0 aa e5 13 be e1 41 a0 be d9 b6 61 be 24 3b 56 be
       -0.14443079 -0.31300262 -0.22042407 -0.20920998
0001c0 30 41 fc bd 41 6e 28 bb 7c 14 1f be e1 fe 1c 3d
       -0.12317121 -0.0025700482 -0.15535158 0.03832901
0001d0 d8 7c df bd bf 95 73 3d b3 75 e6 bd 5f 8c 9e bc
       -0.10912484 0.05946898 -0.11252918 -0.019354044
0001e0 26 1a 34 be 60 6c 5a 3a cb bb ae bc 14 18 fa 3d
       -0.175881 0.0008332189 -0.021329781 0.12211624
0001f0 2e 64 c0 bc 1a 79 31 be 95 88 46 be a8 67 87 3d
       -0.02348527 -0.17331353 -0.1938804 0.06611568

model.fc.2.weight f4 [64, 128]
000000 05 d0 b3 bc e3 51 9a 3d 75 a6 b9 bd fa a6 cc bd
       -0.021949777 0.0753515 -0.09064952 -0.09992786
000010 c9 40 2f bd 0c dc f3 3d bc 0e 69 bd 76 2b 7e 3c
       -0.042786393 0.11907205 -0.056898817 0.015513292
000020 76 b8 2e 3d ae c5 97 3c a7 ac 9b bd 8c 64 13 3d
       0.042656384 0.018526878 -0.0760129 0.03598456
000030 0b 27 dd bc 67 b4 f9 bc 06 13 59 bd 37 c4 eb 3d
       -0.026996156 -0.03048153 -0.052996658 0.115120344
000040 00 e9 a4 bd 86 1f 04 3a eb 97 44 3c 01 ee cd bd
       -0.08052254 0.0005040098 0.011999111 -0.10055161
000050 28 28 76 3d 20 2b 03 be 96 65 9b bd 72 af 08 be
       0.06009689 -0.1280942 -0.07587735 -0.13348177
000060 6f 88 b4 bc 6c 1d 1b 3d 44 b3 69 3a aa 72 f9 bc
       -0.022037713 0.037869856 0.0008914957 -0.030450184
000070 b2 f6 8f 3c 67 e4 0d bd 7f 59 a9 bd fc b3 a9 3c
       0.017573688 -0.03464165 -0.08269023 0.020715706
000080 7f bc 13 3d b3 c5 5d bc 3c 10 28 bc a4 44 9f 3d
       0.036068436 -0.013535905 -0.010257777 0.07776764
000090 cb c7 93 bd bd ff 32 bc 76 44 c1 3d 8c a2 ff 3c
       -0.07215842 -0.010925231 0.09436886 0.031205438
0000a0 30 31 8a bd 00 38 bb 3d a4 ca 88 3d f9 fb 77 bd
       -0.06747663 0.091415405 0.06679276 -0.060543034
0000b0 15 1b 96 3b 97 c5 b7 3b c4 bc 1b bd 75 39 b3 3d
       0.004580865 0.0056082713 -0.038021818 0.087511934
0000c0 ce 06 01 be 20 eb 80 bc c6 30 98 bc 02 8a 9d 3d
       -0.12600252 -0.015737116 -0.018577944 0.076923385
0000d0 5b e3 b6 bd 21 2b b1 bc 71 da 84 3c 7e b9 d1 bd
       -0.08930083 -0.02162701 0.016217442 -0.10240458
0000e0 e5 b0 f6 bc be f9 92 b8 0b 01 c0 bc ae 9b 72 bc
       -0.030113647 -7.0083406e-05 -0.023437997 -0.014807625
0000f0 6e 16 a2 bd 35 6a c3 bc ae 35 ab 3d 69 4a 7d 3c
       -0.079144344 -0.023854354 0.08359848 0.015459635
000100 df ac 5d 3d 86 bd ea bd b4 6d 64 3c 64 a5 08 bc
       0.05411994 -0.1146193 0.013942171 -0.008340213
000110 10 4e 33 3d ac 09 79 3c 51 91 08 bd df 8a a7 3d
       0.043775618 0.01520006 -0.03334171 0.081807844
000120 45 14 3e bd ec 8c 63 3d c4 98 2e bc 16 5d aa 3b
       -0.04640605 0.055554315 -0.010656539 0.005199085
000130 e1 34 c3 3d 25 02 88 bd 4c 2d 18 ba 1e 26 88 3d
       0.0953157 -0.06641034 -0.00058050896 0.06647895
000140 4c cc 1d bd 5e b8 59 bd e2 4e 26 3e d8 35 e0 bc
       -0.03852491 -0.053154342 0.16241029 -0.027369425
000150 da f2 98 bc cd 28 a3 bd 2a 00 ec bd 00 b7 88 3d
       -0.018670488 -0.079667665 -0.11523469 0.066755295
000160 25 18 be bd f2 c9 51 bc 15 6b 73 bd d4 75 8d 3d
       -0.09281949 -0.012804495 -0.059428293 0.069072396
000170 52 e7 12 3b 43 b9 9d bd 94 42 ad 3d cd 67 3b bc
       0.002241571 -0.077013515 0.084599644 -0.011438322
000180 9d 28 12 3e c1 e8 2c 3d b4 fe a3 3d 03 70 3a bd
       0.14273305 0.04221416 0.08007565 -0.04551698
000190 6a c5 80 3d 70 48 b9 bc c8 30 dd bd de 7c 14 3e
       0.06287654 -0.022617549 -0.1080032 0.14500758
0001a0 8c c1 8f bb 6a 26 80 bd be 38 06 bd b1 09 43 3d
       -0.0043870863 -0.06257327 -0.032768957 0.047616664
0001b0 ed bd 54 bd ab 63 b0 3c ac 3d c2 3d bc 82 23 bd
       -0.05193894 0.0215319 0.09484419 -0.0399196
0001c0 eb da 8e bd b1 97 f1 bd 76 06 3a 3d e1 17 16 bd
       -0.06975349 -0.11796511 0.045416318 -0.036643866
0001d0 45 3a 99 3d 4a 7d 62 3d f3 14 be 3c d2 45 c0 3c
       0.07481817 0.055295266 0.023203349 0.023470793
0001e0 a2 dd 09 3b 22 6d 19 3b f1 ff ae bc b5 06 fe 3c
       0.0021036644 0.0023410995 -0.021362277 0.031009058
0001f0 eb b5 dd bc dc 69 6a bc 6d 6c 1b be 70 0e a6 3c
       -0.027064284 -0.014307465 -0.1517808 0.020270556
000200 e0 bb 69 bd cb 69 c3 3d 75 ad 2b 3c 25 dd 3e bc
       -0.057063937 0.09541663 0.010478367 -0.011649405
000210 76 27 b7 3d 41 77 8d bd 2c 45 81 bd 9d 2e 4b bd
       0.089430735 -0.069075115 -0.063120216 -0.049605
000220 94 3b c8 bc e4 0a a5 3c 61 01 43 3d 7d 99 70 bd
       -0.024442472 0.020146795 0.047608737 -0.058740128
000230 98 e9 a7 3d 67 d4 ec bd f5 7b 80 bd 5c 44 e5 3c
       0.08198851 -0.1156395 -0.06273643 0.027986698
000240 12 e1 e7 b9 6d 13 6f bd 99 78 d0 bc bb 11 3a ba
       -0.00044227444 -0.058368135 -0.02544813 -0.0007097979
000250 71 35 c9 bd f5 67 c5 3d af 11 06 3d cf c3 66 3c
       -0.09824646 0.09638969 0.03273171 0.01408477
000260 1c ae fa bd 3a fb 36 3d c2 2e 4e bd d4 f3 4e 3c
       -0.1224024 0.044673182 -0.05033756 0.012631375
000270 8c fa 76 bc 81 fe 4f 3a 2a f0 d7 bd ca bc 03 3c
       -0.0150743835 0.00079343474 -0.105438545 0.008040616
000280 bd bf f7 bd ec 48 4b bb 77 69 2e 3e 98 c5 70 bc
       -0.12097118 -0.0031018807 0.17032419 -0.0146955475
000290 8f ee b9 bb a7 46 88 3c b8 6c bd bd cc be b8 bc
       -0.0056741904 0.016635252 -0.09249252 -0.022551917
0002a0 37 74 b6 3c 21 9a ea 3c 63 c3 83 3c f3 7f 30 3e
       0.022272212 0.028637948 0.016084379 0.17236309
0002b0 97 cd d7 3d 65 e5 0d 3d 84 9f 90 ba 09 09 8a bd
       0.1053726 0.034642596 -0.0011033867 -0.067400046
0002c0 3f af 90 3d 51 c1 7e bd c0 a0 4a 3d 85 9a 02 bd
       0.070646755 -0.06219608 0.04946971 -0.031885643
0002d0 0a 71 ba 3c cd df ff bb 7b cf e6 3d 15 11 19 bb
       0.02275898 -0.0078086616 0.112700425 -0.002335613
0002e0 3f bc 97 3c 3c 8b 8a 3d 2c 94 b9 bd 78 09 d9 bc
       0.01852238 0.06764838 -0.09061465 -0.026493773
0002f0 49 72 5d ba ea 25 03 bc 66 4f 9c bd d2 ec 9c 3d
       -0.0008447511 -0.008004645 -0.076323316 0.076623574
000300 33 9e 09 3d d4 9a 96 3d 61 52 c7 3d 28 fc cc 3d
       0.033598136 0.0735375 0.097325094 0.100090325
000310 66 7c b5 3d 62 26 4b 3d 15 c8 db 3c c3 32 af bd
       0.08861618 0.04959715 0.026828805 -0.08554604
000320 ef 60 bb bd 85 99 59 bc d9 29 06 3d f4 ef b2 bd
       -0.09149348 -0.013281231 0.032754753 -0.08737174
000330 46 27 ad bd a1 5f a8 3d d9 e5 8d bd db 7b 82 bd
       -0.084547564 0.08221365 -0.069286056 -0.0637128
000340 b3 7e 99 bd 35 69 fc 3d 82 1e 07 be 95 b6 30 bd
       -0.07494869 0.12324754 -0.13195232 -0.043142874
000350 a5 1e ff bc 60 fd 74 bd e6 ff 2e 3d 21 f2 80 3c
       -0.031142542 -0.05981195 0.042724513 0.015740456
000360 f2 2f df bb ab 67 bc bc 27 c4 7b 3d 0b ca 6b bd
       -0.0068111354 -0.022998651 0.061466362 -0.05756573
000370 57 e1 62 bd b6 23 ce 3b 2f bf 00 be 5e fb 8a bb
       -0.055390682 0.006290878 -0.12572931 -0.004241391
000380 eb 85 d0 3d ee f3 ba bd 63 b9 9c bb ef 16 f1 3d
       0.10181793 -0.09128557 -0.004782842 0.11771952
000390 ef 5a 4a 3b 16 bf d2 3b 32 a8 38 3d 5a 1b 66 bd
       0.0030876955 0.0064314706 0.04508228 -0.05617843
0003a0 b9 c0 9e 3c c7 af 1b 3c fa 18 47 bd 6a d6 af bb
       0.019379007 0.009502358 -0.048607804 -0.0053661363
0003b0 ab 12 28 bc 31 ab 53 3b 42 0e b8 bd f2 53 dd 3c
       -0.010258357 0.0032298083 -0.089870945 0.027017567
0003c0 26 cf a0 bd 02 3c 24 3c 59 22 1c 3d d8 86 46 3c
       -0.078520104 0.010024073 0.038118694 0.01211711
0003d0 ad ba 7b bd 72 dd 1e bc 2a ee dd 3d ea 6b d9 bd
       -0.061457325 -0.009696351 0.10836442 -0.10616286
0003e0 a3 cf 8a bb 76 c0 2c 3d f0 6c 8b bd 18 60 88 bd
       -0.004236178 0.042175733 -0.068078876 -0.066589534
0003f0 38 79 c6 bb 4e 5a 2e 3d 7d 0b 8a bd 57 f9 c4 bc
       -0.006056931 0.04256659 -0.067404725 -0.024044676

model.fc.2.bias f4 [64]
000000 5d 87 75 3d 4b 2e 05 bd 4f 28 93 bd b1 54 12 3c
       0.059943546 -0.03251485 -0.07185423 0.008931325
000010 db 07 26 3d 8a 51 b7 bc b7 d7 56 3d 92 32 4f bd
       0.040534835 -0.022377748 0.052451815 -0.050585337
000020 73 85 80 3d cd da 04 bb a6 95 bd bd ef bf e6 3c
       0.062754534 -0.0020272017 -0.09257059 0.028167693
000030 c5 24 ae 3d d2 85 52 3d a3 65 b3 bc 27 0f 11 3d
       0.08503107 0.051397152 -0.02189905 0.03541484
000040 13 45 51 3d 8c 88 b8 3a 75 c2 36 bd 38 06 21 bd
       0.051091265 0.001407878 -0.044619042 -0.03931257
000050 b9 1a da bb 39 dc 8f 3d 73 11 e8 3a 2a 1c 51 bd
       -0.0066560176 0.07024426 0.0017705396 -0.05105225
000060 1d 8e b9 bd 9d e6 9e bd 02 e0 53 bc e6 e8 a9 3c
       -0.09060309 -0.0775883 -0.012931826 0.020740937
000070 0d 79 11 3d 0e 98 0f bc ea 12 5c 3d a2 cc ba bc
       0.035515834 -0.00876428 0.053728975 -0.022802655
000080 00 4a a4 3d 7b f9 97 3d ce 88 71 3d 03 5a 59 3c
       0.08021927 0.074206315 0.058968358 0.013266089
000090 61 e8 20 3c ee 83 c3 3d 16 6b a0 3d f9 46 3b 3d
       0.009821028 0.09546648 0.07832925 0.04572198
0000a0 d1 8f b5 bd 56 45 90 3d fc 0d 79 bc ba 0d f8 bc
       -0.088653214 0.07044475 -0.015201088 -0.030279983
0000b0 4b e2 22 3b 05 ff 07 bd 65 61 ae 3d 7c 5a 1e bd
       0.002485412 -0.03320219 0.0851467 -0.03866051
0000c0 11 a6 a2 3d 61 1c 4d 3d 48 1f 37 3d f7 a9 8c 3c
       0.07941831 0.050075892 0.044707566 0.01717089
0000d0 a6 23 8d bc b6 f9 c1 3c 3a 82 47 3d 46 7b 77 3d
       -0.017228913 0.023678642 0.048708178 0.060420297
0000e0 7d 8d 15 3c 13 95 c7 bc e0 63 9b bb 8b d8 68 3d
       0.009127972 -0.024363076 -0.0047421306 0.056847136
0000f0 9c 42 61 3d a7 b3 b2 bd a0 fe 8a 3d 66 25 22 3d
       0.054995164 -0.08725672 0.06786847 0.039586447

model.fc.3.weight f4 [64]
000000 f7 32 73 3f d7 0a 70 3f 19 29 6d 3f 51 89 84 3f
       0.9499964 0.9376654 0.92640835 1.0354406
000010 d6 6b 86 3f 19 6d 7d 3f bf 5b 79 3f 31 8d 5d 3f
       1.0501659 0.98994595 0.9740562 0.86543566
000020 3d 3a 81 3f 72 32 63 3f 02 ac 6d 3f 18 f8 6f 3f
       1.0095898 0.8874885 0.9284059 0.93737936
000030 b1 ec 82 3f a1 13 75 3f 34 bf 6f 3f 27 d3 5f 3f
       1.0228482 0.95733076 0.9365113 0.8743157
000040 9d 27 65 3f 64 e2 85 3f 29 e4 86 3f 45 99 5d 3f
       0.8951357 1.0459714 1.0538379 0.86561996
000050 40 40 8d 3f 66 78 6f 3f 35 18 85 3f 7c c8 80 3f
       1.1035233 0.9354309 1.0398012 1.0061183
000060 6d 49 5f 3f 65 65 75 3f 0f 94 5b 3f 49 8a 7a 3f
       0.87221414 0.9585784 0.85772794 0.97867256
000070 63 c3 68 3f 3d cf 74 3f 78 de 6c 3f e6 cf 70 3f
       0.90923136 0.9562872 0.9252696 0.9406723
000080 01 c4 89 3f 85 61 7b 3f 9c 88 6c 3f 38 8a 58 3f
       1.0762941 0.9819568 0.9239595 0.84585905
000090 eb 27 6d 3f 08 58 86 3f 9f ba 4e 3f 3d 4d 88 3f
       0.92639035 1.0495615 0.8075351 1.0648571
0000a0 7b e2 76 3f 81 82 62 3f 03 8a 80 3f fc 04 5c 3f
       0.9643933 0.88480383 1.0042118 0.85945106
0000b0 f4 ed 73 3f d8 06 85 3f d2 9c 80 3f 0d 27 8d 3f
       0.9528496 1.0392714 1.0047858 1.1027542
0000c0 6f 69 88 3f c5 e0 5a 3f 36 36 63 3f 10 9a 85 3f
       1.0657176 0.8549922 0.88754594 1.0437641
0000d0 26 4a 8b 3f a4 82 60 3f 85 d5 86 3f 74 8d 5f 3f
       1.0882003 0.8769934 1.0533911 0.87325215
0000e0 2a 89 5c 3f 3f bf 6e 3f dc 67 6d 3f 9f 91 72 3f
       0.86146796 0.9326057 0.927366 0.9475345
0000f0 75 7f 6a 3f 12 16 63 3f f7 eb 64 3f ac 6d 7e 3f
       0.91600734 0.8870555 0.89422554 0.99386096

model.fc.3.bias f4 [64]
000000 d8 48 fe bd 5c 98 0d be 63 4b 26 be bb 60 88 be
       -0.124162376 -0.13827652 -0.16239695 -0.266363
000010 5e 10 f0 bd 24 d8 04 3e fd 8e 8b bc 86 f7 cc bd
       -0.11721872 0.12973076 -0.017035956 -0.10008149
000020 17 8c 22 bd c4 9f 06 be 0c 7a 34 be f5 b4 17 be
       -0.03968438 -0.13146883 -0.17624682 -0.14815123
000030 b3 b5 60 be 81 1e 4a be d1 60 97 bd 58 49 38 bd
       -0.21944313 -0.19738199 -0.07391513 -0.04499182
000040 ae 04 94 3d 50 50 87 be da 6b 6f be f4 7c 2e be
       0.07227455 -0.2642846 -0.23380986 -0.17039853
000050 06 5a 30 be a5 ee 15 be 33 83 48 be f7 24 2c be
       -0.17221841 -0.14641817 -0.19581299 -0.16810976
000060 53 45 55 be 90 4c 39 3e b9 d9 0e be ba a7 70 be
       -0.20827226 0.18095613 -0.13950242 -0.23501483
000070 27 e2 01 be b4 08 f3 bd 8c 92 cd bd b0 31 04 be
       -0.12683927 -0.11866894 -0.10037717 -0.1290958
000080 50 08 82 be 22 41 0b be 5f c2 27 be af 26 cf bd
       -0.25396967 -0.13599065 -0.1638274 -0.101148
000090 59 6a b5 3d 8f b2 2f be 11 29 80 bc b3 bf 23 3d
       0.08858175 -0.17157958 -0.015644582 0.03997774
0000a0 82 08 25 bc 20 fe 1e be f1 86 3f 3e 1d 4a e2 bd
       -0.010072829 -0.15526628 0.1870382 -0.11049292
0000b0 c2 44 1d be 5c bb 60 be 7b cb 03 3e ea 60 81 be
       -0.1535826 -0.21946472 0.1287059 -0.25269252
0000c0 26 ea 72 be 93 6a 60 bd 2c 1b 8d bd d5 4d e4 bd
       -0.23722133 -0.054789137 -0.06889948 -0.11147658
0000d0 da 2d 4b be cb 62 d6 bd 84 06 19 be 51 c6 9c bd
       -0.1984171 -0.10468062 -0.14943892 -0.07655013
0000e0 ea cb 1b bd cd 33 75 bd 7e 76 79 be 0b e8 b4 bd
       -0.038036264 -0.059863854 -0.24361607 -0.08833321
0000f0 66 67 8e bc 62 84 57 be e9 e8 42 3d 0c 77 2a 3e
       -0.017383289 -0.21046594 0.0475854 0.16646975

model.fc.3.running_mean f4 [64]
000000 cf 40 ba 3d 76 5f 88 be 36 c3 0a be 54 c1 8e be
       0.090943925 -0.2663533 -0.1355103 -0.27881873
000010 ca d1 bc be 22 75 6a 3e 1a 50 64 3e 8a 6f b6 be
       -0.36878806 0.22896245 0.22296181 -0.35631973
000020 0f 8a c5 3e e9 27 ba bd b1 6d 89 be cb c8 ec 3e
       0.38581893 -0.090896435 -0.268415 0.46246943
000030 42 43 82 be 1f 23 64 be f4 e9 c6 3e 44 30 80 3e
       -0.2544194 -0.22279023 0.38850367 0.25036824
000040 0c 86 34 3d e3 65 82 be 20 8c b0 be d9 6d 4a be
       0.04407315 -0.25468358 -0.34481907 -0.19768466
000050 d9 58 c2 be 38 4e 1d bd 4e 61 b6 be 19 47 be be
       -0.3795841 -0.038404673 -0.35621113 -0.37163618
000060 6a 43 0f bd b1 35 b7 bc 44 2b 97 be b9 81 34 3e
       -0.0349764 -0.02236447 -0.29525197 0.1762761
000070 9b ee e6 bd a7 0b 68 3d d1 95 27 bd cf b9 17 be
       -0.11275979 0.056651738 -0.04091436 -0.14816974
000080 59 8f 2f be 6c fb 4f bd 6c 28 ce 3a ea 29 72 be
       -0.17144527 -0.050776884 0.0015728599 -0.23648801
000090 cd f1 8a 3c 57 61 5d be 41 71 5c bd 4b 47 28 3d
       0.016961003 -0.21619163 -0.053818945 0.041083615
0000a0 b8 8a 42 be d4 e7 28 bd 99 1d eb 3d 30 90 b2 3e
       -0.1899823 -0.041236714 0.11480255 0.3487563
0000b0 ab fc 6a be 40 b7 b0 be 3a 50 5a 3e 0e dd b9 be
       -0.22947948 -0.3451481 0.21319667 -0.36301464
0000c0 c8 b3 3b be ab 15 81 be d6 f9 3f 3e 6e b9 36 3e
       -0.183303 -0.25211844 0.18747649 0.17844173
0000d0 a9 53 94 be 70 4d 4d be d5 87 27 3c eb 84 07 be
       -0.28970078 -0.20049071 0.010225256 -0.13234298
0000e0 bf df 02 be 83 90 3a be 4e d0 b3 3c 64 a1 dd 3e
       -0.12780665 -0.1821919 0.021949913 0.43287194
0000f0 c4 79 49 3e 9e 98 ed be bd c8 86 3e f5 2c c7 3c
       0.19675356 -0.464055 0.26325026 0.02431343

model.fc.3.running_var f4 [64]
000000 4d 40 c5 3d 9d 13 00 3e 9b 8f 47 3e 32 3f 2e 3e
       0.09631405 0.12507482 0.19488375 0.17016295
000010 57 3d 67 3e 64 2a 0a 3e f1 17 d5 3d e1 0f 46 3e
       0.22581993 0.13492733 0.10404957 0.19341995
000020 ba 34 62 3e 8e 06 01 3e c4 e4 f3 3d b8 19 bd 3e
       0.22090426 0.12600157 0.11908868 0.36933684
000030 d8 82 4e 3e ad ef 28 3e be ef a3 3e 5c 15 d6 3d
       0.201671 0.16497679 0.32018846 0.10453293
000040 f8 db fe 3d 91 a7 54 3e 87 ff 5e 3e ab 16 42 3e
       0.124442995 0.20767047 0.21777163 0.1895396
000050 37 42 50 3e 4a b3 8b 3e a0 82 2e 3e a9 27 45 3e
       0.20337759 0.27285224 0.17042017 0.1925341
000060 49 7c 0b 3e 28 58 bc 3d 47 77 01 3e d0 c2 f3 3d
       0.1362163 0.09196502 0.12643157 0.11902392
000070 3c b7 3e 3e 16 32 b7 3d ee 0b 00 3e 87 ca 57 3e
       0.18624586 0.089451 0.12504551 0.21073352
000080 04 db 61 3e bc 14 3a 3e 3e 8b 1b 3e 1c b6 12 3e
       0.22056204 0.18171972 0.15189835 0.14327282
000090 cf 81 b4 3d cd df 2e 3e 82 1d cd 3d d3 7e af 3d
       0.088138215 0.1707756 0.10015394 0.08569112
0000a0 c3 23 04 3e bb 36 29 3e 09 21 07 3e 8a 84 72 3e
       0.12904267 0.16524784 0.13196196 0.23683372
0000b0 f4 53 5a 3e 8b 75 43 3e e4 3d eb 3d 33 03 48 3e
       0.21321088 0.19087808 0.11486414 0.1953247
0000c0 d2 ad 3c 3e 97 da e6 3d 07 fd 9c 3d d5 cd 39 3e
       0.18425682 0.112721615 0.07665449 0.18144925
0000d0 a3 91 45 3e 71 23 e3 3d 1b 12 4d 3e 10 97 39 3e
       0.19293837 0.11090744 0.20026438 0.18124032
0000e0 01 62 d5 3d d3 63 0e 3e f4 70 2b 3e 3d 81 4a 3e
       0.104190834 0.13905267 0.16742307 0.19775863
0000f0 23 a5 0a 3e b5 08 2a 3e 0e e9 da 3d f3 70 bc 3d
       0.13539557 0.16604884 0.10688983 0.09201231

model.fc.6.weight f4 [32, 64]
000000 fd c9 c4 3d 2b 4f 24 bd fc 32 a3 3d db 15 88 3d
       0.09608839 -0.040114563 0.07968709 0.066447936
000010 4a 64 1d 3d 6a 17 ce bd 10 21 e2 bd e5 1b c9 bb
       0.03842572 -0.1006306 -0.110414624 -0.0061373585
000020 3f 46 04 3d a4 56 59 3d 6c fa b5 3d 49 3d 0a 3d
       0.032293554 0.053061143 0.08885655 0.033749852
000030 57 7f 76 3d 0a 13 fd 3d c7 5e a1 bc d1 95 b6 3c
       0.060180034 0.12357147 -0.019698514 0.022288235
000040 0e 8c 9e 3d c0 2a 91 3d 81 4e 20 bc e5 1b a8 3c
       0.07741557 0.07088232 -0.009784342 0.020521114
000050 d9 98 2c 3e 69 24 59 3b 8c 25 e8 3d 72 01 40 3d
       0.16855182 0.0033133274 0.113352865 0.04687638
000060 b3 e6 6f 3d c5 bb 1d be f6 d2 9a 3c 83 85 24 3e
       0.05856962 -0.1540366 0.018899422 0.16066556
000070 3a 14 22 3c 20 08 96 3d 9e 93 23 be c0 9e 2c 3b
       0.009892518 0.073257685 -0.1597428 0.002633974
000080 98 43 91 3c 04 ba 1c 3c 1a 50 8b 3d 58 2d c2 3c
       0.017732427 0.009565834 0.068023875 0.023703262
000090 15 ce a6 3c cc 4f 19 bc 16 5a c4 3b c7 cc 1c be
       0.02036194 -0.009357404 0.0059921844 -0.15312491
0000a0 d3 d9 6c bd 36 b3 08 3c b1 85 d3 bd c7 ab 13 3e
       -0.05782492 0.0083435085 -0.10328234 0.14420997
0000b0 9a f0 df bc 2e e1 11 3d 29 c4 18 be a0 af e5 3d
       -0.027336407 0.03561514 -0.14918579 0.112151384
0000c0 b5 4e 0a 3e 4b f3 bc bc e1 8d 6c bd ba de 1d 3e
       0.13506587 -0.02306523 -0.057752494 0.15416995
0000d0 56 1d 4f 3d de ad c7 bd 5c bf 02 3e 7a 1b 0d be
       0.050565086 -0.097499594 0.1276831 -0.13780013
0000e0 f7 b7 b8 bd 3b 83 ec bc 94 d7 03 3d 35 8d 86 3d
       -0.090194635 -0.02887117 0.032188013 0.06569902
0000f0 3c 97 90 3c 1c cc 95 bc 47 a0 f5 bd da 9a 6d be
       0.01765024 -0.018285803 -0.11993461 -0.23203602
000100 1a 2f 04 bd 32 8c a5 3c 23 63 da bd 8b 67 98 bd
       -0.032271482 0.020208452 -0.1066344 -0.07441624
000110 51 06 89 bd 00 d7 b6 3a fe bc f1 3b 34 bd 73 bd
       -0.06690658 0.0013949573 0.007377266 -0.05950661
000120 ff b2 e9 3d b2 42 51 bd be 9c d9 3a 69 bb 84 3d
       0.11411094 -0.051088996 0.0016602499 0.06481058
000130 4c 96 88 bd 81 ca 34 be 67 91 17 bd 55 11 7c 3d
       -0.06669292 -0.17655374 -0.0370039 0.061539967
000140 67 27 88 3c d4 4c 4f bd 84 66 bf 3d 9f 2c 32 be
       0.016620351 -0.05061038 0.09345725 -0.17399834
000150 b5 d1 ef bd 26 1e 04 be 94 ea 0b be 6a 46 fb 3d
       -0.1170992 -0.12902126 -0.13663703 0.1226929
000160 00 ef 3a 3e 0a fd 0f 3c 48 11 2c be 25 da c9 3c
       0.18255234 0.008788357 -0.16803467 0.024640152
000170 d7 4c cd bc 0b 97 be 3c 40 5c af bd 4d fc 1d be
       -0.025061054 0.023265382 -0.08562517 -0.15428276
000180 70 8e 48 b9 24 43 4e bd 4b 2c 9e bd 37 e4 d1 bd
       -0.00019126548 -0.050357 -0.07723292 -0.10248607
000190 eb 12 01 be fa 55 20 3c 68 92 3b be b1 59 e5 bd
       -0.12604873 0.009786123 -0.18317568 -0.11198748
0001a0 5d 73 a0 bd 16 55 e4 bc 85 6d 17 be fd 12 f4 3d
       -0.07834504 -0.027872603 -0.14787872 0.11917684
0001b0 87 30 32 be 18 cb 6c 3d 24 54 08 be ac 6b 9b 3d
       -0.17401324 0.057810873 -0.13313347 0.07588896
0001c0 82 94 cc bd d7 30 27 be 03 e7 89 bd 79 17 a6 3b
       -0.09989263 -0.16327225 -0.06733515 0.005068716
0001d0 12 9d 85 3c 5d a8 60 bd 7b 80 3a be 52 eb b0 bc
       0.016310249 -0.054848064 -0.18213074 -0.021596584
0001e0 a0 75 47 bd e9 79 45 3d e0 eb 50 3d 0b 04 f6 3d
       -0.04869616 0.048211966 0.051006198 0.1201249
0001f0 2b 86 19 be 49 9a cb bd c8 82 2e 3d 80 82 84 3d
       -0.14992587 -0.09941537 0.04260519 0.064702034
000200 68 e2 5c bd 32 12 3d 3d 54 75 2d 3d 89 7f 01 3e
       -0.053926855 0.04615993 0.04234822 0.12646307
000210 10 b8 01 3e 2f 1a 32 be 32 56 28 be d4 52 1c 3c
       0.1266787 -0.17392801 -0.16439131 0.009541232
000220 e8 a9 7d 3d e8 5c d3 bc 4c 15 a3 3d 35 f5 a5 3c
       0.061929613 -0.025801137 0.079630464 0.020258525
000230 4b 1e 64 bc 44 7f 6f 3d ea b7 ef 3d cf bd dc bd
       -0.013923238 0.05847098 0.11705001 -0.107783906
000240 3e b8 ff bd 12 2b 32 3d f7 de be 3d a4 48 da 3b
       -0.12486313 0.043498106 0.09319871 0.0066614915
000250 09 65 65 3c 32 08 74 bd 79 9b 86 3b fa 3c 41 3c
       0.014001139 -0.05957813 0.0041078893 0.011794323
000260 20 ee a3 3c c8 42 50 be 93 f2 15 bd 6e 09 dc 3d
       0.020011008 -0.20337975 -0.03660829 0.10743986
000270 9a e2 4b 3d 60 aa 04 be 49 8f 2f bd 8f 61 e1 3d
       0.04977665 -0.12955618 -0.042861257 0.11004936
000280 23 a5 36 3e 76 ec d7 3d 82 94 0e ba 7d d5 94 bd
       0.17836432 0.10543148 -0.00054389995 -0.07267282
000290 a9 d5 b3 bd e3 83 cc 3d 92 4a 4d 3d dd 6e b7 bd
       -0.08780987 0.09986093 0.050119944 -0.08956692
0002a0 d1 45 46 bd 8f ab 77 3d 6c 30 4a be 47 47 23 3c
       -0.048406426 0.060466345 -0.19745034 0.009965724
0002b0 9c 19 8c 3d c1 4f 19 3e a8 9f 1a be fe be 17 3e
       0.06840822 0.1497183 -0.15099967 0.14818951
0002c0 f4 c5 bf 3c c9 13 19 3d 5d 03 6f bd 17 7d e9 bb
       0.023409821 0.037372384 -0.058352817 -0.0071255076
0002d0 21 13 13 3e 95 10 b7 bc e3 81 b0 3c 8a ca f2 3d
       0.14362766 -0.022346774 0.02154631 0.118550375
0002e0 91 7e ad bc 81 0d b6 3c 8d e2 32 bc 4d c2 cc 3c
       -0.021178516 0.022223236 -0.010918272 0.024994994
0002f0 5c 11 db 3a 71 86 91 3d 5e f3 c1 bd fb 5a 1c be
       0.0016713548 0.07105721 -0.09470247 -0.15269081
000300 2c de 4a bd b0 ee b0 bc 87 b2 b7 3d fb 82 9c bd
       -0.049528286 -0.02159819 0.08969598 -0.0764217
000310 03 2b 0b bc 50 3a 10 be 5e 30 c2 3b a7 07 e1 3d
       -0.0084941415 -0.14084744 0.005926176 0.10987788
000320 36 09 e5 bc 2d ad 17 3d 8f 92 9d 3d 89 1c b8 bd
       -0.027958494 0.037030388 0.076939695 -0.08989818
000330 a1 88 9a 3d 22 f3 f4 3d 2c ad 04 be 1c 52 12 be
       0.07545591 0.119604364 -0.12956685 -0.14289135
000340 1c f5 f7 bd b6 f2 23 3d 88 37 ab bd 29 6c 89 3d
       -0.12107298 0.04002639 -0.08360201 0.06710083
000350 5b 93 41 bd 8e ed 17 3e 35 a4 8f 3c 14 71 02 be
       -0.04725967 0.14836714 0.017534355 -0.12738448
000360 32 67 43 bb 4d 69 06 be 0f 51 e1 3d 6b a2 36 bd
       -0.0029816148 -0.13126107 0.11001789 -0.044588488
000370 ca 81 5b 3d ba 53 76 bd 0f 1b df 3c 64 3b 92 3d
       0.053590573 -0.06013844 0.027234582 0.07140234
000380 c1 ca 17 bd 5d e8 fe 3b df e5 1c 3e b5 9c 28 3d
       -0.037058596 0.0077791647 0.15322064 0.041165072
000390 51 db e2 3c c9 a7 e6 3c 4a 9d 9f 3d 68 1e 64 bd
       0.027692469 0.028156178 0.077936724 -0.05569306
0003a0 11 c8 83 bc 5b 30 b1 3d 1d aa 96 be 95 41 a2 3d
       -0.01608661 0.08651801 -0.2942666 0.07922665
0003b0 6b 7b 70 bc 15 d6 c4 bd 29 4f 24 be f7 9c 36 3d
       -0.014677863 -0.096111454 -0.16045822 0.044583287
0003c0 d0 d1 9d bd 70 c4 40 3d dc 49 62 bc bd 8f e1 bd
       -0.07706034 0.047062337 -0.013811555 -0.11013744
0003d0 1a ba 81 bc 95 24 54 3d 76 e7 56 3c 11 44 81 3c
       -0.01583581 0.0517927 0.013116708 0.015779527
0003e0 b8 79 68 3d 31 84 1d 3d b9 51 19 3b 1f f9 9e 3c
       0.056756705 0.038456146 0.0023394658 0.0194059
0003f0 4f fb 99 bc 04 e5 ba 3d 61 31 d1 bd 2f a9 b7 bd
       -0.018796591 0.091257125 -0.102144964 -0.08967816

model.fc.6.bias f4 [32]
000000 70 e5 db bc 9d 9c e7 bd c6 48 d3 bd 8c 94 8a 3c
       -0.026842803 -0.113091685 -0.10316615 0.016916536
000010 60 cf a2 bd b8 4d e9 bb 25 c2 8f bd f1 a4 ff bd
       -0.0794971 -0.0071198605 -0.07019452 -0.12482632
000020 af 78 38 3d 1f 09 b2 bd d8 79 a9 bc ce 7f ac 3d
       0.045036968 -0.08693146 -0.020687982 0.08422814
000030 39 64 55 3d 76 0a bb 3d 23 b4 16 3d 4c dc 8b 3d
       0.052097533 0.09132855 0.036792886 0.06829128
000040 3f 20 69 3c 43 e6 c9 3d e3 46 f1 bd 28 34 8c 3d
       0.0142288795 0.09858372 -0.11781099 0.068458855
000050 9f fd 28 bd 26 dd 95 bd 0d e2 86 bc ae 6b 9f 3d
       -0.041257497 -0.07317571 -0.016465211 0.0778421
000060 9a b6 1c 3d d6 b6 1e bd 38 a6 bc 3d f1 c7 32 3d
       0.03826008 -0.038748585 0.09211391 0.04364771
000070 b1 84 d4 bd f9 d4 8e bd 95 1c 38 bd 72 ca 33 bd
       -0.103768714 -0.06974215 -0.044949133 -0.04389424

model.fc.7.weight f4 [32]
000000 72 76 7a 3f 95 fc 6d 3f ef da 84 3f 14 a9 64 3f
       0.97836983 0.92963535 1.0379313 0.8932049
000010 6e 62 85 3f 2d 1c 71 3f c0 a6 78 3f 0e 68 6b 3f
       1.0420663 0.9418362 0.9712944 0.9195565
000020 98 8a 75 3f bd 19 5b 3f e5 ba 75 3f c2 d3 6e 3f
       0.959146 0.8558615 0.95988303 0.93291867
000030 0b 46 6b 3f 21 ef 70 3f 09 80 65 3f 44 d8 78 3f
       0.9190375 0.9411488 0.8964849 0.97204995
000040 eb 18 78 3f 96 00 82 3f 57 41 6a 3f bc 38 61 3f
       0.9691302 1.0156429 0.9150595 0.87977195
000050 16 bc 79 3f 73 93 69 3f 13 3b 77 3f c7 70 79 3f
       0.9755262 0.91240615 0.96574515 0.9743771
000060 8f 04 6a 3f dd b7 67 3f 2d b6 63 3f 4c 2b 80 3f
       0.91413206 0.9051493 0.88949853 1.0013213
000070 63 03 89 3f 10 02 73 3f 96 8e 79 3f d7 52 65 3f
       1.0704159 0.9492502 0.97483194 0.8957953

model.fc.7.bias f4 [32]
000000 c3 7e 10 be 9b 6f 06 be 89 f0 2a be 57 0d 41 bd
       -0.14110856 -0.13128512 -0.1669332 -0.047131862
000010 d2 04 18 be f7 7a 09 be d5 21 a3 bd 5d a3 df 3d
       -0.14845589 -0.13425814 -0.07965437 0.10919831
000020 36 d1 1b 3c e1 d6 cd bd 8f 60 aa bd 64 82 09 be
       0.009510329 -0.100507505 -0.08319198 -0.13428646
000030 85 bd ac bd 53 88 fc bd 71 c2 d9 3d db c2 0e 3e
       -0.084345855 -0.12330689 0.1063279 0.13941519
000040 9c d2 f1 3c d8 65 68 bd 3a aa c3 bd e8 d6 33 be
       0.029519372 -0.05673775 -0.095539525 -0.17562449
000050 99 b8 09 be 0d f0 75 3d 5d 69 81 3d 1c 03 a0 3d
       -0.13449325 0.060043383 0.063189246 0.07813093
000060 ae c1 b8 3c f1 92 3d be 24 d6 13 be be da b0 bd
       0.022553291 -0.18513085 -0.14437157 -0.08635472
000070 3c f8 03 be 67 74 20 3e f6 2b 07 be 74 33 4d be
       -0.12887663 0.15669404 -0.13200364 -0.20039159

model.fc.7.running_mean f4 [32]
000000 c3 fb 8c bd d2 0c 0c bf 78 1f 78 be d0 db 89 be
       -0.06883957 -0.5470706 -0.24230754 -0.26925516
000010 b5 4a 3d bd 61 62 0e bf 49 57 52 3e 8c 3b 32 be
       -0.046213824 -0.55618864 0.20541109 -0.17405528
000020 6b db 96 3d cf cb b3 be 8a f5 47 be a6 24 fe 3c
       0.073660694 -0.3511643 -0.1952726 0.031023335
000030 6b 74 11 3d 3a d7 05 bf 21 82 80 be 6a d6 2a be
       0.035511415 -0.52281535 -0.2509928 -0.16683355
000040 42 cf e4 3a bf ef 53 3b 57 14 61 bd ea fa cd bd
       0.0017456787 0.0032338945 -0.05495104 -0.10057624
000050 00 3e 38 be c8 e9 8f be 7e f1 9c be 9f d5 95 3d
       -0.17992401 -0.28108048 -0.30652994 0.073161356
000060 bf 19 08 be 4f d7 c1 3c 0a 63 7f 3d 61 d9 f7 bd
       -0.13291071 0.023662237 0.06235031 -0.121020086
000070 5e 27 93 3d e6 47 36 be ae 33 29 bd 74 d1 31 be
       0.07185243 -0.17800865 -0.04130905 -0.17365056

model.fc.7.running_var f4 [32]
000000 8a 81 b6 3f 19 7c 04 40 b6 de ea 3f 25 cb 4d 3f
       1.4258282 2.0700743 1.8349216 0.803881
000010 2e 7b f6 3f 23 de d4 3f 6e bb ac 3f de cb d2 3f
       1.9256341 1.6630291 1.3494699 1.6468465
000020 e7 e6 a1 3f 2b df 36 3f 70 76 a0 3f fa 1e 92 3f
       1.2648591 0.7143428 1.2536144 1.1415703
000030 81 18 a8 3f f2 b4 9c 3f da 95 de 3f e1 a1 a1 3f
       1.3132478 1.224272 1.7389481 1.2627527
000040 65 8f d7 3f 97 03 df 3f 6b c5 ef 3f 9c 52 a9 3f
       1.6840636 1.742297 1.8732122 1.3228335
000050 e5 a4 e1 3f 55 15 9e 3f b2 06 31 40 d1 f3 e2 3f
       1.7628447 1.235026 2.7660336 1.7730657
000060 55 c4 dc 3f be b4 a0 3f 6e bb b3 3f e5 71 b4 3f
       1.7247416 1.2555158 1.4041574 1.4097258
000070 19 5a c1 3f 0a 30 04 40 da a7 73 3f a4 ed 9a 3f
       1.5105621 2.065432 0.95177996 1.2103772

model.fc.10.weight f4 [16, 32]
000000 ed 6e af 3d ff b2 08 bb 3f 63 26 bd 4b 65 84 be
       0.08566079 -0.0020858643 -0.040621992 -0.2585853
000010 ff f7 3a 3d 50 48 91 3d 1c 8a 58 3b 52 0c 88 bd
       0.045646664 0.07093871 0.0033041304 -0.06642975
000020 cb 09 77 be 07 00 7f be 44 f9 fc bd d4 0d 5c be
       -0.2412483 -0.24902354 -0.12352231 -0.2148965
000030 64 c2 44 bb f2 9d 10 3e 82 0f 4a be 11 23 d1 bc
       -0.0030023092 0.14122751 -0.19732478 -0.025529416
000040 b0 80 5a bc cc ea 30 bd 16 04 18 bd 02 2f d7 bd
       -0.013336346 -0.04319267 -0.03711327 -0.10507013
000050 e3 fb 05 bd 9b 5c 0c be c8 b2 72 bd 67 4e d6 3d
       -0.03271092 -0.13707201 -0.05925253 0.10464173
000060 10 c7 0a be af 55 d7 bd 57 e0 6f be 0d 70 01 be
       -0.13552499 -0.1051439 -0.23425423 -0.126404
000070 97 39 dc 3c 4f a2 9d bd fc 39 20 3d dd e0 ab 3d
       0.02688293 -0.076969735 0.0391178 0.08392499
000080 fe 8e 12 be 1c 6f 39 be 7b e5 95 3d dd f2 2d 3d
       -0.1431236 -0.18108791 0.073191606 0.04246794
000090 79 cf 37 3d f4 64 e7 bd 12 e7 61 3d 1d 5a a1 3d
       0.044875596 -0.11298552 0.055152006 0.07878516
0000a0 7d 72 1b 3d 64 64 23 3d d4 86 84 bd 49 96 f7 3c
       0.03795098 0.03989066 -0.06471029 0.030223029
0000b0 22 d7 99 3d df 87 0d be 8e 07 f8 bc 68 ae 9d bb
       0.075117365 -0.13821362 -0.03027704 -0.0048120506
0000c0 92 a5 a5 39 81 27 33 be 40 8a 99 3d 8a 69 33 bd
       0.00031594612 -0.17495538 0.07497072 -0.04380182
0000d0 34 ed 7f 3d 00 ae 96 bd dd 1b 9f 3d f8 3c 55 3e
       0.062482074 -0.073574066 0.077689864 0.20824039
0000e0 8f 61 c7 bd 7b da 80 3d cd bd 30 3d ba 77 75 3d
       -0.09735405 0.06291672 0.043149758 0.059928633
0000f0 a8 e3 b6 be cf 18 25 bc 3c 5c 2a be c4 fd 01 bd
       -0.35720563 -0.010076716 -0.16636747 -0.03173615
000100 64 1f 5b bd 6b 26 7b bd e3 08 d2 3d 86 ad a5 3d
       -0.053496733 -0.061315935 0.10255601 0.080897376
000110 be c7 33 3c 91 ed dc bd f6 e9 fd 3d a0 47 bd 3d
       0.010972915 -0.107875 0.1239814 0.09242177
000120 b9 10 a3 3d 6a 0e 24 3e 12 b1 d3 bc 00 e9 54 3d
       0.07962174 0.16021124 -0.02584127 0.05198002
000130 08 f9 07 3e 2b f7 1a be 1c 17 f5 bd a2 53 3e 3e
       0.13278592 -0.1513335 -0.119672984 0.18586591
000140 19 98 8e be b4 b9 db bd f5 f8 9d 3d f4 49 e5 bc
       -0.27850416 -0.107287794 0.077135004 -0.027989365
000150 28 90 46 3d bb 33 06 be ad d8 7d 3d b8 ac 87 bd
       0.048477322 -0.13105671 0.061974216 -0.0662474
000160 08 27 6f bd 98 76 b5 3d 8c c9 54 3d 3a 87 5f 3d
       -0.058386832 0.088605106 0.051950023 0.05457232
000170 55 64 f9 bd e7 47 fc bd 7d d3 0a be bf 87 a4 bd
       -0.1217734 -0.12318402 -0.13557239 -0.08033704
000180 ba cd 0e 3e 22 ad 67 bd 04 99 36 3e 8f 80 e2 3d
       0.13945666 -0.056561597 0.17831808 0.11059677
000190 21 26 29 bc 9a c2 d0 3d aa c8 57 be be bf 78 bd
       -0.010324032 0.10193367 -0.21072641 -0.060729735
0001a0 82 2c 6d be 39 2b 7f bc 58 c6 b2 3d 12 5e ed bd
       -0.2316151 -0.01557427 0.08729237 -0.11590208
0001b0 4c 2d 22 be 21 0d 55 bd d5 83 ca 3d c5 f4 11 be
       -0.15837592 -0.052014474 0.09888426 -0.14253528
0001c0 fa 8e bb 3c 9e 95 28 3e 2f 58 4f bd af 04 bf 3d
       0.022895325 0.16463324 -0.050621208 0.09327065
0001d0 a9 e9 87 3c 0c a4 16 3e c2 81 82 bd 59 77 27 be
       0.01659091 0.14711016 -0.063724056 -0.16354121
0001e0 03 28 41 3d f1 f8 7b bd 87 9d 4a 3a c6 f1 fa 3c
       0.0471573 -0.061516706 0.0007729162 0.030632865
0001f0 ff 82 2e 3e c3 58 90 bc 58 8e 02 3e 71 d9 0e bc
       0.17042159 -0.01762045 0.12749612 -0.008718834
000200 78 46 0f be 1b 42 e4 bc 18 59 a8 bc 67 e4 8b be
       -0.13991725 -0.027863553 -0.020550296 -0.27322695
000210 7b d5 18 be 28 c4 06 bd f2 74 39 bd 54 7f 68 3c
       -0.14925186 -0.032901913 -0.045277543 0.014190514
000220 5b c4 df bd 30 ff 2a be b7 fe c3 bd 3d 3c 4c be
       -0.10926124 -0.16698909 -0.095700674 -0.19944854
000230 1d 1b 3a be c0 cd aa 3c 33 ec 6b bc 3c 60 dd 3d
       -0.18174405 0.020850062 -0.014399576 0.10809371
000240 6a bf 5f bd 8b 3a 44 be af 49 08 bd 36 7b 7b be
       -0.054625906 -0.19162957 -0.033273395 -0.2455872
000250 df be d5 bd 39 b4 60 3c 33 93 35 3e 28 e5 b4 3d
       -0.104367964 0.013714843 0.17731933 0.088327706
000260 3c 0f b6 3d 7f 93 ff bd 02 2c 0d 3d 5e 15 60 be
       0.088896245 -0.124793045 0.034465797 -0.21883151
000270 a5 d3 8d bd 8b ac b3 3d 79 9b 8e 3c 76 f8 83 bd
       -0.069251336 0.08773144 0.01740812 -0.064438745
000280 a3 28 42 3e 4c 95 ac 3d 4b 9a fb bd 99 7e 94 3d
       0.18960814 0.084269136 -0.122852884 0.07250709
000290 1f c5 47 3e 3b 68 55 3d 04 af 31 be bf b5 fe bd
       0.1950879 0.052101355 -0.1735192 -0.12437009
0002a0 c7 eb 35 be 34 32 d9 3d 53 e7 08 3e 40 99 5a bd
       -0.17765723 0.106052786 0.13369493 -0.053368807
0002b0 65 07 4c be db d8 cc 3d 31 a4 8f 3d 7b b5 30 be
       -0.19924696 0.100022994 0.07013739 -0.1725673
0002c0 5f 2e f9 3c 70 b9 5c 3d ac 53 a2 3d c3 52 a9 bd
       0.03041762 0.053887784 0.079261154 -0.08267739
0002d0 3d 93 17 3e 8c 01 b0 3c 91 4c 3b be ca e5 0e be
       0.1480226 0.021485113 -0.18290927 -0.13954845
0002e0 e7 84 a6 3c 02 89 a2 bd 02 87 33 3d 2a cf f9 3d
       0.020327045 -0.079362884 0.043829925 0.121977165
0002f0 df 8f 4e 3e 4e bf cd 3c 15 1f a6 3c ac 57 c3 bd
       0.2017207 0.025115635 0.020278493 -0.095382065
000300 05 8f c7 3c c5 d1 79 be 01 f1 d8 bd 1a b1 f7 3d
       0.02436019 -0.24396427 -0.10592843 0.12094326
000310 21 63 85 bd 6a 3f 04 3c f8 73 b9 3d 29 1d 17 be
       -0.06513048 0.00807176 0.090553224 -0.14757217
000320 9b e4 59 3a 74 fb 00 3d 0a 53 c3 3d 28 eb 78 bc
       0.0008311958 0.031489804 0.09537323 -0.015192784
000330 d8 46 5d 3d 5c 82 01 be 30 11 06 bb 0a f3 14 be
       0.05402264 -0.12647384 -0.0020457022 -0.14545837
000340 6b 2f a5 be 9c 0a d3 3d f5 30 6e bd 90 3f 65 3d
       -0.3226274 0.10304758 -0.058152158 0.05596882
000350 7b 2a 03 be 02 96 e2 3d 71 5f 7d 3d c1 b1 32 be
       -0.12809174 0.11063768 0.0618586 -0.1745062
000360 ee 48 2d 3e 20 3d 9f 3d 7d 02 f5 3d 9b 03 3f 3d
       0.16922352 0.077753305 0.11963365 0.046634298
000370 55 cd 01 bd ca 34 90 bd 9e 95 5d be 7c 35 1d 3d
       -0.03168996 -0.07041319 -0.21639106 0.038381085
000380 d7 c6 04 3e 54 c6 dc 3d 53 fd 1b 3e d7 c6 12 bd
       0.12966476 0.107800156 0.15233354 -0.03583416
000390 d8 64 df 3d 0b 2f b1 3d ec 4b 12 be 37 4f 88 bd
       0.10907906 0.08651551 -0.14286774 -0.06655734
0003a0 6f 42 cc 3a c0 e8 e2 3d f5 d9 39 3e 27 c2 0c bd
       0.0015583764 0.1107955 0.1814955 -0.034364846
0003b0 44 09 b9 bd c1 0c c0 3b d0 71 a4 bd 4b 3e 97 be
       -0.090349704 0.0058608954 -0.080295205 -0.29539713
0003c0 a2 b4 cd 3c 9f 4f f2 3d 8e 59 36 3e eb ed 14 3e
       0.025110546 0.11831593 0.178076 0.14543884
0003d0 64 8e a1 bc b2 33 0b 3e f6 37 69 be 9c 56 ab bd
       -0.019721217 0.13593939 -0.22775254 -0.08366129
0003e0 93 81 97 bd 3a c5 eb 3d 04 4a 6d bd fa d9 40 3c
       -0.07397761 0.11512227 -0.057931915 0.01177072
0003f0 c6 c0 31 3e 44 81 2e 3d 6d af b8 3d ad c0 c8 3d
       0.17358693 0.042603746 0.09017835 0.09802375

model.fc.10.bias f4 [16]
000000 6f 3e 81 bd 84 11 3c 3d 57 5e 02 3e 0f f4 f8 bd
       -0.063107364 0.04591514 0.127313 -0.121559255
000010 2b 7f 13 3e 1d 17 a0 3d 66 89 be bc 8a 7d c0 3c
       0.1440398 0.078169085 -0.023258876 0.023497362
000020 40 3b 9e bd 42 9f 9f bd 3d 21 87 bc 7e a8 1c 3e
       -0.07726145 -0.07794048 -0.016495341 0.1529865
000030 d5 56 f1 bc 21 67 a9 bb 19 ff 50 bd 6a 05 e5 bc
       -0.02946035 -0.0051697646 -0.05102453 -0.027956683

model.fc.11.weight f4 [16]
000000 03 7c 64 3f 36 89 6e 3f f4 8f 5b 3f 8b 68 75 3f
       0.89251727 0.9317812 0.8576653 0.95862645
000010 15 94 66 3f 7e 15 7d 3f 05 75 62 3f 25 00 61 3f
       0.90069705 0.9886092 0.8845981 0.87890846
000020 2a a9 85 3f 1e b2 56 3f 8c 77 7f 3f 7b 04 6c 3f
       1.044225 0.83865535 0.9979179 0.92194337
000030 f9 1a 76 3f 32 f8 5c 3f a4 f3 66 3f 29 1d 55 3f
       0.96134907 0.86316216 0.90215516 0.8324762

model.fc.11.bias f4 [16]
000000 8a d4 9b be 4c 7a 16 be 5b 6e 9c be c1 ef 2c be
       -0.30435592 -0.1469509 -0.30552945 -0.16888334
000010 31 70 1f be 20 96 06 be 33 89 35 be 9a 12 d3 bd
       -0.15570141 -0.13143206 -0.17728119 -0.10306282
000020 89 a1 30 be a5 0e 52 be ff 74 0b be c5 c8 1d be
       -0.17249121 -0.20513399 -0.13618849 -0.15408619
000030 63 29 fe bd 75 fe 37 be a1 ea 4b be 39 9b 57 be
       -0.12410238 -0.17968161 -0.19913723 -0.21055306

model.fc.11.running_mean f4 [16]
000000 8d ae dd be be a6 6e bc 3e ff 55 3d a4 ac 11 be
       -0.43297234 -0.014566122 0.05224537 -0.14226013
000010 83 1b da bd e0 d2 5b 3d c4 e0 55 be 34 02 6d 3d
       -0.10649779 0.053667903 -0.20886523 0.05786343
000020 27 c5 44 bd e8 56 16 bf c9 d9 e8 bd e7 5a c0 3d
       -0.04803958 -0.5872636 -0.11369664 0.09392338
000030 83 c0 82 be 8d 22 98 be 02 5f 9e be 30 16 43 be
       -0.255375 -0.2971386 -0.3093186 -0.19051433

model.fc.11.running_var f4 [16]
000000 2b 73 84 3f 68 61 0a 3f b5 21 45 3f 27 30 4f 3f
       1.0347646 0.5405488 0.7700456 0.8093285
000010 e8 99 d8 3f e4 76 3c 3f db e9 2d 3f 96 11 5d 3f
       1.6921968 0.7361891 0.6793496 0.8635496
000020 47 01 82 3f 80 3a b1 3f 40 c4 45 3f 5e 09 94 3f
       1.015664 1.3845978 0.7725258 1.1565359
000030 ed a8 76 3f 80 41 99 3f aa 67 53 3f cf 74 5d 3f
       0.9635151 1.1973114 0.82580054 0.8650636
