globalcaffesyntetic/checkpoints_SleepQuality/bodyP-epoch=40-val_loss=0.03.ckpt (torch, 228412 bytes, 68 tensors)

model.fc.0.weight f4 [128, 40]
-0.0638792 -0.13953644 0.11780021 -0.042788867 -0.015003291 -0.074662596 0.005569292 -0.0066719977
-0.05114596 -0.0017026975 0.025556313 -0.054089367 0.12917797 0.04225065 -0.0027549667 0.050351124
0.020958437 0.030724887 0.016275102 -0.17939936 0.086304605 0.06258054 -0.097627886 -0.08352553
0.021578085 -0.08160697 0.033261754 0.10239807 0.1780643 -0.12277382 -0.09437562 0.061924152
-0.40719432 0.056780357 0.22637662 0.03186718 0.07145789 0.08898765 -0.17163892 -0.10372183
0.047014017 -0.037148297 -0.13545078 -0.24533474 -0.0381258 -0.02381139 0.013527378 -0.024596177
0.012250317 -0.055040136 0.038932342 0.065054975 -0.049343504 -0.056617968 -0.12565164 0.11545056
0.1656165 0.13003191 0.11516944 0.02100328 0.07041056 -0.099449895 0.114184916 -0.0654338
-0.058362495 0.04373155 -0.107882865 0.097332425 -0.10899092 -0.12928064 0.1467461 0.022044072
-0.51601696 0.4972838 -0.4518979 -0.037555963 0.0026014864 -0.068118684 -0.06364336 0.101065286
0.02253098 0.07264216 0.08366402 -0.18456033 -0.045826145 0.014704839 0.023108546 -0.03962097
-0.060602132 0.05504674 -0.1945909 -0.101197675 -0.04323584 0.13319555 0.08213682 -0.06329641
-0.038654026 0.0662339 -6.2869294e-06 0.10502136 -0.016683225 -0.06922945 0.060470242 -0.071259126
-0.13896827 -0.043702494 0.15168354 -0.038360953 0.13420853 -0.12775615 0.040690403 0.077557325
-0.33684397 0.3308478 -0.39127368 0.08339568 0.0815561 -0.110165104 -0.071388006 -0.042334586
-0.105119675 0.12025398 -0.05565322 -0.16622101 0.0647717 -0.035725117 0.14536758 0.073901676
0.11218048 -0.1428796 -0.087102346 -0.012346726 -0.0014192974 0.09548784 -0.08625956 -0.20670724
-0.28689167 0.0808297 -0.20184366 0.12240223 0.11639345 -0.13383943 0.16358134 0.17541163
0.0023524046 0.035553277 -0.03323874 0.03140456 0.016065437 0.24133725 -0.27717116 0.00024977268
-0.162132 0.34831992 -0.36267886 -0.2977787 0.09665653 0.05016342 0.12797275 0.02843154
-0.046151135 0.05032312 0.03607021 0.39159486 0.06552172 -0.02566545 0.0049869623 -0.06615835
0.0137207005 -0.12140997 0.027580993 -0.19165976 0.08680934 -0.16184732 0.0005469516 0.0795341
-0.11946138 -0.16684465 0.12229747 -0.027736142 0.047359087 0.09852168 -0.07790398 -0.13445272
0.051377118 0.05640074 -0.0786616 -0.07293278 -0.11546599 -0.009831014 -0.14142886 0.040724244
0.29800642 -0.12551008 0.3108204 -0.049380884 0.037425634 0.028141892 -0.023847328 -0.14281666
-0.06914275 0.040999684 -0.040392756 0.88125235 0.066255115 -0.1027203 0.007066936 0.05993309
-0.0035492722 -0.18253648 -0.16000603 -0.15328589 -0.072906226 0.0028486399 0.025128106 0.043025278
0.0031109962 -0.037355352 -0.11966294 -0.071885906 -0.020020701 -0.12894519 0.050411955 0.08663104
-0.00012707472 0.117039956 0.065593675 -0.09592237 -0.055183675 0.014951234 -0.017291525 -0.109633505
0.11684309 -0.04777215 -0.39717823 -0.06809536 -0.10284426 0.02129985 -0.03231595 -0.07462495
0.06645152 0.14264779 -0.13665786 -0.1128472 -0.0008097002 0.034463372 -0.08262593 -0.06630518
-0.0237913 0.08815567 0.059623137 0.23475036 0.032141324 0.015466822 0.16438842 -0.005117774
00000000: 19d3 82bd a4e2 0ebe 3d41 f13d 6143 2fbd
00000010: 5dd0 75bc b4e8 98bd 9c7e b63b c6a0 dabb
00000020: 6d7e 51bd 0c2d dfba 795b d13c d08c 5dbd
00000030: 3b47 043e 040f 2d3d ac8c 34bb fb3c 4e3d
00000040: 07b1 ab3c c2b2 fb3c 5d53 853c 77b4 37be
00000050: 78c0 b03d 3a2a 803d 21f1 c7bd 6f0f abbd
00000060: 86c4 b03c 8e21 a7bd 7a3d 083d 14b6 d13d
00000070: 7d56 363e d770 fbbd 0148 c1bd 2ea4 7d3d
00000080: c67b d0be 8592 683d 46cf 673e 2987 023d
00000090: 8458 923d 283f b63d 1dc2 2fbe 1c6c d4bd
000000a0: c591 403d d028 18bd 9cb3 0abe 0839 7bbe
000000b0: cd29 1cbd 1b10 c3bc f0a1 5d3c ec7d c9bc
000000c0: 8eb5 483c c471 61bd 8577 1f3d 8b3b 853d
000000d0: 6a1c 4abd 3ee8 67bd d3aa 00be 5871 ec3d
000000e0: 5f97 293e 1627 053e f5dd eb3d 120f ac3c
000000f0: 6933 903d 63ac cbbd c8d9 e93d 2802 86bd
00000100: 830d 6fbd db1f 333d b1f1 dcbd 3956 c73d
00000110: a236 dfbd 2562 04be 9c44 163e c595 b43c
00000120: b019 04bf fb9b fe3e 295f e7be 48d4 19bd
00000130: b37d 2a3b cf81 8bbd 7357 82bd 51fb ce3d
00000140: e492 b83c 6ac5 943d 0b58 ab3d 62fd 3cbe
00000150: 32b4 3bbd 91ec 703c 224e bd3c 9949 22bd
00000160: f139 78bd b178 613d d642 47be ba40 cfbd
00000170: 1018 31bd 6a64 083e 5937 a83d 8ca1 81bd
00000180: af53 1ebd a4a5 873d 50f4 d2b6 7015 d73d
00000190: 42ab 88bc 2bc8 8dbd a5af 773d 4ef0 91bd
000001a0: b34d 0ebe 6301 33bd ee52 1b3e 6020 1dbd
000001b0: f66d 093e 82d2 02be fbaa 263d 60d6 9e3d
000001c0: d076 acbe e264 a93e 0655 c8be 5bcb aa3d
000001d0: e206 a73d 3e9e e1bd e033 92bd 0867 2dbd
000001e0: fc48 d7bd b847 f63d a1f4 63bd d735 2abe
000001f0: 06a7 843d 8054 12bd 3ddb 143e c359 973d
00000200: e1be e53d 084f 12be b762 b2bd ec49 4abc
00000210: b807 baba 218f c33d daa8 b0bd 10ab 53be
00000220: 77e3 92be 0b8a a53d 1bb0 4ebe 05ae fa3d
00000230: b05f ee3d 340d 09be de81 273e 1b9f 333e
00000240: cd2a 1a3b 50a0 113d 5825 08bd 11a2 003d
00000250: aa9b 833c 1d21 773e 61e9 8dbe ecf3 8239
00000260: ee05 26be fd56 b23e 0bb1 b9be 7376 98be
00000270: dcf3 c53d 2978 4d3d 4a0b 033e 43e9 e83c
00000280: f908 3dbd 9e1f 4e3d 5bbe 133d 1f7f c83e
00000290: 4030 863d 5a40 d2bc ac69 a33b 077e 87bd
000002a0: cacc 603c caa5 f8bd 89f1 e13c 7542 44be
000002b0: 18c9 b13d 4ebb 25be 4d61 0f3a c6e2 a23d
000002c0: 2ba8 f4bd 53d9 2abe 1977 fa3d e836 e3bc
000002d0: 9afb 413d bcc5 c93d 1f8c 9fbd f9ad 09be
000002e0: d070 523d 7604 673d 5519 a1bd c85d 95bd
000002f0: 6f79 ecbd 4312 21bc bad2 10be 77ce 263d
00000300: 4c94 983e b785 00be da23 9f3e 9c43 4abd
00000310: 9f4b 193d d389 e63c 795b c3bc 883e 12be
00000320: b79a 8dbd 49ef 273d e072 25bd c199 613f
00000330: c3b0 873d 055f d2bd c291 e73b 667c 753d
00000340: e89a 68bb d8ea 3abe 9fd8 23be faf6 1cbe
00000350: dc4f 95bd 3fb0 3a3b 75d9 cd3c 463b 303d
00000360: dbe1 4b3b ed01 19bd d811 f5bd eb38 93bd
00000370: 7402 a4bc 350a 04be c47c 4e3d 9d6b b13d
00000380: 5c3f 05b9 a5b2 ef3d fa55 863d f372 c4bd
00000390: 4708 62bd 05f6 743c f5a6 8dbc 8887 e0bd
000003a0: 6e4b ef3d bbac 43bd f25a cbbe 9575 8bbd
000003b0: 03a0 d2bd 067d ae3c bb5d 04bd f7d4 98bd
000003c0: bc17 883d 4312 123e 0af0 0bbe 6f1c e7bd
000003d0: 1042 54ba 7729 0d3d c937 a9bd 03cb 87bd
000003e0: f9e5 c2bc f68a b43d 6437 743d 6662 703e
000003f0: 9fa6 033d 8e68 7d3c 7055 283e 00b3 a7bb

model.fc.0.bias f4 [128]
-0.2686397 0.1132128 -0.10754741 -0.15115282 -0.24682355 -0.11690957 -0.097966336 -0.25585112
-0.2727695 -0.27568802 -0.074005164 -0.17156188 -0.16655603 0.08024514 -0.1515075 -0.14716561
-0.021832801 -0.018315881 -0.21522947 -0.15342043 -0.3557864 -0.1871973 -0.16504641 -0.3876696
-0.21378432 0.02439712 -0.3367333 -0.21660449 -0.12249749 -0.28999358 -0.3843547 -0.38991594
0.002468855 -0.36137405 -0.043063875 -0.09282836 -0.08739838 -0.34431258 -0.21871364 -0.32674968
0.008715152 -0.21855868 0.06344101 -0.02320204 0.0037360075 -0.023261365 -0.07799968 -0.23461811
-0.33277592 -0.14879349 -0.019756353 -0.1005372 0.019180773 -0.019660614 -0.21533015 -0.16641791
-0.20601878 -0.314107 -0.1961029 -0.2021538 -0.37194392 -0.021680195 -0.04839024 -0.24160527
-0.3640518 -0.21362628 -0.2229918 -0.06661078 -0.11807487 -0.20253652 -0.18357804 -0.23710313
0.023697883 0.0074873692 -0.24313124 -0.24631156 -0.1842431 -0.12405966 -0.21273282 -0.30682328
-0.23546049 -0.4353629 0.0236404 -0.037282597 0.010374818 0.008745347 -0.23109269 -0.2605942
-0.10010722 -0.16045955 -0.2696531 -0.19352332 -0.2429347 -0.2043999 -0.43457466 0.20057566
-0.1417613 -0.05239043 -0.026973529 -0.2389915 -0.07910286 -0.043660995 -0.2782898 -0.31218553
-0.22948533 0.027974071 -0.17497092 0.023742119 0.032296937 -0.09010393 -0.32283995 -0.28533214
-0.20706594 -0.3134654 -0.13448863 -0.15222317 -0.1436633 -0.29304633 0.009542622 -0.089539744
-0.14547664 -0.14460675 -0.38891914 0.031328 -0.12713788 -0.05541119 -0.070541844 -0.0012486535
00000000: 258b 89be 1ddc e73d d141 dcbd cec7 1abe
00000010: 50bf 7cbe 496e efbd 93a2 c8bd ebfe 82be
00000020: 72a8 8bbe fb26 8dbe 0590 97bd ebad 2fbe
00000030: aa8d 2abe 9057 a43d c824 1bbe 95b2 16be
00000040: b4da b2bc 300b 96bc 1d65 5cbe 3f1a 1dbe
00000050: a329 b6be a6b0 3fbe ed01 29be a17c c6be
00000060: 47ea 5abe 78dc c73c 4f68 acbe 91cd 5dbe
00000070: f7df fabd 0a7a 94be 24ca c4be 10a3 c7be
00000080: 83cc 213b 0506 b9be bf63 30bd cc1c bebd
00000090: ecfd b2bd bd49 b0be 78f6 5fbe bc4b a7be
000000a0: ffc9 0e3c d9cd 5fbe 5ced 813d 3412 bebc
000000b0: ced7 743b 9e8e bebc 4cbe 9fbd bb3f 70be
000000c0: 9b61 aabe 525d 18be 13d8 a1bc 73e6 cdbd
000000d0: ff20 9d3c 4c0f a1bc 827f 5cbe 7569 2abe
000000e0: 96f6 52be a2d2 a0be 33cf 48be 6801 4fbe
000000f0: 6f6f bebe aa9a b1bc d834 46bd 5f67 77be
00000100: ff64 babe d9c0 5abe f657 64be 3c6b 88bd
00000110: 3dd1 f1bd bc65 4fbe e2fb 3bbe 2acb 72be
00000120: 1022 c23c 9b58 f53b 65f7 78be 1939 7cbe
00000130: 39aa 3cbe fe12 febd a2d6 59be f117 9dbe
00000140: 8e1c 71be e3e7 debe 83a9 c13c a3b5 18bd
00000150: 24fb 293c a548 0f3c 90a3 6cbe 9a6c 85be
00000160: 0405 cdbd 824f 24be f90f 8abe fa2a 46be
00000170: e0c3 78be 354e 51be 9280 debe b563 4d3e
00000180: e029 11be 5997 56bd 97f7 dcbc 30ba 74be
00000190: ae00 a2bd dfd5 32bd 007c 8ebe c8d6 9fbe
000001a0: 34fe 6abe e129 e53c 942b 33be d57e c23c
000001b0: cb49 043d 6988 b8bd 474b a5be 0e17 92be
000001c0: 1809 54be 897e a0be 63b7 09be 64e0 1bbe
000001d0: 791c 13be 2b0a 96be a858 1c3c 9d60 b7bd
000001e0: d4f7 14be cb13 14be 6920 c7be ca51 003d
000001f0: 6f30 02be d8f6 62bd 3e78 90bd dca9 a3ba

model.fc.2.weight f4 [64, 128]
-0.054005556 0.062249538 0.07026272 -0.17697667 0.020011451 -0.22355872 0.16645685 -0.06395032
-0.042327873 -0.22064601 -0.06997841 -0.1292612 0.16801183 0.062989734 0.003016844 -0.065130316
-0.13660355 -0.022931986 -0.085805856 -0.08257383 -0.14793728 -0.10926676 0.019866323 0.057476435
-0.08746597 -0.09939043 -0.0046538725 0.013525128 -0.027644707 -0.003557768 -0.05625986 0.07070035
0.020069242 -0.03973032 0.06687098 -0.05429775 0.07927024 -0.034636788 -0.098361686 0.09413097
-0.122410424 -0.08793011 0.08775265 0.16491508 0.04202388 -0.049016915 -0.045965217 -0.17275606
0.043338392 -0.061583184 0.03550714 0.016266989 0.16768321 0.013650863 0.04899709 -0.1462173
-0.10383958 0.06239547 0.007705099 0.051988773 0.035667654 -0.09046424 0.059837744 0.0039690165
-0.008710893 0.009088057 0.10392353 -0.04434482 -0.23660737 -0.07485829 0.06407656 0.042803884
-0.02441697 0.0018765231 0.038761817 0.06400801 0.006468766 -0.07406825 -0.16206695 -0.052955918
-0.10356135 0.11140261 -0.089083254 -0.0016755369 -0.04750495 0.081280135 -0.081124626 -0.15391561
-0.051326796 -0.21103333 -0.21372773 -0.16439842 -0.08409617 -0.11592583 0.06773749 0.009265151
0.019271696 0.15376174 0.13109542 0.018361066 -0.14396484 0.09595327 0.00842497 0.01321491
0.053833965 -0.027056623 -0.12888849 -0.053838667 -0.037491024 0.005166447 0.023586446 0.0031092204
0.14466879 0.03922783 -0.05842553 0.1649753 -0.039586566 -0.09484493 -0.054628976 -0.09036564
0.0054548276 0.07019985 -0.12459787 0.21507546 -0.18018065 -0.18649566 0.1043632 -0.07301406
0.105960414 -0.041126557 -0.03143599 -0.066899404 -0.07273706 -0.20537141 0.030854091 0.019481925
0.07437232 -0.048229903 0.051055077 0.11972757 0.003209714 0.12569991 -0.04760687 0.034941405
-0.17695071 0.049108054 0.06801129 0.08488756 -0.0247668 -0.09055934 0.11324409 -0.0742369
-0.027526382 0.09335843 0.019201117 -0.05542384 -0.07009795 -0.04378143 0.01998464 0.039349385
-0.029114526 -0.05421228 0.02276152 0.08408157 -0.012129961 0.00021507501 0.066747636 0.0089452155
-0.0037601357 -0.008018333 -0.14040716 0.08508243 0.0019873672 0.14418946 -0.041348375 -0.105595544
0.01721802 0.12571569 -0.079246886 -0.058044408 0.044170365 -0.06160511 -0.044126768 -0.14197454
0.04604458 -0.01716289 0.0105147585 -0.022862257 -0.05719741 -0.022263065 -0.15433988 0.023030655
0.02456137 -0.030374097 0.008744784 -0.21021317 -0.1623336 -0.09613858 0.024785701 -0.1520463
0.107241064 0.001796218 0.0016837404 0.005558893 0.026313374 -0.049938537 0.05713978 0.015763763
0.06858368 -0.054033518 -0.013155007 0.10728046 -0.051365934 -0.024998505 -0.13258404 -0.135993
-0.124974474 0.0018069022 0.081443034 0.06993424 -0.04185838 -0.12811205 -0.038115457 -0.13660155
-0.16230682 -0.05613366 0.08850266 0.14058271 -0.12441663 0.018552966 -0.07661621 0.047764607
-0.051143486 0.06344169 -0.030823307 0.117421195 -0.0517577 0.24618883 0.03620572 -0.17264102
-0.050194357 0.07399968 -0.041231085 -0.0076245223 0.13291433 0.0805275 0.047515117 0.10003393
-0.115402274 -0.097122215 0.096323095 -0.016855845 0.0473459 0.12369884 -0.10627564 -0.05241537
00000000: ee34 5dbd 5ff9 7e3d e7e5 8f3d 5f39 35be
00000010: 0eef a33c 94ec 64be aa73 2a3e 63f8 82bd
00000020: fe5f 2dbd 07f1 61be d750 8fbd 0c5d 04be
00000030: 4b0b 2c3e c300 813d 3eb6 453b 0b63 85bd
00000040: cde1 0bbe dcdb bbbc fbba afbd 781c a9bd
00000050: df7c 17be 40c7 dfbd b3be a23c 696c 6b3d
00000060: 5c21 b3bd 368d cbbd 837f 98bb 8098 5d3c
00000070: 2777 e2bc 7129 69bb bd70 66bd 58cb 903d
00000080: 4068 a43c 43bc 22bd a7f3 883d 5167 5ebd
00000090: 7058 a23d 4edf 0dbd da71 c9bd bdc7 c03d
000000a0: 51b2 fabd b414 b4bd a9b7 b33d 80df 283e
000000b0: 3b21 2c3d f6c5 48bd 0646 3cbd f7e6 30be
000000c0: 9983 313d a63e 7cbd ef6f 113d 5942 853c
000000d0: 26b5 2b3e dfa7 5f3c 2cb1 483d fdb9 15be
000000e0: d9a9 d4bd 6492 7f3d 0e7b fc3b 2ef2 543d
000000f0: 3f18 123d 5145 b9bd 6c18 753d 860e 823b
00000100: 22b8 0ebc 13e6 143c dcd5 d43d eaa2 35bd
00000110: 3449 72be 4e4f 99bd 923a 833d 2053 2f3d
00000120: 1906 c8bc abf5 f53a b6c4 1e3d a216 833d
00000130: f1f7 d33b 18b1 97bd e1f4 25be 4ee8 58bd
00000140: f917 d4bd 0d27 e43d 4871 b6bd b09d dbba
00000150: 8d94 42bd 3376 a63d ab24 a6bd 0e9c 1dbe
00000160: 0c3c 52bd 1f19 58be 71db 5abe 0f58 28be
00000170: 9d3a acbd 866a edbd f4b9 8a3d dccc 173c
00000180: addf 9d3c b873 1d3e e13d 063e f269 963c
00000190: 856b 13be 2683 c43d e308 0a3c 5a83 583c
000001a0: 0181 5c3d daa5 ddbc 58fb 03be ef85 5cbd
000001b0: 3090 19bd 4c4b a93b 5d38 c13c 10c4 4b3b
000001c0: 0e24 143e 5cad 203d 9c4f 6fbd 49ef 283e
000001d0: 8625 22bd 0f3e c2bd a2c2 5fbd 9f11 b9bd
000001e0: 69be b23b f0c4 8f3d 2b2d ffbd be3c 5c3e
000001f0: 4781 38be b8f8 3ebe 60bc d53d 6588 95bd
00000200: c601 d93d 5274 28bd 06c3 00bd 8e02 89bd
00000210: 2bf7 94bd e24c 52be b8c1 fc3c 8f98 9f3c
00000220: 8450 983d b88c 45bd 211f 513d ba33 f53d
00000230: 115a 523b 7ab7 003e 6cff 42bd b81e 0f3d
00000240: 9132 35be 8725 493d 8149 8b3d 87d9 ad3d
00000250: bfe3 cabc 2d77 b9bd 84ec e73d 8409 98bd
00000260: 027f e1bc b432 bf3d a94b 9d3c 1c04 63bd
00000270: 848f 8fbd 2854 33bd d4b6 a33c d22c 213d
00000280: 9681 eebc b20d 5ebd 5e76 ba3c f532 ac3d
00000290: bebc 46bc c285 6139 fcb2 883d f48e 123c
000002a0: 9c6c 76bb 545f 03bc e5c6 0fbe b23f ae3d
000002b0: 7d3e 023b 67a6 133e ea5c 29bd 7a42 d8bd
000002c0: ce0c 8d3c 9dbb 003e 314c a2bd f9bf 6dbd
000002d0: fceb 343d a455 7cbd 45be 34bd c661 11be
000002e0: 3e99 3c3d 3099 8cbc 1846 2c3c a149 bbbc
000002f0: d547 6abd 0861 b6bc 460b 1ebe c9aa bc3c
00000300: ed34 c93c 19d3 f8bc 4846 0f3c 1f42 57be
00000310: c73a 26be 4ee4 c4bd 620b cb3c 06b2 1bbe
00000320: 34a1 db3d 136f eb3a f4b0 dc3a 6027 b63b
00000330: 258f d73c 5a8c 4cbd 670b 6a3d 0223 813c
00000340: 9a75 8c3d 4052 5dbd 1988 57bc dcb5 db3d
00000350: 1665 52bd aac9 ccbc 1cc4 07be c041 0bbe
00000360: 9ef2 ffbd 94d5 ec3a 9bcb a63d af39 8f3d
00000370: b173 2bbd ce2f 03be f41e 1cbd 47e1 0bbe
00000380: c233 26be 69ec 65bd e240 b53d eaf4 0f3e
00000390: 25ce febd 64fc 973c f6e8 9cbd d2a4 433d
000003a0: d57b 51bd b7ed 813d 2981 fcbc 867a f03d
000003b0: e2ff 53bd ed18 7c3e 734c 143d cfc8 30be
000003c0: 9998 4dbd 258d 973d ede1 28bd 21d7 f9bb
000003d0: b21a 083e 9aeb a43d 369f 423d 97de cc3d
000003e0: 0758 ecbd 03e8 c6bd 0b45 c53d 4515 8abc
000003f0: c6ed 413d d155 fd3d 0ba7 d9bd 80b1 56bd

model.fc.2.bias f4 [64]
0.005460422 0.04419424 -0.039220247 -0.02697837 0.029147344 0.06438903 0.020136211 -0.06943737
-0.014619731 -0.06381815 0.13562001 0.0058016633 -0.045761403 0.018469404 0.03426568 -0.072122365
-0.037149798 0.01202983 -0.0017930935 -0.037337158 -0.050173268 -0.025887424 -0.03775337 -0.063979976
0.058451362 -0.022527378 -0.054370098 -0.050117694 -0.058555003 -0.008359645 0.035084214 0.04508813
-0.06235699 -0.0293405 0.08718063 0.005146134 -0.027376188 0.027551942 0.040662836 0.049446918
-0.071439505 0.056493606 -0.017294997 0.058491357 0.07107569 0.02778907 0.052755903 -0.010415124
-0.023594683 -0.01586053 0.0065249926 -0.07601225 -0.048170798 0.10067635 0.028039861 0.0028861158
-0.035864025 0.011489714 0.04201398 -0.06121484 -0.016297728 -0.051289063 -0.10163258 -0.059533924
00000000: 57ed b23b 0505 353d 69a5 20bd be01 ddbc
00000010: 69c6 ee3c 65de 833d b2f4 a43c 2e35 8ebd
00000020: 9987 6fbc 17b3 82bd f9df 0a3e e11b be3b
00000030: 4f70 3bbd 264d 973c 2b5a 0c3d e4b4 93bd
00000040: 632a 18bd c418 453c 3c06 ebba d9ee 18bd
00000050: 7c82 4dbd dd11 d4bc 47a3 1abd ef07 83bd
00000060: b26a 6f3d 568b b8bc 2eb3 5ebd 3648 4dbd
00000070: 5fd7 6fbd e4f6 08bc 77b4 0f3d 55ae 383d
00000080: 0b6a 7fbd 7d5b f0bc c28b b23d e7a0 a83b
00000090: 0744 e0bc 9cb4 e13c 138e 263d da88 4a3d
000000a0: e04e 92bd d765 673d 3dae 8dbc a294 6f3d
000000b0: 2290 913d e7a5 e33c 9316 583d 32a4 2abc
000000c0: a349 c1bc f1ed 81bc 9bcf d53b 4fac 9bbd
000000d0: be4e 45bd 672f ce3d dab3 e53c fd24 3d3b
000000e0: 28e6 12bd 5a3f 3c3c da16 2c3d 69bc 7abd
000000f0: d082 85bc 7b14 52bd be24 d0bd d8d9 73bd

model.fc.3.weight f4 [64]
1.0299691 0.81556314 0.93116325 0.9672866 0.72038853 0.77999365 0.91788936 0.8690368
0.9186503 0.8816857 1.1039581 1.0240487 0.9034307 0.9513 0.76389545 0.7979291
0.8306512 0.9582496 1.1055303 0.96996576 0.91658306 0.90720546 1.017108 1.003647
0.84173304 0.8148173 0.8883435 0.9935216 0.93372715 0.8614053 1.2049135 0.8484007
1.0411569 0.91330236 0.9245871 0.9487571 0.9678325 0.8265814 0.7995214 0.9852716
1.1264896 1.0812881 1.0644879 0.9623465 0.9378231 0.89284045 0.73307806 0.686714
1.1396492 0.77662206 0.9242416 1.0312063 0.7930744 1.1465894 0.9062434 0.9314881
0.7233158 0.92646605 0.9455651 0.88288456 0.7995013 0.89202726 1.1583164 1.0147116
00000000: 07d6 833f bfc8 503f b760 6e3f 18a0 773f
00000010: 626b 383f aaad 473f ccfa 6a3f 3279 5e3f
00000020: ab2c 6b3f 27b6 613f 804e 8d3f 0714 833f
00000030: 3c47 673f 6688 733f a78e 433f 1545 4c3f
00000040: 8fa5 543f d94f 753f 0482 8d3f ad4f 783f
00000050: 30a5 6a3f 9e3e 683f 9830 823f 8177 803f
00000060: d17b 573f de97 503f 7b6a 633f 6e57 7e3f
00000070: be08 6f3f 0f85 5c3f 9b3a 9a3f ca30 593f
00000080: a144 853f 2fce 693f bdb1 6c3f bfe1 723f
00000090: dfc3 773f d79a 533f 6fad 4c3f c23a 7c3f
000000a0: d030 903f a667 8a3f 2441 883f 575c 763f
000000b0: 2d15 703f 3191 643f 01ab 3b3f 7dcc 2f3f
000000c0: 06e0 913f b4d0 463f 199b 6c3f 91fe 833f
000000d0: ed06 4b3f 71c3 923f 91ff 673f 0176 6e3f
000000e0: 392b 393f e12c 6d3f 8e10 723f b904 623f
000000f0: 1eac 4c3f e65b 643f b643 943f 12e2 813f

model.fc.3.bias f4 [64]
0.09764416 -0.18584086 -0.2544859 -0.02123038 -0.20935953 -0.13310543 -0.0061061657 -0.025771968
-0.2564645 -0.083320186 -0.3361884 -0.0022771442 -0.17365259 -0.08928559 -0.22671045 -0.24604721
-0.23015879 -0.12555917 -0.444818 -0.24221677 -0.2556193 -0.30905536 0.12263536 0.03897904
0.056834865 -0.35922056 -0.019164102 0.113790005 0.09146346 0.021451792 -0.36642718 0.054516744
0.095187075 -0.2004936 -0.0072614434 0.2658895 -0.1745738 -0.4161991 -0.10635894 -0.23466118
-0.41549268 0.010351715 -0.3637618 -0.10894271 -0.29148635 -0.3247202 -0.22431721 -0.27731952
-0.36001664 0.111437626 -0.33117464 -0.085781775 -0.11907331 -0.42376235 -0.036542535 -0.3191881
-0.2722615 0.025145242 -0.32216188 -0.28098696 -0.15039289 -0.12363186 -0.34232175 -0.17469433
00000000: a9f9 c73d 114d 3ebe fa4b 82be 55eb adbc
00000010: 5862 56be ca4c 08be 3b16 c8bb bc1f d3bc
00000020: 514f 83be c6a3 aabd e320 acbe 243c 15bb
00000030: fcd1 31be 5ddb b6bd c926 68be cdf3 7bbe
00000040: bfae 6bbe 9592 00be 2fbf e3be ac07 78be
00000050: 88e0 82be 813c 9ebe 3f28 fb3d 7ca8 1f3d
00000060: adcb 683d c2eb b7be 09fe 9cbc bc0a e93d
00000070: 3251 bb3d abbb af3c 589c bbbe f34c 5f3d
00000080: 71f1 c23d 324e 4dbe 67f1 edbb ab22 883e
00000090: 79c3 32be 0c18 d5be b7d2 d9bd 054b 70be
000000a0: 75bb d4be 3d9a 293c fd3e babe 5b1d dfbd
000000b0: b33d 95be ba41 a6be 69b3 65be d3fc 8dbe
000000c0: 1a54 b8be 6939 e43d b98f a9be 5bae afbd
000000d0: b5dc f3bd 61f7 d8be a0ad 15bd 9f6c a3be
000000e0: dc65 8bbe 65fd cd3c 67f2 a4be 86dd 8fbe
000000f0: 9800 1abe b332 fdbd cc44 afbe 12e3 32be

model.fc.3.running_mean f4 [64]
0.4291354 -0.08815728 -0.51540124 0.13294455 -0.28960162 -0.24892065 0.22004473 0.32421705
-0.14055753 0.065905176 -0.36860657 0.3354121 -0.4159291 0.69417155 -0.10742354 -0.20823342
-0.29057413 0.6122238 -0.45645517 -0.5229125 -0.08815804 0.061802004 0.46596357 0.28411618
-0.12147361 -0.5175962 0.038728952 -0.13236865 -0.29445866 0.13041817 -0.524331 0.28258732
0.43980098 0.494508 0.4294138 0.2118101 -0.09640876 0.01641855 -0.19460364 0.05739587
-0.5702488 0.53761387 -0.6238805 0.60452384 0.11370963 -0.14229676 -0.08473717 -0.2159279
-0.5781507 0.014979998 -0.6155751 0.6492918 0.019362623 -0.37358186 0.45147127 -0.0141326515
-0.1546243 0.36807358 -0.3475331 -0.3397922 0.3882875 -0.05006465 -0.6681133 0.48074046
00000000: a3b7 db3e ce8b b4bd 56f1 03bf 9e22 083e
00000010: aa46 94be 0ee5 7ebe 6853 613e c7ff a53e
00000020: 50ee 0fbe 4bf9 863d 00ba bcbe 23bb ab3e
00000030: a9f4 d4be 3ab5 313f df00 dcbd 243b 55be
00000040: 22c6 94be b3ba 1c3f 7eb4 e9be 98dd 05bf
00000050: 348c b4bd 1924 7d3d c792 ee3e ad77 913e
00000060: 28c7 f8bd 2f81 04bf 40a2 1e3d a68b 07be
00000070: 49c3 96be 578c 053e 8e3a 06bf 49af 903e
00000080: 982d e13e 2730 fd3e 20dc db3e bfe4 583e
00000090: f571 c5bd 3280 863c 2d46 47be ef17 6b3d
000000a0: d3fb 11bf 10a1 093f a2b6 1fbf 13c2 1a3f
000000b0: 98e0 e83d 3eb6 11be ae8a adbd 341c 5dbe
000000c0: af01 14bf aa6e 753c 5496 1dbf fd37 263f
000000d0: 5d9e 9e3c 1f46 bfbe 3e27 e73e a38c 67bc
000000e0: d555 1ebe 2474 bc3e dcef b1be 3ef9 adbe
000000f0: 9fcd c63e 9710 4dbd 7909 2bbf 9d23 f63e

model.fc.3.running_var f4 [64]
0.20623091 0.47937375 0.51618624 0.32462418 0.3977265 0.4880856 0.19288331 0.18255867
0.6488769 0.20510386 0.5618417 0.20072748 0.36481193 0.8337825 0.57516944 0.61011183
0.36129403 0.6141769 0.49399456 0.48210433 0.65950453 0.48210493 0.20981035 0.2487516
0.15503553 0.43208385 0.38398847 0.19756207 0.16914988 0.15323678 0.4895668 0.20427978
0.46932453 0.7490493 0.1869238 0.26146537 0.838711 0.5397478 0.36170536 0.56035084
0.5066004 0.5617801 0.48849326 0.7017634 0.64621174 0.7415216 0.3948458 0.32984462
0.5525996 0.17373584 0.5314536 0.77185786 0.30476972 0.49727362 0.33924448 0.7243403
0.25824702 0.1972318 0.5337822 0.6768345 0.21508408 0.25860855 0.5170567 0.583976
00000000: 322e 533e 7a70 f53e c824 043f 2435 a63e
00000010: cfa2 cb3e 5be6 f93e 3483 453e a9f0 3a3e
00000020: cc1c 263f bf06 523e dcd4 0f3f 818b 4d3e
00000030: a1c8 ba3e c572 553f 4e3e 133f 4a30 1c3f
00000040: 88fb b83e b33a 1d3f dbec fc3e 61d6 f63e
00000050: 4ad5 283f 75d6 f63e 86d8 563e bdb8 7e3e
00000060: a2c1 1e3e 183a dd3e 239a c43e b64d 4a3e
00000070: a035 2d3e 1aea 1c3e 80a8 fa3e b82e 513e
00000080: 4e4b f03e b2c1 3f3f f468 3f3e cade 853e
00000090: c4b5 563f e92c 0a3f 7231 b93e 2773 0f3f
000000a0: 90b0 013f d2d0 0f3f ca1b fa3e c4a6 333f
000000b0: 226e 253f 5cd4 3d3f 3b29 ca3e 65e1 a83e
000000c0: 2b77 0d3f cfe7 313e 580d 083f 7a98 453f
000000d0: c70a 9c3e a69a fe3e 74b1 ad3e 5e6e 393f
000000e0: f438 843e 22f7 493e f3a5 083f 0745 2d3f
000000f0: 003f 5c3e 5768 843e d45d 043f 737f 153f

model.fc.6.weight f4 [32, 64]
0.003987359 0.14523871 0.09317151 -0.1138831 -0.06221237 0.10616753 0.08744204 -0.020935196
0.15483864 -0.0052672443 0.08663503 0.08490748 0.16226338 -0.060936667 0.11371914 0.05706439
0.032158103 -0.11881754 0.098363504 0.01830256 -0.037199557 0.05162808 0.046300232 0.082801655
0.15217653 0.091960974 -0.14658406 0.14293684 0.14000759 0.21726654 0.09991675 0.08776904
-0.287169 0.028704055 0.04940821 0.1907331 0.113284886 -0.07302002 0.13907684 0.10970532
0.08057426 -0.15438338 0.107377544 -0.1796515 0.10120011 0.042659 -0.01176416 0.035030432
0.13570158 0.09474484 0.086718455 0.088651165 -0.25228727 -0.025099482 0.07603816 -0.012834741
0.15019996 -0.08633802 0.028448842 0.07436032 0.13716865 -0.21225795 0.040005803 -0.051787302
0.10136317 -0.10998135 -0.10522152 0.08128537 -0.048778035 -0.17111984 0.13936579 0.066798456
-0.13060936 0.15150492 -0.12567037 0.06268206 -0.12205794 -0.012737153 -0.08333825 -0.19520847
0.10221684 -0.031475935 -0.12071787 -0.061333757 -0.1910529 -0.16521837 0.1029931 0.14046942
0.061774135 0.051102854 0.044674978 0.18413255 0.15340938 0.04837378 -0.13898255 0.026740313
0.085947596 0.0055972817 0.1710998 0.06935125 -0.12931156 -0.11323704 -0.07019758 -0.2329289
-0.10970402 0.022651793 -0.1963278 -0.0036501025 -0.045230906 -0.16215406 -0.06591469 -0.020387884
-0.12760437 0.052247576 -0.018670019 0.030933088 -0.048520815 -0.27636483 0.13331994 -0.042439785
-0.020575592 0.026654674 -0.09269478 -0.23308493 0.09548322 0.023574652 -0.08786317 0.058801267
-0.028634561 -0.13432841 0.10579952 -0.011966812 0.0895624 -0.123120084 0.09640251 0.09655374
-0.1012087 -0.0025036773 0.038211662 0.0150250485 -0.02499448 0.20015676 -0.0886065 -0.10098214
0.004392703 0.12179767 0.1602926 0.024990061 -0.16561711 -0.13011113 0.052263748 0.06579065
-0.08452993 0.16906723 -0.008489568 -0.008277673 -0.08341245 -0.033591576 0.15557025 -0.031823788
-0.09100916 0.25261784 0.034980427 -0.09329987 -0.18923755 -0.12075438 -0.08818214 -0.18539403
0.14580852 -0.033654053 0.07523018 0.20134647 -0.14625593 -0.070489064 -0.053746182 -0.09315528
0.13165872 -0.10016564 0.091104776 0.23264574 0.18483624 0.040452756 0.074751146 -0.12224759
-0.03626309 0.037293594 0.1740826 -0.15668528 0.11555624 0.0012448778 0.26013854 -0.081872925
-0.15897182 0.0035146347 0.124599144 -0.008521201 0.06346089 -0.06130799 -0.17035432 -0.016312055
0.07567759 -0.09489876 0.19370745 -0.11781839 -0.12378006 0.22178312 0.13593385 -0.03622358
0.019109579 0.1557676 0.19522293 0.0374968 0.10568573 0.03976742 -0.08121747 -0.07332213
-0.11102259 0.109160945 0.05840837 -0.16413535 -0.17121078 -0.15425973 0.23426877 -0.102072865
0.03409966 0.065794416 -0.102501206 -0.16157143 0.005795484 0.009121952 -0.0077472148 -0.0145808
0.20872438 0.07696342 0.15421245 0.058534622 0.1199959 -0.057054203 0.10482904 0.091860205
0.19715919 -0.13685803 0.107233085 0.08317259 0.055110745 0.16343263 -0.13387187 0.04032774
-0.06797369 -0.09804785 0.16705604 0.081859745 -0.04206011 0.015585934 0.15288194 0.0974917
00000000: 64a8 823b 75b9 143e b4d0 be3d 8b3b e9bd
00000010: 66d2 7ebd 5d6e d93d d014 b33d 4a80 abbc
00000020: 058e 1e3e d998 acbb b56d b13d f9e3 ad3d
00000030: 5f28 263e ba98 79bd 95e5 e83d 5abc 693d
00000040: 37b8 033d 9c56 f3bd ce72 c93d 40ef 953c
00000050: 905e 18bd f777 533d 50a5 3d3d ea93 a93d
00000060: 2ad4 1b3e 0956 bc3d 221a 16be 095e 123e
00000070: 265e 0f3e 1f7b 5e3e 27a1 cc3d 41c0 b33d
00000080: d107 93be c424 eb3c 4360 4a3d 8a4f 433e
00000090: e801 e83d 858b 95bd 296a 0e3e 2fad e03d
000000a0: 1e04 a53d ad16 1ebe c2e8 db3d 90f6 37be
000000b0: 0142 cf3d 34bb 2e3d 77be 40bc 127c 0f3d
000000c0: 5bf5 0a3e 9509 c23d 7299 b13d be8e b53d
000000d0: cc2b 81be 6e9d cdbc e5b9 9b3d ce48 52bc
000000e0: 05ce 193e fdd1 b0bd 8c0d e93c 394a 983d
000000f0: f075 0c3e 265a 59be 20dd 233d ec1e 54bd
00000100: 7e97 cf3d e73d e1bd 617e d7bd f278 a63d
00000110: 7acb 47bd 0a3a 2fbe e8b5 0e3e a1cd 883d
00000120: 76be 05be 1b24 1b3e bcaf 00be 745f 803d
00000130: 83f9 f9bd 7eaf 50bc 3fad aabd bbe4 47be
00000140: 1057 d13d e9ec 00bd ee3a f7bd 1b39 7bbd
00000150: 5fa3 43be 012f 29be 0cee d23d 37d7 0f3e
00000160: e006 7d3d 3a51 513d 1cfd 363d 3e8d 3c3e
00000170: 5917 1d3e 9623 463d 7151 0ebe 800e db3c
00000180: 4b05 b03d 6769 b73b c934 2f3e 0708 8e3d
00000190: 406a 04be d2e8 e7bd c0c3 8fbd ea84 6ebe
000001a0: 80ac e0bd 4190 b93c 280a 49be 8f36 6fbb
000001b0: 0b44 39bd b70b 26be 48fe 86bd 7e04 a7bc
000001c0: b8aa 02be 8e01 563d def1 98bc 6367 fd3c
000001d0: c3bd 46bd b17f 8dbe 0685 083e 57d5 2dbd
000001e0: 258e a8bc e75a da3c c3d6 bdbd d1ad 6ebe
000001f0: b58c c33d a11f c13c 9bf1 b3bd 99d9 703d
00000200: 0793 eabc 638d 09be 6bad d83d 7310 44bc
00000210: 7e6c b73d 6226 fcbd ae6e c53d f8bd c53d
00000220: 8246 cfbd bc14 24bb d583 1c3d 9f2b 763c
00000230: 39c1 ccbc e5f5 4c3e 5377 b5bd b9cf cebd
00000240: aaf0 8f3b 0f71 f93d be23 243e f5b7 cc3c
00000250: 8897 29be da3b 05be 8312 563d 40bd 863d
00000260: 071e adbd f61f 2d3e d417 0bbc 149f 07bc
00000270: 26d4 aabd 5297 09bd cf4d 1f3e a959 02bd
00000280: 0363 babd 2057 813e a347 0f3d 0114 bfbd
00000290: 7dc7 41be 134e f7bd d698 b4bd efd7 3dbe
000002a0: d44e 153e d5d8 09bd 4812 9a3d c52d 4e3e
000002b0: 1dc4 15be 925c 90bd f524 5cbd 32c8 bebd
000002c0: 8bd1 063e a523 cdbd 2495 ba3d af3a 6e3e
000002d0: b645 3d3e cab1 253d 2117 993d f25c fabd
000002e0: 9b88 14bd 2bc1 183d b642 323e 1b72 20be
000002f0: c0a8 ec3d 2b2b a33a e130 853e feac a7bd
00000300: 82c9 22be c955 663b d62d ff3d 829c 0bbc
00000310: c8f7 813d 161e 7bbd 5d71 2ebe dca0 85bc
00000320: dafc 9a3d 485a c2bd 3f5b 463e c54a f1bd
00000330: 6680 fdbd 1d1b 633e 3e32 0b3e 2d5f 14bd
00000340: b18b 9c3c 8b81 1f3e 85e8 473e 3f96 193d
00000350: c371 d83d 2ae3 223d 5855 a6bd ea29 96bd
00000360: d05f e3bd c68f df3d 9d3d 6f3d 1913 28be
00000370: e151 2fbe 43f6 1dbe 27e4 6f3e 940b d1bd
00000380: 16ac 0b3d 39bf 863d 27ec d1bd fb72 25be
00000390: 0be8 bd3b 3d74 153c 59dc fdbb 4fe4 6ebc
000003a0: d8bb 553e ff9e 9d3d dee9 1d3e 00c2 6f3d
000003b0: 69c0 f53d abb1 69bd 9cb0 d63d 3421 bc3d
000003c0: 19e4 493e 8324 0cbe 059d db3d 6456 aa3d
000003d0: cebb 613d e25a 273e b515 09be b32e 253d
000003e0: ca35 8bbd 50cd c8bd bd10 2b3e 15a6 a73d
000003f0: 3947 2cbd 255c 7f3c 158d 1c3e baa9 c73d

model.fc.6.bias f4 [32]
-0.06588934 -0.083994545 -0.024344467 0.08367903 -0.0065898877 -0.0338928 -0.1091456 0.026311168
-0.033688292 -0.055422977 0.029256279 0.09788633 0.01741901 0.04255936 -0.021400966 0.07062675
-0.10492384 -0.083818704 -0.10546893 0.103217 -0.02117335 -0.100845255 -0.086191624 0.008626884
0.022214746 0.036667652 0.099477135 0.021952352 -0.015175257 0.006063412 -0.0094170105 -0.049489297
00000000: fef0 86bd 5505 acbd 0c6e c7bc e95f ab3d
00000010: fcef d7bb 2dd3 0abd ba87 dfbd 858a d73c
00000020: bcfc 09bd 3403 63bd ddaa ef3c a178 c83d
00000030: 50b2 8e3c b952 2e3d 1451 afbc c2a4 903d
00000040: 4fe2 d6bd 24a9 abbd 1800 d8bd 6f63 d33d
00000050: bc73 adbc f587 cebd 3c85 b0bd c657 0d3c
00000060: b3fb b53c d230 163d abba cb3d 6bd5 b33c
00000070: a4a1 78bc 96af c63b ce49 1abc 4ab5 4abd

model.fc.7.weight f4 [32]
0.87454194 0.9575163 0.9514138 1.0093805 0.84047043 0.993465 0.98999417 0.7895638
1.0310173 0.8949387 0.881496 1.0213364 0.79295045 0.8265001 0.9719545 0.95239866
0.8739366 0.969272 0.95194983 0.87679017 0.89805526 0.8550778 0.7529009 0.95063645
0.92208517 0.9905143 0.751309 0.97778416 0.81950676 0.95485735 0.9898823 1.0845523
00000000: fbe1 5f3f ca1f 753f db8f 733f 6133 813f
00000010: 1229 573f b953 7e3f 4270 7d3f da20 4a3f
00000020: 60f8 833f b41a 653f b9a9 613f 27bb 823f
00000030: cdfe 4a3f 8395 533f 03d2 783f 66d0 733f
00000040: 4fba 5f3f 3622 783f fcb2 733f 5275 603f
00000050: f3e6 653f 61e6 5a3f 1dbe 403f e95c 733f
00000060: c60d 6c3f 5892 7d3f c955 403f 1050 7a3f
00000070: 32cb 513f 8871 743f ed68 7d3f 9cd2 8a3f

model.fc.7.bias f4 [32]
0.021059403 -0.14848429 -0.27841318 -0.08397455 -0.18963686 -0.11359902 -0.2314412 -0.1250057
-0.26140153 -0.1325567 -0.24111114 -0.106392615 -0.20696259 -0.17226143 -0.100796826 -0.1686661
-0.19556154 -0.17533983 -0.113973364 -0.16626756 -0.26831323 0.03729846 -0.24805708 -0.23759331
-0.1942899 -0.15336065 -0.15242659 -0.18246159 -0.2602556 0.0431043 -0.112355284 -0.078697994
00000000: c584 ac3c 440c 18be 2c8c 8ebe d9fa abbd
00000010: 2a30 42be 9aa6 e8bd ecfe 6cbe 7f01 00be
00000020: 6cd6 85be f2bc 07be d7e5 76be 5fe4 d9bd
00000030: 00ee 53be 4d65 30be 916e cebd ceb6 2cbe
00000040: 4941 48be 498c 33be de6a e9bd 0b42 2abe
00000050: 5a60 89be 45c6 183d ad02 7ebe a94b 73be
00000060: eef3 46be 930a 1dbe b715 1cbe 36d7 3abe
00000070: 3940 85be 228e 303d 871a e6bd 6a2c a1bd

model.fc.7.running_mean f4 [32]
0.23353812 0.09704499 0.14842877 -0.03215022 -0.062190667 -0.17281094 -0.4272794 -0.2229962
-0.2267578 -0.005428865 -0.8700828 -0.11513519 -0.18202654 0.15070131 -0.088816725 0.24817434
-0.46160606 0.074061275 -0.41067916 0.53277874 -0.62693167 -0.41058308 -0.052572012 -0.31256184
-0.2513541 -0.21158282 0.13208191 0.32045713 -0.6965163 -0.18484764 -0.1291534 -0.18052925
00000000: 9e24 6f3e 86bf c63d b6fd 173e f3af 03bd
00000010: a4bb 7ebd 5af5 30be 5ec4 dabe 1e59 64be
00000020: 3233 68be 9fe4 b1bb bfbd 5ebf 00cc ebbd
00000030: 2a65 3abe 7251 1a3e 8be5 b5bd 6a21 7e3e
00000040: a157 ecbe 70ad 973d 8a44 d2be 3064 083f
00000050: 987e 20bf f237 d2be c055 57bd 1b08 a0be
00000060: 7cb1 80be 2ba9 58be 7b40 073e f512 a43e
00000070: e44e 32bf b348 3dbe ca40 04be a9dc 38be

model.fc.7.running_var f4 [32]
1.9097271 3.6640863 1.7129115 2.5764234 1.9484186 2.8574338 2.3715653 1.3450402
2.3665178 1.6350734 0.9888195 3.4019141 0.96025825 2.0780718 1.8923895 3.0930796
2.3997705 1.1171395 2.0909894 2.1234865 1.45593 0.9943714 1.144171 2.459028
1.428582 3.0523481 2.3798308 3.1776497 1.4207915 1.3847839 3.9521432 4.0500803
00000000: f071 f43f 6480 6a40 af40 db3f 1fe4 2440
00000010: c865 f93f 32e0 3640 bac7 1740 472a ac3f
00000020: 0775 1740 164a d13f 4623 7d3f f6b8 5940
00000030: 7cd3 753f 21ff 0440 d239 f23f 04f5 4540
00000040: d795 1940 6dfe 8e3f c5d2 0540 34e7 0740
00000050: ea5b ba3f 208f 7e3f 3274 923f b760 1d40
00000060: c6db b63f ac59 4340 264f 1840 9d5e 4b40
00000070: 7fdc b53f 9940 b13f eaef 7c40 429a 8140

model.fc.10.weight f4 [16, 32]
0.10010389 0.24339993 0.1324393 -0.15212844 -0.10277711 -0.11978684 -0.0529244 -0.097598605
-0.09835588 0.015456998 0.071580864 -0.2773544 -0.09733904 0.0014573617 -0.0154308425 0.18278863
-0.008485818 -0.014602568 -0.0561922 -0.04154421 -0.031219564 -0.010267079 0.018417027 -0.07874415
-0.024514683 -0.23925726 0.022077322 0.22341038 -0.03463196 0.02924314 -0.25722715 -0.2614487
0.045841534 0.14887154 -0.17593534 0.034934353 0.15021756 0.02981854 0.092243984 0.046588037
-0.043052245 -0.24467754 -0.11986988 0.07969532 -0.030270569 0.10306412 -0.43037987 0.20152645
-0.20672666 -0.15491652 -0.386368 0.028714284 -0.22149052 0.010938155 0.03593118 0.041229974
0.047851518 0.04353671 0.24407718 0.18869416 -0.19280119 -0.01560928 -0.0596832 0.029701684
0.02419497 0.13490106 0.1474974 -0.17757744 -0.14577577 -0.0768118 -0.017354425 -0.1838674
-0.14947467 0.027495606 0.056745153 -0.22612382 -0.044160735 -0.051271513 -0.0034586715 0.31856975
-0.0036110852 -0.01575311 -0.050307218 0.024660187 -0.07086457 -0.002716866 -0.07842673 -0.09010783
-0.0215007 -0.15218024 -0.14297575 0.19366348 -0.019208552 0.011847651 -0.18502504 -0.1288457
-0.109992355 -0.005649133 0.12677556 0.0010024343 -0.3667665 -0.05641951 -0.041424576 -0.41353348
0.045410857 0.061748512 -0.25340983 0.005458187 -0.2236894 -0.30816227 0.034693126 -0.21371467
-0.06855772 0.12683247 -0.068915114 0.028076401 0.020219741 -0.17899412 -0.1243494 -0.01338336
-0.16160406 -0.006437295 -0.40129584 -0.11211456 -0.07513364 -0.13148904 -0.01046636 -0.03070074
-0.13389525 0.102427006 0.028923485 0.13283898 -0.016371815 0.17159922 0.004628746 0.14228901
0.11021521 0.164541 -0.16533661 0.09156479 0.07320841 -0.056750838 0.08690671 0.032616764
0.13373196 0.21895856 0.060664617 -0.20108998 0.07007746 -0.277834 -0.13520299 0.074523926
-0.20899369 0.074735545 0.053160045 0.044701207 0.18292923 0.21120507 0.12306069 0.02948031
-0.14265601 0.089230545 -0.003372718 0.014659366 -0.033478897 -0.060885813 -0.2967275 0.042231716
-0.32204872 0.06473043 0.099620774 -0.083518885 0.11965208 0.014944122 0.008690347 0.1765363
-0.14140068 0.122146085 0.0023284599 -0.22611524 -0.052311193 -0.029644756 -0.04407974 -0.4547155
-0.24107075 -0.19390205 0.08326257 0.086083956 -0.10306498 0.12683399 -0.03230307 -0.02746505
0.13840705 0.24564119 0.1895043 -0.14008829 0.06533917 -0.17701714 -0.15593375 -0.022534667
-0.08082398 0.06250683 0.09782289 -0.22666253 -0.048561983 -0.066439874 0.08130499 0.08708705
0.091465384 -0.17078489 -0.08598381 -0.0981229 -0.042355184 0.15646522 -0.03253362 -0.0391811
0.08479967 -0.18448485 -0.042246927 0.2028929 -0.026039 -0.031033207 -0.35809666 -0.39385024
-0.016891658 -0.32231575 -0.1857206 -0.0105122905 0.173777 0.013108451 -0.116975255 0.0935511
-0.016487574 -0.040662456 -0.032055553 -0.05683505 0.03974867 0.1366903 -0.03156521 -0.32361254
-0.39363855 -0.008551293 0.035275467 0.007142121 -0.4405404 0.043008655 0.03307686 -0.05605322
-0.05514396 0.018028827 0.2051535 -0.34903252 -0.37131742 0.00078712706 0.022131126 0.005563302
00000000: 4503 cd3d d53d 793e 2b9e 073e 8fc7 1bbe
00000010: ce7c d2bd ce52 f5bd 41c7 58bd c7e1 c7bd
00000020: cf6e c9bd 593f 7d3c fd98 923d 6501 8ebe
00000030: b159 c7bd f204 bf3a a5d1 7cbc f12c 3b3e
00000040: 1a08 0bbc 9c3f 6fbc cb29 66bd 432a 2abd
00000050: 2cc0 ffbc 4037 28bc 4edf 963c 9d44 a1bd
00000060: 04d3 c8bc dbff 74be 80db b43c b1c5 643e
00000070: 3eda 0dbd 4f8f ef3c 47b3 83be 9bdc 85be
00000080: 55c4 3b3d c871 183e 6528 34be 5317 0f3d
00000090: a2d2 193e 0346 f43c 6aea bc3d 19d3 3e3d
000000a0: 8d57 30bd c08c 7abe 577e f5bd 4d37 a33d
000000b0: fcf9 f7bc 4813 d33d c05a dcbe f35c 4e3e
000000c0: 27b0 53be 70a2 1ebe 07d2 c5be 383a eb3c
000000d0: 69ce 62be f335 333c 932c 133d c3e0 283d
000000e0: f4ff 433d 8d53 323d 5eef 793e 0b39 413e
000000f0: ad6d 45be 11be 7fbc 5f76 74bd f250 f33c
00000100: 8834 c63c 8123 0a3e 8f09 173e dcd6 35be
00000110: 3e46 15be 814f 9dbd de2a 8ebc bc47 3cbe
00000120: e30f 19be 773e e13c 9b6d 683d 018d 67be
00000130: e3e1 34bd 1402 52bd e1aa 62bb 931b a33e
00000140: f5a7 6cbb ab0c 81bc f10e 4ebd 2904 ca3c
00000150: 7221 91bd 730d 32bb 329e a0bd 748a b8bd
00000160: 3c22 b0bc 23d5 1bbe 3c68 12be b84f 463e
00000170: 415b 9dbc a61c 423c 3477 3dbe 21f0 03be
00000180: ac43 e1bd 5d1c b9bb 74d1 013e 1d64 833a
00000190: d2c8 bbbe 2518 67bd d1ac 29bd a9ba d3be
000001a0: bc00 3a3d 02ec 7c3d efbe 81be 97da b23b
000001b0: d60e 65be 72c7 9dbe 611a 0e3d 05d8 5abe
000001c0: fd67 8cbd 5fe0 013e 5e23 8dbd 7b00 e63c
000001d0: dfa3 a53c 3c4a 37be e6aa febd e145 5bbc
000001e0: 897b 25be f2ef d2bb a676 cdbe 529c e5bd
000001f0: aadf 99bd 10a5 06be 187b 2bbc 1e80 fbbc
00000200: d61b 09be 40c5 d13d f2f0 ec3c f106 083e
00000210: 2f1e 86bc b5b7 2f3e bcac 973b 36b4 113e
00000220: 83b8 e13d 707d 283e 004e 29be 5286 bb3d
00000230: 4aee 953d 9173 68bd 25fc b13d 2899 053d
00000240: 08f1 083e ac36 603e 767b 783d 88ea 4dbe
00000250: c584 8f3d 4240 8ebe a772 0abe 00a0 983d
00000260: 7102 56be f30e 993d 59be 593d 9d18 373d
00000270: cd51 3b3e 2446 583e 3e07 fc3d b180 f13c
00000280: 6b14 12be 81be b63d d208 5dbb d62d 703c
00000290: 2b21 09bd 6763 79bd abec 97be 2afb 2c3d
000002a0: 92e3 a4be 6391 843d fa05 cc3d f30b abbd
000002b0: 260c f53d 31d8 743c f561 0e3c efc5 343e
000002c0: 57cb 10be ba27 fa3d 1399 183b c18a 67be
000002d0: 4344 56bd 8fd9 f2bc f58c 34bd 78d0 e8be
000002e0: 40db 76be 428e 46be 9185 aa3d c94c b03d
000002f0: bb13 d3bd c5e0 013e 3950 04bd 62fe e0bc
00000300: 94ba 0d3e 5d89 7b3e 6a0d 423e 4e73 0fbe
00000310: 8bd0 853d fb43 35be 19ad 1fbe 9f9a b8bc
00000320: 0b87 a5bd 9503 803d 5e57 c83d 391a 68be
00000330: eee8 46bd a111 88bd 3b83 a63d b25a b23d
00000340: 3452 bb3d 3ce2 2ebe 4818 b0bd a9f4 c8bd
00000350: a17c 2dbd 6b38 203e f941 05bd 5c7c 20bd
00000360: 73ab ad3d 99e9 3cbe 1d0b 2dbd 28c3 4f3e
00000370: be4f d5bc 5a39 febc 7258 b7be bda6 c9be
00000380: 6060 8abc 9206 a5be 8a2d 3ebe be3b 2cbc
00000390: 99f2 313e d4c4 563c b990 efbd b897 bf3d
000003a0: f310 87bc ad8d 26bd af4c 03bd dfcb 68bd
000003b0: 80cf 223d 8bf8 0b3e 864a 01bd 8bb0 a5be
000003c0: fe8a c9be b91a 0cbc 027d 103d 7408 ea3b
000003d0: 838e e1be d829 303d 9a7b 073d 1098 65bd
000003e0: a2de 61bd 31b1 933c c213 523e 64b4 b2be
000003f0: 511d bebe 3457 4e3a 564c b53c 5c4c b63b

model.fc.10.bias f4 [16]
-0.103622384 -0.09132156 0.012946508 0.11963624 -0.13434882 -0.06656765 0.10907667 -0.018106228
0.028498601 -0.047218837 -0.087928884 0.022190278 0.052883048 -0.029942589 -0.10461811 0.14915884
00000000: f937 d4bd cc06 bbbd 971d 543c d803 f53d
00000010: bd92 09be 9f54 88bd 9763 df3d 8353 94bc
00000020: e675 e93c 8a68 41bd 0f14 b4bd 63c8 b53c
00000030: e59b 583d 294a f5bc 0542 d6bd 18bd 183e

model.fc.11.weight f4 [16]
0.711877 0.76206297 0.75472516 0.8341118 0.7786246 0.86708575 0.73644555 0.7485627
0.8038239 0.77685106 0.7490631 0.80352134 0.77661914 0.8367195 0.9664304 0.7996947
00000000: 923d 363f 8f16 433f ab35 413f 5a88 553f
00000010: f153 473f 55f9 5d3f b287 3c3f cea1 3f3f
00000020: 67c7 4d3f b6df 463f 99c2 3f3f 93b3 4d3f
00000030: 83d0 463f 4033 563f fc67 773f cbb8 4c3f

model.fc.11.bias f4 [16]
-0.040037952 -0.32000765 -0.07179867 -0.35582316 -0.10401331 -0.0152607355 -0.03177544 -0.3083122
-0.18580413 -0.28941646 -0.14809258 -0.29586506 -0.22063072 0.016145833 -0.043130316 -0.20450012
00000000: d6fe 23bd 0bd8 a3be 2e0b 93bd 742e b6be
00000010: ee04 d5bd 2a08 7abc f726 02bd 19db 9dbe
00000020: 7043 3ebe 652e 94be 95a5 17be a07b 97be
00000030: 05ed 61be 4444 843c 6aa9 30bd 7b68 51be

model.fc.11.running_mean f4 [16]
-0.29758272 -0.14806743 -0.14151639 -0.18429933 0.060841683 -0.2460378 -0.086324826 -0.25864428
-0.08853076 -0.164026 -0.35733944 -0.13108765 -0.017728759 -0.24828464 -0.20595863 0.21043031
00000000: c35c 98be fd9e 17be ace9 10be f7b8 3cbe
00000010: 2135 793d 55f1 7bbe 12cb b0bd 066d 84be
00000020: 9d4f b5bd 6ff6 27be 32f5 b6be d73b 06be
00000030: e73b 91bc 543e 7ebe d2e6 52be 0b7b 573e

model.fc.11.running_var f4 [16]
1.6548654 0.75461274 1.3421347 1.2708393 1.1072745 1.74441 1.815868 0.8999403
1.1866851 0.5813375 1.9565455 0.8804397 0.97826976 1.0138942 1.2370698 1.1595674
00000000: a1d2 d33f 4d2e 413f 12cb ab3f ddaa a23f
00000010: 2cbb 8d3f d448 df3f 5d6e e83f 7d62 663f
00000020: 4ce5 973f 89d2 143f 1570 fa3f 7f64 613f
00000030: e36f 7a3f 49c7 813f 4e58 9e3f b46c 943f

model.fc.14.weight f4 [8, 16]
0.3782905 0.008545536 0.18925007 0.0019312695 -0.048254352 0.11500088 0.37323514 -0.086001135
-0.047214516 -0.018244054 0.43182656 -0.15973864 -0.101851396 0.106167376 0.10378238 -0.026296297
0.0807563 -0.20223793 0.011838993 -0.23122218 -0.015437592 0.26838952 0.0866457 0.11251325
-0.1647769 0.16952004 0.11068345 0.039148696 -0.2791913 -0.16095617 0.23347043 0.02826328
0.11677636 -0.09121622 0.12709044 0.53763884 0.059408363 -0.024001548 0.1605769 -0.26075125
-0.05072495 -0.11805133 0.09691057 -0.30100298 0.106531605 -0.058452137 -0.081751816 0.04489998
0.3085114 -0.06113059 0.30012226 0.011189855 -0.091123596 0.07633106 0.3080753 -0.20074508
-0.013048436 -0.17241777 0.2546449 -0.11269556 -0.07105811 0.022221725 0.20254451 -0.12875551
0.16957702 -0.087015465 0.06851117 -0.08627128 -0.028452683 0.29315993 0.19911423 0.067625284
-0.080258325 0.17461973 0.23057526 -0.06841948 -0.2900914 -0.0564696 0.30481654 0.05492482
-0.14169686 0.16260204 -0.22888325 -0.2798666 0.015423571 0.081301935 -0.043372545 0.2843139
0.14593312 0.14837395 -0.039068528 0.3344878 -0.04245124 0.12331406 0.059791375 -0.005019333
-0.19065572 -0.13813885 -0.26906288 0.15281725 0.2971881 0.04999325 -0.18456101 -0.018896462
-0.12483202 0.14039606 -0.09630558 0.003506561 0.020205854 -0.20263788 0.09201925 0.31983244
0.10791835 0.26191607 0.038061935 -0.0877727 -0.06544596 -0.025592156 0.19575816 0.05191231
0.3077535 -0.06812284 0.2859409 0.08377334 0.05124259 0.3914575 -0.02352349 -0.19552289
00000000: 4baf c13e 9302 0c3c c5ca 413e a722 fd3a
00000010: 5ba6 45bd 9585 eb3d ad18 bf3e 5d21 b0bd
00000020: 0264 41bd 8e74 95bc 5f18 dd3e 8792 23be
00000030: 7797 d0bd 486e d93d db8b d43d 556b d7bc
00000040: 8f63 a53d 7617 4fbe 56f8 413c 82c5 6cbe
00000050: f4ed 7cbc 5a6a 893e 4d73 b13d 596d e63d
00000060: 47bb 28be a996 2d3e 01ae e23d 625a 203d
00000070: 29f2 8ebe b2d1 24be df12 6f3e 6588 e73c
00000080: 7228 ef3d 92cf babd ff23 023e b3a2 093f
00000090: 2f56 733d e59e c4bc 456e 243e 3081 85be
000000a0: f7c4 4fbd e5c4 f1bd 0d79 c63d 101d 9abe
000000b0: 3e2d da3d 826b 6fbd 7f6d a7bd 0be9 373d
000000c0: 35f5 9d3e 1264 7abd a0a9 993e a755 373c
000000d0: 029f babd 7553 9c3d 0cbc 9d3e 1e90 4dbe
000000e0: 1bc9 55bc 498e 30be d160 823e eecc e6bd
000000f0: ea86 91bd 560a b63c d467 4f3e 7cd8 03be
00000100: 99a5 2d3e 2a35 b2bd 964f 8c3d ffae b0bd
00000110: 9a15 e9bc 0f19 963e 9ae4 4b3e 207f 8a3d
00000120: 7a5e a4bd 84cf 323e ec1b 6c3e 831f 8cbd
00000130: dc86 94be ab4c 67bd ea10 9c3e d9f8 603d
00000140: fb18 11be 2681 263e 5f60 6abe ad4a 8fbe
00000150: 25b3 7c3c a181 a63d 69a7 31bd 9791 913e
00000160: 7e6f 153e 57ef 173e 5206 20bd fc41 ab3e
00000170: 5ae1 2dbd 158c fc3d cde7 743d 3879 a4bb
00000180: 413b 43be 4574 0dbe 9cc2 89be 207c 1c3e
00000190: 0a29 983e b9c5 4c3d 90fd 3cbe c1cc 9abc
000001a0: eea7 ffbd fcc3 0f3e dc3b c5bd 55ce 653b
000001b0: bf86 a53c 4e80 4fbe 9774 bc3d 14c1 a33e
000001c0: 4c04 dd3d dd19 863e d5e6 1b3d 2cc2 b3bd
000001d0: 8808 86bd a4a6 d1bc d474 483e 01a2 543d
000001e0: de91 9d3e fd83 8bbd d866 923e 5b91 ab3d
000001f0: c0e3 513d 1e6d c83e 56b4 c0bc 2737 48be

model.fc.14.bias f4 [8]
-0.13543844 -0.010483341 0.076040275 0.24422745 -0.036596105 -0.09935392 0.12128086 -0.082584456
00000000: 60b0 0abe 52c2 2bbc 01bb 9b3d c316 7a3e
00000010: cce5 15bd 117a cbbd 1962 f83d 0a22 a9bd

model.fc.15.weight f4 [8]
1.5718433 1.7001754 1.7624205 1.8400589 1.665241 2.410556 1.5711809 1.7032757
00000000: 2932 c93f 599f d93f ff96 e13f 0d87 eb3f
00000010: 9e26 d53f 8d46 1a40 751c c93f f004 da3f

model.fc.15.bias f4 [8]
0.5472451 0.26762643 0.7494403 0.6904826 0.728585 0.16481674 -0.161608 0.608583
00000000: 4118 0c3f 5506 893e 52db 3f3f 78c3 303f
00000010: 8c84 3a3f b8c5 283e 917c 25be 18cc 1b3f

model.fc.15.running_mean f4 [8]
0.057542466 0.06952077 0.10427543 0.41641656 0.12234842 -0.09284726 0.06257358 0.04631925
00000000: a6b1 6b3d e860 8e3d 5b8e d53d 8d34 d53e
00000010: cf91 fa3d b426 bebd 9426 803d 41b9 3d3d

model.fc.15.running_var f4 [8]
0.38351572 0.27277505 0.26665422 0.45410854 0.32131982 0.32506168 0.3921782 0.34866136
00000000: 2c5c c43e 2ca9 8b3e e786 883e ea80 e83e
00000010: 0884 a43e 7c6e a63e 95cb c83e be83 b23e

model.fc.18.weight f4 [4, 8]
-0.91421694 0.9937178 -2.3733568 -0.75479436 0.87655747 0.7719378 0.80419767 -0.94961023
-0.9328087 -1.0890132 -2.4455233 -1.5703579 -1.968719 1.0009025 -2.7796733 1.5626796
1.4774274 0.1770552 0.40889993 1.2965128 0.85623676 -1.3131131 -0.70675904 0.27886364
-0.9377128 -1.794785 0.5912913 -0.24478823 -1.447103 -1.6946938 0.81263214 -1.3438469
00000000: 1f0a 6abf 4a64 7e3f 14e5 17c0 343a 41bf
00000010: 1266 603f b79d 453f e6df 4d3f a819 73bf
00000020: 8dcc 6ebf c964 8bbf 7483 1cc0 7d01 c9bf
00000030: fcfe fbbf 931d 803f 2be6 31c0 e305 c83f
00000040: 571c bd3f f54d 353e 555b d13e 22f4 a53f
00000050: 5532 5b3f 1714 a8bf 29ee 34bf 37c7 8e3e
00000060: f20d 70bf 84bb e5bf de5e 173f c4a9 7abe
00000070: ac3a b9bf baeb d8bf a908 503f 2d03 acbf

model.fc.18.bias f4 [4]
-1.3745489 0.0068342136 0.45291942 0.08313984
00000000: 38f1 afbf 8af1 df3b 0ee5 e73e 3845 aa3d
