globalcaffesyntetic/checkpoints_SleepQuality/bodyP-epoch=30-val_loss=0.03.ckpt (torch, 228412 bytes, 68 tensors)

model.fc.0.weight f4 [128, 40]
-0.06975035 -0.083361685 0.09399729 -0.13944776 -0.023851907 -0.013648185 0.007786039 0.048231978
-0.04518079 0.03076819 0.01530431 -0.1775351 0.09309574 0.14089006 -0.020124696 -0.20282902
-0.08063539 0.0060716523 -0.18802841 -0.15772411 0.010855095 -0.07016404 0.037249878 -0.10143489
0.029262053 -0.0865664 0.08386435 -0.11900459 0.1472847 0.08851108 -0.063440196 -0.056514796
-0.25832748 0.11479348 -0.13405329 -0.0815352 -0.02145685 -0.11892066 -0.121386975 -0.06807069
0.073911786 -0.023282504 -0.086415656 -0.13343821 0.014841681 -0.045313314 0.047455903 0.051721647
-0.025863793 0.018992966 -0.05869806 -0.013443863 -0.01063115 0.15053561 -0.12611894 0.01272268
0.08337622 0.05456164 0.018871814 -0.06359754 -0.01592512 -0.17528436 0.070527725 0.011060432
0.008614993 -0.07990105 0.09951247 -0.1605835 0.08179992 -0.03792693 0.08669426 -0.08310747
-0.13618915 -0.29608145 0.27679884 -0.08441997 0.015689395 -0.22027424 -0.04452461 0.018825537
-0.0414343 -0.115364045 0.07038485 0.02248102 -0.044259004 -0.027523344 -0.047035556 0.058340095
-0.08009293 -0.17159551 -0.103032805 -0.18294087 0.0894052 0.097433746 -0.10717357 -0.0044508344
-0.085834935 0.05754204 -0.0076209325 -0.12623239 -0.06695299 0.09225352 -0.021686388 0.025735445
-0.042269595 -0.048718486 0.008218542 0.10515851 0.030557375 0.062808976 -0.013197152 0.058741182
-0.43623897 -0.11300428 0.24066673 0.1187985 -0.04496589 0.091417946 -0.0006659283 -0.039907437
0.10566607 0.023287551 -0.028557934 -0.12008997 -0.029178469 0.046911087 -0.011621549 -0.034283493
-0.021804027 -0.13245018 0.018535236 -0.052073736 -0.111248486 0.11669128 -0.14484027 -0.0022881723
0.05288129 -0.26538536 0.052472413 0.13708352 0.1080655 -0.13412502 -0.043941543 -0.012710091
-0.064948194 0.13589704 -0.13172439 0.04049445 -0.022230387 -0.10541235 0.15785751 -0.06598459
0.12337634 0.1471262 -0.40085393 0.086022444 0.058193654 -0.08602373 0.0017081527 0.06425697
-0.04649085 0.025112519 0.047796983 -0.074930735 0.009480645 -0.10184157 0.09874381 0.016710777
-0.018520461 -0.047934834 -0.1754376 -0.1796047 -0.044655085 -0.0861384 0.17228241 -0.18170036
-0.13633104 0.08760947 -0.06820528 0.06998111 -0.020764502 -0.12808193 -0.11034843 -0.024282105
0.04187277 -0.041513063 -0.023177344 0.06944566 0.052419927 0.11539533 -0.02038139 0.17290898
-0.2164978 -0.121494465 -0.25938028 -0.15820178 -0.12019213 -0.01418829 -0.03278109 -0.024137596
0.00935084 -0.046114493 0.040743086 0.018871058 -0.0061865705 -0.01839652 0.00038071413 0.014130767
-0.0037827787 0.032693118 -0.0012143092 -0.03719777 0.05119245 0.05866679 -0.1783551 -0.049299866
-0.104149714 -0.019398633 -0.10733857 -0.0040314714 0.052144315 -0.13340679 -0.08132832 0.005832498
-0.03715046 -0.10709809 -0.033412952 -0.11833009 0.026164204 0.041652117 -0.033078395 -0.015044548
-0.29741433 0.023552686 0.07449136 -0.05068901 -0.025992854 -0.078888126 0.034690633 -0.034886364
-0.112142794 0.09631466 -0.12050081 -0.18371618 -0.02122124 -0.018344961 -0.023531532 -0.030036615
0.077880956 -0.017571827 -0.016350685 0.15493588 0.008688208 0.1258963 -0.062352974 0.017451236
00000000: 46d9 8ebd 88b9 aabd a781 c03d 65cb 0ebe
00000010: 1365 c3bc a39c 5fbc 0722 ff3b e58e 453d
00000020: 7e0f 39bd 920d fc3c eebe 7a3c c3cb 35be
00000030: fba8 be3d 7c45 103e 8cdc a4bc 69b2 4fbe
00000040: 2b24 a5bd b6f4 c63b 858a 40be 6e82 21be
00000050: 92d9 313c 2ab2 8fbd 5493 183d 18bd cfbd
00000060: f9b6 ef3c ba49 b1bd 13c1 ab3d aeb8 f3bd
00000070: cdd1 163e 4c45 b53d efec 81bd 0f7c 67bd
00000080: 8043 84be d818 eb3d 4445 09be edfb a6bd
00000090: 47c6 afbc ad8c f3bd bc99 f8bd a568 8bbd
000000a0: 105f 973d f3ba bebc b1fa b0bd 07a4 08be
000000b0: 862a 733c 749a 39bd 1f61 423d 14da 533d
000000c0: 4ee0 d3bc 2397 9b3c 616d 70bd a643 5cbc
000000d0: 462e 2ebc 0226 1a3e 5325 01be ca72 503c
000000e0: 27c1 aa3d 077c 5f3d 1099 9a3c 6d3f 82bd
000000f0: 6675 82bc be7d 33be d770 903d d036 353c
00000100: e625 0d3c 29a3 a3bd 32cd cb3d 0070 24be
00000110: b786 a73d 4559 1bbd c38c b13d 4034 aabd
00000120: 2b75 0bbe fd97 97be 94b8 8d3e 61e4 acbd
00000130: 0c87 803c 928f 61be 705f 36bd 0338 9a3c
00000140: 03b7 29bd fc43 ecbd ef25 903d 1e2a b83c
00000150: ee48 35bd a378 e1bc 5ba8 40bd 06f6 6e3d
00000160: c307 a4bd bcb6 2fbe dd02 d3bd da54 3bbe
00000170: 131a b73d 588b c73d d17d dbbd 4ed8 91bb
00000180: 3aca afbd 34b1 6b3d 04b9 f9bb 1043 01be
00000190: a61e 89bd 6aef bc3d a7a7 b1bc 24d3 d23c
000001a0: e222 2dbd 098d 47bd 10a7 063c 585d d73d
000001b0: 7653 fa3c fea1 803d de38 58bc 989a 703d
000001c0: b75a dfbe ca6e e7bd 5771 763e a14c f33d
000001d0: 272e 38bd 5539 bb3d b191 2eba fb75 23bd
000001e0: 7467 d83d 89c5 be3c 54f2 e9bc bbf1 f5bd
000001f0: af07 efbc d725 403d 4f68 3ebc d96c 0cbd
00000200: 5c9e b2bc 05a1 07be 35d7 973c 454b 55bd
00000210: 3fd6 e3bd d6fb ee3d 0251 14be 29f5 15bb
00000220: 0d9a 583d 97e0 87be 50ed 563d 9f5f 0c3e
00000230: 7251 dd3d 1258 09be 0cfc 33bd fc3d 50bc
00000240: 8f03 85bd 9828 0b3e c2e2 06be 82dd 253d
00000250: 801c b6bc 6ee2 d7bd 66a5 213e ee22 87bd
00000260: bcac fc3d 40a8 163e ba3c cdbe 892c b03d
00000270: 785c 6e3d 362d b0bd 18e4 df3a 2999 833d
00000280: 316d 3ebd c5b8 cd3c c5c6 433d 4975 99bd
00000290: b554 1b3c 5092 d0bd 323a ca3d 0ae5 883c
000002a0: 39b8 97bc 5157 44bd eaa5 33be 4bea 37be
000002b0: 40e8 36bd 5469 b0bd cd6a 303e a90f 3abe
000002c0: 5d9a 0bbe 986c b33d 36af 8bbd 4252 8f3d
000002d0: 511a aabc e927 03be 5cfe e1bd 44eb c6bc
000002e0: c882 2b3d 9a09 2abd 6ade bdbc 8739 8e3d
000002f0: 47b6 563d 6354 ec3d dff6 a6bc 0d0f 313e
00000300: 99b1 5dbe 17d2 f8bd 7ecd 84be a6ff 21be
00000310: 4b27 f6bd 0076 68bc 7745 06bd 35bc c5bc
00000320: 4434 193c 8de2 3cbd 39e2 263d 7a97 9a3c
00000330: b7b8 cabb 4cb4 96bc 969a c739 bc84 673c
00000340: 7fe8 77bb 38e9 053d 7529 9fba b05c 18bd
00000350: 2daf 513d 974c 703d b8a2 36be a8ee 49bd
00000360: 724c d5bd e2e9 9ebc 53d4 dbbd 6f1a 84bb
00000370: 4795 553d ca9b 08be 768f a6bd 8a1e bf3b
00000380: 152b 18bd 3e56 dbbd 05dc 08bd 0c57 f2bd
00000390: 5056 d63c 699b 2a3d 367d 07bd 687d 76bc
000003a0: b146 98be 90f1 c03c ed8e 983d 489f 4fbd
000003b0: f7ee d4bc 1990 a1bd c417 0e3d 01e5 0ebd
000003c0: 1fab e5bd 9f40 c53d 21c9 f6bd 1820 3cbe
000003d0: 2ad8 adbc 2c48 96bc 33c5 c0bc 590f f6bc
000003e0: 0d80 9f3d cbf2 8fbc dff1 85bc 83a7 1e3e
000003f0: fc58 0e3c f6ea 003e d565 7fbd e5f5 8e3c

model.fc.0.bias f4 [128]
-0.2283855 -0.07436621 -0.19858493 -0.18003322 -0.25762 -0.24388206 -0.02915291 -0.33025992
-0.3581266 -0.32620123 -0.10816716 -0.050362278 0.022730902 -0.08811724 -0.06978709 0.03552687
-0.17259684 -0.104198985 0.0015683344 -0.0743816 -0.24306546 -0.13088165 0.059941206 -0.14129224
-0.17617038 0.042397413 -0.06087331 -0.18746035 -0.15022221 -0.09439183 -0.24687037 -0.091607004
0.034746934 -0.0803454 -0.07465465 -0.15696003 0.054339692 -0.07345943 0.10979885 -0.16067381
-0.027779935 0.014596153 0.08093658 -0.13600917 -0.15338723 -0.25535908 -0.044648986 0.05310727
0.037356384 -0.015985886 -0.0687586 -0.19397742 -0.024885679 -0.23655257 -0.03681854 -0.29531404
-0.13571064 -0.10393199 -0.06723629 -0.18930027 -0.19665104 -0.014170865 -0.18617755 -0.29411063
-0.26737502 -0.12011842 0.12162279 -0.13259442 -0.42837748 -0.26613814 -0.04238498 -0.1729863
0.06214865 -0.28197542 -0.21295163 -0.39659384 -0.13959347 0.17087732 -0.11357632 -0.09742692
-0.08862283 -0.08283711 -0.37514022 -0.06483765 0.044980846 -0.20032339 -0.1945404 0.0406294
-0.21870826 -0.11351738 -0.01130618 -0.30967778 -0.17744204 0.116395734 0.03034615 0.17083408
0.12464262 -0.19382915 -0.22422095 0.06321334 -0.13106143 -0.16711634 -0.24475151 -0.09860022
-0.031963322 -0.08882719 0.122427955 -0.26365724 -0.088536926 -0.19919865 -0.021664938 -0.08539834
-0.2574548 -0.09444988 0.1143974 -0.1092114 -0.19728053 -0.23408641 -0.10296774 -0.17821102
-0.34568742 -0.0829841 -0.33957466 -0.18775953 -0.019256448 -0.13578844 0.21453139 -0.013663495
00000000: e3dd 69be 504d 98bd d959 4bbe a15a 38be
00000010: c5e6 83be 38bc 79be 15d2 eebc d417 a9be
00000020: 5f5c b7be d903 a7be be86 ddbd ad48 4ebd
00000030: 2836 ba3c d076 b4bd 89ec 8ebd a084 113d
00000040: 3abd 30be 4766 d5bd 9290 cd3a 6155 98bd
00000050: 27e6 78be d705 06be e984 753d eaae 10be
00000060: 0266 34be e9a8 2d3d 4b56 79bd 9bf5 3fbe
00000070: dad3 19be 8150 c1bd 96cb 7cbe 749c bbbd
00000080: cd52 0e3d 218c a4bd 8ae4 98bd 21ba 20be
00000090: 4c93 5e3d e671 96bd 38de e03d ad87 24be
000000a0: bf92 e3bc b424 6f3c 14c2 a53d fd45 0bbe
000000b0: 8b11 1dbe 6dbe 82be dbe1 36bd 0287 593d
000000c0: 0203 193d d5f4 82bc 4fd1 8cbd 04a2 46be
000000d0: 0ddd cbbc d63a 72be 0acf 16bd 6733 97be
000000e0: bbf7 0abe 4cda d4bd 2eb3 89bd eed7 41be
000000f0: e45e 49be ea2c 68bc 54a5 3ebe ab95 96be
00000100: 61e5 88be a500 f6bd 5f15 f93d d5c6 07be
00000110: 4b54 dbbe 4243 88be df9b 2dbd 5223 31be
00000120: 958f 7e3d 155f 90be fe0f 5abe 590e cbbe
00000130: 97f1 0ebe 77fa 2e3e b49a e8bd c487 c7bd
00000140: e37f b5bd 81a6 a9bd 6112 c0be 9ac9 84bd
00000150: d63d 383d 9321 4dbe 9935 47be 046b 263d
00000160: 0ff5 5fbe cd7b e8bd 8e3d 39bc 168e 9ebe
00000170: 5eb3 35be e360 ee3d 7d98 f83c 21ef 2e3e
00000180: a144 ff3d 267b 46be 2d9a 65be ff75 813d
00000190: f834 06be 8c20 2bbe 24a0 7abe eaee c9bd
000001a0: f9eb 02bd 08eb b5bd 82bb fa3d 15fe 86be
000001b0: d952 b5bd bbfa 4bbe ab7a b1bc 53e5 aebd
000001c0: 1ed1 83be f06e c1bd 2f49 ea3d 3aaa dfbd
000001d0: e803 4abe 59b4 6fbe c0e0 d2bd f37c 36be
000001e0: f1fd b0be 91f3 a9bd bbdc adbe 0944 40be
000001f0: b3bf 9dbc 200c 0bbe 1eae 5b3e dadc 5fbc

model.fc.2.weight f4 [64, 128]
0.13342401 -0.023122558 -0.1084835 0.013576278 0.15015465 0.06966436 0.1564988 0.025269357
-0.12512742 0.090530366 0.1666989 0.05883835 0.066777654 -0.011037751 -0.039148875 -0.051119898
0.006082897 0.00509407 -0.019085946 -0.13421023 0.022486825 0.10433518 0.08909102 0.05444091
-0.08891291 -0.15105154 0.09188802 -0.04655071 -0.032288354 0.0077088536 0.002050123 0.11981237
0.07687261 0.10685 -0.023684887 -0.1260461 -0.1859498 -0.18204173 0.043260433 -0.019122371
0.15259664 -0.0010910464 -0.05954029 -0.10903802 -0.05167521 0.09353236 -0.009625809 -0.058549006
0.15820679 0.018867817 -0.05738554 0.04325048 -0.06464848 -0.10980047 0.035676308 -0.10358043
-0.0936033 -0.045383412 -0.012179043 -0.054668292 -0.012572352 -0.00985674 0.06955721 0.07767721
-0.033326585 0.124321274 -0.16312148 0.051749386 0.009865058 0.06793528 -0.15063633 -0.15385303
0.04110712 -0.02590569 -0.12253638 -0.04011148 0.010300735 0.047779582 -0.020747319 0.004904051
-0.02037005 -0.023840113 0.042527497 -0.04109131 0.10863477 -0.13981667 0.019918753 -0.08038964
0.070704 -0.0073726173 -0.118022926 -0.0025355902 -0.080548495 -0.04714817 0.06308019 0.024214434
-0.0155707095 0.03622254 -0.089755304 0.0923117 0.14117125 -0.09183678 -0.044321418 -0.009461019
-0.025827173 -0.12750022 -0.0035983957 0.03515247 0.016055092 0.21114221 0.020446008 -0.116112724
0.002468426 -0.06877438 0.028664421 -0.029617455 -0.048554573 -0.059132047 -0.013114918 0.0136771975
-0.06956571 0.020261366 -0.03324023 0.06868916 0.03994094 -0.06312738 0.11894942 0.011288823
-0.022703247 0.11930045 0.032052964 -0.060159836 -0.02499876 0.01453686 -0.042865064 0.0017991752
-0.02056189 0.07481309 -0.01287195 -0.017325468 -0.00896924 -0.05196808 0.1030212 0.033419445
0.029685175 -0.02525489 0.06711639 0.14670159 0.06234787 0.040452525 0.018402467 -0.007395226
0.00035956159 0.16377613 -0.10413475 0.17052741 -0.039456077 -0.035637576 0.050522074 -0.07056281
0.04441749 -0.09713379 -0.04048702 0.004909103 0.10622868 0.21299091 -0.039589457 -0.046351627
-0.06378436 0.0123525895 0.042651605 0.12717895 0.0403466 0.036017492 -0.13181941 -0.07227323
-0.0049456595 0.058018535 0.024875915 -0.051381003 0.14375018 0.09833486 0.012593192 -0.009969493
0.20850539 0.010183247 -0.018922312 -0.017073134 0.050514597 0.12584578 -0.04506064 0.02957516
-0.054043654 0.018432254 0.124943614 0.10272003 -0.04156506 -0.0014563524 0.16363645 0.19569749
-0.14277284 0.009332722 0.09551508 0.025566947 0.003653613 -0.05576604 0.0368404 0.06704009
0.04101089 -0.036978327 0.022487015 -0.057366803 -0.090069294 -0.08385476 -0.015666729 0.10041749
-0.0403799 0.13539296 0.06553071 -0.05293194 -0.05293626 -0.025520174 0.07682818 -0.017029788
-0.031845745 -0.011125912 0.15218419 -0.09296128 -0.042467196 0.056520145 0.08768295 -0.025503786
-0.0051852143 0.15568827 -0.028726278 -0.007637255 -0.029226469 0.02877123 0.14865977 0.12975627
0.051112242 -0.03684209 -0.03499876 -0.008371 0.13537014 0.07410284 0.12067274 0.0040004505
-0.07921346 0.03193368 -0.004714704 -0.08546332 -0.08107588 0.04770938 -0.14388688 0.010259175
00000000: 4ea0 083e 856b bdbc 992c debd 0a6f 5e3c
00000010: 24c2 193e 30ac 8e3d 3941 203e af01 cf3c
00000020: 6721 00be fc67 b93d 1eb3 2a3e 7b00 713d
00000030: b9c2 883d afd7 34bc 925a 20bd 1963 51bd
00000040: 0a53 c73b 28ec a63b 215a 9cbc 686e 09be
00000050: 4a36 b83c afad d53d 5a75 b63d 6ffd 5e3d
00000060: f917 b6bd 41ad 1abe c92f bc3d f5ab 3ebd
00000070: cb40 04bd 8d9a fc3b 5b5b 063b 3060 f53d
00000080: 636f 9d3d 2cd4 da3d cf06 c2bc 3b12 01be
00000090: a069 3ebe 2669 3abe da31 313d 85a6 9cbc
000000a0: 4b42 1c3e 7101 8fba 85e0 73bd 534f dfbd
000000b0: 63a9 53bd e58d bf3d 92b5 1dbc 15d1 6fbd
000000c0: f600 223e ae90 9a3c 1a0d 6bbd 6a27 313d
000000d0: 6c66 84bd 12df e0bd 5221 123d fa21 d4bd
000000e0: 16b3 bfbd f5e3 39bd 9c8a 47bc dceb 5fbd
000000f0: 44fc 4dbc 2a7e 21bc 0374 8e3d 3b15 9f3d
00000100: 7581 08bd 279c fe3d 5109 27be 2af7 533d
00000110: 0da1 213c a721 8b3d 6940 1abe a68b 1dbe
00000120: f15f 283d 2b38 d4bc 5bf4 fabd ef4b 24bd
00000130: 6ac4 283c 86b4 433d 48f6 a9bc 29b2 a03b
00000140: 17df a6bc 574c c3bc 5031 2e3d 5d4f 28bd
00000150: e87b de3d 1a2c 0fbe a72c a33c 53a3 a4bd
00000160: 42cd 903d ff95 f1bb 01b6 f1bd 252c 26bb
00000170: 9cf6 a4bd 711e 41bd 3030 813d 595d c63c
00000180: 4a1c 7fbc 165e 143d a1d1 b7bd eb0d bd3d
00000190: 328f 103e ec14 bcbd 608a 35bd 6402 1bbc
000001a0: 8293 d3bc 6b8f 02be 10d3 6bbb 09fc 0f3d
000001b0: f885 833c aa35 583e 637e a73c 82cc edbd
000001c0: 51c5 213b 95d9 8cbd a6d1 ea3c 4ea0 f2bc
000001d0: 29e1 46bd 7234 72bd f4df 56bc 5316 603c
000001e0: 7878 8ebd 2afb a53c e826 08bd e7ac 8c3d
000001f0: 1c99 233d ee48 81bd c19b f33d c1f4 383c
00000200: 29fc b9bc cb53 f43d f849 033d 296a 76bd
00000210: 33ca ccbc 032c 6e3c 4793 2fbd 4dd2 eb3a
00000220: 6971 a8bc 9b37 993d dfe4 52bc 24ee 8dbc
00000230: b8f3 12bc 7bdc 54bd c7fc d23d d4e2 083d
00000240: 532e f33c 58e3 cebc 5174 893d f138 163e
00000250: 7b60 7f3d 8cb1 253d c5c0 963c a753 f2bb
00000260: 8a83 bc39 eeb4 273e 9a44 d5bd bd9e 2e3e
00000270: b29c 21bd b5f8 11bd 3cf0 4e3d 3c83 90bd
00000280: 1def 353d 15ee c6bd b8d5 25bd 8adc a03b
00000290: 6c8e d93d 4a1a 5a3e 8e28 22bd 34db 3dbd
000002a0: 60a1 82bd 8462 4a3c 73b3 2e3d 333b 023e
000002b0: 7a42 253d 1487 133d abfb 06be fd03 94bd
000002c0: 330f a2bb d8a4 6d3d 93c8 cb3c e374 52bd
000002d0: 3f33 133e c963 c93d ad53 4e3c 1657 23bc
000002e0: 7082 553e a2d7 263c f702 9bbc f5dc 8bbc
000002f0: 65e8 4e3d b7dd 003e 8191 38bd 9b47 f23c
00000300: e15c 5dbd 3dff 963c 70e2 ff3d e15e d23d
00000310: 2040 2abd 14e3 beba 5090 273e ec64 483e
00000320: 0b33 12be 46e8 183c 699d c33d c671 d13c
00000330: 7471 6f3b ee6a 64bd f6e5 163d 514c 893d
00000340: 09fb 273d 9676 17bd b036 b83c 74f9 6abd
00000350: 4076 b8bd 0bbc abbd 8357 80bc afa7 cd3d
00000360: 6565 25bd 74a4 0a3e f734 863d 29cf 58bd
00000370: b1d3 58bd af0f d1bc 1858 9d3d 0e82 8bbc
00000380: af70 02bd 7549 36bc 2cd6 1b3e 7c62 bebd
00000390: 15f2 2dbd ab81 673d 1e93 b33d 51ed d0bc
000003a0: bbe8 a9bb bf6c 1f3e 5f53 ebbc f041 fabb
000003b0: 596c efbc a4b1 eb3c 443a 183e d4de 043e
000003c0: 125b 513d bbe7 16bd dc5a 0fbd 8526 09bc
000003d0: 789e 0a3e 3bc3 973d 4523 f73d 3616 833b
000003e0: ab3a a2bd e4cc 023d ce7d 9abb 6507 afbd
000003f0: 1c0b a6bd e96a 433d 1557 13be 1916 283c

model.fc.2.bias f4 [64]
0.0046510566 -0.035425633 0.00019446075 -0.071954265 -0.014240785 0.048160687 -0.0055542816 -0.0385992
-0.017542837 -0.06333151 0.049206343 -0.0008088559 0.056660227 0.00056533626 0.081968956 -0.059762586
-0.03720586 -0.029105885 0.029343363 -0.061387043 0.054407485 0.024080321 -0.019137857 -0.089007065
-0.023066035 -0.07997678 0.038696855 -0.003783114 0.0017969043 -0.07904422 -0.030548 0.06458733
-0.048291527 0.035756536 0.020757295 0.0274387 -0.07525027 -0.06521759 -0.029716806 -0.006531152
0.025642732 0.023578865 0.09861752 0.056364805 -0.009782477 -0.013132919 0.08252714 0.015784081
0.07796144 -0.0012681287 0.08612965 -0.0051522106 0.049741615 -0.051299743 0.06826228 -0.07763995
0.07000828 0.049472347 -0.064384624 -0.01674804 -0.059127323 0.005321315 0.033931382 -0.080665685
00000000: e467 983b 781a 11bd 29e8 4b39 c25c 93bd
00000010: 2e52 69bc 2444 453d b100 b6bb 321a 1ebd
00000020: ffb5 8fbc f3b3 81bd 978c 493d 6709 54ba
00000030: 8e14 683d 1333 143a 57df a73d 9dc9 74bd
00000040: 2c65 18bd 776f eebc 7e61 f03c fb70 7bbd
00000050: 62da 5e3d 1844 c53c ffc6 9cbc 5649 b6bd
00000060: fbf4 bcbc deca a3bd 9880 1e3d 1fee 77bb
00000070: 1a86 eb3a f0e1 a1bd cd3f fabc 5d46 843d
00000080: 56cd 45bd 7275 123d 340b aa3c 20c7 e03c
00000090: d01c 9abd cd90 85bd a970 f3bc 4603 d6bb
000000a0: b510 d23c 7728 c13c fbf7 c93d c8de 663d
000000b0: af46 20bc 742b 57bc fd03 a93d 9e4d 813c
000000c0: 3faa 9f3d 5737 a6ba be64 b03d e0d3 a8bb
000000d0: ddbd 4b3d ae1f 52bd 18cd 8b3d b201 9fbd
000000e0: 8060 8f3d 84a3 4a3d 16dc 83bd 3033 89bc
000000f0: 7e2f 72bd 6d5e ae3b a2fb 0a3d 0d34 a5bd

model.fc.3.weight f4 [64]
0.8120883 1.2673947 0.7877792 1.0278924 0.9618104 1.0260557 0.9261205 0.9011738
0.9347537 1.1546135 0.77687675 1.0998626 0.8708956 0.885501 0.84417224 0.86317474
1.0680225 0.8934102 0.83262455 1.120747 0.893813 0.7749887 0.829732 1.1430131
0.94743204 0.922235 0.7709397 0.9121604 0.9109637 0.96900827 0.9055484 0.9506207
0.7933143 0.9151317 0.8540555 0.8760454 0.8373566 0.89975417 0.96314466 0.9483978
0.78238165 1.226736 0.8967004 0.85509753 0.8621325 0.93743235 0.81366986 0.88430166
0.77751315 0.9344956 0.8892904 1.1677784 0.9902107 0.9546749 0.8220246 0.8556373
0.9383244 0.9897691 0.75049585 0.9786564 0.83249813 0.88049823 1.159549 0.81230116
00000000: 05e5 4f3f fd39 a23f e6ab 493f fa91 833f
00000010: 3539 763f cb55 833f 3c16 6d3f 53b3 663f
00000020: 054c 6f3f 60ca 933f 65e1 463f 4cc8 8c3f
00000030: 04f3 5e3f 32b0 623f ac1b 583f 05f9 5c3f
00000040: f6b4 883f 88b6 643f e226 553f a374 8f3f
00000050: eed0 643f a965 463f 5169 543f 414e 923f
00000060: e88a 723f 9817 6c3f 4e5c 453f 5883 693f
00000070: eb34 693f ed10 783f 05d2 673f e15b 733f
00000080: a516 4b3f 1246 6a3f 62a3 5a3f 8344 603f
00000090: 015d 563f 4a56 663f a690 763f 33ca 723f
000000a0: 2a4a 483f af05 9d3f 288e 653f ace7 5a3f
000000b0: b7b4 5c3f 91fb 6f3f ab4c 503f 9861 623f
000000c0: 1a0b 473f 1b3b 6f3f 89a8 633f c379 953f
000000d0: 737e 7d3f 9365 743f 3470 523f 0c0b 5b3f
000000e0: 0736 703f 8261 7d3f 7f20 403f 3a89 7a3f
000000f0: 991e 553f 5568 613f 1a6c 943f f8f2 4f3f

model.fc.3.bias f4 [64]
0.07544755 -0.33711442 -0.30351096 0.06431545 -0.14530595 -0.29387975 -0.12009303 -0.2503278
-0.2128526 -0.34340668 -0.051411357 -0.26600382 -0.068185456 -0.053229827 -0.10641499 -0.2634485
-0.25292206 -0.11433661 -0.22289173 -0.33511567 -0.14074737 -0.2857394 0.065025076 -0.2687548
-0.19490995 -0.15620528 -0.21258529 -0.022130236 -0.15895627 0.12510937 0.12571128 0.099454015
-0.18860415 -0.056131016 0.09304989 -0.33231133 -0.29450393 0.09994082 0.005134069 0.17366268
-0.158486 -0.33402392 0.035211712 -0.16345228 0.029494151 0.07777004 -0.058940377 -0.17899458
-0.24706474 -0.086362995 -0.05610967 -0.38202092 -0.1569058 -0.2156266 -0.16023466 -0.14595403
-0.13779394 -0.22114992 -0.11271608 -0.25146028 -0.25331742 -0.18019742 -0.29824784 -0.17504627
00000000: 3f84 9a3d 439a acbe ca65 9bbe d2b7 833d
00000010: 15cb 14be 6877 96be 56f3 f5bd f72a 80be
00000020: 08f6 59be 00d3 afbe b794 52bd a731 88be
00000030: d1a4 8bbd 8507 5abd 1af0 d9bd b9e2 86be
00000040: 007f 81be 5029 eabd bb3d 64be 4894 abbe
00000050: 1420 10be 6f4c 92be de2b 853d 3b9a 89be
00000060: 7996 47be 47f4 1fbe f5af 59be 784a b5bc
00000070: 6fc5 22be ac1c 003e 75ba 003e 8cae cb3d
00000080: 7221 41be a3e9 65bd f190 be3d b624 aabe
00000090: 38c9 96be c6ad cc3d b13b a83b a1d4 313e
000000a0: 274a 22be 2f05 abbe 283a 103d 0960 27be
000000b0: b89d f13c e645 9f3d 776b 71bd 5b4a 37be
000000c0: 8afe 7cbe 15df b0bd 41d3 65bd 3f98 c3be
000000d0: eaab 20be 38cd 5cbe 8e14 24be f974 15be
000000e0: db19 0dbe 2075 62be b0d7 e6bd 67bf 80be
000000f0: d2b2 81be ac85 38be f1b3 98be 543f 33be

model.fc.3.running_mean f4 [64]
0.23490275 -0.4456437 -0.26753068 -0.12674236 0.09376485 -0.4253993 0.15978976 0.053124905
-0.06950224 -0.5375403 -0.139835 -0.5237226 0.3087669 0.40677613 0.46774593 -0.5069609
-0.5818709 0.17674862 -0.4660974 -0.48066652 0.15287584 0.08078627 -0.005331236 -0.63925534
0.07686338 -0.009536703 -0.20749076 0.34183455 0.03327828 0.22451214 0.119012624 0.04319608
0.22896278 0.037423875 0.15686136 0.11340564 0.092770316 0.057265222 0.2749209 0.20243129
0.2695433 -0.4477266 0.27743137 0.40956727 0.4972299 0.1198831 0.20637587 -0.010767974
-0.36871737 0.40139937 -0.0259724 -0.45158735 0.20308714 0.1592343 0.37422493 0.17600675
0.24049819 -0.464826 -0.48923025 0.2356833 -0.3483826 -0.13531663 -0.44126683 0.30874205
00000000: 598a 703e 692b e4be c8f9 88be c0c8 01be
00000010: c907 c03d f0cd d9be ed9f 233e 8099 593d
00000020: 3157 8ebd 3e9c 09bf e830 0fbe af12 06bf
00000030: b216 9e3e f644 d03e 657c ef3e 31c8 01bf
00000040: 7ef5 14bf 97fd 343e 52a4 eebe ec19 f6be
00000050: 7c8b 1c3e 4673 a53d a6b1 aebb 3da6 23bf
00000060: 8c6a 9d3d d53f 1cbc 7578 54be f004 af3e
00000070: ce4e 083d 83e6 653e e4bc f33d 5fee 303d
00000080: 3875 6a3e c749 193d 44a0 203e 3741 e83d
00000090: 5dfe bd3d f08e 6a3d 6fc2 8c3e 264a 4f3e
000000a0: 9401 8a3e 6c3c e5be 7c0b 8e3e cdb2 d13e
000000b0: eb94 fe3e 4585 f53d 3254 533e 286c 30bc
000000c0: 86c8 bcbe 3884 cd3e 12c4 d4bc 7536 e7be
000000d0: 13f6 4f3e 510e 233e 699a bf3e 1d3b 343e
000000e0: 2845 763e acfd edbe 637c fabe f756 713e
000000f0: 345f b2be 7190 0abe baed e1be 7013 9e3e

model.fc.3.running_var f4 [64]
0.25440425 0.40263104 0.21439515 0.18041153 0.31114054 0.37097675 0.34129107 0.24911414
0.4308047 0.40901884 0.21447332 0.35956585 0.64576715 0.5210503 0.6565408 0.35003477
0.39661017 0.55133694 0.43207982 0.39856273 0.47542793 0.29609093 0.23368597 0.41515684
0.43875617 0.4412961 0.24002272 0.10016934 0.53098696 0.20559998 0.15616584 0.12047773
0.34216484 0.29783452 0.14852582 0.30650124 0.3235501 0.16921219 0.17262843 0.18129069
0.43624675 0.41502273 0.23679818 0.65871036 0.1947527 0.14632468 0.32060295 0.3919816
0.4829155 0.534815 0.23844111 0.4152756 0.5853576 0.4213539 0.5811964 0.54117745
0.3984576 0.37721515 0.48441535 0.32900825 0.27144527 0.24525972 0.41080338 0.49507558
00000000: 4641 823e a825 ce3e 678a 5b3e cdbd 383e
00000010: d04d 9f3e aaf0 bd3e b4bd ae3e c717 7f3e
00000020: 6f92 dc3e eb6a d13e e59e 5b3e 0419 b83e
00000030: ff50 253f 8d63 053f 0f13 283f c237 b33e
00000040: 7d10 cb3e 6b24 0d3f 9139 dd3e 6a10 cc3e
00000050: 4a6b f33e 3b99 973e 604b 6f3e 708f d43e
00000060: a6a4 e03e 90f1 e13e 84c8 753e 9525 cd3d
00000070: c3ee 073f cd88 523e f0e9 1f3e 07bd f63d
00000080: 3b30 af3e c47d 983e 2717 183e bbed 9c3e
00000090: 5ca8 a53e f645 2d3e 82c5 303e 44a4 393e
000000a0: bc5b df3e dc7d d43e 397b 723e 3ea1 283f
000000b0: 406d 473e 23d6 153e 1226 a43e d0b1 c83e
000000c0: b340 f73e a3e9 083f e829 743e 019f d43e
000000d0: ffd9 153f b3bb d73e 4ac9 143f 9b8a 0a3f
000000e0: a202 cc3e 5822 c13e 4a05 f83e c573 a83e
000000f0: e0fa 8a3e 5d25 7b3e d254 d23e 8c7a fd3e

model.fc.6.weight f4 [32, 64]
0.1123943 -0.2877181 -0.04103112 -0.003222918 0.11264286 -0.21345721 -0.11066437 0.09121239
-0.16994789 -0.22416496 -0.082123 -0.17246832 -0.049780607 0.026559837 -0.069935225 -0.05955531
-0.031874306 0.045813054 0.0045474325 -0.1888618 -0.012457699 0.005631294 0.019943476 -0.24402925
-0.06017305 -0.12149387 0.013969219 0.112894244 -0.024581634 0.1861144 0.0910067 0.16303368
0.031359117 0.12733324 0.13519321 0.044831872 0.11988724 0.0670527 0.12849133 0.08479895
0.013366166 -0.17470603 0.005474739 -0.0028444452 0.10014884 0.1297819 0.06369886 0.0019670168
-0.040606678 -0.016474312 -0.16337985 -0.12158026 -0.049812827 -0.13414088 0.06969086 -0.051972292
-0.003192318 -0.12843142 -0.11890829 -0.027245658 -0.02840378 -0.029812936 -0.09862269 0.03234532
0.029992908 0.19485264 -0.103678584 -0.011362513 0.087022394 0.08728567 -0.08767022 -0.050501093
0.05748434 0.20681985 -0.07074849 0.13859041 -0.010799018 0.029834947 0.12668465 0.13569786
0.23187585 0.0020696004 -0.010541215 0.16867545 0.007761306 0.12337041 -0.16318624 0.08565167
0.033846375 -0.1423363 0.10432959 -0.1630131 -0.018862024 -0.14755332 -0.060107663 -0.1953621
0.11785358 0.083278656 -0.1262862 0.13512158 0.031783998 0.0033948645 -0.04750439 -0.073513225
0.08139847 0.06495951 0.030927587 0.08728046 0.0012798521 0.003584666 0.021800928 -0.0072264005
-0.0839175 0.1746332 -0.07242242 0.14810675 0.083826534 -0.107422784 0.114942074 0.099805176
-0.09104252 0.12235417 -0.07195502 0.0021111602 0.095460236 -0.069560155 0.18894288 -0.03574442
0.047799464 0.14235784 0.07599144 0.076516636 -0.15363967 0.10735502 0.19540235 -0.06803281
0.04869145 0.1374277 -0.026508307 0.076420456 0.024996327 -0.0019273338 0.062288947 0.08032663
-0.0074502155 0.046726223 0.020571131 0.102808766 0.09203915 -0.098386586 0.17985125 0.17292646
-0.008197589 0.11822468 0.00051659334 0.03371387 -0.002754514 -0.0962943 -0.15524884 -0.050974112
0.03478417 -0.21988785 -0.1163127 -0.12077189 -0.15185067 -0.13491498 -0.06357376 0.07440285
-0.028781723 0.10680486 -0.06488041 0.076700866 -0.07989922 0.11995638 -0.07647856 0.06369793
-0.014934202 0.025178952 0.1300798 0.093084686 -0.01590137 0.15766324 0.15024282 0.08946533
0.036952525 0.036937404 0.008073681 0.1453583 -0.045865685 0.07064178 -0.017882759 0.0041692434
0.0675369 -0.025051912 -0.15654328 0.06833665 0.14746796 -0.0028430861 -0.18156517 0.12488446
0.008842452 -0.043903902 -0.016829792 -0.03823573 -0.084851034 -0.0018286979 0.045663457 -0.018579269
0.10416627 -0.09834519 0.0059856568 -0.022217 0.004723737 0.05549638 -0.13556702 -0.0246578
0.13979904 -0.0011421836 0.09441564 0.03328158 0.042301103 0.022283483 -0.04559804 0.052485198
-0.107742354 0.13926159 -0.032368295 0.14482571 0.16997346 0.013515949 0.0055075055 0.0024353205
-0.062486272 -0.025555845 0.15140684 -0.122441046 0.0035145828 0.05531747 0.060990237 0.12886032
-0.11228849 -0.0043173986 -0.17274359 -0.0029707178 0.11950811 -0.14974022 0.03718713 -0.14983815
-0.15184338 0.07165486 -0.0508014 -0.17080969 0.072345845 -0.17680465 -0.015430993 0.051112115
00000000: fc2e e63d c94f 93be 3f10 28bd 9737 53bb
00000010: 4db1 e63d 8794 5abe 00a4 e2bd 90cd ba3d
00000020: d206 2ebe 808b 65be 1a30 a8bd 899b 30be
00000030: c0e6 4bbd 0494 d93c 333a 8fbd 45f0 73bd
00000040: a28e 02bd 78a6 3b3d a102 953b fd64 41be
00000050: 601b 4cbc b886 b83b 8060 a33c cee2 79be
00000060: 0478 76bd c7d1 f8bd 27df 643c 1935 e73d
00000070: 6c5f c9bc c694 3e3e b961 ba3d 4df2 263e
00000080: 6b72 003d a563 023e 1770 0a3e a0a1 373d
00000090: 7187 f53d ed52 893d 3b93 033e 12ab ad3d
000000a0: c3fd 5a3c 23e6 32be 7065 b33b df69 3abb
000000b0: d61a cd3d 8ce5 043e 8c74 823d 11e9 003b
000000c0: 3053 26bd 23f5 86bc 0c4d 27be 12ff f8bd
000000d0: 8908 4cbd 3a5c 09be 15ba 8e3d e6e0 54bd
000000e0: 3536 51bb 8783 03be 3186 f3bd 4932 dfbc
000000f0: 0baf e8bc 423a f4bc b1fa c9bd 877c 043d
00000100: b0b3 f53c 7387 473e 7055 d4bd d529 3abc
00000110: cc38 b23d d4c2 b23d 728c b3bd 3cda 4ebd
00000120: b374 6b3d 95c8 533e 96e4 90bd a5ea 0d3e
00000130: 5dee 30bc 6b68 f43c 9fb9 013e 61f4 0a3e
00000140: dd70 6d3e 22a2 073b 0fb5 2cbc 42b9 2c3e
00000150: 8e52 fe3b a0a9 fc3d 4b1a 27be 256a af3d
00000160: 7fa2 0a3d 9bc0 11be c1aa d53d e8ec 26be
00000170: 8884 9abc 3818 17be 7433 76bd 010d 48be
00000180: 385d f13d 008e aa3d 2b51 01be 505d 0a3e
00000190: f02f 023d 607c 5e3b f793 42bd 1a8e 96bd
000001a0: 3eb4 a63d 7e09 853d da5b fd3c 19c0 b23d
000001b0: b6c0 a73a b7ec 6a3b dc97 b23c 71cb ecbb
000001c0: f0dc abbd 0cd3 323e 3552 94bd 4ca9 173e
000001d0: 3fad ab3d 7a00 dcbd c066 eb3d a866 cc3d
000001e0: 8074 babd d394 fa3d 275d 93bd 645b 0a3b
000001f0: a880 c33d 8e75 8ebd 3e7a 413e be68 12bd
00000200: 5fc9 433d 41c6 113e 66a1 9b3d c1b4 9c3d
00000210: b853 1dbe f3dc db3d 8e17 483e c954 8bbd
00000220: b070 473d d9b9 0c3e f327 d9bc 5482 9c3d
00000230: 19c5 cc3c 979e fcba b222 7f3d 4a82 a43d
00000240: f020 f4bb ff63 3f3d ca84 a83c 678d d23d
00000250: 067f bc3d e87e c9bd ed2a 383e a213 313e
00000260: 2e4f 06bc c81f f23d fe6b 073a 8e17 0a3d
00000270: 1485 34bb f235 c5bd 8df9 1ebe 3bca 50bd
00000280: d979 0e3d 482a 61be 5a35 eebd 4157 f7bd
00000290: be7e 1bbe 2727 0abe f632 82bd 8560 983d
000002a0: a6c7 ebbc 82bc da3d 05e0 84bd 5815 9d3d
000002b0: 34a2 a3bd b1ab f53d cba0 9cbd 0f74 823d
000002c0: 95ae 74bc 1744 ce3c a433 053e 2fa3 be3d
000002d0: 9743 82bc 7972 213e 41d9 193e 9939 b73d
000002e0: 885b 173d ad4b 173d 7947 043c ced8 143e
000002f0: a8dd 3bbd a3ac 903d dd7e 92bc 269e 883b
00000300: c950 8a3d ab39 cdbc e24c 20be 16f4 8b3d
00000310: d701 173e 1253 3abb 38ec 39be 6cc3 ff3d
00000320: efdf 103c 94d4 33bd a2de 89bc 129d 1cbd
00000330: 61c6 adbd ebb0 efba 9b09 3b3d 8d33 98bc
00000340: 2055 d53d 3469 c9bd 5423 c43b 6d00 b6bc
00000350: 94c9 9a3b 2c50 633d 15d2 0abe 28ff c9bc
00000360: 7b27 0f3e 52b5 95ba fd5c c13d 4452 083d
00000370: ec43 2d3d da8b b63c 03c5 3abd b8fa 563d
00000380: 06a8 dcbd 979a 0e3e 9e94 04bd 314d 143e
00000390: 860d 2e3e 0072 5d3c 4e78 b43b e699 1f3b
000003a0: 9bf1 7fbd 7e5a d1bc 650a 1b3e 5fc2 fabd
000003b0: ea54 663b 9294 623d e6d0 793d f6f3 033e
000003c0: 82f7 e5bd f778 8dbb b2e3 30be 60b0 42bb
000003d0: abc0 f43d 8055 19be 8851 183d 2c6f 19be
000003e0: d57c 1bbe c9bf 923d 2115 50bd bce8 2ebe
000003f0: 0f2a 943d 470c 35be 47d2 7cbc f05a 513d

model.fc.6.bias f4 [32]
-0.10150291 0.05104079 -0.028283693 0.018035999 -0.11058367 0.044979848 0.11557567 0.03932836
0.06992185 -0.07097825 -0.018754179 0.028447257 -0.05974962 0.052630473 -0.054612882 -0.039597783
0.09401187 0.10704964 -0.058066327 0.060317617 -0.084467776 -0.019751832 -0.076693915 -0.044913556
0.0036273543 -0.050455227 -0.10090619 -0.09831036 -0.022242982 0.050987773 -0.04047487 -0.08436858
00000000: c2e0 cfbd 2610 513d 34b3 e7bc 3bc0 933c
00000010: b179 e2bd ca3c 383d f0b2 ec3d c616 213d
00000020: 3033 8f3d 0b5d 91bd 5da2 99bc 390a e93c
00000030: 04bc 74bd 0d93 573d c2b1 5fbd 4931 22bd
00000040: 4c89 c03d d73c db3d f5d6 6dbd 9b0f 773d
00000050: 71fd acbd 98ce a1bc b311 9dbd 47f7 37bd
00000060: e8b8 6d3b 24aa 4ebd e8a7 cebd f156 c9bd
00000070: ea36 b6bc 8ed8 503d fac8 25bd 6fc9 acbd

model.fc.7.weight f4 [32]
0.8882133 0.94229543 0.90536064 0.8424556 0.83469385 0.76838404 1.076942 0.8609114
0.9456339 0.9979019 0.9179911 0.97301936 0.8913086 0.92325044 0.7961414 1.0686823
1.0153508 0.820409 0.9761339 0.89833415 0.9965045 1.0238696 0.7126144 0.8511277
0.8498809 0.85445696 1.0768154 1.0516179 0.8851798 0.8334393 0.8216868 0.9214043
00000000: f261 633f 463a 713f b7c5 673f 2cab 573f
00000010: 7fae 553f d1b4 443f 3cd9 893f b164 5c3f
00000020: 1015 723f 8076 7f3f 7701 6b3f cc17 793f
00000030: cd2c 643f 245a 6c3f eccf 4b3f 95ca 883f
00000040: 04f7 813f 5306 523f e9e3 793f 3af9 653f
00000050: eb1a 7f3f 290e 833f e66d 363f 81e3 593f
00000060: cb91 593f b1bd 5a3f 16d5 893f 6a9b 863f
00000070: 259b 623f 475c 553f 115a 523f 27e1 6b3f

model.fc.7.bias f4 [32]
0.064977095 -0.26484436 -0.14358352 -0.07167968 -0.25254118 -0.20096749 -0.2075348 -0.3272803
-0.20515162 -0.05947499 -0.07794754 -0.16399534 -0.32624167 0.044626795 -0.25565785 -0.1991128
-0.13491012 -0.16505848 -0.20580752 -0.22815089 -0.23107147 -0.116759546 -0.27226236 0.14345029
-0.07163255 0.06939285 -0.0044301404 -0.18369576 0.15835227 -0.23355548 -0.29975215 -0.16924666
00000000: b612 853d ae99 87be 8f07 13be cccc 92bd
00000010: 144d 81be 6cca 4dbe 0184 54be 4991 a7be
00000020: 4413 52be 0c9c 73bd f6a2 9fbd 65ee 27be
00000030: 2609 a7be 96ca 363d 96e5 82be 3ae4 4bbe
00000040: e125 0abe 1705 29be 35bf 52be 63a0 69be
00000050: 009e 6cbe a11f efbd f965 8bbe a2e4 123e
00000060: 16b4 92bd d71d 8e3d b62a 91bb be1a 3cbe
00000070: 1927 223e 2b29 6fbe 1d79 99be ff4e 2dbe

model.fc.7.running_mean f4 [32]
-0.13760443 0.16204269 0.1421527 0.040360812 -0.64291984 0.028522598 0.15770227 -0.29319087
-0.14108217 0.0034012818 -0.073893435 -0.29685274 -0.098472275 0.14519887 -0.040480655 -0.05743182
0.40000704 0.3211569 -0.064524285 0.37062868 -0.115336046 0.20757663 -0.71039367 -0.0878249
-0.39310092 -0.03844288 -0.056848135 0.017150754 0.038626023 0.2778062 -0.5408914 0.21433783
00000000: 2de8 0cbe 85ee 253e 7a90 113e 6151 253d
00000010: 6596 24bf 39a8 e93c b47c 213e 1d1d 96be
00000020: d877 10be 0ae8 5e3b 7155 97bd 15fd 97be
00000030: d5ab c9bd 03af 143e 0bcf 25bd a13d 6bbd
00000040: b9cd cc3e ad6e a43e 4f25 84bd 0bc3 bd3e
00000050: 4e35 ecbd f88e 543e 5cdc 35bf 8bdd b3bd
00000060: 8644 c9be 4876 1dbd 97d9 68bd bd7f 8c3c
00000070: 5236 1e3d 9d3c 8e3e dc77 0abf 607b 5b3e

model.fc.7.running_var f4 [32]
3.1427445 1.8421022 1.6492977 1.4563695 2.0546062 1.1100179 1.626193 1.9588102
2.25915 1.6972303 1.7749546 2.291211 2.0863662 2.686994 1.570991 2.2531412
1.3521463 1.3523679 2.648319 1.8564368 1.6862712 1.5101618 1.7833906 2.6164472
2.1082046 2.752993 2.2287233 2.9865954 2.931742 1.3240982 0.9289637 1.6110153
00000000: ba22 4940 01ca eb3f 301c d33f 516a ba3f
00000010: ab7e 0340 1115 8e3f 1827 d03f 4bba fa3f
00000020: ea95 1040 d83e d93f b631 e33f 33a3 1240
00000030: 0687 0540 b6f7 2b40 3c16 c93f 7733 1040
00000040: 2113 ad3f 641a ad3f 0f7e 2940 b99f ed3f
00000050: bcd7 d73f fb4c c13f 2546 e43f df73 2740
00000060: d3ec 0640 0a31 3040 67a3 0e40 6124 3f40
00000070: a9a1 3b40 0d7c a93f 91d0 6d3f c035 ce3f

model.fc.10.weight f4 [16, 32]
-0.35163423 0.045554344 -0.056488022 0.025805691 0.020469617 0.003155156 -0.022228416 0.18369378
-0.07900923 -0.1522315 0.014657773 -0.029647091 0.12641217 -0.23827653 0.03708696 0.13145888
-0.2108537 -0.15356043 0.1815093 -0.05989109 -0.008981281 0.020249411 0.081622034 -0.36585286
0.133115 -0.31993893 -0.043866668 0.10404967 -0.23146074 -0.033225827 0.06260285 -0.17222495
0.11267913 -0.22525327 0.07276971 0.105329 0.0067960666 0.015005057 -0.24369356 -0.29950854
-0.1750455 -0.06564871 0.026516667 -0.18215537 -0.086907774 0.1597279 0.10862525 -0.13978441
0.059902366 0.12120238 -0.23069274 0.15518586 -0.09355107 -0.028623635 -0.07080071 0.154592
0.095931575 0.21438825 0.10185787 -0.16863863 0.13969696 0.02209915 -0.1407079 0.14392258
-0.003557788 0.012595343 0.04072877 -0.113881916 -0.04697594 -0.10872892 -0.12847519 -0.061543446
-0.2663315 0.006198286 -0.07230123 -0.24353723 -0.18073955 -0.114546 -0.052322682 -0.10219593
0.16902883 0.002855107 -0.14582184 0.15638983 -0.22529514 -0.103877544 -0.06400416 0.008827464
0.010015745 -0.08485819 -0.2412574 -0.018981677 -0.1283269 0.028355481 -0.105401784 0.15964976
-0.051110283 0.18003409 0.018252244 0.033464678 0.10357585 -0.16456783 0.13253655 0.24509147
-0.092694916 -0.103621736 0.033084255 -0.105557315 0.17098272 -0.029789595 0.035286617 0.15583478
0.04126321 -0.060847133 0.0996427 -0.024019646 0.124897435 -0.17144199 0.0986953 -0.22751613
0.047942813 -0.03300939 -0.28378177 0.18386357 -0.075742714 0.03983373 0.176679 -0.051723726
-0.09519747 -0.03808493 -0.016228942 0.0399552 -0.324067 -0.010890337 0.05012307 0.1384816
0.05979465 0.059003204 0.07848263 0.08038168 0.15893723 -0.22908156 0.07720934 -0.032776594
-0.27807876 0.002038856 0.009594647 -0.20432256 0.11004389 0.063545614 -0.25499246 -0.060056344
-0.35513708 -0.12980774 0.078678414 0.010632772 -0.23200047 -0.005449023 -0.395881 -0.13819437
-0.20368607 0.13642247 -0.17719561 0.1042054 0.06527177 -0.08546457 0.07588532 0.1440189
0.043888357 -0.19225028 0.07080489 0.024968496 -0.00030088588 0.009370475 0.08678617 0.05949793
0.028711861 -0.067080565 0.056153692 -0.04948236 0.08714937 -0.20165755 0.14673972 -0.3136946
0.06718784 -0.24751554 -0.3181936 0.027537236 -0.18364057 -0.11404162 -0.06766587 0.058210947
0.06125597 -0.036537796 0.029506337 -0.35395494 0.11836716 0.037162196 0.16598777 -0.056829147
0.02936211 0.14475468 -0.28064287 0.1015331 -0.11193393 -0.08815021 -0.21090843 0.14589149
0.09141814 0.18868278 0.11896781 0.07054728 -0.42420706 0.060262594 0.09485026 0.041577168
0.117185 -0.038591396 -0.060366303 0.0788138 -0.06455372 0.066379145 0.030011844 0.11705343
-0.2796872 0.023088012 0.21352927 -0.11127707 0.20111881 0.14443229 0.04051579 0.004880899
-0.0054355534 0.06875625 0.04830666 0.07788255 0.037195105 -0.12317914 -0.0794968 0.027512277
-0.05995294 0.1464246 -0.04096477 0.005878419 -0.06375517 0.12769102 0.027967505 -0.16048074
0.037249584 -0.23498023 -0.09391893 0.08237376 -0.22950315 0.16587444 0.1377384 0.098280706
00000000: 6709 b4be 3197 3a3d fc5f 67bd 7566 d33c
00000010: e6af a73c bcc6 4e3b 5e18 b6bc 391a 3c3e
00000020: 97cf a1bd 93e2 1bbe 2827 703c 75de f2bc
00000030: 3172 013e c3fe 73be 7fe8 173d 289d 063e
00000040: 08ea 57be f23e 1dbe 93dd 393e 5c50 75bd
00000050: 3926 13bc 18e2 a53c 7429 a73d 1151 bbbe
00000060: 4c4f 083e 09cf a3be 89ad 33bd fe17 d53d
00000070: 0b04 6dbe ce17 08bd ec35 803d bd5b 30be
00000080: 51c4 e63d cba8 66be 4908 953d bbb6 d73d
00000090: 8ab1 de3b c5d7 753c ce8a 79be 2f59 99be
000000a0: 213f 33be d572 86bd 7b39 d93c f086 3abe
000000b0: b4fc b1bd b68f 233e ea76 de3d a523 0fbe
000000c0: 2f5c 753d f438 f83d b83a 6cbe 0be9 1e3e
000000d0: b497 bfbd 1d7c eabc f6ff 90bd 5e4d 1e3e
000000e0: c677 c43d 9888 5b3e dc9a d03d 9baf 2cbe
000000f0: b80c 0f3e 4709 b53c bb15 10be 7160 133e
00000100: c729 69bb b35c 4e3c 36d3 263d ec3a e9bd
00000110: d869 40bd 45ad debd 008f 03be fb14 7cbd
00000120: 9a5c 88be fe1a cb3b ab12 94bd d361 79be
00000130: ca13 39be 1897 eabd 4f50 56bd 1a4c d1bd
00000140: e515 2d3e bf1c 3b3b 5252 15be a824 203e
00000150: c5b3 66be c0bd d4bd 9d14 83bd 11a1 103c
00000160: 1419 243c 21ca adbd 2e0c 77be 767f 9bbc
00000170: 2068 03be c149 e83c e4dc d7bd 3a7b 233e
00000180: 0459 51bd db5a 383e bb85 953c 4212 093d
00000190: 931f d43d 7884 28be a9b7 073e 42f9 7a3e
000001a0: d5d6 bdbd a237 d4bd 5b83 073d 6f2e d8bd
000001b0: 1816 2f3e 4f09 f4bc b388 103d 2793 1f3e
000001c0: 9d03 293d d83a 79bd 7911 cc3d d9c4 c4bc
000001d0: 3aca ff3d 7d8e 2fbe c320 ca3d fdf9 68be
000001e0: af5f 443d db34 07bd d84b 91be bb46 3c3e
000001f0: ff1e 9bbd b128 233d 57eb 343e 42dc 53bd
00000200: e4f6 c2bd f2fe 1bbd 8ff2 84bc 10a8 233d
00000210: 1cec a5be 626d 32bc d94d 4d3d 1fce 0d3e
00000220: 3ceb 743d 58ad 713d 80bb a03d 269f a43d
00000230: 71c0 223e 5b94 6abe ee1f 9e3d c040 06bd
00000240: 5760 8ebe 549e 053b de32 1d3c ef39 51be
00000250: b15e e13d 3424 823d 5f8e 82be a4fd 75bd
00000260: 87d4 b5be 52ec 04be 2622 a13d 1435 2e3c
00000270: 8891 6dbe b88d b2bb eab0 cabe d382 0dbe
00000280: 1593 50be 55b2 0b3e c472 35be a469 d53d
00000290: 35ad 853d 0c08 afbd c369 9b3d b179 133e
000002a0: 47c4 333d 42dd 44be 2702 913d bb8a cc3c
000002b0: 38c0 9db9 9f86 193c f3bc b13d 1ab4 733d
000002c0: 2335 eb3c 8961 89bd 6a01 663d 04ae 4abd
000002d0: 5e7b b23d 517f 4ebe f042 163e 949c a0be
000002e0: c799 893d b774 7dbe 46ea a2be c595 e13c
000002f0: 460c 3cbe a78e e9bd 6794 8abd 9a6e 6e3d
00000300: 8ae7 7a3d a8a8 15bd 46b7 f13c 9539 b5be
00000310: 7b6a f23d 6337 183d b3f8 293e aec5 68bd
00000320: cf88 f03c 923a 143e 6cb0 8fbe 96f0 cf3d
00000330: 9e3d e5bd 1988 b4bd 61f8 57be 9464 153e
00000340: 6f39 bb3d 0f36 413e 65a5 f33d 187b 903d
00000350: ab31 d9be e9d5 763d da40 c23d d24c 2a3d
00000360: b0fe ef3d 0312 1ebd a842 77bd 2169 a13d
00000370: be34 84bd caf1 873d 66db f53c b5b9 ef3d
00000380: 2933 8fbe 1223 bd3c 6ba7 5a3e 3ce5 e3bd
00000390: 17f2 4d3e 0fe6 133e e3f3 253d f3ef 9f3b
000003a0: ba1c b2bb 14d0 8c3d 34dd 453d e380 9f3d
000003b0: e559 183d 5845 fcbd 38cf a2bd 6d61 e13c
000003c0: 3791 75bd 55f0 153e adca 27bd c19f c03b
000003d0: 1292 82bd 6fc1 023e 1c1c e53c 1055 24be
000003e0: 0593 183d a89e 70be 9158 c0bd 93b3 a83d
000003f0: e002 6bbe fdda 293e 4c0b 0d3e 6547 c93d

model.fc.10.bias f4 [16]
-0.057637874 -0.01782906 0.09753501 0.08180351 -0.15917079 -0.018055882 -0.13951159 -0.018067788
-0.13430734 -0.080351435 -0.08197337 -0.15046628 -0.06986724 0.15090847 -0.042489994 0.121732004
00000000: b115 6cbd 400e 92bc 6fc0 c73d 9988 a73d
00000010: abfd 22be eee9 93bc 20dc 0ebe e602 94bc
00000020: dd87 09be 4b8f a4bd a7e1 a7bd d513 1abe
00000030: 8e16 8fbd c087 1a3e fd09 2ebd a14e f93d

model.fc.11.weight f4 [16]
0.75055367 0.91471326 0.81732255 0.81753 0.8829119 0.6875961 0.61438787 0.73012
0.93046796 0.845281 0.85748464 0.71491873 0.7522733 0.8819868 0.68022007 0.8953614
00000000: 4924 403f a62a 6a3f 0d3c 513f a549 513f
00000010: 8406 623f 4c06 303f 8648 1d3f 25e9 3a3f
00000020: 2633 6e3f 5664 583f 1d84 5b3f ea04 373f
00000030: fc94 403f e3c9 613f e722 2e3f 6836 653f

model.fc.11.bias f4 [16]
-0.3611451 -0.13977134 -0.36805418 -0.24897379 -0.49054664 -0.33217174 -0.17958511 -0.3341877
0.012144074 -0.07828704 -0.33395877 -0.21984689 -0.3849342 -0.1734336 -0.18285616 -0.2949059
00000000: 03e8 b8be 3820 0fbe 9971 bcbe fcf2 7ebe
00000010: ee28 fbbe 6a12 aabe 29e5 37be a61a abbe
00000020: f0f7 463c f554 a0bd a5fc aabe 8b1f 61be
00000030: 1816 c5be 9498 31be a53e 3bbe e8fd 96be

model.fc.11.running_mean f4 [16]
-0.4897185 0.074762106 -0.21205024 -0.030426804 -0.4058466 -0.3229723 -0.12497967 -0.19699131
-0.062382255 0.10608256 -0.14885998 -0.42202204 -0.4059659 0.004699693 -0.44231558 0.12936532
00000000: 62bc fabe e01c 993d b323 59be a241 f9bc
00000010: 20cb cfbe a05c a5be 57f5 ffbd 17b8 49be
00000020: 8984 7fbd d041 d93d c06e 18be 4613 d8be
00000030: c3da cfbe e2ff 993b 3077 e2be 5878 043e

model.fc.11.running_var f4 [16]
1.1845773 1.493092 0.6313216 0.99050415 1.471498 1.2214142 1.0796356 0.743968
0.7635648 1.9106529 1.1089576 1.2759594 1.3486713 1.1730595 0.68449116 0.80605817
00000000: 3ba0 973f a31d bf3f 4b9e 213f ae91 7d3f
00000010: 0c5a bc3f 4d57 9c3f 8031 8a3f b074 3e3f
00000020: fc78 433f 4690 f43f 53f2 8d3f a352 a33f
00000030: 43a1 ac3f d026 963f d03a 2f3f d459 4e3f

model.fc.14.weight f4 [8, 16]
-0.010415242 0.031649034 0.37177464 0.09740001 -0.26363432 0.040863886 0.13208771 -0.029376173
-0.019925665 0.10552036 -0.09496824 0.11037562 -0.3276696 0.35182163 0.07502534 -0.05781712
-0.24486674 0.31026793 0.013569537 -0.07657072 -0.10075156 -0.17336607 0.0007637592 -0.114977166
0.22340953 0.26076692 -0.052326757 -0.076858826 -0.14241295 0.106133744 0.25725856 -0.035155497
0.04789458 -0.1492964 -0.42121103 -0.02099208 0.31033245 0.12646568 -0.07726042 -0.0039899126
0.12215816 -0.06223887 0.33614755 0.02502978 0.2604999 -0.28924322 0.061881125 0.008361955
-0.21448825 0.1891666 -0.09033289 -0.2047429 0.055931095 -0.39679092 0.056144245 0.03809235
-0.04436805 0.24601644 -0.114036694 -0.25566778 0.097306825 -0.067941815 -0.025144706 0.19410364
0.00039365672 0.18016814 -0.12749164 0.08192524 0.041829683 0.054656085 -0.26868206 -0.16662681
0.39244583 0.1936465 0.15929987 0.084117435 -0.008796874 -0.118555695 0.2815523 -0.064040214
-0.0027858848 -0.10550802 -0.030513613 0.009931594 -0.014454985 -0.06219545 0.22808635 0.25033435
-0.23838998 -0.09094252 -0.10255407 -0.047412533 0.0358743 -0.050902415 -0.379234 0.2880163
-0.03483602 0.090193145 0.3747357 0.10707408 -0.26590568 0.04877464 0.12399238 -0.042355955
0.009523563 0.10041795 -0.11354424 0.119800344 -0.32372087 0.496889 0.08851612 -0.032415614
-0.28880152 0.3014306 -0.061891545 -0.14863965 -0.093570516 -0.3674472 0.06604238 -0.015268226
0.123268306 0.2645967 -0.011746053 -0.15341221 -0.12667568 0.038252227 0.19646312 0.09099513
00000000: b1a4 2abc 6ba2 013d 3f59 be3e a879 c73d
00000010: 14fb 86be e460 273d 0042 073e 4da6 f0bc
00000020: 263b a3bc 0f1b d83d b57e c2bd 9d0c e23d
00000030: 4fc4 a7be f721 b43e e3a6 993d a5d1 6cbd
00000040: 59be 7abe 70db 9e3e c352 5e3c 1cd1 9cbd
00000050: d556 cebd e086 31be 0337 483a 2679 ebbd
00000060: 78c5 643e 3e83 853e 9554 56bd 2968 9dbd
00000070: b3d4 11be a65c d93d 65b7 833e 36ff 0fbd
00000080: 1b2d 443d 28e1 18be f9a8 d7be 95f7 abbc
00000090: e5e3 9e3e 3880 013e b63a 9ebd d0bd 82bb
000000a0: 0f2e fa3d 2fee 7ebd 881b ac3e 410b cd3c
000000b0: 3e60 853e b017 94be 1077 7d3d 9500 093c
000000c0: cfa2 5bbe e4b4 413e 7300 b9bd 1fa8 51be
000000d0: 0118 653d 2e28 cbbe 82f7 653d b906 1c3d
000000e0: 46bb 35bd bceb 7b3e 128c e9bd e3e6 82be
000000f0: cd48 c73d 1425 8bbd 45fc cdbc 1bc3 463e
00000100: b663 ce39 ff7d 383e 2b8d 02be 6cc8 a73d
00000110: 9a55 2b3d 0fdf 5f3d b290 89be 38a0 2abe
00000120: a9ee c83e 454b 463e 811f 233e c345 ac3d
00000130: c420 10bc 54cd f2bd a027 903e 8427 83bd
00000140: 6493 36bb 9714 d8bd aff7 f9bc 20b8 223c
00000150: 9ad4 6cbc a8c0 7ebd 788f 693e d32b 803e
00000160: 811c 74be 1240 babd de07 d2bd a533 42bd
00000170: eef0 123d 0d7f 50bd f52a c2be df76 933e
00000180: 37b0 0ebd 2fb7 b83d 5cdd bf3e a849 db3d
00000190: ca24 88be ebc7 473d b8ef fd3d 707d 2dbd
000001a0: b808 1c3c eda7 cd3d e289 e8bd e259 f53d
000001b0: bebe a5be 3c68 fe3e f147 b53d 3cc6 04bd
000001c0: cbdd 93be 1d55 9a3e fd81 7dbd fe34 18be
000001d0: e6a1 bfbd 0a22 bcbe 3a41 873d 9527 7abc
000001e0: 1874 fc3d 3879 873e 8472 40bc 1718 1dbe
000001f0: 45b7 01be 5eae 1c3d a12d 493e a85b ba3d

model.fc.14.bias f4 [8]
0.19940878 -0.20258418 -0.08871751 0.18376696 -0.13866429 -0.108296536 -0.041473344 -0.21329793
00000000: d131 4c3e 3a72 4fbe 87b1 b5bd 682d 3c3e
00000010: 03fe 0dbe 93ca ddbd f4df 29bd c66a 5abe

model.fc.15.weight f4 [8]
1.7875308 1.9801261 2.455263 1.8934357 1.6885704 1.5605342 2.022926 1.5860784
00000000: cfcd e43f c674 fd3f 0723 1d40 1a5c f23f
00000010: 1323 d83f 96bf c73f 9f77 0140 9e04 cb3f

model.fc.15.bias f4 [8]
0.8099653 0.65642524 0.24385948 0.7042783 0.89411134 -0.17705163 0.97250164 0.4664406
00000000: e359 4f3f 7c0b 283f 4db6 793e 954b 343f
00000010: 7be4 643f 064d 35be def5 783f 4dd1 ee3e

model.fc.15.running_mean f4 [8]
0.26286146 -0.04509982 -0.12418349 0.2330092 0.0008808447 -0.19412401 0.055301797 -0.07884223
00000000: c795 863e 97ba 38bd ea53 febd f799 6e3e
00000010: 7de8 663a 72c8 46be 2384 623d 0978 a1bd

model.fc.15.running_var f4 [8]
0.24770746 0.32235342 0.5189982 0.36932442 0.23367992 0.26484832 0.32079178 0.38995472
00000000: 06a7 7d3e 820b a53e 11dd 043f 1718 bd3e
00000010: ca49 6f3e 339a 873e d23e a43e 25a8 c73e

model.fc.18.weight f4 [4, 8]
-1.9575735 -0.9941411 0.28677514 1.4384348 -1.541063 0.76057047 -2.064466 -0.1755269
-1.6858478 -0.6506195 0.6616565 -1.7891575 1.257383 -1.962244 -1.7557659 -1.0838665
0.37247807 1.2239231 -1.1799246 0.87455 0.41995245 -0.74106634 0.26788083 1.3976483
0.54720056 -0.35557503 -1.2679458 -0.98126644 -1.3591928 0.55423 0.39368516 -1.0641155
00000000: c591 fabf 0880 7ebf 31d4 923e a21e b83f
00000010: 8d41 c5bf bfb4 423f 3620 04c0 53bd 33be
00000020: dcc9 d7bf 008f 26bf 5262 293f 1d03 e5bf
00000030: edf1 a03f d02a fbbf f0bc e0bf 23bc 8abf
00000040: 72b5 be3e 83a9 9c3f c507 97bf 82e2 5f3f
00000050: 0204 d73e 86b6 3dbf ad27 893e 24e6 b23f
00000060: 5615 0c3f ee0d b6be 0c4c a2bf 4734 7bbf
00000070: 08fa adbf 04e2 0d3f 1a91 c93e f034 88bf

model.fc.18.bias f4 [4]
-0.3084246 0.34302402 0.31117293 0.029578296
00000000: d4e9 9dbe d8a0 af3e 0f52 9f3e 2f4e f23c
