globalcaffesyntetic/checkpoints_SleepQuality/bodyP-epoch=02-val_f1=0.98.ckpt (torch, 228412 bytes, 68 tensors)

model.fc.0.weight f4 [128, 40]
-0.082404785 -0.102656126 0.12710354 0.06724883 -0.091812566 -0.08449835 -0.10381168 0.06740368
-0.055515546 0.0049187844 0.10447424 0.07616189 -0.078290455 0.1096072 0.10543054 0.065367006
0.02558644 0.023696573 -0.10618658 0.062412996 0.05589516 -0.08028086 -0.07292917 0.079573385
-0.11287648 0.05711982 -0.08355295 -0.021905996 0.011112104 -0.026683122 -0.11960161 -0.107345454
-0.15644974 -0.03288064 -0.09240456 0.054157045 0.07458666 0.11943526 0.060692918 -0.10933487
-0.11113568 -0.10318401 -0.12266074 -0.12693693 0.118481174 0.09123236 0.08038414 0.095147215
-0.13480224 0.12820733 -0.08846756 0.0029971055 0.02346184 0.08577918 -0.017391708 -0.002956914
0.050846297 -0.044279166 -0.02529509 0.056740344 -0.106994286 0.14350331 -0.046132393 0.10653531
-0.12641118 -0.009908827 0.00775329 -0.08566356 0.045360018 0.068767846 0.15980409 0.110087775
-0.10352621 0.04829404 -0.15589759 0.010010696 0.10826527 -0.07064424 -0.030492414 0.012735713
-0.018606957 -0.055912986 0.0075837183 0.26147938 -0.08078612 0.113313854 -0.010775629 -0.08051415
-0.12480251 0.14057921 -0.02370273 -0.06787158 0.16700163 -0.010587136 0.027901603 0.08631185
0.008263254 0.029436858 0.10502333 -0.05640636 0.1476382 -0.08678047 -0.06971318 -0.13358419
-0.13906355 -0.1168463 0.091124155 0.05813374 -0.12161103 0.07047797 -0.17421076 0.051181503
0.013248892 0.12780274 -0.10599575 -0.08370794 -0.13443221 0.014759105 0.016829478 0.12666026
0.104412265 -0.014086465 -0.06127639 -0.010397812 -0.16104761 0.062078442 -0.094290525 0.053401142
-0.10846495 -0.13187455 -0.12315343 -0.12715113 0.06449021 -0.12970369 0.10196447 -0.1487985
0.099106334 0.14707544 0.13948949 0.16895418 -0.09763794 0.03359739 -0.13170394 0.10938397
0.08533979 0.062254757 0.09083021 0.11059634 -0.102574565 -0.035213523 -0.11094627 -0.027252179
0.13378544 -0.21582016 0.21856442 -0.12873374 0.080324136 -0.05439934 0.06636959 -0.0102691585
0.014118417 0.09959443 0.05805434 -0.094258964 0.006761831 -0.15856586 -0.117834866 0.09560509
-0.1300682 0.13179669 -0.049724706 -0.058253173 -0.14862557 0.020103792 -0.13354868 0.024105245
0.022935798 0.16403455 0.07493623 0.03971234 0.089666665 0.0627375 -0.093239605 0.0093313735
0.023544062 -0.069870815 0.07672659 0.13321598 0.10295869 -0.0042024194 0.09189531 0.024815865
-0.19200046 0.16723906 0.059179068 -0.12155258 0.11416948 0.089124225 0.10959617 -0.091031194
-0.104062855 0.015000606 -0.11180959 0.054903366 -0.0071472432 -0.029589085 0.046616826 0.07592893
0.013170802 -0.022215549 0.105920404 0.15871815 -0.110998675 0.16103077 -0.10818834 0.109996125
0.00553429 0.14358076 0.06922958 -0.08822192 -0.15086779 -0.066227295 0.11996712 -0.03565922
0.055776626 -0.115227595 0.10438275 -0.07731418 -0.043774158 0.0007670325 -0.09310709 -0.055497006
0.108240895 -0.18663621 0.15446888 0.07711515 -0.050677594 0.03617667 -0.02795688 0.047992952
0.13360402 -0.04868756 -0.07652039 -0.16985847 0.07628851 -0.022609118 -0.055325214 -0.018809255
0.034033272 -0.020460634 -0.07562446 -0.015438253 -0.1395051 0.048958223 0.013519206 0.063550666
00000000: d7c3 a8bd 603d d2bd 6e27 023e c1b9 893d
00000010: 3a08 bcbd 790d adbd 389b d4bd f10a 8a3d
00000020: 4564 63bd c12d a13b 97f6 d53d c4fa 9b3d
00000030: bf56 a0bd bd79 e03d f8eb d73d 23df 853d
00000040: a79a d13c 511f c23c 5a78 d9bd c5a4 7f3d
00000050: 53f2 643d 4b6a a4bd e45b 95bd 5ff7 a23d
00000060: c92b e7bd 79f6 693d cf1d abbd 3474 b3bc
00000070: 8b0f 363c 9096 dabc b0f1 f4bd efd7 dbbd
00000080: 5c34 20be daad 06bd 9a3e bdbd c7d3 5d3d
00000090: e4c0 983d 799a f43d 2399 783d f6ea dfbd
000000a0: 1a9b e3bd 2352 d3bd 8e35 fbbd c1fb 01be
000000b0: 42a6 f23d 08d8 ba3d 71a0 a43d 8bdc c23d
000000c0: 9909 0abe c848 033e 7b2e b5bd 166b 443b
000000d0: 0b33 c03c ffac af3d 0e79 8ebc c9c8 41bb
000000e0: 3544 503d 125e 35bd a637 cfbc 9068 683d
000000f0: d21f dbbd 88f2 123e 52f5 3cbd 2f2f da3d
00000100: ef71 01be a258 22bc 4f0f fe3b 6070 afbd
00000110: 6dcb 393d 28d6 8c3d afa3 233e b375 e13d
00000120: 8d05 d4bd f9cf 453d 9ea3 1fbe e703 243c
00000130: 2fba dd3d edad 90bd 3acb f9bc 74a9 503c
00000140: 9e6d 98bc 0405 65bd d780 f83b a0e0 853e
00000150: 3173 a5bd 1811 e83d 448c 30bc 9ae4 a4bd
00000160: 7598 ffbd fff3 0f3e 3a2c c2bc 4100 8bbd
00000170: 7a02 2b3e ab75 2dbc e791 e43c 44c4 b03d
00000180: 9962 073c 9125 f13c 7916 d73d 5b0a 67bd
00000190: 782e 173e f6b9 b1bd c9c5 8ebd 4bca 08be
000001a0: ad66 0ebe 1d4d efbd 4d9f ba3d a51d 6e3d
000001b0: 340f f9bd c156 903d 4e64 32be b2a3 513d
000001c0: e111 593c b9de 023e 4d14 d9bd 126f abbd
000001d0: 99a8 09be 2cd0 713c f9dd 893c 3ab3 013e
000001e0: 19d6 d53d ebca 66bc f4fc 7abd 965b 2abc
000001f0: aae9 24be f745 7e3d 641b c1bd 28bb 5a3d
00000200: df22 debd 1f0a 07be de37 fcbd e833 02be
00000210: 7113 843d 0bd1 04be c0d2 d03d a25e 18be
00000220: 43f8 ca3d f29a 163e 55d6 0e3e 5302 2d3e
00000230: 66f6 c7bd 6b9d 093d 66dd 06be b404 e03d
00000240: a1c6 ae3d d8fe 7e3d 3005 ba3d 5580 e23d
00000250: 9d12 d2bd 0e3c 10bd cc37 e3bd f63f dfbc
00000260: 0dff 083e f6ff 5cbe 5acf 5f3e c7d2 03be
00000270: fb80 a43d d8d1 5ebd c8ec 873d f93f 28bc
00000280: ef50 673c 2af8 cb3d 63ca 6d3d d80a c1bd
00000290: 5a92 dd3b 175f 22be 6853 f1bd 9acc c33d
000002a0: 9930 05be b6f5 063e 22ac 4bbd e19a 6ebd
000002b0: 4d31 18be b5b0 a43c fcc0 08be 5d78 c53c
000002c0: dbe3 bb3c acf8 273e 2b78 993d 68a9 223d
000002d0: 28a3 b73d 857c 803d 68f4 bebd 9ee2 183c
000002e0: 7adf c03c 6e18 8fbd d522 9d3d c569 083e
000002f0: 01dc d23d 73b4 89bb 9c33 bc3d a44a cb3c
00000300: c59b 44be b740 2b3e c065 723d 8ff0 f8bd
00000310: b0d1 e93d c386 b63d f573 e03d 906e babd
00000320: e81e d5bd 1ac5 753c 6dfc e4bd 5ae2 603d
00000330: 6c33 eabb cf64 f2bc 49f1 3e3d a080 9b3d
00000340: 59ca 573c 62fd b5bc ccec d83d 0387 223e
00000350: 4653 e3bd 40e5 243e d991 ddbd a645 e13d
00000360: fd58 b53b d606 133e 3dc8 8d3d b2ad b4bd
00000370: 167d 1abe 2da2 87bd 52b1 f53d 670f 12bd
00000380: 0876 643d 72fc ebbd a0c6 d53d e656 9ebd
00000390: 884c 33bd ae12 493a eeae bebd d450 63bd
000003a0: 67ad dd3d 901d 3fbe 172d 1e3e 8cee 9d3d
000003b0: 4f93 4fbd fd2d 143d d405 e5bc 4294 443d
000003c0: 7ecf 083e 9b6c 47bd b9b6 9cbd 61ef 2dbe
000003d0: 263d 9c3d c236 b9bc b19c 62bd de15 9abc
000003e0: 7966 0b3d 0f9d a7bc ffe0 9abd baf0 7cbc
000003f0: 6dda 0ebe 6b88 483d a97f 5d3c da26 823d

model.fc.0.bias f4 [128]
0.026446886 0.022272231 -0.05613137 -0.067481995 -0.16535255 -0.008602808 -0.01839841 -0.1648339
0.06932977 -0.016830113 -0.0066938805 0.23422407 0.026008919 -0.18006879 0.066191636 0.11808571
0.057278957 -0.039488778 0.19712514 -0.04653301 0.08091623 0.07739175 0.053549975 -0.10612573
0.044922028 -0.0071519613 0.118367344 -0.088882506 -0.08743906 0.10347444 -0.03503306 -0.11498953
-0.09663507 -0.13744156 -0.14733145 -0.077160046 0.04376621 0.09803588 -0.093475096 0.09465666
-0.06332121 -0.05444913 0.13377495 -0.067376405 0.0373833 0.13534464 0.08153426 -0.023403099
-0.029030079 0.14781396 -0.17639908 -0.17387144 -0.07313998 -0.003786782 -0.012179998 -0.01826391
-0.18346791 -0.08117783 0.07017945 0.13782705 -0.05925019 -0.17558084 -0.06874436 -0.033054292
-0.014369769 0.13550296 -0.023531575 -0.017581075 0.14710629 0.08716351 -0.0052210176 -0.005583485
0.08970608 0.063168906 0.004936093 0.12151434 0.03609231 -0.011987049 -0.0025568828 0.002900699
-0.00053354213 0.09141671 -0.057555754 -0.045324843 0.010880045 -0.021522688 0.08131201 0.11142774
-0.13768376 0.14568076 0.10998075 0.068806015 0.063372254 -0.01660433 0.03497492 -0.0897689
-0.12667826 -0.1265091 -0.0166757 0.107297905 0.11559504 0.09440493 -0.014700215 0.15268877
0.11508562 0.12454956 -0.013530165 0.032952376 0.19553532 0.09437829 -0.03091854 0.031833168
-0.16215912 0.048627432 0.10055518 0.041026175 0.087173894 0.0864642 -0.11770522 -0.07089108
-0.04298014 0.0879913 -0.12352074 -0.11143903 0.09066769 0.11566453 0.099774 -0.060153477
00000000: 24a7 d83c 4174 b63c 02ea 65bd 0034 8abd
00000010: 2e52 29be cbf2 0cbc 43b8 96bc 38ca 28be
00000020: c4fc 8d3d 4edf 89bc 5758 dbbb 6fd8 6f3e
00000030: a810 d53c f463 38be 7b8f 873d ecd6 f13d
00000040: 579d 6a3d fcbe 21bd 2cdb 493e 6699 3ebd
00000050: 69b7 a53d 917f 9e3d 3857 5b3d 7258 d9bd
00000060: 2900 383d 005b eabb 946a f23d 0808 b6bd
00000070: 4013 b3bd 68ea d33d d37e 0fbd a17f ebbd
00000080: 9ce8 c5bd 7bbd 0cbe 0ede 16be 1606 9ebd
00000090: 3344 333d 09c7 c83d df6f bfbd 5adb c13d
000000a0: 8dae 81bd 0d06 5fbd 4dfc 083e a4fc 89bd
000000b0: 3b1f 193d c997 0a3e 6ffb a63d dbb7 bfbc
000000c0: 7dd0 edbc 8b5c 173e f6a1 34be 5b0b 32be
000000d0: 6aca 95bd a92b 78bb 9d8e 47bc 329e 95bc
000000e0: 03df 3bbe 9040 a6bd 3eba 8f3d 8922 0d3e
000000f0: 54b0 72bd 77cb 33be d8c9 8cbd f063 07bd
00000100: 2e6f 6bbc 4ac1 0a3e 4ac5 c0bc 3006 90bc
00000110: 08a3 163e c882 b23d 1215 abbb abf5 b6bb
00000120: d2b7 b73d b35e 813d f3be a13b 83dc f83d
00000130: 88d5 133d 5465 44bc 6091 27bb a719 3e3b
00000140: 68dd 0bba af38 bb3d 95bf 6bbd 8ba6 39bd
00000150: 3742 323c 5950 b0bc e986 a63d 3a34 e43d
00000160: f9fc 0cbe 562d 153e 963d e13d 2bea 8c3d
00000170: 50c9 813d ce05 88bc dd41 0f3d c2d8 b7bd
00000180: f2b7 01be 9a8b 01be 7a9b 88bc 01bf db3d
00000190: 18bd ec3d 5f57 c13d 2cd9 70bc 725a 1c3e
000001a0: 02b2 eb3d d713 ff3d a0ad 5dbc 12f9 063d
000001b0: 693a 483e 6849 c13d e148 fdbc 7f63 023d
000001c0: 0a0d 26be 8f2d 473d e0ef cd3d 100b 283d
000001d0: 3a88 b23d 2414 b13d 6f0f f1bd 582f 91bd
000001e0: f10b 30bd c834 b43d 71f8 fcbd 253a e4bd
000001f0: fbaf b93d 86e1 ec3d 5056 cc3d 7e63 76bd

model.fc.2.weight f4 [64, 128]
-0.009887646 -0.0122023225 -0.02065679 -0.018890228 -0.031224946 0.041853104 -0.024097364 -0.022937534
0.0063375374 0.02973909 0.092303514 -0.07100282 0.030040853 -0.031770535 0.058654774 -0.0009220264
-0.094639756 -0.09192877 0.0392402 0.007974192 0.027082361 0.060332146 0.045103382 -0.008808653
0.06732914 -0.042379733 -0.05701259 0.06622425 0.06856752 -0.0022018952 -0.059193905 -0.104381315
0.06941054 0.0118451 -0.041807126 0.064104244 -0.011013778 -0.05931726 -0.0019413786 -0.10948083
0.06493154 -0.0059397533 0.12892674 -0.045593046 -0.005930203 0.06434496 0.08712029 -0.06596286
-0.09515337 0.04615322 -0.011765379 0.011284297 0.057097748 0.0057285596 -0.036740094 0.08611661
0.008436914 0.016600508 -0.010821555 -0.08361221 0.08599108 0.098059945 0.059222534 0.049640037
0.06788133 -0.022930456 0.0088754445 -0.058220517 0.04447154 -0.064845845 -0.036654357 0.051885135
-0.039252847 -0.053680144 -0.062566474 -0.079161465 -0.033849467 -0.025750522 0.055129945 0.030189946
0.035651013 0.009446298 0.0077232113 0.014814603 0.020082664 0.07727495 -0.027260773 -0.01559204
-0.03631279 -0.0975802 0.04528099 0.0041671214 -0.0003497464 0.007394727 -0.05098477 -0.11140306
-0.021183545 0.008041413 -0.015641814 0.034795757 0.02219552 -0.04145717 -0.085998714 0.023731388
0.0020432395 0.0056331847 -0.06372967 -0.048412338 0.05812867 -0.02219248 -0.02905475 0.09911614
0.092594445 0.034989562 0.10468846 -0.0069535836 0.067842625 0.085688196 -0.0735308 0.004850296
0.04318443 -0.086534664 0.06351564 -0.034929443 0.019799648 0.0648143 -0.043910537 -0.017741695
-0.00059240387 -0.025884256 -0.04339276 -0.031141205 -0.11086066 0.012166829 0.07185355 -0.048787184
0.00094760023 0.012370473 0.067505926 0.10398338 0.023282673 0.042185448 -0.02863068 0.06829048
-0.020358836 0.0007453381 -0.09988774 0.080187924 -0.062186044 -0.012669031 -0.08191288 -0.028809737
-0.04666616 0.033265036 0.024598187 0.0414795 -0.07015892 -0.08832288 0.052298024 0.07565775
-0.031076536 0.11723994 0.06972127 0.10937829 0.022062216 -0.08106356 -0.020582965 -0.087369785
-0.059785232 0.1022876 -0.0431909 0.018591678 0.008239321 -0.030784165 0.046773087 -0.0040761735
-0.10177188 -0.043783996 -0.01714753 0.03493892 -0.08707978 -0.009603905 0.05353378 -0.011593467
-0.06970917 -0.009460065 0.042337433 -0.011335981 0.05719758 0.008058998 -0.06458656 -0.0117394775
0.09389923 -0.048894834 0.08179136 -0.055126976 0.074838 0.06556584 0.07279844 0.023777917
0.035199016 -0.055781417 0.022267114 0.047438517 -0.07154219 -0.024203558 0.0019518782 -0.006858679
0.056814417 -0.018679185 -0.05030099 0.028402256 -0.09835197 -0.021197729 0.09561034 0.05826211
-0.013269789 0.06551631 -0.103211924 0.0014634046 0.0524021 -0.008178077 -0.0627212 -0.001252086
0.03050446 0.0064825555 0.108829446 -0.0018258911 0.054742865 -0.022284713 0.078979336 0.07339412
0.0039027976 -0.0021519198 -0.058260538 0.10247987 -0.03692834 0.03403924 -0.038160343 -0.021015728
-0.06638449 -0.03299331 -0.049441766 -0.12170824 0.05426052 0.0082739275 0.07692641 -0.10579349
-0.03463809 0.0217815 0.036830775 -0.0041659875 0.0073536597 -0.0024357955 -0.058027565 -0.060864255
00000000: cbff 21bc 40ec 47bc 6e38 a9bc aebf 9abc
00000010: 75cb ffbc 296e 2b3d d667 c5bc 7fe7 bbbc
00000020: 1eab cf3b 649f f33c a009 bd3d ed69 91bd
00000030: 3c18 f63c d221 02bd fd3f 703d 25b4 71ba
00000040: 7dd2 c1bd 2745 bcbd 55ba 203d 2fa6 023c
00000050: d4db dd3c d71e 773d 53be 383d 2b52 10bc
00000060: dce3 893d 5f96 2dbd 0986 69bd 94a0 873d
00000070: 216d 8c3d ac4d 10bb 4f75 72bd dfc5 d5bd
00000080: 1d27 8e3d f311 423c f33d 2bbd 1649 833d
00000090: 2273 34bc a8f6 72bd db75 feba 7c37 e0bd
000000a0: d4fa 843d 43a2 c2bb 5f05 043e c6bf 3abd
000000b0: 2652 c2bb 4ac7 833d 1f6c b23d 8917 87bd
000000c0: c5df c2bd 290b 3d3d 94c3 40bc c6e1 383c
000000d0: 54df 693d a4b6 bb3b c87c 16bd e85d b03d
000000e0: fb3a 0a3c cafd 873c e44c 31bc e13c abbd
000000f0: 171c b03d a7d3 c83d 5493 723d 5a53 4b3d
00000100: 5e05 8b3d a7d8 bbbc 506a 113c a378 6ebd
00000110: ca27 363d e6cd 84bd e122 16bd 8285 543d
00000120: 98c7 20bd b6df 5bbd da22 80bd 681f a2bd
00000130: bda5 0abd c2f2 d2bc f0cf 613d e850 f73c
00000140: cc06 123d a5c4 1a3c fe12 fd3b f3b8 723c
00000150: 6684 a43c 5442 9e3d fc51 dfbc c175 7fbc
00000160: b8bc 14bd 21d8 c7bd 8f78 393d 598c 883b
00000170: 2b5e b7b9 774f f23b 68d5 50bd 4a27 e4bd
00000180: 1d89 adbc 21c0 033c 4323 80bc ff85 0e3d
00000190: 61d3 b53c fece 29bd 1820 b0bd 5468 c23c
000001a0: dfe7 053b 9496 b83b b484 82bd 044c 46bd
000001b0: 5418 6e3d 01cd b5bc 3a04 eebc 67fd ca3d
000001c0: 28a2 bd3d 3751 0f3d e766 d63d e3da e3bb
000001d0: 13f1 8a3d 4b7d af3d 5197 96bd 3bef 9e3b
000001e0: 28e2 303d 1639 b1bd 7d14 823d 2d12 0fbd
000001f0: df32 a23c 5cbd 843d 89db 33bd 0857 91bc
00000200: 8d4b 1bba 380b d4bc 9bbc 31bd d71b ffbc
00000210: ea0a e3bd 6157 473c f427 933d 12d5 47bd
00000220: 6068 783a 86ad 4a3c 8c40 8a3d 3df5 d43d
00000230: 4ebb be3c a6ca 2c3d e38a eabc e1db 8b3d
00000240: 93c7 a6bc cb62 433a f291 ccbd 9139 a43d
00000250: cbb6 7ebd c491 4fbc f1c1 a7bd 6602 ecbc
00000260: 0425 3fbd eb40 083d 2382 c93c 68e6 293d
00000270: 7baf 8fbd a0e2 b4bd 7436 563d 73f2 9a3d
00000280: 3894 febc 7e1b f03d 06ca 8e3d ba01 e03d
00000290: d2bb b43c a704 a6bd 9b9d a8bc eeee b2bd
000002a0: 5ce1 74bd 297c d13d f1e8 30bd 934d 983c
000002b0: 38fe 063c 132f fcbc 2395 3f3d 6c91 85bb
000002c0: c76d d0bd d956 33bd fa78 8cbc 1d1c 0f3d
000002d0: e256 b2bd b259 1dbc 3d46 5b3d 86f2 3dbc
000002e0: aec3 8ebd 63fe 1abc 046a 2d3d 8dba 39bc
000002f0: 0248 6a3d e309 043c f545 84bd f056 40bc
00000300: 3d4e c03d f345 48bd 3b82 a73d d3cc 61bd
00000310: aa44 993d 6247 863d 5917 953d e8c9 c23c
00000320: d82c 103d 0e7b 64bd 8669 b63c e44e 423d
00000330: b684 92bd 8a46 c6bc 2ad6 ff3a c5be e0bb
00000340: 3cb6 683d 1705 99bc 6908 4ebd d9ab e83c
00000350: c26c c9bd dca6 adbc 5bcf c33d 40a4 6e3d
00000360: 8769 59bc 6a2d 863d c660 d3bd b6cf bf3a
00000370: 96a3 563d 57fd 05bc f973 80bd 091d a4ba
00000380: 7de4 f93c 9e6b d43b f9e1 de3d bd52 efba
00000390: 0e3a 603d 6e8e b6bc ebbf a13d a84f 963d
000003a0: 14c6 7f3b 3907 0dbb 9aa2 6ebd f7e0 d13d
000003b0: 2c42 17bd bb6c 0b3d 054e 1cbd 2d29 acbc
000003c0: 97f4 87bd fe23 07bd 7383 4abd 2b42 f9bd
000003d0: 4740 5e3d 5e8f 073c 988b 9d3d 42aa d8bd
000003e0: abe0 0dbd 1e6f b23c dedb 163d d682 88bb
000003f0: f8f6 f03b dea1 1fbb 50ae 6dbd cc4c 79bd

model.fc.2.bias f4 [64]
0.068426244 0.056216296 0.011165852 0.06969161 -0.012934011 -0.0060879197 -0.0024462151 0.04233076
0.07147325 -0.0006051477 0.04018137 0.084162846 -0.051240165 -0.04652477 0.017087493 0.047653385
-0.07684931 0.05360636 -0.07794673 0.04935331 -0.08772526 -0.0542931 0.0556052 0.023767808
0.06538974 -0.06770616 0.041646134 -0.07383385 -0.025560087 0.06977253 0.061354082 0.01808606
-0.068433166 -0.032886513 0.045199383 -0.031281043 -0.005135279 -0.06411222 0.014461334 0.049572952
0.055985224 0.058098618 0.024918858 -0.06261637 -0.08672396 -0.038560145 -0.014934325 0.044699185
0.08728235 -0.082765624 -0.03049761 -0.075081795 0.04906951 0.014000551 0.029138876 -0.051482636
0.02503096 -0.08180869 -0.0064709024 -0.043458648 0.0649271 -0.08249901 -0.016931757 -0.047560886
00000000: 0f23 8c3d 0f43 663d faf0 363c 7aba 8e3d
00000010: 2de9 53bc 2c7d c7bb ae50 20bb 0563 2d3d
00000020: 9160 923d c6a2 1eba 3895 243d 925d ac3d
00000030: 35e1 51bd c290 3ebd 12fb 8b3c 3230 433d
00000040: 2c63 9dbd 5892 5b3d 89a2 9fbd b226 4a3d
00000050: 4da9 b3bd 7162 5ebd 47c2 633d b5b4 c23c
00000060: 0eeb 853d 87a9 8abd 2395 2a3d 3436 97bd
00000070: 6363 d1bc e6e4 8e3d 6b4e 7b3d 3829 943c
00000080: b026 8cbd 02b4 06bd fd22 393d 8d20 00bd
00000090: d845 a8bb 454d 83bd 3bef 6c3c 020d 4b3d
000000a0: c350 653d d1f8 6d3d a222 cc3c 033d 80bd
000000b0: 559c b1bd 3ef1 1dbd 19af 74bc 7e16 373d
000000c0: 17c1 b23d 0681 a9bd 20d6 f9bc 7cc4 99bd
000000d0: 1cfd 483d 9162 653c a7b4 ee3c 75df 52bd
000000e0: ba0d cd3c 518b a7bd dd09 d4bb b201 32bd
000000f0: 80f8 843d 3ef5 a8bd 78b4 8abc 34cf 42bd

model.fc.3.weight f4 [64]
1.0574956 1.0153978 0.99414283 0.97502375 0.9564511 0.9434786 0.9609037 1.0994765
0.96943 0.9955418 1.003634 1.0609667 1.0057627 0.9508537 0.9487031 0.9303959
0.96739113 0.9507166 0.9299592 1.0398716 1.0233091 0.9601173 0.9138617 0.9941887
0.9632864 0.9806351 0.9444056 0.99598926 0.9977479 0.94837224 0.948356 1.0230002
0.91867405 0.9830245 0.9257575 1.0361905 1.0158691 0.9520347 0.9632536 0.9632406
0.9547701 1.0038182 0.96019006 1.0159469 0.9474835 0.9416619 1.048578 1.0061693
0.9261993 1.050235 1.0521773 1.0722511 0.9579265 1.029003 1.0053797 1.0937951
1.0527133 1.0006158 0.9428222 0.9574791 1.1254643 0.9705198 0.9552339 0.92998856
00000000: 045c 873f 8ef8 813f 2580 7e3f 289b 793f
00000010: fbd9 743f d087 713f c9fd 753f a5bb 8c3f
00000020: 912c 783f d4db 7e3f 1477 803f c2cd 873f
00000030: d5bc 803f 266b 733f 35de 723f 6d2e 6e3f
00000040: f2a6 773f 2a62 733f ce11 6e3f 831a 853f
00000050: cbfb 823f 3fca 753f d7f2 693f 2783 7e3f
00000060: f099 763f e70a 7b3f 91c4 713f 27f9 7e3f
00000070: 686c 7f3f 86c8 723f 75c7 723f acf1 823f
00000080: 392e 6b3f 7ea7 7b3f 72fe 6c3f e4a1 843f
00000090: 0008 823f 8cb8 733f ca97 763f f096 763f
000000a0: d06b 743f 1d7d 803f 04cf 753f 8c0a 823f
000000b0: 478e 723f c110 713f ce37 863f 28ca 803f
000000c0: 661b 6d3f 1a6e 863f bfad 863f 863f 893f
000000d0: ac3a 753f 5fb6 833f 48b0 803f 7a01 8c3f
000000e0: 4fbf 863f 2e14 803f cc5c 713f 5a1d 753f
000000f0: 370f 903f fc73 783f 358a 743f bb13 6e3f

model.fc.3.bias f4 [64]
0.10675104 -0.054790117 -0.08594298 0.02224513 -0.018970598 -0.065415025 0.0052894736 -0.06890851
-0.028344283 -0.035191555 -0.08261218 -0.081811845 -0.08701735 -0.0340176 -0.012723136 -0.016489571
0.009621138 -0.008003814 -0.02844842 -0.026113011 -0.06896476 0.022678275 -0.047796234 -0.06777205
-0.043153323 0.019067168 -0.0036867806 -0.014468886 0.07718104 -0.016878659 -0.02859818 -0.040021557
-0.010916846 -0.052810185 -0.055075314 -0.0537245 -0.050856613 -0.009503182 -0.024712872 -0.02608948
-0.00044884655 -0.05236491 -0.0044100382 -0.001632655 -0.059811354 -0.056200534 -0.08901849 -0.11308883
-0.04859813 -0.0169304 -0.11576937 -0.0140007585 0.025097938 -0.027722167 0.066132925 -0.011012049
-0.053487413 0.05838056 -0.049605567 -0.0031890336 -0.03222075 0.050477844 -0.011413812 -0.053388033
00000000: 4aa0 da3d 9a6b 60bd e002 b0bd 6b3b b63c
00000010: 3a68 9bbc 50f8 85bd 5253 ad3b e81f 8dbd
00000020: 4532 e8bc 0525 10bd 9330 a9bd f88c a7bd
00000030: 2736 b2bd 0a56 0bbd b374 50bc 2315 87bc
00000040: faa1 1d3c 6e22 03bc a90c e9bc f4ea d5bc
00000050: 653d 8dbd cac7 b93c fcc5 43bd 13cc 8abd
00000060: 8ac1 30bd c032 9c3c ea9d 71bb e80e 6dbc
00000070: 1811 9e3d 1d45 8abc bb46 eabc a5ed 23bd
00000080: 92dc 32bc 7e4f 58bd a796 61bd 390e 5cbd
00000090: 064f 50bd 3cb3 1bbc a672 cabc 9bb9 d5bc
000000a0: 2a53 ebb9 967c 56bd 1582 90bb d0fe d5ba
000000b0: c0fc 74bd 8832 66bd 534f b6bd 1e9b e7bd
000000c0: d50e 47bd 9fb1 8abc 7e18 edbd 7063 65bc
000000d0: 319a cd3c 9919 e3bc b370 873d e26b 34bc
000000e0: 9e15 5bbd 7420 6f3d 352f 4bbd 1bff 50bb
000000f0: e8f9 03bd dbc1 4e3d ff00 3bbc 69ad 5abd

model.fc.3.running_mean f4 [64]
0.15196688 -0.04506559 -0.054550078 0.06431754 -0.043577 0.07760398 0.071314596 -0.083124354
0.19923499 -0.11204506 -0.10458207 -0.029127723 -0.0512477 -0.050469488 0.15975405 0.098591655
0.052034434 0.04159641 -0.02021819 -0.039607037 -0.18755004 0.004336565 0.11185811 0.04207892
0.0038396383 0.023188427 0.14789063 -0.1392999 0.052965526 0.07735587 0.07268291 -0.07511348
-0.06458067 -0.11820434 0.03972514 -0.014616448 0.03189272 -0.10726127 -0.0254079 -0.07469424
0.1755504 -0.07887517 0.15014754 -0.10128607 -0.07684426 -0.06095547 -0.10865381 0.0070462893
0.012131268 -0.2254878 -0.20040382 -0.22220999 0.095782824 -0.025623599 0.16075136 -0.136229
0.03000547 -0.034751013 0.007166346 -0.027438214 -0.04960283 -0.06960131 -0.058372788 -0.13721342
00000000: 359d 1b3e b296 38bd e76f 5fbd eab8 833d
00000010: cc7d 32bd d6ee 9e3d 630d 923d 1a3d aabd
00000020: 4204 4c3e e177 e5bd 202f d6bd 439d eebc
00000030: 1ce9 51bd 18b9 4ebd 9196 233e 6cea c93d
00000040: 0f22 553d ff60 2a3d 9ea0 a5bc fd3a 22bd
00000050: 1e0d 40be be19 8e3b dd15 e53d f25a 2c3d
00000060: 71a2 7b3b a8f5 bd3c a470 173e a2a4 0ebe
00000070: 61f2 583d c16c 9e3d c7da 943d 19d5 99bd
00000080: df42 84bd 1e15 f2bd d4b6 223d d479 6fbc
00000090: f1a1 023d ccab dbbd 3a24 d0bc 4bf9 98bd
000000a0: 7cc3 333e 4e89 a1bd 47c0 193e 126f cfbd
000000b0: 8660 9dbd 71ac 79bd e485 debd 8fe4 e63b
000000c0: 3ac2 463c 46e6 66be a936 4dbe 048b 63be
000000d0: c929 c43d 95e8 d1bc 019c 243e 9d7f 0bbe
000000e0: 08ce f53c 1457 0ebd abd3 ea3b 1bc6 e0bc
000000f0: 562c 4bbd 228b 8ebd 4e18 6fbd ad81 0cbe

model.fc.3.running_var f4 [64]
0.028995397 0.06141709 0.013237794 0.021446694 0.023878898 0.047292534 0.017750334 0.05131798
0.0685921 0.052285675 0.040355485 0.04260816 0.051840477 0.019452622 0.026665783 0.021562029
0.028828835 0.030580476 0.02236196 0.03805722 0.052646652 0.036328636 0.020665072 0.037725475
0.040768217 0.034797344 0.038159244 0.028019097 0.021709925 0.018709661 0.021163262 0.08134585
0.02324264 0.047141984 0.019009769 0.043048803 0.0656932 0.034602664 0.028921703 0.041216366
0.023607245 0.059531573 0.04206732 0.075122304 0.023027096 0.028926509 0.036796983 0.060602173
0.021915954 0.050108675 0.041236453 0.09001791 0.01783954 0.029689431 0.03119559 0.041153304
0.07909483 0.024430193 0.06191468 0.02852543 0.04234356 0.026461493 0.048208404 0.040046
00000000: c187 ed3c 7d90 7b3d 55e3 583c fab0 af3c
00000010: ae9d c33c d1b5 413d 2669 913c cd32 523d
00000020: 047a 8c3d 8129 563d cb4b 253d e585 2e3d
00000030: ae56 543d 1b5b 9f3c 3372 da3c daa2 b03c
00000040: 732a ec3c e883 fa3c 6e30 b73c e3e1 1b3d
00000050: 04a4 573d 56cd 143d cc49 a93c 0786 1a3d
00000060: 93fc 263d a987 0e3d de4c 1c3d 4e88 e53c
00000070: 03d9 b13c 0145 993c 945e ad3c a798 a63d
00000080: 5967 be3c f417 413d 60ba 9b3c f153 303d
00000090: 288a 863d 86bb 0d3d 35ed ec3c 7ed2 283d
000000a0: fb63 c13c 61d7 733d c84e 2c3d b9d9 993d
000000b0: 52a3 bc3c 49f7 ec3c 6fb8 163d fc39 783d
000000c0: 1689 b33c c13e 4d3d 8ee7 283d 4f5b b83d
000000d0: 3a24 923c 4037 f33c e58d ff3c 5e90 283d
000000e0: 78fc a13d d421 c83c 3f9a 7d3d 2aae e93c
000000f0: 7170 2d3d c6c5 d83c 2d76 453d 4607 243d

model.fc.6.weight f4 [32, 64]
-0.024693582 -0.18303405 -0.03550748 0.07636431 -0.07862551 -0.0018637141 0.07355933 -0.05851773
-0.14300798 -0.114896476 -0.0055245045 0.04779793 -0.0017494475 0.048895042 0.11532584 -0.040869735
0.09464083 0.002843121 0.08089277 -0.11821364 -0.036067445 0.06821976 -0.016088868 -0.00999339
-0.0838024 -0.024819482 -0.040979333 0.002584548 0.12230369 0.021099798 -0.071052104 -0.056103803
0.053804904 -0.106977455 0.03169667 -0.12590078 -0.07552919 -0.07598731 -0.08365656 0.060468454
-0.0010949895 -0.003855282 -0.0031826566 -0.0277605 0.021961879 0.06880842 -0.018066686 -0.104146935
-0.034148708 -0.09002676 0.07384492 -0.023275066 -0.09607742 -0.08499281 0.10685487 -0.08810042
-0.048705038 0.11909646 0.0561957 0.077461414 -0.033095635 0.10617192 0.029166851 -0.1456459
0.0603261 0.09417596 0.028586516 0.041622747 0.098316886 0.031878874 -0.052258383 0.086145714
0.017081331 0.054381423 0.060411356 0.08624223 0.11367936 0.043376215 0.011258153 -0.08588528
-0.11527674 0.11531618 -0.040299743 0.112824306 0.114819534 -0.083420224 -0.062127665 0.06113916
0.071227305 0.007274707 0.050720453 0.108910464 -0.054726806 -0.0793261 0.0068882434 0.12314703
0.045771934 0.09584064 0.08419933 -0.00422098 0.1447973 -0.12193709 0.09505329 0.12514804
0.05700561 0.04740805 0.043949712 0.13762574 -0.004838244 -0.06683135 -0.010382631 0.1094976
-0.05753396 0.00698287 0.10119777 -0.07867245 0.066104 0.021894015 -0.089535005 0.12133651
0.09173226 -0.039364696 0.09903579 -0.10266073 0.05011413 0.05430966 0.065326236 -0.027299814
0.058101516 0.023888778 -0.045911018 -0.008218156 -0.049435586 -0.05488623 -0.06577428 -0.019332455
0.011678022 -0.07867756 0.04142084 0.04639824 0.044053253 -0.016358122 0.09868861 0.036021005
0.037567526 0.13005045 0.08571184 0.05804343 0.022421075 -0.093326606 0.054037448 -0.046140317
-0.02308628 0.037233993 0.07299385 0.111747496 -0.10006333 0.12980355 -0.077090435 -0.10534926
-0.07158066 0.010530629 0.09885619 0.08880464 -0.12228404 0.060008913 0.0253281 0.022561044
0.09987668 0.000533413 -0.02316077 -0.12781481 0.032440126 0.078832164 -0.10600363 -0.13012327
0.05283339 -0.042082246 -0.07289061 0.118216865 -0.013375912 0.025429854 0.12511128 0.10823857
-0.08623065 0.08411089 -0.06571551 -0.055833764 0.10246336 0.09246535 -0.052708097 -0.090023495
-0.023346651 -0.02423765 0.0546311 -0.040610924 -0.13463973 -0.021663003 -0.010936634 0.046948344
0.020462371 -0.1740035 -0.04078915 0.07944898 0.07281687 0.0063850456 -0.058861498 -0.023501007
0.06284897 -0.056093633 -0.1401302 -0.12500758 -0.062014908 -0.07940833 0.029295681 0.03953263
-0.0141121205 0.09268482 0.010261717 -0.045351636 -0.110965066 0.07097377 -0.068472154 -0.14108384
-0.10751999 -0.10320919 -0.04109037 0.048117258 0.06626589 -0.032827217 -0.04763303 -0.071155265
0.08760145 -0.0011359559 0.08497736 0.08158403 -0.050713807 -0.12539154 -0.115957044 0.13216679
0.020017147 -0.1747555 -0.004281969 -0.054570094 -0.07716331 -0.021515656 0.06891874 0.010036932
0.11715362 0.09557373 0.09636557 0.0070602386 -0.03414985 -0.07633569 -0.05002621 0.0793683
00000000: 324a cabc 476d 3bbe 4b70 11bd e464 9c3d
00000010: 6906 a1bd de47 f4ba 46a6 963d 4ab0 6fbd
00000020: af70 12be d84e ebbd e706 b5bb c3c7 433d
00000030: b84d e5ba 2b46 483d f42f ec3d 0667 27bd
00000040: 0dd3 c13d a853 3a3b 1cab a53d fe19 f2bd
00000050: 75bb 13bd cdb6 8b3d cdcc 83bc 51bb 23bc
00000060: 98a0 abbd 3a52 cbbc f2d9 27bd 8561 293b
00000070: 5b7a fa3d 7cd9 ac3c c483 91bd 1acd 65bd
00000080: 8862 5c3d ff16 dbbd 5ed4 013d 22ec 00be
00000090: 0caf 9abd 3c9f 9bbd 2154 abbd c5ad 773d
000000a0: c085 8fba e6a8 7cbb 1e94 50bb fd69 e3bc
000000b0: 66e9 b33c 6eeb 8c3d 9600 94bc fd4a d5bd
000000c0: 84df 0bbd f35f b8bd 013c 973d 5aab bebc
000000d0: 3dc4 c4bd b610 aebd bad6 da3d fe6d b4bd
000000e0: ef7e 47bd d8e8 f33d 762d 663d 17a4 9e3d
000000f0: 4a8f 07bd aa70 d93d 52ef ee3c 3324 15be
00000100: 8018 773d 53df c03d 452e ea3c 9d7c 2a3d
00000110: 5d5a c93d 6c93 023d e30c 56bd 2a6d b03d
00000120: 26ee 8b3c 0ebf 5e3d e671 773d c49f b03d
00000130: b9d0 e83d 42ab 313d 1e74 383c 9fe4 afbd
00000140: 3616 ecbd e42a ec3d 5811 25bd 6e10 e73d
00000150: 8126 eb3d 39d8 aabd 9479 7ebd 0e6d 7a3d
00000160: 9fdf 913d aa60 ee3b 40c0 4f3d 730c df3d
00000170: 3729 60bd b975 a2bd c6b6 e13b 8334 fc3d
00000180: 5a7b 3b3d 1948 c43d b370 ac3d 2650 8abb
00000190: be45 143e 27ba f9bd 4dab c23d cf26 003e
000001a0: b77e 693d f22e 423d 9d04 343d c3ed 0c3e
000001b0: 228a 9ebb e0de 88bd e91b 2abc 4740 e03d
000001c0: bba8 6bbd 8fd0 e43b c740 cf3d 051f a1bd
000001d0: 8961 873d 145b b33c 215e b7bd 477f f83d
000001e0: 20de bb3d e03c 21bd 47d3 ca3d ca3f d2bd
000001f0: 7944 4d3d ce73 5e3d c3c9 853d dca3 dfbc
00000200: dbfb 6d3d 66b2 c33c 310d 3cbd 72a5 06bc
00000210: f87c 4abd 62d0 60bd aab4 86bd 195f 9ebc
00000220: 2d55 3f3c b321 a1bd e6a8 293d 150c 3e3d
00000230: 2f71 343d 7801 86bc 411d ca3d c38a 133d
00000240: 68e0 193d f22b 053e b089 af3d f3be 6d3d
00000250: 67ac b73c 0522 bfbd 5f56 5d3d a1fd 3cbd
00000260: 701f bdbc ac82 183d cd7d 953d dfdb e43d
00000270: 01ee ccbd 39eb 043e 97e1 9dbd 5ac1 d7bd
00000280: e298 92bd a988 2c3c 1d75 ca3d 35df b53d
00000290: 0e70 fabd e8cb 753d e07c cf3c f0d1 b83c
000002a0: 258c cc3d bed4 0b3a a8bb bdbc e3e1 02be
000002b0: f0df 043d c272 a13d 6e18 d9bd 093f 05be
000002c0: d367 583d 6f5e 2cbd ac47 95bd af1b f23d
000002d0: a426 5bbc 4552 d03c 2c1d 003e 2fac dd3d
000002e0: b299 b0bd 5542 ac3d da95 86bd f2b1 64bd
000002f0: 4fd8 d13d 795e bd3d 72e4 57bd 3d5e b8bd
00000300: 7a41 bfbc 098e c6bc dcc4 5f3d a457 26bd
00000310: ffde 09be 9c76 b1bc 912f 33bc e84c 403d
00000320: b4a0 a73c f92d 32be 8612 27bd 26b6 a23d
00000330: 0321 953d a539 d13b c118 71bd 2f85 c0bc
00000340: f6b6 803d 70c2 65bd 4b7e 0fbe fd01 00be
00000350: 5803 7ebd d6a0 a2bd 7ffd ef3c f8ec 213d
00000360: 8636 67bc 8ad1 bd3d c320 283c a3c2 39bd
00000370: a741 e3bd b25a 913d 213b 8cbd 4878 10be
00000380: 7133 dcbd 575f d3bd 604e 28bd 9a16 453d
00000390: 69b6 873d d575 06bd da1a 43bd dab9 91bd
000003a0: 6468 b33d 5be4 94ba 9c08 ae3d 8715 a73d
000003b0: 48b9 4fbd a466 00be e37a edbd bb56 073e
000003c0: 00fb a33c 1bf3 32be c24f 8cbb e484 5fbd
000003d0: cc07 9ebd 9a41 b0bc 4525 8d3d f271 243c
000003e0: 3dee ef3d 29bc c33d 505b c53d 9359 e73b
000003f0: b7e0 0bbd e355 9cbd 48e8 4cbd d98b a23d

model.fc.6.bias f4 [32]
0.05308107 0.011363566 0.07151997 0.019484602 -0.08497596 0.11366744 0.070872836 -0.031857725
-0.03656996 -0.060956728 -0.11657045 -0.0074378294 -0.04186646 -0.11422121 0.123306215 -0.11721888
0.06527521 -0.11157557 -0.020867059 -0.06559752 0.11378551 -0.12660922 -0.04574186 -0.111464806
-0.12283075 -0.08276737 -0.018853508 -0.12621504 -0.022714596 -0.014407556 -0.018009774 0.09901154
00000000: 896b 593d 402e 3a3c 1079 923d 2c9e 9f3c
00000010: e007 aebd 7aca e83d c725 913d 3f7d 02bd
00000020: 62ca 15bd c3ad 79bd 7dbc eebd 09b9 f3bb
00000030: 2a7c 2bbd cfec e9bd f887 fc3d 7410 f0bd
00000040: 02af 853d bc81 e4bd 65f1 aabc fe57 86bd
00000050: 6108 e93d d9a5 01be d15b 3bbd a947 e4bd
00000060: b08e fbbd f081 a9bd ac72 9abc 843e 01be
00000070: f613 babc ab0d 6cbc 3c89 93bc 90c6 ca3d

model.fc.7.weight f4 [32]
0.9448356 1.0848413 0.90324855 0.9402591 1.0456836 0.9935003 0.9769643 1.0561846
1.025072 0.92566484 1.0658985 0.97031283 0.97112334 0.9924185 0.9698045 0.99220395
1.0156957 0.9615872 0.99918115 0.9400794 0.96576333 1.0890563 0.9933547 0.9553394
0.9627476 0.9788159 0.98273426 1.0178715 0.92901295 0.9217416 0.99113667 0.9591322
00000000: bfe0 713f 14dc 8a3f 4c3b 673f d2b4 703f
00000010: f6d8 853f 0956 7e3f 551a 7a3f 0f31 873f
00000020: 8f35 833f 5ff8 6c3f 5d6f 883f 6c66 783f
00000030: 8a9b 783f 240f 7e3f 1c45 783f 1401 7e3f
00000040: 5102 823f 942a 763f 56ca 7f3f 0ba9 703f
00000050: 443c 773f 3266 8b3f 7e4c 7e3f 1f91 743f
00000060: a076 763f ae93 7a3f 7994 7b3f 9d49 823f
00000070: cbd3 6d3f 42f7 6b3f 22bb 7d3f b089 753f

model.fc.7.bias f4 [32]
0.01919351 -0.08812533 -0.0486643 -0.0022068347 0.016265454 -0.036687907 -0.10150362 -0.007848991
-0.036980882 0.034898143 0.024245305 0.054461937 -0.02584625 0.075758345 -0.025954684 0.06442463
-0.0065375264 -0.028389223 -0.030135322 -0.022885153 0.06603183 0.0024983543 -0.032379117 -0.10740385
-0.011297083 0.040787015 -0.07199036 0.05311573 0.02665676 -0.017456345 -0.048490334 0.0354896
00000000: b53b 9d3c 0e7b b4bd 3854 47bd 8ba0 10bb
00000010: 213f 853c 0f46 16bd 21e1 cfbd 0e99 00bc
00000020: 4479 17bd 5bf1 0e3d 179e c63c 7b13 5f3d
00000030: 84bb d3bc 3127 9b3d eb9e d4bc 0ff1 833d
00000040: bf38 d6bb 8490 e8bc 5ade f6bc a579 bbbc
00000050: b23b 873d 6ebb 233b f79f 04bd 8df6 dbbd
00000060: 6717 39bc 4910 273d af6f 93bd e18f 593d
00000070: 475f da3c 9c00 8fbc cd9d 46bd 8b5d 113d

model.fc.7.running_mean f4 [32]
-0.10701114 0.4614381 0.21893823 -0.20718402 -0.20245391 0.41618624 0.13914555 -0.12952255
0.2248531 -0.14610869 -0.17617972 -0.34310985 0.2648097 -0.3954497 -0.06984682 -0.18174383
0.027960204 -0.3951028 0.0017575817 -0.35091746 -0.06532393 -0.25664395 0.16987324 -0.17222524
-0.17462397 -0.17780252 -0.24535887 -0.15966862 -0.24053448 0.06858245 -0.06565447 -0.102042854
00000000: a828 dbbd 9d41 ec3e 5831 603e 0c28 54be
00000010: 1450 4fbe 5d16 d53e 2c7c 0e3e 8fa1 04be
00000020: e43f 663e 849d 15be 7568 34be 18ac afbe
00000030: 2395 873e 6278 cabe d90b 8fbd 0e1b 3abe
00000040: cc0c e53c ea4a cabe a85e e63a 74ab b3be
00000050: 8dc8 85bd d666 83be 40f3 2d3e d05b 30be
00000060: a0d0 32be dd11 36be 5b3f 7bbe 2c80 23be
00000070: ac4e 76be f574 8c3d da75 86bd d8fb d0bd

model.fc.7.running_var f4 [32]
0.9527828 1.3178384 0.39176726 1.2504314 1.0840924 0.8286006 0.5521893 0.8046424
0.9838395 0.41412213 0.83356845 0.7741746 0.86676043 0.9156522 0.37495098 1.1448832
0.90863615 0.6294664 1.2340819 0.45995867 0.45860934 0.8279755 1.018314 1.1260984
0.6691079 0.4200161 0.55038327 0.7466861 0.85634816 0.25039122 1.017632 1.147068
00000000: 93e9 733f eeae a83f b895 c83e 230e a03f
00000010: 8ac3 8a3f 2b1f 543f 475c 0d3f 0bfd 4d3f
00000020: e8dc 7b3f d107 d43e be64 553f 4e30 463f
00000030: 03e4 5d3f 2f68 6a3f 93f9 bf3e 888b 923f
00000040: 619c 683f b624 213f 65f6 9d3f b47f eb3e
00000050: d8ce ea3e 34f6 533f 1d58 823f fe23 903f
00000060: a84a 2b3f 5a0c d73e ebe5 0c3f d226 3f3f
00000070: a239 5b3f 4733 803e c441 823f 20d3 923f

model.fc.10.weight f4 [16, 32]
0.07715862 -0.0877196 0.08178918 -0.05794824 -0.040400658 -0.14070752 -0.18918249 -0.22113986
-0.16375342 0.06853931 -0.11687394 0.12612444 -0.20645349 -0.1005734 0.07409195 0.018896356
-0.049822405 0.15294537 -0.17829078 -0.0346262 0.07376527 -0.12715891 -0.17296183 0.04609894
-0.09660551 -0.1037356 -0.1575049 -0.2696446 0.12447201 0.154093 0.072289705 0.015796179
-0.15161252 0.08310878 -0.022943469 -0.23949121 0.08150342 -0.18045579 0.066589735 0.047329172
-0.022867939 0.0434406 -0.10730889 0.11206388 0.13374002 0.103701845 0.00030384221 -0.10144295
-0.08577314 0.005448967 0.021860667 0.045747053 0.06876673 0.15196384 -0.027249409 0.11126069
0.0182448 -0.023007715 0.14123791 0.03031965 -0.19016361 -0.044132486 0.13238631 0.03168768
0.02238252 -0.07073114 -0.0697295 0.010073191 0.18492542 0.10675507 -0.017362364 0.17300646
0.08341348 -0.12543401 0.16682915 0.020154428 0.081170075 0.048746224 0.14616252 -0.22173348
0.02678369 -0.09936273 -0.016991768 0.15504692 0.06578051 0.0069254027 0.013633188 0.15742889
0.06986505 -0.015793635 0.086870685 0.09267329 -0.115239814 0.08081078 0.14195155 -0.21219255
-0.033009432 -0.20090757 -0.16220863 -0.007320203 -0.09800419 -0.15700823 0.0046040793 -0.15842831
-0.21588165 0.08598767 0.036023818 -0.020825539 -0.11425326 0.047558118 0.04812304 0.08891458
0.053662486 0.043668397 0.013690151 0.047093567 0.07213774 -0.11181805 0.095240064 -0.06678538
0.0071363184 0.109319516 0.08331802 -0.21404532 -0.05061049 0.011134067 -0.13565774 -0.027488329
-0.19951867 0.17202951 0.15665683 0.08593783 0.041572787 -0.02389951 0.026915282 0.155789
-0.036190942 -0.024306415 0.092477694 -0.1747563 0.08937279 -0.25197142 0.092085116 -0.1468609
0.14578061 0.037110526 0.050644517 -0.0062900577 -0.003109388 -0.11559503 0.07278317 -0.058628052
-0.055403538 -0.14943224 0.029906277 0.079741165 0.04896003 0.06726989 0.029690651 0.05621608
0.17156038 0.1315316 -0.057250477 0.074580565 -0.12936293 0.17626174 0.044489335 0.027464729
0.07467214 -0.20065598 -0.04807601 -0.09896071 -0.0016046326 0.033936687 -0.072095245 -0.06628837
-0.16588894 0.106322855 -0.00056212867 0.035262834 -0.1951756 0.055182744 -0.19578455 -0.029685505
-0.027918197 -0.13488369 -0.1097597 0.095088415 -0.06639579 -0.07434774 0.031233558 0.10085473
-0.0631659 -0.005932388 -0.12321793 0.044784196 -0.075357035 -0.02810968 0.11216872 -0.039143313
-0.07015345 -0.1698746 -0.19849479 0.09681177 -0.093079045 0.05954618 0.13575865 -0.1183229
-0.103424996 -0.18376903 -0.17844532 0.15218484 0.0604492 -0.03908983 -0.0546262 0.11723347
0.05103543 0.09884464 0.03582629 0.051505722 0.09570913 -0.058663238 0.0016623773 -0.0134585
-0.15322763 0.15003113 -0.10844768 -0.04597524 0.026178079 0.05074327 0.14590728 0.019923745
0.17563756 0.045492448 -0.00021085134 -0.15249933 -0.0038360767 -0.1923892 -0.020717999 -0.010009006
0.020237684 -0.16854416 0.13874139 -0.13190025 0.04446521 0.109838404 0.053104192 0.053081628
-0.12412559 -0.18395686 -0.086345844 -0.08247517 0.013616416 -0.11270697 -0.008165182 -0.091373034
00000000: 5705 9e3d 55a6 b3bd 1681 a73d 225b 6dbd
00000010: 297b 25bd a215 10be 0eb9 41be 7d72 62be
00000020: faae 27be 565e 8c3d 9b5b efbd c426 013e
00000030: 8b68 53be 6df9 cdbd 85bd 973d 88cc 9a3c
00000040: 9412 4cbd b69d 1c3e dc91 36be 34d4 0dbd
00000050: 3f12 973d f235 02be e81c 31be 3ed2 3c3d
00000060: 1cd9 c5bd 5573 d4bd f748 21be db0e 8abe
00000070: 2eeb fe3d 8eca 1d3e a00c 943d fd66 813c
00000080: 5040 1bbe f034 aa3d f1f3 bbbc 2f3d 75be
00000090: 44eb a63d 67c9 38be 3360 883d 3cdc 413d
000000a0: 8b55 bbbc c5ee 313d c3c4 dbbd bf81 e53d
000000b0: 25f3 083e a261 d43d 034d 9f39 52c1 cfbd
000000c0: d4a9 afbd 408d b23b 2415 b33c 4361 3b3d
000000d0: 92d5 8c3d 699c 1b3e 273a dfbc a5dc e33d
000000e0: 1e76 953c ad7a bcbc aca0 103e ea60 f83c
000000f0: 40ba 42be 44c4 34bd 4790 073e f1ca 013d
00000100: 8c5b b73c 7ddb 90bd 57ce 8ebd 060a 253c
00000110: 175d 3d3e 67a2 da3d 843b 8ebc 9b28 313e
00000120: b0d4 aa3d c671 00be 43d5 2a3e e61a a53c
00000130: 7f3c a63d 1faa 473d a1ab 153e 1a0e 63be
00000140: 7869 db3c b07e cbbd 5232 8bbc 9fc4 1e3e
00000150: efb7 863d 7dee e23b bc5d 5f3c 0a35 213e
00000160: 6815 8f3d a761 81bc 42e9 b13d 7ecb bd3d
00000170: da02 ecbd 1f80 a53d bf5b 113e 0149 59be
00000180: e634 07bd b7ba 4dbe 051a 26be 50de efbb
00000190: 6cb6 c8bd c4c6 20be d1dd 963b 083b 22be
000001a0: 1410 5dbe 4e1a b03d b68d 133d 529a aabc
000001b0: 9dfd e9bd 4dcc 423d aa1c 453d d918 b63d
000001c0: 32cd 5b3d a2dd 323d a84c 603c 2fe5 403d
000001d0: f4bc 933d dd00 e5bd 390d c33d c6c6 88bd
000001e0: c7d7 e93b e9e2 df3d a3a2 aa3d b22e 5bbe
000001f0: f24c 4fbd a96b 363c dde9 0abe 342f e1bc
00000200: 9f4e 4cbe 8128 303e a66a 203e 2c00 b03d
00000210: 3a48 2a3d e8c8 c3bc 707d dc3c 2787 1f3e
00000220: f43c 14bd 3f1e c7bc f264 bd3d 51f3 32be
00000230: 1509 b73d 6602 81be 1f97 bc3d b462 16be
00000240: 8347 153e 3501 183d a070 4f3d d41c cebb
00000250: e0c6 4bbb 16bd ecbd 580f 953d f823 70bd
00000260: d2ee 62bd c404 19be 02fe f43c 564f a33d
00000270: 508a 483d ccc4 893d cf39 f33c d542 663d
00000280: 86ad 2f3e 38b0 063e 7a7f 6abd b2bd 983d
00000290: b777 04be f57d 343e 733a 363d b6fd e03c
000002a0: b5ed 983d c378 4dbe 5aeb 44bd eaab cabd
000002b0: 8952 d2ba 3201 0b3d aca6 93bd 32c2 87bd
000002c0: cade 29be ccbf d93d d15b 13ba c36f 103d
000002d0: 1ddc 47be 4d07 623d bf7b 48be 042f f3bc
000002e0: b4b4 e4bc f31e 0abe b2c9 e0bd b7bd c23d
000002f0: 84fa 87bd a143 98bd 85dd ff3c ed8c ce3d
00000300: 205d 81bd 7a64 c2bb af59 fcbd a26f 373d
00000310: ca54 9abd 4646 e6bc b7b8 e53d bd54 20bd
00000320: 9dac 8fbd 9bf3 2dbe 3842 4bbe 4045 c63d
00000330: 3aa0 bebd b2e6 733d 5104 0b3e 4753 f2bd
00000340: 7cd0 d3bd f32d 3cbe 5fba 36be 58d6 1b3e
00000350: 9599 773d a81c 20bd b9bf 5fbd 1a18 f03d
00000360: 870a 513d 0f6f ca3d 96be 123d aaf7 523d
00000370: 2603 c43d dd48 70bd 20e4 d93a 0a81 5cbc
00000380: b4e7 1cbe c3a1 193e d119 debd 8950 3cbd
00000390: 6973 d63c 2dd8 4f3d b868 153e 1f37 a33c
000003a0: 55da 333e 4a56 3a3d fa17 5db9 c928 1cbe
000003b0: b066 7bbb ad01 45be cbb8 a9bc d0fc 23bc
000003c0: 80c9 a53c d796 2cbe 3912 0e3e dc10 07be
000003d0: 2721 363d f5f2 e03d c883 593d 1f6c 593d
000003e0: 8f35 febd 305f 3cbe 17d6 b0bd bee8 a8bd
000003f0: 6317 5f3c e9d2 e6bd 41c7 05bc c921 bbbd

model.fc.10.bias f4 [16]
-0.08527827 -0.12817566 -0.081080996 -0.054883756 -0.034573324 -0.097228795 -0.12495002 0.088634744
-0.008863109 0.009659388 -0.066587344 -0.11056286 0.0020174838 0.14615428 -0.084123835 -0.123388834
00000000: 60a6 aebd 7b40 03be cb0d a6bd cacd 60bd
00000010: c29c 0dbd e41f c7bd cce5 ffbd 2286 b53d
00000020: 9336 11bc 6942 1e3c f25e 88bd c86e e2bd
00000030: c337 043b 78a9 153e 1e49 acbd 49b3 fcbd

model.fc.11.weight f4 [16]
0.9462605 1.0647223 1.0307162 0.9500398 1.0417005 0.97854286 0.9276388 1.0226566
0.90531605 0.9397205 1.0255992 0.9515491 0.9935871 1.0420275 0.9227737 0.9114082
00000000: 213e 723f d248 883f 82ee 833f cf35 733f
00000010: 7156 853f c981 7a3f bd79 6d3f 69e6 823f
00000020: cbc2 673f 8691 703f d646 833f b998 733f
00000030: b95b 7e3f 2861 853f e63a 6c3f 0c52 693f

model.fc.11.bias f4 [16]
-0.034005824 -0.017087715 0.059087556 -0.061890505 0.05065268 -0.017380286 0.06354773 -0.0377041
-0.021530677 -0.010383449 -0.027605258 0.061802734 0.013898581 -0.07128952 -0.05797247 0.055563714
00000000: b149 0bbd 89fb 8bbc cb05 723d e680 7dbd
00000010: 2f79 4f3d 1a61 8ebc 5025 823d 9d6f 1abd
00000020: 1a61 b0bc 571f 2abc 6c24 e2bc dd24 7d3d
00000030: e0b6 633c 3d00 92bd 8a74 6dbd c796 633d

model.fc.11.running_mean f4 [16]
-0.4212113 -0.07977533 0.12966904 -0.2847359 -0.0066596856 -0.19457261 -0.25920612 -0.082321845
-0.15969218 0.05414079 -0.4568369 -0.068037175 -0.16980289 -0.06563422 -0.26925096 -0.48729378
00000000: 02a9 d7be 4061 a3bd f6c7 043e e7c8 91be
00000010: 7e39 dabb 0b3e 47be aab6 84be 5b98 a8bd
00000020: 5986 23be bcc2 5d3d 87e6 e9be 1357 8bbd
00000030: cfe0 2dbe 3c6b 86bd 43db 89be 927e f9be

model.fc.11.running_var f4 [16]
1.1198161 0.44909048 1.0544888 0.663662 0.81138074 0.6401505 0.6328897 0.7600356
0.7473119 0.64774185 0.986295 0.6326536 0.71560997 1.1747949 0.5905075 1.0217496
00000000: 2256 8f3f 30ef e53e 7df9 863f c1e5 293f
00000010: a6b6 4f3f e7e0 233f 0f05 223f b191 423f
00000020: d54f 3f3f 69d2 253f d47d 7c3f 96f5 213f
00000030: 3732 373f ae5f 963f 802b 173f b1c8 823f

model.fc.14.weight f4 [8, 16]
0.1833068 -0.0792981 -0.16409545 0.1294445 -0.18186352 0.0941995 0.05514218 -0.28544977
-0.11407818 -0.21068597 0.16170025 -0.16381268 0.15873182 0.015481834 -0.017970435 -0.05398265
0.07276116 -0.16990806 -0.2393237 0.27258065 -0.09584368 -0.1301007 -0.1681285 -0.12834555
-0.16166812 0.0030937584 0.00115343 0.013146786 0.13815896 0.0067531853 0.117957 0.15188172
-0.12994021 0.19797967 0.18746158 0.10099324 -0.14694358 -0.055791512 0.053977318 -0.06495579
0.12263737 0.18016118 -0.12392218 0.27080426 -0.06722885 0.0033211233 -0.035196412 -0.0291913
0.17189427 -0.016697297 0.07381821 -0.17814022 0.19815579 -0.08617483 -0.27245814 0.105774164
-0.099358924 -0.290041 -0.3101811 0.054662883 -0.044350773 0.2556222 -0.09254536 -0.17420658
0.20215875 0.036885303 -0.0035192256 0.18901977 -0.14965779 -0.037453245 0.13204731 -0.24696979
-0.21047467 -0.080290385 -0.051880322 0.0942068 -0.115170576 -0.10463967 0.24257451 0.031722147
-0.06488789 -0.10539528 -0.10847143 -0.2720556 -0.053625606 0.21219784 0.053072132 0.17737769
-0.019976126 0.11788267 0.2541954 -0.170477 -0.17236319 -0.103168584 -0.05861773 0.12474258
0.15036409 -0.12759596 -0.13226824 0.04453372 -0.19169495 -0.08068148 -0.11292927 -0.13881008
-0.1559093 -0.09516004 0.09342706 -0.11225936 0.23621121 -0.08027473 -0.052283384 0.21069351
-0.08984187 -0.039247088 0.057302155 0.014842995 0.11153048 -0.02384896 -0.12856416 0.09240481
0.11917109 -0.07156557 0.14357202 -0.045961134 -0.1420535 0.17134516 -0.1844187 -0.22441345
00000000: c7b4 3b3e 0b67 a2bd a308 28be 198d 043e
00000010: 6e3a 3abe abeb c03d c4dc 613d 7926 92be
00000020: d2a1 e9bd 10be 57be c094 253e 83be 27be
00000030: 988a 223e 85a7 7d3c bc36 93bc e91c 5dbd
00000040: ce03 953d 61fc 2dbe 4611 75be b18f 8b3e
00000050: b149 c4bd 1e39 05be e129 2cbe 046d 03be
00000060: 548c 25be a7c0 4a3b b02e 973a 9e65 573c
00000070: 8b79 0d3e d349 dd3b 7193 f13d e286 1b3e
00000080: 0c0f 05be 2fbb 4a3e eef5 3f3e 8bd5 ce3d
00000090: 6178 16be a485 64bd 5217 5d3d 8b07 85bd
000000a0: 4d29 fb3d 2c7c 383e e9ca fdbd dba6 8a3e
000000b0: 48af 89bd 34a7 593b 1d2a 10bd 9822 efbc
000000c0: 0d05 303e c5c8 88bc 002e 973d 646a 36be
000000d0: 5ae9 4a3e 6e7c b0bd a27f 8bbe 20a0 d83d
000000e0: b17c cbbd 4180 94be 0fd0 9ebe 30e6 5f3d
000000f0: 28a9 35bd eae0 823e 6c88 bdbd 3663 32be
00000100: b402 4f3e 0b15 173d cfa2 66bb 668e 413e
00000110: e43f 19be 9368 19bd 6937 073e a6e5 7cbe
00000120: ac86 57be 496f a4bd 7680 54bd 7fef c03d
00000130: 8dde ebbd 534d d6bd 7465 783e 15ef 013d
00000140: f1e3 84bd 7bd9 d7bd 4526 debd df4a 8bbe
00000150: 86a6 5bbd 644a 593e 2a62 593d 7fa2 353e
00000160: f9a4 a3bc 786c f13d e625 823e 8691 2ebe
00000170: fa7f 30be 0d4a d3bd 2519 70bd 0a79 ff3d
00000180: 0bf9 193e 84a8 02be 5371 07be fd68 363d
00000190: ae4b 44be 553c a5bd 7647 e7bd 3b24 0ebe
000001a0: b0a6 1fbe 44e3 c2bd b056 bf3d 3ce8 e5bd
000001b0: 5ae1 713e 1467 a4bd 1a27 56bd 0ac0 573e
000001c0: 04ff b7bd 8ec1 20bd aab5 6a3d 0930 733c
000001d0: 186a e43d e55e c3bc 53a6 03be bc3e bd3d
000001e0: f90f f43d f890 92bd 8b04 133e be41 3cbd
000001f0: 7976 11be 1b75 2f3e 41d8 3cbe a4cc 65be

model.fc.14.bias f4 [8]
-0.13966505 -0.03407372 -0.11749018 0.05813591 -0.23507327 -0.073182926 -0.07896758 0.22716904
00000000: 5b04 0fbe e390 0bbd b19e f0bd ec1f 6e3d
00000010: 0cb7 70be eee0 95bd c1b9 a1bd 009f 683e

model.fc.15.weight f4 [8]
1.395369 1.4694805 1.3976707 1.3956901 1.4509265 1.3106254 1.4743713 1.4103378
00000000: 749b b23f f017 bc3f e0e6 b23f f9a5 b23f
00000010: f6b7 b93f 93c2 a73f 33b8 bc3f f385 b43f

model.fc.15.bias f4 [8]
0.38441807 0.41694492 -0.018844547 0.21257855 0.44550884 0.09836708 0.45434883 0.12197139
00000000: 72d2 c43e ce79 d53e e15f 9abc 31ae 593e
00000010: bc19 e43e ae74 c93d 69a0 e83e 23cc f93d

model.fc.15.running_mean f4 [8]
-0.26951906 -0.14610475 -0.00014186418 -0.08811117 -0.27092862 -0.121107526 -0.20935401 0.1710655
00000000: 67fe 89be 7c9c 15be 60c1 14b9 a173 b4bd
00000010: 28b7 8abe 3907 f8bd e660 56be cb2b 2f3e

model.fc.15.running_var f4 [8]
0.7014226 0.6201836 0.48460126 0.6805518 0.4343004 0.38980287 0.7339821 0.30790174
00000000: 6e90 333f 5ac4 1e3f a81d f83e a538 2e3f
00000010: 9f5c de3e 3e94 c73e 40e6 3b3f 4ca5 9d3e

model.fc.18.weight f4 [4, 8]
-0.51272416 -0.40479022 0.657216 -0.6119217 0.20276545 -0.6514179 -0.5826276 -0.7826584
-0.6207878 -0.10217833 0.13957813 0.71413416 -0.4788006 -0.55570424 -0.43972373 0.3725175
0.5391914 0.6462975 -0.6455076 -0.22983038 0.44346827 -0.03737555 0.41635427 -0.43396777
-0.215358 -0.14444785 -0.0257424 -0.5792324 -0.41901898 0.59265643 -0.17019501 0.17300881
00000000: e441 03bf aa40 cfbe 4f3f 283f e7a6 1cbf
00000010: bfa1 4f3e 53c3 26bf 1527 15bf 4d5c 48bf
00000020: f3eb 1ebf df42 d1bd 92ed 0e3e 7fd1 363f
00000030: 5a25 f5be a242 0ebf 7823 e1be 9dba be3e
00000040: 7308 0a3f c173 253f fc3f 25bf a858 6bbe
00000050: 460e e33e 1b17 19bd 632c d53e 0631 debe
00000060: cf86 5cbe 23ea 13be bae1 d2bc 9348 14bf
00000070: a889 d6be 55b8 173f 9a47 2ebe 3929 313e

model.fc.18.bias f4 [4]
-0.39665797 -0.14103295 0.100634135 -0.17005366
00000000: c116 cbbe f16a 10be 4519 ce3d 8c22 2ebe
